pengujian_split_data/97,7-2,3/cnn/cnn_model_4.pth (torch, 320240 bytes, 3 tensors)

conv1.weight f4 [4, 1, 4, 4]
0.04821125 -0.20687671 -0.15367736 -0.113069944 0.09323804 -0.2550895 -0.13925889 -0.03581081
-0.04190859 0.13808675 -0.104828164 0.16893199 -0.04640839 -0.18818524 0.12221642 -0.10020954
-0.18148021 0.03352754 0.2224846 -0.19601916 0.018417671 -0.09423604 0.24568617 0.00493284
0.058929425 -0.13788946 -0.23864546 -0.20091014 0.09262824 0.08248138 -0.0046140566 0.11014696
-0.117392614 -0.14274815 0.16393793 0.2590665 0.051517922 -0.23248023 -0.07224315 -0.11856048
-0.14174315 0.12281167 -0.12043766 -0.1792348 0.020919299 0.18476953 0.22035027 -0.2248255
-0.063458264 -0.14836799 0.14479439 -0.15010583 0.06513944 0.19866301 -0.20770764 0.00040739906
0.0010339023 0.24590468 0.22913384 0.14322124 -0.10144647 0.09226449 0.041926637 -0.11947
00000000: 2979 453d 7dd7 53be 995d 1dbe 3791 e7bd
00000010: 96f3 be3d 179b 82be e299 0ebe 5bae 12bd
00000020: 57a8 2bbd 9d66 0d3e 26b0 d6bd 82fc 2c3e
00000030: b916 3ebd a2b3 40be 9a4c fa3d a93a cdbd
00000040: f3d5 39be 2c54 093d 01d3 633e 3fb9 48be
00000050: a8e0 963c d3fe c0bd 2895 7b3e a9a3 a13b
00000060: fb5f 713d e532 0dbe 7a5f 74be 63bb 4dbe
00000070: e0b3 bd3d ffeb a83d 8331 97bb bb94 e13d
00000080: 8a6b f0bd 922c 12be 58df 273e 5da4 843e
00000090: 7504 533d 4c0f 6ebe 37f4 93bd d6cf f2bd
000000a0: 1e25 11be af84 fb3d 05a8 f6bd 5489 37be
000000b0: f35e ab3c 3934 3d3e 80a3 613e a838 66be
000000c0: 68f6 81bd c7ed 17be fb44 143e 58b5 19be
000000d0: d467 853d 516e 4b3e 50b1 54be 2d98 d539
000000e0: 0184 873a 70ce 7b3e 10a2 6a3e 97a8 123e
000000f0: 2bc3 cfbd 2af5 bc3d 44bb 2b3d b0ac f4bd

conv1.bias f4 [4]
-0.17203018 0.10953995 0.118744165 -0.15859404
00000000: ae28 30be 7b56 e03d 2430 f33d 7a66 22be

fc1.weight f4 [1, 79524]
-1.1400105e-05 2.7665124e-08 -1.1126613e-05 2.0867587e-06 -1.2243518e-06 9.58694e-05 -6.0879323e-05 8.657086e-05
-0.00014514303 3.8363346e-06 -9.4009806e-08 6.172946e-06 -1.2990783e-06 -4.442777e-06 -1.2183992e-05 -2.4975986e-06
-5.828675e-06 -6.6617804e-07 6.88663e-05 1.8961835e-05 -5.204638e-06 -1.5348578e-06 0.0003178125 0.008925386
0.016555486 0.0038254655 -0.00036724165 4.270427e-05 -8.3292925e-06 -5.4908564e-06 3.6461367e-06 -3.2888456e-05
-0.0004404997 0.0006104358 0.010643795 0.010093073 0.0014277103 -9.693431e-05 -0.0038245718 -0.00082040706
4.0649716e-06 7.3977144e-06 1.1781139e-05 2.8155323e-06 -2.8658244e-06 -5.183115e-07 -9.419151e-06 1.6020982e-06
-1.2504806e-05 -0.003604157 0.0002806305 0.0022238311 0.0011208307 -0.00049232604 -0.00048548664 8.691156e-06
-2.929296e-06 1.5290214e-05 7.0247424e-06 -0.0007851477 -0.00069838844 -0.0015631085 -5.255362e-05 -5.2662726e-06
2.2136053e-05 -2.1875372e-05 4.523757e-06 2.5009354e-07 1.8438757e-06 1.0234073e-05 -1.8383694e-06 5.4602374e-06
3.7885084e-06 -6.2399436e-06 0.00010313602 8.461409e-05 0.0002781129 -0.004677185 -0.0073120813 -0.0048587956
8.769959e-06 0.001886194 0.0023305377 0.024918051 0.007930833 0.00033568524 -0.0037800388 -0.007915223
-0.00012754864 0.001485825 0.00053918106 -0.000492219 -8.853561e-05 -0.00010381654 -8.6485825e-06 0.00093243446
0.0012468427 -5.314965e-05 -6.3734183e-06 2.8921413e-06 -1.751486e-06 -3.7337334e-06 5.6234603e-06 -2.5575431e-05
-0.00022318785 1.8229384e-06 6.02833e-06 -3.7144986e-05 -4.9435363e-05 1.7499935e-06 -4.3669615e-06 3.5135745e-05
9.130135e-05 0.00034455245 0.00020536693 7.2954645e-05 0.0004024134 0.00034509384 -0.00014023713 4.7813868e-05
-0.006525954 -4.345272e-05 0.00027195914 0.016554015 0.024745056 0.018654576 0.005470056 0.0050271978
-3.995005e-05 0.00035986453 0.0004330636 4.4009357e-07 -7.572652e-05 -0.00027908236 0.00019882988 3.5618377e-06
0.00061764533 -0.00017904823 -4.5791225e-05 0.0004280749 9.779891e-05 6.981283e-06 -2.5102377e-06 -2.904031e-06
8.814204e-06 1.0527425e-05 5.173639e-05 -0.00031619467 0.00010445184 0.00023238141 1.5069111e-05 3.1149918e-06
-1.7075068e-06 -4.9010077e-06 9.272135e-07 -0.00011481451 -0.00019500862 1.3971122e-05 1.07659625e-05 -1.4474288e-06
1.9421761e-06 2.658623e-06 4.059597e-05 8.7923045e-06 -1.3130379e-05 0.0003604876 -1.2461667e-05 -0.00042621244
-7.467979e-05 -4.7434794e-05 1.325131e-06 -3.6697616e-06 -2.2803939e-05 -0.0007660745 -6.433849e-05 0.00080655434
-3.089517e-05 -0.0049113887 -0.0075266813 -0.0014478674 -8.531335e-06 -5.431202e-06 4.544154e-08 -5.8984333e-06
9.0376045e-07 2.7626345e-06 5.153843e-06 8.428397e-07 5.3373556e-06 5.8060778e-06 -0.00011243229 0.001516049
0.00015882308 -0.009235702 -0.0038698567 -8.580485e-06 -1.0969036e-05 8.258942e-07 -1.49261e-06 -0.00014413765
-5.321551e-05 -9.589998e-05 -0.008166746 -0.001404018 -1.8192757e-05 8.467923e-06 -1.696622e-05 4.6881005e-06
3.930947e-06 -2.2996733e-06 1.4196079e-05 3.950284e-06 3.0710344e-06 -8.794826e-06 1.4542084e-05 -0.0005467999
9.5147225e-05 0.00011502935 -0.0026293087 -0.0008590153 -0.00023231537 6.791901e-05 0.0017591126 0.0050435676
0.024019202 0.0035351452 0.00021438133 -0.00088962616 -0.0021377418 -0.0018451791 0.00042360483 0.0005239276
-0.0005563826 -8.744308e-05 -0.00021897929 1.3024567e-05 0.0012804697 0.00058094587 0.00033144755 -3.4706572e-06
-9.935484e-06 -7.52769e-06 -3.8097041e-06 5.472084e-05 -0.015057845 -0.00010436021 5.738904e-05 -3.0819795e-06
-4.5609908e-05 -0.0023861483 -2.579798e-06 -1.2428745e-05 -0.0037814162 -0.004045914 0.00010648124 3.170496e-05
00000000: 1443 3fb7 40a4 ed32 70ac 3ab7 3e0a 0c36
00000010: 6854 a4b5 7e0d c938 ad58 7fb8 608d b538
00000020: 8931 18b9 ddb9 8036 70e2 c9b3 3421 cf36
00000030: fe5b aeb5 2a13 95b6 d969 4cb7 6b9c 27b6
00000040: f093 c3b6 68d3 32b5 506c 9038 3b10 9f37
00000050: 80a3 aeb6 5001 ceb5 12a0 a639 c83b 123c
00000060: 5f9f 873c a9b4 7a3b 578a c0b9 5c1d 3338
00000070: 0abe 0bb7 193e b8b6 27b0 7436 b6f1 09b8
00000080: def2 e6b9 a705 203a 5063 2e3c 6b5d 253c
00000090: 0222 bb3a 3649 cbb8 aba5 7abb 9610 57ba
000000a0: d765 8836 e239 f836 9ba7 4537 7af2 3c36
000000b0: 7d52 40b6 1822 0bb5 f206 1eb7 ad07 d735
000000c0: bccb 51b7 b833 6cbb 9721 9339 b2bd 113b
000000d0: d6e8 923a 710f 01ba ea88 feb9 3bd0 1137
000000e0: ec94 44b6 7c43 8037 14b6 eb36 5fd2 4dba
000000f0: 0e14 37ba 38e1 ccba 056d 5cb8 f0b4 b0b6
00000100: d0b0 b937 0181 b7b7 c7ca 9736 9844 8634
00000110: 167b f735 02b3 2b37 e4bd f6b5 1537 b736
00000120: 143e 7e36 b560 d1b6 bb4a d838 d872 b138
00000130: aecf 9139 1243 99bb 2f9a efbb 8836 9fbb
00000140: b022 1337 2b3a f73a efbb 183b f120 cc3c
00000150: 53f0 013c e9fe af39 87ba 77bb daae 01bc
00000160: 94be 05b9 04c0 c23a d457 0d3a 4208 01ba
00000170: 32ac b9b8 15b8 d9b8 6119 11b7 9e6e 743a
00000180: 196d a33a 01ed 5eb8 3fdb d5b6 9c16 4236
00000190: 9a14 ebb5 0d91 7ab6 28b1 bc36 d28a d6b7
000001a0: 8807 6ab9 b0ab f435 f646 ca36 20cc 1bb8
000001b0: d158 4fb8 52e1 ea35 ea87 92b6 b85e 1338
000001c0: 0a79 bf38 0ca5 b439 c457 5739 3aff 9838
000001d0: 03fb d239 b6ed b439 9e0c 13b9 c08b 4838
000001e0: acd7 d5bb 0141 36b8 bd95 8e39 499c 873c
000001f0: 25b6 ca3c 7bd1 983c 283e b33b 31bb a43b
00000200: 0a90 27b8 33ac bc39 d00c e339 0046 ec34
00000210: 5ecf 9eb8 cd51 92b9 fd7c 5039 e807 6f36
00000220: 7ae9 213a e5be 3bb9 f40f 40b8 3e6f e039
00000230: 6419 cd38 c440 ea36 8e75 28b6 dfe2 42b6
00000240: b8e0 1337 f29e 3037 87ff 5838 eec6 a5b9
00000250: 280d db38 69ab 7339 57d1 7c37 270b 5136
00000260: 7d2d e5b5 5673 a4b6 a0e5 7835 92c8 f0b8
00000270: 3a7b 4cb9 8365 6a37 759f 3437 4645 c2b5
00000280: 5556 0236 cc6a 3236 9745 2a38 a982 1337
00000290: 8c4a 5cb7 d4ff bc39 7412 51b7 4475 dfb9
000002a0: 689d 9cb8 b9f4 46b8 28db b135 0646 76b6
000002b0: 164b bfb7 64d2 48ba 77ed 86b8 f26e 533a
000002c0: 7095 01b8 b7ef a0bb 61a2 f6bb 5ec6 bdba
000002d0: ce21 0fb7 ac3d b6b6 802b 4333 28eb c5b6
000002e0: f299 7235 b365 3936 2def ac36 813f 6235
000002f0: 8917 b336 d4d1 c236 a0c9 ebb8 2ab6 c63a
00000300: bf89 2639 5851 17bc 6c9d 7dbb e7f4 0fb7
00000310: a707 38b7 04b3 5d35 b055 c8b5 a823 17b9
00000320: b833 5fb8 e91d c9b8 d1cd 05bc 0707 b8ba
00000330: a69c 98b7 7411 0e37 ae52 8eb7 7a4e 9d36
00000340: 94e6 8336 1654 1ab6 b22b 6e37 ae8c 8436
00000350: f817 4e36 7d8d 13b7 c6f9 7337 1f57 0fba
00000360: c789 c738 e93b f138 7b50 2cbb 8a2f 61ba
00000370: af99 73b9 be6f 8e38 0692 e63a 8344 a53b
00000380: ebc3 c43c e5ad 673b 8dcb 6039 cd35 69ba
00000390: 5b19 0cbb f0d9 f1ba 4717 de39 3058 093a
000003a0: 34da 11ba a561 b7b8 ce9d 65b9 1784 5a37
000003b0: 6fd5 a73a 9e4a 183a 23c6 ad39 70e9 68b6
000003c0: 94b0 26b7 5d96 fcb6 38aa 7fb6 0e84 6538
000003d0: 2eb5 76bc f6db dab8 03b5 7038 01d4 4eb6
000003e0: 444d 3fb8 ed60 1cbb 9820 2db6 0e85 50b7
000003f0: a3d1 77bb 9693 84bb ae4e df38 f1fa 0438
