cnn_model.pth (torch, 320226 bytes, 3 tensors)

conv1.weight f4 [4, 1, 4, 4]
00000000: 6a10 4f3e d1bd 20be 071f b6bd 22db c13d
00000010: 6e78 09be 3873 5f3d d5bd 34be b02f bdbd
00000020: cb86 5d3e fd8b 6ebc 0ebe 8d3d 5e8a 5abe
00000030: 155e 6e3b 6245 de3d c4aa da3d 0feb 5c3e
00000040: fbdd 26bd 4fc6 083e 9fcc 293e aa9d 583d
00000050: fee9 1cbe 810b 79bd 628e 51be 9538 1dbe
00000060: 0c22 f7bd 406d 0ebb 67c2 433e e537 0c3e
00000070: 5a2e 113e df31 c3bd 7112 5ebe 8f56 cd3d
00000080: 0265 4f3e 92ec 263e b8b3 15be 8a97 443e
00000090: c463 1cbe 71c3 3fbe 0f19 663e 4bc8 5ebe
000000a0: 36be 9a3d b3d0 9b3d f363 dabb 23cd 593d
000000b0: 20c4 1bbd b2e0 eebd 17a9 4ebe 0b2a 94ba
000000c0: 397a cf3d 5618 56be d401 1e3e 2aa9 fcbc
000000d0: 64f1 93bd 2c26 653d 4d09 23bd 41a7 e7bd
000000e0: f634 063e ea75 d63d fdf5 033c 7301 64be
000000f0: 215d be3d 2459 5ebe 04f3 2b3b 1b93 4f3b
0.20221105 -0.15697409 -0.08892637 0.094656244 -0.13424847 0.05455324 -0.1765054 -0.09237611
0.2163345 -0.014559743 0.06921016 -0.21341845 0.0036371995 0.108530775 0.10677102 0.21574043
-0.04073904 0.13356899 0.16581963 0.052884735 -0.15323636 -0.060801987 -0.20464471 -0.15353616
-0.12067041 -0.0021732599 0.19117127 0.13693197 0.14177838 -0.095309965 -0.21686722 0.10026275
0.20253375 0.16301182 -0.14619339 0.19198433 -0.15272433 -0.18726899 0.22470497 -0.21756093
0.07555811 0.076081656 -0.006664747 0.05317415 -0.038028836 -0.11663951 -0.2018169 -0.0011304034
0.10130734 -0.20907721 0.15430385 -0.030842382 -0.07223776 0.055944607 -0.03980379 -0.11311198
0.1310614 0.10471709 0.008054254 -0.22266178 0.09295107 -0.21713692 0.0026237378 0.0031673375

conv1.bias f4 [4]
00000000: 1eb5 cc3b 731a d63d ff65 bb3d 4107 d63d
0.006247177 0.104542635 0.091503136 0.10450602

fc1.weight f4 [1, 79524]
00000000: cfa5 ce3b 089b 953b 3cb8 8bbb b2be 6339
00000010: 1427 34b7 111f bbb8 77fa 8138 8660 2bbb
00000020: eb8a 54bb 50d5 0fbb 976a 7e39 f626 0abb
00000030: b925 313b b36c d43a 4de3 0b3b eb05 973a
00000040: 79d6 22bb 23d5 63bb 55d3 2e3a e3a6 0b3b
00000050: 36ce 8a36 3cf3 57bb c468 c7ba 0659 2bba
00000060: 7678 f1b7 ca0d 31bb 95a6 b139 6f4d 47bb
00000070: 58b0 a43a 7219 9ab8 4acb 4bbb a159 cb3b
00000080: 7081 b9b7 12be 7db8 164a 5c37 50da 0dba
00000090: ee31 35b8 1b02 3db9 9bb3 90bb 5f2c 7abb
000000a0: b4f5 97b9 c6e4 193b d9e3 c939 9baa 5b38
000000b0: 6135 5e3a ec64 82b9 1dc7 883b 25b2 bb39
000000c0: 1c4c 27b8 7a28 52b8 dcd8 42b8 d892 a7b8
000000d0: ca42 bfb8 5ae9 9dba 4be6 9f39 b052 16bb
000000e0: 2439 333b 6714 813b fa06 433b e053 3f39
000000f0: 51f2 9c3b d641 793b 31d9 ae3b 7dd6 343c
00000100: f0df 4f3c 3261 a1bb e7b2 da3b 0a8f 5f37
00000110: 1f75 8ebb 5fda 52bb 3850 093b 3dc5 f73a
00000120: 46ee 3f3a 667e a2ba fde6 8ab8 0218 4a3a
00000130: 6ebb 28ba bbb0 8d3a d281 19b7 b2c4 333b
00000140: d554 bdb8 73b9 3638 9008 7a38 d0e3 a938
00000150: 8067 9bb6 86fe ad37 9e89 af38 3705 383b
00000160: 4d31 e23a e4d3 5338 dd6f 8eb8 01f3 7c37
00000170: 9f7b f73a ca31 67b8 5797 0a38 4f88 013b
00000180: 629b 4038 a3ee 133a dd8f 243b 9e3d 6e3a
00000190: 847f a93a 826b a03b c481 ca3b f800 f43b
000001a0: e971 0d3b 442a 353a 809f 493b 5ac4 fe3a
000001b0: bb8a d937 8b71 753b 8957 d63b c60a 833b
000001c0: cf51 b83b f62d 6f3b 9801 1338 a09e d436
000001d0: 4b02 11b8 74e5 b53b a42a 853a 89d3 3b3c
000001e0: 39ab 8038 bf9a ad38 936d ff38 f6d2 ae38
000001f0: be1c dc3a e117 623a a2b3 4a38 4615 a338
00000200: 4f91 c138 2c37 fe3a 1e7a c5b6 978c ffb8
00000210: 8a69 5fb8 9d68 b8b7 06b4 883b f004 cf37
00000220: ea8a d639 9a01 813a 7976 1338 de5b 6e38
00000230: c643 7eb8 a690 483a f901 bd3b c615 eeba
00000240: 490d 5e3b 1437 163a 2bb9 4db8 61c6 03bb
00000250: 152d b3b7 5993 4eb7 2a9a 8f3a 3fe0 6d39
00000260: 714a 67bb 0ead ed3a 385a a5ba 90de 6bb8
00000270: 5876 0238 b7b2 e4b9 bc89 1fba af9e d337
00000280: 73eb b139 2faf 3a3b eb7b 68b7 6941 63bb
00000290: b7ef b8b6 e5e9 65bb d6ec e5ba 5661 2437
000002a0: 294e 5bb8 943e 81b5 100e c9bb aeef 8bbb
000002b0: abdd a6b7 4953 02bb 348d 5fb7 1e0c 07b8
000002c0: 3f67 1fbb 6257 b03a 8695 eeb7 d3ce 8437
000002d0: 1241 b1b6 abce 1eb8 8e2c 903a cd3d 29b6
000002e0: 2e37 c4b5 ce00 76ba d601 94bb 920b e937
000002f0: da03 8eb6 e492 adb9 5222 8e39 8353 493a
00000300: d91e 74b8 7395 17b8 9587 51bb e27c 433a
00000310: 4d05 be38 cc1a 57ba 4d17 50b7 bd52 7937
00000320: 09d1 e4bb d01a 43ba 84a2 dcba 942d 02b8
00000330: 1ed9 e03a 8b6d ae3b ee54 9cba 14ca ee3b
00000340: 5b50 5737 a1ae a0bb b96e 28bb 8dfe b8b7
00000350: ec85 ae3a 0f92 8d3b de3f 55ba 3430 9eb9
00000360: 0e41 f3b9 ef78 8139 a594 913b 9caf aab7
00000370: 909f ab39 2f0b b93a 16e5 b73a 52ed 093a
00000380: 5d6a fd38 89b7 f9b6 db09 003b b12f 8936
00000390: d7e7 063b 3bba b73b 257b 823b fa7d c239
000003a0: 88a5 f737 7bf5 9c37 d6b4 3e36 99c5 fdb6
000003b0: e575 3b3b a36a 903b cc65 293a 6808 e737
000003c0: 2086 033b b9ff 28ba e1cc 8ebb 4c68 573a
000003d0: b096 f43a 0fcc 10b8 32f3 e939 a808 5d37
000003e0: 8202 a3b7 54f8 d8b6 a6f7 2db6 e99e 73ba
000003f0: ff09 44b9 75df 123b acc4 67b7 3844 053b
0.006306387 0.0045656003 -0.004263906 0.00021719447 -1.0737935e-05 -8.9226414e-05 6.197852e-05 -0.0026150062
-0.0032431434 -0.0021947213 0.00024263035 -0.0021080351 0.002703054 0.0016206711 0.0021345199 0.001152215
-0.0024847074 -0.003476449 0.0006669064 0.002130919 4.1367266e-06 -0.0032951375 -0.0015213718 -0.0006536398
-2.8785533e-05 -0.0027016276 0.00033884184 -0.0030411144 0.0012564762 -7.348032e-05 -0.0031096512 0.006205753
-2.2113993e-05 -6.0496917e-05 1.3130271e-05 -0.0005411254 -4.3200263e-05 -0.00018025229 -0.004415942 -0.003817342
-0.00028984027 0.0023482307 0.00038507467 5.2372558e-05 0.0008476582 -0.00024870725 0.004174127 0.00035800147
-3.9886785e-05 -5.01056e-05 -4.645517e-05 -7.990532e-05 -9.12003e-05 -0.0012047694 0.00030498425 -0.002293747
0.002734729 0.0039391997 0.0029758797 0.00018246425 0.0047896286 0.0038033626 0.00533595 0.011037466
0.012687668 -0.0049249167 0.006674159 1.332514e-05 -0.004347458 -0.0032173616 0.0020952355 0.0018903386
0.0007321577 -0.0012397289 -6.623378e-05 0.0007709266 -0.00064366206 0.0010810116 -9.149737e-06 0.0027430472
-9.0280235e-05 4.3564894e-05 5.961262e-05 8.100981e-05 -4.631409e-06 2.0741729e-05 8.3702835e-05 0.002807928
0.0017257124 5.050366e-05 -6.791924e-05 1.5076949e-05 0.0018881446 -5.512106e-05 3.304271e-05 0.0019765084
4.592108e-05 0.00056431646 0.0025110163 0.0009088161 0.0012931679 0.0048956284 0.00618002 0.0074464045
0.0021582788 0.00069109 0.0030765235 0.001943718 2.5933017e-05 0.003745171 0.0065411967 0.003999087
0.0056249867 0.00364959 3.5049015e-05 6.3365587e-06 -3.457283e-05 0.0055510346 0.0010159803 0.011464008
6.135408e-05 8.2781065e-05 0.00012179757 8.336261e-05 0.0016793234 0.0008624774 4.832785e-05 7.776408e-05
9.230023e-05 0.0019395105 -5.885274e-06 -0.000121855344 -5.3265634e-05 -2.1983224e-05 0.004171851 2.4678622e-05
0.0004092076 0.0009842396 3.5157867e-05 5.682918e-05 -6.0621438e-05 0.0007650949 0.0057680574 -0.0018164448
0.003388243 0.0005730253 -4.904826e-05 -0.0020107257 -2.1359456e-05 -1.2312864e-05 0.0010955979 0.0002268562
-0.0035292173 0.0018133239 -0.0012615388 -5.6235644e-05 3.110463e-05 -0.00043620702 -0.00060858927 2.5227053e-05
0.00033935494 0.0028485765 -1.38571295e-05 -0.0034676439 -5.511534e-06 -0.003508204 -0.0017541896 9.7978245e-06
-5.228646e-05 -9.629462e-07 -0.0061357096 -0.0042705154 -1.9891964e-05 -0.0019886068 -1.3324712e-05 -3.2197793e-05
-0.0024323014 0.0013453776 -2.8441438e-05 1.5831936e-05 -5.2825862e-06 -3.786261e-05 0.0010999606 -2.5218935e-06
-1.4619197e-06 -0.0009384275 -0.0045168204 2.7781152e-05 -4.232378e-06 -0.00033106573 0.0002710992 0.0007679986
-5.8202862e-05 -3.614039e-05 -0.0031971682 0.00074572687 9.060893e-05 -0.0008205592 -1.2403191e-05 1.4860821e-05
-0.0069829267 -0.0007442655 -0.0016833101 -3.1036863e-05 0.001715455 0.005323117 -0.0011927166 0.007287273
1.2833708e-05 -0.00490363 -0.0025700761 -2.2053044e-05 0.0013315058 0.00432039 -0.0008134822 -0.00030172023
-0.0004639704 0.000246949 0.0044427686 -2.0347354e-05 0.00032734545 0.0014117713 0.0014030065 0.0005261499
0.00012083792 -7.4421446e-06 0.0019537124 4.08847e-06 0.0020584965 0.005606917 0.003981965 0.00037096423
2.9521776e-05 1.871096e-05 2.8417467e-06 -7.562991e-06 0.0028604206 0.0044072433 0.00064620073 2.754126e-05
0.0020068958 -0.0006446797 -0.0043579196 0.00082171406 0.0018660631 -3.452232e-05 0.00044622418 1.3174642e-05
-1.9432282e-05 -6.466211e-06 -2.592316e-06 -0.0009293394 -0.0001869574 0.0022411023 -1.3814464e-05 0.002033485
