cnn_model.pth (torch, 320226 bytes, 3 tensors)

conv1.weight f4 [4, 1, 4, 4]
000000 c0 33 82 be 06 65 9d 3d 70 ff 92 be 55 a4 60 3c
       -0.25430107 0.07685284 -0.28710508 0.013711055
000010 37 45 9b be 6e 14 a6 be f3 99 bb be df 5b 5a be
       -0.30326244 -0.32437462 -0.3664089 -0.21324109
000020 28 b9 b3 bc 0c b6 bd be 89 ed 2c be fd 79 09 bf
       -0.021938875 -0.37052953 -0.16887487 -0.53701764
000030 79 11 df 3d dd 96 e6 be 35 db 0b bf df 79 14 bf
       0.108920045 -0.45036975 -0.5463136 -0.5799846
000040 f3 7c d5 3d 74 54 0c be 09 4c 94 bd 64 56 3d 3c
       0.10424223 -0.13704091 -0.07241065 0.011556242
000050 f3 79 96 3d a4 a1 31 3d 5d b3 95 bd ca 24 0e 3c
       0.07347479 0.043367043 -0.073096015 0.008675763
000060 09 6d 76 bd f7 94 55 3e 83 d9 30 3d 4f 5a 1c 3e
       -0.060162578 0.20857607 0.043176185 0.15268825
000070 c3 4d 1a 3e e2 b9 c4 bd 27 c2 9e bd 36 56 93 3d
       0.15068726 -0.09605767 -0.07751875 0.07194178
000080 e5 9a 05 3e be 50 54 bd 2a ab e0 bc a0 1a 02 3e
       0.13047369 -0.051834814 -0.027425367 0.12705469
000090 00 6c 5a be 7e a7 6b 3e ee 03 dd bb 94 35 e8 3d
       -0.21330261 0.23013112 -0.006744853 0.11338344
0000a0 78 3a fd 3d 61 a1 43 3e 6f ab d7 3e e6 0b 4d bd
       0.12364668 0.1910453 0.4212298 -0.050060175
0000b0 ec 99 78 3c e8 e8 52 bd a7 8d b2 bd 2e 4c cc be
       0.015173417 -0.051491648 -0.08718424 -0.3990187
0000c0 41 4b 94 bd 92 b6 51 3e 62 a6 13 3e 77 e6 0b be
       -0.07240916 0.20479801 0.14418939 -0.13662134
0000d0 aa 43 ad bd 68 af 9f 3e 16 37 df bc be f4 88 3e
       -0.084601715 0.31188512 -0.027247947 0.26749223
0000e0 0c 09 13 3e b7 b4 53 bd 8f fa 8c bd ca 20 66 be
       0.1435892 -0.051686015 -0.06883728 -0.22473446
0000f0 97 1e 3e 3e 37 68 46 3e 55 3b b6 3d cb 17 0d be
       0.18566357 0.19375692 0.088980354 -0.13778608

conv1.bias f4 [4]
000000 d4 75 3e bd 5c af 2a 3d bd 1d 21 be da 84 f5 bc
       -0.04649909 0.041671142 -0.15734 -0.029970575

fc1.weight f4 [1, 79524]
000000 c8 0c 0e 34 8a 03 19 b7 75 9e e4 36 8a fb 0c b9
       1.322943e-07 -9.120335e-06 6.8133763e-06 -0.00013445146
000010 6a 92 b5 b7 1c 3a 27 bc 65 f1 c5 39 73 87 4e 38
       -2.164506e-05 -0.010206725 0.0003775462 4.9240374e-05
000020 c0 ec 6c b9 e8 cc 8e 36 2f a5 f7 b6 e7 98 06 b6
       -0.0002259491 4.255784e-06 -7.3804035e-06 -2.0056557e-06
000030 33 c2 3b b6 f8 ae 05 b9 f4 16 26 b9 bf fd 22 b9
       -2.797821e-06 -0.0001274905 -0.00015839544 -0.00015544052
000040 a2 e1 96 38 a4 9a 4f b9 81 da 1f b9 0a 96 c6 b7
       7.194585e-05 -0.00019798666 -0.0001524482 -2.3673307e-05
000050 6c e8 0a b8 4f af ee bb 93 2c 16 ba 0f f0 d7 3c
       -3.3118224e-05 -0.007284082 -0.0005728688 0.026359586
000060 83 09 0a b9 d1 44 a3 3a 0a 14 41 3d 0e dc 5e bb
       -0.00013164249 0.0012456422 0.04713825 -0.0034005675
000070 bc dd fb b7 c0 94 01 37 1c ec ad b5 28 70 01 3d
       -3.0024785e-05 7.723633e-06 -1.2958221e-06 0.0316011
000080 45 9b 9b 3c 60 7a d3 bb f9 fb 18 38 9a b2 20 b9
       0.018994937 -0.006453797 3.6474292e-05 -0.00015325323
000090 86 94 d1 ba 10 b3 7f ba 96 d1 ac 3c 1c cb 9b b8
       -0.0015989698 -0.00097541604 0.021096032 -7.428808e-05
0000a0 e1 52 e7 b8 8f fa ab 37 fc 4f 95 b7 b4 79 68 36
       -0.00011030376 2.0501464e-05 -1.779943e-05 3.4641535e-06
0000b0 0c fa 65 36 cc 17 08 b7 b6 98 05 37 1b 20 f3 36
       3.4269206e-06 -8.111772e-06 7.9629735e-06 7.245702e-06
0000c0 12 22 5e ba 0f 93 d4 38 ae 84 e8 3b d3 76 55 3c
       -0.0008473705 0.000101363396 0.007095895 0.013028818
0000d0 f5 ef 89 3c d0 82 dd 38 af bf 21 bb bb 5c 94 35
       0.016838053 0.00010562467 -0.0024680903 1.1053847e-06
0000e0 82 a9 98 36 90 ac 2b b9 98 db 29 bd 7c 9e 15 3c
       4.5496863e-06 -0.00016372115 -0.041469187 0.009132024
0000f0 f5 fa 1e 3c 7c 5e 4c bd 76 60 2c bd 12 f3 87 39
       0.0097033875 -0.049894795 -0.04208418 0.00025930308
000100 65 20 e2 3d d7 cb 5b 38 4c 38 7f b7 00 f0 84 b6
       0.11041335 5.240351e-05 -1.5212292e-05 -3.9618462e-06
000110 26 e1 4a b7 4c 74 22 b7 78 8c 1f 37 24 96 8c 36
       -1.209256e-05 -9.68303e-06 9.509844e-06 4.189804e-06
000120 e0 8d 0c b9 26 72 ad bc fa 05 7c 3a a4 bb d7 3c
       -0.00013404293 -0.021172594 0.00096139277 0.026334591
000130 cd 80 93 37 3f 91 37 bb 15 83 ff ba 14 2b 12 bc
       1.7583743e-05 -0.0028010157 -0.0019494022 -0.008921403
000140 43 92 1a bc f8 85 19 3b ea a3 1b 3b c7 1c 05 3c
       -0.009434286 0.00234258 0.0023748823 0.008124537
000150 e1 e1 5b 3c 73 22 76 b8 b4 12 63 ba a9 5f 04 bb
       0.013420553 -5.8683054e-05 -0.000866215 -0.002019862
000160 e2 52 3b bb c4 f6 43 3b 9d 54 09 b9 59 60 cd bc
       -0.0028583338 0.0029901722 -0.00013096859 -0.025070356
000170 c4 85 29 ba 1c 90 b7 b9 80 9a e2 b8 86 98 98 bc
       -0.0006466771 -0.0003501185 -0.00010805298 -0.018627416
000180 f9 82 d1 bc 2a 37 f3 bc 6e 31 ef 38 a5 9b a1 39
       -0.025575148 -0.02968939 0.00011405615 0.00030824277
000190 3b 16 e0 b8 4c a3 ab bd 43 e5 0e bc 32 f3 07 3a
       -0.00010685293 -0.08380756 -0.008721652 0.000518608
0001a0 a6 31 55 bb 6b c9 ee bb 35 4a 2b 39 0e 9d 03 39
       -0.0032530813 -0.0072871945 0.00016335475 0.00012551641
0001b0 a0 37 dd 38 e6 14 c0 38 f2 95 59 38 a6 86 ad bc
       0.00010548462 9.159166e-05 5.187648e-05 -0.02118237
0001c0 97 09 95 bb 14 c3 ce ba 1e f4 01 b9 37 5f ce bb
       -0.0045482623 -0.001577469 -0.0001239334 -0.0062979716
0001d0 fa 48 d4 b9 10 dc 18 b9 6c be 4b bb 17 b4 2b bb
       -0.00040490163 -0.0001457783 -0.0031088842 -0.0026199871
0001e0 c6 1f 76 ba ce 8f b3 ba 69 46 40 3b 32 8a 09 3a
       -0.000938889 -0.0013699473 0.0029338843 0.0005246728
0001f0 b0 d3 cc ba 9e f1 b3 bb 37 2f 00 bc b5 ce 8c bc
       -0.0015627053 -0.0054914495 -0.007823757 -0.01718841
000200 b4 3d fc b8 dd ae c4 bb a2 06 38 bc dd e9 6e 3c
       -0.000120277895 -0.0060022906 -0.01123205 0.014582125
000210 fe 5c 70 3c c0 bc 42 bb cb bf 2d bc 9f 22 3d 37
       0.014670609 -0.0029714555 -0.010604809 1.1273339e-05
000220 6f 0e 37 38 f6 37 68 39 06 43 1e ba de e0 e3 b7
       4.3644042e-05 0.00022146091 -0.0006037209 -2.716522e-05
000230 bf 42 08 bb 7e 8d 38 b7 47 a4 f2 b6 c2 b3 2e b6
       -0.0020791737 -1.1000198e-05 -7.2312864e-06 -2.6032653e-06
000240 1e 0a 5f b6 95 3c 1d 39 94 85 2f b7 50 fc 77 bb
       -3.3235478e-06 0.00014995255 -1.0461914e-05 -0.00378396
000250 93 21 a4 3a f8 d7 ad b6 08 3b bb b6 77 1c 1b 37
       0.0012522213 -5.180944e-06 -5.5799064e-06 9.245347e-06
000260 50 01 0a b5 e0 00 25 b9 7f ea 43 b9 20 49 49 b9
       -5.1410916e-07 -0.00015735952 -0.00018684006 -0.00019196095
000270 a8 28 6c b9 fd 75 8b 38 c1 b7 58 b9 37 97 9a b9
       -0.0002252186 6.6500135e-05 -0.00020667819 -0.00029485833
000280 10 37 9c b5 80 f5 c2 36 54 13 88 bb 9c 08 fd bc
       -1.1638931e-06 5.8102305e-06 -0.0041526947 -0.030887894
000290 87 73 01 bb f9 62 8d bc 45 52 0a b7 40 20 da 36
       -0.0019752698 -0.017259108 -8.244596e-06 6.5006607e-06
0002a0 f2 c4 84 b8 7d b7 3a 3d 97 bc 1c 39 1d 33 18 38
       -6.3309344e-05 0.045585144 0.00014947575 3.6287227e-05
0002b0 86 6f 93 3c 01 b4 9f 3c 90 2a e5 37 76 5e 45 bc
       0.017997514 0.019495012 2.7318747e-05 -0.012046447
0002c0 99 b9 9f bc 72 2f 9b bc a5 ed ac bb d8 46 2d b7
       -0.01949768 -0.018943522 -0.005277353 -1.0328098e-05
0002d0 3f 36 47 b6 30 1b 55 b5 dc 0d 96 37 13 aa 19 b7
       -2.9684886e-06 -7.9388246e-07 1.7887847e-05 -9.159109e-06
0002e0 dc cb 71 b6 bd 0d 9e 37 5e 62 93 35 c9 61 cf b6
       -3.603046e-06 1.8841465e-05 1.0980982e-06 -6.1804644e-06
0002f0 62 02 7f b6 64 91 1c b7 d6 19 2e 3c 8c 79 de bb
       -3.7999348e-06 -9.332176e-06 0.010626277 -0.006789392
000300 82 e4 81 bc fa 10 9e bc 07 99 8d bd 3c 29 ec b6
       -0.015856031 -0.019295204 -0.06913953 -7.0381484e-06
000310 2d 5c 2f 37 56 47 ed b6 93 13 bf 39 c1 98 0e b8
       1.0452274e-05 -7.071455e-06 0.00036444943 -3.39977e-05
000320 1b 84 8f 3a 68 4c 6e 3b 75 5d be 39 13 bc 6f 37
       0.0010949405 0.003636146 0.00036309255 1.42892995e-05
000330 9f 43 4e 39 0a 8d 36 3d 3b 65 2b 37 4c 99 01 b8
       0.00019670882 0.0445681 1.0215964e-05 -3.0898766e-05
000340 45 42 a6 38 0c b3 d8 b6 c0 82 d6 36 4d d5 89 36
       7.9278405e-05 -6.4581454e-06 6.3929183e-06 4.1077496e-06
000350 b0 9e 30 b7 1b f2 fe 36 23 bd 37 bd 6b d6 fe 3a
       -1.0527365e-05 7.5979747e-06 -0.04485811 0.0019442564
000360 23 26 41 3c df 91 03 3b eb 46 84 ba 87 b5 5d ba
       0.011788878 0.002007596 -0.0010091936 -0.00084575306
000370 74 1e ed bb ee 76 a2 bb 37 b9 49 3b 38 ac 3f 3c
       -0.0072362963 -0.004958025 0.0030780563 0.011698775
000380 c0 4b 39 3c d1 77 3d 3c f0 a8 11 3b e6 ae 40 b8
       0.011309564 0.011564211 0.0022225939 -4.5939254e-05
000390 7d 94 5a b9 b1 30 91 ba 23 e5 9c b7 37 8a 69 b7
       -0.00020845416 -0.0011077133 -1.870335e-05 -1.3920063e-05
0003a0 ef 58 b6 b9 e0 84 42 b9 3e 56 8a b9 ed 9c a0 ba
       -0.00034780006 -0.00018550782 -0.00026385667 -0.0012253799
0003b0 a1 68 09 bc a6 1f d9 b8 94 d2 3d b8 73 3b 0c 39
       -0.008386762 -0.00010353261 -4.5257228e-05 0.00013373587
0003c0 9d 28 47 39 01 05 0e b9 02 9b a2 bc f5 4b 58 bc
       0.00018993249 -0.0001354404 -0.019849304 -0.013201703
0003d0 d6 2e 00 bb 7d c1 0c 38 08 81 92 36 60 56 29 39
       -0.0019559166 3.35588e-05 4.3661603e-06 0.00016149273
0003e0 03 a5 a9 38 c6 b5 a3 38 b7 e9 31 39 7a d7 99 38
       8.089284e-05 7.8063036e-05 0.00016967101 7.335744e-05
0003f0 5e 3e a0 bb 34 47 a0 38 50 2e 0c 3c 99 00 08 3b
       -0.0048902472 7.642657e-05 0.008555964 0.002075231
