vim_model.pth (torch, 611222 bytes, 71 tensors)

cls_token f4 [1, 1, 64]
0.20616429 1.682316 -0.22568585 -0.6408618 -1.0454828 -0.49800926 -0.3878537 -0.2778472
0.67469203 -0.45184454 -0.5134363 0.35740694 -0.70491725 -1.4277165 -0.19768682 1.0424072
1.0383202 1.7480353 -1.5529937 0.3064918 1.9739826 0.16203313 -1.401478 0.09639458
0.43401593 -0.84146965 -1.6911358 0.4684467 -1.0721176 -0.54565704 -0.09418714 0.74992716
-0.45302573 -1.6164 -0.60011226 0.20328216 -2.6426682 3.2857125 -0.31017017 -0.3178794
-0.36779234 -1.1451529 -1.0561464 1.0519621 -0.53024566 -0.684295 -1.2404834 -1.4209167
0.6572154 0.06517998 0.6410777 -0.049569357 0.64259297 -0.61115605 -0.9854361 -0.70678896
-0.7013278 2.7623768 0.111326076 -0.95472103 -0.84641826 -2.3627143 -0.36276764 -0.6614652
00000000: bb1c 533e 2156 d73f 311a 67be 850f 24bf
00000010: 61d2 85bf 12fb febe c394 c6be fd41 8ebe
00000020: 9eb8 2c3f 2b58 e7be 9070 03bf 0bfe b63e
00000030: 7575 34bf 6abf b6bf 6a6e 4abe 996d 853f
00000040: ade7 843f 9fbf df3f 7fc8 c6bf 7eec 9c3e
00000050: 76ab fc3f 03ec 253e a263 b3bf 866a c53d
00000060: 5637 de3e 8e6a 57bf 2377 d8bf 3fd8 ef3e
00000070: 263b 89bf 2eb0 0bbf 30e5 c0bd 3afb 3f3f
00000080: fdf2 e7be 32e6 cebf f5a0 19bf 3329 503e
00000090: 7a21 29c0 1d49 5240 a0ce 9ebe 17c1 a2be
000000a0: 474f bcbe 5f94 92bf ce2f 87bf b2a6 863f
000000b0: 2ebe 07bf f52d 2fbf 29c8 9ebf 99e0 b5bf
000000c0: 453f 283f 157d 853d ab1d 243f 3d09 4bbd
000000d0: f980 243f b974 1cbf 8a45 7cbf 1ff0 34bf
000000e0: 388a 33bf c8ca 3040 edfe e33d 9968 74bf
000000f0: deae 58bf b636 17c0 aebc b9be c955 29bf

to_patch_embedding.1.weight f4 [64, 169]
-0.08019807 -0.07732229 -0.045478683 0.03844857 0.008323348 0.010132943 -0.016860079 0.05063545
-0.07205557 -0.060093462 -0.043035503 0.066242084 0.004586042 0.030572707 -0.057457417 -0.019750929
-0.02940962 -0.003245858 0.059419014 -0.036150537 0.014889626 0.010880904 -0.04694866 0.04097616
0.10344654 0.09553935 -0.039178055 -0.053723805 0.0766228 0.0012245122 0.073849045 0.01243649
0.028721167 -0.08313835 -0.07486681 -0.028709697 0.056367967 0.044445388 -0.018097132 0.02862776
-0.029693881 -0.01807169 0.1066677 0.029342022 -0.0032881154 -0.0006376498 -0.030997755 -0.066148765
0.06366273 -0.038839947 -0.00783032 -0.06409695 -0.0020663172 0.01832026 -0.02448047 0.11089118
0.0704909 0.038473073 0.043921847 0.03370393 -0.071519494 0.066292666 0.009483584 0.01800427
-0.002453264 -0.017385062 -0.013586515 0.006530954 0.040658016 0.061963864 0.05948973 -0.045351706
0.04525498 0.054034185 -0.05355454 0.039251346 -0.022479381 0.077187434 -0.038630895 0.07724146
0.075904116 0.009503954 0.08449609 -0.044919766 0.069344535 0.03183346 -0.0008852495 0.042628404
0.030709805 0.007771226 -0.009955436 -0.01853265 -0.019456293 0.01452249 0.017476713 -0.028835105
-0.021201098 0.053584337 -0.012924115 -0.041267153 -0.030209452 -0.074048005 -0.088376686 -0.058366794
-0.022209516 -0.06854609 -0.068491444 -0.07248841 0.011928244 0.040399764 0.0151300235 0.07779749
-0.030182505 0.0062669753 0.020443086 0.05851412 -0.063985646 0.0044671656 -0.006029669 0.0014501006
0.0633398 -0.047439255 0.07332862 0.021199904 0.02503519 0.03404768 0.047964733 -0.0025798504
0.043022405 0.069522664 0.065301694 0.08896272 -0.016058557 -0.037574485 0.033856165 -0.07883161
0.015267389 -0.04840462 0.055570066 0.01428578 -0.0011463743 0.09452908 -0.0103069795 0.0018425878
-0.041701585 -0.054238364 0.030302597 0.021909237 -0.048198447 -0.027518298 -0.077691905 -0.04062081
0.06539405 0.06504929 0.061600264 0.009836518 -0.037904885 0.0804269 0.04118504 -0.08376806
-0.022189206 -0.0662207 -0.010957014 0.074558645 -0.03931619 -0.009436519 -0.029000597 0.06775816
-0.022093602 -0.065514915 0.0011445405 -0.01392037 -0.0119889 -0.0030480667 -0.015966708 0.05396559
0.007623343 0.055078343 -0.008741657 -0.09646187 0.04762546 -0.027863173 0.012914241 0.029142588
0.07917275 -0.015773302 0.034679584 0.03292693 0.012130748 -0.024613244 -0.031480946 -0.031521548
-0.120718166 -0.02742097 -0.026367547 0.0072708502 0.035696696 0.08139586 -0.0467895 -0.028854305
-0.06935595 0.030542603 0.02245491 -0.014285454 0.010026906 -0.042800926 0.06147622 0.061868653
0.01264678 0.037726153 0.007648541 0.008602627 -0.083548136 -0.0010210774 -0.042258304 -0.087201186
0.024398793 -0.020798167 -0.0072093587 -0.0673394 0.04590192 -0.014404593 0.04329982 -0.024737272
-0.030117398 0.0058843237 0.065512545 -0.020272586 -0.058491677 0.04719933 0.026120221 0.044753753
0.028084874 0.018554335 0.0762931 0.00864271 0.07122037 -0.019902768 -0.057118837 -0.0658425
-0.039646115 -0.03588542 -0.007683203 -0.0523273 0.026213141 -0.058475472 0.08186865 -0.031672735
0.04327068 0.016596539 0.03594692 0.03796359 0.07005626 -0.018556619 0.069259405 0.048723318
00000000: e33e a4bd 265b 9ebd db47 3abd 3f7c 1d3d
00000010: a75e 083c a504 263c 261e 8abc 1e67 4f3d
00000020: df91 93bd 9024 76bd ff45 30bd eea9 873d
00000030: 8246 963b 9d73 fa3c 7858 6bbd b3cc a1bc
00000040: 72ec f0bc 76b8 54bb 5a61 733d 9612 14bd
00000050: 9ef3 733c d245 323c 3d4d 40bd 9ed6 273d
00000060: c8db d33d 22aa c33d 2b79 20bd 7e0d 5cbd
00000070: 6aec 9c3d d07f a03a 2b3e 973d 6bc2 4b3c
00000080: a748 eb3c 7044 aabd c553 99bd 9930 ebbc
00000090: 19e2 663d 5e0c 363d 7040 94bc c484 ea3c
000000a0: 9540 f3bc 150b 94bc 9874 da3d ae5e f03c
000000b0: 6c7d 57bb f427 27ba 01ef fdbc 0179 87bd
000000c0: 9b61 823d a316 1fbd be4a 00bc 4345 83bd
000000d0: 0d6b 07bb 5f14 963c 448b c8bc ea1a e33d
000000e0: 885d 903d f195 1d3d 65e7 333d 220d 0a3d
000000f0: d078 92bd 73c4 873d 0961 1b3c b17d 933c
00000100: f1c6 20bb 1e6b 8ebc f999 5ebc 9d01 d63b
00000110: 0589 263d d2cd 7d3d 81ab 733d b6c2 39bd
00000120: 495d 393d f352 5d3d 015c 5bbd 05c6 203d
00000130: ae26 b8bc 7214 9e3d 6e3b 1ebd c530 9e3d
00000140: 9e73 9b3d 79b6 1b3c 490c ad3d cafd 37bd
00000150: 8204 8e3d cd63 023d 1710 68ba 1f9b 2e3d
00000160: 2193 fb3c c5a5 fe3b 201c 23bc c9d1 97bc
00000170: ce62 9fbc bdef 6d3c 532b 8f3c 9937 ecbc
00000180: edad adbc 407b 5b3d abbf 53bc bf07 29bd
00000190: d079 f7bc 7ba6 97bd d6fe b4bd 0512 6fbd
000001a0: bbf0 b5bc e461 8cbd 3e45 8cbd ce74 94bd
000001b0: ae6e 433c 397a 253d ebe3 773c 4a54 9f3d
000001c0: 4d41 f7bc 335b cd3b 4278 a73c 80ac 6f3d
000001d0: e80a 83bd 4d61 923b 8894 c5bb 4d11 be3a
000001e0: 4cb8 813d aa4f 42bd 512d 963d 6cab ad3c
000001f0: 9916 cd3c 9575 0b3d ab76 443d b512 29bb
00000200: 4338 303d e661 8e3d e5bc 853d 1632 b63d
00000210: 3c8d 83bc b4e7 19bd c3ac 0a3d 7872 a1bd
00000220: 1224 7a3c ec43 46bd 709d 633d e70e 6a3c
00000230: f041 96ba 7698 c13d 9bde 28bc fd82 f13a
00000240: 48cf 2abd 0c29 5ebd 273d f83c 007b b33c
00000250: bc6b 45bd 0e6e e1bc ef1c 9fbd 0262 26bd
00000260: 51ed 853d 9038 853d 8f50 7c3d 5929 213c
00000270: 2742 1bbd dcb6 a43d a5b1 283d 978e abbd
00000280: 23c6 b5bc b89e 87bd 0c85 33bc 34b2 983d
00000290: 030a 21bd a19b 1abc a992 edbc cac4 8a3d
000002a0: a4fd b4bc af2c 86bd 6804 963a 4312 64bc
000002b0: 176d 44bc 13c2 47bb 9dcc 82bc 060b 5d3d
000002c0: 3ccd f93b d499 613d 2b39 0fbc cd8d c5bd
000002d0: ea12 433d 4f41 e4bc 4196 533c 70bc ee3c
000002e0: 5325 a23d 0337 81bc 2e0c 0e3d 63de 063d
000002f0: 0bc0 463c b7a1 c9bc 2af2 00bd bd1c 01bd
00000300: 163b f7bd f1a1 e0bc c100 d8bc 5040 ee3b
00000310: b336 123d dfb2 a63d 59a6 3fbd dd5f ecbc
00000320: 7e0a 8ebd 7b34 fa3c 5cf3 b73c 890d 6abc
00000330: e447 243c 0650 2fbd 7dce 7b3d fc69 7d3d
00000340: 7134 4f3c bd86 1a3d 9da0 fa3b 08f2 0c3c
00000350: 491b abbd acd5 85ba 0b17 2dbd 8996 b2bd
00000360: fadf c73c eb60 aabc 7c3c ecbb 3de9 89bd
00000370: a703 3c3d 3e01 6cbc 275b 313d d2a5 cabc
00000380: c3b8 f6bc 49d1 c03b 712b 863d b212 a6bc
00000390: f894 6fbd 1654 413d 13fa d53c b64f 373d
000003a0: 4012 e63c 43ff 973c 8f3f 9c3d 279a 0d3c
000003b0: fcdb 913d 210b a3bc 71f5 69bd 6fd8 86bd
000003c0: f763 22bd 97fc 12bd 61c3 fbbb 2755 56bd
000003d0: f1bc d63c fa83 6fbd c0aa a73d 45bb 01bd
000003e0: 993c 313d 77f5 873c 143d 133d b67f 1b3d
000003f0: a879 8f3d 0d04 98bc e0d7 8d3d 1a92 473d

to_patch_embedding.1.bias f4 [64]
0.04072292 -0.0033133873 0.0480642 0.051020995 0.019897386 0.02288783 0.040722903 0.05803933
-0.046672426 -0.03509166 0.06113189 -0.041963562 0.018409396 0.007548025 0.00046975142 -0.05249758
-0.0073256413 -0.03702223 -0.042869814 0.02582148 0.035303567 -0.04219875 0.000645482 0.044551358
-0.023294283 -0.03640848 0.048173476 -0.052008275 0.022017665 -0.060512975 0.026085874 0.034866873
0.013874981 0.05119125 -0.03261253 0.025279054 -0.027236883 0.036065336 -0.030177332 -0.017281331
-0.047549188 -0.03224004 -0.01295942 -0.02146988 -0.01874532 0.0026217427 -0.026812285 0.06636619
-0.0145805925 -0.055594176 -0.023784628 0.060826223 -0.028090872 -0.055025693 0.030908039 -0.026155928
-0.0014100394 -0.04458639 -0.01840019 0.030574003 0.024111442 0.0028533733 -0.02418637 0.064967886
00000000: 14cd 263d 6a25 59bb f7de 443d 64fb 503d
00000010: d8ff a23c 427f bb3c 0fcd 263d a6ba 6d3d
00000020: 962b 3fbd 46bc 0fbd 6f65 7a3d fce1 2bbd
00000030: 4dcf 963c 6c55 f73b f848 f639 b407 57bd
00000040: ef0b f0bb 9fa4 17bd 4298 2fbd 9287 d33c
00000050: 799a 103d 99d8 2cbd 9035 293a 7c7b 363d
00000060: a7d3 bebc 0f21 15bd 8d51 453d a106 55bd
00000070: 645e b43c 74dc 77bd 0bb2 d53c 91d0 0e3d
00000080: e353 633c ebad 513d b794 05bd 0516 cf3c
00000090: e21f dfbc 3fb9 133d 7436 f7bc 9491 8dbc
000000a0: f0c2 42bd 220e 04bd bf53 54bc 9ae1 afbc
000000b0: c98f 99bc 8bd1 2b3b 70a5 dbbc ffea 873d
000000c0: 70e3 6ebc b8b6 63bd fbd7 c2bc eb24 793d
000000d0: d41e e6bc 9f62 61bd db32 fd3c f544 d6bc
000000e0: 12d1 b8ba 38a0 36bd ffbb 96bc 5576 fa3c
000000f0: 5c85 c53c a9ff 3a3b 7f22 c6bc e20d 853d

layers.0.forward_conv1d.weight f4 [64, 64, 1]
-0.0075496933 -0.08954679 -0.04925669 0.033814754 0.08081039 0.0122882305 -0.06014731 0.03171281
-0.03451468 -0.031886965 0.026365776 0.067691155 0.06995359 -0.10335772 -0.013864307 -0.11485362
0.06618981 0.072746545 -0.018336948 -0.045372862 0.10817743 0.017237356 0.060660325 0.061276343
0.0124692945 0.013918274 -0.105414644 0.039205123 0.09422112 -0.02370519 0.010684614 -0.12847981
0.010140419 0.015042772 -0.041354645 -0.043654934 0.037763044 -0.0061498214 0.013445705 0.0014605164
0.0429767 0.060022708 0.013854923 -0.08226232 -0.083105154 -0.018340433 -0.04335905 -0.019742066
0.03418838 -0.044563986 -0.057715274 0.055798884 -0.07904345 0.0142542645 -0.10673638 -0.119568184
0.10955027 0.101241045 0.0005489328 -0.005061621 -0.096290335 0.069984585 -0.052103896 -0.102136925
-0.0075845295 0.057207584 -0.0349973 0.053127628 0.11673092 0.060139116 0.0068997405 0.05678958
0.08166847 0.0031149008 -0.015218953 0.057633698 0.09872832 0.08816643 -0.077057734 0.0002528772
0.053526733 0.08919162 0.047306396 -0.052086115 -0.013684325 -0.079569094 0.034401778 -0.0762587
0.07183276 0.0184493 0.05589092 -0.108937286 -0.003914701 -0.06688388 -0.019321192 -0.06890233
-0.027262678 0.091159776 0.0974118 0.039312884 -0.008397688 0.05766759 0.06916878 0.025408488
0.020751411 -0.06252226 0.09339378 -0.036914773 -0.12007833 -0.004776254 -0.049488388 0.05855455
0.07696882 0.007490337 -0.06909056 -0.047555123 -0.070530206 0.105157636 -0.11589761 0.037007704
-0.04278705 0.055225976 -0.06013694 -0.052045558 0.064885505 -0.07142046 0.0029924675 -0.07300678
-0.0027699028 -0.0760566 -0.13040243 -0.14181665 -0.03156009 -0.08393761 0.02131866 0.083000295
-0.10066685 -0.07882452 -0.059684705 -0.014510702 -0.10257211 0.08331558 0.039101277 0.108617246
0.072408274 -0.06809868 0.0365104 -0.010730023 -0.08382484 0.023646832 -0.012712388 -0.12887204
0.11062432 -0.0031403643 -0.058018137 0.065095276 0.017167842 -0.08270496 0.11404858 -0.049478088
-0.07973341 -0.028801505 0.039371923 0.07835622 -0.004831665 -0.036142167 -0.068782136 0.058655906
0.03198051 -0.012599242 -0.11637094 -0.09403639 -0.0032702824 0.042952385 0.10395191 0.09381925
-0.060533043 -0.07970753 0.052724104 0.06751891 0.033533312 -0.05902812 0.067838706 0.025095679
0.094349325 0.0019447125 0.006564524 0.039725706 -0.0061344113 -0.06424516 0.104140356 -0.12631173
-0.090728156 0.07889976 -0.06780049 -0.0052386215 -0.08376882 -0.012791797 -0.10816651 -0.018932914
0.053667713 -0.064166814 0.027911505 -0.069416255 0.09136605 -0.010355099 0.018573077 -0.034576952
0.099935256 -0.0689373 -0.03170264 -0.060859952 -0.07215856 -0.08112006 -0.049258206 0.0074146097
-0.004449598 0.061436042 0.002809058 -0.08333679 -0.015936615 -0.064379655 -0.07726475 -0.06729677
-0.00025319416 -0.037914522 -0.104176536 0.1057139 0.09205068 -0.015852414 -0.049325757 -0.026742727
-0.035985105 0.09045649 -0.05125145 -0.0041646087 -0.04050183 0.069334276 0.017537123 0.07309539
0.053866424 -0.013243287 -0.0010482324 0.046472125 -0.07204513 0.0045689456 0.079098105 0.0688263
0.11184492 0.07864656 -0.025359424 0.09263744 0.02285126 -0.13080184 -0.07260074 0.080653824
00000000: 6b63 f7bb 4f64 b7bd 62c1 49bd 5781 0a3d
00000010: eb7f a53d 9354 493c 075d 76bd 4be5 013d
00000020: 445f 0dbd e89b 02bd 0afd d73c a9a1 8a3d
00000030: d443 8f3d 36ad d3bd 1e27 63bc 6038 ebbd
00000040: 868e 873d 24fc 943d 5e37 96bc e5d8 39bd
00000050: 218c dd3d 5b35 8d3c f676 783d e7fc 7a3d
00000060: 034c 4c3c 7909 643c a2e3 d7bd 8d95 203d
00000070: 01f7 c03d 6331 c2bc 850e 2f3c 3690 03be
00000080: 0024 263c f575 763c 7d63 29bd 84cf 32bd
00000090: 6cad 1a3d 7184 c9bb 604b 5c3c cc6e bf3a
000000a0: 5608 303d 5fda 753d c2ff 623c 2679 a8bd
000000b0: 0933 aabd ad3e 96bc 4299 31bd 1dba a1bc
000000c0: 1d09 0c3d ba88 36bd da66 6cbd 5f8d 643d
000000d0: 88e1 a1bd b88a 693c 9a98 dabd 2ae0 f4bd
000000e0: e45b e03d 7757 cf3d 42e6 0f3a f4db a5bb
000000f0: de33 c5bd 1454 8f3d e56a 55bd 2a2d d1bd
00000100: a587 f8bb 8052 6a3d 5459 0fbd 5b9c 593d
00000110: 9f10 ef3d 6f54 763d 3817 e23b 319c 683d
00000120: cc41 a73d 5d23 4c3b ea58 79bc 5011 6c3d
00000130: 1332 ca3d 9a90 b43d 72d0 9dbd 9a94 8439
00000140: d93e 5b3d 19aa b63d 5ac4 413d 4058 55bd
00000150: 3834 60bc 1ff5 a2bd e1e8 0c3d 852d 9cbd
00000160: 0e1d 933d fd22 973c e1ed 643d 831a dfbd
00000170: e446 80bb 6afa 88bd 7a47 9ebc aa1c 8dbd
00000180: fb55 dfbc fab1 ba3d d67f c73d 8c06 213d
00000190: 7596 09bc da34 6c3d 5da8 8d3d 7625 d03c
000001a0: ddfe a93c ac0b 80bd 3d45 bf3d f233 17bd
000001b0: a1eb f5bd 1f82 9cbb 56b4 4abd e5d6 6f3d
000001c0: d4a1 9d3d 8071 f53b 5a7f 8dbd 29c9 42bd
000001d0: 2472 90bd e35c d73d ba5b edbd 6495 173d
000001e0: 7941 2fbd a234 623d 2752 76bd b92d 55bd
000001f0: b1e2 843d e444 92bd 461d 443b 9484 95bd
00000200: 4287 35bb 90c3 9bbd 3788 05be 6238 11be
00000210: 2745 01bd 7be7 abbd 78a4 ae3c 0ffc a93d
00000220: 6c2a cebd c06e a1bd f377 74bd 4cbe 6dbc
00000230: 5411 d2bd 5ca1 aa3d a928 203d b872 de3d
00000240: ca4a 943d 5277 8bbd ee8b 153d facc 2fbc
00000250: 5cac abbd 00b7 c13c 9f47 50bc 08f7 03be
00000260: 018f e23d 92ce 4dbb 6da4 6dbd ac50 853d
00000270: 93a3 8c3c 3861 a9bd 4d92 e93d 89a9 4abd
00000280: 454b a3bd 22f1 ebbc 7444 213d 3a79 a03d
00000290: f252 9ebb cf09 14bd a6dd 8cbd 2d41 703d
000002a0: fffd 023d 0d6d 4ebc e353 eebd 2796 c0bd
000002b0: 3c52 56bb d7ee 2f3d bde4 d43d 4f24 c03d
000002c0: 7ff1 77bd b43d a3bd 3bf5 573d 5b47 8a3d
000002d0: 3a5a 093d 78c7 71bd 05ef 8a3d 7495 cd3c
000002e0: 383a c13d b9e5 fe3a 381b d73b 6cb7 223d
000002f0: 2c03 c9bb f792 83bd 8a47 d53d dd57 01be
00000300: afcf b9bd 3396 a13d fcda 8abd bea8 abbb
00000310: fd8e abbd af94 51bc 6786 ddbd 3319 9bbc
00000320: add2 5b3d e469 83bd aba6 e43c 1c2a 8ebd
00000330: 201e bb3d 6fa8 29bc 9126 983c 90a0 0dbd
00000340: dbaa cc3d 002f 8dbd a1da 01bd 4948 79bd
00000350: dec7 93bd 4622 a6bd f9c2 49bd 41f6 f23b
00000360: efcd 91bb 5ca4 7b3d 2c18 383b 7bac aabd
00000370: 818d 82bc 7bd9 83bd fb3c 9ebd e4d2 89bd
00000380: 25bf 84b9 424c 1bbd 825a d5bd 8780 d83d
00000390: 1185 bc3d ecdc 81bc ce09 4abd 9013 dbbc
000003a0: 1e65 13bd 4141 b93d 0aed 51bd 4577 88bb
000003b0: 3fe5 25bd 21ff 8d3d 03aa 8f3c 09b3 953d
000003c0: 0aa3 5c3d 5ffa 58bc d864 89ba 8e59 3e3d
000003d0: 668c 93bd 18b7 953b 30fe a13d cef4 8c3d
000003e0: f30e e53d 7311 a13d 91be cfbc b3b8 bd3d
000003f0: 9132 bb3c ebf0 05be b2af 94bd d52d a53d

layers.0.forward_conv1d.bias f4 [64]
0.08791447 0.09897291 -0.04471551 0.012013005 0.0024827155 0.12029446 -0.11817164 -0.01935084
-0.103495836 -0.007240065 -0.11413719 0.03953489 0.08516557 -0.058761835 0.025568575 0.099498436
0.025207471 0.04657275 -0.050496332 -0.02547809 0.015888572 -0.09121233 -0.035935115 0.010812052
0.022017105 0.06531446 0.048949722 -0.014712949 0.023438986 -0.1272151 -0.08680114 -0.030227844
-0.096311145 0.012490087 -0.04308062 0.023628442 0.05599638 0.02749374 -0.06781043 0.040914703
0.089610316 -0.04349297 0.09227443 -0.013657901 0.0692055 -0.1344579 0.10799294 -0.034709405
0.035342123 -0.11893327 -0.0797316 -0.046988644 -0.082683146 0.11775736 -0.11280203 -0.052924447
0.010121506 0.092092834 0.006666232 0.07706582 -0.021901026 -0.0011891996 -0.08808781 0.048552938
00000000: 800c b43d 4fb2 ca3d 9c27 37bd 32d2 443c
00000010: 0eb5 223b f15c f63d f903 f2bd a785 9ebc
00000020: a0f5 d3bd 113e edbb c2c0 e9bd 56ef 213d
00000030: 496b ae3d 40b0 70bd 3075 d13c d6c5 cb3d
00000040: e67f ce3c 11c3 3e3d 3ed5 4ebd 6db7 d0bc
00000050: c028 823c 88cd babd b330 13bd 0825 313c
00000060: 375d b43c 96c3 853d 817f 483d 950e 71bc
00000070: 1e03 c03c ad44 02be ccc4 b1bd 62a0 f7bc
00000080: c73e c5bd 39a3 4c3c 4e75 30bd 6f90 c13c
00000090: 765c 653d 8d3a e13c 32e0 8abd 2d96 273d
000000a0: 9d85 b73d af25 32bd 60fa bc3d 64c5 5fbc
000000b0: 9dbb 8d3d 55af 09be 672b dd3d 732b 0ebd
000000c0: e7c2 103d 4993 f3bd 524a a3bd 2a77 40bd
000000d0: c855 a9bd c52a f13d c004 e7bd 4ec7 58bd
000000e0: acd4 253c 2b9b bc3d 6870 da3b afd4 9d3d
000000f0: c869 b3bc ebde 9bba 6267 b4bd 72df 463d

layers.0.backward_conv1d.weight f4 [64, 64, 1]
-0.09932412 -0.0074978992 0.021922957 0.05819535 0.12602389 0.0037958657 0.10448696 0.07225315
0.117843814 0.012297779 0.075059615 0.04803544 0.086144194 0.069932826 -0.042155687 0.076356195
0.0038165026 -0.043473057 -0.07998636 0.016411493 0.084698774 0.124877356 0.03307583 0.06281709
-0.07599624 -0.0535233 -0.047618315 -0.051885653 -0.06503619 0.04315388 0.11555317 -0.06477619
-0.09310649 0.07703917 -0.12801562 0.089057215 -0.012421012 0.03915691 0.010932516 -0.06308354
0.056364857 -0.08875287 -0.0131352395 0.08070332 0.08832915 -0.09774912 0.049257796 -0.03948385
-0.0011150001 0.058726676 -0.035664562 -0.10388816 -0.07608146 -0.036284097 -0.10332556 -0.103720404
-0.029667603 -0.028264867 -0.07563884 -0.07606382 -0.092938274 -0.05993771 -0.04738977 0.008362475
0.008331894 -0.05710033 0.04380295 0.011489121 0.034240678 -0.026321156 0.05389568 -0.022119148
-0.028208977 -0.06274878 0.06146066 0.045988515 -0.047177367 0.0010836909 -0.047588285 -0.04123664
0.07681788 -0.09306468 -0.045808744 0.01795783 -0.039088834 0.0129728075 0.079983756 -0.08760754
0.037824333 0.014463694 -0.031732503 0.082675554 -0.033374507 0.006490551 -0.08720428 2.2965856e-05
0.07492996 0.11015157 -0.045080412 0.08625315 -0.07320317 -0.07880349 0.03529071 0.105681166
0.07365177 -0.044754628 0.0542986 0.07598367 0.018199703 0.059364498 0.008039739 0.05715317
-0.108319685 0.0025731055 0.01891673 -0.027894111 -0.10250883 0.0529955 0.059968464 -0.10167694
-0.053965352 0.06494837 0.049126707 0.09296257 -0.06733518 -0.03785601 0.038050577 0.0022876237
0.009129201 -0.07565237 0.0140971625 -0.053355955 -0.054680564 0.078904025 0.036066256 0.008717861
-0.09607211 -0.012986698 -0.11999433 -0.09697774 0.08074969 0.07303914 -0.0031414516 0.059219554
-0.12387142 0.023902941 -0.0014554308 -0.06585772 0.049151085 -0.053069964 -0.08288855 0.0065315235
-0.026228966 0.109344296 -0.075163074 -0.014650997 -0.05301373 -0.076475374 0.05992381 -0.07296158
0.06925791 -0.055979207 -0.10068002 -0.05248991 0.034097593 0.043808557 -0.0690922 -0.062300034
-0.12529318 -0.13504688 0.03151829 0.09208825 0.11308818 0.11451394 0.13093568 -0.041515686
0.045039345 0.077088125 -0.00507894 -0.039269984 0.05918414 0.0764891 0.07830933 -0.115975186
-0.043197494 0.07478419 -0.08526689 -0.061816234 -0.11872818 -0.07318629 -0.06333573 -0.046754636
0.0070885154 0.013487801 0.08624391 0.03914348 0.04927573 -0.006920413 -0.04873274 -0.09778343
-0.013617595 0.024100875 -0.09449194 0.05830348 0.10449416 0.020525014 0.07173087 -0.05454494
0.0032755944 0.041514866 0.0046884203 0.020395983 -0.030043345 0.029907752 0.06034214 0.026338844
0.014515292 -0.0064157876 -0.022570537 -0.08907699 0.100579806 0.07892236 0.112420626 0.058394622
0.003150934 -0.018908001 -0.046723302 -0.01606364 -0.041022867 0.08320087 -0.09683665 -0.108541
0.00025234834 0.042360384 0.107046135 -0.0499876 -0.07878096 -0.03556173 0.04928504 -0.08239492
-0.060444225 0.061642222 0.05457231 0.037708983 -0.03495304 0.040528473 0.06992459 -0.08857259
0.0529746 0.09646763 0.021034265 -0.072016105 -0.1167808 0.10289658 -0.059227537 -0.022758877
00000000: 726a cbbd f0b0 f5bb c697 b33c 3f5e 6e3d
00000010: 680c 013e 0fc4 783b 42fd d53d 76f9 933d
00000020: 1958 f13d a07c 493c dbb8 993d cfc0 443d
00000030: 5e6c b03d f138 8f3d 71ab 2cbd a360 9c3d
00000040: 4a1e 7a3b ce10 32bd e4cf a3bd 6571 863c
00000050: 8d76 ad3d b3bf ff3d 867a 073d 3fa6 803d
00000060: eba3 9bbd 3f3b 5bbd 6c0b 43bd 0d86 54bd
00000070: b231 85bd 1fc2 303d 24a7 ec3d 61a9 84bd
00000080: 9eae bebd b6c6 9d3d 8716 03be a163 b63d
00000090: 8081 4bbc ff62 203d 4c1e 333c f131 81bd
000000a0: d6de 663d 11c4 b5bd 3035 57bc c847 a53d
000000b0: eae5 b43d b130 c8bd 8bc2 493d d1b9 21bd
000000c0: 3225 92ba 628b 703d 0115 12bd 51c3 d4bd
000000d0: 99d0 9bbd a29e 14bd 5a9c d3bd 5d6b d4bd
000000e0: 7909 f3bc b98b e7bc 89e8 9abd 59c7 9bbd
000000f0: 6c56 bebd 3f81 75bd c71b 42bd c302 093c
00000100: 7f82 083c 09e2 69bd b96a 333d de3c 3c3c
00000110: f43f 0c3d 779f d7bc b7c1 5c3d 3733 b5bc
00000120: 8316 e7bc 6f82 80bd 2cbe 7b3d 745e 3c3d
00000130: 0e3d 41bd a20a 8e3a efeb 42bd c0e7 28bd
00000140: b152 9d3d b298 bebd f3a1 3bbd 4d1c 933c
00000150: 9d1b 20bd e68b 543c 86ce a33d 956b b3bd
00000160: b0ed 1a3d 21f9 6c3c f1f9 01bd cd51 a93d
00000170: b5b3 08bd b0ae d43b 2898 b2bd cda6 c037
00000180: e174 993d 2597 e13d 3da6 38bd 7ea5 b03d
00000190: 8beb 95bd b963 a1bd fe8c 103d 5e6f d83d
000001a0: bdd6 963d a150 37bd 3568 5e3d 549d 9b3d
000001b0: 8b17 953c 3028 733d 1cb9 033c 7119 6a3d
000001c0: b6d6 ddbd 8ca1 283b 42f7 9a3c 3182 e4bc
000001d0: 26f0 d1bd cf11 593d 7ea1 753d 003c d0bd
000001e0: c60a 5dbd a703 853d 1639 493d 2963 be3d
000001f0: 07e7 89bd e70e 1bbd ecda 1b3d f5eb 153b
00000200: a592 153c a1ef 9abd c9f7 663c c68b 5abd
00000210: baf8 5fbd 6f98 a13d 36ba 133d 5cd5 0e3c
00000220: 74c1 c4bd 29c6 54bc 96bf f5bd 449c c6bd
00000230: 1860 a53d 8b95 953d d0e0 4dbb 3490 723d
00000240: 4db0 fdbd 1ad0 c33c 27c4 beba 6ae0 86bd
00000250: a652 493d e45f 59bd 79c1 a9bd 6406 d63b
00000260: 21de d6bc e7ef df3d 19ef 99bd bc0a 70bc
00000270: ed24 59bd 1f9f 9cbd ab72 753d e16c 95bd
00000280: 17d7 8d3d 744a 65bd 5431 cebd a9ff 56bd
00000290: eba9 0b3d 9a70 333d 3680 8dbd 522e 7fbd
000002a0: db4c 00be bb49 0abe 5319 013d c498 bc3d
000002b0: c79a e73d 4986 ea3d 0114 063e 5a0c 2abd
000002c0: 2d7b 383d 61e0 9d3d 3d6d a6bb 90d9 20bd
000002d0: 126b 723d 51a6 9c3d a460 a03d 6684 edbd
000002e0: dbef 30bd 7428 993d 68a0 aebd 0533 7dbd
000002f0: c327 f3bd b2e2 95bd 2ab6 81bd ca81 3fbd
00000300: c746 e83b f0fb 5c3c a6a0 b03d ea54 203d
00000310: 59d5 493d a2c4 e2bb fb9b 47bd ae42 c8bd
00000320: 551c 5fbc 336f c53c fe84 c1bd a1cf 6e3d
00000330: 0901 d63d 1324 a83c a2e7 923d 846a 5fbd
00000340: 5bab 563b 7e0b 2a3d 52a1 993b 7a15 a73c
00000350: 761d f6bc 1a01 f53c 5229 773d 8fc4 d73c
00000360: 8cd1 6d3c 873b d2bb d9e5 b8bc ff6d b6bd
00000370: c9fc cd3d 0ca2 a13d c93c e63d 332f 6f3d
00000380: e67f 4e3b f4e4 9abc ef60 3fbd e597 83bc
00000390: 9807 28bd 3865 aa3d 4b52 c6bd be4a debd
000003a0: 9f4d 8439 1582 2d3d 013b db3d ccbf 4cbd
000003b0: e957 a1bd 2da9 11bd 1cdf 493d abbe a8bd
000003c0: 5d94 77bd 8e7c 7c3d 3787 5f3d bc74 1a3d
000003d0: eb2a 0fbd 2f01 263d a034 8f3d 8c65 b5bd
000003e0: e5fb 583d d290 c53d 0d50 ac3c 2e7d 93bd
000003f0: c62a efbd 71bb d23d 9398 72bd d370 babc

layers.0.backward_conv1d.bias f4 [64]
0.099961035 0.0012946131 -0.11374633 0.0524782 -0.04830735 0.08379026 -0.0026642585 -0.119017065
-0.07702843 -0.010185083 -0.02203332 -0.117521025 0.0729714 0.0750627 -0.05655288 -0.11420928
0.038198102 -0.014003906 0.12109602 -0.058049444 0.0777777 -0.054471232 -0.10901351 -0.0012732013
-0.07288358 -0.05796086 -0.07714598 -0.00373667 -0.023070047 0.115196764 -0.054512963 -0.0057121506
-0.12970313 -0.022995863 0.09631271 -0.0048749447 -0.014965801 -0.109748624 0.06404029 0.10025729
-0.027915787 0.037644714 -0.060963806 0.025086382 -0.103957765 -0.019676255 0.121867105 0.07021371
0.0038083564 -0.031426035 -0.040108047 -0.015457992 -0.015760282 -0.10323213 0.11427825 0.10111997
-0.08262121 -0.051577237 -0.040854625 -0.09826219 -0.029507177 0.114940554 0.030435517 -0.110555746
00000000: 5fb8 cc3d 02b0 a93a d6f3 e8bd 62f3 563d
00000010: eedd 45bd 3a9a ab3d d79a 2ebb 38bf f3bd
00000020: 15c1 9dbd 56df 26bc 397f b4bc ddae f0bd
00000030: 0872 953d 79ba 993d fea3 67bd 8ee6 e9bd
00000040: 9d75 1c3d a470 65bc 3101 f83d 41c5 6dbd
00000050: ea49 9f3d 3a1d 5fbd 7a42 dfbd 8ce1 a6ba
00000060: fd43 95bd 5e68 6dbd b6fe 9dbd ebe2 74bb
00000070: 65fd bcbc 48ec eb3d fc48 5fbd fe2c bbbb
00000080: e6d0 04be d261 bcbc 993f c53d 00be 9fbb
00000090: 1e33 75bc e3c3 e0bd 8e27 833d b253 cd3d
000000a0: a6af e4bc 5831 1a3d 2fb5 79bd f581 cd3c
000000b0: cfe7 d4bd 1930 a1bc 7695 f93d 35cc 8f3d
000000c0: 9e95 793b 96b8 00bd 5648 24bd 8543 7dbc
000000d0: b51b 81bc 5e6b d3bd b70a ea3d fd17 cf3d
000000e0: 4f35 a9bd a742 53bd 2e57 27bd b03d c9bd
000000f0: 09b9 f1bc f465 eb3d e853 f93c 0d6b e2bd

layers.0.norm.weight f4 [64]
0.9975024 0.98443466 1.0054061 0.9633951 0.9834296 0.98877025 0.9866329 0.98382133
0.9878819 0.9928851 0.99179006 0.9739931 0.99842876 0.9710211 0.9924367 0.98183346
0.9948109 0.9886959 0.97636193 0.96583205 0.999311 0.98374933 0.9809897 0.9991874
0.9928548 0.992762 0.9735034 0.9846134 0.9945066 1.0057957 0.9860484 0.97999746
0.97203255 0.9793646 0.9804712 0.999016 0.9952771 0.9973503 0.98625135 0.9818625
0.9741657 0.9819281 0.9862661 1.0164106 0.9746841 0.97519773 0.98703605 1.0033665
0.9860137 0.9882192 1.0058756 0.9846907 0.98153394 0.97280836 0.97610736 0.97571295
0.98851895 0.9925301 1.0030483 0.99824125 0.9923274 0.98199785 0.96942526 0.9937166
00000000: 515c 7f3f e903 7c3f 26b1 803f 10a1 763f
00000010: 0bc2 7b3f 0c20 7d3f f993 7c3f b7db 7b3f
00000020: d4e5 7c3f b82d 7e3f f4e5 7d3f 9d57 793f
00000030: 0799 7f3f d794 783f 5510 7e3f 7059 7b3f
00000040: edab 7e3f 2d1b 7d3f dbf2 793f c540 773f
00000050: d8d2 7f3f ffd6 7b3f 2422 7b3f bfca 7f3f
00000060: bb2b 7e3f a725 7e3f 8537 793f a00f 7c3f
00000070: fc97 7e3f eabd 803f ab6d 7c3f 1de1 7a3f
00000080: 20d7 783f a3b7 7a3f 2900 7b3f 83bf 7f3f
00000090: 7bca 7e3f 5952 7f3f f87a 7c3f 575b 7b3f
000000a0: ec62 793f a45f 7b3f ef7b 7c3f be19 823f
000000b0: e684 793f 8fa6 793f 65ae 7c3f 506e 803f
000000c0: 656b 7c3f effb 7c3f 88c0 803f b114 7c3f
000000d0: cf45 7b3f f809 793f 2ce2 793f 53c8 793f
000000e0: 940f 7d3f 7416 7e3f e363 803f bd8c 7f3f
000000f0: 2b09 7e3f 3664 7b3f 412c 783f 3664 7e3f

layers.0.norm.bias f4 [64]
-0.0014449282 0.004264268 0.0016383999 -0.014510833 0.00077633804 0.00044489038 -0.0044203475 0.0025974251
0.01335872 -0.009588542 0.0003554011 0.012568491 -0.009142969 0.0059845904 0.0019100034 0.0011278309
0.0013047118 -0.008223442 0.010744851 -0.020120326 0.003461616 0.009694021 -0.00077490165 -0.011478975
0.011277139 -0.0039121644 -0.008556711 0.002978437 -0.015121806 0.005413125 -0.0054112053 -0.0060572275
-0.006494332 -0.00817101 -0.008303755 -0.0036732317 0.0004414545 0.0015452262 0.01764944 0.005939259
0.0022930286 9.609215e-05 -0.001264562 -0.0027584557 0.008594016 0.004291848 0.0014542587 -0.0012886913
-0.0024367832 -0.0035213297 -0.0015878452 -0.0003459442 0.0039274674 0.0065775267 -0.010918992 0.003243088
0.007300756 0.006044606 0.0011870898 0.0027884676 -0.000781734 -0.005626064 0.008062105 0.0009118861
00000000: bf63 bdba 46bb 8b3b 94bf d63a d8be 6dbc
00000010: 2a83 4b3a 2d40 e939 90d8 90bb 9039 2a3b
00000020: 88de 5a3c 4319 1dbc 2155 ba39 12ec 4d3c
00000030: 64cc 15bc 621a c43b 1459 fa3a bad3 933a
00000040: dd02 ab3a 9ebb 06bc 2c0b 303c 62d3 a4bc
00000050: 48dc 623b acd3 1e3c c522 4bba 5012 3cbc
00000060: c0c3 383c 9d31 80bb 7231 0cbc e231 433b
00000070: 74c1 77bc 9560 b13b 7b50 b1bb b57b c6bb
00000080: 68ce d4bb b3df 05bc 790c 08bc 9aba 70bb
00000090: 0573 e739 3089 ca3a 8f95 903c 1e9e c23b
000000a0: a346 163b 1585 c938 a9bf a5ba 35c7 34bb
000000b0: eacd 0c3c a1a2 8c3b d39c be3a 4ee9 a8ba
000000c0: 70b2 1fbb 1cc6 66bb 3e1f d0ba d85f b5b9
000000d0: fcb1 803b 4b88 d73b 92e5 32bc fd89 543b
000000e0: 2e3b ef3b d511 c63b 2098 9b3a b9be 363b
000000f0: 48ed 4cba d85a b8bb eb16 043c a40b 6f3a

layers.0.ssm.A_log f4 [64, 64]
0.011860008 0.09423669 0.50316226 0.50985515 0.6086485 0.746769 0.8985496 1.247369
1.3562084 1.2365638 1.3273188 1.5381316 1.4904795 1.5638599 1.6305593 1.6983835
1.7534444 1.8096434 1.862881 1.9134048 1.9614851 2.0073972 2.0511096 2.0931718
2.1334374 2.1721742 2.2094455 2.245363 2.2801034 2.3136125 2.3460388 2.3774295
2.4078832 2.4374578 2.4661734 2.4940627 2.5211852 2.547582 2.5732865 2.5983942
2.6228783 2.6467707 2.6700947 2.692884 2.715153 2.7369373 2.758247 2.779124
2.7995994 2.8196588 2.8393166 2.8585935 2.8775012 2.896053 2.9142451 2.932141
2.949699 2.9669447 2.9839094 3.0005689 3.0169828 3.033167 3.049068 3.0647097
0.008987583 0.12177453 0.6018559 0.61043143 0.66038394 0.75585544 0.9214972 1.3741192
1.496099 1.2625967 1.3288224 1.7055668 1.4919919 1.5694456 1.631088 1.7393322
1.7536167 1.8096372 1.8629422 1.9136288 1.9614713 2.0124924 2.0512671 2.0934021
2.1335292 2.172384 2.2095702 2.245449 2.2808414 2.3140917 2.3460412 2.3774447
2.4079044 2.4374702 2.4661827 2.4940507 2.5211902 2.547594 2.5733032 2.5984015
2.6228726 2.646792 2.6700826 2.6929543 2.7151928 2.7369306 2.7582445 2.779171
2.7996237 2.8196657 2.839317 2.8585875 2.8775022 2.8960485 2.9142487 2.932143
2.949702 2.9669437 2.9839091 3.000574 3.016984 3.0331676 3.0490668 3.0647094
-0.020308059 0.094770476 0.48342827 0.5579216 0.6044739 0.7625929 0.9096301 1.2956287
1.3879046 1.2370962 1.3274095 1.6182965 1.4912534 1.5631459 1.6305368 1.710719
1.7534128 1.8096684 1.8628403 1.9134209 1.9614625 2.0075376 2.0510798 2.0931137
2.1334171 2.1721647 2.2094471 2.2453678 2.2801526 2.3136818 2.3460503 2.3774304
2.407879 2.4374568 2.4661644 2.4940667 2.521184 2.5475776 2.573287 2.5983944
2.6228774 2.6467693 2.6700926 2.6928816 2.7151542 2.736936 2.7582479 2.7791247
2.7996023 2.8196583 2.8393166 2.8585925 2.8775012 2.8960528 2.9142454 2.9321413
2.9496994 2.9669447 2.9839094 3.0005689 3.0169826 3.0331666 3.0490677 3.0647097
0.02266756 0.06881924 0.41941637 0.5277168 0.6168116 0.751497 0.9055086 1.1827178
1.3161436 1.2383353 1.3273016 1.5254499 1.4909351 1.5632026 1.6307636 1.697094
1.7535148 1.8097178 1.8628589 1.9133852 1.9614446 2.0072813 2.051131 2.0931234
2.1334434 2.1721485 2.2094445 2.2453547 2.280103 2.3136163 2.3460433 2.3774242
2.4078836 2.4374642 2.4661648 2.4940639 2.521183 2.547579 2.5732868 2.5983949
2.6228812 2.6467693 2.6700926 2.6928816 2.715154 2.7369387 2.7582474 2.7791257
2.7995994 2.819658 2.8393166 2.8585935 2.8775012 2.896053 2.9142451 2.932141
2.949699 2.9669447 2.9839094 3.0005693 3.0169828 3.0331666 3.049068 3.0647097
00000000: 7b50 423c 2aff c03d 3ecf 003f de85 023f
00000010: 63d0 1b3f 412c 3f3f 5907 663f caa9 9f3f
00000020: 3d98 ad3f b947 9e3f 95e5 a93f 7fe1 c43f
00000030: 08c8 be3f 902c c83f 2bb6 d03f a164 d93f
00000040: de70 e03f 65a2 e73f e272 ee3f 73ea f43f
00000050: f211 fb3f 3279 0040 6145 0340 87f6 0540
00000060: 3d8a 0840 e704 0b40 8e67 0d40 07b4 0f40
00000070: 37ed 1140 3a12 1440 8025 1640 ce27 1840
00000080: c21a 1a40 4fff 1b40 c9d5 1d40 b99e 1f40
00000090: 195b 2140 950b 2340 bab0 2440 174c 2640
000000a0: 3ddd 2740 b164 2940 d5e2 2a40 3658 2c40
000000b0: 11c5 2d40 fb29 2f40 1e87 3040 2bdd 3140
000000c0: a32c 3340 4a75 3440 5db7 3540 32f3 3640
000000d0: fb28 3840 ef58 3940 fe82 3a40 33a8 3b40
000000e0: dec7 3c40 6ce2 3d40 5ff8 3e40 5209 4040
000000f0: 3f16 4140 681f 4240 ee23 4340 3424 4440
00000100: a840 133c ed64 f93d 3a13 1a3f 3c45 1c3f
00000110: ec0e 293f be7f 413f 3ee7 6b3f 23e3 af3f
00000120: 2c80 bf3f c59c a13f da16 aa3f 0350 da3f
00000130: 97f9 be3f 98e3 c83f 7ec7 d03f 70a2 de3f
00000140: 8376 e03f 31a2 e73f e474 ee3f caf1 f43f
00000150: 7e11 fb3f adcc 0040 f647 0340 4dfa 0540
00000160: be8b 0840 5708 0b40 9969 0d40 70b5 0f40
00000170: 4ef9 1140 141a 1440 8a25 1640 0e28 1840
00000180: 1b1b 1a40 83ff 1b40 f0d5 1d40 879e 1f40
00000190: 2e5b 2140 c80b 2340 00b1 2440 364c 2640
000001a0: 25dd 2740 0a65 2940 a2e2 2a40 5d59 2c40
000001b0: b8c5 2d40 df29 2f40 1487 3040 f0dd 3140
000001c0: 092d 3340 6775 3440 5fb7 3540 19f3 3640
000001d0: ff28 3840 dc58 3940 0d83 3a40 3ba8 3b40
000001e0: ebc7 3c40 68e2 3d40 5ef8 3e40 6809 4040
000001f0: 4416 4140 6b1f 4240 e923 4340 3324 4440
00000200: 165d a6bc 0617 c23d e983 f73e f3d3 0e3f
00000210: cdbe 1a3f 4a39 433f 85dd 683f 29d7 a53f
00000220: dca6 b13f 2b59 9e3f 8ee8 a93f 5724 cf3f
00000230: 64e1 be3f 2a15 c83f 6eb5 d03f d7f8 da3f
00000240: d56f e03f 37a3 e73f 8d71 ee3f faea f43f
00000250: 3411 fb3f 7f7b 0040 e444 0340 93f5 0540
00000260: e889 0840 bf04 0b40 9567 0d40 1bb4 0f40
00000270: 05ee 1140 5d13 1440 b025 1640 d227 1840
00000280: b11a 1a40 4bff 1b40 a3d5 1d40 ca9e 1f40
00000290: 145b 2140 830b 2340 bcb0 2440 184c 2640
000002a0: 39dd 2740 ab64 2940 cce2 2a40 2c58 2c40
000002b0: 16c5 2d40 f629 2f40 2287 3040 2edd 3140
000002c0: af2c 3340 4875 3440 5db7 3540 2ef3 3640
000002d0: fb28 3840 ee58 3940 ff82 3a40 34a8 3b40
000002e0: e0c7 3c40 6ce2 3d40 5ff8 3e40 5209 4040
000002f0: 3e16 4140 671f 4240 ed23 4340 3424 4440
00000300: 52b1 b93c 1af1 8c3d bebd d63e 7318 073f
00000310: 5de7 1d3f 1b62 403f 69cf 673f 4c63 973f
00000320: 6577 a83f c581 9e3f 05e5 a93f f141 c33f
00000330: f6d6 be3f 0617 c83f ddbc d03f 603a d93f
00000340: 2c73 e03f d5a4 e73f 2972 ee3f cee9 f43f
00000350: 9e10 fb3f 4c77 0040 bb45 0340 bcf5 0540
00000360: 568a 0840 7b04 0b40 8a67 0d40 e4b3 0f40
00000370: 35ed 1140 4a12 1440 9325 1640 b827 1840
00000380: c41a 1a40 6aff 1b40 a5d5 1d40 be9e 1f40
00000390: 105b 2140 890b 2340 bbb0 2440 1a4c 2640
000003a0: 49dd 2740 ab64 2940 cce2 2a40 2c58 2c40
000003b0: 15c5 2d40 012a 2f40 2087 3040 32dd 3140
000003c0: a32c 3340 4775 3440 5db7 3540 32f3 3640
000003d0: fb28 3840 ef58 3940 fe82 3a40 33a8 3b40
000003e0: dec7 3c40 6ce2 3d40 5ff8 3e40 5409 4040
000003f0: 3f16 4140 671f 4240 ee23 4340 3424 4440

layers.0.ssm.D f4 [64]
0.9855266 0.9907248 0.968234 0.975376 0.9637567 1.0032305 0.9695903 0.99508154
0.9710378 0.99732596 0.99247974 0.96341145 0.9830893 0.9937107 0.96128976 0.97147506
0.9824319 0.9957639 0.9991071 0.99644405 0.97299165 0.96782404 0.981394 1.004605
0.97847784 0.99406093 0.9632912 0.9957438 0.98915726 0.8957158 0.97979397 0.995391
0.99403775 0.96386534 0.9617975 0.9768607 0.98544824 1.0042998 0.97315204 1.0002575
0.98814297 0.9841901 0.97402084 0.9249867 0.9801876 0.9736066 0.96779996 0.97876436
0.99384904 0.9498614 0.99437505 0.9943177 0.9976164 0.9995455 0.9901162 0.98024476
0.982047 0.9933555 0.9223311 0.97705734 0.9897465 0.987467 0.96704555 0.99349505
00000000: 794b 7c3f 24a0 7d3f 2fde 773f 3eb2 793f
00000010: c2b8 763f db69 803f 1237 783f aabd 7e3f
00000020: ef95 783f c150 7f3f 2713 7e3f 22a2 763f
00000030: beab 7b3f d363 7e3f 1617 763f 97b2 783f
00000040: a880 7b3f 62ea 7e3f 7cc5 7f3f f516 7f3f
00000050: fb15 793f 51c3 773f a33c 7b3f e696 803f
00000060: 867d 7a3f c77a 7e3f 419a 763f 11e9 7e3f
00000070: 6939 7d3f a14d 653f c7d3 7a3f f2d1 7e3f
00000080: 4279 7e3f e1bf 763f 5c38 763f 8b13 7a3f
00000090: 5646 7c3f e58c 803f 7e20 793f 7008 803f
000000a0: f0f6 7c3f e2f3 7b3f 6e59 793f eecb 6c3f
000000b0: 93ed 7a3f 483e 793f bdc1 773f 4d90 7a3f
000000c0: e46c 7e3f 1e2a 733f 5d8f 7e3f 9b8b 7e3f
000000d0: ca63 7f3f 37e2 7f3f 4178 7d3f 52f1 7a3f
000000e0: 6f67 7b3f 8c4c 7e3f e41d 6c3f 6e20 7a3f
000000f0: 0760 7d3f a3ca 7c3f 4c90 773f b155 7e3f

layers.0.ssm.deltaBC_layer.weight f4 [144, 64]
0.077855326 -0.07832677 -0.03284105 -0.056883916 0.009281103 0.08472716 0.036955427 0.08971838
-0.049984995 0.042463582 0.10793261 0.07923238 -0.0018347291 0.10192463 0.1169295 -0.005495167
0.087178335 0.046564948 -0.07996663 -0.08443711 -0.04296673 0.0100018475 0.051820237 0.10889566
0.040965613 0.047994483 0.116778135 -0.09731746 -0.03073233 0.11267554 0.007967197 -0.06586517
-0.001020213 0.034934577 0.075322345 0.036564395 0.0048991037 -0.07285669 0.058530692 -0.06807024
0.08518446 0.029367361 -0.0827691 0.016185718 -0.052850273 -0.05486433 -0.0013949313 0.034993045
0.083794855 0.037374657 -0.032990936 -0.00455304 0.116672404 0.013423554 0.09357436 0.101509325
-0.07029477 0.013727902 -0.09672559 0.051461928 -0.013384872 -0.099286616 0.11767223 0.098270014
0.10695747 0.052996278 -0.10360035 -0.051933445 0.026169896 -0.010682812 -0.054190785 0.06350078
-0.06617164 0.09937747 0.07955845 0.0143363755 0.009278714 0.020016558 0.036202952 0.004903995
-0.07398888 0.031825487 0.09193627 0.018473526 -0.02676194 0.074459136 -0.10628986 0.033036135
-0.0650261 -0.065280095 -0.07071189 -0.08720234 0.007888426 -0.054825153 0.07701817 -0.09869877
0.027919808 0.107544765 -0.027811252 0.08392387 -0.01001818 0.008652081 0.04822947 -0.012304864
0.05246467 -0.09859755 0.05875735 0.06818644 0.022162318 0.02554023 0.077884406 0.011820613
-0.03339849 -0.014131903 0.037230324 -0.024428649 0.060311154 0.057120092 0.11060667 0.07567936
-0.002971334 0.10594596 0.09862489 -0.03334105 0.02668281 0.09092239 -0.097884744 0.09652989
-0.09677894 0.058997486 0.08806254 0.10277152 -0.060631044 0.034783162 -0.09300917 -0.0034419459
0.01910747 -0.015811412 0.024916984 0.04652398 0.049790356 0.007908628 -0.060711645 -0.0436299
-0.0103933215 -0.0463689 -0.04017531 0.08398393 -0.070211306 0.046741486 0.11876531 -0.059827797
0.006194723 0.039125975 -0.039202377 0.020915627 -0.11248547 0.057992384 0.03787875 -0.07374491
0.025404204 -0.046969745 -0.07492073 0.09550975 -0.10487735 0.088473625 0.113792926 0.074973226
0.07452374 0.10179296 0.06797543 -0.1133739 0.024957497 -0.04927566 -0.048776258 0.09941745
0.1010348 0.06486145 -0.032656085 -0.06933362 0.014347356 0.022233056 0.12876526 -0.080451
-0.08567982 -0.05434807 -0.00084879476 -0.00094242534 -0.03039283 -0.03103159 -0.11445237 -0.050450545
-0.09005194 0.0737923 0.113632 0.07788235 -0.055554695 -0.018497588 0.07020671 0.058958247
0.08638677 -0.0073303287 0.04625885 -0.017955776 0.085324936 -0.09991684 -0.044001363 0.08448321
0.09222207 -0.005803952 -0.01716825 0.062405862 -0.08348382 -0.076008104 -0.015207646 -0.08641663
-0.079455644 0.047347914 0.11340419 0.115975045 -0.015498612 0.009789288 0.020866903 0.034650724
0.06755066 0.07203196 -0.025749706 0.10491991 0.0008025031 -0.015948974 -0.01528912 0.005900634
0.0747528 0.1101318 -0.04326442 -0.06130045 0.11383685 -0.09705105 -0.047510494 0.032991793
0.11210966 0.067678 -0.09884581 -0.07058362 0.005453682 0.009581063 0.09250911 0.1120469
-0.003842034 0.03724266 0.07842702 0.064528525 -0.033137403 0.059283674 0.05171985 0.023569392
00000000: 9d72 9f3d c969 a0bd 5684 06bd 1cff 68bd
00000010: c40f 183c 6f85 ad3d 935e 173d 45be b73d
00000020: 11bd 4cbd 4bee 2d3d c60b dd3d 9644 a23d
00000030: 4b7b f0ba dcbd d03d bc78 ef3d cd10 b4bb
00000040: 8e8a b23d e3ba 3e3d 8bc5 a3bd 5ded acbd
00000050: e2fd 2fbd cade 233c 7541 543d b004 df3d
00000060: 8fcb 273d dd95 443d 6029 ef3d 604e c7bd
00000070: 5ec2 fbbc 6fc2 e63d d988 023c 51e4 86bd
00000080: abb8 85ba 8f17 0f3d 9a42 9a3d 8cc4 153d
00000090: a988 a03b e335 95bd e1bd 6f3d 6968 8bbd
000000a0: 3175 ae3d d293 f03c d982 a9bd e997 843c
000000b0: 8779 58bd 6bb9 60bd 21d6 b6ba de54 0f3d
000000c0: a39c ab3d 2b16 193d 8121 07bd ab31 95bb
000000d0: f1f1 ee3d 77ee 5b3c eaa3 bf3d 1fe4 cf3d
000000e0: b4f6 8fbd ffea 603c 1118 c6bd bec9 523d
000000f0: 394c 5bbc c856 cbbd 23fe f03d ca41 c93d
00000100: 850c db3d a012 593d 6c2c d4bd 2ab8 54bd
00000110: 4062 d63c f606 2fbc 28f7 5dbd b20c 823d
00000120: ff84 87bd 6a86 cb3d 8aef a23d 1ee3 6a3c
00000130: bf05 183c c4f9 a33c 8c49 143d b1b1 a03b
00000140: 7b87 97bd 715b 023d 1549 bc3d cb55 973c
00000150: db3b dbbc 087e 983d 80ae d9bd e650 073d
00000160: 672c 85bd 92b1 85bd 65d1 90bd 2497 b2bd
00000170: 753e 013c 5790 60bd b4bb 9d3d 9522 cabd
00000180: 15b8 e43c 6e40 dc3d 6cd4 e3bc 47e0 ab3d
00000190: 4b23 24bc 75c1 0d3c 448c 453d 579a 49bc
000001a0: 32e5 563d 83ed c9bd 8cab 703d 55a5 8b3d
000001b0: c08d b53c bf39 d13c dc81 9f3d 3fab 413c
000001c0: dbcc 08bd 7f89 67bc d37e 183d 971e c8bc
000001d0: d408 773d c2f6 693d c085 e23d c8fd 9a3d
000001e0: b6ba 42bb 32fa d83d d9fb c93d a090 08bd
000001f0: e995 da3c 8535 ba3d cc77 c8bd 77b1 c53d
00000200: 0934 c6bd 59a7 713d 225a b43d e079 d23d
00000210: 4258 78bd ca78 0e3d 977b bebd 4592 61bb
00000220: 4587 9c3c ef86 81bc b41e cc3c ee8f 3e3d
00000230: f9f0 4b3d 3193 013c c6ac 78bd 44b5 32bd
00000240: c048 2abc 51ed 3dbd de8e 24bd c4ff ab3d
00000250: f2ca 8fbd 0074 3f3d 3a3b f33d fe0d 75bd
00000260: 1afd ca3b 8f42 203d ac92 20bd 4057 ab3c
00000270: c85e e6bd 6c89 6d3d c026 1b3d 9207 97bd
00000280: 7a1c d03c 5963 40bd 0a70 99bd 9e9a c33d
00000290: f0c9 d6bd a931 b53d 440c e93d 908b 993d
000002a0: e79f 983d d478 d03d b436 8b3d 9330 e8bd
000002b0: aa73 cc3c 46d5 49bd 9dc9 47bd 609b cb3d
000002c0: 55eb ce3d 14d6 843d 63c2 05bd c9fe 8dbd
000002d0: 2c11 6b3c 1922 b63c 0adb 033e 7ec3 a4bd
000002e0: e778 afbd 159c 5ebd a781 5eba 180d 77ba
000002f0: 62fa f8bc f635 febc 0166 eabd 3ba5 4ebd
00000300: 276d b8bd 6b20 973d e5b7 e83d c880 9f3d
00000310: 528d 63bd 4188 97bc 89c8 8f3d 347e 713d
00000320: 8ceb b03d 4133 f0bb eb79 3d3d fe17 93bc
00000330: d7be ae3d 33a1 ccbd c63a 34bd 8905 ad3d
00000340: edde bc3d 142f bebb 6ea4 8cbc 4a9d 7f3d
00000350: 91f9 aabd 23aa 9bbd 7e29 79bc 34fb b0bd
00000360: a4b9 a2bd e3ef 413d 7540 e83d 5384 ed3d
00000370: e4ed 7dbc 4063 203c 11f1 aa3c ebed 0d3d
00000380: 0058 8a3d 7e85 933d 0cf1 d2bc 40e0 d63d
00000390: 125f 523a 6ca7 82bc 387f 7abc 1b5a c13b
000003a0: ff17 993d c88c e13d 0836 31bd 2e16 7bbd
000003b0: 4b23 e93d b3c2 c6bd 5d9a 42bd 6722 073d
000003c0: c099 e53d c39a 8a3d ac6f cabd 258e 90bd
000003d0: cdb4 b23b e4f9 1c3c 6b75 bd3d d878 e53d
000003e0: a2ca 7bbb c28b 183d 589e a03d 8827 843d
000003f0: 16bb 07bd 70d3 723d 32d8 533d 9914 c13c

layers.0.ssm.dt_proj_layer.weight f4 [64, 16]
0.19448121 -0.049201638 -0.11223426 0.04781682 -0.008795342 0.08650376 -0.03988072 -0.095869206
-0.12160656 0.08616295 -0.033108 -0.12646738 -0.17513894 0.09757562 0.03636956 0.0066732517
0.07622148 -0.106091104 -0.0025486962 -0.13672166 0.033228464 0.1682457 0.005102534 -0.04582654
-0.04009101 0.03590826 0.06568496 0.06554665 -0.13569066 0.1159601 0.089593224 -0.024664504
-0.23627916 -0.06865233 -0.08091331 0.02850605 0.08054938 0.22423272 0.010481091 -0.17864053
-0.022579111 0.0697689 -0.07171428 -0.0020514964 -0.13117144 0.2295495 0.047203477 -0.0104252
-0.16016999 0.042882375 -0.11565773 0.14170162 0.074173965 -0.01587731 -0.06685304 -0.0070649604
0.115294695 0.07812657 -0.091380104 0.023857841 -0.011810665 -0.15039954 0.0071241423 0.20134735
0.027395744 -0.067170024 -0.17998928 -0.011775614 -0.025004748 0.043459635 -0.03414914 -0.035517197
-0.019176379 -0.1550477 -0.05942015 -0.12651733 0.24835107 -0.027300293 -0.003190655 -0.10390355
0.0020453234 0.16652408 -0.22786403 0.24484423 0.17884573 -0.024430197 0.124725305 0.016025396
0.22307716 0.13956429 0.11231497 -0.12664923 -0.23146331 -0.23838401 0.22422774 0.06504466
0.028285557 0.096021466 -0.17485926 -0.11624726 -0.02591741 -0.15206668 0.17059158 -0.048467156
0.08058148 -0.02852643 0.03446291 0.20032641 -0.008136911 -0.20679395 0.08878286 -0.057619885
0.07658568 -0.11461891 -0.030348644 -0.14326954 0.030362628 0.10297435 -0.10081121 0.22163835
-0.0841167 0.09428049 -0.0039177337 0.14276464 -0.18760891 -0.15840472 -0.1986839 0.18026493
-0.16971023 0.0067614503 0.056033365 -0.065713644 0.013015246 -0.10995753 0.021511193 -0.018743953
0.07484359 -0.051981386 -0.019346176 0.12259689 0.21327356 0.18919691 -0.1599442 -0.058077145
-0.0988624 -0.025640097 0.025866061 0.14248434 -0.0034435948 -0.07162948 0.0077009583 -0.03302724
-0.0072363103 -0.0068133753 0.017472278 0.011793649 -0.04577189 -0.0746013 0.02056391 -0.04970921
-0.08517617 -0.1471802 0.18551585 -0.13214752 -0.020518916 0.011349569 0.18299098 0.07098375
-0.07024634 0.06458703 0.06718679 -0.04624259 0.025929833 0.04731095 -0.13604264 -0.060644668
-0.14943913 -0.027926743 -0.06651257 0.024317147 0.06819693 -0.120159715 -0.073090605 -0.09324502
-0.019452287 0.09624776 -0.1651003 -0.12100661 -0.035987996 0.12546548 0.1728451 -0.07166106
0.15205188 -0.20821552 -0.113880396 -0.03749548 -0.08228135 -0.18860306 -0.1033481 0.17489721
0.10694644 0.092144966 0.133506 0.03532573 0.12798001 -0.17818849 -0.102787115 0.051896043
-0.012927757 0.22517262 -0.09878478 -0.073707074 -0.05542862 -0.040150784 -0.13976358 -0.034215987
-0.01599947 0.04840665 0.07307236 0.042216428 -0.03616981 0.16758391 -0.048899863 -0.017329574
-0.12943532 0.14282918 -0.002560009 0.029006647 0.017393762 0.19452398 -0.01556325 -0.010739459
0.03344943 0.034944315 -0.11326186 0.032910656 -0.05833725 0.084155485 -0.06688667 -0.10748654
0.17212828 0.123166025 -0.04105292 -0.016054217 -0.0011930497 -0.1587394 -0.005253025 -0.13731743
-0.004953622 -0.021962015 -0.024766086 0.05291947 -0.11224586 -0.09212196 0.12489699 -0.045860864
00000000: 1526 473e a887 49bd 13db e5bd 92db 433d
00000010: 571a 10bc e228 b13d f759 23bd 1357 c4bd
00000020: dc0c f9bd 3376 b03d 419c 07bd aa80 01be
00000030: 9f57 33be bad5 c73d 3ff8 143d 4bab da3b
00000040: 021a 9c3d 4b46 d9bd 0708 27bb c300 0cbe
00000050: 921a 083d 9a48 2c3e 2833 a73b 9cb4 3bbd
00000060: 7936 24bd 8a14 133d d685 863d 523d 863d
00000070: 7ef2 0abe 7d7c ed3d a77c b73d 370d cabc
00000080: 2af3 71be 9899 8cbd e1b5 a5bd 8585 e93c
00000090: 13f7 a43d 439d 653e e2b8 2b3c 8bed 36be
000000a0: d4f7 b8bc ffe2 8e3d f0de 92bd 6672 06bb
000000b0: ce51 06be 060f 6b3e 6f58 413d 75ce 2abc
000000c0: 9a03 24be 6ea5 2f3d f6dd ecbd 3b1a 113e
000000d0: 85e8 973d 2211 82bc 3fea 88bd 2f81 e7bb
000000e0: a01f ec3d d300 a03d 7e25 bbbd 8571 c33c
000000f0: 8581 41bc 5602 1abe a371 e93b 002e 4e3e
00000100: 0a6d e03c 7090 89bd 1c4f 38be 81ee 40bc
00000110: c2d6 ccbc bb02 323d f8df 0bbd 7b7a 11bd
00000120: c817 9dbc d3c4 1ebe 8b62 73bd c28d 01be
00000130: be4f 7e3e dda4 dfbc 4f1a 51bb 62cb d4bd
00000140: d50a 063b 4a85 2a3e 3055 69be 72b8 7a3e
00000150: 5623 373e d621 c8bc fb6f ff3d b147 833c
00000160: 576e 643e f1e9 0e3e 6405 e63d 56b0 01be
00000170: b804 6dbe f01a 74be f59b 653e 2236 853d
00000180: 1db7 e73c e7a6 c43d 4e0e 33be 0b13 eebd
00000190: c050 d4bc 5eb7 1bbe 8faf 2e3e 7f85 46bd
000001a0: e707 a53d 42b0 e9bc fb28 0d3d 5e22 4d3e
000001b0: ae50 05bc cbc1 53be cad3 b53d d402 6cbd
000001c0: f4d8 9c3d 52bd eabd b89d f8bc 40b5 12be
000001d0: 0cbb f83c 37e4 d23d 1c76 cebd 2af5 623e
000001e0: 6045 acbd 2116 c13d 5560 80bb e530 123e
000001f0: 8d1c 40be d934 22be cb73 4bbe 5f97 383e
00000200: 85c8 2dbe 288f dd3b 3e83 653d e094 86bd
00000210: e63d 553c 6a31 e1bd 3e38 b03c eb8c 99bc
00000220: 9947 993d 6fea 54bd df7b 9ebc 1414 fb3d
00000230: 6264 5a3e d6bc 413e 6ac8 23be 4de2 6dbd
00000240: 5f78 cabd 2e0b d2bc 10e5 d33c 6ae7 113e
00000250: efad 61bb 7ab2 92bd 5258 fc3b 9247 07bd
00000260: 921e edbb bc42 dfbb 0622 8f3c 263a 413c
00000270: 4e7b 3bbd 91c8 98bd a575 a83c e29b 4bbd
00000280: d870 aebd 68b6 16be def7 3d3e ae51 07be
00000290: 4917 a8bc 8bf3 393c fd61 3b3e ee5f 913d
000002a0: 50dd 8fbd 3446 843d 3a99 893d df68 3dbd
000002b0: cd6a d43c 20c9 413d c34e 0bbe 8b66 78bd
000002c0: 9206 19be a0c6 e4bc be37 88bd c134 c73c
000002d0: d5aa 8b3d 4c16 f6bd 87b0 95bd 3ff7 bebd
000002e0: 675a 9fbc 8c1d c53d 0e10 29be 50d2 f7bd
000002f0: 2668 13bd 067a 003e 4efe 303e 09c3 92bd
00000300: 7db3 1b3e 7336 55be 203a e9bd dc94 19bd
00000310: 2083 a8bd 2921 41be 2ba8 d3bd 4118 333e
00000320: bc06 db3d 80b6 bc3d ccb5 083e b6b1 103d
00000330: 310d 033e 0b77 36be 0d82 d2bd f290 543d
00000340: f1ce 53bc a793 663e ad4f cabd bcf3 96bd
00000350: 1f09 63bd 2675 24bd 2f1e 0fbe 1026 0cbd
00000360: 5211 83bc 0d46 463d f6a6 953d 22eb 2c3d
00000370: cb26 14bd 1e9b 2b3e 394b 48bd c0f6 8dbc
00000380: b18a 04be d041 123e d3c5 27bb 599f ed3c
00000390: 5d7d 8e3c 4b31 473e 00fd 7ebc 8ef4 2fbc
000003a0: 4502 093d c521 0f3d d6f5 e7bd 53cd 063d
000003b0: 0af3 6ebd b659 ac3d e1fb 88bd e721 dcbd
000003c0: 6542 303e 783e fc3d 1b27 28bd 2284 83bc
000003d0: 1b60 9cba 958c 22be 9121 acbb f19c 0cbe
000003e0: fe51 a2bb afe9 b3bc 3fe2 cabc 16c2 583d
000003f0: 28e1 e5bd 70aa bcbd fec9 ff3d 9ad8 3bbd

layers.0.ssm.dt_proj_layer.bias f4 [64]
0.1768524 -0.21128376 -0.068179645 0.1872571 0.24688154 -0.09030146 -0.12426776 0.09621224
-0.1421734 -0.059388362 0.04519755 0.09504408 0.030355927 -0.11189467 -0.103647776 0.12555605
0.11614093 0.07695717 0.2201279 -0.20943499 0.1912144 0.16503866 0.1842113 0.12217586
-0.1706282 -0.06428244 -0.21206535 0.117990725 0.17292783 -0.14279507 0.15485248 0.1375277
0.057659253 -0.07319769 0.19590372 0.10729413 -0.0039189435 -0.09885603 0.17845051 0.025026273
0.08993868 0.21676935 -0.096627325 -0.021250892 -0.06407133 -0.07451849 0.21187973 0.006285709
-0.19500697 0.21656054 0.09918039 0.0852537 -0.17001842 0.15680104 0.1406375 -0.18233705
-0.15131903 0.016021842 -0.20667548 0.12050021 0.18652149 -0.15277702 -0.166394 -0.14270717
00000000: cc18 353e c55a 58be c5a1 8bbd 53c0 3f3e
00000010: 84ce 7c3e f9ef b8bd 1880 febd ec0a c53d
00000020: e795 11be 3641 73bd 1121 393d 78a6 c23d
00000030: feac f83c 0829 e5bd 4945 d4bd c491 003e
00000040: 4cdb ed3d b99b 9d3d 3569 613e 2076 56be
00000050: b5cd 433e e5ff 283e e3a1 3c3e 5637 fa3d
00000060: 29b9 2ebe 83a6 83bd a927 59be 1fa5 f13d
00000070: fe13 313e df38 12be a691 1e3e 10d4 0c3e
00000080: 1c2c 6c3d ace8 95bd fc9a 483e 06bd db3d
00000090: 7b6a 80bb 0875 cabd bbbb 363e e603 cd3c
000000a0: c531 b83d c9f8 5d3e 8ce4 c5bd 5a16 aebc
000000b0: d437 83bd 269d 98bd 00f7 583e 59f8 cd3b
000000c0: e8af 47be 0cc2 5d3e 171f cb3d 7e99 ae3d
000000d0: 4f19 2ebe 7490 203e 4703 103e 90b6 3abe
000000e0: 60f3 1abe 3d40 833c bda2 53be d0c8 f63d
000000f0: 7dff 3e3e 9471 1cbe 3063 2abe d421 12be
