vim_model.pth (torch, 834518 bytes, 71 tensors)

cls_token f4 [1, 1, 80]
0	0x3eee69ee	0.46565193
1	0xbe154b4d	-0.14579506
2	0xbeddf446	-0.43350428
3	0x3f602a66	0.87564695
4	0x3ef779ec	0.48335207
5	0x3ebcd2b1	0.36879495
6	0x3e917eb3	0.28416976
7	0xbff19f46	-1.8876731
8	0xbee65b5e	-0.44991583
9	0x400f0d75	2.2351964
10	0x3ee33c27	0.4438183
11	0xbf1a6ccf	-0.6032228
12	0x3ffed7ee	1.9909647
13	0xbf11ea90	-0.5699854
14	0xbe2c544a	-0.16829029
15	0xc008c5b8	-2.1370678
16	0xbf1c861d	-0.6114214
17	0xbee44572	-0.44584233
18	0xbf3991ab	-0.72487897
19	0xbe5ca47b	-0.2154712
20	0xbfa97671	-1.323927
21	0xbe0197a3	-0.12655501
22	0x3f02bc66	0.51068723
23	0xbddcc563	-0.10779836
24	0x3ff494ad	1.9107872
25	0x3fc1e870	1.5149059
26	0xbfa5d0cc	-1.2954345
27	0xbe8a214c	-0.26978528
28	0xbff198fb	-1.8874811
29	0xbe3669d8	-0.17813814
30	0x3ef241fe	0.47315973
31	0xbf0dc672	-0.5538093
32	0xbedc7fe6	-0.4306633
33	0xbf44c0f6	-0.76856935
34	0x3fb8f6f9	1.445037
35	0xbfbf2f43	-1.4936298
36	0xbf639595	-0.8890012
37	0xbeee3dc0	-0.46531487
38	0xbf7658f8	-0.96229506
39	0x3c9f9b8a	0.019483346
40	0x3faa5595	1.3307368
41	0xbfe33cd5	-1.775294
42	0x3f940431	1.1563779
43	0xbf47c8f1	-0.7804099
44	0x3fca79d4	1.5818429
45	0x3db44c32	0.088035956
46	0x3fbf8470	1.4962292
47	0xbfbcaeb6	-1.4740818
48	0x3ec0f4b4	0.37686694
49	0xbbbdac8c	-0.0057883915
50	0x3f495e7a	0.78659785
51	0x3f84b280	1.0366974
52	0xbec9d509	-0.39420345
53	0x3f9dbfda	1.2324173
54	0x3f6ef2fa	0.933395
55	0xbfa8158f	-1.3131579
56	0x3f0b4992	0.54409134
57	0xbf5a1742	-0.8519174
58	0xbf513510	-0.8172159
59	0xbf8309f4	-1.0237412
60	0xbf079245	-0.52957565
61	0xbeeb0be1	-0.459075
62	0x3e1bba1e	0.15207717
63	0xbee98538	-0.4560945
64	0xbfcd6feb	-1.604978
65	0xbf9d897f	-1.2307585
66	0x3fb66b03	1.4251407
67	0xbe6fb955	-0.23410542
68	0x3e22fe3a	0.15917292
69	0xbecf933e	-0.40542024
70	0xbedc6190	-0.43043184
71	0x3d4a5894	0.04940088
72	0x3ebfe8a3	0.37482175
73	0x3f360861	0.71106535
74	0xbfd95d0e	-1.6981523
75	0xbf8c9cdb	-1.0985368
76	0xbf1c43e6	-0.61041105
77	0x3ee2f6d7	0.4432895
78	0xbf3b6f19	-0.73216397
79	0x3e6594b4	0.22420007

to_patch_embedding.1.weight f4 [80, 169]
0	0x3d706c49	0.05869702
1	0x3d817d5f	0.06322741
2	0xbd28a274	-0.041170552
3	0x3d5587b2	0.052131362
4	0xbd01a187	-0.031648185
5	0xbd0f0eb9	-0.03492615
6	0x3ccce76b	0.025012692
7	0xbd3825d3	-0.044957947
8	0xbd4531fa	-0.048143364
9	0xbc8b08ee	-0.016972031
10	0x389d24c7	7.493194e-05
11	0xbb99f9a5	-0.0046989494
12	0x3d53b17c	0.051682934
13	0xbb8ec682	-0.00435716
14	0xbb9edd30	-0.004848145
15	0x3d00df45	0.031462926
16	0xbc5e9212	-0.013584631
17	0x3d8b5493	0.068032406
18	0xbbe640ba	-0.007026759
19	0xbd1f9900	-0.03896427
20	0x3caae4a5	0.02086098
21	0xbd6ec841	-0.058296446
22	0xbd1cac66	-0.03825035
23	0x3d082862	0.033241637
24	0x3cc58f03	0.024116045
25	0xbd2ba8a1	-0.041908864
26	0xbc9677ca	-0.018367667
27	0x3b751ee3	0.0037402443
28	0xbcc4440d	-0.02395823
29	0x3d15e7e3	0.036598098
30	0xbd583599	-0.05278549
31	0xbbaff313	-0.005369553
32	0xbd728226	-0.05920615
33	0xbc581379	-0.013188236
34	0x3ca9df24	0.020736285
35	0x3cee5a00	0.02909565
36	0x3cdcf793	0.026973521
37	0xbd1a6ffb	-0.03770445
38	0xbd546851	-0.051857296
39	0x3d891815	0.066940464
40	0x3d80abf5	0.06282798
41	0x3d066784	0.032813564
42	0x3bee9e6c	0.007282069
43	0xbc6f8cb7	-0.014620951
44	0xbd3f1ce4	-0.04665841
45	0x3c3e4c49	0.0116148675
46	0x3c503785	0.012708549
47	0xbd1607cb	-0.036628526
48	0x3c383cb5	0.011244942
49	0x3d5fc551	0.054631535
50	0x3d55a94b	0.052163403
51	0xbd384823	-0.04499067
52	0x3d0626e5	0.032751936
53	0x3d81390b	0.06309708
54	0xbcd93d19	-0.026518391
55	0xbd851383	-0.06497862
56	0xbd331a16	-0.04372605
57	0x3d5c806c	0.05383341
58	0x3d030c81	0.031994347
59	0xbca1a450	-0.01973167
60	0x3d34d81d	0.044151414
61	0x3d1c8677	0.038214173
62	0xbc532a53	-0.012888509
63	0x3afcd351	0.0019289051
64	0xbd657d0a	-0.05602745
65	0xbb9a1251	-0.0047018905
66	0x3cc6a981	0.024250748
67	0xbd3afd89	-0.045651946
68	0x3d7811ab	0.060563724
69	0x3933a1c3	0.00017131031
70	0x3b04f174	0.002028552
71	0x3b7f84fd	0.003898918
72	0xbcdc84bd	-0.026918763
73	0xbc8c9515	-0.017160932
74	0xbb1df72a	-0.002410362
75	0xbb16539d	-0.002293802
76	0xbd35d0dd	-0.04438864
77	0x3d82fc04	0.063957244
78	0x3cb47ca8	0.022032097
79	0x3c93e6ba	0.018054355
80	0x3ca1b916	0.019741576
81	0xbd64ff0e	-0.0559073
82	0x3bda9f21	0.0066718017
83	0x3cf56957	0.029957457
84	0x3d0d9fa9	0.034576092
85	0x3c9644f9	0.018343436
86	0x3ac67506	0.0015141077
87	0xbd6f12c1	-0.058367494
88	0x3d0f5971	0.034997407
89	0x3d3634b3	0.04448385
90	0x3cf168ba	0.029468883
91	0x3b0d686d	0.0021577135
92	0xbc80f001	-0.015739443
93	0xbd0bddf1	-0.034147207
94	0xbc738955	-0.0148642855
95	0x3d036785	0.032081146
96	0x3cf84804	0.030307777
97	0x3d65fc54	0.056148842
98	0xbc92fad1	-0.017941864
99	0xbd3bcf52	-0.045852013
100	0x3b03b86f	0.0020098945
101	0x3d403902	0.046929367
102	0xbd102365	-0.035190005
103	0x3c7e963a	0.0155387465
104	0xbd7ebafc	-0.06219004
105	0x3b11fc86	0.002227576
106	0x3d3f24b7	0.046665873
107	0x3d1b73fd	0.037952412
108	0x3d0a9df9	0.03384206
109	0x3d1596a3	0.03652061
110	0xbc0688c8	-0.008211322
111	0xbd02b90d	-0.03191476
112	0xbcb442e2	-0.022004548
113	0x3c3c935b	0.011509742
114	0x3d35def6	0.044402085
115	0xbd089d60	-0.03335321
116	0xbb88c8dd	-0.0041743354
117	0x3be55cf2	0.0069996053
118	0xbd6724b9	-0.056431506
119	0x3d41e879	0.047340844
120	0xbd6f52c8	-0.058428556
121	0xbce715ea	-0.028208692
122	0x3cf7ab82	0.030233148
123	0x3c334314	0.010941286
124	0x3b326cf6	0.002722559
125	0x3cd73d58	0.026274368
126	0xbceff51c	-0.029291682
127	0xbcc44e98	-0.023963258
128	0xbd1af9a1	-0.03783572
129	0x3ccd3818	0.025051162
130	0xbd2b5674	-0.041830495
131	0x3c760a4c	0.015017103
132	0xbc7e7388	-0.0155304745
133	0x3d491210	0.04908949
134	0x3d7cf325	0.06175532
135	0xbd595b79	-0.05306575
136	0x3d52899e	0.051400773
137	0x3d28328b	0.041063827
138	0xbd64f911	-0.05590159
139	0xbbe938f4	-0.007117385
140	0x3cfa7995	0.030575553
141	0x3cce40de	0.025177415
142	0xbd7d011d	-0.06176864
143	0xbd35e51f	-0.04440796
144	0x3d657d39	0.056027625
145	0x3d1aa5b6	0.03775569
146	0xbd17125b	-0.03688274
147	0xbcb81945	-0.022472987
148	0x3d77cb6e	0.06049674
149	0xbd7a1d4b	-0.061063092
150	0xbd12c348	-0.035830766
151	0xbd2f85c3	-0.042852174
152	0xbce946ab	-0.02847608
153	0xbd29fcce	-0.04150086
154	0x3d335c31	0.043789092
155	0xbd70cbb5	-0.05878802
156	0x3cc8e063	0.024521058
157	0x3c0ef3b8	0.008725099
158	0x3ca217df	0.019786773
159	0x3d721171	0.059098665
160	0xbccae656	-0.024768036
161	0x3a8d88d7	0.0010798228
162	0xbd77e89a	-0.06052456
163	0xbd1ef18c	-0.038804576
164	0x3d003fdd	0.031310905
165	0x3d360432	0.044437595
166	0x3d7a70d6	0.061142765
167	0x3c3d5eae	0.011558218
168	0x3c1969bf	0.009363591
169	0xbd48ab8f	-0.048991736
170	0xbd70f0d6	-0.05882343
171	0xbbc210d9	-0.0059224186
172	0xbd37afa0	-0.044845223
173	0xbd653935	-0.05596276
174	0x3d01edeb	0.031721037
175	0x3c7550ac	0.014972847
176	0xbd221926	-0.039574765
177	0x3d0aa99a	0.03385315
178	0xbd2a747a	-0.041614987
179	0xbd1b6ad0	-0.03794366
180	0xbcef1d58	-0.029188797
181	0x3d05b0a4	0.03263916
182	0x39514da2	0.00019960714
183	0xbd665f59	-0.056243274
184	0x3cc1edbf	0.023672936
185	0xbd02f638	-0.031973094
186	0xbd0ad42c	-0.03389375
187	0xbd8461a8	-0.06463939
188	0x3d46253e	0.04837536
189	0xbd25fdb7	-0.040525164
190	0x3cf41c7d	0.02979874
191	0x3cf72f48	0.030173913
192	0xbd7b8381	-0.06140471
193	0xbd0f693e	-0.035012476
194	0xbd1c6ebd	-0.038191546
195	0xb9d93437	-0.00041428368
196	0xbbadf17a	-0.0053083273
197	0x3d0b9abd	0.034083117
198	0x3d63a524	0.055577412
199	0x3d64acb7	0.055828776
200	0xba63c59d	-0.00086888095
201	0xbcfb3272	-0.030663703
202	0x3d0969c1	0.03354812
203	0x3d263dc9	0.040586267
204	0xbd4d50e9	-0.05012599
205	0x3c8ef30a	0.017449874
206	0x3ae3ee9d	0.0017389838
207	0x3d29e1fa	0.041475274
208	0xbd8cd136	-0.06875841
209	0x3c134a00	0.008989811
210	0xbc2ba41f	-0.010476141
211	0x3d03c403	0.032169353
212	0x3c866577	0.016405804
213	0x388c47e6	6.689112e-05
214	0x3d365041	0.04451013
215	0x3d6797b7	0.05654117
216	0x3c963781	0.018337013
217	0xbd29c836	-0.0414507
218	0xbd5678a9	-0.052361164
219	0x3d262e0a	0.04057125
220	0x3c903492	0.017603192
221	0x3d0ffbc8	0.035152227
222	0xbc779ee6	-0.015113568
223	0xbd81fdf1	-0.063472636
224	0xbc96a69d	-0.018389994
225	0x3bd5e46e	0.006527475
226	0xbd8dfa43	-0.06932499
227	0xbc0e52b9	-0.008686715
228	0xbd6e5073	-0.05818219
229	0xbd2af7b8	-0.04174015
230	0x3d60bea7	0.05486932
231	0x3d787403	0.060657512
232	0xbb20e549	-0.0024550727
233	0x3cc1f9ce	0.023678686
234	0xbd8b8e6f	-0.068142764
235	0x3d1833e6	0.03715887
236	0x3d651378	0.05592677
237	0x3d577e59	0.05261073
238	0xbba37824	-0.004988687
239	0x3bbf7039	0.0058422354
240	0x3d1a1268	0.03761521
241	0xbd7856b6	-0.06062957
242	0xbc8c0284	-0.017091043
243	0x3c16d2a1	0.009205491
244	0x3d04a983	0.03238822
245	0xbd4293ea	-0.047504343
246	0xbcc52ac2	-0.02406824
247	0x3cfdc644	0.03097833
248	0x3d5e7712	0.054312773
249	0x3b3b5597	0.002858495
250	0x3ccaa7d7	0.024738235
251	0xbd45b3ad	-0.048267055
252	0x3d0788dc	0.033089504
253	0xbc463f9c	-0.012100127
254	0x3d19448b	0.037418883
255	0x3ca48ee2	0.020087663

to_patch_embedding.1.bias f4 [80]
0	0x3bc24ce5	0.0059295767
1	0xbd493e17	-0.04913148
2	0x3cc35692	0.02384499
3	0xbcca3809	-0.024684923
4	0xbd5bf937	-0.053704467
5	0xbd588b45	-0.052867193
6	0x3d8b27fd	0.067947365
7	0xbcd96d4c	-0.026541375
8	0xbcd0022b	-0.025391659
9	0xbd2cb876	-0.042168103
10	0xbb485436	-0.0030567772
11	0xbc019286	-0.007908469
12	0x3d67566e	0.05647891
13	0x3cda22f2	0.026627991
14	0x3bbeffab	0.005828818
15	0x3d8b86bf	0.0681281
16	0xbd06211a	-0.03274641
17	0xbca54a63	-0.020177072
18	0xbda1aa03	-0.07893755
19	0xbd584d51	-0.05280811
20	0x3d241d4c	0.040067002
21	0xbcb24b2f	-0.021764366
22	0xbd3f25fe	-0.04666709
23	0xbd99fcd1	-0.07518924
24	0xbc2eab93	-0.010661024
25	0x3cc806c8	0.024417296
26	0x3d928aee	0.07155405
27	0x3d1b395c	0.0378965
28	0x3d6d91f5	0.058000524
29	0x3c5b6c83	0.01339257
30	0x3ca722f6	0.020402413
31	0x3c735523	0.014851841
32	0xbd8105c7	-0.0629993
33	0x3d185276	0.037188016
34	0xbc4a3871	-0.012342558
35	0xbd86ff76	-0.06591694
36	0xbcefe965	-0.029286096
37	0xbd5f1518	-0.054463476
38	0x3d2b5f71	0.041839067
39	0xbbb92d5b	-0.0056511587
40	0xbd7ac3c3	-0.06122185
41	0xbc77a63b	-0.015115316
42	0xbd5bbe40	-0.053648233
43	0x3d00a188	0.03140405
44	0xbcfb3340	-0.030664086
45	0xbcf0a92f	-0.029377548
46	0xbd8f3cdd	-0.069940306
47	0x3d8691c8	0.06570774
48	0xbb01fbbc	-0.0019833883
49	0x3d239d8c	0.03994517
50	0x3c62faed	0.013853771
51	0x3c6cc88b	0.01445211
52	0xbd7b9b0e	-0.06142717
53	0x3cbe7a16	0.023251574
54	0xbce6fb9c	-0.028196149
55	0xbc813fc5	-0.015777478
56	0x3d835603	0.0641289
57	0xbc97ac05	-0.018514642
58	0xbd998d37	-0.07497638
59	0x3d7790a5	0.06044068
60	0x3d932a6f	0.07185828
61	0xbcb5194f	-0.022106795
62	0xbd71163e	-0.058859102
63	0xbc37d29e	-0.011219649
64	0x3a8bc6e4	0.0010664132
65	0x3d6ab221	0.057298783
66	0xbc35b8bd	-0.011091408
67	0x3d7e6526	0.06210818
68	0x3cb38036	0.021911722
69	0x3b700bb2	0.0036628065
70	0x3d04cbd9	0.032420967
71	0x3d967e3c	0.07348296
72	0x3d54b453	0.051929783
73	0x3ca0925f	0.019601045
74	0x3d2ae45b	0.041721683
75	0x3c11ccfe	0.008898972
76	0x3d74279a	0.05960808
77	0x3d855d6a	0.06511958
78	0xbc754c3f	-0.014971792
79	0xbd2e29db	-0.042520385

layers.0.forward_conv1d.weight f4 [80, 80, 1]
0	0xbd531b2d	-0.05153959
1	0x3b544402	0.0032389169
2	0xbb609b0a	-0.0034272098
3	0x3d332fbb	0.04374669
4	0x3ce88129	0.0283819
5	0xbb4e7d3f	-0.0031507758
6	0xbc547ecc	-0.012969684
7	0x3d3b03f0	0.045658052
8	0x3c9baa43	0.019002086
9	0xbd3c93dc	-0.046039447
10	0xbb2d7828	-0.0026469324
11	0xbc8d7174	-0.017266013
12	0xbac4a4e5	-0.0015002756
13	0xbd2fd86d	-0.04293101
14	0xbd36a787	-0.04459336
15	0xbaa097ec	-0.0012252307
16	0x3c83ae31	0.016074272
17	0xbd3780a0	-0.0448004
18	0xbc89c39e	-0.01681691
19	0x3ca6ce3e	0.020362016
20	0x3c609506	0.013707405
21	0x3c8450aa	0.016151745
22	0xbcca8f20	-0.02472645
23	0xbb725fe7	-0.0036983432
24	0x3aaef38e	0.0013347731
25	0x3a5ba757	0.00083791226
26	0xbc09fd4a	-0.008422205
27	0x3d4e7bc5	0.050411005
28	0xba6dc68d	-0.0009070419
29	0xbb76bfad	-0.0037650869
30	0xb8ac7894	-8.2240585e-05
31	0x3d044fb8	0.03230259
32	0x3d09a6e3	0.03360642
33	0x3c12fb13	0.008970994
34	0xbb377386	-0.0027992441
35	0x3c2b99f4	0.010473717
36	0x393c9e75	0.00017988107
37	0x3c4ed910	0.012624994
38	0x3a827f01	0.0009956063
39	0xbae8b2c3	-0.001775347
40	0xbc8ab32e	-0.016931143
41	0xbce62cdb	-0.02809756
42	0x3d272733	0.040808868
43	0xbd4bb77b	-0.049735527
44	0xbb1daa39	-0.002405776
45	0x3d3e028e	0.046389155
46	0xbc71c99f	-0.014757543
47	0x3bd72e58	0.006566804
48	0x3c90d2fa	0.017678726
49	0x3c813ed7	0.015777035
50	0x398db954	0.00027031696
51	0x3b96871e	0.004593744
52	0x3cbb6950	0.022877365
53	0xbc554c7e	-0.013018725
54	0x3a179e3e	0.0005783773
55	0x3bcdd34b	0.0062812916
56	0x3b343934	0.0027499916
57	0xbcb14a11	-0.021641763
58	0x3a1ad309	0.00059060805
59	0x3cd22a6f	0.025655
60	0xbc1e214d	-0.009651494
61	0xbb17a0e0	-0.002313666
62	0x3d5f17ac	0.054465935
63	0xbcca7fc0	-0.02471912
64	0x3b035532	0.0020039794
65	0x3c88437c	0.016633742
66	0xba5fd282	-0.0008538143
67	0xbd026366	-0.031833075
68	0x3a426d9a	0.00074168446
69	0xbb86b261	-0.00411062
70	0x3d2b83ee	0.041873865
71	0x3c67c5fb	0.014146323
72	0x3d61f4ae	0.055164985
73	0x3cefd477	0.029276116
74	0x3b694240	0.0035592467
75	0xbc407d2e	-0.011748595
76	0x3c39cf85	0.01134098
77	0x3ce8125f	0.028329073
78	0xbd710141	-0.058839086
79	0xbcd98d2d	-0.026556576
80	0xba9df37e	-0.0012050716
81	0xbd7d34e5	-0.061818022
82	0x3a956ee1	0.0011400842
83	0xbca4eb8d	-0.02013185
84	0xbd198808	-0.037483245
85	0x3c6ac8d6	0.01433011
86	0x3d072572	0.032994695
87	0xbd5dc7e5	-0.054145712
88	0x3d74b484	0.059742466
89	0x3c22f997	0.009947202
90	0x3cd8685b	0.026416948
91	0x3d150498	0.036381334
92	0x3d8c058c	0.068369955
93	0xbbf1162f	-0.007357381
94	0xbcf36e6f	-0.029715745
95	0x3c5f1f7c	0.013618346
96	0x3c3782c6	0.011200612
97	0x3d32cee3	0.043654334
98	0xbcc3e989	-0.02391507
99	0xbd7c2a83	-0.06156398
100	0xbc887659	-0.016657995
101	0xb892d425	-7.0013375e-05
102	0xbd517750	-0.051139176
103	0xbd33287f	-0.043739792
104	0x3d3151e5	0.04329099
105	0x3bb1de6f	0.0054281275
106	0xbb5aef63	-0.0033406846
107	0x3d32172d	0.043479133
108	0x3cd7099f	0.026249705
109	0xbcbed9fd	-0.023297304
110	0xbc2c118b	-0.010502229
111	0x3d5f045c	0.054447517
112	0xbd615201	-0.055009846
113	0xbc3209c5	-0.010866587
114	0xbcf7a3fd	-0.030229563
115	0xbc809074	-0.01569388
116	0x3d73048d	0.05933051
117	0xbd47cb2d	-0.048777748
118	0xbae0f488	-0.001716272
119	0xbd039a4c	-0.03212957
120	0x3b4c585f	0.0031180603
121	0x3d030b2e	0.031993084
122	0x3bde17d9	0.006777745
123	0xbcfde9ba	-0.030995239
124	0xbce6e49d	-0.028185183
125	0x3b7ce8a4	0.0038590813
126	0x3c09f7e3	0.008420917
127	0xbd2aa14b	-0.041657727
128	0xbd08a8a3	-0.03336395
129	0x3927400e	0.00015950223
130	0xbc82c16b	-0.01596137
131	0xbc2c7ff0	-0.01052855
132	0x3d2e2fdb	0.042526107
133	0x38f39530	0.00011614931
134	0x3c39b2d5	0.011334141
135	0x3bd03678	0.0063541494
136	0xbd2bced4	-0.041945294
137	0x3bfae46f	0.007656626
138	0x3d07bc06	0.033138297
139	0xb7de5f72	-2.6508907e-05
140	0x3c9182ac	0.017762505
141	0xbc5af159	-0.013363206
142	0xbc62a13f	-0.013832389
143	0xbd8041f6	-0.06262581
144	0x3b894189	0.0041887206
145	0x3d35c754	0.044379547
146	0xb9e207a8	-0.00043111783
147	0xbc7a23f1	-0.015267358
148	0xbcd5bcaa	-0.026090939
149	0x3d69b943	0.057061445
150	0xbce66cc6	-0.02812804
151	0x3a39f6b3	0.0007093951
152	0xbd717ef2	-0.058958955
153	0xbab7c650	-0.0014020894
154	0x3aa91880	0.0012900978
155	0xbc3bfea4	-0.011474285
156	0x3c807af5	0.01568363
157	0xbbf979f5	-0.0076134154
158	0x3d2d3e43	0.042295706
159	0xbd3e3728	-0.04643932
160	0xbcbd1268	-0.023080066
161	0xbd556f66	-0.05210819
162	0x3d5769ad	0.052591015
163	0x3ac7b5dd	0.0015236695
164	0xba2c4fe8	-0.0006573186
165	0x3cfb4062	0.030670349
166	0x3cf8a34c	0.030351304
167	0xbba26b52	-0.0049566412
168	0xbabcfffa	-0.0014419549
169	0xbc961eae	-0.018325176
170	0xbabd7ba4	-0.0014456403
171	0x37a1ab58	1.9272484e-05
172	0x3b493e46	0.0030707284
173	0x3d50a6e6	0.050940417
174	0x3c90b2ca	0.017663378
175	0x3d3e60d2	0.046479054
176	0x3adf4d45	0.0017036578
177	0x3c06e3c7	0.008233017
178	0x3bd27269	0.00642233
179	0x3be83971	0.0070869257
180	0x3c91f358	0.01781623
181	0xbc824261	-0.015900793
182	0x3ca07328	0.01958616
183	0x3c90a1f1	0.017655345
184	0x3d0bdba0	0.034144998
185	0xb8e0d475	-0.000107207255
186	0xbcebc4e0	-0.0287804
187	0x3b9fb5d5	0.004873971
188	0x3c46636e	0.012108667
189	0x3d2cdee1	0.04220474
190	0xbc493309	-0.012280234
191	0x3ca4c98e	0.02011564
192	0x3cbe2ea8	0.023215607
193	0xbbba8328	-0.0056919046
194	0xbc8b5669	-0.017008977
195	0xbb031452	-0.0020001126
196	0xbd396fd9	-0.04527268
197	0x3d22d518	0.039754003
198	0x3d3ce944	0.046120897
199	0x3b59ae96	0.0033215634
200	0x3af4e26c	0.0018683202
201	0x3bc207b9	0.005921331
202	0x3ab76964	0.0013993201
203	0xbcc45b60	-0.023969352
204	0xbb058bd3	-0.0020377531
205	0xbc8732a2	-0.016503636
206	0xbcde9499	-0.027170466
207	0xbc8997f0	-0.016796082
208	0x3d3bbe7e	0.045835964
209	0xba9c1573	-0.0011908248
210	0xbd1103e8	-0.035404116
211	0x3d01c757	0.031684246
212	0xbc5d6e6d	-0.013515097
213	0x3c08d339	0.008351141
214	0x3d361cbb	0.044460993
215	0xbd00f5f7	-0.03148457
216	0xbd2c83ad	-0.042117763
217	0x3b5fe124	0.0034161294
218	0x3bc73f99	0.0060805795
219	0xbd1864d9	-0.03720555
220	0xbc015fd9	-0.007896387
221	0x3be5ea08	0.007016424
222	0xbc9abd21	-0.018889012
223	0xbbede8c4	-0.007260414
224	0x3c4c456c	0.012467723
225	0x3d2cfc8f	0.042233046
226	0x3c6809fd	0.014162538
227	0x3d121588	0.035665065
228	0xbab71afc	-0.0013969834
229	0x3d07d408	0.033161193
230	0xbb3815fd	-0.0028089278
231	0xbbf38ba3	-0.0074324175
232	0x3a2ed219	0.000666888
233	0xbc48cf33	-0.012256431
234	0x3b7a0f91	0.003815625
235	0xbd07f9cd	-0.033197213
236	0xbd3f52cf	-0.04670983
237	0xbc0d4867	-0.008623219
238	0x3c0c36c1	0.008557976
239	0xbb75b73f	-0.0037493256
240	0x3ce3a144	0.027786858
241	0x3bd2af37	0.0064295786
242	0xbcbf0601	-0.023318293
243	0xbcd22c82	-0.025655989
244	0xbd3dbf7a	-0.046325184
245	0x3d13a136	0.036042415
246	0x3c14d29e	0.009083418
247	0x3c03bbb7	0.00804036
248	0x3c37bac1	0.011213959
249	0x3c326f75	0.010890831
250	0xbd142365	-0.036166567
251	0x3c2a8d2b	0.010409634
252	0x3ca1ef7f	0.019767521
253	0xbcbe7596	-0.023249429
254	0x3d0b97f1	0.03408045
255	0x3c1b313b	0.009472187

layers.0.forward_conv1d.bias f4 [80]
0	0x3be3e4b1	0.0069547524
1	0x3d242316	0.040072523
2	0xbd34b3c9	-0.04411677
3	0xbd41feaf	-0.047362026
4	0x3d98ebcf	0.07466852
5	0xbc898772	-0.016788218
6	0x3d8352dc	0.064122885
7	0x3d00e316	0.031466566
8	0xbd96e0ba	-0.07367082
9	0x3d0a2595	0.033727247
10	0xbc555078	-0.0130196735
11	0xbcad6e12	-0.02117065
12	0x3d786e15	0.060651857
13	0xbdad465f	-0.08460688
14	0x3d46e857	0.04856142
15	0xbd8548e7	-0.06508046
16	0xbd977ee1	-0.07397247
17	0xbd2ab696	-0.041678034
18	0x3d45665f	0.04819333
19	0x3bf5b856	0.007498781
20	0xbd77bc15	-0.060482103
21	0x3d41c081	0.047302727
22	0xbd0a58e6	-0.033776186
23	0xbb70bdca	-0.0036734217
24	0x3d5996bf	0.05312228
25	0xbbbca2f1	-0.005756729
26	0x3d927f63	0.07153203
27	0x3ca25987	0.01981808
28	0x3d8f43bc	0.06995341
29	0x3d2b352d	0.04179876
30	0x3d396d4e	0.045270257
31	0xbda171cd	-0.07883034
32	0x3d496ded	0.0491771
33	0x3ca90af5	0.020635108
34	0xbd2952cc	-0.041338727
35	0xbd6b1239	-0.057390425
36	0xbcf4d52d	-0.029886806
37	0xbd970558	-0.07374066
38	0x3d91d67b	0.07120987
39	0xbbaea6b4	-0.005329931
40	0xbdae9fe4	-0.085265905
41	0x3da14130	0.07873762
42	0x3c6476b5	0.013944318
43	0xbc9449d7	-0.018101616
44	0x3c972298	0.018449113
45	0x3bbfbc7b	0.005851326
46	0xbd808dc5	-0.062770404
47	0x3c9368f0	0.017994374
48	0xbcd804dd	-0.026369506
49	0xbcc99fe0	-0.024612367
50	0xbcc8f8c0	-0.024532676
51	0xbcdf24e4	-0.02723927
52	0xbc0a9b39	-0.0084598595
53	0x3d282372	0.04104943
54	0xbd62820d	-0.055299807
55	0xbcdce1ee	-0.0269632
56	0xbd91eef2	-0.07125653
57	0xbc03c27a	-0.008041972
58	0x3c25ed60	0.010127395
59	0x3d847359	0.06467313
60	0x3d22946d	0.03969233
61	0xbd6fed0c	-0.058575675
62	0xbd03a43b	-0.032139044
63	0xbcea1f50	-0.028579384
64	0x3a4049a7	0.0007335194
65	0xbb5cd6e1	-0.0033697414
66	0xbd4554e8	-0.048176676
67	0x3d661a08	0.05617717
68	0x3cbf7ff2	0.023376439
69	0x3d4b3cf0	0.04961866
70	0x3c720e43	0.014773908
71	0x3d5bfdac	0.053708717
72	0x3d31a148	0.0433667
73	0xbda2bd50	-0.07946265
74	0xbdabc889	-0.083878584
75	0xbba48f0a	-0.0050219344
76	0x3d8f05f4	0.06983557
77	0x3d8b4062	0.067993894
78	0xbd7b721a	-0.061388113
79	0xbd6ef0de	-0.058335178

layers.0.backward_conv1d.weight f4 [80, 80, 1]
0	0xbcafcbd5	-0.0214595
1	0xbc9ba2de	-0.01899856
2	0x3c9b7d1d	0.018980557
3	0x3d269d89	0.04067758
4	0xbc3ff2ce	-0.011715604
5	0xbce44a99	-0.027867602
6	0x3bcbcaac	0.0062192287
7	0x3c85199a	0.01624756
8	0xbcf1cee3	-0.029517597
9	0x3bb35c0e	0.0054736203
10	0xbb98ec96	-0.004666875
11	0x3cc92ef1	0.024558516
12	0xbc1a86f8	-0.009431593
13	0xbaf4b1cf	-0.0018668714
14	0xbb037fc7	-0.0020065175
15	0xbc97cb56	-0.018529575
16	0x3b39b582	0.0028336947
17	0x3ae12127	0.0017176018
18	0x3cfbbd7e	0.030730005
19	0x3c19cd50	0.009387329
20	0xbbae389c	-0.005316807
21	0xbd7adc49	-0.061245237
22	0xbb7bcb1d	-0.0038420625
23	0xbb1d7ba2	-0.002402999
24	0xbd2d16bd	-0.042258013
25	0x3cad7426	0.021173548
26	0x3d127880	0.03575945
27	0xbd484505	-0.048893947
28	0xb9324699	-0.00017001703
29	0xbc6d2f2b	-0.014476578
30	0xbd15c70e	-0.036566786
31	0xbb34ca72	-0.0027586487
32	0x3c9d3e23	0.019194668
33	0x3caca411	0.021074327
34	0x3cc88c32	0.024480913
35	0x3d2bc624	0.04193701
36	0x38de4efa	0.000106004954
37	0x3cbf5096	0.023353856
38	0x3d0fd7a1	0.03511775
39	0x3ac07358	0.0014682813
40	0x3d4e80e6	0.050415896
41	0xbc41ea44	-0.011835638
42	0x3abf942a	0.00146163
43	0xbd3d45be	-0.04620909
44	0x3c5ad86d	0.013357264
45	0x3d095eb5	0.033537585
46	0xb8de7a4f	-0.00010608567
47	0xbca79010	-0.020454437
48	0xbb4d425e	-0.0031320076
49	0xbd28834a	-0.041140832
50	0xba66abfd	-0.0008799432
51	0xb82df38d	-4.147324e-05
52	0x3cd483c6	0.02594174
53	0x3c6c6420	0.014428169
54	0x3ccf73b9	0.025323736
55	0xb9ce96ad	-0.00039403644
56	0xbb15fa8e	-0.0022884938
57	0xbb807e3f	-0.0039212997
58	0xb871c966	-5.7646444e-05
59	0x3d0650c4	0.032791868
60	0x3cf7fac6	0.030270945
61	0x3cc76759	0.024341272
62	0xbc4f11dd	-0.012638536
63	0x3ab1bb80	0.0013559908
64	0x3b10b48d	0.0022080273
65	0x3aee8fa8	0.0018200772
66	0xbaf9c290	-0.0019055177
67	0x3ab3f364	0.0013729152
68	0xbaf3ab38	-0.0018590456
69	0xbbbe89dc	-0.005814774
70	0x3cb90e50	0.022589833
71	0xbaddb059	-0.0016913518
72	0x3cb55999	0.02213745
73	0x3c0d43de	0.008622138
74	0x3bbf2228	0.005832929
75	0xbd137c5d	-0.036007274
76	0x3cb9a098	0.022659585
77	0x3c5a6a46	0.013331002
78	0x3baccf09	0.005273704
79	0x3c930ef4	0.017951466
80	0xbb6e2de4	-0.003634327
81	0xbb717793	-0.0036844953
82	0x3c852bec	0.016256295
83	0xbc3f6669	-0.011682131
84	0x3d39a98e	0.045327716
85	0x3d55bb03	0.0521803
86	0xba1407f2	-0.0005646936
87	0xbc111ce9	-0.00885699
88	0xbb17bef5	-0.002315459
89	0xbc83050b	-0.015993616
90	0x3bcd9df0	0.006274931
91	0xbc1c6351	-0.009545163
92	0xbbdb3354	-0.0066894684
93	0xbccf844e	-0.025331642
94	0xbaaa3f13	-0.0012988768
95	0x3d45d490	0.04829842
96	0xbceebd66	-0.029143047
97	0x3ca83d64	0.020537086
98	0xbcea43a4	-0.028596707
99	0xbd147f4e	-0.03625422
100	0x3d52082c	0.051277325
101	0xbc7a31b8	-0.015270643
102	0xbba15ce8	-0.0049244054
103	0x3d1d0766	0.038337134
104	0x3c74d226	0.014942681
105	0x3c6e5569	0.014546731
106	0xb9b848df	-0.00035149508
107	0x3d26b99d	0.04070436
108	0xbd29c8ee	-0.041451387
109	0xbd862797	-0.0655052
110	0x3b40eb9d	0.0029437311
111	0xbc895411	-0.016763719
112	0xbd37d002	-0.044876106
113	0x3d480a15	0.04883774
114	0x3b829f86	0.003986302
115	0x3c581132	0.013187693
116	0xbb26ebb2	-0.0025470075
117	0xbb8aef6d	-0.0042399676
118	0xbc446095	-0.011985918
119	0xbd29e2b0	-0.04147595
120	0x3c5e3530	0.013562486
121	0x3b047ba1	0.002021529
122	0x3ccfb712	0.02535585
123	0xbd3107f1	-0.043220464
124	0x3cdaef3b	0.026725402
125	0xbbde41bc	-0.0067827385
126	0x3ce490fe	0.027901169
127	0xbc33b11c	-0.010967519
128	0xb99c0b8e	-0.00029763248
129	0xbb2f2adf	-0.0026728434
130	0xbd0fb3cf	-0.03508359
131	0x3bca51b6	0.0061742915
132	0x3d5887cc	0.05286388
133	0xbd175285	-0.03694393
134	0xbd085713	-0.033286165
135	0x3d4dad51	0.050214116
136	0x3c38e602	0.011285307
137	0x3c25a818	0.010110877
138	0xbceda380	-0.029008627
139	0xb9cbbac1	-0.0003885832
140	0xbd500ecb	-0.050795358
141	0xbca82121	-0.02052361
142	0xbd0d7910	-0.034539282
143	0x3cb03748	0.021510735
144	0x3c69d6cb	0.014272402
145	0x3ba48983	0.0050212755
146	0x3d2273b0	0.03966111
147	0x3ceb8ad2	0.028752718
148	0xbab73412	-0.001397731
149	0xbd2c93b8	-0.042133063
150	0xbb37bcbd	-0.002803608
151	0xbd51905c	-0.051163062
152	0x3d45ece4	0.04832162
153	0xbd24c728	-0.040228993
154	0x3b64abdd	0.0034892478
155	0x3c036d4a	0.008021662
156	0x3ca173f4	0.019708611
157	0x3aa972b9	0.0012927867
158	0xbbb514c3	-0.0055261566
159	0x3c8d3516	0.017237227
160	0xbcabc878	-0.020969614
161	0xbc4e10fe	-0.012577293
162	0x3cfe4c32	0.031042192
163	0x3ba324e3	0.0049787625
164	0x3b7e9a52	0.0038849306
165	0xbd4b2b91	-0.049602095
166	0x3cdce180	0.026962996
167	0xba984102	-0.0011616054
168	0x3c4009ae	0.011721058
169	0x3d545f4d	0.0518487
170	0x3ce3e27a	0.027817953
171	0xbc13ad97	-0.009013555
172	0x3ce1d435	0.027567009
173	0xbcfbde0f	-0.030745534
174	0xba9af059	-0.0011820897
175	0xbd2de4f6	-0.042454682
176	0xbd1c37ad	-0.038139034
177	0xbca2dfcb	-0.019882103
178	0x3b77f7c7	0.0037836896
179	0x3cd6d661	0.02622527
180	0xbc8ca172	-0.017166827
181	0x3ba1df84	0.004939975
182	0x3d478e24	0.04871954
183	0x3c3437c0	0.01099962
184	0x3d40b994	0.04705198
185	0x3c1e3b18	0.009657644
186	0xbb27cc19	-0.002560383
187	0x3d17fb0c	0.03710465
188	0xbc2ae05c	-0.010429468
189	0x3ceb1bcb	0.028699776
190	0xbaf80c8f	-0.0018924641
191	0xbd13ccf2	-0.036084123
192	0x3beef3b7	0.0072922367
193	0x3ccc3715	0.024928609
194	0xbc29f166	-0.010372495
195	0xbc658461	-0.014008612
196	0xbc04a04e	-0.00809486
197	0xbcf44be8	-0.029821351
198	0xbb873480	-0.0041261315
199	0x3c9d3cbe	0.019194003
200	0xbd11e0b4	-0.035614684
201	0x3ca36fa9	0.019950705
202	0xbbee3b4a	-0.0072702514
203	0xbd3711fb	-0.044694882
204	0x3c8ebe09	0.0174246
205	0x3d60781b	0.05480204
206	0xbcd00068	-0.025390819
207	0x3d1650bd	0.03669809
208	0x3a0dac62	0.000540441
209	0xbb8dc58c	-0.004326528
210	0x3d1dcc3a	0.038524844
211	0xbc883e71	-0.016631337
212	0xbb7a72db	-0.0038215432
213	0xbb937262	-0.0044997195
214	0xbd381f61	-0.0449518
215	0xbcaadf25	-0.020858357
216	0xbd134927	-0.035958435
217	0xbcb5ccf5	-0.022192458
218	0xbceba57a	-0.028765429
219	0xbb184a30	-0.0023237579
220	0x3d434030	0.047668636
221	0xbb76196d	-0.0037551776
222	0x3b5a5067	0.0033312084
223	0x3cff1fc0	0.03114307
224	0xbce570d2	-0.028007898
225	0x3c582110	0.013191476
226	0xbd1cb344	-0.0382569
227	0xbb5b940d	-0.0033504993
228	0x3b3e2b1e	0.00290174
229	0xbcc42d8a	-0.023947496
230	0x3c862efe	0.01637983
231	0x3a8deabd	0.0010827404
232	0xb819162f	-3.6498703e-05
233	0x3ba03629	0.004889269
234	0x3a911400	0.0011068583
235	0x3c9f3478	0.019434199
236	0x3d5a0111	0.053223673
237	0xbd16c153	-0.036805462
238	0x39b89c9f	0.00035211907
239	0x3b682ccb	0.003542709
240	0x3c448602	0.011994841
241	0xbc58f8bc	-0.013242897
242	0xb9718d75	-0.00023036248
243	0x3d83b607	0.06431203
244	0x3d0fe94b	0.035134595
245	0x3c831c4b	0.016004702
246	0x3cfb9029	0.03070839
247	0xbd581c61	-0.05276144
248	0x3c26db86	0.010184174
249	0x3d41b28a	0.04728941
250	0x3ca32048	0.019912854
251	0xbce5b5b8	-0.028040752
252	0xbd26daef	-0.040736135
253	0x3c364885	0.011125688
254	0xbcfc1ab4	-0.030774452
255	0x3d01eca5	0.031719822

layers.0.backward_conv1d.bias f4 [80]
0	0x3d66efef	0.056381162
1	0xbd309719	-0.043112848
2	0x3d694849	0.056953702
3	0xbcd749d8	-0.026280329
4	0x3b94ec11	0.004544743
5	0xba453c0d	-0.0007523902
6	0xbd6148e2	-0.055001147
7	0x3d06614b	0.03280763
8	0x3db72af1	0.08943737
9	0xbdb6e1ff	-0.08929824
10	0x3d3c376e	0.0459513
11	0xbcc6d47c	-0.024271242
12	0x3d62ee6b	0.055403154
13	0x3d34fdf9	0.04418752
14	0x3d4694eb	0.048481863
15	0x3d4786ac	0.048712417
16	0xbadf1542	-0.0017019885
17	0xbd3682b4	-0.044558242
18	0xbd997afb	-0.0749416
19	0x3cabf0a7	0.020988775
20	0xbc960ef0	-0.01831767
21	0x3cdc9d3c	0.026930444
22	0x3c37fb4a	0.011229346
23	0xbd9e167a	-0.07719131
24	0xbdae42bc	-0.08508822
25	0xbcd6f32a	-0.026238997
26	0x3d7e7baf	0.062129673
27	0xbd228f90	-0.039687693
28	0x3d52da5d	0.05147778
29	0xbd260a29	-0.040537033
30	0xbd065f9d	-0.032806028
31	0xbbc47f8b	-0.0059966496
32	0x3d3aaf0f	0.045577105
33	0x3d535c8d	0.051601935
34	0x3d7d955e	0.061910026
35	0xbcdb899f	-0.026799021
36	0xbd23a643	-0.03995348
37	0xbd03f5e6	-0.03221693
38	0x3d05a20a	0.032625236
39	0xbc898193	-0.016785419
40	0xbd030276	-0.03198477
41	0xbcb0bc32	-0.021574114
42	0x3d282d21	0.041058663
43	0x3ce4ca7a	0.02792858
44	0xbcad2da0	-0.02113992
45	0xbd69b6e9	-0.057059202
46	0xbda3c090	-0.07995713
47	0x3d3a41ac	0.045472786
48	0x3cc141e1	0.023590984
49	0xbd6a4d44	-0.057202592
50	0x3d3ddf8c	0.04635577
51	0xbce79dfa	-0.028273571
52	0x3d72344a	0.059131898
53	0x3c73dddc	0.014884438
54	0xbb99dce6	-0.0046955226
55	0xbcbe96ef	-0.02326533
56	0xbd822d7e	-0.06356333
57	0xbc6f1fd6	-0.014594993
58	0xbd52f793	-0.051505636
59	0xbc45c4a1	-0.012070806
60	0x3d61ea07	0.055154826
61	0xbd7dcc22	-0.061962254
62	0xbd26a5b1	-0.04068536
63	0x3c8ee39e	0.01744252
64	0x3d0d0b49	0.03443459
65	0xbd0c5ba5	-0.034267087
66	0x3bc5bffe	0.00603485
67	0xbd8c7280	-0.06857777
68	0xbd69f381	-0.05711699
69	0x3c3b22bb	0.011421855
70	0x3da26840	0.0793004
71	0xbc450db7	-0.012027196
72	0x3c8832f5	0.01662586
73	0xbd349f8f	-0.04409748
74	0x3d0fd750	0.035117447
75	0x3d699258	0.05702433
76	0xbd947d95	-0.07250515
77	0x3d27649c	0.040867433
78	0x3b3a280b	0.0028405215
79	0x3d446f87	0.047957923

layers.0.norm.weight f4 [80]
0	0x3f6d58e3	0.92713755
1	0x3f6fb2dc	0.9363229
2	0x3f6fcb38	0.9366946
3	0x3f6deca4	0.9293921
4	0x3f72ef0e	0.9489602
5	0x3f6f86ed	0.93565255
6	0x3f71bc14	0.9442761
7	0x3f6d8c55	0.92792255
8	0x3f6db683	0.92856616
9	0x3f6fa20d	0.93606645
10	0x3f6db29f	0.9285068
11	0x3f6d1920	0.9261646
12	0x3f6f997e	0.93593585
13	0x3f6d4684	0.92685723
14	0x3f6ef288	0.93338823
15	0x3f743f9e	0.9540957
16	0x3f6dcc61	0.9288998
17	0x3f6d96ca	0.9280821
18	0x3f718187	0.9433827
19	0x3f7279dd	0.947172
20	0x3f6ef2f2	0.93339455
21	0x3f6d622f	0.9272794
22	0x3f721e4c	0.9457748
23	0x3f711dbd	0.94186
24	0x3f6e0e8d	0.9299095
25	0x3f6e03e7	0.92974705
26	0x3f73a534	0.95173955
27	0x3f6de718	0.92930746
28	0x3f721349	0.94560677
29	0x3f6d287a	0.9263989
30	0x3f6f51c0	0.93484116
31	0x3f6f507c	0.93482184
32	0x3f70e43f	0.94098276
33	0x3f6ea997	0.93227524
34	0x3f6e9ce9	0.93208176
35	0x3f71213d	0.9419134
36	0x3f6ea3fc	0.9321897
37	0x3f6f8fbc	0.93578696
38	0x3f6fdd33	0.936969
39	0x3f6ce248	0.9253278
40	0x3f73e365	0.9526885
41	0x3f6e2d85	0.9303821
42	0x3f6f6d0b	0.9352576
43	0x3f6e5f2f	0.9311399
44	0x3f6dd42c	0.92901874
45	0x3f7205b7	0.9453997
46	0x3f75976c	0.95934176
47	0x3f706747	0.9390759
48	0x3f6d20f9	0.9262844
49	0x3f6ef625	0.93344337
50	0x3f6ca1f6	0.9243463
51	0x3f6dd1f7	0.92898506
52	0x3f6f1dbb	0.9340474
53	0x3f6fe734	0.9371216
54	0x3f6cdffc	0.92529273
55	0x3f6cf96b	0.9256808
56	0x3f71dfbc	0.94482017
57	0x3f6eadd9	0.9323402
58	0x3f740847	0.9532513
59	0x3f739990	0.9515619
60	0x3f6e3727	0.93052906
61	0x3f6e0d51	0.9298907
62	0x3f6daad8	0.9283881
63	0x3f6d53f0	0.92706203
64	0x3f6d4b48	0.92692995
65	0x3f6dbc0b	0.92865056
66	0x3f6e3155	0.93044025
67	0x3f7165e2	0.94296086
68	0x3f72bad7	0.94816345
69	0x3f6cedb6	0.9255022
70	0x3f6eb702	0.93248
71	0x3f72b617	0.948091
72	0x3f73c986	0.95229375
73	0x3f6f3554	0.9344075
74	0x3f6f784b	0.9354293
75	0x3f6f0334	0.9336426
76	0x3f7052e9	0.9387651
77	0x3f6fd543	0.93684787
78	0x3f6f0553	0.933675
79	0x3f6de49d	0.9292696

layers.0.norm.bias f4 [80]
0	0xb8930bf5	-7.0117334e-05
1	0x3aa415c4	0.0012518694
2	0x3b219467	0.0024655105
3	0x3b4fbd29	0.0031698442
4	0x3aa50fcd	0.001259321
5	0x394248aa	0.00018528351
6	0x3b8c24c9	0.004276846
7	0xbaec300f	-0.0018019694
8	0x3b11a9c9	0.0022226444
9	0xbb947d0a	-0.0045315074
10	0xb9dc9dad	-0.00042079148
11	0x3b90cf72	0.0044192607
12	0xba408434	-0.00073439186
13	0x3bdb39b6	0.0066902293
14	0xb9bbb5df	-0.00035802924
15	0xb9b3c16d	-0.00034285654
16	0xbb9cb5a2	-0.0047823945
17	0x3b9878ac	0.004653057
18	0x3acc456d	0.0015584655
19	0xb95f9660	-0.00021322956
20	0x3bab070b	0.0052193454
21	0x3b0e4a2b	0.0021711688
22	0xb9dfa9d0	-0.00042660395
23	0x3a2a4c19	0.0006496325
24	0x3a504771	0.0007945216
25	0xba70949e	-0.0009177419
26	0x3b4bacff	0.0031078456
27	0x3b593c1b	0.0033147398
28	0x3b693d99	0.0035589694
29	0xb9fe2282	-0.00048472366
30	0x3b2c7783	0.0026316352
31	0xba59c6e2	-0.0008307529
32	0xbb2d44bf	-0.002643868
33	0x3b5579ff	0.0032573936
34	0x3b33ec52	0.002745409
35	0xbb96605e	-0.0045891246
36	0x36856fe7	3.976736e-06
37	0xbb4531cd	-0.0030089498
38	0x3b23f92f	0.0025020351
39	0xbb3c372a	-0.0028719404
40	0x3b8a4681	0.0042198305
41	0x3af7bc11	0.0018900653
42	0xbb2c4c8d	-0.0026290745
43	0xba9a5743	-0.0011775274
44	0xbb8d65b1	-0.004315101
45	0x3a843438	0.0010086363
46	0xbaceffbe	-0.001579277
47	0x3b8029dc	0.00391124
48	0x3a4e56c7	0.0007871207
49	0xbab6b64c	-0.0013939827
50	0x3b1a1e5e	0.0023516635
51	0x3b8b8fc5	0.004259082
52	0xbba62a9b	-0.005070997
53	0x39e96a4b	0.00044520418
54	0xba3440b0	-0.0006876094
55	0xbb2e72eb	-0.002661879
56	0x3ba8f8be	0.0051566055
57	0xbb0cdaaa	-0.0021492639
58	0xbb1bec4b	-0.0023791965
59	0xba439c95	-0.0007461992
60	0x3b4a9f1a	0.0030917586
61	0xbb0b10ae	-0.0021219659
62	0xbbaf21ae	-0.005344591
63	0x3a0d29a8	0.00053849304
64	0xbb3b2171	-0.0028553868
65	0x3bd6062a	0.0065314965
66	0x3aebca8b	0.001798944
67	0x3ab85af5	0.0014065193
68	0x3b32967b	0.0027250338
69	0x38c0f96c	9.201732e-05
70	0xba693fe1	-0.00088977633
71	0x3b169334	0.0022975923
72	0x399d3415	0.00029984178
73	0x3a56822c	0.0008182849
74	0xbb1be149	-0.0023785403
75	0xbbaf1e38	-0.0053441785
76	0x3ad6003b	0.0016326973
77	0xbacb0963	-0.0015490468
78	0xbb3c70d5	-0.0028753777
79	0x3add8f06	0.0016903586

layers.0.ssm.A_log f4 [80, 64]
0	0xb88d90fa	-6.750408e-05
1	0x3f1e2e22	0.61789143
2	0x3f82fbe7	1.0233124
3	0x3fa7c16e	1.3105905
4	0x3fc456a0	1.5338936
5	0x3fdba6fa	1.7160332
6	0x3fef6392	1.8702261
7	0x400035e0	2.0032883
8	0x4007bfa2	2.1210713
9	0x400e7ddc	2.2264318
10	0x4014976c	2.321742
11	0x401a2904	2.4087534
12	0x401f486f	2.488796
13	0x4024069f	2.5629041
14	0x40287100	2.631897
15	0x402c9266	2.6964355
16	0x403073ac	2.75706
17	0x40341c28	2.8142185
18	0x403791fe	2.8682857
19	0x403ada62	2.919579
20	0x403df9c3	2.9683692
21	0x4040f3f2	3.0148892
22	0x4043cc3e	3.059341
23	0x4046858a	3.1019006
24	0x4049225e	3.1427226
25	0x404ba4f5	3.1819432
26	0x404e0f4c	3.2196836
27	0x40506325	3.2560513
28	0x4052a214	3.2911425
29	0x4054cd86	3.3250442
30	0x4056e6c0	3.3578339
31	0x4058eeec	3.3895826
32	0x405ae716	3.4203544
33	0x405cd032	3.4502072
34	0x405eab21	3.4791949
35	0x406078ae	3.5073657
36	0x40623995	3.5347645
37	0x4063ee84	3.5614328
38	0x40659819	3.5874083
39	0x406736e8	3.6127262
40	0x4068cb78	3.6374187
41	0x406a5649	3.6615164
42	0x406bd7cf	3.685047
43	0x406d5078	3.7080364
44	0x406ec0aa	3.7305093
45	0x407028c4	3.7524881
46	0x40718920	3.7739944
47	0x4072e210	3.7950478
48	0x407433e4	3.8156672
49	0x40757ee4	3.8358698
50	0x4076c356	3.8556724
51	0x4078017b	3.8750904
52	0x40793991	3.8941386
53	0x407a6bd2	3.9128308
54	0x407b9874	3.93118
55	0x407cbfaa	3.9491982
56	0x407de1a8	3.966898
57	0x407efe9a	3.9842896
58	0x40800c1a	4.0014772
59	0x408095c9	4.0182843
60	0x40811d31	4.0348134
61	0x4081a266	4.051074
62	0x40822579	4.0670743
63	0x4082a67c	4.082823
64	0x3abd440b	0.0014439834
65	0x3f1e28d7	0.61781067
66	0x3f830b62	1.0237849
67	0x3fa7bfa9	1.3105365
68	0x3fc45633	1.5338806
69	0x3fdba444	1.7159505
70	0x3fef5ff2	1.8701155
71	0x400035e0	2.0032883
72	0x4007bfa2	2.1210713
73	0x400e7ddc	2.2264318
74	0x4014976c	2.321742
75	0x401a2904	2.4087534
76	0x401f486f	2.488796
77	0x4024069f	2.5629041
78	0x40287100	2.631897
79	0x402c9266	2.6964355
80	0x403073ac	2.75706
81	0x40341c28	2.8142185
82	0x403791fe	2.8682857
83	0x403ada62	2.919579
84	0x403df9c3	2.9683692
85	0x4040f3f2	3.0148892
86	0x4043cc3e	3.059341
87	0x4046858a	3.1019006
88	0x4049225e	3.1427226
89	0x404ba4f5	3.1819432
90	0x404e0f4c	3.2196836
91	0x40506325	3.2560513
92	0x4052a214	3.2911425
93	0x4054cd86	3.3250442
94	0x4056e6c0	3.3578339
95	0x4058eeec	3.3895826
96	0x405ae716	3.4203544
97	0x405cd032	3.4502072
98	0x405eab21	3.4791949
99	0x406078ae	3.5073657
100	0x40623995	3.5347645
101	0x4063ee84	3.5614328
102	0x40659819	3.5874083
103	0x406736e8	3.6127262
104	0x4068cb78	3.6374187
105	0x406a5649	3.6615164
106	0x406bd7cf	3.685047
107	0x406d5078	3.7080364
108	0x406ec0aa	3.7305093
109	0x407028c4	3.7524881
110	0x40718920	3.7739944
111	0x4072e210	3.7950478
112	0x407433e4	3.8156672
113	0x40757ee4	3.8358698
114	0x4076c356	3.8556724
115	0x4078017b	3.8750904
116	0x40793991	3.8941386
117	0x407a6bd2	3.9128308
118	0x407b9874	3.93118
119	0x407cbfaa	3.9491982
120	0x407de1a8	3.966898
121	0x407efe9a	3.9842896
122	0x40800c1a	4.0014772
123	0x408095c9	4.0182843
124	0x40811d31	4.0348134
125	0x4081a266	4.051074
126	0x40822579	4.0670743
127	0x4082a67c	4.082823
128	0x3b137f54	0.0022506313
129	0x3f1e291f	0.61781496
130	0x3f82fca4	1.023335
131	0x3fa7c0bf	1.3105696
132	0x3fc45672	1.5338881
133	0x3fdba710	1.7160358
134	0x3fef636e	1.8702219
135	0x400035e0	2.0032883
136	0x4007bfa2	2.1210713
137	0x400e7ddc	2.2264318
138	0x4014976c	2.321742
139	0x401a2904	2.4087534
140	0x401f486f	2.488796
141	0x4024069f	2.5629041
142	0x40287100	2.631897
143	0x402c9266	2.6964355
144	0x403073ac	2.75706
145	0x40341c28	2.8142185
146	0x403791fe	2.8682857
147	0x403ada62	2.919579
148	0x403df9c3	2.9683692
149	0x4040f3f2	3.0148892
150	0x4043cc3e	3.059341
151	0x4046858a	3.1019006
152	0x4049225e	3.1427226
153	0x404ba4f5	3.1819432
154	0x404e0f4c	3.2196836
155	0x40506325	3.2560513
156	0x4052a214	3.2911425
157	0x4054cd86	3.3250442
158	0x4056e6c0	3.3578339
159	0x4058eeec	3.3895826
160	0x405ae716	3.4203544
161	0x405cd032	3.4502072
162	0x405eab21	3.4791949
163	0x406078ae	3.5073657
164	0x40623995	3.5347645
165	0x4063ee84	3.5614328
166	0x40659819	3.5874083
167	0x406736e8	3.6127262
168	0x4068cb78	3.6374187
169	0x406a5649	3.6615164
170	0x406bd7cf	3.685047
171	0x406d5078	3.7080364
172	0x406ec0aa	3.7305093
173	0x407028c4	3.7524881
174	0x40718920	3.7739944
175	0x4072e210	3.7950478
176	0x407433e4	3.8156672
177	0x40757ee4	3.8358698
178	0x4076c356	3.8556724
179	0x4078017b	3.8750904
180	0x40793991	3.8941386
181	0x407a6bd2	3.9128308
182	0x407b9874	3.93118
183	0x407cbfaa	3.9491982
184	0x407de1a8	3.966898
185	0x407efe9a	3.9842896
186	0x40800c1a	4.0014772
187	0x408095c9	4.0182843
188	0x40811d31	4.0348134
189	0x4081a266	4.051074
190	0x40822579	4.0670743
191	0x4082a67c	4.082823
192	0xba87fbe9	-0.0010374758
193	0x3f1e3041	0.6179238
194	0x3f82fd94	1.0233636
195	0x3fa7c462	1.3106806
196	0x3fc45681	1.5338899
197	0x3fdba4b9	1.7159644
198	0x3fef63a4	1.8702283
199	0x400035e0	2.0032883
200	0x4007bfa2	2.1210713
201	0x400e7ddc	2.2264318
202	0x4014976c	2.321742
203	0x401a2904	2.4087534
204	0x401f486f	2.488796
205	0x4024069f	2.5629041
206	0x40287100	2.631897
207	0x402c9266	2.6964355
208	0x403073ac	2.75706
209	0x40341c28	2.8142185
210	0x403791fe	2.8682857
211	0x403ada62	2.919579
212	0x403df9c3	2.9683692
213	0x4040f3f2	3.0148892
214	0x4043cc3e	3.059341
215	0x4046858a	3.1019006
216	0x4049225e	3.1427226
217	0x404ba4f5	3.1819432
218	0x404e0f4c	3.2196836
219	0x40506325	3.2560513
220	0x4052a214	3.2911425
221	0x4054cd86	3.3250442
222	0x4056e6c0	3.3578339
223	0x4058eeec	3.3895826
224	0x405ae716	3.4203544
225	0x405cd032	3.4502072
226	0x405eab21	3.4791949
227	0x406078ae	3.5073657
228	0x40623995	3.5347645
229	0x4063ee84	3.5614328
230	0x40659819	3.5874083
231	0x406736e8	3.6127262
232	0x4068cb78	3.6374187
233	0x406a5649	3.6615164
234	0x406bd7cf	3.685047
235	0x406d5078	3.7080364
236	0x406ec0aa	3.7305093
237	0x407028c4	3.7524881
238	0x40718920	3.7739944
239	0x4072e210	3.7950478
240	0x407433e4	3.8156672
241	0x40757ee4	3.8358698
242	0x4076c356	3.8556724
243	0x4078017b	3.8750904
244	0x40793991	3.8941386
245	0x407a6bd2	3.9128308
246	0x407b9874	3.93118
247	0x407cbfaa	3.9491982
248	0x407de1a8	3.966898
249	0x407efe9a	3.9842896
250	0x40800c1a	4.0014772
251	0x408095c9	4.0182843
252	0x40811d31	4.0348134
253	0x4081a266	4.051074
254	0x40822579	4.0670743
255	0x4082a67c	4.082823

layers.0.ssm.D f4 [80]
0	0x3f6dd726	0.92906415
1	0x3f727baf	0.94719976
2	0x3f6dc311	0.9287577
3	0x3f6ed183	0.9328844
4	0x3f764615	0.96200687
5	0x3f7871cc	0.9704864
6	0x3f73fd89	0.9530874
7	0x3f6f2704	0.9341891
8	0x3f70fbd6	0.9413427
9	0x3f6ddaae	0.92911804
10	0x3f705018	0.93872213
11	0x3f6f20d3	0.9340946
12	0x3f73f132	0.9528991
13	0x3f759af5	0.9593957
14	0x3f6f451a	0.93464816
15	0x3f708f85	0.93968993
16	0x3f6e46ed	0.93076974
17	0x3f6ee54b	0.93318623
18	0x3f733446	0.9500164
19	0x3f6f1867	0.9339661
20	0x3f6d7ac6	0.9276546
21	0x3f6e6eab	0.93137616
22	0x3f6e5f88	0.9311452
23	0x3f6f31ed	0.93435556
24	0x3f79da65	0.9759887
25	0x3f6f4fe8	0.934813
26	0x3f718024	0.9433615
27	0x3f72bdf0	0.9482107
28	0x3f750722	0.9571401
29	0x3f6e887f	0.93177027
30	0x3f6d5f73	0.9272377
31	0x3f76a469	0.9634462
32	0x3f75f357	0.9607443
33	0x3f6da5dc	0.92831206
34	0x3f70f236	0.94119585
35	0x3f6c98a1	0.92420393
36	0x3f6d996c	0.9281223
37	0x3f6dc9c6	0.92886007
38	0x3f71e9e1	0.94497496
39	0x3f6e5a8d	0.9310692
40	0x3f7675e9	0.96273667
41	0x3f755daf	0.95846075
42	0x3f71ea11	0.9449778
43	0x3f6f9fc8	0.9360318
44	0x3f6de4f4	0.9292748
45	0x3f6f2b56	0.934255
46	0x3f768a5c	0.9630487
47	0x3f6d225c	0.92630553
48	0x3f6e1d88	0.9301381
49	0x3f6ec560	0.9326992
50	0x3f6ef4f3	0.9334251
51	0x3f6e4f32	0.9308959
52	0x3f70a107	0.9399571
53	0x3f6ddcab	0.9291484
54	0x3f71c328	0.9443841
55	0x3f718cb4	0.9435532
56	0x3f7284d6	0.9473394
57	0x3f73fef7	0.9531092
58	0x3f709398	0.9397521
59	0x3f6f3148	0.9343457
60	0x3f70ecda	0.94111407
61	0x3f7804d6	0.9688238
62	0x3f76ce94	0.96408963
63	0x3f739d14	0.9516156
64	0x3f6d78d0	0.9276247
65	0x3f6ee973	0.93324965
66	0x3f7593e7	0.95928806
67	0x3f71dc9d	0.94477254
68	0x3f7057e1	0.9388409
69	0x3f7354a1	0.9505101
70	0x3f6ec269	0.93265396
71	0x3f777f55	0.9667867
72	0x3f70ac89	0.9401327
73	0x3f70c050	0.94043446
74	0x3f775849	0.9661909
75	0x3f6e25d9	0.930265
76	0x3f736f13	0.9509136
77	0x3f70adab	0.94014996
78	0x3f7045f4	0.9385674
79	0x3f727c43	0.9472086

layers.0.ssm.deltaBC_layer.weight f4 [144, 80]
0	0x3cc5d6b4	0.02415023
1	0xbd049227	-0.032365944
2	0xbdab2f7d	-0.08358667
3	0x3d8bce35	0.0682644
4	0xbd57f1e4	-0.05272092
5	0xbc2ad697	-0.010427139
6	0xbd0ca21b	-0.034334283
7	0xbda82dc0	-0.08211851
8	0x3d254351	0.0403474
9	0x3cf26d52	0.029593144
10	0x3c879630	0.016551107
11	0x3da6a4b4	0.081368834
12	0xbd01b487	-0.031666305
13	0x3b58370d	0.0032991797
14	0xbdb83d44	-0.089960605
15	0xbda19c14	-0.07891098
16	0xbaad6ed8	-0.0013231887
17	0xbd25e592	-0.04050214
18	0xbb2a6d2f	-0.002600502
19	0xbce936e8	-0.028468564
20	0x3b418788	0.0029530246
21	0x3da12513	0.078683995
22	0xbcacc2af	-0.021088926
23	0x3d48c94d	0.0490201
24	0xbc6cac9b	-0.014445449
25	0xbd048651	-0.032354657
26	0x3b294158	0.0025826301
27	0xbd92d8c7	-0.07170253
28	0xbd9cf6ea	-0.076642826
29	0xbd0585b2	-0.032598205
30	0xbcb62295	-0.022233287
31	0x3cb8dd07	0.022566332
32	0xbc842635	-0.0161315
33	0xbd43a639	-0.047765944
34	0xbd17d430	-0.037067592
35	0xbce8c9f2	-0.028416608
36	0x3c3c16cf	0.011480047
37	0x3c1d7fcb	0.009612988
38	0x3d39c7ff	0.045356747
39	0x3bc5efc0	0.0060405433
40	0xbd98d011	-0.074615605
41	0xbd50a894	-0.05094202
42	0x3d306e1c	0.04307376
43	0xbd8c4b92	-0.068503514
44	0x3d43d0fc	0.047806725
45	0xbc85ebf3	-0.01634786
46	0xbdb28a33	-0.08717766
47	0x3ceb3b82	0.028714899
48	0xbd0cba59	-0.034357402
49	0x3c8f5581	0.017496826
50	0x3db38fc2	0.08767654
51	0xbd946aff	-0.072469704
52	0xbd7ec911	-0.06220347
53	0xbc13b20c	-0.009014618
54	0xbcd9b787	-0.02657677
55	0xba88add7	-0.0010427785
56	0x3cbd5bcb	0.02311506
57	0x3d025762	0.031821616
58	0xbd1d3ab9	-0.03838608
59	0x3da35474	0.079750925
60	0xbd81b6bf	-0.06333684
61	0xbd336db7	-0.043805804
62	0x3c9d78a0	0.019222558
63	0x3da68271	0.081303485
64	0xbd855e36	-0.0651211
65	0x3d97c3b3	0.074103735
66	0x3d92a133	0.071596526
67	0x3d75d4be	0.06001734
68	0xbd6cc6fa	-0.057806946
69	0xbcbe727f	-0.023247955
70	0xbd22f71d	-0.039786447
71	0x3d472d10	0.04862696
72	0xbccf260b	-0.025286695
73	0x3d93a669	0.072094746
74	0x3cce2013	0.025161779
75	0x3d3f4186	0.046693347
76	0x3d5faef8	0.054610223
77	0xbd8242f8	-0.063604295
78	0xbdaa7622	-0.08323313
79	0xbd67a660	-0.056555152
80	0x3d21d06c	0.039505407
81	0xbc4d5a46	-0.01253373
82	0xbd409a41	-0.047022108
83	0xbc18d15f	-0.009327262
84	0x3cbb0094	0.022827424
85	0x3c03aeef	0.008037313
86	0xbcd5013a	-0.026001561
87	0x3cab1cba	0.020887721
88	0xbb7df7da	-0.0038752467
89	0xbd0d499f	-0.03449404
90	0x3d6f23bd	0.058383692
91	0x3d898a58	0.0671584
92	0x3d01eaae	0.03171795
93	0xbd24d84f	-0.04024535
94	0xbd872f86	-0.06600861
95	0x3d257564	0.040395156
96	0x3ae8d1ae	0.0017762685
97	0xbd299a80	-0.04140711
98	0xbb978c30	-0.004624866
99	0x3d60a332	0.054843135
100	0x3ca5872b	0.020206055
101	0xbc073c3a	-0.008254105
102	0x3d039667	0.032125857
103	0xbd8c1d75	-0.06841556
104	0xbc6a94c6	-0.014317697
105	0x3b5ca6b7	0.0033668706
106	0xbce8951a	-0.02839141
107	0x3d3ceb7d	0.046123017
108	0xbd8410fc	-0.06448552
109	0xbd4eb215	-0.0504628
110	0xbd09b938	-0.033623904
111	0x3d17f4d4	0.03709872
112	0x3d027d9a	0.031858064
113	0x3cc99d58	0.02461116
114	0x3d81b793	0.06333842
115	0x3d486e7b	0.048933487
116	0xbb3abee5	-0.002849513
117	0xbd3e6153	-0.046479534
118	0x3d6dbcd1	0.058041397
119	0x3c61c3ca	0.01377959
120	0xbd1f4099	-0.038879965
121	0x3d199da1	0.037503842
122	0x3c574672	0.013139354
123	0x3c5338c6	0.012891954
124	0x3d1503a1	0.036380414
125	0x3d04e8f3	0.03244872
126	0x3d459cd7	0.048245277
127	0x3d848aa0	0.06471753
128	0xbbeb51ac	-0.007181367
129	0x3ce8a092	0.028396878
130	0xbc7481c9	-0.014923521
131	0xbcde5bf6	-0.02714346
132	0x3d4f6d20	0.05064118
133	0xbd0e3b12	-0.034724303
134	0xbd0aec38	-0.033916682
135	0x3cfd552f	0.030924408
136	0xbd092d5f	-0.033490535
137	0x3a816cb9	0.0009874321
138	0x3d849621	0.06473947
139	0xbc1c2885	-0.009531145
140	0x3cfd2b37	0.030904396
141	0xbc743af2	-0.014906632
142	0x3ce2bb8c	0.02767732
143	0xbce2b749	-0.027675288
144	0x3c849b84	0.016187437
145	0x3d4cd665	0.05000915
146	0xbb837457	-0.0040116715
147	0x3c39e50a	0.011346111
148	0xbd3e1aeb	-0.04641239
149	0xbc264bd8	-0.0101499185
150	0x3c88e9c8	0.016713038
151	0xbc97b5d4	-0.01851932
152	0x3d35e0ac	0.044403717
153	0x3bd22426	0.0064130006
154	0x3cc24701	0.023715498
155	0xbc69f226	-0.014278924
156	0xbd48105b	-0.048843723
157	0xbd671576	-0.05641695
158	0xbd1b3f43	-0.037902128
159	0xbd52d6a4	-0.05147423
160	0x3d306308	0.043063194
161	0xbd736054	-0.059418038
162	0xbd74997c	-0.059716687
163	0x3d4b68f5	0.04966064
164	0xbc0ae731	-0.008477972
165	0x3cd1ba76	0.025601607
166	0xbc12bb17	-0.0089557385
167	0x3d768858	0.06018862
168	0x3d4384eb	0.047734182
169	0xbd3fdd5e	-0.04684197
170	0x3cd5c3b0	0.026094288
171	0x3ba10dc1	0.0049149697
172	0x3d7b1447	0.061298635
173	0x3d8b6d01	0.068079
174	0x3ce5f87f	0.028072594
175	0xbda219fa	-0.07915111
176	0xbd725a4d	-0.05916815
177	0xbd3e141c	-0.046405897
178	0x3c557078	0.013027303
179	0x3d9663f1	0.07343281
180	0x3d796fc8	0.06089762
181	0xbbdfce04	-0.006829979
182	0xbd3ad356	-0.045611702
183	0x3d69f1ac	0.057115242
184	0xbd463514	-0.048390463
185	0xbda93db6	-0.082637236
186	0xbb9d666c	-0.0048034694
187	0xbb7ef4f3	-0.0038903325
188	0xbd17b0cf	-0.037033852
189	0x3ce7c83b	0.02829372
190	0xbd8afefe	-0.06786917
191	0x3d1b07ca	0.037849225
192	0x3bdb6ead	0.006696543
193	0xbd255a5c	-0.040369377
194	0x3d9156df	0.070966475
195	0xbd592bc3	-0.05302025
196	0xbd42c09c	-0.047546968
197	0x3d549aa5	0.051905293
198	0x3b9066b6	0.0044067753
199	0xbda9d07f	-0.082917206
200	0xbc86d29d	-0.01645785
201	0x3d146899	0.036232565
202	0x3d043223	0.032274377
203	0xbd358857	-0.044319477
204	0xbd802ad9	-0.062581725
205	0x3d868cdf	0.06569838
206	0xbd67f3af	-0.05662888
207	0x3b8e01e2	0.0043337205
208	0xbd035a7e	-0.032068722
209	0x3c8ca22f	0.017167179
210	0x3cf1cbd8	0.029516146
211	0x3bf960d9	0.007610422
212	0x3d96b069	0.07357866
213	0x3ba15af7	0.004924174
214	0x3d5fcdb6	0.05463954
215	0xbd93a1a3	-0.07208564
216	0xbcbff918	-0.023434207
217	0x3d333562	0.04375208
218	0x3d207afa	0.03917978
219	0xbd3921a1	-0.045198087
220	0xbd5f6e6d	-0.05454867
221	0x3d32ca69	0.043650065
222	0xbc51d197	-0.012806318
223	0x3c03809f	0.008026271
224	0x3c92f3c7	0.017938508
225	0xbd6234ee	-0.05522626
226	0xbc43e2a0	-0.011955887
227	0xbd522585	-0.051305313
228	0xbd5b0a8c	-0.053476855
229	0x3da09b2f	0.07842099
230	0xbc2a735e	-0.010403482
231	0xbd36011d	-0.044434655
232	0xbd633c9d	-0.055477727
233	0x3da590f6	0.0808429
234	0xbd6a2464	-0.05716361
235	0xbd851185	-0.06497482
236	0x3d66c5bf	0.05634093
237	0x3d83c895	0.06434742
238	0x3d2de50a	0.042454757
239	0x3d03bbb5	0.032161433
240	0xbd670432	-0.056400485
241	0x3d287364	0.04112567
242	0x3d143925	0.03618731
243	0xbc97060f	-0.018435506
244	0x3cb34cc3	0.021887189
245	0x3d3c5724	0.04598154
246	0x3c2a0bca	0.010378787
247	0x3c7a910f	0.015293374
248	0xbd1be108	-0.038056403
249	0x3d9483f2	0.07251729
250	0xbcf14450	-0.02945152
251	0x3d628b0a	0.05530838
252	0x3d48fa61	0.049066905
253	0xbd360bf3	-0.04444499
254	0xbd2e1a76	-0.042505704
255	0xbd77f066	-0.060531996
