vim_model_200.pth (torch, 62623 bytes, 58 tensors)

cls_token f4 [1, 1, 16]
00000000: 99b2 d63e b212 d83f 1503 b1bf f903 f63e
00000010: 4e01 fcbe ae0c 1a3c 4a2c 043f 55ee f23e
00000020: 5d15 b33e 3103 863f a02b 9ebc a9cf e73e
00000030: 140f cfbf ad03 2f40 2b06 343f 4e94 3cbf
0.41933134 1.6880705 -1.3829066 0.48049906 -0.49219745 0.009402437 0.5163008 0.47447458
0.34977236 1.0469724 -0.019307911 0.4527562 -1.6176476 2.7345994 0.7032191 -0.73663795

to_patch_embedding.1.weight f4 [16, 169]
00000000: 8cd8 a5bd b18b 2e3d 229e 54bd 330a 3d3d
00000010: aa9e 4b3d d9a9 26bd ef66 aa3c 7cad f4bc
00000020: 8fdc 35ba 85ce 0f3d aa94 5dbc 5e29 72bd
00000030: 485d 79bc d013 2ebd 3012 593d f688 803b
00000040: 4bea bcbc 3da5 113d a778 88bc dde9 9e3b
00000050: b37d 85bd 3336 173d f922 89bd 3deb 5e3d
00000060: 1125 b2bd b35a 90bd 3702 2c3c ea6b 973c
00000070: dc46 533d 7abb 31bc 0e76 62bc d872 d13b
00000080: 30bb 163d e9d9 b43c dbc9 96bd 5dde 52ba
00000090: 15de 3ebc 3a04 593c 2d2a 4e3d 2d4a 0d3d
000000a0: 1d86 453c 97a7 62bd 72e2 0f3d e39f 6abc
000000b0: 7e24 16bc 97b9 bfbc 8e10 373d 3519 803c
000000c0: b31f 243d e652 323d b8e9 12bd 9a1c fcbc
000000d0: 0d0f 1bbd 7a4a 0bbb 3d4e 7b3d 0c33 f13b
000000e0: f933 073d e7cf 4a3d 36de 00bd 451e 73bc
000000f0: b3d2 343d 8327 ebbb c026 abbb a9d6 d33c
00000100: 62e2 5f3d d5d4 12bc 5713 18bd e665 663c
00000110: 4b37 e63c 6ef8 a03b 7510 833d a6c6 cdbc
00000120: 6823 b93c 1484 0dbd f866 8e3d ad84 923d
00000130: a8ac e03c a57d 7ebd 3b66 ef3c 71ba c6bc
00000140: e61d 523d 181d bebc ed02 e2bb 5fb4 30bd
00000150: 295f 7abd 32a7 fabc c482 32bd 0a3d 853d
00000160: 53e1 8d3d e7e1 06bd ba59 4c3d fbd2 8b3d
00000170: 6e63 173d 683e bbbc e52a e0bb 1f26 d5bc
00000180: a44f a13a 711c 65bd f2eb bdbc 3c9c bb3c
00000190: cc5c 23bd 06c5 49bc c0d0 0c3d dcc8 1ebd
000001a0: 72fa 7e3d ae34 333d 83b2 f3bc 4f23 9d3c
000001b0: 6815 cabc ddf5 643c c3dc 0abd 2fff cd3c
000001c0: 9d04 3abd 6d44 80bc 69af a53c 0fa1 443d
000001d0: ee7b 8ebd 277b 35bd a6a2 fbbc 7b9b 40bb
000001e0: 6c48 17bc 7645 1b3b 6222 7d3c 0574 abbc
000001f0: 9404 853c a8b9 263c 2334 d7bc f1b8 8fbb
00000200: 3f57 e73c 7ea8 39bd 52c9 52bc 7784 d03c
00000210: 3c72 1d3d 35be d43c f889 ca3c 034e b23c
00000220: 67aa 063a ce20 773d 2588 b0bc 6794 c1bc
00000230: 5fa8 053d 3769 3dbd 25e3 e23c eb9c 5b3c
00000240: c777 08bc 8087 6dbd 1520 edbc 7c0f 52bd
00000250: 9aa1 03bd 68a8 61bd ef9b 633c ab29 383b
00000260: 862f fcbb 9263 bebb bbad 293c 7272 623c
00000270: fdb5 5abd cc3d 1b3c fc57 83bc 9980 24bc
00000280: a2eb dfbb d275 643c ef6f 62bd cef4 94bb
00000290: 4f6a 6e39 08b4 7fbb 09ad 47bd 1cbc 0d3d
000002a0: 0f54 c93c db64 eabc 3e5e 903c 470c 383d
000002b0: 7ac7 5dbd acc6 183c aa56 103c 34e9 173d
000002c0: 14a7 11ba fcb3 03bd 6ed4 233c b55d 5dba
000002d0: 8420 3d3d 1557 963b 4d04 a5bd f594 7ebd
000002e0: 839a 093d 540b e8bb d171 243c cde5 6f3c
000002f0: 0fb3 3b3d 9de5 b0bb 977f 8e3c 71e9 c23c
00000300: a4dc 53bc 3081 d6bb 8e09 48bd 91d0 8a3c
00000310: b4f9 833c b5f1 903c ca8e 383b 207d 723d
00000320: 43e8 8f3b 823c 4a3d f9f1 6fbd 77e2 30bd
00000330: f6ca fb3b a5dd eabc 9f3e e5bc beb1 323d
00000340: 6773 fbbc e28f 55bd 2104 87bd 9a36 a5bc
00000350: d4ce 2fbd a7b5 13bc ace1 923c 003c 3abd
00000360: 3573 1b3d 25f5 7bbd 35fb 023b 570c 233d
00000370: 24c1 7fbd a8d3 93bb b6cd 98bd 749d 3f3d
00000380: 629c a2bc b686 5dbd 2c9c 1e3d 8e05 36bc
00000390: 8f1a 88bc b198 60bd bc88 343c e852 11bd
000003a0: ed60 78bd c711 35bd 62fc 273c a9e0 debc
000003b0: 5590 2abd 5e59 92bd 7b74 4d3d 0720 5abc
000003c0: f9a0 b6bc a87c 153c e11d 3cbd adb1 dabc
000003d0: 7090 833c 6eb2 cbbc e9b1 efbc e36d 48bd
000003e0: 5549 6f3c e779 ee3c 99b4 53bd 0b26 0f3d
000003f0: 0702 95bc f96a d73c a5ed 4cbb a1fa a13c
-0.08097944 0.04261369 -0.05190862 0.046152305 0.04971186 -0.040689323 0.020801036 -0.02986788
-0.0006937468 0.03510906 -0.013524214 -0.059121482 -0.015219994 -0.042499363 0.05299586 0.003922577
-0.023060938 0.035557974 -0.016659094 0.004849656 -0.06518116 0.036916923 -0.06696124 0.05442356
-0.08698476 -0.070485495 0.010498575 0.018484075 0.05158125 -0.010847921 -0.013822092 0.0063918643
0.03679961 0.022076564 -0.073627196 -0.0008043999 -0.011649628 0.013245637 0.05033319 0.034494568
0.012055901 -0.055335607 0.035128064 -0.0143203465 -0.009163974 -0.023403926 0.044693522 0.01563702
0.040069293 0.04353609 -0.035867423 -0.030775357 -0.03785615 -0.0021254108 0.06135391 0.0073608216
0.03300855 0.049514677 -0.031461917 -0.01483876 0.04414625 -0.007176341 -0.005223125 0.025859194
0.054659255 -0.008961876 -0.03712782 0.01406238 0.028102538 0.0049124276 0.06399623 -0.025119137
0.02259989 -0.034549788 0.069532335 0.07154212 0.027426079 -0.062131543 0.029223552 -0.024258824
0.051298045 -0.023207232 -0.0068973214 -0.043140765 -0.061125908 -0.030597303 -0.04358174 0.06505783
0.06927743 -0.03293028 0.049890257 0.06827351 0.036960058 -0.022856906 -0.006841051 -0.026019154
0.001230706 -0.055935327 -0.023183797 0.022901647 -0.03988342 -0.01231504 0.034378767 -0.038765773
0.062250562 0.04375141 -0.029748207 0.019181876 -0.02466841 0.013974634 -0.03390194 0.025146095
-0.045414556 -0.015657628 0.020225244 0.04800516 -0.069572315 -0.0443069 -0.030717205 -0.0029389549
-0.009233575 0.0023692525 0.015450092 -0.020929346 0.016237535 0.0101761 -0.026269978 -0.0043860604
0.028239844 -0.045326702 -0.012865381 0.02545379 0.03843902 0.025969604 0.024723992 0.021765715
0.0005137086 0.06033402 -0.021549294 -0.023630334 0.032631274 -0.04624292 0.027696202 0.013404111
-0.008329338 -0.05799055 -0.028945962 -0.0512843 -0.032136537 -0.055092245 0.013892158 0.0028101008
-0.007696095 -0.0058102095 0.010356362 0.013821231 -0.053396214 0.009475183 -0.016033165 -0.010040426
-0.0068335095 0.013944106 -0.05528253 -0.0045457846 0.00022737052 -0.003901722 -0.048749004 0.034603223
0.024576215 -0.028612545 0.017623063 0.044933584 -0.054145314 0.009324711 0.008809725 0.037087634
-0.00055562076 -0.03215407 0.009999378 -0.00084444444 0.046173587 0.0045880177 -0.08057461 -0.062153775
0.03359462 -0.0070814285 0.010036902 0.014642191 0.04582506 -0.005398466 0.017394824 0.023792954
-0.012931023 -0.006546162 -0.048837237 0.016945155 0.016110279 0.01769338 0.002816128 0.05920136
0.0043917014 0.04937411 -0.058580372 -0.043184724 0.007684107 -0.028670141 -0.027983962 0.04362654
-0.030694677 -0.05213917 -0.065925844 -0.020167638 -0.042921856 -0.009015477 0.017929874 -0.045467377
0.037951667 -0.061513085 0.0019986157 0.03980669 -0.062440053 -0.0045113154 -0.07461111 0.04678102
-0.01984996 -0.05408355 0.038723156 -0.011109723 -0.016614227 -0.054833118 0.011018928 -0.035479456
-0.06063931 -0.044206407 0.010253044 -0.027206736 -0.041641552 -0.07145952 0.050159913 -0.0133133
-0.022293555 0.009123959 -0.045926932 -0.02669605 0.016060084 -0.024865355 -0.029259639 -0.04893292
0.014604886 0.029110862 -0.051685903 0.03494839 -0.018189443 0.026296126 -0.0031269577 0.01977283

to_patch_embedding.1.bias f4 [16]
00000000: 5baa 773d daf7 be3c ce50 3b3d c18e 493d
00000010: 1ac5 7d3d 8029 e93a f9a6 84bc c3df 0dbd
00000020: 3c32 1b3d bbc9 3ebc 9a98 62bd 79a9 92bc
00000030: e9e2 253d d766 e33c 4abf 093d b5ae 1dbc
0.060465198 0.023311544 0.04573136 0.049208406 0.06195555 0.0017788857 -0.0161929 -0.034637224
0.037889704 -0.011644776 -0.055321313 -0.017903076 0.0404996 0.027758999 0.033629693 -0.009624173

layers.0.forward_conv1d.weight f4 [16, 16, 1]
00000000: 3464 013d c215 aa3b 0f08 f8bb 3070 0c3b
00000010: 6e4f 583d e0c8 7d3b 61cb 0e3d 6d11 e5bc
00000020: a7a5 70bd 4c33 593b 5abc 91bc 1835 173c
00000030: 0ac6 393c 2fc6 17bc 183a b4bc 38a9 06bb
00000040: 1735 a8bd 2b3b 8b3d 672a a43a 96fd 603d
00000050: 9c7c 993d 8d7d 47bc 6537 193d b13b 1cbc
00000060: c3a6 ad3b d879 a73c ea44 2abd 6817 b73b
00000070: 8c29 d8bc f955 e7bc 821a bfbb 62f3 cf3d
00000080: 0313 4fbd 68ae f2bc c0be bd3c ef1c de3c
00000090: c260 223c 9f8a cbbc b161 1f3d d28a ad3c
000000a0: f8bb 803c f585 c9b8 e030 81bd ff1f d53a
000000b0: 0378 2ebd a351 cfbd dc6f bdbd 2cd3 693d
000000c0: 49cc 17bd 5f74 92bc 2efd 9e3d 9246 4cbc
000000d0: c681 d63b 4e05 743c 8d7f 203c 7993 943b
000000e0: 4383 113c 8e1b e0bc 5dd1 d5bb 0759 6abc
000000f0: b7a8 fcbb 982c 183d e9f7 803c 72f6 a3bd
00000100: d766 f7bb fcb0 7ebb b647 fc3b 461b 19bc
00000110: 9619 5bbd 93ba 48bc dd88 67b8 934a c6ba
00000120: db67 45ba e19d 8c3c 97a3 173b af67 9dbc
00000130: a1bb f13b a2f3 0b3c e032 0ebd 738b 9f3c
00000140: 797d a03c cffa 333b 5988 07bb 6854 553c
00000150: 1879 3fba 9fcd e13c b296 9cb9 6082 6d3c
00000160: ccbc 4f3b 3613 b93c 32b2 243d 648f 84bb
00000170: cf9e bc3b 5e89 2e3c 6361 203b 4bce 7a3b
00000180: b4a5 9f3c 2ea1 debb a493 f2bc 8a08 4b3d
00000190: 09fe 25bd 4780 5d3d 1b43 903d 490a c53b
000001a0: 2853 1b3c df8f 03bd 694a 38bb 3d76 59bd
000001b0: 0174 8e3d d9b1 a0bd 1f77 a9bd 81b8 c6bd
000001c0: 4668 e43a ebfa 093d a833 583c c7db 0abd
000001d0: 710c ce3c c552 183c 1fe3 bd3d f8f9 29bd
000001e0: 7e25 6cbd 456d a8bc ca6a 22bc c886 273b
000001f0: f083 c6bc 6dc6 b0bd f25d dcbd 7b6b 473d
00000200: 6cb5 01bb 5e16 40bb a37e da3c b3bf 9dbc
00000210: a936 293b 369f 0ebc 9b2d 083d 24e7 07bc
00000220: 7f1f 8c3c d95e 943c 2f5c 093c 9fdc a43c
00000230: c3dc 92bc 6f4a b9bc d7b7 c4bc 5aa2 a8bc
00000240: fbd7 94bc 4e0e aa3a 6710 a5bc c6a0 29bd
00000250: 0831 043d 3ccc 1f3d e7de 373a 8f0a 1cbd
00000260: 01e4 1f3d 018e 163d 05fd 983c 44c2 76bb
00000270: 8241 19bc 5134 83bc 2b8e 123c 1717 673d
00000280: 4b40 4fbd bfea 0bbd 8a8b 15bd 71fb 01bd
00000290: 53d2 103d fd93 f7bc 9c55 a63d caad 9c3c
000002a0: 9b10 77bb 15e6 d43c f523 103d 2ea0 65bc
000002b0: 2e38 3f3b a0fb f0bc 7c67 03bc 14cf c5bd
000002c0: e044 d0bc bb72 213c 3d82 eabb de08 373c
000002d0: 2987 c1bb 70fd 1e3c 6215 823c c090 10bc
000002e0: 1d5d 13bc 88eb fbba 0971 c23b 642e f73c
000002f0: d593 d83a 0bd2 e03b 6c1c 123b 47e0 0ebc
00000300: b21c f0ba a3f4 c7bc e900 9d3c 80f6 a03c
00000310: ee15 a13b 4301 d93b 9407 9dbd 95c6 c4bc
00000320: b161 68bd e8f7 42bb d9d0 943b 3712 313c
00000330: 920f 613c c9a4 fcbc 55eb 623d 35b6 27bd
00000340: a104 513c bb6e 733c 8644 53bd 2942 533d
00000350: 9df6 2d3b 506b f9ba 6491 c33b dfd3 0d3d
00000360: d067 b73c 7912 e2bc d28b 87bd 5a04 b9bb
00000370: 7e2e d03c 1468 78bd 007b fabc f74b 8dbd
00000380: 2a71 c8bd 3468 ee3d 6b26 88bd 9d14 e1bd
00000390: 3abc c83d 0cec 583c 98c4 98bd 0a0d cdbd
000003a0: 928b d83c fc31 0ebd c273 3a3e f5cd c6bd
000003b0: 78db 1e3d e0e2 743c 05a6 cfbd 1b39 25bd
000003c0: 79bf b43d 8957 263a 8f8c fcbc ac1d 2e3d
000003d0: 400b 893b 6cc2 7a3c 1f93 e43c 6e15 303b
000003e0: e5d6 34bd fb68 14bd 4408 fd3c 6297 e1bc
000003f0: d520 06bd e759 963b 2bb1 06be b898 153e
0.0315897 0.005190582 -0.00756932 0.0021429174 0.052810125 0.0038724467 0.034861926 -0.02796241
-0.05875173 0.0033142148 -0.017790008 0.009228967 0.01133872 -0.009263559 -0.022000358 -0.002054764
-0.08213251 0.06798395 0.0012524844 0.05492934 0.074944705 -0.01217593 0.037406344 -0.009535716
0.0052994206 0.020443842 -0.041569628 0.005587507 -0.026386999 -0.028239237 -0.0058320174 0.101538435
-0.05055524 -0.029624179 0.023162246 0.027113406 0.009910764 -0.024846373 0.038911525 0.021184359
0.01571463 -9.609378e-05 -0.0630815 0.0016260146 -0.04259492 -0.10122993 -0.09249851 0.057086155
-0.037060056 -0.017877756 0.07763134 -0.012467997 0.006546232 0.014893843 0.0097960355 0.0045341817
0.008881393 -0.02735689 -0.006525202 -0.014303452 -0.007710542 0.037151903 0.015743213 -0.0800599
-0.0075501013 -0.0038862815 0.0076989783 -0.009344881 -0.053491198 -0.012251514 -5.5202156e-05 -0.0015128426
-0.0007530429 0.017165126 0.0023138279 -0.01921448 0.0073771034 0.008541973 -0.034716487 0.019475674
0.01959108 0.0027462726 -0.0020680635 0.013020612 -0.0007304116 0.027563868 -0.00029866915 0.014496416
0.0031698225 0.022592168 0.040209003 -0.004045414 0.005756236 0.010652868 0.002447211 0.0038269933
0.019488193 -0.0067941165 -0.029611416 0.04956869 -0.04052547 0.054077413 0.07044049 0.006013189
0.009480275 -0.032119628 -0.0028120524 -0.053091276 0.0695572 -0.07846422 -0.08274674 -0.0970316
0.0017426095 0.03368656 0.01319591 -0.033901002 0.025152417 0.009297078 0.092718355 -0.041498154
-0.057652943 -0.020559916 -0.009913156 0.0025562514 -0.024232835 -0.08631597 -0.10760106 0.048686486
-0.0019791974 -0.0029310207 0.026671713 -0.019256448 0.0025819934 -0.008704951 0.033246618 -0.008294854
0.017104862 0.018111633 0.008383795 0.020124732 -0.017927533 -0.0226185 -0.024013443 -0.020585228
-0.018169394 0.0012974234 -0.020149423 -0.04141309 0.032273322 0.039013132 0.0007014111 -0.038096007
0.0390358 0.03675652 0.018675337 -0.0037652412 -0.009353997 -0.016016157 0.008945028 0.056418505
-0.050598424 -0.03415942 -0.036510028 -0.031733934 0.03535683 -0.030221933 0.081217974 0.019125838
-0.0037699107 0.025988618 0.03519054 -0.014015241 0.0029177773 -0.02941686 -0.008020278 -0.09658638
-0.025423467 0.009854014 -0.007156639 0.011171548 -0.005906005 0.009703979 0.015879337 -0.008823574
-0.008994368 -0.0019219974 0.005933885 0.030173488 0.001652355 0.0068609766 0.0022294773 -0.008720464
-0.0018319099 -0.024408644 0.019165473 0.01964879 0.0049159443 0.006622465 -0.07667461 -0.024020473
-0.05673379 -0.0029749814 0.004541498 0.010807565 0.013736622 -0.030840294 0.05540021 -0.04094525
0.012757451 0.014857943 -0.05157902 0.051576767 0.0026544698 -0.0019029174 0.0059682596 0.034625884
0.022388369 -0.0275967 -0.066184655 -0.0056462707 0.025412794 -0.06064613 -0.03057623 -0.06899255
-0.09787209 0.11640969 -0.06647953 -0.1099026 0.09801526 0.013239872 -0.07459372 -0.10012253
0.02643374 -0.034715638 0.1820822 -0.09707252 0.03878352 0.014946669 -0.101390876 -0.040337663
0.08825583 0.0006345441 -0.030828742 0.042508766 0.0041822493 0.015305143 0.027902184 0.0026868242
-0.044150252 -0.03623293 0.03088773 -0.027538005 -0.032746155 0.004588354 -0.13153522 0.14609039

layers.0.forward_conv1d.bias f4 [16]
00000000: 75f3 0dbd a6ed 123e 72ac 2cbc c8c4 a83d
00000010: 0fb5 1ebd 01b2 8fbd 8586 5cbd 590f 063e
00000020: f6f9 20bd 61aa 73bd 7b33 aa3d 75b4 94bd
00000030: 7fcd 80bd ff6f a53c c2e4 8dbd 59cb f4bd
-0.034656007 0.14348468 -0.010539161 0.08240658 -0.03874689 -0.070163734 -0.053839225 0.13091792
-0.03930088 -0.059488658 0.083106 -0.07260982 -0.06289195 0.020195005 -0.06928398 -0.11952848

layers.0.backward_conv1d.weight f4 [16, 16, 1]
00000000: cc95 ecbd 1e16 3e3d 8309 27bc 8866 ca3b
00000010: dac1 80bc b173 15bd 7a32 83bc 3b0f f83c
00000020: 3197 97bd ce0a 6bbd a255 d9bb 1e45 c9bd
00000030: e941 1dbc 2e64 fb3b a21b 2f3d 1770 8f3d
00000040: 3328 f7bd 1137 db3c 254e bf3c 895f acbc
00000050: 57cd b0bd 3a89 463b 39c1 0d3d 8a10 d6bd
00000060: fb31 dbbc 7132 2bbb fdf5 eb3d 1b3c 3cbd
00000070: b974 6a3d d61c a83d 55b3 babd 8d08 a6bd
00000080: 9ea9 a7bc 8329 b63c 6acb 8c3d e38f 233c
00000090: 0f18 0bbd 9546 903c b2e4 463d 6121 943d
000000a0: 5dbd d93c 3c95 343d 8436 813d aa36 fe3b
000000b0: 7695 373d 1fc8 a3bd 040b a8bd 1658 6ebd
000000c0: 4e47 043d 7bab 8abc 3be5 b2bd fccd 9cbd
000000d0: 1298 e23c f006 203d 42e9 a9bc 7794 57bc
000000e0: 24bf 38bd 492f 90bb 78d8 a23d ef61 45bd
000000f0: 431e 0bbd 34e9 b0bd 6fdc 85bd d423 913d
00000100: 2586 0c3d 4931 363c 791b 1f3c a93f 193d
00000110: bacb d13b cc03 473c 4c4f 213d 103e 283d
00000120: e578 b7bc 65b3 f93c f1e2 313c 6c08 13bc
00000130: a664 d1bb 80d2 1abc 9b11 b53d 80b3 16bc
00000140: 40d7 c9bc 96e2 b23b 49b2 5fbc 2e07 283c
00000150: 5347 803c 5545 823d 3bc9 bf3c 8b4e 38bc
00000160: 907d d33a 6d61 b83b 1082 0abc 26f3 abbb
00000170: 981b aa3b f06c d4bc dfca c23c eeb9 163d
00000180: b233 ab3d 0f51 0cbc 0dc4 3cbd 73dc 2a3c
00000190: e7fe 8abd fadd 1c3d d6d4 5e3d 78a2 713d
000001a0: d133 02bc c9fa 95bd 09b3 cebd 7976 dcbc
000001b0: 1ad2 933d dd79 bb3d eddf 883c 466f c03c
000001c0: 18da 11bb b7d6 a9bc a198 d33d d606 25bd
000001d0: 3d66 c3bc 60ba 33bc 1217 c2bd d7b2 393d
000001e0: 80bd 1ebd 2037 583c 10a1 46bc 44f9 edbb
000001f0: 2cdf 3cbc 3c0e 05be 2db6 68bd 7ae4 02bd
00000200: 41f1 6b3a 7868 96bc 23e7 c03b f0ff 2fbd
00000210: 1a0c 9b3c 41f4 1dbc 12b4 ed3c 737a 9c3b
00000220: c707 5c3d dc2a 993c f030 ffb9 5445 aabb
00000230: 1730 97bc ec32 ad3c 797d 27bd bd3f dfbc
00000240: a14f 923d 457d 01bc ab39 f23c 801a 47bd
00000250: 4497 2f3c da99 b9bc cf97 933d 681f 15bc
00000260: 5973 acbd 8ead d1bd d791 2dbd 84a1 b03c
00000270: 63b0 0ebb 6d5c a3bb 726e 63bd 220c 9c3b
00000280: 848b de3c 4919 34bc 7bc5 4c3d a3b8 d73c
00000290: eac9 113d d0a0 28bd 6647 f7bc 111f 74bd
000002a0: e831 1439 b1ab df39 f6b7 0c3e d895 83bb
000002b0: 52ee cabc ee7a 81bc a0ef bebd 12f7 29bc
000002c0: a9b6 043d ff04 c23a dd58 21bb 10fa 363c
000002d0: d768 a33c 5a10 8abc 0e34 35bd d8f2 fabc
000002e0: 136c c43c f09d a9bb 481e cebc cc02 ce3d
000002f0: f84b f13c cb2b bdbc d40c 10bd d7a6 a83c
00000300: 63ac 0dbd 39f0 90bb cb3c 8cbd 7be6 343d
00000310: 7330 6abc 4469 e93b 1df4 293d 711b 773c
00000320: b0d9 8f3c 5773 283c de3c a83c 5d29 4b3c
00000330: 5078 74bd 5c22 ca3c 2899 b4bc 2247 ac3d
00000340: b4a3 a1bd c1d3 44bd 9d28 a33c 0f69 c0bc
00000350: fe5f 4d3c 4517 7abb 0a42 61bd 4bff 2abd
00000360: 8fb6 90bc 360f 71bc 742a 71bd 9879 3f3d
00000370: 9a0c 893d 7165 6abb 95e5 093d 755d e3bd
00000380: 7c5e 56bd 8abd f63d eb01 993c 29e2 bebc
00000390: 222f 10bc be79 10ba 84d3 b33d bf79 c73d
000003a0: ea54 2ebd a364 89bd b7e0 1c3e c860 d13b
000003b0: a900 b43c 3ec6 8fbc e134 c13d 067b 0a3e
000003c0: ce05 0dbd ae97 18bc d23b c63a 5cf6 e03c
000003d0: 88f7 b73c 541f 4c3d 3310 11bd ec94 883b
000003e0: f980 7abd 8f56 a23b b528 e03c 138e 793c
000003f0: 5203 24bd 76bb a03d 3f93 ea3c 7b1f 063b
-0.11552009 0.04640781 -0.010195139 0.0061767735 -0.015717436 -0.036487285 -0.01601528 0.0302807
-0.07401884 -0.05738335 -0.0066325227 -0.09827636 -0.009598234 0.0076718545 0.042750962 0.07003801
-0.12068214 0.026759656 0.023352692 -0.021041648 -0.086329155 0.0030294196 0.0346081 -0.10452373
-0.026757231 -0.0026122595 0.11521528 -0.04595576 0.05724022 0.08208625 -0.09116236 -0.081071
-0.020466622 0.022236591 0.06874736 0.009983036 -0.03395849 0.017611781 0.048557945 0.07232929
0.026579553 0.044087633 0.06309226 0.0077579813 0.04482027 -0.079971544 -0.08205226 -0.058189474
0.032294564 -0.016927471 -0.087351285 -0.07656476 0.027660403 0.039069116 -0.020741109 -0.013157955
-0.04510416 -0.004400168 0.079514444 -0.0481891 -0.033964407 -0.0863823 -0.06536185 0.07086912
0.034307618 0.011120149 0.00971114 0.037414227 0.00640246 0.012146901 0.039382264 0.041074812
-0.022396514 0.03048105 0.01085733 -0.008974176 -0.006390172 -0.009449601 0.088412486 -0.00919807
-0.024638772 0.00545914 -0.013653346 0.010255618 0.01565901 0.0636088 0.023411384 -0.011249195
0.0016135443 0.0056268484 -0.008453861 -0.0052474914 0.0051912777 -0.025930852 0.023778377 0.03679841
0.083594695 -0.008564248 -0.046085406 0.010428536 -0.067869 0.03829763 0.054402195 0.058992833
-0.007946924 -0.07323224 -0.10092742 -0.02691196 0.07217808 0.09154103 0.016708339 0.02349056
-0.0022255238 -0.020732267 0.10331846 -0.040289722 -0.023852462 -0.010969728 -0.094770566 0.04533657
-0.03875494 0.013196737 -0.012123361 -0.007262381 -0.011527818 -0.12993711 -0.05681436 -0.031956173
0.0009000488 -0.018360361 0.0058869286 -0.04296869 0.018926669 -0.009640754 0.029016528 0.0047753393
0.053718355 0.018697195 -0.0004867385 -0.005196253 -0.018455548 0.021142446 -0.040891144 -0.027252072
0.07144094 -0.007903402 0.029568514 -0.048609257 0.010717217 -0.02265637 0.072066896 -0.009101726
-0.08420438 -0.10238181 -0.04237541 0.021561392 -0.0021772615 -0.0049853832 -0.05552525 0.0047621885
0.027166136 -0.010992357 0.04999302 0.026333159 0.03559295 -0.041168988 -0.030185413 -0.05959994
0.00014132971 0.00042661795 0.1374205 -0.0040156655 -0.024771843 -0.015805688 -0.093230486 -0.010373848
0.03240076 0.0014802514 -0.0024619617 0.011168018 0.019947452 -0.0168535 -0.044239096 -0.030633375
0.023977315 -0.0051762983 -0.025160924 0.10059127 0.02945517 -0.023092171 -0.035168484 0.020587368
-0.03458823 -0.004423168 -0.06847533 0.044165116 -0.014293778 0.0071231443 0.04149257 0.015082226
0.017559856 0.010281405 0.020536836 0.0123999985 -0.05968505 0.024674587 -0.022045687 0.08412005
-0.07892552 -0.048053507 0.019916827 -0.023487596 0.012535093 -0.0038160842 -0.05499462 -0.041747373
-0.017665176 -0.014713099 -0.058878377 0.04674682 0.06691857 -0.003576603 0.033666212 -0.1110181
-0.0523362 0.120478705 0.018677672 -0.023301201 -0.0088003 -0.0005511305 0.08780578 0.09740018
-0.04256145 -0.06708648 0.15320097 0.006389711 0.021972971 -0.017550584 0.09433914 0.13523492
-0.034429364 -0.009313507 0.0015124029 0.027461223 0.0224569 0.049834564 -0.03541584 0.0041681435
-0.061158154 0.0049541662 0.02736316 0.015231627 -0.04004223 0.07848255 0.028634666 0.0020465541

layers.0.backward_conv1d.bias f4 [16]
00000000: 37bb 0bbc a2f6 2f3e 1521 f23d 579f cb3d
00000010: b362 3c3d d8d9 363c 017c f6bd e420 14bd
00000020: 8c61 9bbd 7a50 66bb 84cd 0cbd 875f 063d
00000030: d338 f1bd 5031 003e 45a6 cbbd 6cb2 9abd
-0.008528522 0.17183927 0.11822716 0.09942501 0.045992564 0.011160336 -0.120353706 -0.03616418
-0.07586965 -0.0035143183 -0.034375682 0.032805946 -0.117784165 0.12518811 -0.09943823 -0.075535625

layers.0.norm.weight f4 [16]
00000000: 2233 5c3f b96b 2c3f 8209 573f 1e15 493f
00000010: 7c89 403f f366 4d3f 818d 4f3f a63a 643f
00000020: d83b 4a3f 9474 4e3f 9ecf 613f cdd7 613f
00000030: 4e41 4c3f a05b 473f 7cdc 503f 9b3c 613f
0.8601552 0.6735187 0.8399888 0.7854785 0.75209785 0.80235213 0.8107529 0.8915199
0.78997564 0.80646634 0.88207424 0.8821991 0.7978715 0.77874184 0.8158643 0.879831

layers.0.norm.bias f4 [16]
00000000: 23bc bb3b 1db6 26bc 0f12 5b3a f4f9 83bc
00000010: 16a6 ad3b 8914 743c 806b e53b 18a7 80bc
00000020: 5b47 bd3b 04fc c93b ec10 a53b d5b5 80bb
00000030: fc92 773c 46f7 20bb e652 d239 ba1c 123b
0.0057292148 -0.010175255 0.0008356878 -0.016110398 0.00529934 0.014897474 0.0070013404 -0.015704677
0.0057763285 0.006164076 0.0050374176 -0.003927926 0.015110727 -0.002456145 0.00040116085 0.0022294954

layers.0.ssm.A_log f4 [16, 16]
00000000: 25c6 3fbb 94b7 153e 6e0f fa3e 1c33 433f
00000010: 1d53 7a3f 8ff9 933f a755 a73f fc27 b83f
00000020: 2007 c73f 6659 d43f f369 e03f fe70 eb3f
00000030: da96 f53f d9fe fe3f f2e0 0340 def9 0740
00000040: d498 44bc 1ca8 523e 20b9 f93e 3137 443f
00000050: 1874 7a3f 4428 943f 566b a73f df2c b83f
00000060: 2cfc c63f f85c d43f c166 e03f 1071 eb3f
00000070: 9998 f53f e5fe fe3f 20e0 0340 d7f9 0740
00000080: 3a0b 9cbb 0598 3b3e b13a fa3e 3017 433f
00000090: 7b53 7a3f d1f2 933f 0650 a73f 0924 b83f
000000a0: 3d2f c73f b056 d43f a46e e03f 0071 eb3f
000000b0: d495 f53f c9fe fe3f 2be2 0340 c9f9 0740
000000c0: e844 873c 6509 1e3e d72a fa3e b109 433f
000000d0: a150 7a3f 79f7 933f 2753 a73f ea26 b83f
000000e0: 3e0e c73f 3c59 d43f 6c6a e03f fa70 eb3f
000000f0: 4e97 f53f dbfe fe3f f5e0 0340 d8f9 0740
00000100: e280 12bc c6af 193e 943c fa3e 6024 433f
00000110: bd56 7a3f 2efc 933f 6b56 a73f ca27 b83f
00000120: d606 c73f c559 d43f 0c6a e03f fe70 eb3f
00000130: 1197 f53f dffe fe3f a6e0 0340 d7f9 0740
00000140: 72de cdbb cedb 133e 8334 fa3e f23f 433f
00000150: 334d 7a3f e202 943f 655c a73f 4f28 b83f
00000160: d7f2 c63f 4f5b d43f b867 e03f fe70 eb3f
00000170: 9197 f53f f7fe fe3f d2df 0340 d5f9 0740
00000180: f7bd a53a 997e 843e c045 fa3e 58d6 433f
00000190: 6449 7a3f 130f 943f 1663 a73f 8227 b83f
000001a0: d542 c73f 3f59 d43f 2269 e03f 0871 eb3f
000001b0: 0598 f53f e3fe fe3f aae0 0340 cdf9 0740
000001c0: 3ee1 023c 30f0 3e3e 9247 fa3e 541c 433f
000001d0: b052 7a3f 99f9 933f 8755 a73f 6d26 b83f
000001e0: 821e c73f 2b59 d43f f96a e03f fe70 eb3f
000001f0: 5797 f53f e1fe fe3f ade0 0340 dff9 0740
00000200: 8296 0db9 3e41 113e 8a16 fa3e f1fb 423f
00000210: 5b53 7a3f 3af5 933f a753 a73f 1927 b83f
00000220: 1d07 c73f 4859 d43f 556a e03f 0071 eb3f
00000230: 3397 f53f dffe fe3f 69e0 0340 d6f9 0740
00000240: 8a24 2c3b b75d 1f3e 063f fa3e 2df5 423f
00000250: 9a57 7a3f 77ef 933f 0950 a73f bf25 b83f
00000260: c017 c73f 0c58 d43f c76b e03f 0871 eb3f
00000270: 4f97 f53f dffe fe3f aee0 0340 dcf9 0740
00000280: 1ed3 5f3c 0693 3f3e c928 fa3e 7642 433f
00000290: 864c 7a3f 7600 943f 9b59 a73f 3b27 b83f
000002a0: 790f c73f cb59 d43f e369 e03f 0071 eb3f
000002b0: 8a97 f53f e5fe fe3f 65e0 0340 d6f9 0740
000002c0: d788 b6bb 8759 0f3e 5734 fa3e dc0d 433f
000002d0: 1352 7a3f 9ced 933f c652 a73f a126 b83f
000002e0: 9313 c73f 1a57 d43f 4c6b e03f cc70 eb3f
000002f0: f296 f53f ddfe fe3f dce0 0340 d5f9 0740
00000300: 4f1d 0f3c 0e7c 1c3e a52c fa3e e85a 433f
00000310: 3359 7a3f c407 943f c95a a73f 4e29 b83f
00000320: 98fa c63f dd5a d43f 1b69 e03f 1471 eb3f
00000330: d397 f53f e3fe fe3f 60e0 0340 daf9 0740
00000340: b488 fc3b fc86 293e 9a97 fa3e 6af3 423f
00000350: 8f50 7a3f 4ff5 933f b552 a73f 5926 b83f
00000360: 1f14 c73f e258 d43f f06a e03f fc70 eb3f
00000370: e696 f53f e5fe fe3f d4e0 0340 f3f9 0740
00000380: ff28 1db9 1a20 893e f498 f93e 3fc3 443f
00000390: eb4a 7a3f 6c03 943f eb57 a73f f41f b83f
000003a0: c202 c83f d14c d43f 7877 e03f f870 eb3f
000003b0: 2c94 f53f dbfe fe3f 7ee6 0340 18fa 0740
000003c0: 790b a2bb e15e 283e f1b6 fa3e 64f1 423f
000003d0: e052 7a3f 4bf8 933f 0053 a73f 6526 b83f
000003e0: 9a12 c73f 4a59 d43f d76a e03f 0071 eb3f
000003f0: 7c97 f53f dbfe fe3f a2e0 0340 d1f9 0740
-0.002926239 0.14620811 0.48839897 0.7624986 0.9778307 1.1560534 1.3073014 1.4387202
1.5549049 1.6589782 1.7532333 1.8393857 1.9186661 1.9921523 2.0606046 2.1246257
-0.011999328 0.20571941 0.48774052 0.76646715 0.97833395 1.1574788 1.3079631 1.4388694
1.5545707 1.6590872 1.7531358 1.8393879 1.9187194 1.9921538 2.0605545 2.124624
-0.0047620805 0.1831971 0.48872903 0.76207256 0.9778363 1.1558477 1.3071296 1.4385997
1.5561291 1.6588955 1.7533765 1.839386 1.9186349 1.9921504 2.0606792 2.1246207
0.01651235 0.15433271 0.4886081 0.7618666 0.9777928 1.1559898 1.3072251 1.4386876
1.5551221 1.6589732 1.7532477 1.8393853 1.91868 1.9921526 2.0606053 2.1246243
-0.008941861 0.15008458 0.48874342 0.7622738 0.977886 1.1561334 1.3073248 1.4387143
1.5548961 1.6589895 1.7532363 1.8393857 1.9186727 1.992153 2.0605865 2.124624
-0.006282621 0.14439318 0.48868188 0.7626945 0.97774047 1.156338 1.3075072 1.4387301
1.5542859 1.6590365 1.7531652 1.8393857 1.9186879 1.9921559 2.060536 2.1246235
0.0012645115 0.25877836 0.4888134 0.7649894 0.97768235 1.15671 1.3077114 1.4387057
1.556727 1.6589736 1.7532084 1.8393869 1.9187018 1.9921535 2.0605874 2.1246216
0.007988272 0.18646312 0.4888273 0.762151 0.9778242 1.1560546 1.3072976 1.4386727
1.5556185 1.6589712 1.7532645 1.8393857 1.918681 1.9921533 2.0605881 2.124626
-0.00013502876 0.14185044 0.4884532 0.7616568 0.9778344 1.1559212 1.3072404 1.4386932
1.5549046 1.6589746 1.753245 1.839386 1.9186767 1.992153 2.060572 2.1246238
0.0026266896 0.15563093 0.48876208 0.7615536 0.9778992 1.1557454 1.30713 1.4386519
1.5554123 1.658937 1.7532891 1.8393869 1.9186801 1.992153 2.0605884 2.1246252
0.013661174 0.18708429 0.48859242 0.76273286 0.97773015 1.1562641 1.307422 1.4386972
1.5551597 1.6589903 1.7532314 1.839386 1.9186871 1.9921538 2.060571 2.1246238
-0.005570512 0.13998996 0.48868057 0.7619302 0.97781485 1.1556888 1.3072135 1.4386789
1.5552849 1.6589081 1.7532744 1.8393798 1.918669 1.9921528 2.0605993 2.1246235
0.008735015 0.15281698 0.48862186 0.76310587 0.9779236 1.156487 1.307458 1.4387605
1.5545225 1.6590229 1.7532076 1.8393884 1.9186958 1.9921535 2.0605698 2.1246247
0.007706726 0.16555399 0.48943788 0.7615267 0.9777917 1.1559237 1.3072115 1.4386703
1.5553015 1.6589625 1.7532635 1.8393855 1.9186676 1.9921538 2.0605974 2.1246307
-0.00014987959 0.26782304 0.48749506 0.7686042 0.97770566 1.1563544 1.3073705 1.4384751
1.5625842 1.6585943 1.7536459 1.839385 1.9185843 1.9921526 2.0609431 2.1246395
-0.0049452153 0.16442443 0.48967698 0.7614958 0.9778271 1.1560148 1.3072205 1.4386717
1.5552552 1.6589749 1.7532605 1.839386 1.9186854 1.9921526 2.0605855 2.1246226

layers.0.ssm.D f4 [16]
00000000: c19d 4a3f 0326 6a3f fb00 643f bfdb 473f
00000010: b2df 413f eeab 3b3f 80ab 633f 9768 533f
00000020: e5c9 333f 1a74 4b3f 65ce 5c3f 34f2 403f
00000030: 11ec 4f3f a91e 543f 2b3d 733f fb57 5a3f
0.79146963 0.9146425 0.89063996 0.7806968 0.75731957 0.7330922 0.88933563 0.82581466
0.7022994 0.7947403 0.86252433 0.7536957 0.81219584 0.82859284 0.9501521 0.852905

layers.0.ssm.deltaBC_layer.weight f4 [40, 16]
00000000: 1b48 8db9 6182 a03b 5eb0 f83b aade cc3a
00000010: 6918 21bb 9c4d ac3a f028 68ba 5e19 b83b
00000020: 5a55 cab9 96e4 af3a 780e 903a a5be bdba
00000030: 01dc a0b9 63be 593a 65aa d439 9f12 41ba
00000040: 07d4 fcb5 132e 1739 5167 1739 2bce feb6
00000050: cfc6 fcb5 59fd cfb5 75c2 2ab6 929b 32b6
00000060: 6fe0 edb5 6f00 09b6 720d 8fb6 3e21 05b6
00000070: 8252 b5b5 64f9 0fb6 a80e 02b6 9007 bfb5
00000080: c571 443b 8df7 723a ebe8 a9b9 0349 5b39
00000090: e637 c73a 52d2 983b 23aa 0e3a a390 833a
000000a0: d11a ea37 a619 743a ca1a 413a 3132 6f36
000000b0: 99fc e63a 23ae a53b ca76 5bba b61e b03a
000000c0: c254 10b7 e1d9 3d35 f6cf e535 4b34 edb5
000000d0: 23f5 efb5 1ea8 cbb5 f7a4 b5b5 531f dcb5
000000e0: 4832 d6b5 3dfe 9eb5 008c 3636 9bb6 d7b5
000000f0: 4db9 7fb5 9ac6 deb5 7354 54b8 1ae9 d8b5
00000100: ebd9 4936 3097 63b6 159a 15b9 d0ac bab6
00000110: 8080 7b35 99b3 ef35 828a d935 f16f 0d38
00000120: 09ff 9e36 325b 4436 0d62 59b7 ce4c 4d36
00000130: ccf3 65b8 cbd3 10b8 2498 9336 90d5 0e36
00000140: 0e58 90b9 d0b3 63b8 38c6 e739 b960 0339
00000150: 83ee ef38 75e6 6938 3573 533a 1d18 8fba
00000160: 80c6 32ba e974 6038 8927 bfb7 9b3c f239
00000170: edc1 87b7 519e 83b9 520c b637 c09b 83ba
00000180: e2dc 86b5 418f 87b5 4a71 9cb5 d19f 96b5
00000190: 62e0 93b5 89d4 89b5 33d8 6ab5 39d4 b0b5
000001a0: f0ce 82b5 1787 7db5 42ea 98b5 bc18 4fb5
000001b0: 841f a4b6 2be0 d1b5 dcd4 4eb5 4ae8 68b5
000001c0: 5cc5 5b38 c723 8fba e28b 3637 9f5a 1639
000001d0: 47fd 3eb9 8e01 9237 983d e9b8 61fc 0839
000001e0: c0f0 a9b9 b622 8a38 6a52 f638 fafd a338
000001f0: 3030 9b38 7650 0fba 06d7 b3b9 dfc3 b839
00000200: a51d fa3d 6413 6abe 47b1 bb3d 9525 ddbd
00000210: 9e6b 0d3e 549b 4dbe 59f8 413e f14a 6abe
00000220: 6405 4b3e d0d2 ff3c 5f98 92bd 8852 bfbd
00000230: d1db 25be 6192 22be 8c85 3c3e e55b a6ba
00000240: 9ddb 77bd 0aff 00be fd39 6cbb 5126 06be
00000250: 70de 843d 83d5 d23c 7221 ef3d dcd9 88bd
00000260: 4c43 723c 9e78 fe3d 1c59 e7bd ac78 903d
00000270: 933c 06bd e02d 5cbd 893d 69bd fba2 94bd
00000280: e67f ecba 5695 503b 1d60 8339 eec3 0fbb
00000290: e60d 8a3a 7827 2339 5b41 1eba ed3e 97ba
000002a0: 8d2b 08ba 65d6 2e3a 8a50 a9ba 560b e636
000002b0: 7377 3fb9 57e2 153b f339 9b3a 72ef 7bb9
000002c0: cebe ad3d 02c3 583d 5fe9 08be 45cd c2bd
000002d0: fcfd 6bbb c59b a3bd 42a6 fbbb 856d e4bd
000002e0: 420e 0b3e 9ac4 4fbd de74 373d f23f 2ebc
000002f0: 0e44 ba3c 066d f13c 781d 37bd 05e3 ac3c
00000300: 294e 3ebc a112 46bd 91c2 9abd d843 d43c
00000310: 16ac 9e3d f363 9b3d 8949 58bd f7bb f7bc
00000320: bee6 7dbc e14b f03c 922d 1b3d 7024 c13c
00000330: 839c f63c 6896 a8bd 0cfe 093c 9b70 cd3b
00000340: d315 fa3d c3f6 0cbe 4060 323d f169 1a3c
00000350: b1e8 993d 6b67 29be c13d 253e e0cf a2bd
00000360: f3a3 ca3d bb0b 2d3e 7df0 f43d bb12 f4bc
00000370: a71d d1bd c17a 813d 0b90 1abd 1db8 1bbe
00000380: 7dad 40bc 9dc5 f2bc 1197 403c 6c2d 18be
00000390: bb50 4cbd 517d d53d 48d8 333d b2c0 b3bc
000003a0: 159b cdbd 4db6 54bd 27c8 85bd 58f3 08bc
000003b0: 2da0 683c d8fa 8d3d 1f9d 023c ade9 af3c
000003c0: 5f9d a13c d004 c73b 2b40 e83c 2606 6b3b
000003d0: 9fa4 9bbd 5ac1 263d 42f4 abbc 753d dabc
000003e0: d836 463d 3724 0abc 6f85 353d 5021 9cbd
000003f0: 873e e73c ae02 0c3c 2428 24bd fdb4 38bd
-0.00026947338 0.004898355 0.007589384 0.0015630324 -0.00245812 0.0013145688 -0.0008856198 0.0056182584
-0.00038592034 0.0013419564 0.001099064 -0.0014476372 -0.00030681494 0.0008306263 0.00040562745 -0.00073651405
-1.8837171e-06 0.00014417646 0.0001443897 -7.593791e-06 -1.8833324e-06 -1.5496436e-06 -2.5445163e-06 -2.661462e-06
-1.7723195e-06 -2.0414843e-06 -4.2632973e-06 -1.9837894e-06 -1.3509564e-06 -2.1453825e-06 -1.938004e-06 -1.423281e-06
0.0029975038 0.00092684553 -0.0003240773 0.00020912667 0.0015199154 0.004663744 0.00054422225 0.0010037612
2.7907461e-05 0.0009311683 0.00073663576 3.564299e-06 0.0017622887 0.005056159 -0.0008371888 0.0013436887
-8.602803e-06 7.072504e-07 1.7122354e-06 -1.7673095e-06 -1.7878232e-06 -1.5173607e-06 -1.3533562e-06 -1.6400394e-06
-1.5958876e-06 -1.184591e-06 2.7201604e-06 -1.6071893e-06 -9.526455e-07 -1.659809e-06 -5.062339e-05 -1.6161096e-06
3.007818e-06 -3.3913639e-06 -0.00014267147 -5.56335e-06 9.369178e-07 1.7859157e-06 1.6208071e-06 3.3721273e-05
4.738457e-06 2.9259359e-06 -1.2957037e-05 3.0592087e-06 -5.4824908e-05 -3.4529523e-05 4.398653e-06 2.1283959e-06
-0.00027531426 -5.428848e-05 0.00044207438 0.00012529166 0.00011440834 5.576616e-05 0.00080661784 -0.001091722
-0.000681974 5.3514643e-05 -2.2787384e-05 0.00046202992 -1.6183558e-05 -0.00025104222 2.1701828e-05 -0.0010040924
-1.0048063e-06 -1.0099976e-06 -1.1655877e-06 -1.1222384e-06 -1.1017657e-06 -1.0269151e-06 -8.7486404e-07 -1.3174787e-06
-9.745982e-07 -9.4446426e-07 -1.139306e-06 -7.71495e-07 -4.89125e-06 -1.5636955e-06 -7.705073e-07 -8.676476e-07
5.2397474e-05 -0.0010920697 1.0880614e-05 0.00014338874 -0.00018214165 1.740528e-05 -0.000111217785 0.00013063989
-0.00032413565 6.586818e-05 0.00011745545 7.8197525e-05 7.3999516e-05 -0.00054670067 -0.00034301745 0.0003524115
0.122126855 -0.2285896 0.09164672 -0.10798184 0.13810584 -0.20078784 0.18942393 -0.2288015
0.19826275 0.031228453 -0.07157969 -0.093419135 -0.16197135 -0.15876152 0.18410319 -0.0012692182
-0.060512174 -0.1259729 -0.0036045306 -0.13100554 0.06487739 0.025736576 0.11676301 -0.066821784
0.014786553 0.1242535 -0.11296293 0.07054266 -0.03277261 -0.053754687 -0.05694345 -0.072576486
-0.0018043488 0.0031827292 0.00025057877 -0.0021936852 0.0010532707 0.00015559595 -0.00060369604 -0.0011539139
-0.0005194478 0.00066695205 -0.0012917679 6.855854e-06 -0.00018259678 0.0022870505 0.0011842832 -0.00024026426
0.08483659 0.05292035 -0.13370274 -0.09511808 -0.003600954 -0.07988695 -0.0076797316 -0.11153702
0.13579658 -0.050724603 0.044789188 -0.010635363 0.02273753 0.029470932 -0.044705838 0.021104345
-0.0116153145 -0.04835761 -0.07556642 0.025911257 0.077476665 0.07587423 -0.052804504 -0.030240996
-0.015496908 0.029333057 0.037885256 0.023576945 0.030103927 -0.08231813 0.008422386 0.006269527
0.12211194 -0.13766007 0.043548822 0.009424672 0.075150855 -0.16543357 0.16136838 -0.07949805
0.09894552 0.16899006 0.11959932 -0.029794088 -0.10210734 0.063222416 -0.037735026 -0.15206952
-0.011760113 -0.029635245 0.011754767 -0.14861077 -0.049881678 0.10424293 0.043907434 -0.02194247
-0.10039345 -0.051931668 -0.06532317 -0.008358799 0.014198345 0.0693261 0.007972031 0.02147373
0.01972836 0.0060735717 0.02835091 0.003586182 -0.07599758 0.04071174 -0.020990495 -0.026640633
0.048392147 -0.008431486 0.044316705 -0.07623541 0.028228058 0.008545561 -0.040077344 -0.04509448

layers.0.ssm.dt_proj_layer.weight f4 [16, 8]
00000000: 481b a5b8 aaf5 c335 a363 1cb9 fa46 12b4
00000010: 8993 b4b8 cac7 d439 4c1b cdb3 7b75 15bb
00000020: b54c 443c 8099 6eb4 b199 0cbd b5ea 7e35
00000030: 1614 f1b8 dfbf a135 83f1 65b4 5798 4bbc
00000040: 80b2 93ba 887c 4eb6 7238 f6bb a9c6 9035
00000050: 149f 1239 afab 2137 198b f034 81f3 5a38
00000060: a9c5 b0b9 3416 d2b6 7a79 d6b8 5ad7 bb35
00000070: ccca ce37 2819 b837 266c cf34 f8cc 6938
00000080: 0cd7 8937 fcd2 9c37 9ba5 0f37 f0db 8eb9
00000090: 4a2e f633 777c 3737 51da ecb8 bdb7 a9b4
000000a0: e4f9 a7ba dc49 9235 f8b9 d1b7 28e5 18ba
000000b0: be9e d7b5 1907 9db6 bf3e 70b4 92ad 04b7
000000c0: 4469 1ebc b082 1c36 965d e5bb b705 88b5
000000d0: 98cc b335 4ca7 18b7 9925 bc34 f093 c6b9
000000e0: e2fd 5abb e234 9db5 127f e9b9 420a 8235
000000f0: f1a2 c836 d75f 9536 32ef 98b4 4319 5138
00000100: acc3 f139 67c0 9ab5 8487 f637 4754 5834
00000110: fb65 3b35 f3c1 bd35 5275 0eb4 ba99 75ba
00000120: 538e b538 ee1f 8eb7 20fa 68b8 9587 78b7
00000130: 04ee 8db6 d94d 4fb7 e0f8 ffb3 7288 e2b7
00000140: e231 2a38 9ccc 0236 a2c2 4dbb 1f8f f734
00000150: aac7 92b8 30cf 1ab7 c748 b1b4 b710 193b
00000160: 838f 1eba a760 6335 84ae 1438 ef52 6fb4
00000170: c261 f8b5 80e3 67b6 d6f5 92b3 5693 8538
00000180: 7803 d838 5d22 e135 624a 70ba 0bae b9b4
00000190: 8b7f 07b6 691f fcb6 4626 5eb4 532f 65b7
000001a0: c026 77b9 521f fbb5 9ee4 f03a 9116 9c34
000001b0: bc38 ad35 d028 0d37 3aa2 1439 df75 a0b8
000001c0: e656 35bc c989 4638 1243 203c 0f0f 80b5
000001d0: 058a 593a a5c7 e1b9 64cc c7b6 9d5e cd3b
000001e0: 6549 b338 8b62 65b6 2068 e137 3a27 3835
000001f0: f731 e1b7 b6b2 ed36 bec2 05b4 52a0 11b9
-7.872895e-05 1.460013e-06 -0.00014914437 -1.3623131e-07 -8.6105494e-05 0.00040584645 -9.551022e-08 -0.002280562
0.011981179 -2.222132e-07 -0.03432626 9.496392e-07 -0.00011495517 1.2051277e-06 -2.1415148e-07 -0.012426457
-0.0011268407 -3.0768879e-06 -0.007514053 1.0786654e-06 0.00013982906 9.636321e-06 4.480469e-07 5.220203e-05
-0.00033716604 -6.2610725e-06 -0.00010226942 1.3995261e-06 2.4651548e-05 2.1946224e-05 3.8635443e-07 5.574242e-05
1.6431812e-05 1.8694896e-05 8.562022e-06 -0.00027248217 1.14636876e-07 1.0936629e-05 -0.000112940215 -3.161239e-07
-0.0012815562 1.0899344e-06 -2.500134e-05 -0.0005832487 -1.6064948e-06 -4.679791e-06 -2.2374569e-07 -7.908226e-06
-0.009668652 2.3321882e-06 -0.0069996817 -1.0134453e-06 1.3396084e-06 -9.098858e-06 3.5045085e-07 -0.00037875725
-0.0033415486 -1.1712802e-06 -0.00044535898 9.68874e-07 5.9794334e-06 4.4517033e-06 -2.8486244e-07 4.985301e-05
0.0004611289 -1.1529891e-06 2.938859e-05 2.0147228e-07 6.981133e-07 1.4138044e-06 -1.3267461e-07 -0.00093689153
8.6572625e-05 -1.6942588e-05 -5.5546057e-05 -1.481352e-05 -4.229836e-06 -1.2356287e-05 -1.1919633e-07 -2.7004837e-05
4.0577615e-05 1.9490608e-06 -0.0031396528 4.611147e-07 -6.999013e-05 -9.227355e-06 -3.3021772e-07 0.002335591
-0.00060486066 8.470474e-07 3.544848e-05 -2.228878e-07 -1.8505891e-06 -3.4554105e-06 -6.843372e-08 6.369378e-05
0.00010300329 1.6773807e-06 -0.00091663573 -3.4585568e-07 -2.0190807e-06 -7.513842e-06 -2.0689285e-07 -1.3660482e-05
-0.00023570191 -1.8710073e-06 0.001837868 2.9073684e-07 1.2906016e-06 8.413757e-06 0.00014174814 -7.65135e-05
-0.0110680815 4.73352e-05 0.009781616 -9.541126e-07 0.00082984596 -0.0004306409 -5.9544564e-06 0.0062673823
8.549056e-05 -3.4181019e-06 2.6870577e-05 6.8602424e-07 -2.6845357e-05 7.083955e-06 -1.2457437e-07 -0.00013888002

layers.0.ssm.dt_proj_layer.bias f4 [16]
00000000: 1225 8abb 0400 8ebc 0bf1 80bc 8a15 2439
00000010: 34d6 613b c035 66b9 94e9 05bd f255 c63b
00000020: 81dc 05b9 b6f8 a2bb 12e7 aa3d 0b7e b53a
00000030: d15b 7f3c 2361 18bd 3396 1cbe 81b1 ef3c
-0.004215845 -0.017333992 -0.015739938 0.00015648283 0.003445995 -0.00021954533 -0.03269346 0.006052726
-0.00012766013 -0.0049734963 0.083448544 0.0013846768 0.015585856 -0.03720201 -0.15291671 0.029259445

layers.0.proj.weight f4 [16, 16]
00000000: de4d 2a3e a987 483d f896 fbbd 899c aa3c
00000010: 6171 5bbe 0033 febc 9227 4ebe 713d af3d
00000020: 842a 923c 3afb a9bd 47a7 203e 083e 3f3e
00000030: 2b9f 0ebe 0771 123e 33cb 5e3d d4db 473e
00000040: 7505 08be aeaa d43d 6eee a63c 6382 e63c
00000050: 8a21 263d 004b 14be 0367 3f3d 90d6 2bbd
00000060: f375 613c e221 d5bd 1733 0abe f052 6cbc
00000070: 5507 9c3c dc06 a5bd 992b c0bc aab4 5dbd
00000080: 27d5 6abd fb43 66bd c9d0 843b 34e6 2bbe
00000090: e6ce bbbc e77a 183e 5554 9e3d 7d3f d3ba
000000a0: d4d1 08be 0a7f f6bd 566d 243e d497 75be
000000b0: 763b 3a3c 2783 d33d 6875 4c3e 2e8b 883d
000000c0: b904 89bd 4678 2a3e 9db1 95bd 0e02 ebbd
000000d0: ef5e bb3d b76b c03d 1e57 6a3e c62a 2bbe
000000e0: 0df4 d93d 4290 9abd f1c6 81bd 6658 443d
000000f0: 6739 35be b267 0fbe 1a4c 3abc 6ac7 1b3e
00000100: 30e0 a63d d85c 283e 791d 243e 8e20 9c3c
00000110: 0287 fc3c 21c7 073e 40fc eabd e08f 2a3e
00000120: af2b 26bd 1e86 1e3e d3e4 99bc 4726 63bd
00000130: e0b9 223e e317 1dbe aceb 23bd cb5e 7bbd
00000140: 4dc4 243c 50d5 f2bd 9f2a a23d 06a2 bdbd
00000150: 386f 193e 939c 30be 1c61 57bc 3c6f 0abd
00000160: 841e 093e 70c5 18be 6aa5 003e 0f81 223e
00000170: 620a e3bd a7c2 533d 371a 0abe d226 4e3d
00000180: 1c3b 583e 3d30 f1bd ef73 b13d 5360 76b9
00000190: abb1 973d 430e 14be cc0d 5a3e b4e0 493e
000001a0: f65c 4bbc 652d 4bbe bf16 893e 5cba 29be
000001b0: 8e77 c13d d2c8 24be ce96 c2bd 9fe8 3ebc
000001c0: d471 b6bb 1f49 14bd e2a6 333e cec9 24be
000001d0: 1924 97bd 5c27 973d 24d6 ed3d f69d 47be
000001e0: fd6c f6bc 83fd 58be 25f6 da3d 2c94 28be
000001f0: bfe3 193e d483 80bd 17b3 20be ac86 6a3c
00000200: 5f0d 133e 02fb c8bc 9db1 0bbe a0c7 e1bc
00000210: d3d9 553e 138b b4bd 470b 8abd 423f 233e
00000220: 05a0 33be a7ec 2bbe d343 04be e462 713c
00000230: d2f8 163e 286d 273d acc9 75bd 24a7 b0bd
00000240: eadd dbbd 14c8 efbd 36c9 a93c fc57 e5bd
00000250: 1ea1 aa3d 2532 50bd 37be e5bd 22a4 4ebe
00000260: 3dfd 953d 74b0 f93d d1de f13d ff6c b9bb
00000270: fbc3 b0bc 5a0b c13d c966 2f3e 38e9 523e
00000280: 579d 113e 98cb 93bd bb0e c63d 2c68 3cbd
00000290: f7b7 553d 83db 02be f3b7 1fbe e8c3 a53c
000002a0: 93c0 3c3e 47e4 04be 57e0 b9bd 32c5 41be
000002b0: 79de c9bd 97a5 e3bd d597 d7bd fac0 8b3d
000002c0: 3f24 a13b 299d ffbd 8b58 b9bd a118 693e
000002d0: 321d 5e3e 9285 323d aa30 deba 8174 57bd
000002e0: 2372 8a3d a881 08be 63e7 043e 0bfb 84bc
000002f0: 6555 0dbb 573c efbd fc33 babd c6ab 71ba
00000300: a2fc 76bd 495d 90bd 17e3 d93d fd8e 9bbd
00000310: a0b4 213e a3a5 ab3c af93 bcbd 0f49 0bbe
00000320: e88b 40bc 6865 1bbd 9499 3abe fa1e 513e
00000330: ac82 d53c d81e 62bd 25f7 6abb 8faa d83d
00000340: 2f6f 8b3d af88 38be ab3a 16be ba8d 163c
00000350: d47e 32bc 553c 8e3d db42 40be 0050 213e
00000360: 89a1 213e eadb 273e 8a11 e7bd 7fb3 3f3d
00000370: 2cbf 0dbe da34 cd3d 8688 9bbd 6f14 5fbd
00000380: 5fdc 4f3e d98a 963d 4b4b 833e 658a 1cbd
00000390: bcbc 1ebd 17fb 943b ac09 bcbd 3d97 013d
000003a0: 2104 2d3e fa94 d73d 5839 10be 8ae8 95bc
000003b0: 6276 473d 9ce0 d6bc 60f9 e43d 729f 7cbe
000003c0: 9280 5fbe 13c7 a23b 6873 19be c4e1 923d
000003d0: d239 5ebe fe81 f9bd ddd4 8d3d 19ad 213e
000003e0: 4d79 3fbe 6991 19be e1be 743c 8d72 43be
000003f0: e9d8 4ebe 0066 08be 9f0b cebd 6cb0 083e
0.16631266 0.0489575 -0.122846544 0.020826595 -0.2142997 -0.031030178 -0.20132282 0.08556641
0.017842539 -0.08299871 0.15688811 0.18676007 -0.13927905 0.14300929 0.054393005 0.19517452
-0.13283332 0.10384117 0.020377364 0.028138345 0.04055933 -0.14481735 0.0467291 -0.04195267
0.013761031 -0.10406853 -0.13496052 -0.014424071 0.019046465 -0.08057949 -0.023458289 -0.054127373
-0.057332184 -0.056217175 0.0040532094 -0.16787034 -0.022925805 0.14890634 0.07730929 -0.0016116943
-0.13361293 -0.120359495 0.16057333 -0.23983699 0.011366716 0.1032775 0.19966662 0.066671714
-0.06690354 0.16647443 -0.07309268 -0.11475001 0.091489665 0.09395545 0.22884795 -0.16715536
0.10642252 -0.07547046 -0.06336773 0.047935866 -0.17697679 -0.140044 -0.011370683 0.15212789
0.08148229 0.16441667 0.16026868 0.019058492 0.030826095 0.13259555 -0.11473894 0.16656446
-0.040569004 0.15480849 -0.01878587 -0.055456426 0.15891218 -0.15341143 -0.040019676 -0.0613697
0.010056567 -0.118570924 0.079182856 -0.09259419 0.14983833 -0.17247228 -0.013145711 -0.033797488
0.13390547 -0.14919066 0.125631 0.15869544 -0.11085965 0.051699307 -0.13486563 0.05032999
0.21116298 -0.11776779 0.08664691 -0.00023496272 0.07406934 -0.14458565 0.21294326 0.19714624
-0.0124123 -0.19841535 0.26775166 -0.16574997 0.09446631 -0.16092232 -0.0950142 -0.011652141
-0.0055677686 -0.036202546 0.1754413 -0.16092607 -0.07379932 0.07380554 0.1161311 -0.19493851
-0.030081267 -0.21190457 0.106914796 -0.16462773 0.15028284 -0.06275144 -0.15693317 0.014314335
0.1436057 -0.024533752 -0.13641973 -0.027561009 0.20883875 -0.08815589 -0.06740432 0.159421
-0.17541511 -0.16789494 -0.12916498 0.01473305 0.14743355 0.040875584 -0.060006782 -0.086256295
-0.10735686 -0.11708084 0.020725828 -0.11198422 0.08331512 -0.05082907 -0.11217921 -0.20179799
0.07323692 0.12191859 0.11810077 -0.0056587453 -0.021577826 0.09425993 0.17129053 0.20596778
0.14220177 -0.07216567 0.09670778 -0.045997784 0.052177396 -0.1277905 -0.15597515 0.020235017
0.18432836 -0.12977706 -0.090759926 -0.1892288 -0.098568864 -0.11115568 -0.105270065 0.06823917
0.004917651 -0.12481148 -0.09050091 0.22763301 0.21690825 0.043584414 -0.0016951759 -0.05260134
0.06760051 -0.1333071 0.12978892 -0.016232988 -0.0021565792 -0.11681431 -0.090919465 -0.00092190166
-0.060299523 -0.07049043 0.10639017 -0.07595632 0.15791559 0.020953005 -0.09207856 -0.13602088
-0.011752106 -0.037938505 -0.18222648 0.20421973 0.026063286 -0.055205196 -0.0035852876 0.105794065
0.06808316 -0.1802089 -0.14670818 0.009189064 -0.010894496 0.06945101 -0.18775503 0.15753174
0.15784277 0.16392484 -0.11282642 0.04680204 -0.13842458 0.10019846 -0.07594399 -0.054462846
0.20298909 0.07350702 0.2564338 -0.03821792 -0.03875421 0.004546534 -0.09181532 0.031638373
0.16896106 0.10526462 -0.14084375 -0.01829936 0.048696883 -0.026230149 0.11180377 -0.24670199
-0.2182639 0.004967579 -0.1498543 0.071719676 -0.21701744 -0.12182997 0.06925366 0.15788688
-0.18698616 -0.14996876 0.014938087 -0.19086666 -0.20199932 -0.1332016 -0.1006081 0.1334855

layers.0.proj.bias f4 [16]
00000000: 488a a53d b512 e23d f418 703d 5df8 6e3c
00000010: 80ac c53d 17c9 ad3d 9234 203e f1b3 403d
00000020: 6946 3cbe 3222 233e a4b8 7abc a6b9 2ebe
00000030: 1971 bd3c 04dc 52be 6fe4 ddbd 0e6a 333d
0.08083016 0.11038724 0.058617547 0.014585582 0.096520424 0.084856205 0.15645054 0.047046605
-0.18386234 0.15931013 -0.015302811 -0.17063007 0.023125218 -0.20591742 -0.10834586 0.043802314
