vim_model_400.pth (torch, 834822 bytes, 71 tensors)

cls_token f4 [1, 1, 80]
000000 5f d8 16 bf f6 c5 28 bd c5 14 83 be 7e 29 20 bc
       -0.58923906 -0.041204415 -0.25601783 -0.0097755175
000010 b1 cf c6 be 9a 28 e3 bf 8a 02 f7 bf 4c 81 02 bf
       -0.3883033 -1.7746766 -1.929765 -0.5097854
000020 9f a0 43 bf ee 0e 88 be f4 0f d3 bf 7a 08 16 bf
       -0.76416963 -0.2657389 -1.6489244 -0.58606684
000030 1b ff 99 bf f6 37 46 bf d9 42 3f 3f 21 a4 dd 3f
       -1.2030977 -0.7742914 0.74711376 1.7315713
000040 88 84 a2 bf 12 ae 0b bf e2 34 aa bf 96 68 b9 bf
       -1.2696695 -0.54562485 -1.3297389 -1.4485042
000050 36 a8 de bd 68 36 60 bf 4b 1a 95 3f bb 4e d2 3f
       -0.108719274 -0.8758302 1.1648649 1.6430277
000060 e1 95 fc 3e 09 44 1a c0 0f 18 8c be 43 fd 8f 3f
       0.493331 -2.4104025 -0.27362105 1.1249164
000070 d5 4a 8c 3e 59 02 5a bf 0c 50 9f 3e ab c7 0c 40
       0.27400842 -0.8515983 0.31115758 2.1996868
000080 bc 18 07 3f d6 f7 b5 bf 8b 82 01 bf da a3 ee 3e
       0.52772117 -1.4216259 -0.5058982 0.46609384
000090 ec 28 8d 3f 77 85 4e be 84 e7 ab 3e 48 c4 14 40
       1.1028113 -0.201681 0.3357507 2.32448
0000a0 67 a1 0a 40 f9 d2 ef bd 81 cf 8b 3f 0d 43 a4 3e
       2.1661012 -0.11710162 1.09227 0.32082406
0000b0 68 1b 2f 3f ac 3a ce bf bd e5 0b 40 fa ff fd 3f
       0.68401194 -1.6111655 2.185897 1.9843743
0000c0 03 99 c5 bf 23 9d 3c 3f fd 3b 5c 3e 60 3a 8a 3f
       -1.543732 0.7367727 0.21507259 1.0799065
0000d0 a7 40 4d 40 75 25 54 3f 25 5b 3a bd 03 6e 14 3f
       3.207071 0.82869655 -0.04549708 0.57980365
0000e0 48 45 65 3e 83 aa 15 3e 38 82 86 bf 57 0d f8 bd
       0.2238971 0.14615826 -1.050849 -0.121119194
0000f0 6b a3 84 3e 60 7f 9e be 7c 81 e6 3e cd e0 5a 3f
       0.25905928 -0.30956554 0.45020664 0.8549927
000100 d5 5f a8 bf 23 02 00 be 56 25 c3 bf 9a a2 05 3f
       -1.3154246 -0.12500815 -1.5245769 0.52201235
000110 9e 42 81 be 0b 7d 82 be 63 49 65 3f c8 60 8a 3f
       -0.25246137 -0.25486025 0.89565104 1.0810785
000120 98 27 85 be 23 3a d4 bf 0e 0d 97 bf 22 01 0f bf
       -0.2600677 -1.6580242 -1.1800859 -0.55861104
000130 7d 96 3b bf 6c 1f ab bf dd af bb bf cc 09 bb bf
       -0.732765 -1.3368964 -1.4663044 -1.4612365

to_patch_embedding.1.weight f4 [80, 169]
000000 33 32 db 3b 1f 7e b7 3b d0 aa 5b bc 4a 7c 0d 3b
       0.006689334 0.0055997516 -0.013407424 0.0021588975
000010 5d 6d 60 bc 5d 35 de bb 28 d6 9e bc 91 28 a7 3b
       -0.013697949 -0.0067812637 -0.019389227 0.0051012714
000020 b0 b1 2b bc 50 f3 f5 bb ac 6f d3 3a 4a f2 b9 bb
       -0.010479376 -0.0075058118 0.0016131303 -0.005674635
000030 a0 7c 27 bc 72 82 5a 3c 23 6c c7 3c ce 17 a9 ba
       -0.010222584 0.013336765 0.024343556 -0.0012900771
000040 69 a4 a5 3b 87 74 b1 bb fb ea 74 3b 98 14 cc ba
       0.0050549996 -0.0054155025 0.0037371505 -0.0015570102
000050 d2 a8 8c 3c f6 bf e3 ba 54 83 06 bc 5e 60 1a bb
       0.017170344 -0.0017375934 -0.008210022 -0.0023555974
000060 10 a4 e4 ba 20 99 ec ba df b9 00 bc 35 59 42 3b
       -0.0017443914 -0.0018051006 -0.007856815 0.0029655222
000070 da b5 a2 bc e4 04 6e bc d3 57 66 bc 09 e8 a8 ba
       -0.019862104 -0.014527533 -0.014059025 -0.0012886535
000080 cf ae 96 bb 41 87 ba 3c 4a b9 2a 3c 8c 27 3f bb
       -0.0045984755 0.022769572 0.010420153 -0.002916786
000090 05 78 18 bc 51 c9 45 bc c3 af 3b bc 5b db 8d 3b
       -0.009305959 -0.012071923 -0.011455479 0.0043291277
0000a0 e6 43 10 3c 52 0f 3f bc 2f 20 50 bc 28 c2 6d bc
       0.008805251 -0.0116613675 -0.012702986 -0.0145116225
0000b0 bb 20 2e bc 37 d3 00 bc 9f 40 9a 3c cc 23 a1 3b
       -0.010627921 -0.007862858 0.018829642 0.0049175974
0000c0 0a a2 b2 3b f7 ec c1 3a 9a f2 c0 bb c6 37 98 bb
       0.0054514455 0.0014795352 -0.0058882954 -0.0046453206
0000d0 62 19 66 bc 54 2a fa ba 2a 4f 3f bc 4e 4b 67 bc
       -0.014044138 -0.0019086101 -0.011676589 -0.014117075
0000e0 bb b4 44 bc 5c 2c a3 bb 8c 51 a7 bb c8 77 b1 3c
       -0.01200598 -0.0049796533 -0.0051061567 0.021663561
0000f0 bf 93 48 3c c6 e8 41 3c 86 b7 1d 3c dc ff d1 bb
       0.012242257 0.011835283 0.009626275 -0.0064086746
000100 ac 6e 93 ba e7 3b 1b bc 3c 2d 25 3c de e5 7d 3b
       -0.0011248193 -0.009474731 0.0100815855 0.0038741748
000110 4a 63 01 bc 42 c8 61 3b 6b 5c 2b bb 7e 72 ed bb
       -0.0078972075 0.0034451638 -0.0026147615 -0.0072463145
000120 bf 71 d7 3b 1f d6 f8 3b c1 17 cf 3a b7 8a 8c 3b
       0.006574839 0.0075938846 0.0015799926 0.004288997
000130 4f 7b 42 bc de 56 04 bc 24 ca ce bc 26 95 4c bb
       -0.011870219 -0.008077351 -0.025242873 -0.003121683
000140 bc 92 c5 bb 80 06 00 bc 4c 49 e8 bb 20 3e 51 bc
       -0.006029455 -0.00781405 -0.007088816 -0.012771159
000150 ce b0 a9 bb 08 30 c3 3a 99 f6 94 3b 3b c2 af ba
       -0.0051785475 0.0014891634 0.0045459983 -0.0013409326
000160 6c 83 4b 3b 8a 09 fb ba ab ee 39 3b 48 f7 f1 b9
       0.0031053675 -0.0019152623 0.0028371017 -0.0004615134
000170 70 b3 9e 3c 8b e8 95 3c 80 d0 8f 3c 2f eb 70 3c
       0.019372672 0.018299362 0.017555475 0.01470451
000180 79 be 34 3b 94 5d 0c 3c 98 77 42 3b f2 6d 84 3a
       0.002757935 0.008567233 0.0029673334 0.0010103567
000190 3f ab 02 bc c8 d5 7a 3a ff b3 c9 3a 7a ff 42 3c
       -0.007975399 0.0009568599 0.0015388726 0.011901731
0001a0 cc e9 b0 bb c9 e8 6d 3c 0a 3d 86 3c c9 5a 65 3c
       -0.0053989645 0.014520832 0.016386528 0.013998696
0001b0 c3 b4 34 3c 61 69 10 b9 34 80 23 3b bd 62 cc bb
       0.011029425 -0.00013772167 0.0024948241 -0.0062373565
0001c0 1e ab a8 3b 73 10 06 bc 91 a5 ad 3b 9c a3 24 3b
       0.005147352 -0.008182633 0.005299278 0.0025121933
0001d0 fb 01 77 3b 9a 52 5b bc 65 20 fb bb 4e aa 9c bb
       0.003769039 -0.013386393 -0.007663774 -0.004781044
0001e0 7f c1 11 3c 87 af 08 3c b3 91 3f 3a c2 41 2a bb
       0.008896231 0.00834263 0.00073077827 -0.0025979136
0001f0 20 20 cb bb 86 05 1a 3b e8 b1 dc ba 34 70 42 3c
       -0.006198898 0.0023501827 -0.0016837688 0.011867572
000200 44 fa cf 3b 46 88 e4 ba 4c 1e 2f ba ce 0c 91 bb
       0.0063469727 -0.0017435632 -0.0006680235 -0.0044265753
000210 42 f0 37 bc a7 1d eb 3b 0a b0 15 3c a1 8d c5 ba
       -0.0112267155 0.0071751657 0.009136209 -0.0015072116
000220 2e ff a1 b9 19 17 94 ba 11 d8 08 3b 25 01 bd ba
       -0.00030898437 -0.0011298388 0.0020880739 -0.0014419897
000230 bf 17 5c 3b 73 4c 8b 3a 55 3b 78 b9 7e f1 ca 3a
       0.003358349 0.0010627642 -0.00023673226 0.0015483347
000240 8d 9c 17 3c 33 be 5a ba a5 a7 98 3b 86 d7 98 3b
       0.009253633 -0.0008344382 0.0046586567 0.0046643643
000250 a1 37 15 bc b2 08 a4 bb c0 c1 80 3a 9c 82 7c bb
       -0.009107501 -0.0050059194 0.0009823367 -0.0038529998
000260 70 13 45 bb cc 52 28 3b 4b d1 57 bb bd dc 6e 3b
       -0.00300714 0.0025684116 -0.0032931145 0.0036447488
000270 ea 94 64 39 38 96 b3 3b 39 5f f5 bb cf 99 5f bb
       0.00021799249 0.005480554 -0.007488158 -0.0034118777
000280 c2 00 12 3b b8 6c e9 bb 39 d8 bd 39 e9 7f 12 3c
       0.0022278284 -0.007123556 0.00036209988 0.008941629
000290 76 f0 36 bb 85 f7 4c bc 13 3e 53 3b a9 cf ab 3b
       -0.0027914322 -0.012510185 0.0032233044 0.005243261
0002a0 08 4f e2 3b 4a d9 b9 3b bf 4d d2 3b 13 58 a0 3b
       0.006906394 0.005671655 0.0064179595 0.0048933118
0002b0 7c e7 ce 3b 49 17 07 ba b6 3f a8 bb b6 73 87 bb
       0.006314216 -0.0005153311 -0.005134548 -0.004133667
0002c0 0a 41 7b 3a 11 a0 95 3a 78 18 c1 39 fd 60 d0 37
       0.0009584582 0.0011415501 0.0003683006 2.4840696e-05
0002d0 01 b1 4a bb 7d e0 85 bb 79 7a d4 3b 19 31 94 3b
       -0.0030928256 -0.004085599 0.0064843264 0.0045224545
0002e0 40 c6 fb 3b dd 3a d2 3b 15 18 92 3b f0 d4 ad 3a
       0.0076835454 0.0064157085 0.004458437 0.0013262313
0002f0 d8 bd 37 bb 16 d5 03 3b 16 fc 15 3b 53 91 4d 3b
       -0.002803674 0.0020116023 0.002288585 0.0031367138
000300 3f 8a 41 39 e3 ff 4d 3b 1d de 9b 3b ed 84 81 3b
       0.00018457415 0.0031433038 0.0047567026 0.0039526136
000310 81 29 8a 3b 5b bb 31 3b c3 64 15 3a 96 34 82 3b
       0.0042163734 0.002711973 0.00056989136 0.003973554
000320 34 bb 70 38 06 df fe ba f9 30 1e 3b 0c 98 6d 3b
       5.7394805e-05 -0.0019445128 0.0024138077 0.0036253957
000330 32 e1 42 3b 6f b2 fd ba 06 a7 70 3a 47 d4 5e 3b
       0.0029736278 -0.0019355546 0.0009180162 0.003400104
000340 e4 87 9a 3a 7f aa a1 3a 02 82 2b 3a fe 3a a7 3a
       0.0011789766 0.0012334137 0.0006542505 0.001275867
000350 5c 87 7f 3b 60 77 ba 39 42 46 72 3b e6 d0 77 3b
       0.0038990593 0.00035565626 0.0036968146 0.0037813722
000360 e4 4c 77 3b e8 a8 a0 3b 1e 42 c7 ba de 47 c0 3a
       0.003773504 0.0049029477 -0.00152022 0.0014669856
000370 2c 0b 1c 3b d1 ef 8d 3a 27 b3 1c 3b fe 9e ab 3a
       0.002381037 0.0010828917 0.0023910494 0.0013093648
000380 e0 e4 2d 3b 80 6b 87 3b 64 cd d4 ba 53 69 59 3a
       0.0026534125 0.004132688 -0.0016235528 0.00082935876
000390 6e 11 17 3b 72 c8 2f 3b ba 13 c8 3b 09 2b dc b7
       0.002305116 0.0026822356 0.006105867 -2.6246084e-05
0003a0 02 5f 93 ba b4 5b 0c ba 68 9e a1 38 ac c2 88 bb
       -0.0011243524 -0.0005354241 7.706584e-05 -0.0041735973
0003b0 fb ec 8f bb d6 b2 d4 ba 70 ec 9c 3a de d8 c2 bb
       -0.004392264 -0.0016227614 0.0011972319 -0.0059462627
0003c0 b5 48 3f 3a c4 0b 5b 3b 7c 95 01 3b 61 0e a3 3b
       0.0007296906 0.003342376 0.0019772938 0.0049760793
0003d0 41 2f 06 3b c4 4b af bb 55 5e b3 bb 28 72 17 ba
       0.0020474943 -0.005349608 -0.0054738917 -0.00057772035
0003e0 06 96 d1 ba 33 6c 1c bb 35 78 51 3b d6 1b 01 3b
       -0.0015990145 -0.0023868203 0.0031962518 0.001970043
0003f0 d1 a7 da b8 57 44 c6 3a ed 81 2c 3b e9 a7 0c 3a
       -0.00010426308 0.0015126568 0.002632256 0.0005365597

to_patch_embedding.1.bias f4 [80]
000000 ad 6c 01 3c 5f 07 ad 3b 64 7b c2 3b 16 18 2f bd
       0.0078994455 0.0052804197 0.0059351195 -0.04274758
000010 c8 23 c7 bb 45 a8 8d 3b 04 ac 30 3b 1e d6 39 bb
       -0.0060772635 0.004323038 0.0026957998 -0.0028356384
000020 06 02 6a 3b e0 d6 bb 3b bc 75 1d 3a 98 d1 0b 3c
       0.0035706772 0.005732402 0.00060066185 0.008533858
000030 d5 c2 35 bc 49 20 60 3b 97 18 cb 3a d8 7c 58 3b
       -0.011093815 0.003419893 0.0015494999 0.0033033397
000040 6d d6 3f 3c f8 65 84 3b 6e 79 39 3b aa b1 ed bb
       0.011708838 0.004040476 0.0028301137 -0.007253845
000050 45 f0 73 3b 91 03 9e 3c 3b fc 3f 3d 66 cd 3b 3c
       0.003722207 0.01928881 0.046871405 0.011462545
000060 91 eb 14 3c 59 28 72 3c 54 42 ce ba 2c 48 ca 3a
       0.0090893665 0.014780127 -0.001573632 0.0015432886
000070 77 ff eb bc f4 5f 12 3d 11 d7 80 3b fb 47 41 bd
       -0.028808339 0.03573604 0.003931888 -0.047187787
000080 c2 b4 fc bb 5d f7 ad 3b d7 c2 89 3c 43 95 8a 3b
       -0.0077119777 0.005309029 0.01681654 0.004229219
000090 fb eb c6 3a f6 1c d5 3c 2a f8 45 3b 68 1a 14 3c
       0.0015176529 0.026014786 0.0030207732 0.009039499
0000a0 66 30 0a 3c 8f 83 14 bb 41 b4 ab 39 90 05 27 3a
       0.008434391 -0.0022661423 0.0003274996 0.00063713733
0000b0 75 46 3c 3d 95 ed 2e 3a fb 7a 09 3b 56 3a c8 3b
       0.04596563 0.0006672976 0.0020977843 0.00611047
0000c0 0d 61 a4 bc 8a 12 9f 3b 70 51 fc 3b 00 ce 91 3c
       -0.020065809 0.004854505 0.007700138 0.017798424
0000d0 0e 87 4d 3c eb bc 19 3b 6c f2 c6 3c 85 07 b6 3b
       0.012544407 0.002345855 0.024285518 0.0055550956
0000e0 05 c1 39 3b cf 4c 9e bc d0 37 58 3b b1 ef 2c 3d
       0.0028343808 -0.019323735 0.0032992251 0.042220775
0000f0 a6 9c be 3b 17 8d 9d 3c 29 6e 28 3b f1 ab 03 3d
       0.005817014 0.019232316 0.0025700426 0.032146398
000100 52 dc 6b bc 5d a5 92 ba 81 e0 1b bd a2 15 b3 bc
       -0.01439579 -0.0011188198 -0.0380559 -0.021860901
000110 75 e4 25 39 8f db a7 3a d9 9f c3 3a c9 dc 12 bd
       0.00015820733 0.0012806522 0.0014924958 -0.03585509
000120 a5 3b 84 3c b5 5d 70 3b dd c2 93 3b 9a 8f 1e 3c
       0.016141722 0.0036676947 0.0045093135 0.009677792
000130 27 5c fe 3c d9 49 dc bc 16 8a 05 bd 4a 37 a2 3b
       0.031049801 -0.026890682 -0.032602392 0.0049504386

layers.0.forward_conv1d.weight f4 [80, 80, 1]
000000 33 c7 13 ba af ee 43 b9 50 0f 23 ba c5 de 3b 38
       -0.0005637288 -0.00018685566 -0.0006220238 4.4791745e-05
000010 97 c6 e8 b7 3e 9a f8 b9 38 a0 32 37 95 b9 cd ba
       -2.774903e-05 -0.00047417165 1.0646931e-05 -0.0015695567
000020 3a e3 26 3a 9c e5 b2 39 6c 9f 23 b9 c1 f6 2b ba
       0.0006366257 0.00034121878 -0.0001560428 -0.00065599015
000030 77 5b 43 39 38 61 83 38 7d 69 3c 3b 56 f7 82 39
       0.00018630722 6.264675e-05 0.00287494 0.00024979812
000040 a0 27 09 3a 0b 99 13 3a f9 80 8d 39 2a 20 dc 3a
       0.000523204 0.000563041 0.00026989708 0.0016794254
000050 78 c2 82 ba 15 c0 1e 3b 9f 81 61 ba a4 48 b7 ba
       -0.0009976169 0.0024223377 -0.0008602384 -0.0013983441
000060 a9 ab a3 b9 31 53 3e ba 9d 3f c6 38 77 54 ae 39
       -0.0003121768 -0.0007260321 9.4532246e-05 0.00033250797
000070 38 37 0e 3b 5a 3b 8d ba 22 bb 06 3a 2d b1 80 3a
       0.0021700393 -0.0010775134 0.00051395793 0.0009818427
000080 6e d9 27 3b 5f b5 12 3a 0b 8c 36 ba 7b e6 f6 39
       0.0025611776 0.00055964844 -0.0006963617 0.00047092498
000090 58 a4 af 39 27 f3 47 3a c2 fb aa 39 f0 21 a5 b9
       0.00033501047 0.000762748 0.000326125 -0.00031496538
0000a0 fe b6 18 ba c7 8e 1d ba 67 2f 7b ba 9e 65 91 39
       -0.0005825608 -0.000601035 -0.00095819536 0.00027732266
0000b0 d3 71 f8 b9 28 9b 8f 3a f1 0f 1b 3a f5 40 6f b9
       -0.00047387052 0.0010956274 0.0005915156 -0.00022817015
0000c0 59 66 d3 39 ae dd 30 ba 7f 21 0a ba e5 be 99 ba
       0.0004032131 -0.00067469 -0.00052692735 -0.0011729865
0000d0 72 26 c4 39 5a 4e b3 3a 67 11 fb ba 75 a4 91 ba
       0.00037412677 0.0013679967 -0.0019154967 -0.0011111634
0000e0 ad d2 95 39 87 e7 2b 3a 6e 1b ac b9 52 70 40 3a
       0.0002857646 0.00065576326 -0.00032826833 0.0007340956
0000f0 e4 d6 ca b9 b6 8d 6c ba ae 7c 25 39 0f ba 6d ba
       -0.00038688548 -0.0009023802 0.00015782073 -0.00090685574
000100 b2 95 35 3a 29 da 34 39 bb 35 df ba 55 86 87 b8
       0.00069269084 0.00017247409 -0.0017029563 -6.462323e-05
000110 ec 88 06 3a e6 e6 d9 39 c4 b0 4d b9 e5 3f 4c 39
       0.0005132097 0.00041561498 -0.00019616174 0.00019478759
000120 39 4c 31 3a 82 be 6d b9 dd db 63 b9 8b 77 9f ba
       0.0006763372 -0.00022673051 -0.00021730312 -0.0012166364
000130 e4 61 79 ba 15 02 a9 39 1b 24 4c 3a 3d 36 1e b9
       -0.0009513183 0.00032235743 0.00077873626 -0.0001508826
000140 b9 4c 55 36 8e f5 a7 b8 1a c3 0e b9 9c f1 a8 38
       3.1784132e-06 -8.008919e-05 -0.00013614856 8.0558675e-05
000150 bd 29 0b 39 b3 e1 98 b8 92 21 f5 b6 0f 67 ce b9
       0.00013271622 -7.2899646e-05 -7.305477e-06 -0.00039368166
000160 d1 6e 31 38 6b 4e de 36 9a 48 ca b7 d4 4c 10 b9
       4.2303294e-05 6.6252446e-06 -2.4114084e-05 -0.00013761531
000170 97 9b 88 37 09 c4 4d b8 02 94 3b 3a 8d 15 a6 b7
       1.6284916e-05 -4.905838e-05 0.0007155539 -1.9798777e-05
000180 9a 01 4d 39 1f 41 f2 37 cc 76 ca b5 b1 48 f6 39
       0.0001955092 2.8878972e-05 -1.5084747e-06 0.00046974936
000190 72 3a 4c b9 1d 16 2a 3a a1 3f 6a b9 9e 7b 8c b9
       -0.00019476729 0.00064882805 -0.00022339683 -0.00026794983
0001a0 20 25 51 b8 60 0e 08 b9 7a 89 1a 37 8a c6 8e 37
       -4.986406e-05 -0.00012975326 9.211124e-06 1.7020171e-05
0001b0 96 ed 26 b8 1f a7 7e b9 c0 91 3c 37 d4 db 77 39
       -3.9798753e-05 -0.00024285585 1.1239608e-05 0.00023637648
0001c0 a5 d0 27 3a 77 1a 95 37 03 20 23 b9 6a 32 38 38
       0.0006401635 1.7774508e-05 -0.00015556817 4.391597e-05
0001d0 43 23 2c 38 d4 23 db b8 6a cc 4c 37 dc 11 c5 b8
       4.1040836e-05 -0.00010449407 1.2206941e-05 -9.3970186e-05
0001e0 6b db 26 b9 8f e0 0f b8 c3 9d 8c b8 7c e8 4b 38
       -0.00015912733 -3.4302993e-05 -6.7051056e-05 4.861549e-05
0001f0 de 3f 5a b9 41 58 9c 39 55 0f 1a 38 3f b0 bc b8
       -0.00020813892 0.00029820393 3.673074e-05 -8.997367e-05
000200 08 03 ea 38 86 4e 24 b9 cb e4 c8 b8 58 22 8b b9
       0.00011158554 -0.00015669511 -9.579359e-05 -0.00026537734
000210 3e 95 5f 36 30 97 a3 39 79 2a bc b9 96 0a 2b b9
       3.331646e-06 0.00031202426 -0.000358898 -0.00016311774
000220 ea 7d 21 37 c0 35 62 39 77 f6 f8 b8 fb 1c 0d 39
       9.6256645e-06 0.00021573063 -0.00011871469 0.00013457604
000230 29 5a 88 b8 de b5 68 b9 07 63 56 34 41 a3 8e b9
       -6.501779e-05 -0.00022192995 1.9966329e-07 -0.00027205984
000240 08 e9 c5 38 47 2f f2 38 7b c1 8f b9 98 5c 46 b7
       9.4370975e-05 0.00011548265 -0.0002741924 -1.1823278e-05
000250 06 eb 1e 38 d4 f7 74 38 6c 15 71 36 bb 00 36 38
       3.7889018e-05 5.840494e-05 3.5924268e-06 4.339286e-05
000260 b1 6b f0 b6 85 04 32 b8 66 f5 86 b9 60 0c 6b b9
       -7.1650943e-06 -4.2442716e-05 -0.00025741308 -0.00022415956
000270 eb 30 96 b9 a3 c1 8b b8 9a 98 98 38 c0 09 71 b8
       -0.00028646676 -6.664104e-05 7.276349e-05 -5.7467958e-05
000280 d7 5d 32 b7 3c e4 87 b8 55 d6 04 b9 f5 6a 78 38
       -1.0631476e-05 -6.4798136e-05 -0.00012668346 5.922742e-05
000290 dc da b4 38 01 3a a8 b8 ad 22 03 b7 ad 09 b8 b9
       8.6238346e-05 -8.021668e-05 -7.816282e-06 -0.00035102424
0002a0 68 42 85 38 93 8e d0 37 f0 3b eb b7 c5 fb 08 b9
       6.354303e-05 2.4861924e-05 -2.8042094e-05 -0.00013063762
0002b0 ce 1f cf 37 d1 12 f2 b7 13 47 1a 3a 41 7f f9 b4
       2.4691133e-05 -2.885741e-05 0.00058852247 -4.6472454e-07
0002c0 11 d0 27 39 bf 7b 5a 38 a9 9a 64 37 62 2a d0 39
       0.00016003872 5.2090498e-05 1.3625869e-05 0.0003970443
0002d0 d1 10 44 b9 9a 57 13 3a ef 6a 51 b9 68 7d 85 b9
       -0.00018698281 0.00056206586 -0.00019971629 -0.00025461172
0002e0 23 d2 62 b8 c8 f3 0a b9 7d 84 26 37 36 7d ec 37
       -5.4078304e-05 -0.00013251521 9.925218e-06 2.8191698e-05
0002f0 a4 d0 54 39 2b 7c 6c b9 94 84 1a 38 b1 2f 5f 39
       0.0002029562 -0.0002255297 3.6839934e-05 0.00021284704
000300 b4 e6 f9 39 88 b2 3d 38 2c 00 19 b9 d6 78 60 38
       0.00047664868 4.522738e-05 -0.00014591281 5.35183e-05
000310 77 c1 39 38 af 71 23 b8 15 fd dc 37 72 12 a9 b8
       4.4287615e-05 -3.8968104e-05 2.6343894e-05 -8.061984e-05
000320 44 ca 14 b9 d3 32 78 b8 ea 44 d4 b8 3a 4f 49 38
       -0.0001418973 -5.917514e-05 -0.00010121784 4.799592e-05
000330 33 05 2d b9 24 c7 8b 39 28 e0 72 38 47 77 9b b8
       -0.00016500503 0.00026660517 5.7906058e-05 -7.413193e-05
000340 17 02 d6 38 99 38 16 b9 5f 54 ca b8 58 19 7d b9
       0.000102047044 -0.00014326199 -9.647826e-05 -0.00024137401
000350 41 04 e2 37 71 9c 98 39 ea 51 b5 b9 dc 8f 36 b9
       2.694328e-05 0.00029108257 -0.0003458404 -0.00017410464
000360 22 cd b6 37 da cc 3c 39 70 d6 d9 b8 46 5b 11 39
       2.1791613e-05 0.0001800539 -0.000103873084 0.0001386228
000370 6b cf 8e b8 9f 9c 52 b9 bb 7d f5 36 e2 d4 74 b9
       -6.809722e-05 -0.00020085507 7.316206e-06 -0.00023348958
000380 43 8b d6 38 58 04 b5 38 62 99 98 b9 b7 42 e3 b7
       0.00010230255 8.631562e-05 -0.00029105978 -2.7091575e-05
000390 a1 b8 5e 38 2b 9d 80 38 86 04 42 b7 bb 18 22 38
       5.3100874e-05 6.1327904e-05 -1.1564354e-05 3.8646842e-05
0003a0 3c ad a2 38 b3 ab 40 b8 1a d6 3c b9 20 45 66 b9
       7.7570294e-05 -4.5936275e-05 -0.00018008836 -0.0002196026
0003b0 8f b3 7e b9 b5 dd 06 b8 ae fd ba 38 ca 08 4a b8
       -0.00024290218 -3.215457e-05 8.916423e-05 -4.816874e-05
0003c0 f3 7f 1e 36 87 ab 10 b9 72 75 5f b9 14 5a 0e 39
       2.361831e-06 -0.00013796809 -0.00021310689 0.00013575732
0003d0 b9 b0 6f 39 66 b7 c7 b8 76 87 45 b6 5e 98 20 ba
       0.0002285865 -9.52322e-05 -2.9434136e-06 -0.000612622
0003e0 33 b9 1b 38 b8 10 97 b7 1d 97 d2 b7 ea ed 66 b9
       3.712736e-05 -1.8008388e-05 -2.5104318e-05 -0.00022023139
0003f0 0d 49 fe 36 b1 0f c2 b8 65 4a 97 3a 3c 09 53 b8
       7.578294e-06 -9.2535636e-05 0.0011542557 -5.031492e-05

layers.0.forward_conv1d.bias f4 [80]
000000 9c 9b 76 bb 0a bf 46 3a cd 31 8c 3a 8c e1 8e 38
       -0.0037629372 0.00075815676 0.0010695994 6.813099e-05
000010 06 d3 dc 3a c8 11 71 3a 98 a1 0e 3a 12 95 bf 3b
       0.0016847558 0.000919607 0.00054409495 0.005846628
000020 62 8a e2 3a 31 15 93 3a 6c d2 16 3a 24 9c 0a 3a
       0.0017283673 0.0011221525 0.0005753401 0.0005287549
000030 f3 eb 1f 3a b8 74 77 3a 7e 2c e7 3c 91 b9 83 3a
       0.0006100528 0.00094396947 0.028219458 0.001004981
000040 dc 25 b2 3a 7b aa d6 3a 87 03 77 3a 33 1b d3 3b
       0.0013591605 0.0016377711 0.0009422828 0.0064424514
000050 c4 48 02 3b c5 37 38 3b 88 da d3 39 5e b1 73 3b
       0.0019879797 0.0028109413 0.00040407875 0.0037184577
000060 a5 1d 2e 3a 78 49 ac 3a ef 64 17 3a 65 87 59 3a
       0.00066419906 0.0013144454 0.0005775233 0.00082980684
000070 88 d6 da bc fa ca dc 3a 68 b0 d4 3a 95 d5 6d 3a
       -0.026713625 0.001684516 0.001622689 0.0009072659
000080 b4 9c da 3c 07 8f fc 3a 6f cb 73 3a 8e 75 84 3a
       0.02668605 0.00192687 0.00093000283 0.0010105835
000090 2b 65 38 3a fa d9 11 bc e2 29 75 3a aa 8b 37 3a
       0.0007034118 -0.008902067 0.00093522493 0.00070017076
0000a0 d2 db 95 3a 5a c3 95 3a 11 94 04 3b 2b d2 2e 3a
       0.0011433309 0.0011426017 0.0020229856 0.0006668891
0000b0 5f 1d 2f 3a 96 6f bb 3a cd d6 cf 3a 0c 00 54 3a
       0.0006680097 0.0014300223 0.0015856862 0.0008087165
0000c0 c5 b3 91 3a 39 9d b8 3a 03 0c 89 3a 6a 28 03 3b
       0.0011116198 0.0014084942 0.001045585 0.0020013102
0000d0 4a e4 ab 3a f0 38 5f 3a a2 d0 56 3b 91 76 21 3b
       0.00131143 0.0008515259 0.0032778163 0.0024637321
0000e0 11 e0 4c 3a f9 32 03 3b c1 32 b6 3a ac ee ca 3a
       0.0007815371 0.0020019396 0.0013900624 0.0015482507
0000f0 9b 70 49 3a 41 ba 14 3b 8d 23 29 3a fc ae 15 3b
       0.0007684321 0.0022694024 0.0006452136 0.0022839895
000100 73 fc cd 3a 05 c7 89 3a 60 33 e4 3b 4d 4e b2 3a
       0.0015715495 0.0010511583 0.006964132 0.0013603658
000110 0a 1f b9 3a 1c a8 38 3a b5 64 51 3a 9b f6 f3 39
       0.001412363 0.0007044093 0.0007987724 0.00046532307
000120 1a bd af bc 2a 05 0c 3a 65 81 d2 bb 5e 6e 54 3b
       -0.021452475 0.00053413457 -0.0064241164 0.0032414417
000130 d8 cf fd 3a 6b 8c 5d bc f1 21 fc 3a 6f 3a 21 3a
       0.001936431 -0.013522248 0.001923619 0.000615037

layers.0.backward_conv1d.weight f4 [80, 80, 1]
000000 04 cf 13 ba c5 f5 42 b9 47 be 22 ba a7 d2 37 38
       -0.0005638453 -0.00018592838 -0.0006208163 4.3826785e-05
000010 e4 75 f6 b7 8a 61 f8 b9 62 7e 32 37 83 5c cd ba
       -2.9380382e-05 -0.00047374918 1.0639053e-05 -0.001566783
000020 20 ee 26 3a 07 1d b3 39 11 90 23 b9 3e a0 2b ba
       0.0006367881 0.00034163168 -0.0001559856 -0.000654701
000030 91 66 43 39 f5 02 85 38 eb 0a 3c 3b 55 43 83 39
       0.00018634858 6.342485e-05 0.002869303 0.00025036433
000040 c5 b1 08 3a bd ad 13 3a 49 af 8d 39 c1 ab db 3a
       0.0005214478 0.0005633494 0.00027024213 0.0016759561
000050 ff 8d 82 ba 9d 89 1e 3b 92 01 61 ba 15 f5 b6 ba
       -0.0009960531 0.002419091 -0.0008583303 -0.0013958538
000060 44 87 a3 b9 fc 0d 3e ba f1 12 c6 38 53 5f ae 39
       -0.00031190563 -0.00072500086 9.444904e-05 0.00033258888
000070 cd 75 16 3b a8 f9 8c ba bf db 06 3a c0 72 80 3a
       0.0022958398 -0.0010755556 0.0005144439 0.0009799823
000080 bf 9c 27 3b b8 db 12 3a 76 30 36 ba a4 d7 f6 39
       0.0025575606 0.00056021987 -0.000694997 0.0004708144
000090 d6 79 af 39 73 71 48 3a 2e 1e ab 39 09 9b a4 b9
       0.00033469376 0.00076463 0.00032638147 -0.00031396028
0000a0 1e 54 18 ba 57 a4 1d ba 9a 3f 7b ba 2d 35 91 39
       -0.0005810874 -0.0006013563 -0.00095843675 0.00027696174
0000b0 ac 4c f7 b9 cd 49 8f 3a 81 1a 1b 3a 64 34 6e b9
       -0.00047168636 0.0010932029 0.000591673 -0.00022716966
0000c0 6c f7 d2 39 e8 81 30 ba d2 eb 09 ba 4e 73 99 ba
       0.00040238665 -0.0006733225 -0.0005261275 -0.0011707337
0000d0 92 6e c4 39 f7 fc b2 3a 70 a7 fa ba 15 81 91 ba
       0.00037466415 0.0013655712 -0.0019123387 -0.0011101092
0000e0 8d ef 95 39 b1 5d 2b 3a 14 90 ab b9 9c 29 40 3a
       0.00028597974 0.00065370934 -0.00032723008 0.0007330419
0000f0 21 96 ca b9 f7 0c 6c ba 44 ac 25 39 f0 1a 6d ba
       -0.00038640297 -0.00090046175 0.000157998 -0.00090448465
000100 43 75 35 3a 3c 64 33 39 20 00 df ba 9f 22 88 b8
       0.00069220754 0.0001710811 -0.0017013587 -6.491434e-05
000110 60 8a 06 3a 51 ac d9 39 4f 17 4e b9 08 c2 4b 39
       0.0005132314 0.0004151785 -0.00019654374 0.00019431871
000120 2f e0 31 3a d2 83 6d b9 89 4b 61 b9 e2 3e 9f ba
       0.000678542 -0.00022651188 -0.00021485811 -0.0012149478
000130 b7 bc 78 ba d1 97 a9 39 ae 1c 4c 3a 74 8c 1d b9
       -0.000948857 0.00032347304 0.0007786256 -0.0001502501
000140 39 fb 59 36 de 03 a6 b8 11 56 0d b9 52 f4 a6 38
       3.248175e-06 -7.916217e-05 -0.0001347887 7.961005e-05
000150 8f 1d 09 39 8c ea 97 b8 d3 b2 f5 b6 89 75 cc b9
       0.0001307635 -7.243929e-05 -7.322387e-06 -0.00038997483
000160 26 0c 31 38 31 ce e6 36 b1 5b c9 b7 0b d3 0e b9
       4.2211403e-05 6.878538e-06 -2.4003764e-05 -0.00013620795
000170 b5 0a 89 37 16 d6 4a b8 3b bb 39 3a 7d 9c a2 b7
       1.6336659e-05 -4.8359936e-05 0.00070850895 -1.9384775e-05
000180 21 ca 4a 39 0a b5 f2 37 97 18 ac b5 92 b8 f3 39
       0.0001933952 2.8932951e-05 -1.2822155e-06 0.00046486087
000190 23 5c 4a b9 ae 76 28 3a cc e0 67 b9 a1 16 8b b9
       -0.00019298545 0.0006426376 -0.0002211362 -0.00026529006
0001a0 e5 bf 4f b8 9c ea 06 b9 96 20 19 37 cc d4 8e 37
       -4.953136e-05 -0.00012866635 9.127098e-06 1.702681e-05
0001b0 33 de 10 b8 34 30 7c b9 4f 52 40 37 7b 6a 75 39
       -3.4539215e-05 -0.0002405055 1.1463256e-05 0.00023404688
0001c0 65 fc 25 3a 31 71 97 37 71 8f 21 b9 fa a0 37 38
       0.000633186 1.8053312e-05 -0.00015407593 4.378052e-05
0001d0 94 be 2a 38 b2 65 d7 b8 84 fa 4e 37 75 d1 c2 b8
       4.0708648e-05 -0.00010270941 1.23368845e-05 -9.289655e-05
0001e0 45 1b 25 b9 97 0e 10 b8 5f 41 8c b8 3b 34 4a 38
       -0.00015745785 -3.4345863e-05 -6.6878965e-05 4.8209196e-05
0001f0 ba ad 57 b9 fb cf 9a 39 43 cb 19 38 83 8a ba b8
       -0.00020568716 0.00029528126 3.6667345e-05 -8.894971e-05
000200 bd e8 e7 38 e1 ac 22 b9 1c 31 c7 b8 a1 bb 89 b9
       0.00011058289 -0.00015513926 -9.498207e-05 -0.0002627047
000210 9e b7 77 36 61 0f a2 39 1f 6e ba b9 20 a9 29 b9
       3.6912747e-06 0.00030910506 -0.0003555873 -0.000161801
000220 e4 8d 23 37 90 9c 5f 39 e8 63 f6 b8 ad f7 0b 39
       9.748594e-06 0.00021325261 -0.00011748803 0.0001334834
000230 57 4a 87 b8 93 4c 66 b9 d0 91 b4 34 5b 1c 8d b9
       -6.4511485e-05 -0.00021963035 3.3633705e-07 -0.00026914742
000240 0e a9 c4 38 ba 17 ef 38 ec 96 8e b9 44 3a 4b b7
       9.377497e-05 0.000114008275 -0.00027196796 -1.2113309e-05
000250 5e 53 1e 38 c6 2e 73 38 1b 0c 5f 36 36 30 34 38
       3.7747777e-05 5.7979276e-05 3.3236636e-06 4.2960244e-05
000260 63 ff a6 b6 fe fb 30 b8 ea 35 85 b9 5b 01 69 b9
       -4.9769164e-06 -4.2196356e-05 -0.00025407906 -0.00022221117
000270 d7 97 94 b9 e1 e1 89 b8 02 ff 97 38 38 52 6e b8
       -0.0002834189 -6.574742e-05 7.24774e-05 -5.6820194e-05
000280 ed d1 30 b7 91 b3 85 b8 8b 3b 03 b9 3c f8 73 38
       -1.0539295e-05 -6.375381e-05 -0.00012515315 5.81669e-05
000290 6c 54 b0 38 0a 24 a7 b8 f0 67 03 b7 ce e2 b5 b9
       8.408059e-05 -7.969893e-05 -7.832408e-06 -0.00034691993
0002a0 0e 05 85 38 8d dd d2 37 96 30 ea b7 db 52 07 b9
       6.342876e-05 2.5137118e-05 -2.7917598e-05 -0.0001290547
0002b0 4e 7d cf 37 a0 79 eb b7 ee 46 18 3a 1a 4a 4b b1
       2.4734672e-05 -2.807082e-05 0.0005808909 -2.958251e-09
0002c0 f8 57 25 39 35 b4 5a 38 bd b9 68 37 ca 57 cd 39
       0.00015768397 5.214308e-05 1.3871523e-05 0.00039166055
0002d0 00 f8 41 b9 eb 91 11 3a 30 c6 4e b9 b5 ed 83 b9
       -0.00018498302 0.00055530545 -0.00019719522 -0.00025163373
0002e0 da 40 61 b8 07 ab 09 b9 b3 08 25 37 78 7c ec 37
       -5.3704578e-05 -0.00013129051 9.836792e-06 2.8191353e-05
0002f0 18 e9 5a 39 2f ba 69 b9 a4 8f 1b 38 20 78 5c 39
       0.00020876934 -0.0002228997 3.7088656e-05 0.00021025585
000300 39 fb f5 39 51 fe 3e 38 08 3d 17 b9 73 cc 5f 38
       0.00046917217 4.553638e-05 -0.00014423218 5.335775e-05
000310 81 3d 38 38 2f 1d 1b b8 74 20 de 37 c0 88 a6 b8
       4.39263e-05 -3.698206e-05 2.6479574e-05 -7.9409685e-05
000320 ab d2 12 b9 42 5a 78 b8 a7 d6 d3 b8 20 64 47 38
       -0.00014002125 -5.9211867e-05 -0.00010101246 4.7538546e-05
000330 c9 2a 2a b9 2c 13 8a 39 60 88 72 38 a2 0b 99 b8
       -0.00016228402 0.00026335695 5.7824305e-05 -7.297775e-05
000340 6f a7 d3 38 e6 61 14 b9 8e 67 c8 b8 ac f6 79 b9
       0.00010092451 -0.0001415085 -9.556032e-05 -0.00023838383
000350 29 5f e5 37 77 ea 96 39 ef 62 b3 b9 6b ff 34 b9
       2.734324e-05 0.0002878492 -0.00034215252 -0.00017261288
000360 ad da b7 37 e2 e9 39 39 64 f4 d6 b8 77 11 10 39
       2.1917129e-05 0.00017730103 -0.000102498365 0.00013739416
000370 a5 9c 8d b8 bf e9 4f b9 c5 63 fa 36 ec 6f 71 b9
       -6.752581e-05 -0.00019828136 7.4621953e-06 -0.00023025245
000380 66 28 d5 38 d1 91 b1 38 e4 4a 97 b9 cd d8 e5 b7
       0.00010164156 8.467178e-05 -0.00028856762 -2.7399883e-05
000390 29 03 5e 38 f1 38 7f 38 fc e9 46 b7 34 12 20 38
       5.2931868e-05 6.084977e-05 -1.1856198e-05 3.8163926e-05
0003a0 db bb a7 38 1d 83 3f b8 66 f5 38 b9 82 f9 63 b9
       7.998171e-05 -4.5660057e-05 -0.00017639025 -0.00021741356
0003b0 fd 26 7b b9 f0 9c 02 b8 d0 45 ba 38 95 ff 46 b8
       -0.0002395175 -3.1140575e-05 8.882175e-05 -4.7444908e-05
0003c0 e4 12 26 36 6d b8 0f b9 f0 0f 5e b9 48 63 0d 39
       2.4746923e-06 -0.00013706247 -0.00021177507 0.00013483793
0003d0 2c d0 6d 39 56 be c6 b8 75 6e 46 b6 76 ad 1f ba
       0.00022679631 -9.4768286e-05 -2.9568594e-06 -0.00060912163
0003e0 0c 2f 1b 38 c9 2a 95 b7 d9 bb d1 b7 e4 7a 65 b9
       3.6998696e-05 -1.7782108e-05 -2.5002215e-05 -0.00021884922
0003f0 35 b9 fe 36 ff a3 c0 b8 61 b4 96 3a b3 5f 51 b8
       7.591351e-06 -9.18582e-05 0.0011497849 -4.991861e-05

layers.0.backward_conv1d.bias f4 [80]
000000 33 28 78 bb 66 5b 48 3a 52 1c 8d 3a 58 5f 9d 38
       -0.0037865757 0.0007643014 0.0010765886 7.5041025e-05
000010 79 c5 dd 3a e7 c3 72 3a 6d 87 10 3a 0c 5d bf 3b
       0.0016919813 0.0009260759 0.0005513344 0.0058399495
000020 28 46 e3 3a ed e6 93 3a f7 7e 18 3a 47 a2 0c 3a
       0.0017339634 0.0011284031 0.0005817259 0.00053647574
000030 dd df 21 3a d7 29 79 3a 55 ee d2 3c de 97 84 3a
       0.0006175021 0.0009504831 0.025748411 0.0010116061
000040 41 8f b2 3a e4 75 d7 3a 84 c0 78 3a d0 fc de 3b
       0.0013623015 0.0016438332 0.0009489136 0.00680504
000050 b8 be 02 3b a9 73 15 3b 8e 7e d6 39 c0 44 74 3b
       0.0019950103 0.0022804535 0.0004091155 0.0037272424
000060 7f d0 2f 3a 77 11 ad 3a fb 53 19 3a 8b 31 5b 3a
       0.00067067886 0.0013204057 0.0005849001 0.00083615695
000070 66 d2 2a bc b8 c4 dd 3a 94 8c d5 3a 33 b9 6f 3a
       -0.010426139 0.0016919589 0.0016292506 0.00091447233
000080 9d 36 e5 3c bd 86 fd 3a 63 9c 75 3a a2 47 85 3a
       0.027980143 0.0019342523 0.0009369312 0.0010168443
000090 ac 61 3a 3a 9c af 11 bc a7 de 76 3a f8 54 39 3a
       0.0007109891 -0.008891966 0.0009417333 0.0007069851
0000a0 b3 e1 96 3a 12 b5 96 3a 37 0c 05 3b b4 c9 30 3a
       0.0011511355 0.0011498055 0.002030147 0.00067439233
0000b0 bf e0 2f 3a 36 56 ca 3a 2f 92 d0 3a 93 d7 55 3a
       0.000670921 0.001543707 0.0015912707 0.0008157428
0000c0 d5 a8 92 3a 02 62 b9 3a 66 ff 89 3a cb b8 03 3b
       0.0011189232 0.0014143588 0.0010528385 0.002009916
0000d0 d0 c5 ac 3a 9a 94 5f 3a ef 93 56 3b bc c6 21 3b
       0.0013181511 0.0008528918 0.0032741984 0.0024685105
0000e0 43 4e 4e 3a 1a a9 03 3b 34 48 b7 3a 1f cc cb 3a
       0.0007869938 0.0020089806 0.001398331 0.0015548504
0000f0 dc 21 4b 3a f6 39 15 3b fc f4 2a 3a ae 34 16 3b
       0.0007748881 0.0022770143 0.0006521491 0.0022919583
000100 f4 e4 ce 3a fc f2 8a 3a 1d 8b e4 3b ed 33 b3 3a
       0.0015784786 0.001060098 0.0069745914 0.0013672091
000110 8f f5 b9 3a 01 32 3a 3a 69 21 53 3a 11 2b f8 39
       0.0014187562 0.0007102788 0.000805399 0.00047334333
000120 00 38 b2 bc 68 bc 0d 3a d9 77 d3 bb 54 28 55 3b
       -0.021755219 0.0005406798 -0.006453496 0.0032525258
000130 6f ad fe 3a 3e 34 5e bc 25 fd fc 3a bb 0e 23 3a
       0.0019430349 -0.01356226 0.0019301517 0.00062201516

layers.0.norm.weight f4 [80]
000000 1c c0 1c b2 92 2a 1e 31 66 54 ad 3a b6 99 99 3e
       -9.124076e-09 2.3016224e-09 0.0013224005 0.30000085
000010 60 b3 fb 39 10 a6 b2 b5 19 67 ad 2f 6e 45 29 3b
       0.00048008095 -1.3310364e-06 3.1541772e-10 0.0025828737
000020 79 61 01 b2 7d 11 03 b3 33 05 af b1 98 de 87 37
       -7.530951e-09 -3.051672e-08 -5.0937614e-09 1.6196907e-05
000030 29 db db 3e c3 29 ff 32 f9 f5 63 3d 85 18 81 3b
       0.42940643 2.9704898e-08 0.0556545 0.0039396905
000040 4b 44 96 37 28 d0 ce b7 ce e8 87 b1 33 cf 30 37
       1.7913195e-05 -2.4654044e-05 -3.955484e-09 1.053866e-05
000050 a1 4b 8c 32 b7 34 1f 3e ca 1b a0 3e 0f 8e 75 3b
       1.6332537e-08 0.15547453 0.312712 0.0037468707
000060 a0 62 26 3d b0 70 90 3e 07 a1 32 3b be d0 69 b9
       0.0406214 0.28210974 0.0027256624 -0.00022298374
000070 8f 2c 42 3e 15 90 5c 3e c2 65 2c b5 e8 30 bb 3e
       0.1896231 0.21539338 -6.422307e-07 0.3656075
000080 60 db fc 3c 2b bc 27 b6 8a 86 a0 3d 11 d1 23 37
       0.030866325 -2.4994467e-06 0.07838161 9.764234e-06
000090 11 89 bf 37 b3 43 a9 3d 21 9c ca 30 7c 9d 27 3c
       2.28328e-05 0.08264866 1.4741809e-09 0.010230418
0000a0 d8 b1 08 36 cb 68 f7 b8 d9 24 b3 3c af dc 43 31
       2.0369098e-06 -0.00011797397 0.021868156 2.8501679e-09
0000b0 34 4b 87 3e 1a f3 02 39 f8 a9 b2 3a b5 5e 5d b8
       0.26424563 0.00012488329 0.0013630977 -5.277871e-05
0000c0 9d 5a 6d 3e 19 0a 27 34 c3 a8 85 3e 94 5d 8a 3d
       0.23179097 1.555676e-07 0.26105317 0.0675613
0000d0 54 56 2d 3d b3 4b 85 3d a5 41 e8 3d e7 5b 35 b3
       0.042318657 0.06508579 0.11340646 -4.222593e-08
0000e0 39 d8 15 b3 24 45 ee 3d 08 29 31 b6 ed 53 4f 3e
       -3.488842e-08 0.11634281 -2.6398939e-06 0.20246859
0000f0 36 b9 9b 3b a1 19 77 3d 51 98 d7 b2 8a 52 09 3e
       0.0047523035 0.060327176 -2.509856e-08 0.13410392
000100 20 f7 2e 3e b5 8c 91 39 a0 54 9f 3e 83 29 14 3e
       0.17086458 0.0002776139 0.3111925 0.1446896
000110 c4 f7 4b 3c 1b e9 c4 2f 94 91 48 38 0f 58 8a 3e
       0.012449209 3.5817824e-10 4.7819296e-05 0.27020308
000120 46 a5 ad 3c ab f4 82 36 dd b4 e6 3c 6b 60 99 b2
       0.021196973 3.902785e-06 0.028162414 -1.785539e-08
000130 82 7d 10 3e 7b 1e 47 3e 2c 9c 87 3e bd 85 0f b3
       0.14110377 0.19445221 0.26486337 -3.3416416e-08

layers.0.norm.bias f4 [80]
000000 ef 31 73 b2 93 e6 53 30 79 24 14 bc 95 13 ff 3c
       -1.4155815e-08 7.708902e-10 -0.009041899 0.031137267
000010 71 41 84 3b 16 90 55 32 11 03 50 ae e2 0e 80 3a
       0.0040361215 1.2430993e-08 -4.7296448e-11 0.000977006
000020 31 90 fc af a9 12 96 b2 ea b9 25 30 2f 36 28 b6
       -4.5940987e-10 -1.7470784e-08 6.029085e-10 -2.506549e-06
000030 1f 2b d4 3c 99 12 61 2f 5c bc c6 bc e8 0e 5d 3c
       0.025899468 2.0470238e-10 -0.024259739 0.013492323
000040 cb 49 15 36 19 cd 84 b6 fe 8d 94 b2 7e fe fc b5
       2.2245683e-06 -3.957783e-06 -1.7294038e-08 -1.884953e-06
000050 ff 0f bb b0 f3 36 4d bd ca da 63 bd 1f 11 e4 ba
       -1.3610587e-09 -0.05010123 -0.055628575 -0.0017400122
000060 70 f0 2a bd b5 ff a4 bc 0d db 31 3c 1d d2 ad b8
       -0.041733205 -0.020141462 0.010855448 -8.2884195e-05
000070 44 be 2d 3d 7a 8d 83 bd 5d d2 11 b3 70 e4 83 3d
       0.04241778 -0.06423469 -3.3951768e-08 0.06440055
000080 95 25 4c bc 99 12 bb b5 34 88 5e bd ff 0c 14 b4
       -0.012460132 -1.3937998e-06 -0.054329112 -1.3788302e-07
000090 72 5b 70 37 bf 4e 96 bc 14 a7 02 2d 75 cd fb bc
       1.4326406e-05 -0.018348096 7.426743e-12 -0.030737618
0000a0 f8 39 d0 33 12 c6 f5 3b 66 df 97 bb f1 ce e1 af
       9.696299e-08 0.0075004185 -0.0046347855 -4.1074302e-10
0000b0 ea 24 30 bd 68 49 75 b7 8e 12 cc 39 5f 7a 90 b7
       -0.043003954 -1.4620229e-05 0.00038923736 -1.7223121e-05
0000c0 aa 06 9b 3c 05 bb 3f b3 27 6c 02 bc 76 c9 43 bc
       0.018924076 -4.4640746e-08 -0.007960356 -0.0119498875
0000d0 12 1f 43 bc 0c c5 67 3c 0d 62 4f bd 3b 2f 72 32
       -0.011909263 0.014146101 -0.050630618 1.4096993e-08
0000e0 ce bc 89 b3 da a8 2f 3d d5 3c 96 34 5f 99 2d bd
       -6.413903e-08 0.04288564 2.7983938e-07 -0.042382594
0000f0 f2 ea db bb 42 e4 d7 bc 08 40 35 33 ec 81 49 bd
       -0.0067113573 -0.026353959 4.2200583e-08 -0.04919617
000100 be 1e 57 3d f8 3b 42 b8 cb 62 4e 3d 12 2f a3 3b
       0.052519552 -4.6309055e-05 0.050387185 0.0049799765
000110 fd b2 fb 3c fd da 90 2e ce f5 eb b6 16 69 44 3d
       0.030724997 6.587262e-11 -7.032161e-06 0.04795178
000120 e5 f9 47 bb 40 df 58 b4 55 41 15 bc 23 17 79 31
       -0.003051394 -2.0197785e-07 -0.009109815 3.624742e-09
000130 5d 25 1a bd d7 1c 5e 3d 17 3d 7f 3d 8b 39 7a 31
       -0.03763329 0.054226723 0.06231412 3.6412497e-09

layers.0.ssm.A_log f4 [80, 64]
000000 6e 96 de 19 72 a0 e3 1c 1a 7f 03 22 50 49 ba 26
       2.301502e-23 1.5063074e-21 1.7821098e-18 1.2926214e-15
000010 11 92 0a 2f 0f ea f1 31 e5 77 51 35 3f ff 42 37
       1.260292e-10 7.0406325e-09 7.8033037e-07 1.162273e-05
000020 b4 13 07 39 64 18 5e 3a bd eb 77 3b e4 86 41 3c
       0.00012881943 0.00084722624 0.003782972 0.011811946
000030 10 18 d9 3c 1a 42 40 3d 1b 4a 92 3d 1d b3 c9 3d
       0.026500732 0.04693804 0.07143041 0.09848616
000040 b3 26 02 3e 7a 53 20 3e a9 da 3e 3e b0 64 5d 3e
       0.12710075 0.15656844 0.186381 0.2162044
000050 6a be 7b 3e d2 de 8c 3e a5 a6 9b 3e 15 2c aa 3e
       0.24584356 0.27513748 0.30400577 0.33236757
000060 d7 6a b8 3e 38 61 c6 3e fa 0a d4 3e d9 6a e1 3e
       0.36019012 0.38746047 0.41414624 0.4402683
000070 b0 80 ee 3e 51 4b fb 3e 88 e9 03 3f b5 b4 0a 3f
       0.46582556 0.490809 0.51528215 0.5418199
000080 aa 9b 19 3f 06 e5 15 3f 2e a1 1b 3f 77 3f 21 3f
       0.6000315 0.5855259 0.60792816 0.62987465
000090 02 c0 26 3f 15 23 2c 3f 7e 6b 31 3f 52 98 36 3f
       0.6513673 0.6724103 0.69304645 0.7132617
0000a0 ab aa 3b 3f f3 da 43 3f 46 85 45 3f 1c 4f 4a 3f
       0.73307294 0.76505965 0.77156484 0.7902696
0000b0 c5 02 4f 3f a4 a1 53 3f 22 29 58 3f b5 9c 5c 3f
       0.808636 0.8266852 0.84437764 0.86176616
0000c0 47 fd 60 3f c6 4a 65 3f 25 85 69 3f 6c ae 6d 3f
       0.8788647 0.8956722 0.9121879 0.9284427
0000d0 e4 c4 71 3f 8d ca 75 3f 9b c0 79 3f 29 a7 7d 3f
       0.94441056 0.9601219 0.9755952 0.9908319
0000e0 64 c2 80 3f b7 a5 82 3f 0c 83 84 3f 90 58 86 3f
       1.0059323 1.0206822 1.0352492 1.0495777
0000f0 f3 26 88 3f 0d ef 89 3f ec b0 8b 3f 34 6c 8d 3f
       1.0636886 1.0776078 1.0913367 1.1048646
000100 3b 72 de 96 a0 fa 33 99 ef 3b a8 9e 5b 5d ab 26
       -3.5938124e-25 -9.3046964e-24 -1.781248e-20 1.1890813e-15
000110 79 aa 8f 2d 82 04 f2 31 1a 66 03 35 31 d1 41 37
       1.6332923e-11 7.0436394e-09 4.894988e-07 1.1552403e-05
000120 7e da 06 39 8b 8b 5d 3a 98 9d 77 3b 7f 8d 41 3c
       0.0001286063 0.00084512745 0.0037783142 0.01181352
000130 89 20 d9 3c b9 3d 40 3d 5c 3f 92 3d 0d b1 c9 3d
       0.026504772 0.046933863 0.07140991 0.09848223
000140 31 28 02 3e 10 52 20 3e c0 d8 3e 3e cb 64 5d 3e
       0.12710644 0.15656304 0.18637371 0.2162048
000150 14 be 7b 3e 1a df 8c 3e e0 a6 9b 3e fb 2b aa 3e
       0.24584228 0.27513963 0.30400753 0.3323668
000160 7b 6a b8 3e 40 60 c6 3e e2 0a d4 3e 21 6b e1 3e
       0.36018738 0.38745308 0.41414553 0.44027045
000170 be 80 ee 3e d6 4a fb 3e 96 e9 03 3f 1a 0a 0a 3f
       0.46582597 0.49080533 0.515283 0.53921664
000180 b5 06 10 3f e2 e4 15 3f 45 a1 1b 3f 5a 3f 21 3f
       0.56260234 0.5855237 0.6079295 0.6298729
000190 23 c0 26 3f 0c 23 2c 3f 7d 6b 31 3f 37 98 36 3f
       0.6513693 0.6724098 0.6930464 0.7132601
0001a0 a3 aa 3b 3f 1f a4 40 3f 64 85 45 3f 1a 4f 4a 3f
       0.73307246 0.7525043 0.7715666 0.7902695
0001b0 c3 02 4f 3f f5 a1 53 3f 22 29 58 3f 93 9c 5c 3f
       0.8086359 0.82669 0.84437764 0.86176413
0001c0 47 fd 60 3f ce 4a 65 3f 33 85 69 3f 6e ae 6d 3f
       0.8788647 0.8956727 0.9121887 0.92844284
0001d0 f2 c4 71 3f 9b ca 75 3f a1 c0 79 3f 29 a7 7d 3f
       0.9444114 0.96012276 0.97559553 0.9908319
0001e0 61 c2 80 3f b9 a5 82 3f d3 82 84 3f a4 58 86 3f
       1.005932 1.0206825 1.0352424 1.0495801
0001f0 ef 26 88 3f 0f ef 89 3f e1 b0 8b 3f 37 6c 8d 3f
       1.0636882 1.077608 1.0913354 1.104865
000200 d1 24 b5 94 c2 72 d4 99 5b 34 d7 9e 6e 95 ab 26
       -1.8290851e-26 -2.1966637e-23 -2.2785664e-20 1.1906012e-15
000210 6d 45 89 2d dc 0b f2 31 73 15 03 35 80 d0 41 37
       1.5605928e-11 7.0444752e-09 4.8832516e-07 1.1552242e-05
000220 5d d5 06 39 ef 88 5d 3a 31 9a 77 3b ab 8d 41 3c
       0.0001285872 0.00084508857 0.0037781114 0.011813561
000230 87 1d d9 3c 7d 3d 40 3d 43 3f 92 3d e0 b1 c9 3d
       0.026503338 0.04693364 0.071409725 0.0984838
000240 f1 27 02 3e 15 52 20 3e c4 d8 3e 3e f5 64 5d 3e
       0.12710549 0.15656312 0.18637377 0.21620543
000250 42 be 7b 3e 0c df 8c 3e da a6 9b 3e fe 2b aa 3e
       0.24584296 0.2751392 0.30400735 0.33236688
000260 69 6a b8 3e 62 60 c6 3e dd 0a d4 3e e5 6a e1 3e
       0.36018685 0.3874541 0.41414538 0.44026867
000270 7c 80 ee 3e ce 4a fb 3e 90 e9 03 3f af 09 0a 3f
       0.465824 0.4908051 0.51528263 0.53921026
000280 18 05 10 3f ff e4 15 3f 4c a1 1b 3f 57 3f 21 3f
       0.5625777 0.58552545 0.60792994 0.62987274
000290 23 c0 26 3f 10 23 2c 3f 7d 6b 31 3f 45 98 36 3f
       0.6513693 0.67241 0.6930464 0.71326095
0002a0 a2 aa 3b 3f 96 a3 40 3f 5a 85 45 3f 2e 4f 4a 3f
       0.7330724 0.7524961 0.77156603 0.7902707
0002b0 c3 02 4f 3f f1 a1 53 3f 22 29 58 3f 94 9c 5c 3f
       0.8086359 0.8266898 0.84437764 0.8617642
0002c0 47 fd 60 3f ce 4a 65 3f 2f 85 69 3f 6e ae 6d 3f
       0.8788647 0.8956727 0.9121885 0.92844284
0002d0 f2 c4 71 3f 9b ca 75 3f a1 c0 79 3f 29 a7 7d 3f
       0.9444114 0.96012276 0.97559553 0.9908319
0002e0 60 c2 80 3f b9 a5 82 3f df 82 84 3f a4 58 86 3f
       1.0059319 1.0206825 1.0352439 1.0495801
0002f0 f0 26 88 3f 0f ef 89 3f e0 b0 8b 3f 38 6c 8d 3f
       1.0636883 1.077608 1.0913353 1.1048651
000300 b5 b2 77 17 38 9d 9f 1a 0b c3 c7 1e aa 10 ab 26
       8.0035564e-25 6.601486e-23 2.1150612e-20 1.1870025e-15
000310 e0 7d e3 2d 7c 11 f2 31 84 88 05 35 6f d8 41 37
       2.5862812e-11 7.0451147e-09 4.974502e-07 1.1554089e-05
000320 77 e3 06 39 d5 94 5d 3a 7c a7 77 3b a2 87 41 3c
       0.00012863973 0.00084526587 0.0037789037 0.011812123
000330 05 25 d9 3c d7 3e 40 3d 8d 40 92 3d ed b0 c9 3d
       0.02650691 0.04693493 0.07141218 0.09848199
000340 a6 28 02 3e c8 51 20 3e bf d8 3e 3e e0 63 5d 3e
       0.12710819 0.15656197 0.1863737 0.2162013
000350 ff bd 7b 3e ad de 8c 3e 84 a6 9b 3e 22 2c aa 3e
       0.24584197 0.27513638 0.3040048 0.33236796
000360 8d 6a b8 3e 57 60 c6 3e e0 0a d4 3e 2f 6b e1 3e
       0.36018792 0.38745376 0.41414547 0.44027087
000370 fd 80 ee 3e a0 4a fb 3e 9c e9 03 3f cc 0a 0a 3f
       0.46582785 0.49080372 0.51528335 0.53922725
000380 52 12 10 3f eb e4 15 3f 31 a1 1b 3f 60 3f 21 3f
       0.56277955 0.58552426 0.60792834 0.6298733
000390 49 c0 26 3f 0c 23 2c 3f 7d 6b 31 3f 40 98 36 3f
       0.65137154 0.6724098 0.6930464 0.71326065
0003a0 90 aa 3b 3f 83 a7 40 3f 5e 85 45 3f 14 4f 4a 3f
       0.7330713 0.752556 0.7715663 0.79026914
0003b0 c3 02 4f 3f c6 a1 53 3f 20 29 58 3f 8e 9c 5c 3f
       0.8086359 0.8266872 0.8443775 0.86176383
0003c0 45 fd 60 3f d0 4a 65 3f 2f 85 69 3f 6e ae 6d 3f
       0.8788646 0.8956728 0.9121885 0.92844284
0003d0 e8 c4 71 3f 85 ca 75 3f 9f c0 79 3f 2b a7 7d 3f
       0.9444108 0.96012145 0.9755954 0.99083203
0003e0 50 c2 80 3f b4 a5 82 3f d1 82 84 3f a4 58 86 3f
       1.00593 1.0206819 1.0352422 1.0495801
0003f0 f1 26 88 3f 12 ef 89 3f e2 b0 8b 3f 38 6c 8d 3f
       1.0636884 1.0776083 1.0913355 1.1048651

layers.0.ssm.D f4 [80]
000000 64 b0 75 3b 93 84 ed b9 1e 20 4d ba 3c 89 d1 39
       0.003748917 -0.00045302938 -0.0007824915 0.00039965834
000010 76 ae c7 ba ac ee 0a ba be 4c cc b8 21 42 e9 bb
       -0.0015234489 -0.0005299847 -9.7417724e-05 -0.007118479
000020 76 4b df ba db 95 6b ba 30 37 4e b9 da 74 91 b8
       -0.0017036039 -0.0008986869 -0.0001966625 -6.935904e-05
000030 f6 a5 ca b9 4e d1 22 ba f2 6f 6d bc 15 d5 3b ba
       -0.00038652093 -0.00062109984 -0.014492022 -0.00071652356
000040 1c 63 1c bb a5 f2 c9 ba c0 4e 36 ba 24 68 3d 3b
       -0.0023862785 -0.0015407397 -0.00069544837 0.0028901184
000050 81 41 fd ba 90 43 3b 3d 67 b1 0e b7 05 22 78 bb
       -0.001932189 0.04571873 -8.505164e-06 -0.0037862074
000060 51 92 b5 b9 78 b9 8a ba d1 fc f2 b8 8e c2 05 ba
       -0.00034632024 -0.0010583838 -0.0001158655 -0.0005102538
000070 39 01 b4 3d 3a 1f bd ba fd 42 c5 ba 54 eb 0b ba
       0.08789296 -0.0014428862 -0.0015049871 -0.0005337496
000080 70 40 fc bc 8f b2 e7 ba c4 b0 14 ba 80 1f 4d ba
       -0.030792445 -0.0017677116 -0.0005672092 -0.0007824823
000090 02 36 82 b9 69 74 88 3c 9e 07 36 ba df 87 af b9
       -0.0002483577 0.016657071 -0.0006943884 -0.00033479833
0000a0 47 2a 41 ba 7a 9e 56 ba 08 06 e9 ba ab d1 72 b9
       -0.00073686655 -0.0008187067 -0.0017778287 -0.00023157026
0000b0 16 b6 0e ba 1f 9b 0f 3a 28 39 c4 ba b1 4d f4 b9
       -0.0005444003 0.0005478132 -0.0014970647 -0.0004659719
0000c0 ca 88 5b ba 4a bb 9e ba 8a 5e 43 ba c9 ef e7 ba
       -0.000837457 -0.001211026 -0.0007452747 -0.0017695363
0000d0 32 30 91 ba 20 5d 67 ba 66 61 6f bb 9f ef 29 bb
       -0.0011076985 -0.00088258274 -0.003652656 -0.0025930179
0000e0 63 86 15 ba 84 73 f4 ba 3f 50 88 ba eb 55 cb ba
       -0.0005703924 -0.0018650149 -0.0010399892 -0.0015513276
0000f0 d8 d5 ec b9 3f 95 0b bb 4d 9a 97 b9 b4 c7 0b bb
       -0.00045172754 -0.0021298674 -0.00028915927 -0.002132875
000100 0e d7 ad ba 30 7c f7 b9 e5 a7 ef bb c4 3a 84 ba
       -0.0013262944 -0.00047204038 -0.0073137158 -0.0010088314
000110 1d c1 a7 ba 11 ca d1 b9 a7 fd c8 b9 11 47 38 38
       -0.0012798641 -0.00040014138 -0.00038335958 4.3935204e-05
000120 90 24 f8 3d 32 7f ff b8 55 0b c7 3b 5a ef 25 bb
       0.12116349 -0.000121830395 0.006074349 -0.0025319667
000130 21 72 e2 ba ee 16 77 3c ee 5e da ba 05 74 7d b9
       -0.0017276445 0.01508115 -0.0016660371 -0.00024171181
