vim_model.pth (torch, 611222 bytes, 71 tensors)

cls_token f4 [1, 1, 64]
0.5603041 -0.39575523 -1.1389039 0.7834582 0.18701336 -0.047635216 0.2419963 0.7085649
-1.1486844 0.13371772 0.52462554 -1.2420567 -0.44509295 0.47887504 -0.96404845 1.0545852
0.24651076 0.22858503 1.0533794 0.2695897 -0.11643577 -0.48076224 -0.20969269 0.8825237
-0.18239546 -2.729554 -0.08867632 -0.06215776 0.5051421 -0.10432374 -0.20546941 -0.2003577
0.64827347 0.22398393 1.7005702 0.5126137 -0.5853472 0.5004968 0.30544138 -0.83479667
-1.2525922 -0.53449637 0.14072357 1.417392 0.48166746 0.22009005 -0.16682757 -0.92032444
0.27282614 0.71788436 -0.858465 -3.9716249 1.743359 0.23414497 -0.39541915 0.6064856
0.57156724 -0.2780997 0.9154128 -0.14625971 0.31497648 0.9928461 -1.2370485 -2.0354104
00000000: 1770 0f3f 6ea0 cabe 9ac7 91bf b790 483f
00000010: 6e80 3f3e 251d 43bd e1cd 773e 8264 353f
00000020: 1708 93bf 4ced 083e dc4d 063f b7fb 9ebf
00000030: 39e3 e3be 1c2f f53e e1cb 76bf a6fc 863f
00000040: 516d 7c3e 3212 6a3e 23d5 863f a907 8a3e
00000050: e175 eebd 7826 f6be aeb9 56be 13ed 613f
00000060: e0c5 3abe 03b1 2ec0 ee9b b5bd 2399 7ebd
00000070: fe50 013f afa7 d5bd 9366 52be 922a 4dbe
00000080: 40f5 253f 0b5c 653e 49ac d93f a73a 033f
00000090: 50d9 15bf 8f20 003f d062 9c3e 3cb5 55bf
000000a0: f154 a0bf c1d4 08bf d719 103e 1a6d b53f
000000b0: 1e9d f63e 495f 613e d9d4 2abe 629a 6bbf
000000c0: deaf 8b3e 45c7 373f 5dc4 5bbf 1a2f 7ec0
000000d0: 6326 df3f b3c3 6f3e 6174 cabe a442 1b3f
000000e0: 3b52 123f 1563 8ebe 7e58 6a3f 1bc5 15be
000000f0: 9944 a13e 292b 7e3f 9b57 9ebf 2a44 02c0

to_patch_embedding.1.weight f4 [64, 169]
0.061129313 -0.026079847 -0.029663756 -0.03687244 -0.015816722 -0.034049183 -0.017899087 0.098152146
0.024304146 0.052426223 0.07955161 -0.053957406 -0.06285285 -0.04830202 -0.022404794 -0.033266086
-0.015585105 -0.07824818 0.046910085 0.0022364152 0.016885666 -0.059708685 -0.059682548 -0.056276146
-0.0068349107 0.042080652 -0.02543216 -0.042184185 0.015885457 0.0015681788 -0.023332402 0.03001288
0.03047113 0.0055986773 0.047688227 -0.020439753 -0.013859216 0.021861617 -0.040705882 -0.060483277
0.035206713 0.035997905 -0.0052348017 0.026248975 0.033596724 -0.005893865 -0.04609032 0.013121058
0.006832374 0.019887885 -0.0070387665 -0.0020245556 -0.014886114 0.04557124 -0.056680318 0.06372022
0.025964312 -0.023733417 0.041387144 -0.03706292 -0.046121716 0.0056115594 0.041770224 -0.08727016
0.013715597 -0.08009835 -0.010433466 0.05168077 0.054077692 -0.074322104 0.04535236 -0.06757211
-0.04075745 0.024908083 -0.037202466 0.057748154 0.062361196 -0.057580717 -0.0028862604 -0.035310544
0.06694713 -0.014276172 0.030494051 -0.05584935 0.032108452 -0.00923142 0.01566711 -0.0017190722
0.059739348 -0.023776207 0.03377342 0.06883939 0.040348906 0.051762573 -0.0327856 0.0642726
0.046897627 0.07328736 0.05852661 0.033616047 0.0022214216 0.047621857 0.014976035 -0.05484816
0.024390718 -0.034768943 0.008444395 -0.0030029297 0.001263464 -0.06955828 -0.025529005 0.062048893
-0.018682327 0.033034127 0.0010036051 0.05244271 -0.00065453496 -0.046851702 0.04265476 0.03530536
0.052638307 -0.005189112 -0.047760665 -0.038621675 -0.04527186 0.04265692 0.046885826 -0.021029864
-0.017231118 -0.07679223 0.029487995 0.0061628353 0.057509195 -0.03859406 0.035679102 -0.04720768
-0.050307233 0.032637127 0.019850997 -0.043264527 -0.060948025 0.0026197417 0.018391572 -0.038945835
-0.01581456 -0.036266565 -0.08092674 -0.023184326 0.02616553 0.04644924 0.074855186 0.04401914
0.055682328 0.019942034 -0.016959382 0.050372083 -0.07804703 0.008293577 -0.014352773 -0.049000435
0.03977725 0.018377826 0.021926459 0.05541211 -0.027300227 -0.018609783 -0.057336275 0.03585989
-0.051347222 -0.04611602 0.041132864 -0.0074641225 -0.04649004 -0.029543517 0.010659186 -0.050549738
-0.06456104 -0.05181247 0.016943872 0.052112527 -0.0069142203 0.08149084 -0.06897287 0.032469563
0.041824736 0.026909495 0.016594391 0.06243183 0.013890443 0.0117885675 0.028825346 0.0032883154
0.06090123 -0.023746818 0.017722426 -0.059294254 -0.028860517 0.055157423 -0.036273062 -0.017226787
0.007362349 0.00377799 0.05437348 -0.068647645 0.07054391 -0.058533076 0.03525538 0.024859557
-0.02388339 -0.06513672 -0.028899454 -0.037404686 -0.058534876 0.03838597 0.02014246 0.054498605
-0.031685684 0.03607084 0.010893744 0.04596592 0.066827476 0.06893908 -0.039166305 -0.056206502
-0.006101646 -0.009442239 -0.029841816 -0.03137488 -0.06146545 0.03727961 -0.024133768 -0.018262831
0.059682783 0.06456919 0.06489125 -0.024713462 0.05601373 -0.0050237346 0.056214 0.03193787
0.058721215 0.019123353 0.059971053 0.029528404 0.034286294 0.0010684634 0.070409186 -0.014168262
-0.039384667 0.053969555 -0.003292834 0.054223318 -0.023914644 -0.017937884 0.014349381 0.030575028
00000000: bb62 7a3d 67a5 d5bc 6801 f3bc 8e07 17bd
00000010: 1292 81bc 2877 0bbd 1ba1 92bc fe03 c93d
00000020: 7d19 c73c e1bc 563d f4eb a23d 7102 5dbd
00000030: ffb8 80bd 57d8 45bd 428a b7bc 0542 08bd
00000040: ab58 7fbc 9540 a0bd ca24 403d d290 123b
00000050: cf53 8a3c 1891 74bd b075 74bd d181 66bd
00000060: 63f7 dfbb c35c 2c3d 1b57 d0bc 53c9 2cbd
00000070: 3822 823c 598b cd3a 9823 bfbc 92dd f53c
00000080: 979e f93c 1c75 b73b bb54 433d 4571 a7bc
00000090: c411 63bc 2217 b33c 36bb 26bd 50bd 77bd
000000a0: ea34 103d 8a72 133d b388 abbb 1708 d73c
000000b0: b89c 093d 5321 c1bb 34c9 3cbd b5f9 563c
000000c0: 1be2 df3b ebeb a23c 74a5 e6bb 68ae 04bb
000000d0: e3e4 73bc e9a8 3a3d 9f29 68bd bf7f 823d
000000e0: 1cb3 d43c 956c c2bc 9185 293d 4acf 17bd
000000f0: 20ea 3cbd 2ce1 b73b 4117 2b3d b3ba b2bd
00000100: 62b7 603c 9b0a a4bd 21f1 2abc 37af 533d
00000110: 9280 5d3d 3036 98bd 65c3 393d 3f63 8abd
00000120: 49f1 26bd 090c cc3c 9d61 18bd 5489 6c3d
00000130: 746e 7f3d c2d9 6bbd 6a27 3dbb caa1 10bd
00000140: 941b 893d 9be6 69bc a9ce f93c 4ac2 64bd
00000150: 2784 033d 623f 17bc 5058 803c 7e52 e1ba
00000160: 3fb1 743d 52c6 c2bc ff55 0a3d abfb 8c3d
00000170: e544 253d fe04 543d 314a 06bd 5aa1 833d
00000180: ba17 403d af17 963d 99b9 6f3d fbb0 093d
00000190: 4595 113b 230f 433d 0b5e 753c 77a8 60bd
000001a0: 0bcf c73c e169 0ebd 5c5a 0a3c cdcc 44bb
000001b0: d19a a53a 9274 8ebd 3422 d1bc fb26 7e3d
000001c0: ae0b 99bc cb4e 073d 668b 833a 2bce 563d
000001d0: 1995 2bba 92e7 3fbd c2b6 2e3d 5a9c 103d
000001e0: 449b 573d 6d09 aabb b0a0 43bd c331 1ebd
000001f0: fc6e 39bd 06b9 2e3d 5a0b 403d d246 acbc
00000200: 4628 8dbc 3f45 9dbd cf90 f13c 9cf1 c93b
00000210: c38e 6b3d ce14 1ebd 4024 123d d75c 41bd
00000220: f50e 4ebd 82ae 053d 8f9e a23c 2536 31bd
00000230: a3a4 79bd f9af 2b3b eca9 963c ab85 1fbd
00000240: 898d 81bc 408c 14bd ebbc a5bd 0eed bdbc
00000250: 1859 d63c 8f41 3e3d ad4d 993d 6a4d 343d
00000260: 2713 643d 7a5d a33c 67ee 8abc f552 4e3d
00000270: 1fd7 9fbd c8e1 073c e527 6bbc aeb4 48bd
00000280: 78ed 223d 188d 963c 1e9f b33c cff7 623d
00000290: baa4 dfbc 8b73 98bc 71d9 6abd d2e1 123d
000002a0: 7751 52bd 27e4 3cbd ef7a 283d 9995 f4bb
000002b0: 576c 3ebd 3f05 f2bc dea3 2e3c 3e0d 4fbd
000002c0: 9438 84bd 5039 54bd e0cd 8a3c f273 553d
000002d0: af90 e2bb abe4 a63d a641 8dbd cefe 043d
000002e0: 6a50 2b3d 4d71 dc3c f6f0 873c 85b8 7f3d
000002f0: be94 633c d624 413c 2223 ec3c c780 573b
00000300: 9173 793d b088 c2bc 9f2e 913c 88de 72bd
00000310: e46c ecbc c0ec 613d 1093 14bd 311f 8dbc
00000320: dc3f f13b 2798 773b bab6 5e3d 2397 8cbd
00000330: 5379 903d 61c0 6fbd f267 103d 45a6 cb3c
00000340: 19a7 c3bc 6766 85bd 8cbe ecbc a835 19bd
00000350: 44c2 6fbd 9b3a 1d3d cd01 a53c ee39 5f3d
00000360: d9c8 01bd 04bf 133d ad7b 323c c346 3c3d
00000370: d8dc 883d ef2f 8d3d d96c 20bd ca38 66bd
00000380: 51f0 c7bb 9fb3 1abc d376 f4bc f282 00bd
00000390: 32c3 7bbd 81b2 183d 2eb4 c5bc ef9b 95bc
000003a0: ef75 743d da3c 843d b4e5 843d e373 cabc
000003b0: a76e 653d 249e a4bb a740 663d 49d1 023d
000003c0: a885 703d 94a8 9c3c 35a4 753d 8de5 f13c
000003d0: c96f 0c3d af0b 8c3a b132 903d ff21 68bc
000003e0: d151 21bd 2e0f 5d3d 96cc 57bb 4519 5e3d
000003f0: a5e8 c3bc 78f2 92bc ab19 6b3c 7b78 fa3c

to_patch_embedding.1.bias f4 [64]
-0.026561512 -0.0144840125 -0.047835335 -0.062266767 0.054147147 -0.061108947 0.052161038 0.023234032
0.055461522 -0.008465077 -0.022101969 0.006314713 -0.022098815 0.01608706 -0.06421133 -0.02967845
-0.043393504 -0.024542872 0.048250914 0.042341787 0.06504826 -0.05109306 0.050688844 -0.04175374
0.00832945 0.0068449834 0.040548667 -0.057623126 -0.058300793 0.0022170276 -0.049150903 -0.04838953
-0.033996187 0.023805205 0.014150972 0.045176316 0.028550446 0.041517865 -0.029377207 0.0136840455
-0.02209604 -0.03908869 0.04688276 -0.052990925 -0.017075978 0.03702274 0.025925484 0.060687184
0.03664193 0.021643817 -0.05981701 -0.03267366 0.050965127 -0.0033524688 0.030410204 -0.041277386
0.029175512 -0.009360928 -0.038648322 -0.06251709 -0.049023636 -0.06714574 -0.0046677906 0.011125478
00000000: 8797 d9bc 5a4e 6dbc fcee 43bd 700b 7fbd
00000010: 66c9 5d3d 604d 7abd d0a6 553d 4c55 be3c
00000020: 9f2b 633d 1bb1 0abc 300f b5bc a7eb ce3b
00000030: 9308 b5bc 03c9 833c 3b81 83bd 3920 f3bc
00000040: 63bd 31bd 220e c9bc c0a2 453d 956e 2d3d
00000050: 0638 853d f546 51bd 1b9f 4f3d f805 2bbd
00000060: 3f78 083c e24b e03b 5c16 263d 3a06 6cbd
00000070: d0cc 6ebd 8d4b 113b 7552 49bd 1a34 46bd
00000080: 963f 0bbd 2203 c33c 7ad9 673c cd0a 393d
00000090: a0e2 e93c a30e 2a3d 78a8 f0bc 0c33 603c
000000a0: c102 b5bc 761b 20bd 2308 403d 030d 59bd
000000b0: ece2 8bbc 28a5 173d ae61 d43c 2093 783d
000000c0: d915 163d 604e b13c ae02 75bd d1d4 05bd
000000d0: cfc0 503d 18b5 5bbb d21e f93c 7a12 29bd
000000e0: 7c01 ef3c 945e 19bc b44d 1ebd f608 80bd
000000f0: 02cd 48bd b583 89bd 44f4 98bb a347 363c

layers.0.forward_conv1d.weight f4 [64, 64, 1]
-0.039303586 0.008826501 0.034545902 -0.030178316 0.054200538 0.021738274 -0.049498785 -0.020585313
0.03340784 0.037933975 -0.00020114308 -0.039976556 -0.0049609365 0.02938203 0.044757616 -0.06598942
0.06084252 0.010220353 0.014409282 0.028043576 -0.003781345 -0.03409357 0.016543517 -0.0706634
-0.05993773 0.029512504 0.014183036 0.052604206 -0.02847058 -0.050092306 -0.01652791 -0.028136125
-0.013898125 0.02681601 0.0010306392 0.026257765 -0.06816278 -0.06995977 -0.025157051 0.03523951
-0.041139085 -0.049122002 -0.061791237 0.009694085 -0.020616006 0.074923955 -0.03318156 -0.013136648
0.015552542 0.002064098 -0.065821804 0.008551909 0.04490757 0.015869005 -0.031471252 0.06433794
-0.05660009 0.021898715 0.042278096 -0.025671098 0.07341344 -0.018890534 -0.06959856 -0.04785319
0.0008410142 -0.006622617 -0.072429836 -0.019708889 0.04388923 -0.04207961 -0.047485612 -0.024777869
0.07217828 -0.025778614 -0.061681435 0.082796246 -0.034587566 0.05582633 -0.07993936 0.07210498
0.015648752 -0.03218861 -0.02464563 0.013196527 0.042912953 -0.0197756 -0.036900878 -0.041240454
0.075337626 -0.014211182 -0.045883916 0.020099776 -0.033718113 0.022627195 0.052263632 0.013608628
-0.028895468 -0.018467786 0.008123565 -0.017438246 -0.063541606 0.04901401 -0.028783701 -0.04907957
-0.0015334632 0.028078752 -0.055353943 0.05574318 0.08115803 -0.054154634 0.027704878 0.058598477
-0.04143752 -0.00021868343 -0.08009478 -0.066625066 0.038137626 -0.027468927 -0.018666392 -0.012015465
-0.03978488 -0.009187783 -0.0566056 -0.05058448 0.061294507 0.047417093 -0.0016945212 -0.038637694
-0.079726204 -0.08988409 0.07560738 0.017986488 0.014796085 0.08840269 -0.061700128 0.08980145
-0.067541435 -0.07609676 0.034309804 -0.084964715 0.074928746 -0.109736405 0.0642218 0.07852254
0.005117754 0.09796432 -0.08510792 0.04216736 -0.07329495 0.041903887 0.07857202 -0.06728028
-0.037082773 0.089227356 -0.04521506 0.016808808 0.042103913 0.031194378 0.025286335 -0.058593273
0.06823484 0.07637616 -0.09479577 -0.004592132 0.11762388 0.02672783 0.021020055 0.0123195825
0.008981434 0.10294685 -0.019332578 0.011817838 -0.012008618 -0.11125376 0.013878808 -0.004292562
-0.05172737 -0.05774577 0.07786933 0.07082678 0.063538745 -0.06411232 0.09810415 0.04898078
-0.013688047 0.010868112 -0.07012584 0.06601104 -0.0016432821 0.040533144 0.117885105 0.06932236
-0.052664008 0.04967044 -0.032997027 0.09466241 -0.0076020453 0.034785617 0.014122653 -0.020058662
0.088309765 0.015535171 0.0878787 0.072850116 -0.05335383 0.014899783 -0.030051202 -0.025415821
0.017558306 0.029963562 0.09964931 -0.010724793 0.023148457 -0.029563826 -0.03652383 0.012050094
-0.065532506 0.006104433 0.0067992336 -0.0033861804 -0.015657693 -0.03168712 0.09725593 -0.08217624
0.068750545 0.05754362 0.07166927 0.036676124 -0.028204305 -0.0032255375 -0.05418757 -0.059885453
-0.040925283 -0.02003811 -0.04003231 0.08141722 0.037821848 0.020138424 -0.07611414 0.023589738
-0.02274039 -0.04287457 -0.095356315 0.018809572 0.04879753 -0.051055655 0.045210842 -0.07537313
-0.008251069 -0.0009853076 -0.010653034 0.039797504 -0.03523009 -0.035081387 -0.042679884 0.016943743
00000000: ccfc 20bd 079d 103c 0180 0d3d 8438 f7bc
00000010: 6201 5e3d 7714 b23c 3dbf 4abd 88a2 a8bc
00000020: a9d6 083d a860 1b3d efe9 52b9 75be 23bd
00000030: 5a8f a2bb 95b2 f03c c353 373d 7625 87bd
00000040: 0236 793d 4473 273c e914 6c3c a4bb e53c
00000050: 71d0 77bb b3a5 0bbd 4586 873c f9b7 90bd
00000060: 4481 75bd 35c4 f13c f75f 683c 8277 573d
00000070: 223b e9bc 972d 4dbd 8a65 87bc bb7d e6bc
00000080: f6b4 63bc 40ad db3c 8316 873a 861a d73c
00000090: ed98 8bbd 1147 8fbd 2916 cebc 4e57 103d
000000a0: 7581 28bd 2734 49bd cf18 7dbd f1d3 1e3c
000000b0: e6e2 a8bc bb71 993d 63e9 07bd 183b 57bc
000000c0: 17d0 7e3c d145 073b 95cd 86bd 4e1d 0c3c
000000d0: 00f1 373d b7ff 813c 00e8 00bd 9cc3 833d
000000e0: 7fd5 67bd ef64 b33c cc2b 2d3d 324c d2bc
000000f0: c959 963d 52c0 9abc b189 8ebd b501 44bd
00000100: 8277 5c3a 8a02 d9bb 1856 94bd 8974 a1bc
00000110: 31c5 333d ab5b 2cbd 4680 42bd f5fa cabc
00000120: 35d2 933d ac2d d3bc aca5 7cbd 1491 a93d
00000130: b1ab 0dbd 26aa 643d 3fb7 a3bd c7ab 933d
00000140: d031 803c 34d8 03bd a2e5 c9bc 3f36 583c
00000150: 7ec5 2f3d 7000 a2bc 6025 17bd c0eb 28bd
00000160: 9d4a 9a3d 04d6 68bc c6f0 3bbd 49a8 a43c
00000170: 011c 0abd ab5c b93c 6412 563d b9f6 5e3c
00000180: 30b6 ecbc c149 97bc b418 053c a7da 8ebc
00000190: 1a22 82bd eac2 483d cccb ebbc a907 49bd
000001a0: 7dfe c8ba 6905 e63c d1ba 62bd f652 643d
000001b0: 2e36 a63d 40d1 5dbd 57f5 e23c f504 703d
000001c0: 64ba 29bd 634e 65b9 bb08 a4bd b972 88bd
000001d0: 3336 1c3d 8406 e1bc 43ea 98bc 83dc 44bc
000001e0: 78f5 22bd 5b88 16bc 46db 67bd ac31 4fbd
000001f0: f30f 7b3d 6d38 423d b21a deba 8f42 1ebd
00000200: 7e47 a3bd 2615 b8bd 0bd8 9a3d 6658 933c
00000210: 476b 723c 780c b53d 46b9 7cbd d3e9 b73d
00000220: 2a53 8abd 9ed8 9bbd 7088 0c3d fb01 aebd
00000230: 3e74 993d 7bbd e0bd b886 833d 6dd0 a03d
00000240: d5b2 a73b 84a1 c83d 104d aebd afb7 2c3d
00000250: aa1b 96bd 69a3 2b3d 5eea a03d 3eca 89bd
00000260: 1be4 17bd d5bc b63d 6d33 39bd a0b2 893c
00000270: 2775 2c3d 5a8b ff3c 4a25 cf3c 80ff 6fbd
00000280: b5be 8b3d 1b6b 9c3d 4924 c2bd 9879 96bb
00000290: cae4 f03d 52f4 da3c 4032 ac3c 13d8 493c
000002a0: dd26 133c ccd5 d23d 5b5f 9ebc 9b9f 413c
000002b0: cbbf 44bc 03d9 e3bd f163 633c 9fa8 8cbb
000002c0: 14e0 53bd d486 6cbd f579 9f3d a10d 913d
000002d0: 9a20 823d 524d 83bd d4ea c83d 12a0 483d
000002e0: d543 60bc 2a10 323c 239e 8fbd cc30 873d
000002f0: 6663 d7ba 1506 263d bf6d f13d e2f8 8d3d
00000300: 37b6 57bd 3b73 4b3d e427 07bd 5ede c13d
00000310: 941a f9bb 5d7b 0e3d b362 673c 1052 a4bc
00000320: c0db b43d 3b87 7e3c bff9 b33d 7132 953d
00000330: 8c89 5abd 381e 743c f02d f6bc d734 d0bc
00000340: 70d6 8f3c 2576 f53c f014 cc3d 0bb7 2fbc
00000350: d5a1 bd3c d62f f2bc 039a 15bd c26d 453c
00000360: e835 86bd b207 c83b 1bcc de3b aeea 5dbb
00000370: 9044 80bc 5bca 01bd 1e2e c73d 044c a8bd
00000380: 16cd 8c3d dcb2 6b3d 57c7 923d b439 163d
00000390: b70c e7bc 8a63 53bb c9f3 5dbd 734a 75bd
000003a0: 45a1 27bd f626 a4bc ebf8 23bd 12be a63d
000003b0: 15eb 1a3d 56f9 a43c bbe1 9bbd 443f c13c
000003c0: 0e4a babc 3f9d 2fbd 2c4a c3bd 8816 9a3c
000003d0: ebdf 473d bc1f 51bd 012f 393d 3a5d 9abd
000003e0: 7e2f 07bc 7025 81ba 108a 2ebc b502 233d
000003f0: 6d4d 10bd 80b1 0fbd 1ad1 2ebd 9bcd 8a3c

layers.0.forward_conv1d.bias f4 [64]
0.0467183 -0.033310477 0.06927109 0.08250702 -9.523953e-05 0.043602016 0.109090164 0.06766213
-0.01840529 -0.105268516 0.030799685 -0.0023545574 -0.052175444 -0.09685171 0.028331006 -0.05333528
-0.0922972 -0.027066449 -0.005362244 0.070033826 0.017278904 -0.024742197 -0.109698884 0.039172314
-0.0728516 0.0029402017 -0.05541429 -0.010158376 -0.016906325 0.018320793 -0.055013746 -0.09781645
0.0030787592 -0.05685014 -0.07806984 -0.041073333 -0.092056364 -0.08333543 -0.037687186 0.018583525
-0.029095823 -0.0708594 0.009474702 -0.05125089 -0.057277795 -0.085672274 0.00059545937 0.04704588
0.11219332 0.062535174 0.054623917 0.056896728 -0.10833754 -0.096166454 -0.0057142135 -0.009755414
0.121775344 -0.06094958 -0.0038743403 0.021352962 -0.04194413 -0.027861018 -0.10432228 -0.08104894
00000000: b05b 3f3d 9170 08bd 00de 8d3d 71f9 a83d
00000010: 55bb c7b8 0798 323d aa6a df3d 7192 8a3d
00000020: b1c6 96bc 0597 d7bd 9f4f fc3c eb4e 1abb
00000030: ebb5 55bd 305a c6bd 6d16 e83c 1876 5abd
00000040: 5006 bdbd 75ba ddbc c3b5 afbb e56d 8f3d
00000050: 7d8c 8d3c 26b0 cabc cfa9 e0bd 2673 203d
00000060: 3833 95bd 66b0 403b 18fa 62bd 516f 26bc
00000070: 227f 8abc 7d15 963c 1856 61bd fe53 c8bd
00000080: 02c5 493b b1db 68bd 15e3 9fbd 833c 28bd
00000090: 0c88 bcbd c4ab aabd e15d 1abd 7a3c 983c
000000a0: 5d5a eebc bc1e 91bd c83b 1b3c 74ec 51bd
000000b0: 1f9c 6abd f274 afbd 9a18 1c3a 2eb3 403d
000000c0: 9dc5 e53d 7112 803d 54bd 5f3d 8b0c 693d
000000d0: 12e0 ddbd ebf2 c4bd 4c3e bbbb 2cd5 1fbc
000000e0: 5a65 f93d 44a6 79bd a5e8 7dbb 68ec ae3c
000000f0: 9ccd 2bbd ca3c e4bc eba6 d5bd fdfc a5bd

layers.0.backward_conv1d.weight f4 [64, 64, 1]
0.0703036 0.031090936 -0.084150195 -0.0296757 -0.016488532 -0.007614453 0.039280865 0.05834554
0.08484495 0.07366082 0.0037179978 -0.011773945 0.06876588 -0.07285785 -0.00519783 -0.015337308
0.047639653 -0.011573526 0.047971856 -0.051870015 -0.0037757477 -0.039837696 -0.06433002 -0.07640193
-0.04884433 0.031009834 0.059527658 0.031141879 0.054188278 0.0074441754 -0.018659327 -0.032836698
-0.007214096 -0.042127367 0.016562236 0.04885176 0.0030981246 0.024334393 0.026600134 -0.025661577
-0.013724585 -0.012496902 0.02863386 -0.069486715 0.055454127 0.06926078 0.021254687 0.037338015
0.012885683 -0.027056005 0.042967673 -0.04794019 -0.06217159 0.004553722 -0.05808531 0.023508303
0.016577516 -0.07469568 0.09078372 -0.056013215 -0.007503172 0.044027656 0.076944806 -0.0726076
0.029318342 0.10077878 0.061647173 -0.003909364 -0.026113875 -0.048425294 -0.09157889 -0.062216844
0.0090069715 -0.047847163 -0.04144261 -0.055131707 0.051534668 0.03102374 0.0036115062 -0.018956808
0.04022267 -0.09373717 0.036615398 -0.05513529 0.002827866 0.04883604 -0.020392403 0.022757256
0.01711405 -0.06005798 -0.0054219514 0.06510579 0.026227327 -0.07750634 0.038064953 -0.08406137
-0.08269846 0.05951734 0.09241521 0.0055258675 -0.06341476 0.06853382 -0.006386017 0.065774955
0.062081225 -0.078132585 -0.029218944 -0.044452284 -0.041935116 0.06135539 -0.016775768 -0.074263535
-0.017335206 -0.018672066 0.01425551 -0.05618659 -0.041224167 0.05253639 0.082890645 -0.07271898
0.07558215 0.058035538 -0.10324544 0.0018973632 0.025924914 -0.056154564 0.024092147 0.08991761
0.017484004 -0.023100713 0.046685442 0.06672417 -0.13296255 -0.07719111 0.08543027 0.07821054
-0.04374558 0.010789853 0.02179469 -0.0020353429 0.059118316 0.019270455 0.0815376 0.12855281
0.048669998 -0.0674258 -0.1028862 -0.0396864 0.07697244 0.08910499 -0.062643744 -0.019010443
0.1169536 -0.0341288 0.047170985 -0.10448895 -0.05824553 0.12479207 0.028123638 -0.033119023
0.0059905024 -0.029766623 -0.063653775 0.023129571 0.11114266 -0.092601836 0.0751363 0.074328735
0.036307324 0.0997377 0.042921454 0.07529915 -0.048318326 -0.06483572 -0.0080898525 -0.03819597
0.023108818 0.0037496435 0.11176886 -0.12127574 -0.106937684 0.010257514 0.0039189733 -0.023729999
-0.0546414 -0.11847149 0.075415336 0.074573465 0.011330846 0.12463838 0.06152081 -0.060413115
-0.062117565 -0.077921286 -0.012956184 -0.08339573 0.075546026 0.028334944 0.028727742 0.0846465
0.0346757 0.079499505 -0.06716223 -0.03182414 -0.06348459 -0.05789835 -0.03348699 0.019634001
0.0132964635 -0.047308512 0.07629679 -0.034085464 0.0039029336 -0.038976222 0.015682014 -0.07548728
-0.0045311293 0.029600821 0.021202048 0.021258295 -0.015015938 0.0834838 0.07325292 -0.09657856
-0.052383754 0.034731533 0.059081353 -0.013698953 -0.009730109 -0.0065099713 -0.022593064 -0.053940583
0.011212608 -0.065621786 0.02702048 0.024738066 0.005677211 0.006079603 -0.090222694 -0.026975548
0.049256213 -0.07726764 0.04069716 -0.045450553 0.08110353 -0.08388506 0.03728085 -0.009780494
0.01818291 0.095669605 -0.031152993 0.04652087 0.10252627 -0.0116874585 0.074350215 0.031931702
00000000: 55fb 8f3d 6bb2 fe3c f056 acbd 741a f3bc
00000010: f512 87bc a982 f9bb f9e4 203d bcfb 6e3d
00000020: 30c3 ad3d 7cdb 963d a7a9 733b 81e7 40bc
00000030: 20d5 8c3d 7f36 95bd 8f52 aabb 5549 7bbc
00000040: cc21 433d e39e 3dbc 237e 443d a775 54bd
00000050: 8972 77bb da2c 23bd 75bf 83bd 9d78 9cbd
00000060: fe10 48bd 5608 fe3c 46d3 733d 411d ff3c
00000070: 87f4 5d3d 45ee f33b 72db 98bc c67f 06bd
00000080: 3964 ecbb bf8d 2cbd 87ad 873c c818 483d
00000090: e809 4b3b ec58 c73c 86e8 d93c 3a38 d2bc
000000a0: 15dd 60bc cebf 4cbc 8f91 ea3c 0d4f 8ebd
000000b0: de23 633d 99d8 8d3d 4f1e ae3c bfef 183d
000000c0: 791e 533c 8ea4 ddbc dffe 2f3d ef5c 44bd
000000d0: a3a7 7ebd 6437 953b ddea 6dbd 7c94 c03c
000000e0: 92cd 873c 0cfa 98bd d1ec b93d 1d6e 65bd
000000f0: 2bdd f5bb 5856 343d 3d95 9d3d 4bb3 94bd
00000100: 052d f03c 1b65 ce3d bf81 7c3d 1f1a 80bb
00000110: c4ec d5bc 9a59 46bd b78d bbbd 17d7 7ebd
00000120: fa91 133c 63fb 43bd babf 29bd c9d1 61bd
00000130: 0416 533d 8025 fe3c 05af 6c3b 4f4b 9bbc
00000140: 87c0 243d 46f9 bfbd 07fa 153d 8bd5 61bd
00000150: b853 393b 4d08 483d f80d a7bc 6d6d ba3c
00000160: c432 8c3c 5bff 75bd a0aa b1bb 2f56 853d
00000170: b1da d63c a5bb 9ebd ffe9 1b3d 5e28 acbd
00000180: cf5d a9bd 74c8 733d 3044 bd3d 5612 b53b
00000190: 99df 81bd 765b 8c3d cb41 d1bb 05b5 863d
000001a0: e248 7e3d fa03 a0bd 915c efbc 9913 36bd
000001b0: 28c4 2bbd ca4f 7b3d 566d 89bc 7b17 98bd
000001c0: 9002 8ebc 29f6 98bc f18f 693c e923 66bd
000001d0: acda 28bd 6630 573d 92c2 a93d b0ed 94bd
000001e0: d0ca 9a3d acb6 6d3d 5872 d3bd f2b0 f83a
000001f0: 7c60 d43c 5402 66bd e55c c53c b926 b83d
00000200: 9d3a 8f3c b53d bdbc 3c39 3f3d afa6 883d
00000210: 5627 08be 5f16 9ebd 11f6 ae3d d92c a03d
00000220: 912e 33bd ecc7 303c c78a b23c 6363 05bb
00000230: 0c26 723d 13dd 9d3c 2ffd a63d 59a3 033e
00000240: 315a 473d 8a16 8abd 00b6 d2bd 358e 22bd
00000250: baa3 9d3d ad7c b63d 5d4b 80bd cabb 9bbc
00000260: 5e85 ef3d a4ca 0bbd 5d36 413d 4dfe d5bd
00000270: dd92 6ebd fc92 ff3d 8b63 e63c d0a7 07bd
00000280: fa4b c43b 22d9 f3bc e95c 82bd 3a7a bd3c
00000290: c39e e33d 08a6 bdbd 0fe1 993d aa39 983d
000002a0: fdb6 143d 4743 cc3d 68ce 2f3d 7136 9a3d
000002b0: 70e9 45bd 97c8 84bd 4d8b 04bc 6173 1cbd
000002c0: b44e bd3c 94bc 753b 12e7 e43d 6a5f f8bd
000002d0: 2502 dbbd 220f 283c bb6a 803b 6a65 c2bc
000002e0: a9cf 5fbd 2ea1 f2bd 5b73 9a3d f9b9 983d
000002f0: 03a5 393c 6842 ff3d 3ffd 7b3d be73 77bd
00000300: fd6e 7ebd 3295 9fbd 2d46 54bc 61cb aabd
00000310: e0b7 9a3d af1e e83c 7156 eb3c 255b ad3d
00000320: 1b08 0e3d a3d0 a23d 5a8c 89bd 085a 02bd
00000330: 3504 82bd d226 6dbd a729 09bd 7cd7 a03c
00000340: 69d9 593c 92c6 41bd 7e41 9c3d 339d 0bbd
00000350: 5cc8 7f3b 88a5 1fbd 9177 803c 1399 9abd
00000360: de79 94bb 6c7d f23c ebaf ad3c e025 ae3c
00000370: 6905 76bc 8ef9 aa3d a005 963d fbca c5bd
00000380: 5990 56bd a742 0e3d 4aff 713d 9371 60bc
00000390: 096b 1fbc 9951 d5bb 1715 b9bc cdf0 5cbd
000003a0: 16b5 373c b764 86bd 0e5a dd3c 7ca7 ca3c
000003b0: e607 ba3b 6837 c73b adc6 b8bd d3fb dcbc
000003c0: e2c0 493d 7f3e 9ebd 11b2 263d 5c2a 3abd
000003d0: 9c19 a63d eecb abbd ceb3 183d 5d3e 20bc
000003e0: 53f4 943c 6dee c33d 9034 ffbc ab8c 3e3d
000003f0: 4bf9 d13d c17c 3fbc ed44 983d d1ca 023d

layers.0.backward_conv1d.bias f4 [64]
0.017240014 0.068222135 0.05429931 0.003509819 -0.036047507 -0.067001276 -0.047882196 0.03954396
0.077891015 -0.024461575 -0.044676334 0.08699009 0.008253063 -0.068146884 -0.026395014 0.07216473
-0.012452604 0.101124816 0.04636274 0.035114374 0.07967274 0.07128983 -0.067710005 0.026311181
0.07282111 0.0053971848 0.036628697 0.002045486 0.11590396 -0.08943697 -0.015546356 -0.05555924
-0.0055246875 0.06996794 -0.04096921 -0.0071373847 0.034263745 0.04049429 0.02133167 -0.068481766
-0.0025899007 -0.0924716 0.023454791 -0.09118582 -0.04114048 0.017193545 -0.102013886 0.012064909
0.09443341 -0.0775784 -0.014918798 -0.0073692338 0.091034964 0.096197985 -0.07431184 -0.02124179
0.08896976 0.08138982 0.07537028 0.059132263 -0.025566654 0.10303929 -0.02465755 0.043676578
00000000: ee3a 8d3c 0cb8 8b3d f468 5e3d fe04 663b
00000010: 8da6 13bd f737 89bd 1f20 44bd d9f8 213d
00000020: 5385 9f3d a463 c8bc 88fe 36bd dc27 b23d
00000030: db37 073c 9890 8bbd 5b3a d8bc 1acb 933d
00000040: 0206 4cbc 871a cf3d dbe6 3d3d 17d4 0f3d
00000050: 762b a33d 6700 923d 8bab 8abd 8c8a d73c
00000060: 3c23 953d deda b03b f907 163d 8f0d 063b
00000070: 0e5f ed3d bb2a b7bd 25b6 7ebc 1692 63bd
00000080: 7008 b5bb 5a4b 8f3d 55cf 27bd b9e0 e9bb
00000090: 2458 0c3d 57dd 253d c1bf ae3c 2b40 8cbd
000000a0: 53bb 29bb c061 bdbd 4324 c03c a2bf babd
000000b0: ec82 28bd 7ad9 8c3c a8ec d0bd e5ab 453c
000000c0: 4e66 c13d 6de1 9ebd f96d 74bc 9d79 f1bb
000000d0: 8a70 ba3d 7303 c53d ce30 98bd 4303 aebc
000000e0: c735 b63d b5af a63d bc5b 9a3d ac34 723d
000000f0: 2971 d1bc 4306 d33d a1fe c9bc 36e6 323d

layers.0.norm.weight f4 [64]
0.9188869 0.8349787 0.84908855 0.97130096 0.94418997 0.9338441 0.92243123 0.9000286
0.94353616 0.86220014 0.9477354 0.8606749 0.92300016 0.94744843 0.94271404 0.9399398
0.949815 0.87503815 0.93113434 0.95744705 0.93694586 0.932695 0.9140544 0.8596841
0.91405874 0.9213352 0.9405018 0.97402143 0.920061 0.8501062 0.9400206 0.8753008
0.91300994 0.8923374 0.8774281 0.92981964 0.86510485 0.90875095 0.94816345 0.8959976
0.9425317 0.88266 0.9599325 0.8907784 0.8822498 0.8418467 0.9373631 0.926557
0.95482695 0.9288185 0.9293255 0.8961326 0.9215878 0.84880096 0.8542085 0.92866033
0.871585 0.88910705 0.9262799 0.9387326 0.9774787 0.9321154 0.7868373 0.8425344
00000000: 2c3c 6b3f 2ac1 553f de5d 593f 2ea7 783f
00000010: 6fb6 713f 6810 6f3f 7424 6c3f 4668 663f
00000020: 968b 713f 26b9 5c3f ca9e 723f 3155 5c3f
00000030: bd49 6c3f fb8b 723f b555 713f e59f 703f
00000040: 1327 733f 8002 603f d25e 6e3f 401b 753f
00000050: afdb 6f3f 19c5 6e3f 78ff 693f 4214 5c3f
00000060: c1ff 693f a0dc 6b3f bac4 703f 7859 793f
00000070: 1e89 6b3f 8fa0 593f 31a5 703f b713 603f
00000080: 05bb 693f 3970 643f 219f 603f a908 6e3f
00000090: 8377 5d3f e7a3 683f d7ba 723f 1960 653f
000000a0: c249 713f 01f6 613f 23be 753f 0e0a 643f
000000b0: 1fdb 613f 4483 573f 07f7 6f3f d732 6d3f
000000c0: 8a6f 743f 0dc7 6d3f 47e8 6d3f f268 653f
000000d0: 2eed 6b3f 054b 593f 69ad 5a3f afbc 6d3f
000000e0: 3220 5f3f 859c 633f ae20 6d3f c850 703f
000000f0: 0b3c 7a3f 1d9f 6e3f 2b6e 493f 56b0 573f

layers.0.norm.bias f4 [64]
0.0032923033 -0.0043030125 0.016180197 0.0071334476 -0.0033557445 0.0125355385 -0.008729649 -0.001144277
0.0024202683 0.005226179 0.008335062 0.0007393513 0.005808277 -0.008316967 0.008861994 0.0020278702
0.0034348336 0.0032593415 -0.003892021 -0.0041056746 -0.011812201 0.0083588855 -0.024826372 0.008916734
-0.0041995132 -0.00454928 -0.009173628 0.0031058132 0.008542255 -0.0019910606 0.007789865 0.010808529
0.0045357407 -0.0040427237 -0.00015052015 -0.013638926 -0.011015428 -0.007730137 0.004060994 -0.005310975
-0.0014748615 0.0016581948 0.002370143 0.014132868 0.007987735 0.005864486 0.0011433121 -0.0063606463
-0.0011026614 -0.0026674846 -0.0023783767 0.0063447054 -0.017698279 -0.007518037 -0.0038484533 -0.0031677263
-0.0010190218 -0.008172478 0.0011414944 0.014264977 0.0024780699 0.014358319 -0.0019468935 -0.0020043256
00000000: afc3 573b 4900 8dbb 558c 843c b2bf e93b
00000010: 0dec 5bbb dc61 4d3c cd06 0fbc 91fb 95ba
00000020: 5d9d 1e3b 5e40 ab3b c98f 083c 07d1 413a
00000030: 5c53 be3b e343 08bc e631 113c 04e6 043b
00000040: f21a 613b ad9a 553b 4711 7fbb e588 86bb
00000050: f687 41bc b5f3 083c ad60 cbbc 7e17 123c
00000060: 129c 89bb 2012 95bb fc4c 16bc e68a 4b3b
00000070: d0f4 0b3c 747c 02bb 2042 ff3b 4216 313c
00000080: 8da0 943b d378 84bb f2d4 1db9 cd75 5fbc
00000090: 0e7a 34bc 174d fdbb 1612 853b b007 aebb
000000a0: 2450 c1ba c957 d93a 6754 1b3b 8b8d 673c
000000b0: fdde 023c e02a c03b 30db 953a f86c d0bb
000000c0: 2d87 90ba f7d0 2ebb 8ade 1bbb 3fe7 cf3b
000000d0: fbfb 90bc de59 f6bb 5536 7cbb a199 4fbb
000000e0: b390 85ba dbe5 05bc 329e 953a a6b7 693c
000000f0: 1d67 223b 283f 6b3c e82e ffba 015b 03bb

layers.0.ssm.A_log f4 [64, 64]
0.0129700955 0.11143209 0.39773548 0.6734935 0.8777178 1.0539215 1.2034817 1.3345907
1.449818 1.5534133 1.6472732 1.7331241 1.8121367 1.885399 1.9536253 2.0174828
2.077508 2.1341288 2.1876984 2.23856 2.2869077 2.3330712 2.377189 2.4193964
2.4599047 2.498874 2.5363612 2.572476 2.607309 2.64098 2.673587 2.7051513
2.7357361 2.7654014 2.7942002 2.8221815 2.8494399 2.8759794 2.901825 2.9270117
2.951573 2.975537 2.9989345 3.0217903 3.044129 3.0659924 3.0874126 3.1083794
3.1289113 3.1490269 3.1687407 3.1880698 3.2070289 3.2256312 3.2438731 3.261818
3.2794237 3.296718 3.3137326 3.3304513 3.3469129 3.363142 3.379088 3.3947737
0.01731719 0.231404 0.39777985 0.6734465 0.87610704 1.0528105 1.2037696 1.3353549
1.449806 1.553357 1.6472415 1.7331504 1.8121395 1.8853931 1.9536273 2.0174878
2.077512 2.1341264 2.1876976 2.2385597 2.2869155 2.3330712 2.3771875 2.4194064
2.4599047 2.4988751 2.5363617 2.5724735 2.607309 2.6409805 2.673587 2.705151
2.7357364 2.7654014 2.7942002 2.8221812 2.8494399 2.8759794 2.901825 2.9270117
2.951573 2.975537 2.9989345 3.0217903 3.044129 3.0659924 3.0874126 3.1083794
3.1289113 3.1490269 3.1687407 3.1880698 3.2070289 3.2256312 3.2438731 3.261818
3.2794237 3.296718 3.3137326 3.3304513 3.3469129 3.363142 3.379088 3.3947737
-0.004402255 0.2651545 0.40034813 0.7983712 0.8870287 1.0672475 1.2044505 1.3393435
1.4498191 1.553404 1.6475017 1.7331018 1.8121831 1.8853843 1.9536293 2.0174885
2.0775135 2.1341271 2.187698 2.2385597 2.2869146 2.3330712 2.3771896 2.4194021
2.4599047 2.4988747 2.536362 2.5724742 2.6073089 2.6409805 2.673587 2.7051513
2.7357364 2.7654011 2.7942002 2.8221812 2.8494399 2.8759794 2.901825 2.9270117
2.951573 2.975537 2.9989345 3.0217903 3.044129 3.0659924 3.0874126 3.1083794
3.1289113 3.1490269 3.1687407 3.1880698 3.2070289 3.2256312 3.2438731 3.261818
3.2794237 3.296718 3.3137326 3.3304513 3.3469129 3.363142 3.379088 3.3947737
0.0031420067 0.26115924 0.4003447 0.8099088 0.8964755 1.0794567 1.2040634 1.3456149
1.4498479 1.5535582 1.647928 1.7331833 1.812261 1.8854122 1.9536262 2.0174835
2.0775213 2.1341279 2.1876924 2.238559 2.2869236 2.333072 2.3771675 2.4194012
2.459904 2.4988742 2.5363626 2.5724535 2.6073093 2.6409864 2.6735857 2.7051504
2.7357376 2.7654011 2.7941992 2.8221798 2.849439 2.87598 2.9018247 2.9270115
2.951572 2.975537 2.9989345 3.0217903 3.044129 3.0659924 3.0874126 3.1083794
3.1289113 3.1490266 3.1687407 3.1880698 3.2070289 3.2256312 3.2438731 3.261818
3.2794237 3.296718 3.3137326 3.3304513 3.3469129 3.363142 3.379088 3.3947737
00000000: 8680 543c 8236 e43d fca3 cb3e 126a 2c3f
00000010: 1db2 603f e6e6 863f b00b 9a3f ded3 aa3f
00000020: a393 b93f 3fd6 c63f d9d9 d23f 03d7 dd3f
00000030: 18f4 e73f c154 f13f 6510 fa3f 701e 0140
00000040: e4f5 0440 9195 0840 4003 0c40 9144 0f40
00000050: b25c 1240 0a51 1540 dd23 1840 64d7 1a40
00000060: 146f 1d40 8ded 1f40 be53 2240 72a3 2440
00000070: 27de 2640 d105 2940 0d1c 2b40 3321 2d40
00000080: 4d16 2f40 56fc 3040 2dd4 3240 9f9e 3440
00000090: 395d 3640 0c10 3840 80b7 3940 2954 3b40
000000a0: 92e6 3c40 336f 3e40 8bee 3f40 0365 4140
000000b0: 02d3 4240 3839 4440 2b98 4540 b0ef 4640
000000c0: 1540 4840 a889 4940 a6cc 4a40 5609 4c40
000000d0: f63f 4d40 be70 4e40 9e9b 4f40 a0c1 5040
000000e0: 14e2 5140 6dfd 5240 3214 5440 1d26 5540
000000f0: d233 5640 b83d 5740 fa42 5840 f943 5940
00000100: c8dc 8d3c 2cf5 6c3e cda9 cb3e fd66 2c3f
00000110: 8d48 603f 7fc2 863f 1f15 9a3f e9ec aa3f
00000120: 3e93 b93f 67d4 c63f cfd8 d23f dfd7 dd3f
00000130: 30f4 e73f 9054 f13f 7610 fa3f 851e 0140
00000140: f5f5 0440 8795 0840 3d03 0c40 9044 0f40
00000150: d35c 1240 0a51 1540 d723 1840 8ed7 1a40
00000160: 146f 1d40 92ed 1f40 c053 2240 68a3 2440
00000170: 27de 2640 d305 2940 0d1c 2b40 3221 2d40
00000180: 4e16 2f40 56fc 3040 2dd4 3240 9e9e 3440
00000190: 395d 3640 0c10 3840 80b7 3940 2954 3b40
000001a0: 92e6 3c40 336f 3e40 8bee 3f40 0365 4140
000001b0: 02d3 4240 3839 4440 2b98 4540 b0ef 4640
000001c0: 1540 4840 a889 4940 a6cc 4a40 5609 4c40
000001d0: f63f 4d40 be70 4e40 9e9b 4f40 a0c1 5040
000001e0: 14e2 5140 6dfd 5240 3214 5440 1d26 5540
000001f0: d233 5640 b83d 5740 fa42 5840 f943 5940
00000200: cb40 90bb 55c2 873e 6efa cc3e 0e62 4c3f
00000210: 5014 633f 919b 883f 6f2b 9a3f 9c6f ab3f
00000220: ac93 b93f f1d5 c63f 56e1 d23f 48d6 dd3f
00000230: 9ef5 e73f 4654 f13f 8610 fa3f 881e 0140
00000240: fbf5 0440 8a95 0840 3e03 0c40 9044 0f40
00000250: cf5c 1240 0a51 1540 e023 1840 7cd7 1a40
00000260: 146f 1d40 90ed 1f40 c153 2240 6ba3 2440
00000270: 26de 2640 d305 2940 0d1c 2b40 3321 2d40
00000280: 4e16 2f40 55fc 3040 2dd4 3240 9e9e 3440
00000290: 395d 3640 0c10 3840 80b7 3940 2954 3b40
000002a0: 92e6 3c40 336f 3e40 8bee 3f40 0365 4140
000002b0: 02d3 4240 3839 4440 2b98 4540 b0ef 4640
000002c0: 1540 4840 a889 4940 a6cc 4a40 5609 4c40
000002d0: f63f 4d40 be70 4e40 9e9b 4f40 a0c1 5040
000002e0: 14e2 5140 6dfd 5240 3214 5440 1d26 5540
000002f0: d233 5640 b83d 5740 fa42 5840 f943 5940
00000300: 20ea 4d3b aab6 853e fbf9 cc3e 2f56 4f3f
00000310: 6b7f 653f a32b 8a3f c01e 9a3f 1c3d ac3f
00000320: 9e94 b93f ffda c63f 4eef d23f f3d8 dd3f
00000330: 2bf8 e73f 3055 f13f 6c10 fa3f 731e 0140
00000340: 1cf6 0440 8d95 0840 2703 0c40 8d44 0f40
00000350: f55c 1240 0d51 1540 8323 1840 78d7 1a40
00000360: 116f 1d40 8eed 1f40 c453 2240 14a3 2440
00000370: 28de 2640 ec05 2940 071c 2b40 2f21 2d40
00000380: 5316 2f40 55fc 3040 29d4 3240 989e 3440
00000390: 355d 3640 0e10 3840 7fb7 3940 2854 3b40
000003a0: 8ee6 3c40 336f 3e40 8bee 3f40 0365 4140
000003b0: 02d3 4240 3839 4440 2b98 4540 b0ef 4640
000003c0: 1540 4840 a789 4940 a6cc 4a40 5609 4c40
000003d0: f63f 4d40 be70 4e40 9e9b 4f40 a0c1 5040
000003e0: 14e2 5140 6dfd 5240 3214 5440 1d26 5540
000003f0: d233 5640 b83d 5740 fa42 5840 f943 5940

layers.0.ssm.D f4 [64]
0.7852734 0.8675026 0.96981317 0.96130246 0.8475425 0.9407278 0.8239681 0.93097574
0.9174753 0.9558821 0.8930343 0.94909424 0.9654499 0.93893474 0.95042664 0.97711664
0.87532765 0.96713805 0.93128055 0.88329697 0.956824 0.8873286 0.84187484 0.9787282
0.9792962 0.977803 0.8574153 0.8737854 0.96154815 0.9170343 0.83858204 0.9799175
0.84209156 0.95844275 0.94624573 0.8852549 0.94493634 0.9168724 0.9540439 0.9250461
0.8677794 0.97435206 0.9316017 0.89158195 0.8994387 0.9139366 0.91217846 0.9317701
0.94534236 0.8844679 0.978757 0.8646218 0.89106816 0.86528677 0.96698326 0.87706083
0.9559689 0.91481006 0.98006487 0.9833286 0.93891597 0.9823791 0.967811 0.9747596
00000000: ad07 493f a714 5e3f ad45 783f eb17 763f
00000010: 8cf8 583f 89d3 703f 93ef 523f 6d54 6e3f
00000020: a9df 6a3f b0b4 743f e59d 643f d7f7 723f
00000030: ba27 773f 075e 703f 294f 733f 5124 7a3f
00000040: 7915 603f 5c96 773f 6768 6e3f c01f 623f
00000050: 6bf2 743f f827 633f 1c85 573f ee8d 7a3f
00000060: 28b3 7a3f 4c51 7a3f 927f 5b3f 66b0 5f3f
00000070: 0528 763f c3c2 6a3f 50ad 563f e0db 7a3f
00000080: 5093 573f 815c 753f 293d 723f 11a0 623f
00000090: 59e7 713f 26b8 6a3f 393c 743f d2cf 6c3f
000000a0: ca26 5e3f 236f 793f 737d 6e3f b73e 643f
000000b0: 9d41 663f c0f7 693f 8784 693f 7c88 6e3f
000000c0: f501 723f 7d6c 623f d28f 7a3f db57 5d3f
000000d0: 0b1d 643f 6f83 5d3f 378c 773f 0f87 603f
000000e0: 61ba 743f fe30 6a3f 88e5 7a3f 6cbb 7b3f
000000f0: cc5c 703f 327d 7b3f 76c2 773f d889 793f

layers.0.ssm.deltaBC_layer.weight f4 [144, 64]
-0.031664807 0.048686117 -0.092755124 0.011328616 0.061636366 -0.0045698537 0.031450436 0.104107104
0.036489762 0.06574227 0.026309507 -0.08765422 -0.030158026 -0.03571867 0.07851397 0.103931665
0.08075384 0.0024149965 -0.045568895 -0.07234492 0.025105068 -0.05335561 -0.0060389885 0.062028706
-0.00024615737 -0.005083689 0.0793173 -0.06875694 -0.014899737 -0.027336437 -0.045333624 0.013296503
-0.00034681792 -0.04415612 -0.042953707 -0.022367923 0.0759306 0.06089782 -0.005551256 0.027285738
-0.033250753 -0.0041053114 0.089273155 -0.04236772 0.0069228746 0.09550347 -0.11328651 0.0025780743
-0.010429752 -0.09240629 -0.048580635 -0.03687383 -0.08335336 0.09872191 -0.04447931 0.022606112
-0.0277222 -0.11981683 -0.050386813 0.014725678 0.08670523 -0.064363725 0.058320776 -0.053789254
0.09694418 0.09095751 0.09894533 -0.06790145 0.03280568 -0.032486342 0.021093363 0.045780234
-0.039042227 0.05689349 0.0546948 0.021772088 0.054970376 0.0028973198 0.055221304 -0.10109826
-0.013367414 -0.04708665 -0.085222475 0.10741437 -0.010137844 0.022303479 -0.070949994 0.096831724
0.1080149 0.020588279 -0.070907146 -0.04272006 0.038304076 0.06268618 0.058810007 0.08992737
-0.068415605 0.04161036 0.113957755 0.10156074 -0.055064097 -0.030839477 0.0015080331 -0.032245975
-0.08919596 -0.035736937 -0.059641536 0.043980256 0.033694834 0.09969472 -0.04172022 -0.03137143
0.0976408 -0.054875735 0.10070868 -0.059365314 -0.06701685 -0.03168189 0.11149279 0.09499447
-0.08082659 -0.011050174 -0.061057974 0.09245477 -0.07887515 -0.06746348 -0.018261513 -0.09092587
0.101011 0.02164661 -0.10174584 -0.05061246 0.09745884 0.10252321 0.09811725 -0.00018807991
0.099130556 0.06332613 0.039869264 0.013894623 0.10202225 -0.08105351 0.11371528 0.008995283
-0.04342323 -0.04374072 -0.07502415 0.11024535 0.020921769 -0.03674335 -0.10704369 0.010965269
0.09642118 0.00082740805 -0.04994187 0.11807626 -0.0415072 0.11624039 -0.07521899 0.062268183
-0.0195216 -0.027364504 0.10166744 -0.089399405 -0.081192315 -0.03247386 -0.030843677 0.075342305
-0.09784252 0.059708472 -0.07990764 -0.08015386 -0.08874602 0.01945717 -0.02875885 -0.01310892
0.07217839 -0.0091137495 0.08658862 0.024371464 -0.019838227 0.09317223 -0.023808505 0.057202242
0.02565901 -0.06157755 0.054734554 0.08558142 0.023805646 0.07839196 0.08866614 -0.04035504
0.09606148 -0.09269104 -0.055492606 0.019647144 -0.08767587 -0.030605879 -0.07010598 -0.047303513
0.075168364 0.009735615 -0.008075169 -0.02883932 0.09284412 0.07372661 -0.07626292 -0.09638392
0.1261452 -0.023587685 -0.06805196 0.124481894 0.07451152 0.10181704 0.090257846 -0.007014217
0.019692993 0.087904505 -0.010993083 -0.089601405 0.10573449 0.12555102 0.093424685 -0.101645194
-0.02032085 -0.063208684 0.038619008 0.059532214 0.019325536 0.03481615 -0.10363504 0.03067787
0.031273473 0.015495513 -0.08028595 0.042030077 -0.042820163 0.0771455 0.08008002 0.055529635
0.08842837 -0.0071810866 0.1099743 0.071058 0.11006513 -0.09175394 -0.02280598 -0.0608475
0.031959243 0.06539012 -0.073884934 0.031461433 0.019066818 0.018201385 -0.0067159114 -0.093298994
00000000: f5b2 01bd 186b 473d 66f6 bdbd a99b 393c
00000010: 6a76 7c3d b6be 95bb 2cd2 003d 1b36 d53d
00000020: 4a76 153d e2a3 863d 0987 d73c 0e84 b3bd
00000030: f70d f7bc bd4d 12bd efcb a03d 20da d43d
00000040: 4562 a53d eb44 1e3b 73a6 3abd 9329 94bd
00000050: 25a9 cd3c 6a8b 5abd b5e2 c5bb d011 7e3d
00000060: af0e 81b9 1395 a6bb 1c71 a23d 70d0 8cbd
00000070: 071e 74bc aaf0 dfbc c0af 39bd 93d9 593c
00000080: 1dd5 b5b9 0cdd 34bd 3af0 2fbd ef3c b7bc
00000090: 8181 9b3d fe6f 793d 4fe7 b5bb 5786 df3c
000000a0: f131 08bd d985 86bb d8d4 b63d c689 2dbd
000000b0: 48d9 e23b 5397 c33d c202 e8bd e9f4 283b
000000c0: 8de1 2abc 823f bdbd 7dfc 46bd 0309 17bd
000000d0: 2bb5 aabd b62e ca3d f02f 36bd 7430 b93c
000000e0: ab19 e3bc 8762 f5bd 6762 4ebd f843 713c
000000f0: 8392 b13d 21d1 83bd c4e1 6e3d 1f52 5cbd
00000100: ac8a c63d ee47 ba3d d9a3 ca3d ea0f 8bbd
00000110: 405f 063d 6610 05bd fdcb ac3c 0e84 3b3d
00000120: beea 1fbd 2609 693d a807 603d 615b b23c
00000130: 9e28 613d f6e0 3d3b bc2f 623d 9b0c cfbd
00000140: ff02 5bbc eedd 40bd 1f89 aebd 11fc db3d
00000150: 3319 26bc c9b5 b63c 3b4e 91bd b64f c63d
00000160: ea36 dd3d c0a8 a83c c437 91bd 3bfb 2ebd
00000170: bce4 1c3d 9d61 803d c3e2 703d d72b b83d
00000180: 7b1d 8cbd a06f 2a3d af62 e93d 14ff cf3d
00000190: e48a 61bd 12a3 fcbc 32a9 c53a 5b14 04bd
000001a0: 5fac b6bd e560 12bd af4a 74bd a424 343d
000001b0: 9803 0a3d bf2c cc3d d2e2 2abd 547f 00bd
000001c0: e6f7 c73d 61c5 60bd 5a40 ce3d 0b29 73bd
000001d0: 2140 89bd dfc4 01bd 5556 e43d 768c c23d
000001e0: 6988 a5bd ca0b 35bc ed17 7abd ed58 bd3d
000001f0: 4b89 a1bd 4b2a 8abd 2b99 95bc 5837 babd
00000200: dbde ce3d 3b54 b13c 1f60 d0bd 034f 4fbd
00000210: 8098 c73d b0f7 d13d b2f1 c83d 5137 45b9
00000220: f604 cb3d 21b1 813d f44d 233d 46a6 633c
00000230: 0bf1 d03d 62ff a5bd 8fe3 e83d f460 133c
00000240: 8fdc 31bd 7829 33bd 43a6 99bd 50c8 e13d
00000250: 2164 ab3c 3280 16bd b939 dbbd aca7 333c
00000260: 7878 c53d 6ae6 583a d98f 4cbd f7d1 f13d
00000270: 7403 2abd 710f ee3d 6a0c 9abd ec0c 7f3d
00000280: c3eb 9fbc 862b e0bc 0537 d03d 0917 b7bd
00000290: 2848 a6bd 4f03 05bd e1ab fcbc 114d 9a3d
000002a0: a961 c8bd df90 743d 9ea6 a3bd b527 a4bd
000002b0: 79c0 b5bd a564 9f3c ae97 ebbc ccc6 56bc
000002c0: 44d2 933d d651 15bc 6055 b13d aaa6 c73c
000002d0: c783 a2bc 15d1 be3d 0e0a c3bc e64c 6a3d
000002e0: d832 d23c be38 7cbd 5731 603d 5045 af3d
000002f0: 0f04 c33c f78b a03d 9896 b53d 544b 25bd
00000300: e2bb c43d cdd4 bdbd 374c 63bd 0cf3 a03c
00000310: 688f b3bd 2eb9 fabc b993 8fbd 54c1 41bd
00000320: dff1 993d 2182 1f3c b74d 04bc 7040 ecbc
00000330: 0f25 be3d fafd 963d bc2f 9cbd ef64 c5bd
00000340: 352c 013e f63a c1bc d35e 8bbd 5df0 fe3d
00000350: 7f99 983d 7485 d03d 1bd9 b83d 84d7 e5bb
00000360: 3353 a13c 4707 b43d 551c 34bc f180 b7bd
00000370: 538b d83d 7290 003e 7155 bf3d 5b2b d0bd
00000380: e977 a6bc 8e73 81bd f72e 1e3d 0dd8 733d
00000390: 9650 9e3c 619b 0e3d 9c3e d4bd 2850 fb3c
000003a0: 9d18 003d e4e0 7d3c f66c a4bd bb27 2c3d
000003b0: 3264 2fbd 76fe 9d3d fe00 a43d 0b73 633d
000003c0: ef19 b53d 524f ebbb 353a e13d db86 913d
000003d0: d469 e13d 7de9 bbbd 9bd3 babc 3a3b 79bd
000003e0: b2e7 023d 41eb 853d fc50 97bd b4dd 003d
000003f0: 0432 9c3c 121b 953c 2611 dcbb 8b13 bfbd

layers.0.ssm.dt_proj_layer.weight f4 [64, 16]
-0.011556734 0.016115718 0.053412892 -0.0360341 0.10952666 0.02371571 0.07130483 0.055606063
-0.009336099 0.01895709 0.06504986 0.005823571 0.012722467 -0.0011755915 -0.0930518 -0.005142968
-0.01879247 0.1391906 -0.10489161 0.1736266 0.086902484 -0.06792778 -0.011738258 0.20486401
-0.1198544 0.03303745 -0.062029645 0.022812756 0.11909436 -0.06112454 -0.23293379 0.08090312
0.16077942 0.18251488 0.13011277 -0.21610233 0.20368068 0.07339098 -0.020653898 0.17922388
-0.06433029 0.123260275 -0.077545784 0.11752988 0.123297505 0.113094084 -0.21286552 0.02393968
0.1564673 -0.15391232 0.2084802 0.05703985 -0.11146052 -0.07535818 0.0024482692 -0.15741545
0.025043558 0.022805741 -0.15106012 0.009555006 -0.060290165 0.035285268 0.084430404 0.01010278
-0.017080769 0.056098968 0.09400663 -0.11220466 0.071583964 0.00833593 -0.11869446 -0.045488607
0.0019497961 -0.018992197 -0.05488151 -0.01568775 -0.021874353 -0.0031986474 -0.040797517 -0.073093966
-0.013939006 0.097032145 0.07692044 0.13144891 0.021829758 -0.05995123 0.03200474 0.056374405
0.07356099 0.13672216 -0.005886453 -0.015869744 -0.014291397 0.016593767 -0.045722198 0.108939126
0.01562058 -0.029637573 -0.078930885 -0.09797838 0.025110459 -0.04766331 0.02590755 -0.026593607
0.11202683 0.08038803 0.048322115 -0.0023156384 -0.058264837 -0.001115101 -0.07023187 0.0048461854
0.036893047 0.10200029 0.18445283 0.043059763 -0.19252335 -0.110575885 0.008718135 0.21453002
-0.16261627 0.18731679 0.12415542 -0.024643507 0.12073589 0.0059500765 0.13877307 0.058062214
-0.0777184 -0.04740598 0.18802862 0.11203806 -0.13828667 -0.16408615 0.16590132 0.1769412
-0.09298215 0.032663 -0.07017511 0.034773633 0.12113154 -0.00015079336 0.012417943 0.027156712
-0.07516094 0.1795428 0.18423115 0.23408322 -0.031034568 -0.09515253 -0.07613392 0.026160233
0.10453686 -0.13414718 0.12275731 -0.038471673 -0.12900464 -0.11626557 -0.08450805 -0.18711257
-0.003906771 0.009965375 0.09469306 0.13313101 -0.110474035 -0.08395992 -0.1099061 0.040875986
0.08799782 0.062158972 -0.058446076 0.007125518 0.055142295 0.036285173 -0.10563954 -0.08517993
0.112056546 -0.08365791 0.13272402 0.11221665 -0.2014341 0.021855094 0.17631814 -0.08003812
-0.112750836 -0.021774668 -0.13694596 0.00054142665 0.04527516 0.041642733 -0.10224268 -0.019656405
0.15817437 -0.11809632 0.04066746 0.17130277 0.18570364 -0.16946149 -0.20097013 -0.030638995
-0.16021013 0.060876995 0.13613363 0.03582703 -0.18974069 0.07565088 -0.22740439 -0.093393505
0.005137929 -0.10621413 0.11272593 -0.15188807 -0.089470536 -0.17797568 -0.035991706 0.16113481
-0.10357135 -0.005399101 0.05476171 0.05231756 0.13698745 -0.006745775 0.020262927 0.01236023
-0.06219914 -0.027282372 -0.117635734 -0.0003950285 -0.018869353 0.18190022 -0.15495509 -0.16939254
-0.021980003 0.011848462 -0.08273288 0.020574074 -0.035803147 -0.010608679 0.14564626 -0.0373728
-0.083357655 0.0041703554 0.06579163 -0.13305292 -0.03877669 -0.21890637 -0.23620316 0.09714444
0.22219075 0.013406033 -0.14027043 0.02464525 -0.012652511 -0.007828381 -0.11373384 0.1831365
00000000: 7558 3dbc 1c05 843c 7ac7 5a3d 7e98 13bd
00000010: 834f e03d 7347 c23c 4408 923d 2fc3 633d
00000020: 70f6 18bc e64b 9b3c dc38 853d a7d3 be3b
00000030: e571 503c 4e16 9aba f191 bebd 5886 a8bb
00000040: abf2 99bc fb87 0e3e 6ad1 d6bd 2ccb 313e
00000050: eef9 b13d b81d 8bbd d351 40bc dfc7 513e
00000060: 3976 f5bd 4752 073d cc12 7ebd d1e1 ba3c
00000070: bee7 f33d ba5d 7abd 3286 6ebe 89b0 a53d
00000080: 5ca3 243e 2ee5 3a3e 483c 053e ee49 5dbe
00000090: ab91 503e 034e 963d 5d32 a9bc 7786 373e
000000a0: 99bf 83bd e26f fc3d 53d0 9ebd 81b3 f03d
000000b0: 6783 fc3d df9d e73d 6bf9 59be 261d c43c
000000c0: f738 203e 319b 1dbe d57b 553e 9ea2 693d
000000d0: 6a45 e4bd 6455 9abd 2473 203b 8431 21be
000000e0: 2628 cd3c 1bd3 ba3c 81af 1abe 9a8c 1c3c
000000f0: d2f2 76bd 4987 103d d9e9 ac3d 2186 253c
00000100: f8ec 8bbc 08c8 653d 8c86 c03d 8fcb e5bd
00000110: 9d9a 923d 6d93 083c 1516 f3bd 4352 3abd
00000120: 4d90 ff3a 8695 9bbc 6fcb 60bd 9983 80bc
00000130: d831 b3bc 66a0 51bb 4c1b 27bd 4ab2 95bd
00000140: 6e60 64bc cab8 c63d 7788 9d3d 8b9a 063e
00000150: 52d4 b23c 6c8f 75bd 6717 033d d9e8 663d
00000160: 25a7 963d e500 0c3e 26e3 c0bb 4401 82bc
00000170: 7726 6abc a7ef 873c 3347 3bbd 7a1b df3d
00000180: 76ed 7f3c 7fca f2bc 84a6 a1bd e4a8 c8bd
00000190: 73b4 cd3c 9a3a 43bd 123c d43c d6da d9bc
000001a0: 536e e53d 7ba2 a43d 69ed 453d f7c1 17bb
000001b0: 1ca7 6ebd 9528 92ba bad5 8fbd c0cc 9e3b
000001c0: 2a1d 173d 87e5 d03d 34e1 3c3e 6f5f 303d
000001d0: d724 45be 9c75 e2bd 82d6 0e3c c2ad 5b3e
000001e0: e184 26be f9cf 3f3e 3245 fe3d 2ee1 c9bc
000001f0: 6144 f73d dcf8 c23b 871a 0e3e a5d2 6d3d
00000200: d32a 9fbd c62c 42bd 938a 403e 3674 e53d
00000210: 059b 0dbe 3306 28be 09e2 293e 1330 353e
00000220: 6d6d bebd a3c9 053d f8b7 8fbd cc6e 0e3d
00000230: d013 f83d 491e 1eb9 a174 4b3c c177 de3c
00000240: fbed 99bd 11da 373e 17a7 3c3e 83b3 6f3e
00000250: 353c febc 54df c2bd 1aec 9bbd fc4d d63c
00000260: 6c17 d63d e15d 09be 2f68 fb3d 7994 1dbd
00000270: cb19 04be a51c eebd 8e12 adbd 709a 3fbe
00000280: 5f04 80bb d045 233c 6fee c13d 7f53 083e
00000290: 3640 e2bd 2ef3 abbd 7316 e1bd 946d 273d
000002a0: 3338 b43d 689a 7e3d 2765 6fbd 2d7d e93b
000002b0: e3dc 613d c39f 143d 8b59 d8bd d172 aebd
000002c0: e77d e53d d754 abbd cee8 073e d8d1 e53d
000002d0: be44 4ebe 7409 b33c be8c 343e 07eb a3bd
000002e0: e9e9 e6bd ca60 b2bc 903b 0cbe 87ee 0d3a
000002f0: 7272 393d 9291 2a3d 9c64 d1bd 7806 a1bc
00000300: 76f8 213e 7cdc f1bd ec92 263d fe69 2f3e
00000310: 1829 3e3e 5087 2dbe 1dcb 4dbe a1fe fabc
00000320: 200e 24be 285a 793d 9d66 0b3e 5dbf 123d
00000330: 624b 42be d9ee 9a3d b2dc 68be 1845 bfbd
00000340: 135c a83b cb86 d9bd dadc e63d 8c88 1bbe
00000350: 543c b7bd 423f 36be 0a6c 13bd 8600 253e
00000360: 371d d4bd f1ea b0bb d14d 603d f04a 563d
00000370: 7046 0c3e aa0b ddbb 70fe a53c 9082 4a3c
00000380: 87c4 7ebd 487f dfbc 01eb f0bd d41b cfb9
00000390: e793 9abc 0d44 3a3e 8cac 1ebe 3d75 2dbe
000003a0: 680f b4bc 0d20 423c db6f a9bd f68a a83c
000003b0: 52a6 12bd 06d0 2dbc 4b24 153e 3914 19bd
000003c0: 6bb7 aabd 7aa7 883b c3bd 863d 063f 08be
000003d0: 4ed4 1ebd fe28 60be 3edf 71be aaf3 c63d
000003e0: f985 633e faa4 5b3c 0da3 0fbe d6e4 c93c
000003f0: 7a4c 4fbc 9c42 00bc 4aed e8bd 2288 3b3e

layers.0.ssm.dt_proj_layer.bias f4 [64]
-0.06386979 0.034341436 0.060370184 -0.109748594 -0.03396496 -0.039898366 0.16506565 0.15327375
0.025495026 -0.07195554 0.121017545 -0.061301555 -0.1451965 -0.12969442 0.076736085 0.2413431
0.07158298 0.01697675 -0.16251157 -0.081579626 0.11022261 0.0056012683 0.017718516 -0.1778929
0.20071907 0.2403512 0.12054663 0.08321285 -0.07327978 0.022551982 -0.107385084 -0.05758524
-0.0012218619 0.07596657 -0.19891466 0.11781446 0.1416204 -0.03777351 0.024389178 -0.018646047
0.059119746 -0.19121559 -0.18655561 -0.09031362 0.0034168272 -0.049741518 0.0065195365 0.037869155
-0.13173184 0.2279976 0.1718475 0.0115328 -0.00016073885 0.20869388 0.0770216 0.09336666
0.03496545 0.19356906 0.14489022 -0.19475411 0.10964098 -0.10658345 0.14350207 -0.20050305
00000000: 2ace 82bd 9ba9 0c3d ba46 773d dfc3 e0bd
00000010: d81e 0bbd 786c 23bd f806 293e cbf3 1c3e
00000020: f2da d03c 6d5d 93bd 0cd8 f73d 5717 7bbd
00000030: 64ae 14be 9dce 04be cf27 9d3d a522 773e
00000040: 199a 923d d312 8b3c 6f69 26be 3813 a7bd
00000050: 64bc e13d d88a b73b 6c26 913c 8e29 36be
00000060: 4d89 4d3e a01e 763e 27e1 f63d 806b aa3d
00000070: b613 96bd efbe b83c b6ec dbbd 80de 6bbd
00000080: e226 a0ba 5c94 9b3d 49b0 4bbe b548 f13d
00000090: f004 113e 65b8 1abd d0cb c73c 98bf 98bc
000000a0: 8c27 723d 05ce 43be 6f08 3fbe 59f6 b8bd
000000b0: d9ec 5f3b c3bd 4bbd d6a1 d53b b01c 1b3d
000000c0: b6e4 06be 3478 693e cbf8 2f3e 12f4 3c3c
000000d0: 028c 28b9 d9b3 553e 80bd 9d3d 0537 bf3d
000000e0: ef37 0f3d f836 463e 1a5e 143e 9f6d 47be
000000f0: 738b e03d 6d48 dabd 35f2 123e ac50 4dbe
