vim_model.pth (torch, 834518 bytes, 71 tensors)

cls_token f4 [1, 1, 80]
00000000: 66d7 f13d 5329 a43f c33e 813c 3bef 8cbf
00000010: 784f ff3e 1b49 2b3f b42c 4b3d 675a c63e
00000020: d103 cb3f ceb5 08bf 2605 a2bf 76a0 b63f
00000030: 435d a0bf 7222 7f3f 1d3e e3bc 7984 3dbf
00000040: 56c9 75bf ace6 153f 4358 823f 4af9 493e
00000050: 1883 25bc c31c 833e 83f5 80bf 89d8 fbbe
00000060: 2032 e3bc b196 173f cdb7 403e f8e0 a03e
00000070: 0c6a 7a3f 1a30 6fbf 1b2e a73f b321 09bf
00000080: ce80 11c0 79a7 68bf 64e9 fc3f 89f9 fa3e
00000090: a812 093d 8542 963f 7fec 02bf 1aee 14c0
000000a0: 8fa7 9fbf 4d4d 19bf f7fe 4b3f e953 2a3f
000000b0: c669 06bf 202d b5bf f2aa 5f3e 30de 6f3e
000000c0: 9e27 fbbe ff18 9fbe 1050 c93e 4695 df3f
000000d0: 4463 ac3f 23cb 0d40 168d b13e 1cc9 813f
000000e0: 8c31 d33f 4aef 61bf 7596 e6bf 6842 eabc
000000f0: 395c 45bf dde9 b6bc 78eb 9b3f 00c9 58bf
00000100: cedf 4c3f eff3 07bf 8841 503f a875 263f
00000110: 4c50 813f 7a21 4fbf 6a99 4f3f 46a2 b23f
00000120: 8f88 b43e 9ffd 7d3d 2d87 c43e 99b9 223f
00000130: 7f13 bb3e 48e4 ddbf 2ecc f0be 0b04 8cbe
0.11808662 1.2825111 0.015776997 -1.1010507 0.49865317 0.66908425 0.04960318 0.38740847
1.586054 -0.5340241 -1.2657821 1.4267719 -1.2528461 0.99661934 -0.027739579 -0.7403026
-0.9601034 0.585551 1.0183185 0.19724002 -0.010102056 0.2560788 -1.0074924 -0.4918864
-0.027733862 0.5921431 0.18820114 0.31421638 0.97818065 -0.9343277 1.3060945 -0.53567046
-2.2734866 -0.90880543 1.9758725 0.49018505 0.033465058 1.173905 -0.51142114 -2.3270326
-1.247301 -0.59883577 0.7968592 0.66534287 -0.5250515 -1.4154396 0.21842554 0.23424602
-0.49053663 -0.31073758 0.39318895 1.746743 1.3467793 2.2155235 0.34677953 1.0139499
1.6499496 -0.8825575 -1.8014666 -0.028596118 -0.77093846 -0.022328312 1.2181234 -0.846817
0.80029 -0.5310659 0.8134999 0.6502328 1.010263 -0.80910456 0.81093466 1.3955772
0.35260436 0.06200945 0.3838438 0.6356445 0.36538312 -1.7335291 -0.47030777 -0.27346835

to_patch_embedding.1.weight f4 [80, 169]
00000000: 8bc6 443c d217 7e3d 6ba7 693d 7a63 cf3c
00000010: 70b6 1ebc 3d8b 55bc e910 363d 6588 30bc
00000020: 7102 603d 4ba8 b4bc e019 083b cfc2 0e3d
00000030: 841d 9e3c 1edd 08bd 6193 fbbc f099 32bd
00000040: 1ae2 f13c b456 0c3d fea8 983c 0ecb ce39
00000050: 889c b33c 9f69 2fba 99a2 82bb 730e ce3c
00000060: 18f6 403b 6eef f2bc d29c 24bc a50a 0d3d
00000070: 89a1 8d3c 96d1 403d 6615 293d b720 1e3c
00000080: 8b54 0bbd 6847 943c eb0f 413c 9c5f dbbc
00000090: 0cd3 d1bc 24c8 c9bc f7ed 2bbd e6a6 043d
000000a0: 0a3f 033d 9e42 fd3c 6f51 303d 5321 16bd
000000b0: 82ab 2a3d 4d8d ee3b 97a5 a6bc cbf9 c5bc
000000c0: 8e2f e43c 0083 523d c918 5a3c 2a13 c9bc
000000d0: d05d 203d d2df 523d ebbf 003d e2b2 2b3d
000000e0: 865d d13c 05f8 18bd 61c7 1e3d 133d 17bd
000000f0: b5c6 6ebc 7ed7 153c b148 203d 2cdc d5bc
00000100: 6c0c d4bc 0949 0cbb 6b23 503c bfd8 443d
00000110: b648 2dbc 6193 3abd d517 a3bc 3ff2 dfbc
00000120: 3c2f 333d c08b 563d e32c 5f3d aaf0 e03b
00000130: 336c e4bc 50d8 e4bc 9c11 00bb f06c 2d3b
00000140: ce2b fd3c 8cb1 c33c 69ea ab3c 1d91 06bc
00000150: 824f 20bc ec18 033c 08b8 adbc df87 c33c
00000160: 1df0 e73c 7b21 c9bc 525d 533c 330b 34bd
00000170: d43a 8cbb 0f9d 9bbc 7926 3c3d 4ac4 d33c
00000180: bad3 f1bc b824 33bc 829a 593d ddcd f13b
00000190: 4c8c 18ba 8e7c 433d 4ce6 0d3d f905 f63b
000001a0: 1c38 6e3d 39c9 443b 88c1 d73b ec00 e43c
000001b0: b926 853c 6e9e 1a3c cc5a d0bc a938 9ebc
000001c0: 9ded b53b 48fd 123d 520b 343b 294c 683d
000001d0: 1acd b13c a156 95bc bfad 563d e008 08bc
000001e0: 2b5e 063d 09a0 c93c e2aa a13c 9adc f23a
000001f0: 304c e8bc 52f0 c6bc 77d9 0e3d f1d1 89bc
00000200: 3c5b 3dbc fc44 2fbd ddbd f83c 99b7 5fbd
00000210: ba0d dfbb bc7b f0bc 9d60 0fbd 170c e03c
00000220: 8a76 da3c 4635 d93c 0fc6 1bbd 1ac7 3c3c
00000230: 6824 19ba 22df 23bd 0cfa 093d a896 f13b
00000240: 7bc7 a53c c9a8 f3bc fbfc 9cbc 4295 e2bc
00000250: e99b 753c c91c 903c 1a6b 423c 505b 383d
00000260: cc6d d13b aa04 b13c 7977 023d 76ee a93c
00000270: 24e4 f3bb 871f 103d 7f59 22bd f2c3 42bd
00000280: 41ff cd3c 7800 42bd 8d16 883c bc8f 9f3b
00000290: c534 1a3c 65a7 443d d8cd 45bd 23d0 06bd
000002a0: 9bab b73c 869e 283d a2d7 74bc bd06 b13c
000002b0: b27c dcbb 4592 60bd b79e debc 7b3e c23c
000002c0: 89f6 ca3b 2e87 a33c 8463 1fbd fc15 44bd
000002d0: 11c2 54bc 37cb cbbc a994 493d 9feb 133d
000002e0: def0 a73c 78a5 ef3c e1c0 3fbc ec67 e4bc
000002f0: 0541 1eba 2f69 4e3b be68 c83c aa3c 653d
00000300: e16b 2f3d 6762 943c cde9 cc3c c125 66bc
00000310: b2df b53c 25be 0c3c 023e b23c f78f 0e3d
00000320: 166c 803b 39a2 673b 4e7e 5b3d f6aa ac3c
00000330: 4776 173d 5fdd 0f3d 5c48 4dbd 3cfd 1b3d
00000340: add9 97bc e716 ac39 e0ac 403d 395d 97bc
00000350: fdcf e5bc 4536 32bd 2d35 16bd 2447 573d
00000360: 944a f53a bafa c43c 427b 73bc e70b 01bd
00000370: 9838 ecbc 277c 3c3d 39d7 0f3d 70c5 89bc
00000380: 4097 79bd abcd fbbc 005f 02bd 62c3 2abd
00000390: b51b fcbc 2c27 7ebc 10e2 28bd 1ae3 8cbb
000003a0: f943 7bbd a65f 4f3c c2bd 67bc 3ec6 2abb
000003b0: 39af 72bd 31d1 5dbd 2e58 243c 1805 413d
000003c0: 9f6e 8e3c f88e fcbb db17 e13b f8d5 12bd
000003d0: 665d 7dbc 4b18 6d3b 1d4b ad3c abb3 5d3d
000003e0: c0aa 733d f329 413d c924 b3bc 1ee7 a93c
000003f0: b8ea 0b3c 2e2e 543d 149c 8fbc 8501 22bc
0.012010227 0.062034436 0.057044428 0.025315989 -0.009687051 -0.013033685 0.04444972 -0.0107747065
0.05468983 -0.022052905 0.0020767376 0.034853753 0.019301184 -0.033414 -0.030709924 -0.043603837
0.029526759 0.034262374 0.01863527 0.0003944267 0.021925226 -0.0006691459 -0.0039866683 0.025153374
0.0029443558 -0.029655185 -0.0100471545 0.03443398 0.01728894 0.047074877 0.041280173 0.0096513545
-0.034016173 0.018100455 0.01178358 -0.026778989 -0.02561333 -0.024631567 -0.041974988 0.03238573
0.03204254 0.030915555 0.04304641 -0.036652874 0.04166747 0.007280028 -0.020342631 -0.024166962
0.027854707 0.051394463 0.013311573 -0.024545271 0.039151967 0.051482983 0.031433027 0.041918643
0.02555729 -0.037345905 0.03876436 -0.03692348 -0.014573743 0.009145616 0.039131824 -0.026105963
-0.02588483 -0.0021405837 0.012703757 0.048058268 -0.010576418 -0.045550708 -0.019908825 -0.027337192
0.043746218 0.05237937 0.054486167 0.006864627 -0.027883625 -0.027935177 -0.0019541746 0.0026462637
0.030904677 0.023888372 0.020985799 -0.008213309 -0.009784581 0.008001547 -0.021205917 0.0238685
0.028312737 -0.024552098 0.012900667 -0.043955993 -0.004279474 -0.01899579 0.045935128 0.025850434
-0.029519904 -0.010934047 0.053125866 0.007379277 -0.00058192457 0.047726206 0.034643456 0.007508036
0.05815898 0.0030027165 0.00658435 0.02783247 0.016253816 0.009437187 -0.02543392 -0.019314127
0.0055520074 0.03588608 0.0027472568 0.056713257 0.021704245 -0.018229784 0.05241179 -0.008302897
0.03280465 0.024612444 0.019734804 0.0018528879 -0.028356642 -0.024284516 0.03487536 -0.01682374
-0.0115573965 -0.042790398 0.030363971 -0.05461845 -0.0068070563 -0.029355876 -0.035004247 0.027349515
0.026667852 0.02651466 -0.03803068 0.011522079 -0.0005841912 -0.040007718 0.03368573 0.007372696
0.020236721 -0.029743569 -0.0191636 -0.027659062 0.014990785 0.01759185 0.011866355 0.045008957
0.0063912626 0.02160867 0.03185222 0.02074359 -0.007442968 0.035186317 -0.03963613 -0.04755015
0.025146129 -0.04736373 0.016612316 0.0048694294 0.009411995 0.048011202 -0.04829201 -0.03291334
0.022420695 0.041166805 -0.014943989 0.021609658 -0.006728732 -0.054826993 -0.02717529 0.023711434
0.00619394 0.01996192 -0.038913265 -0.04787253 -0.012985722 -0.024877174 0.04921404 0.036113378
0.020500597 0.029253706 -0.011703701 -0.027881585 -0.00060369103 0.00314958 0.024464007 0.055966057
0.04282749 0.018113328 0.025013829 -0.014047087 0.022201393 0.008590256 0.021758083 0.034805264
0.003919135 0.0035344495 0.05358725 0.021077614 0.036978032 0.035123225 -0.050117835 0.0380833
-0.018536413 0.0003282346 0.047039866 -0.01847707 -0.028053278 -0.043508787 -0.036671806 0.05255808
0.0018714243 0.024045337 -0.01486093 -0.03150549 -0.02883558 0.04601684 0.03511736 -0.016817778
-0.06093526 -0.030737719 -0.03182888 -0.041690238 -0.03077493 -0.015512269 -0.041231215 -0.0042995336
-0.06134412 0.012657082 -0.014144363 -0.0026058103 -0.059249137 -0.05415458 0.010030789 0.047124
0.017386733 -0.007707473 0.006869299 -0.035848588 -0.015464162 0.003617781 0.02115398 0.054126423
0.05948901 0.047159147 -0.021868126 0.020740088 0.008539848 0.051801853 -0.017530479 -0.009888058

to_patch_embedding.1.bias f4 [80]
00000000: 73b3 26bb f02f 883d 69ad 56bd a5c4 603d
00000010: a459 c83b a40f 44bb ff2e 263d 1ec7 b23c
00000020: 9861 1f3d 3391 68bd a602 533d c7cb 69bd
00000030: 7c92 803d c1d3 81bd 1b75 ad3c 6d3e 7dbc
00000040: 70ab 443c 3726 303c 1318 7cbd 0a2f 55bd
00000050: 35c7 0abb 666f a8bb f6ee 3abd 787f 7b3d
00000060: e791 70bd e183 7639 860a 26bd dc72 05bd
00000070: a43c 7bbd 522f 00bc 2678 76bc b3e0 25bc
00000080: 163d b8bc 9373 823d f361 803d d453 113d
00000090: e667 cdbb 7263 9a3c 2f79 643d 9bc8 58bd
000000a0: aff1 84bc 130b 883d 38cc 823d 261d 72bd
000000b0: 4ecf 863d 4b52 a8bc e534 553d bcaf 383b
000000c0: e650 723c 50f9 6a3d cb94 823d 529d 133d
000000d0: a4f8 78bd 543a 223d 2525 4f3d 5193 0bbc
000000e0: ec43 043c e550 58bd e815 73bd 7fcc 0bbc
000000f0: 881d 3f3d 0c24 e63c 9669 74bb 77a7 6ebd
00000100: f105 e83c 7daf 3ebd a500 183d 55bb e13c
00000110: c50a ffbc 212a 303b 2442 b53c 9aa7 1abd
00000120: 0b0d 973c 01c0 bb3c 8575 adbb 2c46 47bd
00000130: 7b5f 0abb b21c 22bb d8ce 05bd af8c 803d
-0.002543655 0.06649768 -0.05241147 0.054875035 0.0061142016 -0.002991655 0.040572163 0.021823462
0.038911432 -0.056779098 0.051516198 -0.057079103 0.0627794 -0.06339217 0.021174004 -0.015456778
0.0120037645 0.010751299 -0.061546396 -0.052046813 -0.0021175866 -0.005140233 -0.045638047 0.06140086
-0.058732893 0.00023509517 -0.04053738 -0.03258024 -0.06133713 -0.007823782 -0.015043294 -0.010124373
-0.022490066 0.063697 0.06268682 0.035480335 -0.006268489 0.018846247 0.055779632 -0.052925687
-0.016228525 0.06642737 0.06386608 -0.05910983 0.06582509 -0.020547053 0.052052397 0.0028180918
0.0147897955 0.05736667 0.06376036 0.036038704 -0.060783997 0.039606407 0.050572533 -0.00851901
0.008072834 -0.052811522 -0.059347063 -0.008532642 0.046659023 0.02809336 -0.003729438 -0.058265176
0.028323146 -0.046554077 0.03710999 0.027555147 -0.031133065 0.002688058 0.022126265 -0.037757494
0.018438837 0.022918703 -0.0052935504 -0.048650905 -0.002111404 -0.0024736342 -0.032667965 0.06276833

layers.0.forward_conv1d.weight f4 [80, 80, 1]
00000000: fc18 543d 045b eabb d154 1bbd f414 7d3d
00000010: 7881 79bd 94f1 1b3c 21ae cf3b 3a21 04bd
00000020: 5691 a3bc e0d7 753c 90fb 893b 007d 41bd
00000030: 85aa 1bbd 9dd5 583c 256b c53b b3d3 54bc
00000040: 21c2 123b 727f 85bb 2e1e e1bc 0b5c 293d
00000050: 7364 68bd 95d0 e3ba 89c2 e8bc 5b47 fdbb
00000060: e6d6 c3bb 6429 ab3c a27a 273d 6106 43bc
00000070: 9d93 063d 24c2 673c f07c 7ebd f8fb 95bc
00000080: 776d bb3c 2622 c6bb 48b0 9d3d cece bc3c
00000090: ed6b 553c f22a b2bc 14d5 c6bc 7198 f0ba
000000a0: 7d74 6dbd d327 48bd 831b 44bc 10e1 323d
000000b0: 66e8 abbd d32c 62bc 7b30 e03c 4078 e23b
000000c0: 377f 393c 8dbe 703c 0af4 863c 6f58 f2bc
000000d0: 1db4 29bd 9c08 543d 1a89 353d fb9e c43c
000000e0: 40bd 89bb 6a26 91bd 1d09 b5bc 1d1b 04bd
000000f0: 4833 0c3d 2d4e 18bd 7c38 763b 7b62 02bd
00000100: 5858 75bc c9a9 053d 1055 a33b de36 593c
00000110: e8b7 15bd ee56 91bc 9a7b 67bc 6b62 04bd
00000120: a1fa 35bb e34b 7a3c 6421 8e3d ef3b c73b
00000130: 968a 653c 65f9 15bd 975c c6bc df9e 323c
00000140: 8681 2dbb a4b4 213c a14f a23b 477f 443b
00000150: 3c28 a63b 03b2 ac39 1d97 f13a c18e 32b9
00000160: 4f81 f3b9 cb44 ba3b 9a58 30bb 3fc9 b63a
00000170: 86e0 c8bb c2c5 3abc 087a cdbb 4241 4d3a
00000180: 68ba 47bb 8a2c 34ba 8c60 05bc 95b0 0e39
00000190: d0d4 613b 61c4 a43b cf5a 523a 1544 66ba
000001a0: d7fc bfbb edc4 4ebc f017 6e37 2c0f 6238
000001b0: 73e1 af3a c44e d33a 9f99 413b dfea b039
000001c0: e489 baba e78b d9bb c795 463a 7842 303b
000001d0: d503 66bb b7dc 963b 7155 babb 571d d53a
000001e0: f300 b9ba bd9d 463a fce9 a43b d8a5 a5bb
000001f0: eb56 483c ef98 863a 152e 38ba 41f9 e139
00000200: dacc 8abb aafb 9dbb 04b1 c8ba 6f64 4b3b
00000210: d827 6b36 f674 83bb 2180 0cbc 66d4 82bb
00000220: a2d4 92bb f90b cf3b 72ff 593b 2e61 dbba
00000230: e09f 14ba 15b6 4d39 695a 74ba 4baf cf3a
00000240: fa0f d9ba 9935 f53a 804f f63a 04c0 45bc
00000250: f631 9e3b 70d1 593a 6743 1a3b 1aa5 6dba
00000260: 76ac 0c3b 68ff c13a a16e e73a 45f2 6f3a
00000270: 4848 093b 9cec 21bb 8dc0 3f3a 271b 09bb
00000280: 1a9a a33b 55df 0d3b f91e 483d be9a 93bc
00000290: 38b8 71bc 75af dcbc 6128 f53b 90ab b13b
000002a0: 262d d03b 39ab c33c ab9e 18bd 24f4 0a3c
000002b0: 37b9 723c 9bdf 323d 6320 cc3b 6937 8e3c
000002c0: c661 803b d63b bcbc 8c2c 9abc c3c9 1b3c
000002d0: 44f8 8f3c 384b 8f3c 02b6 30bb 117e 74bc
000002e0: 1cf2 c33b f309 843a 9957 e139 9828 833c
000002f0: 5260 d9bc ff94 493b 2013 c6bb 12cc 1f3b
00000300: 5862 09bc 8cb5 82bc 3859 35bc 735c 8cbc
00000310: 13f7 ce3c a8b7 923c 88f9 1d3d ed17 34bc
00000320: abc8 b0bc ecaa cb3a a6a2 5c3c 80b5 38bb
00000330: a48a b4bc 6540 203c 0234 bdbc 1681 3fbc
00000340: 74e7 a0b9 04ea f63c c86e 383b f9c4 143d
00000350: 88d8 a2bb 6eec a4bb b1d2 fe3c 6290 483b
00000360: 9da2 1abc a38b 863c b86a 9ebb af01 16bb
00000370: 0add 10bc 86cd 973a 836c 133b e447 43bc
00000380: 94d5 543c 0f35 ecbc ea18 75bc 518b f3bc
00000390: bf8a dfbc bef6 b73c 4c95 8fbc ccc8 22bb
000003a0: 1461 9a3c 9442 37bb d1ba a839 c059 38bc
000003b0: bde8 04bc 8adb 1d3d 8967 c1ba 8671 64bc
000003c0: 2fd4 afbc aff1 273b 8af5 803c 1044 8f3d
000003d0: e437 c6bc 9cb3 3bbc f4ca 56bd 52f0 a13c
000003e0: 06df 8cbc 2901 a83a b43f fb3c 2940 663c
000003f0: d613 063d 9954 84bd dccb a23c a48d e6bc
0.05178164 -0.007151963 -0.037922684 0.06178756 -0.060914487 0.009518046 0.0063378965 -0.03225825
-0.019966763 0.015005082 0.004210897 -0.04723835 -0.038004417 0.013234523 0.0060247355 -0.012989926
0.0022393542 -0.0040740306 -0.027480211 0.041347545 -0.05673642 -0.0017380888 -0.028413074 -0.0077294535
-0.0059765456 0.02089376 0.040888436 -0.011903376 0.03285562 0.014145408 -0.06213087 -0.018308625
0.022879345 -0.0060465513 0.076996386 0.02304783 0.01302622 -0.021748994 -0.024271525 -0.0018355978
-0.05797242 -0.048866104 -0.01196945 0.043671668 -0.08393936 -0.013804632 0.027366867 0.0069113076
0.011321834 0.014693868 0.016473789 -0.029583184 -0.041431535 0.051766023 0.044320203 0.024001589
-0.0042034686 -0.07087405 -0.022099072 -0.03225242 0.034228593 -0.03718393 0.0037570288 -0.0318322
-0.014974676 0.032632623 0.0049845055 0.01325771 -0.03655234 -0.017741647 -0.01412859 -0.03232042
-0.0027767795 0.015276882 0.069399625 0.0060801427 0.014010092 -0.036614794 -0.024214072 0.010902136
-0.0026474907 0.009869728 0.00495334 0.002998309 0.0050707143 0.00032939026 0.0018431876 -0.00017028583
-0.00046444914 0.0056844703 -0.002690828 0.0013945474 -0.006130281 -0.011399688 -0.006270651 0.00078298536
-0.0030476097 -0.0006873092 -0.008140694 0.00013607957 0.0034459122 0.005028293 0.0008024396 -0.0008783949
-0.0058589983 -0.012620193 1.4191479e-05 5.389673e-05 0.001341863 0.0016121496 0.0029541028 0.00033744329
-0.0014231768 -0.006638992 0.0007575419 0.0026895087 -0.00350975 0.004603948 -0.005686455 0.0016259354
-0.0014114663 0.00075766054 0.005032776 -0.0050551705 0.012227754 0.0010268966 -0.000702591 0.00043101053
-0.004235846 -0.0048212605 -0.0015311544 0.0031035205 3.504092e-06 -0.0040117456 -0.00857547 -0.003992605
-0.004480914 0.006318566 0.003326383 -0.0016737336 -0.0005669575 0.00019618154 -0.00093213335 0.0015845088
-0.0016560548 0.001870799 0.0018792003 -0.012069706 0.004827733 0.00083091017 0.002353871 -0.00090654346
0.00214651 0.0014800848 0.0017656871 0.00091532274 0.0020947624 -0.002470768 0.0007314764 -0.0020920725
0.0049927356 0.002164801 0.048857663 -0.018018123 -0.014753394 -0.026939133 0.00748162 0.005422063
0.0063530384 0.023885356 -0.037260693 0.008481059 0.0148146665 0.043670278 0.0062294467 0.017360406
0.0039179055 -0.02297775 -0.01882007 0.009508553 0.017574437 0.017491922 -0.0026963954 -0.014922635
0.0059797894 0.0010073766 0.0004298061 0.016010568 -0.026535187 0.0030758975 -0.0060447603 0.002438311
-0.008385263 -0.015955709 -0.011068635 -0.017133927 0.025264299 0.01790984 0.03856805 -0.0109920325
-0.021580061 0.001553861 0.013466513 -0.0028184354 -0.022038765 0.009780978 -0.023096088 -0.011688491
-0.00030690024 0.030140884 0.0028142203 0.03632066 -0.00496966 -0.0050330674 0.031106325 0.0030603637
-0.009438184 0.016424006 -0.004834499 -0.0022889187 -0.008841762 0.0011581636 0.0022495098 -0.0119189955
0.012990374 -0.028833894 -0.014959553 -0.029729517 -0.027287839 0.022456523 -0.017527245 -0.0024838923
0.018845119 -0.0027963268 0.00032182646 -0.011251867 -0.00811213 0.038539447 -0.0014755587 -0.013943082
-0.021463482 0.0025626232 0.015742082 0.06995404 -0.024196573 -0.011456396 -0.052439645 0.019767914
-0.01719619 0.0012817729 0.030670024 0.014053383 0.03273376 -0.06461448 0.019872598 -0.028143711

layers.0.forward_conv1d.bias f4 [80]
00000000: 35dd 9ebc 2e2b 123c 6fc4 febc 2210 a2bd
00000010: 65ec 403d defe f73c 51a4 3abd 4faf 4cbd
00000020: eb58 7d3c 1502 5ebd ae76 a5bc 87c4 67bc
00000030: 3c1a 1f3c a621 31bd 9dd4 a83b b51a 803d
00000040: 9031 3abc f1d1 f6bc 59c3 513c 7d9c 3f3d
00000050: d9ce 81bd b923 423c e8bb bc3c e8d6 85bc
00000060: 0a65 6dbd 6171 f1bc 052c 81bc 0456 2a3d
00000070: 5efd e43c 07c4 1e3b 3ee6 23bd b836 0c3d
00000080: e533 fa3b 7d81 c13c d57c 31bc f69d 3e3d
00000090: 231a 733a 5442 f1b8 ef09 123d 9be8 4f3d
000000a0: 41ee 49bd 2718 a33c 63b3 3bba 0dfb e83c
000000b0: 0296 ad3c fe11 433c 0a3a 823c 8a29 84bd
000000c0: ac15 6abd c948 5cbd 8b68 723c 8814 8b3c
000000d0: b425 d73c 8833 cdbc 3851 943d 9c8f 403d
000000e0: 3380 54bd 382a 35bd bf3c acbc 201b cf3c
000000f0: f6e6 493c bbbe 493d 7034 00bd 2b00 5fbd
00000100: 2e95 a1bc ad07 843c 4c95 c5bb ad07 bebb
00000110: 13d3 6bbc 9964 39bc 1e44 3b3d 7eb3 323c
00000120: 5e30 983c 2a0f 3ebd b4f0 14bc 5daf 17bd
00000130: b0f8 afba f702 53bc 4bc8 393b 7188 6f3d
-0.01939259 0.008921428 -0.031099526 -0.07913233 0.047100443 0.030272897 -0.04556686 -0.049971875
0.015463094 -0.054201204 -0.020198192 -0.014145977 0.009710845 -0.04324498 0.0051522986 0.06255094
-0.011364356 -0.030129405 0.012802922 0.0467801 -0.06338281 0.011849337 0.02303882 -0.016337827
-0.057957686 -0.029473009 -0.01576806 0.041585937 0.027952846 0.0024225728 -0.040014498 0.03423187
0.007635581 0.023621315 -0.010832985 0.046537362 0.0009273609 -0.0001150413 0.035654005 0.05075894
-0.049299482 0.019908978 -0.00071602146 0.028440023 0.021189693 0.011906145 0.015896816 -0.064532354
-0.057149574 -0.05378035 0.014795433 0.016977564 0.026263095 -0.025048986 0.07242054 0.047011957
-0.051880073 -0.044229716 -0.02102506 0.025281489 0.012323132 0.04925416 -0.03130001 -0.05444352
-0.019724455 0.016116941 -0.0060297605 -0.005799255 -0.014393586 -0.011315488 0.04571926 0.010907052
0.01857775 -0.04640118 -0.009090591 -0.037032474 -0.0013425555 -0.012879125 0.0028348144 0.05847973

layers.0.backward_conv1d.weight f4 [80, 80, 1]
00000000: 8989 72bd bfab e7bb 9eb6 a9bc f4e1 413b
00000010: 8dab c83b 34a3 3bbc e228 593c a2fc 84bc
00000020: 2cd0 913c ef79 dcbc 8ab1 863d 28a1 c33b
00000030: 9bc4 12bb 99a2 873b 272f 2abc a9b8 e73c
00000040: 5def 6e3c dd38 6a3d 7a08 bf3c dd9a b0bb
00000050: 01d0 21bd fc65 febc d525 c73c 1682 133c
00000060: 8c2a f5bc d97b b8bb beff d9bc 478f 013d
00000070: a61b 2d3d eaff 3abc 8629 c13c 9012 75bc
00000080: 1a08 193d 6a4a d23c d2e0 883d b6f3 aa3c
00000090: e958 75bc f7c1 9fbc c017 8e3d 8b19 473c
000000a0: fc91 0c3c b744 4abd 8912 133c 6573 853c
000000b0: 7e11 d1bc 004e 8d36 7b3e 8dbc 5d9a f4bc
000000c0: 3f10 55bd 47b7 44bd 82bd 193d 4f62 78bd
000000d0: c60c 08bd f3de 223d e581 463d a966 013c
000000e0: 005e 1d3c 0942 39bd f426 b0bc 38c4 00bc
000000f0: d494 84bb 00c4 0f3c 4b8e 703c 05fd 3abc
00000100: fbb6 b03c abbb 3c3d 0770 b33c e196 073b
00000110: 6435 a3bc 7aff 6fbd 9fff cfbc 04cc debc
00000120: abd5 613c 4346 83bc 2ded 143d 69e6 35bd
00000130: 6928 e2bb c80f 04bd 4473 453b f097 343c
00000140: 3c4e 813a 2722 4ebc 6a13 ed3b 3f75 bf3b
00000150: 6f21 d03b 8c8c f6b9 d2d0 11bb e7d9 503a
00000160: 0d8e 89b9 6f67 793a 082d 38bb 36af d439
00000170: c201 853b d707 f33b 40a5 b53b 9128 203a
00000180: 78af b5ba ca68 a2ba 1e0b b0bb 41f0 833a
00000190: ccda 1a39 7696 1d3b d12e d23a 61ed 9cb9
000001a0: 892d 3dbb 12ae 1f37 f689 103b 37cb 2c3a
000001b0: cc83 f33a 1e14 c03a 5582 053b c2b6 bd39
000001c0: 70e7 c0ba ff56 1bbc 65b5 83bb 5ee5 dcba
000001d0: 4425 67ba 7dbc 2a3b 70e2 64bb f609 eeba
000001e0: 5f8f 8cbc 16c4 cdb8 d189 ab3b 842a 64bb
000001f0: 300d 363c d9c4 fe3a e2ff 3239 fcd8 fb39
00000200: 5534 e2ba 24ac dc3b 4e7d e1ba 4782 083b
00000210: 1155 a13b 5e28 803b f45c d0bb d448 9aba
00000220: d984 253b e160 ed3b 4bc2 fb3a 3ec4 c439
00000230: b0d7 d9ba 3d71 fc3a ca51 19bb a667 b9bc
00000240: 280e caba 8694 bc3b 5d9b 7639 84c0 133c
00000250: 6300 4eba 0ba7 093b 05be 123b 0c1b 10bb
00000260: 2616 103b 4a5f bb3a f6b3 ce3a 1c4e cc39
00000270: 9987 da3b ebda f0ba c01d 5a3a c331 8a39
00000280: 39cb 9eba b713 933a 7bd4 5a3d 60e4 6a3c
00000290: 2fe0 0b3d 8546 b4bc b395 ebbb db41 67bc
000002a0: cdd3 a0bb ec0b 103c 3e5a 573c 9b5c fe3b
000002b0: 5b32 963c 4735 113d b157 de3c 184a 823c
000002c0: ee58 2db8 9db2 1abc 001b 213c 8555 9d39
000002d0: 2d8c 203c b658 b83b 2655 10bb 5ece 86bb
000002e0: b838 cdbb 5d6b d33b 0137 8fb9 711c 1e3d
000002f0: bcf5 babc 40ac 853b a2f5 32bc a8b0 163b
00000300: 597c fcbb 5b18 783c 81de 00bc d1c0 b3bc
00000310: 16a7 353c dced f73b 1f76 1d3c 8663 b63b
00000320: 7da0 893c c42a 423c 9ecd 74bc 467c dcbb
00000330: 5e74 233c 27f9 a13a de54 c9bb 1bb7 743c
00000340: 390f c8bb 4156 9c3c e358 3d3b 7345 71bc
00000350: e5af 21bc 88d7 eb3b 2e78 babc 5983 0d3b
00000360: ede6 42bc 782d 923c 4649 d93b 5c6b c43a
00000370: 49e5 49bc 2aa6 ccba 857a c43b f7d3 bdbc
00000380: c916 4ebc 1244 023d fd7e 0abc 6745 a23b
00000390: 572a f9bc 495c e83b 2b6b 2abc f95b 88bb
000003a0: 0972 55bb 7f1b 4c3c 1855 83ba 168d 07bb
000003b0: e707 8d37 203e 293b 562b 413b e409 803c
000003c0: 8603 26bd b7d3 623a 350a 38bd 171c cebc
000003d0: 8e46 35bd 5e26 d0bb 94f3 1bbd 1d58 92bc
000003e0: 3816 a4bc 856f 0a3d 62a3 c9bc a112 ec3c
000003f0: 5afe 3cbd 3592 69bd 56be b5bc 62fc 21bd
-0.059213195 -0.0070700343 -0.020716961 0.0029584141 0.006123966 -0.011452485 0.013254376 -0.016233746
0.01779946 -0.026913611 0.06576832 0.005970139 -0.0022395018 0.004139256 -0.010387219 0.028286295
0.014583436 0.057183135 0.023319472 -0.005389555 -0.03950501 -0.03105449 0.024310032 0.009003183
-0.029927514 -0.005629998 -0.026611205 0.03163078 0.042262696 -0.011413554 0.02357937 -0.014958039
0.037361242 0.025670249 0.06683506 0.020868164 -0.014974811 -0.01950167 0.06938124 0.012152086
0.008579727 -0.049381938 0.008976587 0.016290376 -0.025521036 4.211208e-06 -0.017241707 -0.029858762
-0.052017447 -0.04802635 0.037534244 -0.06064063 -0.033215307 0.039763402 0.04846372 0.007898011
0.009604931 -0.04522899 -0.02150295 -0.007859282 -0.004046062 0.008774757 0.014682363 -0.011412864
0.021571627 0.04607741 0.021904005 0.0020689296 -0.01992292 -0.05859325 -0.025390444 -0.027196892
0.013783853 -0.016024714 0.036359 -0.04440919 -0.00690179 -0.032241613 0.0030128518 0.011022553
0.0009865235 -0.012581385 0.0072349804 0.0058428342 0.006351642 -0.00047025492 -0.002224971 0.00079670403
-0.00026236512 0.0009514009 -0.0028103013 0.00040566333 0.0040590474 0.007416706 0.005543381 0.00061095605
-0.0013861498 -0.0012390849 -0.005372419 0.0010066108 0.00014768093 0.002404598 0.0016035681 -0.000299315
-0.0028866252 9.517667e-06 0.0022054887 0.00065915607 0.0018578707 0.0014654433 0.0020371873 0.00036185054
-0.0014717411 -0.009481191 -0.0040194266 -0.0016853025 -0.00088175037 0.002605229 -0.0034925006 -0.0018160928
-0.017158208 -9.8116856e-05 0.005234935 -0.003481538 0.011111543 0.0019437327 0.00017070727 0.00048036117
-0.0017258028 0.006734388 -0.0017203481 0.0020829604 0.004923471 0.003911062 -0.006358737 -0.0011770972
0.0025256185 0.007244215 0.0019207684 0.00037530245 -0.0016620066 0.0019259822 -0.0023394697 -0.022632431
-0.0015415596 0.00575501 0.00023518266 0.009018067 -0.0007858334 0.0021004106 0.0022391092 -0.0021988777
0.0021985858 0.0014295366 0.0015770185 0.00038968108 0.0066689965 -0.001837579 0.0008320473 0.00026358487
-0.0012115008 0.0011221085 0.053425293 0.014336675 0.034149345 -0.022006283 -0.0071894764 -0.014114822
-0.004908061 0.008791905 0.013144074 0.0077625043 0.018334558 0.0354512 0.027141424 0.015904471
-4.1329236e-05 -0.009441999 0.009833097 0.0003000909 0.0097990455 0.0056258095 -0.0022023409 -0.0041139564
-0.006262865 0.0064520077 -0.00027316067 0.038601343 -0.022822253 0.0040793717 -0.010922821 0.002299348
-0.007705253 0.015142526 -0.007865549 -0.021942528 0.0110872 0.007566197 0.009610682 0.0055660633
0.01680016 0.011851016 -0.014941601 -0.0067286817 0.009976475 0.0012357578 -0.00614415 0.014936234
-0.0061053303 0.019084098 0.0028892092 -0.014726031 -0.009868597 0.007197324 -0.022762384 0.0021593182
-0.011895877 0.017843947 0.0066310493 0.0014985609 -0.012322732 -0.0015613486 0.005996051 -0.023172362
-0.012578675 0.0318032 -0.008453128 0.004952121 -0.030415697 0.0070910794 -0.010401527 -0.0041613546
-0.003256919 0.012457727 -0.0010019867 -0.002068346 1.681219e-05 0.0025824383 0.0029475293 0.015629716
-0.040530704 0.0008652764 -0.04493161 -0.025159879 -0.04425674 -0.00635223 -0.03807409 -0.017864281
-0.020030126 0.03379776 -0.02461404 0.028817477 -0.046141006 -0.0570242 -0.022185486 -0.03954733

layers.0.backward_conv1d.bias f4 [80]
00000000: 7621 5d3d 4037 a03c 1d49 43bc 26c1 05bd
00000010: 02fb c63c 0489 e1bb 910a 27bd 9c75 8a3c
00000020: 2d82 133c 8f09 7cbc b0c1 c6bc 2a0f 84bc
00000030: f11e 823c 6a18 01bd 217e babc c725 8f3c
00000040: 38e3 1ebd 6edc 363c c8bd 9f3d 0263 5ebd
00000050: dc2a fcbc dac1 90bc 8900 063b 03c5 2c3c
00000060: 2a33 febc 7649 65bc 59ed b9bc 8931 6ebc
00000070: be78 74ba 66fa 733c 4d5b 42bd 53ca f5ba
00000080: 6b5b 013d 0b13 9c3d 13b1 7cbd 7aa6 bdbb
00000090: 44a5 133b 2c3e b9bc 768d b8bd cf2c 8b3c
000000a0: 2209 093c d418 02bd 4233 c3bb 7d24 283d
000000b0: 92ba 5dbd 0cbe d6bc 2188 5abc 0429 39bd
000000c0: 870e 853d 46dd 483d f8c4 aabb c51d da3c
000000d0: 4057 023d 5d0d 743d 6e85 6abd ec6a 1abd
000000e0: cdcb debc 8fca 80bb f27a c7bc e0ba a63b
000000f0: 5dac f13a 0bc3 003d 6ab1 56bc 6f0f f43c
00000100: 2151 353d 08cb 903c e9d2 0d3c d2a2 20bb
00000110: dd4e b4bb 14b2 67bb c2a3 afbc 0be4 ff3c
00000120: c766 fa3a d594 2ebd 665a 993b c1dd b8bb
00000130: 8306 2dbd ca28 973a f380 dfbc bc6f f9bc
0.05398699 0.019557595 -0.011919287 -0.032654904 0.024289612 -0.0068827886 -0.04078156 0.016901784
0.009003204 -0.015383138 -0.02426228 -0.016120512 0.015883895 -0.031517424 -0.022765221 0.017474068
-0.03879091 0.011160953 0.0779987 -0.05429364 -0.030782156 -0.01767056 0.0020447096 0.010545018
-0.031030256 -0.013994565 -0.022696184 -0.014538177 -0.00093258533 0.014891243 -0.047450352 -0.0018752314
0.031581324 0.0762082 -0.06169231 -0.005787668 0.0022528926 -0.022612654 -0.090113565 0.01698914
0.008363994 -0.03176196 -0.005957038 0.041050423 -0.054133005 -0.026213668 -0.01333812 -0.04520513
0.064969115 0.049039148 -0.005211469 0.026625523 0.03182149 0.059583057 -0.057256155 -0.037699625
-0.02719679 -0.003930397 -0.024350617 0.005088195 0.0018438209 0.031436007 -0.013103822 0.029792516
0.044266824 0.017674938 0.008656242 -0.002451111 -0.0055025653 -0.0035353946 -0.02144039 0.031236669
0.0019104116 -0.042622406 0.004679966 -0.0056416695 -0.04224254 0.0011532542 -0.027283167 -0.030448787

layers.0.norm.weight f4 [80]
00000000: b796 3d3f 8ec5 5f3f 9fc3 663f d1d7 643f
00000010: 1026 4b3f 04e3 4f3f 6d9a 503f 21e8 5d3f
00000020: 1f99 533f 6170 633f 5d94 673f 90cb 683f
00000030: 56da 663f be81 603f b701 4a3f 939f 4d3f
00000040: 7581 3c3f a79b 303f b8b2 603f f578 6d3f
00000050: 5c58 493f 76d0 453f bf2c 4d3f 272d 653f
00000060: 7df3 6a3f 95b8 553f 1e96 623f d50b 4d3f
00000070: 5d4c 703f da2d 473f 6f19 5e3f 6e54 453f
00000080: a553 5d3f c37f 6a3f 3c6b 5b3f cb66 5c3f
00000090: 9944 3f3f 20ed 523f a79d 6b3f 7558 603f
000000a0: 856a 483f f6e7 5a3f 662a 623f 0280 5f3f
000000b0: 443f 5a3f b168 473f 713a 623f 9362 353f
000000c0: 7baf 433f b418 653f 43d9 593f eebc 573f
000000d0: dfd6 623f 360f 5d3f ee36 523f 7565 433f
000000e0: 7fc6 583f daae 573f eaef 5b3f 4644 5b3f
000000f0: 39aa 4c3f f320 5d3f dfe2 5b3f b2af 603f
00000100: 55af 653f fe58 613f e739 4f3f a151 473f
00000110: ba67 4f3f 3d39 573f 70de 5d3f 4393 523f
00000120: 50f1 503f 0c77 4c3f 62be 513f 05f0 553f
00000130: f72d 4e3f 3ed8 653f 2bc9 5e3f f836 673f
0.740581 0.8741082 0.90142244 0.8939181 0.79354954 0.81205773 0.81485635 0.86682326
0.8265552 0.8884335 0.9046076 0.9093561 0.90176904 0.8769797 0.78908867 0.80321616
0.73635036 0.68987507 0.87772703 0.9276269 0.7865045 0.7727121 0.801464 0.8952202
0.91777784 0.83484775 0.8851031 0.8009618 0.9386652 0.7780434 0.8675756 0.77081954
0.86455756 0.916012 0.857105 0.8609435 0.74714047 0.82393074 0.92037433 0.87634975
0.78287536 0.85510194 0.88345945 0.873047 0.85252786 0.7789412 0.88370425 0.7085354
0.76439637 0.8949082 0.8509714 0.8427266 0.8860912 0.86351335 0.82115066 0.76326686
0.8467788 0.8425118 0.85912955 0.8565105 0.7994724 0.863784 0.8589305 0.8776809
0.8972066 0.88026416 0.80947727 0.7785893 0.8101765 0.84071714 0.8666754 0.82255954
0.81618214 0.7986915 0.81931126 0.83569366 0.80538887 0.89783084 0.8702571 0.9031825

layers.0.norm.bias f4 [80]
00000000: a70f 47b9 3bd3 95bb 3e71 323b a549 e3ba
00000010: 3f32 983a abfd 00bb 176e 4abb 82a8 54bb
00000020: e466 c5ba 6f3c 90bb 3639 12ba 6b44 53ba
00000030: 1d0b 0abb 0df3 8b3b e503 c039 660c 523a
00000040: 23a8 a3bb 178d 893b d425 283c ff2d a8bb
00000050: 9b3b 76b9 0583 533a 5af7 ea3b 1431 9dbb
00000060: a175 053c fb97 73ba 3558 ad3b 0e16 12bb
00000070: 0a4f 2fba f292 693b cbfe 4f3b 2a32 a73a
00000080: 030d 063b 80ca 8c3b d0a2 95bb dd40 b3bb
00000090: 3c0b 80b8 9dfb 31bb 0487 21bb 7459 313b
000000a0: 25d1 2abb 10a1 1abc 7223 b0bb 5c06 133c
000000b0: f258 fab8 d9ea 80bb d540 5ebb 80a8 e13b
000000c0: 559d 803b d3e0 2a3a 3e1c a4bb fee3 d03a
000000d0: c954 873b f55d cb3a 6c01 57bc 52e7 7cbb
000000e0: 533c 9dbb d155 113b 9dc5 283c c7e8 08bb
000000f0: 0615 b1bb 89cb f4ba 9d48 ad3b 149d 8c3b
00000100: 9a88 bab9 0e0b e6ba 0c2e 08bc 3611 833a
00000110: 3244 343b 43bc 913a 28fb c83a 694e 163b
00000120: 122d 1dbc 1d76 d4ba 6f7e 2dbb 7a17 8e3c
00000130: c926 ad3a fed7 33bb db4c 583b 03bf 54bb
-0.0001898395 -0.0045723 0.0027228142 -0.0017340673 0.0011611654 -0.0019682448 -0.0030888373 -0.0032449071
-0.0015060571 -0.0044017355 -0.0005577983 -0.00080592063 -0.0021063753 0.0042709173 0.00036623995 0.0008012712
-0.0049944087 0.0041977274 0.010262925 -0.0051324363 -0.00023482593 0.00080685347 0.0071706 -0.0047971103
0.008145721 -0.0009292361 0.005290056 -0.0022290978 -0.0006687498 0.0035640565 0.0031737562 0.0012756039
0.0020454533 0.004296601 -0.004566528 -0.005470379 -6.105608e-05 -0.002715803 -0.0024647126 0.0027061375
-0.0026064601 -0.009437814 -0.005375319 0.008973684 -0.00011937496 -0.003934246 -0.0033913155 0.006886542
0.0039250054 0.0006518487 -0.0050082495 0.0015937088 0.00412998 0.0015515672 -0.013122898 -0.0038590026
-0.004798451 0.0022176395 0.010301021 -0.00208907 -0.0054041175 -0.0018676381 0.005288197 0.004291186
-0.0003557846 -0.0017550902 -0.00831176 0.0009999636 0.0027506468 0.0011118728 0.001533364 0.002293492
-0.009593265 -0.0016209517 -0.0026473065 0.017345179 0.0013210411 -0.0027441974 0.0033004794 -0.0032462485

layers.0.ssm.A_log f4 [80, 64]
00000000: 8e01 9db8 c937 b43e 6479 3e3f 03c0 833f
00000010: 25c9 9f3f f8f2 b63f 7291 ca3f 1090 db3f
00000020: d891 ea3f c1ff f73f 6c12 0240 0c9f 0740
00000030: 6cba 0c40 3775 1140 cfdc 1540 8ffb 1940
00000040: 4ada 1d40 7c80 2140 38f4 2440 b93a 2840
00000050: 6758 2b40 0051 2e40 de27 3140 c8df 3340
00000060: 477b 3640 98fc 3840 bd65 3b40 a2b8 3d40
00000070: a9f6 3f40 3521 4240 6d39 4440 a740 4640
00000080: f037 4840 3220 4a40 4efa 4b40 0dc7 4d40
00000090: 3487 4f40 8c3b 5140 8de4 5240 cc82 5440
000000a0: d116 5640 15a1 5740 1622 5940 3c9a 5a40
000000b0: ed09 5c40 8a71 5d40 68d1 5e40 df29 6040
000000c0: 3a7b 6140 c7c5 6240 c509 6440 7947 6540
000000d0: 1f7f 6640 f2b0 6740 fadc 6840 2604 6a40
000000e0: ca25 6b40 5142 6c40 485a 6d40 406d 6e40
000000f0: 8d7b 6f40 0f86 7040 f08b 7140 908d 7240
00000100: 0f9f e03a 593a b43e 7978 3e3f c883 833f
00000110: ccc8 9f3f ecf2 b63f bf8e ca3f ee8f db3f
00000120: d591 ea3f e8ff f73f 6d12 0240 0c9f 0740
00000130: 6cba 0c40 3975 1140 cfdc 1540 8efb 1940
00000140: 4ada 1d40 7d80 2140 38f4 2440 b93a 2840
00000150: 6858 2b40 0151 2e40 de27 3140 c8df 3340
00000160: 477b 3640 97fc 3840 bd65 3b40 a2b8 3d40
00000170: a9f6 3f40 3521 4240 6d39 4440 a740 4640
00000180: f037 4840 3220 4a40 4efa 4b40 0dc7 4d40
00000190: 3487 4f40 8c3b 5140 8de4 5240 cc82 5440
000001a0: d116 5640 15a1 5740 1622 5940 3c9a 5a40
000001b0: ed09 5c40 8a71 5d40 68d1 5e40 df29 6040
000001c0: 3a7b 6140 c7c5 6240 c509 6440 7947 6540
000001d0: 1f7f 6640 f2b0 6740 fadc 6840 2604 6a40
000001e0: ca25 6b40 5142 6c40 485a 6d40 406d 6e40
000001f0: 8d7b 6f40 0f86 7040 f08b 7140 908d 7240
00000200: 1d7e 563a c132 b43e b875 3e3f 577d 833f
00000210: 68c7 9f3f e5f2 b63f ac8f ca3f ce8f db3f
00000220: d791 ea3f e2ff f73f 6c12 0240 109f 0740
00000230: 6cba 0c40 3a75 1140 cfdc 1540 8dfb 1940
00000240: 4ada 1d40 7c80 2140 37f4 2440 b93a 2840
00000250: 6858 2b40 0051 2e40 de27 3140 c8df 3340
00000260: 477b 3640 98fc 3840 bd65 3b40 a2b8 3d40
00000270: a9f6 3f40 3521 4240 6d39 4440 a740 4640
00000280: f037 4840 3220 4a40 4efa 4b40 0dc7 4d40
00000290: 3487 4f40 8c3b 5140 8de4 5240 cc82 5440
000002a0: d116 5640 15a1 5740 1622 5940 3c9a 5a40
000002b0: ed09 5c40 8a71 5d40 68d1 5e40 df29 6040
000002c0: 3a7b 6140 c7c5 6240 c509 6440 7947 6540
000002d0: 1f7f 6640 f2b0 6740 fadc 6840 2604 6a40
000002e0: ca25 6b40 5142 6c40 485a 6d40 406d 6e40
000002f0: 8d7b 6f40 0f86 7040 f08b 7140 908d 7240
00000300: 8aac e33a de34 b43e 176f 3e3f 9aba 833f
00000310: cdc4 9f3f f9f2 b63f f097 ca3f f68e db3f
00000320: d191 ea3f c0ff f73f 6e12 0240 139f 0740
00000330: 6eba 0c40 3f75 1140 d0dc 1540 8efb 1940
00000340: 4bda 1d40 7b80 2140 37f4 2440 b93a 2840
00000350: 6858 2b40 0051 2e40 de27 3140 c9df 3340
00000360: 477b 3640 97fc 3840 bd65 3b40 a2b8 3d40
00000370: a9f6 3f40 3521 4240 6d39 4440 a740 4640
00000380: f037 4840 3220 4a40 4efa 4b40 0dc7 4d40
00000390: 3487 4f40 8c3b 5140 8de4 5240 cc82 5440
000003a0: d116 5640 15a1 5740 1622 5940 3c9a 5a40
000003b0: ed09 5c40 8a71 5d40 68d1 5e40 df29 6040
000003c0: 3a7b 6140 c7c5 6240 c509 6440 7947 6540
000003d0: 1f7f 6640 f2b0 6740 fadc 6840 2604 6a40
000003e0: ca25 6b40 5142 6c40 485a 6d40 406d 6e40
000003f0: 8d7b 6f40 0f86 7040 f08b 7140 908d 7240
-7.486633e-05 0.3519881 0.7440398 1.0292972 1.248326 1.4292898 1.5825636 1.7153339
1.8325758 1.9374925 2.0323744 2.1190825 2.1988783 2.2727792 2.341602 2.405979
2.4664483 2.523467 2.577406 2.6285841 2.6772707 2.7236938 2.7680583 2.8105335
2.8512743 2.890417 2.9280846 2.964394 2.99943 3.0332768 3.066005 3.097696
3.1284142 3.158215 3.1871524 3.215274 3.2426271 3.2692595 3.2951996 3.3204832
3.3451426 3.3692067 3.3927054 3.4156637 3.4381058 3.4600549 3.4815311 3.5025556
3.5231462 3.5433214 3.5630963 3.5824873 3.6015089 3.620175 3.6384873 3.6565032
3.6741815 3.6915476 3.7086353 3.725418 3.741916 3.7581823 3.774166 3.7898903
0.0017137247 0.35200766 0.74402577 1.0274591 1.2483153 1.4292884 1.5824813 1.7153299
1.8325754 1.9374971 2.0323746 2.1190825 2.1988783 2.2727797 2.341602 2.4059787
2.4664483 2.5234673 2.577406 2.6285841 2.677271 2.723694 2.7680583 2.8105335
2.8512743 2.8904169 2.9280846 2.964394 2.99943 3.0332768 3.066005 3.097696
3.1284142 3.158215 3.1871524 3.215274 3.2426271 3.2692595 3.2951996 3.3204832
3.3451426 3.3692067 3.3927054 3.4156637 3.4381058 3.4600549 3.4815311 3.5025556
3.5231462 3.5433214 3.5630963 3.5824873 3.6015089 3.620175 3.6384873 3.6565032
3.6741815 3.6915476 3.7086353 3.725418 3.741916 3.7581823 3.774166 3.7898903
0.00081822445 0.35194972 0.74398375 1.0272626 1.2482729 1.4292876 1.5825095 1.7153261
1.8325757 1.9374964 2.0323744 2.1190834 2.1988783 2.27278 2.341602 2.4059784
2.4664483 2.523467 2.5774057 2.6285841 2.677271 2.7236938 2.7680583 2.8105335
2.8512743 2.890417 2.9280846 2.964394 2.99943 3.0332768 3.066005 3.097696
3.1284142 3.158215 3.1871524 3.215274 3.2426271 3.2692595 3.2951996 3.3204832
3.3451426 3.3692067 3.3927054 3.4156637 3.4381058 3.4600549 3.4815311 3.5025556
3.5231462 3.5433214 3.5630963 3.5824873 3.6015089 3.620175 3.6384873 3.6565032
3.6741815 3.6915476 3.7086353 3.725418 3.741916 3.7581823 3.774166 3.7898903
0.0017370146 0.35196584 0.7438826 1.0291321 1.2481934 1.4292899 1.5827618 1.7153003
1.832575 1.9374924 2.0323749 2.1190841 2.1988788 2.2727811 2.3416023 2.4059787
2.4664485 2.5234668 2.5774057 2.6285841 2.677271 2.7236938 2.7680583 2.8105338
2.8512743 2.8904169 2.9280846 2.964394 2.99943 3.0332768 3.066005 3.097696
3.1284142 3.158215 3.1871524 3.215274 3.2426271 3.2692595 3.2951996 3.3204832
3.3451426 3.3692067 3.3927054 3.4156637 3.4381058 3.4600549 3.4815311 3.5025556
3.5231462 3.5433214 3.5630963 3.5824873 3.6015089 3.620175 3.6384873 3.6565032
3.6741815 3.6915476 3.7086353 3.725418 3.741916 3.7581823 3.774166 3.7898903

layers.0.ssm.D f4 [80]
00000000: af27 543f 488c 293f 1bee 343f 1be4 5a3f
00000010: b1ad 413f 30ec 353f 4fae 323f bf8d 3e3f
00000020: 5413 333f 67c1 3d3f 3800 433f 565a 463f
00000030: 4031 3a3f 54d3 4f3f 8965 363f 9137 4a3f
00000040: 720e 2f3f 8198 403f d6c7 5b3f 1dff 473f
00000050: dc0b 473f 5b00 3a3f a4f8 2f3f 0958 2b3f
00000060: 8c34 5e3f 2ff6 5f3f 55a9 2f3f da80 463f
00000070: 33be 493f 91c7 343f de8e 4a3f 3c12 383f
00000080: cebb 393f 18c0 593f 8223 413f 98b7 3d3f
00000090: b67c 3b3f c98e 373f 8d97 603f f61a 433f
000000a0: 7864 653f 6803 413f 16e0 303f 14c2 383f
000000b0: 4292 463f 3fdb 433f 5bc0 3c3f bb4e 483f
000000c0: 4279 4e3f 31ed 553f cf9b 2d3f e545 3f3f
000000d0: eda2 2e3f f6b5 593f 177b 683f cb09 483f
000000e0: dbdd 443f 97e4 3e3f a7b9 313f 31a1 2c3f
000000f0: 9789 2a3f e44e 3a3f e2cc 313f 2841 573f
00000100: 4875 383f 73bb 3d3f 6ebe 383f e60d 4f3f
00000110: fc4b 453f 5157 353f 0803 373f ce1f 303f
00000120: 6e48 3b3f d5ce 3e3f da37 323f 8143 3a3f
00000130: 9f1f 3e3f e290 313f 8750 2d3f d215 453f
0.8287305 0.6622968 0.7067582 0.8550431 0.7565566 0.7106352 0.69797224 0.7443504
0.6995137 0.74123234 0.7617221 0.7748159 0.727314 0.81181836 0.7124868 0.7899104
0.68381417 0.752327 0.858518 0.78123647 0.7775247 0.7265679 0.6873877 0.66931206
0.8679893 0.8748502 0.68617755 0.7754036 0.78805846 0.70617014 0.7912425 0.71902823
0.7255219 0.85058737 0.75444806 0.74108267 0.7323717 0.7170225 0.8773125 0.76213014
0.8960643 0.7539582 0.6909193 0.7217114 0.7756692 0.7650642 0.7373101 0.78245133
0.80653775 0.8356505 0.6781587 0.74716026 0.68217355 0.85043275 0.9081282 0.7813994
0.76901025 0.7456755 0.6942391 0.6743346 0.66616195 0.7277663 0.6945325 0.84083796
0.72053957 0.7411415 0.7216557 0.8088058 0.7706907 0.7083636 0.71489 0.6879853
0.73157394 0.7453435 0.6961647 0.7275925 0.74267 0.693617 0.67701 0.7698642

layers.0.ssm.deltaBC_layer.weight f4 [144, 80]
00000000: 0dfb 73bd 40d2 013d e3f6 7cbd f092 60bd
00000010: 723e 6bbd 992a ca3c d851 6ebb 1b72 0f3d
00000020: 1ae6 a4bc e58a 123d 7e8e 3d3d bbfb 3cbd
00000030: e5cb 323c 6a1d 66bd 4e72 0abd 6d2c e2bc
00000040: dec8 c2bc efed 923c 8d42 8cbd fc01 2cbd
00000050: 2810 4e3d 5d6c 62bc 20fb 45bc 8e46 00bd
00000060: f035 093d 5746 7c3d a2aa 56bd 25e3 7ebb
00000070: b8f5 f2bc 4c17 61bd 32f9 7a3c 171b 88bd
00000080: 11f9 79bd 5cc6 173c c2b4 84bd 61c7 0eba
00000090: cfbd 143c cb73 0a3d 4bc8 11bc 1ece 4e3d
000000a0: 30b3 74bd 84d7 50bd a9c5 78bc ab1f 35bd
000000b0: 9704 4d3d 481e 88bd 9ac1 003d bc4f ccbc
000000c0: b35d a1bc 00e1 a33c ce4e 5cbd 50e3 8dbc
000000d0: 8a54 19bc d2ac 0f3d e049 db3c fe38 03bd
000000e0: 55f2 83bd a1b7 9ebc 5b18 55bb 9bbe 2d3d
000000f0: 1750 03bb 4064 483c 3343 2ebc d4bb f13c
00000100: f30d 893c e2c9 363d 4f83 e93c 35d9 6d3d
00000110: 8a1a c73c 3d57 4d3d 10a3 b03c d2ff 7dbd
00000120: d418 67bd 5f4d 793d 7f54 2abc dead 74bd
00000130: 70eb ebbb d58d 19bc eb35 50bc c4fd cf3c
00000140: 8d9d b43c 35b0 ea3b fb8f c53c a605 9a3c
00000150: 285e aabc 6d82 05bd e608 1abd 2f84 8c3c
00000160: 4e80 833d 0f7d 2b3d 8c38 953d 4fb6 923d
00000170: 3461 913d 7b05 223d af73 61bd f1bb 403d
00000180: e40d 153d 668f e1bb e6f8 dd3c 7603 c9bc
00000190: 25ae 443d df15 4d3d dbce 42bd 7115 d0bc
000001a0: 5cbd 45bd 0ab9 963d 309a 3f3d 8cb0 243d
000001b0: 3bf9 01bd 503f 2b3d 3ba5 8c3d 3343 62bd
000001c0: 347f 19bc 239a cdbc aa2a 593d 31d6 a13d
000001d0: 610f af3c 590a 713d e7d0 853d 4200 ae3c
000001e0: d41e 71bd 8a84 8abd a3a5 153d e8e3 673c
000001f0: 4b6b 713d 6b42 fc3c 6960 5e3d bce0 093d
00000200: b069 143d 7406 fdbc 9d64 353b c68f 60bd
00000210: cd4b 763d b92d de3c 6b51 15bd 79da 79b9
00000220: 8db7 5f3d 5347 1a3d c2f4 b2bc 8d48 ac3c
00000230: a5d3 833d b55b adb9 acfa b5bb 1736 28bd
00000240: f42b 0cbd fde5 3bbd b29e 4cbd 1c37 993c
00000250: e3ef 513d 25f8 2e3d 1780 9bbc d71e cfbc
00000260: be0e ce39 25d3 19bd 25f0 5c3d 5183 35bd
00000270: a2f2 9ebc 5b85 c33c bf85 293d 5441 b43c
00000280: cdef c83b 229a 003b 6f53 c0bc 2ab6 bc3b
00000290: 9658 cbbc a339 913b 5cee 45bc 9299 abbc
000002a0: dc0d b03b c752 fdbc 0e96 963c 396c 12bb
000002b0: fb21 5e3c ff33 8dbc a3f1 acbc 27f9 94bc
000002c0: a521 613b 6b2b f43c 5c87 8bbc fe7b c0bc
000002d0: ac72 bebc add4 9f3b f036 743c 65a1 96bb
000002e0: 3758 e6bc b299 39bc ab1e 49bc 07ee 86bc
000002f0: d1eb f3bb 8c04 613c c837 c8bc 9944 9bbc
00000300: 00d6 8dbc 5a22 e2bc b46b 2b3d 55ef a73c
00000310: 9835 c03c c9d9 7b3c ff0f a8bc bbc8 833c
00000320: b778 283d 0aa0 22bc c845 5a3c 4716 8f3c
00000330: 8826 e9bc 7fd8 b03b a00e ff3c 0188 a93c
00000340: 3f54 163c 7986 713b 9de3 b53c 9076 9a3c
00000350: 47ed ba3b 666c b7bc f150 943c af26 d63b
00000360: 7eca 1ebd 4b39 ab3c e544 f83b 3b9f 9dbc
00000370: c08a fb3c 135a 01bd 8873 0a3d 8140 76bc
00000380: f504 1f3c e53f 063d 02b0 2fbb c8e2 133d
00000390: 272d e13c 5191 4c3c 6892 afbc b75a 78bc
000003a0: ffb1 2b3c aafc a63b 3c09 32bc 844e 24bc
000003b0: 658f ca39 fef6 963c 9d7f f93c 1ab4 7b3c
000003c0: 8015 aebc 0385 4dbd 5e6e 13bd b9d5 81ba
000003d0: 06a5 633c 39b6 1abd 4a94 1e3c 574b b23c
000003e0: d9de 113d ecdf 093c 26dd 0b3d d7aa 283d
000003f0: 8567 38bd e62e fe3c f9e3 7b3c 3c33 03bd
-0.059565593 0.03169465 -0.061758887 -0.05482763 -0.0574326 0.024678515 -0.00363647 0.03502093
-0.020129252 0.03577699 0.04627847 -0.046138506 0.01091287 -0.056180395 -0.033800416 -0.027609074
-0.023777422 0.017935721 -0.06848631 -0.04199408 0.050308377 -0.013819781 -0.012083799 -0.031317286
0.033498704 0.06159052 -0.052408822 -0.0038892713 -0.029658183 -0.05495386 0.015318202 -0.06645792
-0.061028544 0.009263601 -0.06479789 -0.000544658 0.009078457 0.033801835 -0.008897851 0.050489537
-0.0597412 -0.05098678 -0.015183845 -0.044219654 0.050053205 -0.06646401 0.031434633 -0.024940364
-0.019698 0.02000475 -0.05378609 -0.017320305 -0.009358535 0.035076924 0.026768625 -0.032036774
-0.064427055 -0.01937467 -0.0032515738 0.042418104 -0.002003675 0.012230933 -0.010636139 0.029508509
0.016730284 0.044626124 0.028504996 0.058068473 0.024304647 0.050132025 0.02156213 -0.062011547
-0.056420162 0.060864802 -0.010396122 -0.059736125 -0.007199697 -0.009372194 -0.012708168 0.02538956
0.022047782 0.007162119 0.024116507 0.018801522 -0.02079685 -0.032595087 -0.037606142 0.017152874
0.064209566 0.041867312 0.07286176 0.07163679 0.07098618 0.039556008 -0.055041965 0.047054235
0.0363902 -0.0068835495 0.027096223 -0.024537783 0.04801764 0.050069686 -0.047560554 -0.025400849
-0.04827629 0.07359512 0.046777904 0.04020743 -0.031731825 0.041808426 0.06867453 -0.055239867
-0.0093687065 -0.025097912 0.053019203 0.07902182 0.021369638 0.05884776 0.065339856 0.021240357
-0.05886729 -0.06763561 0.036534917 0.014153458 0.058940213 0.03079339 0.054291163 0.03366159
0.036233604 -0.030886866 0.0027678378 -0.054824613 0.060130883 0.027121412 -0.0364546 -0.00023827878
0.054618407 0.037665676 -0.021845225 0.021030689 0.06436852 -0.00033065458 -0.005553564 -0.04106721
-0.034221604 -0.04587363 -0.04995603 0.018703036 0.051254164 0.042717118 -0.018981976 -0.02528326
0.00039302366 -0.03755488 0.053939957 -0.044314686 -0.019402806 0.0238673 0.041387316 0.022003807
0.006132102 0.001962312 -0.023477284 0.0057590203 -0.024822515 0.0044319197 -0.012080755 -0.020947251
0.005372746 -0.03092326 0.018382099 -0.0022342338 0.013557906 -0.017236708 -0.021111315 -0.018185211
0.003435233 0.02980586 -0.017032318 -0.023496624 -0.02324804 0.004877648 0.014905676 -0.0045968764
-0.028118236 -0.011328148 -0.012275378 -0.016470922 -0.007443883 0.013733994 -0.024440661 -0.018953608
-0.017313957 -0.02760427 0.04185076 0.020499865 0.023463055 0.015371748 -0.02051544 0.016086927
0.041130748 -0.009925852 0.013322301 0.017466677 -0.028460756 0.005396902 0.031134903 0.020694735
0.009175359 0.0036853834 0.022203261 0.018855363 0.005704555 -0.022390556 0.018105002 0.006535373
-0.03876733 0.020901343 0.0075765722 -0.019240966 0.03070581 -0.031580042 0.033801585 -0.015030027
0.009705772 0.03277578 -0.002680779 0.036104947 0.02748735 0.012485818 -0.021432117 -0.015158347
0.010479449 0.005096038 -0.010866459 -0.010028485 0.0003863528 0.018428322 0.030456359 0.015362764
-0.021250486 -0.050175678 -0.035993926 -0.0009905613 0.013894325 -0.037771437 0.00967891 0.02176444
0.035612915 0.008415204 0.03414645 0.04117855 -0.0450206 0.031028222 0.015374177 -0.032031283
