vim_model.pth (torch, 834518 bytes, 71 tensors)

cls_token f4 [1, 1, 80]
000000 17 08 35 bf 23 07 ea 3f d0 61 64 be 08 e4 76 bf
       -0.7071547 1.8283428 -0.22302938 -0.964417
000010 df 9b b5 be 97 28 b3 be dd 49 01 3f df 64 1a bf
       -0.35470483 -0.34991905 0.5050333 -0.6031017
000020 bb 30 1c 3d 9c c2 b5 3f 3e 35 9a bd ad 81 e3 bf
       0.03813241 1.4200015 -0.075296864 -1.7773949
000030 a2 7c 95 3f 3b 24 9d 3e 55 48 58 bf fa 4d 92 bf
       1.167866 0.30691704 -0.8448537 -1.1430047
000040 25 2f 46 be 42 e7 6f bf 30 fb cd be 3a ab f8 3e
       -0.19353922 -0.93712246 -0.40230703 0.48568135
000050 8d 91 78 3e 1a 93 49 bf ba e0 9b bf aa 3f 7f bf
       0.24274273 -0.78740084 -1.2177956 -0.9970652
000060 8a ee 7a 3e cd 82 95 bf 0b 40 12 c0 68 e6 af 3e
       0.24505058 -1.1680542 -2.2851589 0.34355474
000070 e1 25 e8 be fd 78 b0 bd ce be 15 3f 89 ec 8c bf
       -0.453414 -0.08616827 0.5849427 -1.1009685
000080 ea c5 a9 3f 98 d7 08 3e 07 bf 4f 3e cf b9 7b be
       1.3263524 0.13363492 0.20287715 -0.24582599
000090 99 14 13 40 4a 6d 75 3f 68 0e 85 be af c9 85 3f
       2.2981322 0.95869887 -0.25987554 1.0452174
0000a0 13 86 46 3f 8c 99 25 3f 9a 4c 56 3e 68 dd e5 3f
       0.7754833 0.6468742 0.20927659 1.7958193
0000b0 86 e1 c6 3e e5 07 dd bf 23 38 6f bd 48 a6 9a bf
       0.38843936 -1.7268034 -0.058403146 -1.2081995
0000c0 1a d3 ee 3d 34 2f c1 bf f2 89 b4 bf a9 08 30 3f
       0.11661358 -1.509253 -1.4104598 0.68763214
0000d0 cd ee 8f bf c9 f0 94 bf f2 3b b3 3f 5e f7 04 40
       -1.1244751 -1.1635982 1.4002669 2.077598
0000e0 be 8e f5 bc 44 09 ca bf 92 43 d4 3e 75 8e ee 3f
       -0.029975291 -1.5784078 0.41457802 1.8637224
0000f0 19 7e 82 bc bd 6a 32 40 ec 85 5c bf 33 6d 3b 3f
       -0.015929269 2.7877648 -0.8614185 0.732135
000100 e8 6f 04 bf 75 9e d9 bd 48 0d cb 3f ab de 5a be
       -0.51733255 -0.106259264 1.5863428 -0.21374004
000110 dc 05 06 3f b2 4b 6d bf 85 24 7c 3f 56 ba 99 bf
       0.5235269 -0.92693627 0.98493224 -1.200999
000120 c4 fa a6 3e 28 5a 32 3f c8 7b 0d bf 6e 69 76 3f
       0.32613194 0.6966882 -0.55267 0.9625462
000130 4a 23 bc bf ce 70 aa bf 42 e1 05 40 bf 86 69 bf
       -1.4698269 -1.3315675 2.0918736 -0.9122123

to_patch_embedding.1.weight f4 [80, 169]
000000 9e 7e 83 3c 32 2f 5d bc 1c e0 dc bb f1 8b 55 3d
       0.016051587 -0.013500022 -0.006740583 0.05213541
000010 18 88 89 bd 77 c9 13 bc fb 93 bd bd 92 87 7b bd
       -0.06715411 -0.009020201 -0.09256741 -0.061408587
000020 bf 37 bf bd 46 55 ea bc ee d3 36 3d e1 ed 90 bd
       -0.093368046 -0.028605115 0.044635706 -0.07076622
000030 0e 27 4a bc a1 b9 f3 3b b6 28 72 bb 67 81 4c 3d
       -0.012338413 0.0074379 -0.0036950535 0.049928095
000040 e5 b1 67 3d f7 f1 93 bd e1 e4 16 bd c0 ff ad 3c
       0.056566138 -0.072238855 -0.03683937 0.021240115
000050 8b 69 b5 bd ad bd 69 3d 65 5e 93 bd 6d 4c 2b 3c
       -0.08858021 0.057065655 -0.07195739 0.010455233
000060 50 a6 09 bd 09 61 46 3d f6 c6 6b 3d b3 4f 03 3c
       -0.033605874 0.048432384 0.05756279 0.008014607
000070 d7 59 11 bd ef 8d b9 3a 43 8d 1d 3c 83 e1 cc 3c
       -0.03548607 0.0014156679 0.009616199 0.025009876
000080 0a 09 67 bb d8 7b 75 3d 99 e9 71 bc 82 45 18 bd
       -0.003525319 0.05993256 -0.014765167 -0.037175663
000090 5e 0b 60 bd 01 f2 20 3d d5 a0 91 bc f0 d3 1f bd
       -0.05469834 0.039293293 -0.017776886 -0.03902048
0000a0 0d d9 74 3c f3 4e 3d bd 86 fb 19 3d 49 f5 8b 3d
       0.014944327 -0.04621787 0.037593387 0.06833894
0000b0 da b5 e4 bc 8c 12 1f bd aa 32 2d bb 5e ac ca ba
       -0.027918745 -0.038836047 -0.0026427903 -0.0015462746
0000c0 a3 2d 40 3a c0 af 81 bb 21 4c 8c bd a3 f0 eb 3b
       0.0007331019 -0.0039577186 -0.06850458 0.007200317
0000d0 25 9f 34 bd bc 56 86 3a 12 26 8b 3d e3 e6 1a 3d
       -0.044097085 0.0010249238 0.06794371 0.037817847
0000e0 15 d4 a8 bd 75 d2 2b bd 89 c9 62 3d b5 ab 6f 3d
       -0.082435764 -0.041948754 0.05536798 0.058513362
0000f0 64 58 86 bc 71 05 9a bd 95 16 31 3a c1 0f 29 3d
       -0.01639957 -0.07520569 0.0006755379 0.04127479
000100 34 88 6f bd 18 5c 92 bd 15 38 98 3c b2 8d e4 bc
       -0.058479503 -0.07146472 0.01858143 -0.027899597
000110 ba 53 13 3d da 1d 0c bd 96 cd 1e 3d 45 a8 a6 bd
       0.03596852 -0.034208156 0.03877028 -0.081375636
000120 44 8d 82 bb e0 cc 5f bd 1f 65 2f 3c 0a ac d0 bc
       -0.0039841253 -0.054638743 0.0107052615 -0.02547266
000130 b0 fa 49 3c e8 5c 45 bb 14 d0 88 bd e7 f8 4e bc
       0.012327835 -0.003011519 -0.06680313 -0.012632585
000140 62 c0 6b bd db d9 b6 3c f1 61 a3 3b 5a 83 31 bc
       -0.057556517 0.022320678 0.0049860408 -0.010834539
000150 91 77 3e 3d c0 c3 37 bd 67 09 45 3d d4 22 4e bd
       0.046500746 -0.044864416 0.04810467 -0.050326183
000160 51 a9 4e bd bc ba a7 3d 93 b9 14 bd d1 ee b7 bb
       -0.05045444 0.08189914 -0.03630979 -0.005613186
000170 f4 ca 8f 3d 02 ca bc 3c fe b9 eb 3c 15 52 54 3c
       0.07021132 0.023045544 0.028775211 0.012959023
000180 60 86 73 bd 3d cd b2 bd c7 2d 89 3d c8 35 91 3d
       -0.05945432 -0.08730552 0.066981845 0.07090336
000190 47 9a 62 3d fd a8 83 3d fa e7 ac bc 42 5c ef bc
       0.05532291 0.06428716 -0.021106709 -0.029218797
0001a0 56 0d 5e bd f5 a4 fe bb 25 36 52 bd 8a 6c 99 3b
       -0.054211937 -0.0077711293 -0.051321167 0.0046821283
0001b0 86 7e ce bc aa 80 54 3d c9 5b 80 3d 52 ca 37 3d
       -0.025206815 0.051880516 0.06267507 0.044870682
0001c0 d7 e2 6f bc 7e 1e 6e 3a 59 0d f9 3c 4f f2 f6 3c
       -0.014641485 0.0009083523 0.030401872 0.030144839
0001d0 c0 52 1d 3d af 58 57 bd 32 01 0c bd 93 72 5f 3d
       0.038408995 -0.05257481 -0.034180827 0.054552626
0001e0 4e 10 ab bb 2e e6 c5 3c be e3 19 3d df 12 2f 3d
       -0.0052204495 0.02415761 0.037570707 0.042742606
0001f0 51 a7 8d bc 50 ab 16 bd 99 72 fa bc 5a 8c f5 bc
       -0.017291697 -0.03678447 -0.030572223 -0.029974151
000200 3d d8 38 3d 3b 05 17 bd 93 ef 08 bd c7 b8 4c bd
       0.045128096 -0.036870223 -0.0334316 -0.049980905
000210 06 4c 9c bc 98 1c bc 3c ab 5c 9c 3d 7c 55 5e bb
       -0.01907922 0.022962853 0.076348625 -0.0033925464
000220 d8 4d 89 3d 2b 82 49 bd 53 39 18 bd 20 c0 7c 3d
       0.06704301 -0.049196403 -0.037164044 0.061706662
000230 67 e5 88 bd 88 33 63 3a a4 e2 6f 3d c1 33 9a 3c
       -0.0668438 0.00086670415 0.05856575 0.018823506
000240 fe c9 26 3c 28 dd b8 3d 1b 1b f2 3c 4b 3d 8d 3c
       0.010179995 0.09026557 0.02955394 0.01724114
000250 a1 9a 19 3d 80 5f d1 bc 25 d2 6b 3c af 54 7d 3c
       0.03750098 -0.025558233 0.014393364 0.015462085
000260 96 47 c0 bc 44 ff 73 bd c1 a4 31 3d e7 c2 65 bb
       -0.023471635 -0.059569612 0.043370012 -0.0035058798
000270 a9 af 1f bd bd 77 58 bd 9f 8b be ba 11 a0 84 3c
       -0.038985882 -0.052848566 -0.001453746 0.016189607
000280 0c 70 4b bd 1d f5 cf 3c f0 ee 2d 3d 6a 3e 63 3c
       -0.049667403 0.025385434 0.042464197 0.013869861
000290 6a 6a 78 3d 8f 90 aa bd 9b e0 bc ba f5 97 b7 3d
       0.06064836 -0.083283536 -0.0014410199 0.089645304
0002a0 28 af ee bb 5c 21 77 bd b3 8e 77 bd eb 26 13 bc
       -0.007284064 -0.06033455 -0.060438823 -0.008981447
0002b0 ee 7c 84 3d cb 09 14 3d 95 66 d9 bc ea 77 17 bc
       0.06469141 0.03614215 -0.026538173 -0.009244898
0002c0 6e f9 c9 bc d3 29 0d bd f0 d0 69 bd 3c bb 86 bd
       -0.02465507 -0.034463715 -0.057084024 -0.06578681
0002d0 b7 4a e1 bc ef aa 0f 3c 0b a1 74 bd 49 e5 74 3d
       -0.027501447 0.008768781 -0.059723895 0.059788976
0002e0 63 38 dd 3c 8a 04 38 bc 82 97 b8 3c f8 84 09 ba
       0.027004426 -0.011231551 0.022533182 -0.0005245949
0002f0 df 5b 3e 3b 52 05 0e ba bf ef ae 3b 55 24 46 3c
       0.0029046459 -0.0005417663 0.0053386386 0.012093623
000300 5c e2 6b 3d 4c 7a 66 bd fa ec 37 3d 14 04 c5 3c
       0.05758892 -0.056268975 0.044903733 0.024049796
000310 96 2e 59 bc 41 9c 84 bd e7 2d 9e 3d 0c 6d 65 bd
       -0.013255736 -0.064751156 0.07723599 -0.0560122
000320 dd 4b a6 bc 0a 24 5a bb 34 f5 a2 3d 4c 18 2f 3b
       -0.020299846 -0.003328564 0.07956925 0.0026717363
000330 81 ea 96 3c 1a b8 64 3c f5 9b b7 bd 23 ca 1a bd
       0.018422367 0.013959909 -0.08965293 -0.03779043
000340 64 ae 82 bd 54 a4 03 3d 86 6d 90 3d b7 25 54 bd
       -0.063809186 0.032139137 0.0705214 -0.05179378
000350 09 14 71 bc 67 ba 18 bc 58 15 2a 3c 79 2f b1 3c
       -0.014714249 -0.0093217855 0.010381065 0.021629082
000360 91 25 81 bd b3 64 09 3d 73 8e 2f 3c 64 75 cb 3c
       -0.06305993 0.0335433 0.010715115 0.02483625
000370 8e a7 90 3c 43 7f 96 3d e2 f0 e4 bc ef 18 48 3d
       0.017658021 0.07348492 -0.027946893 0.048851904
000380 01 fc 8d 3c 2e 90 7b bd e7 d9 4c bd 48 bf 40 3c
       0.017332079 -0.061416797 -0.050012495 0.011764355
000390 d7 a5 85 3c 66 9b f5 3c cf 01 f9 bc 88 91 00 bd
       0.01631443 0.029981326 -0.03039637 -0.03138879
0003a0 04 d7 09 bd bd 4c 98 3a ec 8e 06 bd 5d 5b 87 3d
       -0.03365232 0.001161955 -0.032851145 0.06609223
0003b0 00 50 55 bd 25 f4 69 3d c9 99 98 3c c4 be 4a bc
       -0.052078247 0.0571176 0.018628018 -0.012374584
0003c0 2a d4 90 bc 44 6a 26 3c 32 0c 16 bd f4 eb 26 bd
       -0.017679293 0.010157172 -0.036632724 -0.040752366
0003d0 4f c8 a6 bd b2 0f 22 bd 63 46 5e bc 86 5e aa bb
       -0.081436746 -0.03956575 -0.013566586 -0.0051992564
0003e0 70 1b 7e bd f3 d9 4f 3d f7 52 6f bd 1e c3 24 3d
       -0.062037885 0.050744962 -0.05842873 0.04022514
0003f0 54 c7 bd 3c 7f 3d c1 3b c7 83 9f 3b 69 e7 6a bd
       0.023166336 0.0058972235 0.004868004 -0.057349596

to_patch_embedding.1.bias f4 [80]
000000 39 1d 97 3c 32 0c 4c 3d 11 1b 91 bc a0 e4 7c 3d
       0.018446552 0.049816318 -0.017713102 0.06174147
000010 36 5e 2b bd ef 29 2a bc b0 51 7c bd 9f ca ec bc
       -0.041837893 -0.010385974 -0.06160134 -0.028905211
000020 ea e9 42 3d 44 cc 84 bd 99 88 83 bd 63 ea 80 bd
       0.04758636 -0.06484273 -0.06422538 -0.06294706
000030 a2 b5 61 bc a7 0b 0c bd a5 9e 88 bb 89 ec 91 3d
       -0.013776215 -0.0341908 -0.0041693025 0.071251936
000040 20 29 2a bd 38 e4 44 bd e5 c0 0f 3c 44 e3 e4 39
       -0.041543126 -0.04806921 0.008774017 0.00043656875
000050 85 08 2c bd 1b f2 fc bc 8c 07 88 3d 63 85 24 bc
       -0.042000312 -0.030877164 0.066420645 -0.0100415675
000060 2a 26 3f 3d e3 20 6f bc c2 87 ac ba 55 87 8e 3c
       0.046667255 -0.014595243 -0.0013163018 0.017398516
000070 f8 08 ea 3b 54 0b 0a 3c 10 e7 90 3d 6e fa 83 bd
       0.0071421824 0.008425552 0.07075322 -0.0644425
000080 a4 3f 84 bd 60 0c 92 b9 2b d8 c9 3c bb 36 ef 39
       -0.06457451 -0.0002785651 0.02463921 0.0004562641
000090 10 5d 88 3c f0 01 e4 bb 87 31 82 3d ea 00 c4 bc
       0.016645938 -0.006958239 0.06357103 -0.023926217
0000a0 79 9b a1 3c dd 51 c1 3c b4 6b 65 bd 8e 55 4e 3c
       0.019727455 0.023598606 -0.056010917 0.01259364
0000b0 bd 38 3a bc 3b b6 8c bc 3b 59 7a 3d ca 9f ad 3b
       -0.0113660665 -0.017176738 0.061120253 0.0052985894
0000c0 33 3e 07 3d 83 6a 4c 3d 05 c6 b6 bb 57 0b 09 bd
       0.033018302 0.049906265 -0.005577805 -0.03345808
0000d0 25 d4 65 bd 5c a6 13 3d 3d 49 f2 bc 02 ef 79 3d
       -0.05611052 0.036047325 -0.029575938 0.06101895
0000e0 26 e4 4c 3c 87 7f 00 bd dc 99 8a 3c 46 16 65 ba
       0.012505567 -0.03137162 0.016919069 -0.0008738976
0000f0 ed 4d b4 bc 32 dc 64 3d 3d 8b 90 bc 4e a6 5a 3d
       -0.022009814 0.055874057 -0.017644519 0.053381257
000100 fc 1c 63 3d 0a 70 3e bc aa 03 17 3c 37 82 2b bc
       0.055447564 -0.011623392 0.009217182 -0.010468057
000110 d0 63 59 3d 9d f0 b1 bc 69 7a 6b 3d bf e1 0a 3d
       0.053073704 -0.021721179 0.057489786 0.033906695
000120 0f c5 ef 3b b3 df 7e 3d a2 40 74 3b 6f 0d 62 3c
       0.0073171924 0.062225055 0.003726997 0.013797148
000130 42 0c 6e bd d7 0d 50 3c 0e 05 66 bd dc 3a 1d bc
       -0.05811716 0.012698612 -0.056157164 -0.009596553

layers.0.forward_conv1d.weight f4 [80, 80, 1]
000000 c0 4b 1c 3d 59 0d 82 bd 60 de 52 bc 87 2d aa 3b
       0.03815818 -0.06350202 -0.012870401 0.0051934156
000010 d0 d2 d9 3c 17 27 ba bd b9 a9 ff 3c d2 e8 46 3d
       0.026589781 -0.09089487 0.03120886 0.04856188
000020 e4 42 86 3c 54 3f d3 3d 6e 10 13 3c ec 73 10 3d
       0.016389318 0.10314813 0.008976085 0.0352668
000030 7f 9b 12 bd 37 00 69 bd 11 3c 82 3b 91 38 3f bc
       -0.035792824 -0.05688497 0.0039744456 -0.011671201
000040 d7 59 c6 3c 36 0b 47 bd e0 d7 b5 3c 7f 0c c2 bd
       0.02421276 -0.048594676 0.022197664 -0.0947504
000050 45 d5 36 ba 06 1a bb 3b f6 e0 43 3d 0e bc 89 3d
       -0.00069745287 0.0057098893 0.04782196 0.06725322
000060 7a 89 90 3d 98 bc 18 bd be de e7 3c 51 19 82 3d
       0.070574716 -0.037289232 0.028304454 0.06352485
000070 b3 0d aa bb e7 6a 9f bd 6f a1 17 bd e9 72 13 bd
       -0.0051896214 -0.07784062 -0.03701919 -0.03599826
000080 a8 5d 03 3d e7 72 05 bc da 2e 4b bb 10 03 d7 bb
       0.03207174 -0.008145071 -0.0031003268 -0.0065616444
000090 f7 da 75 3d d2 cf be bc e4 38 8a 3c 0b 99 97 bd
       0.060023274 -0.023292456 0.01687283 -0.074022375
0000a0 b2 5f b3 bc b1 c9 19 bd dc b7 90 bd e8 ea a7 3a
       -0.021896217 -0.037545864 -0.070663184 0.0012811096
0000b0 5e f8 4b 3d 54 68 9e 3d db c2 cf bd d6 65 ab 3c
       0.04979741 0.07734743 -0.101445876 0.020922583
0000c0 a2 aa 1c bc 98 33 aa bc 7c 7e 80 bd a5 5d 86 3d
       -0.009562166 -0.020776555 -0.06274125 0.0656083
0000d0 a2 5b 67 bd 8d 4f 4e 3d 38 eb 96 bd 90 0d 8d 3d
       -0.056483872 0.050368834 -0.07369083 0.068873525
0000e0 9d 30 ab 3d 8d 2a 1f bd de a5 94 bd 2b 40 04 bd
       0.083588816 -0.03885894 -0.07258199 -0.032287758
0000f0 f4 f9 5f 3d d3 0a b1 bc 4c 1b a7 3d b2 35 fc bc
       0.054681733 -0.021611607 0.08159503 -0.030787323
000100 62 98 9c bd b6 bc 92 3d ee 4f 80 3d c6 13 4a 3d
       -0.07646252 0.071649 0.062652454 0.049335264
000110 67 ad a4 3d e7 e1 9d 3d 41 f2 0b 3c 8a 38 b0 3d
       0.08040886 0.07709103 0.008541645 0.08604534
000120 c3 63 6e bc fe 12 83 bc 5d 69 41 3d 55 99 d4 bc
       -0.014550152 -0.016000267 0.047219623 -0.02595202
000130 13 78 71 3d 1b 29 bf bb 7a 99 91 3d 5f ff 87 bc
       0.058952402 -0.0058337576 0.071093515 -0.016601263
000140 d2 44 b9 bd 7b 96 b6 3d 57 f4 b5 3d 73 d8 ac 3d
       -0.090463296 0.089154206 0.08884495 0.08439722
000150 d7 5c 16 bd 77 27 de bc cd 69 8d bc 35 ef ae bd
       -0.036709633 -0.027118428 -0.017262364 -0.08541719
000160 1b 60 93 bd c5 aa 57 3c a3 20 a7 3b 4b 2b f8 bc
       -0.07196065 0.013163273 0.005100326 -0.030294081
000170 64 77 87 bd c2 d8 67 bd d7 9e 7f bd c7 59 dc 3c
       -0.06614569 -0.0566032 -0.06240734 0.026898278
000180 72 f2 98 3d 12 cf cd bb 82 b5 50 3c 3a 4d 03 3d
       0.07468118 -0.006280788 0.012738587 0.03205607
000190 96 95 cf 3d a3 ff d6 3d 11 7d a3 bd 5c 72 fe bc
       0.10135953 0.104979776 -0.07982839 -0.03106039
0001a0 0b c0 1f 3d cf 7b b4 bd e4 c0 15 bd 21 23 bb 3d
       0.039001506 -0.08812677 -0.036560908 0.0913756
0001b0 26 f6 8d bd 88 28 c7 3d 9b 44 e5 3d 3f 6d 2d 3d
       -0.06931715 0.097245276 0.11194726 0.042340513
0001c0 79 ae 98 3d c7 88 36 3b 10 a8 9b bd 80 d2 90 bc
       0.07455153 0.0027852522 -0.07600415 -0.0176785
0001d0 a9 cd fc bc 6a a6 19 bd b8 d3 1c 3d 78 fc 02 3d
       -0.030859785 -0.03751222 0.03828785 0.031979054
0001e0 bf f6 db bb 5a bc a4 3d b7 91 a1 bd e1 90 a2 3d
       -0.006712764 0.08043738 -0.07889121 0.0793779
0001f0 ee da e0 3d 8e d0 eb bc 4e 20 88 bd 56 82 a6 39
       0.109792575 -0.02878597 -0.06646787 0.00031759095
000200 2b bb e5 3c 80 5e cc 3d 0e 0e 9e bd 73 2f 44 3d
       0.02804335 0.09978962 -0.077175245 0.047896814
000210 13 56 42 bc 9f fa 95 bd 78 a1 88 bd 01 7b 71 3d
       -0.011861342 -0.07323193 -0.06671423 0.058955196
000220 9b 70 e1 3d bb e0 a1 3c 2e 75 f6 bc 0b 0d ab bd
       0.11007806 0.01976048 -0.030085173 -0.08352097
000230 1c 91 3a 3c 9f 2f 9d 3d fe b7 b1 3d 75 2e 75 ba
       0.011387136 0.07675099 0.08677672 -0.0009352931
000240 13 63 1d 3d d9 42 b4 3d c5 d9 62 3b a1 e8 b1 bd
       0.038424563 0.08801813 0.0034614664 -0.086869486
000250 f8 82 af bd ef c8 2f bd a6 c8 9b 3c d7 45 11 3d
       -0.08569902 -0.042916235 0.019016575 0.035466995
000260 a1 5b 30 3d 60 57 71 bc 7c 9f 19 bc ca c9 c0 3d
       0.043056134 -0.0147303045 -0.009376403 0.09413488
000270 e1 6e 9f bd c8 16 e4 3c 40 a6 31 3c fe 41 a3 bd
       -0.0778482 0.027842894 0.01084286 -0.079715714
000280 c6 a9 b2 bd 96 33 59 bd 1f e3 da bd 01 9d ea bc
       -0.08723788 -0.05302771 -0.10687851 -0.028639318
000290 dc 9c 04 bc 3c e7 68 bd 21 b6 ad bd c5 eb d0 3c
       -0.008094039 -0.056861147 -0.08482004 0.025503049
0002a0 8e a4 6b 3d 2b f6 2a 3d ab 24 38 bd fd eb c9 3d
       0.05752998 0.04173867 -0.044956844 0.09859464
0002b0 5a 5c 9c bd ac 7a 30 bd 9a 6b 5d 3d e5 59 4c 3d
       -0.07634802 -0.04308574 0.054057695 0.049890418
0002c0 b5 57 3b 3d 20 c8 80 bd 92 da f7 ba d9 c6 a2 bc
       0.04573794 -0.06288171 -0.0018909744 -0.019870209
0002d0 89 6f cf bd bd 0a bb bd 61 e5 74 3d c0 0f 84 bd
       -0.101286955 -0.091329075 0.059789065 -0.064483166
0002e0 79 e1 ab bd 79 a3 d5 3c 2d e2 9c bd 31 bf ad 3c
       -0.08392615 0.026078926 -0.07660327 0.021209331
0002f0 a3 1c 2a bd 85 5a 03 bd 2e 6d 88 bc 3e c5 c8 bd
       -0.041531216 -0.032068748 -0.016653623 -0.09803246
000300 13 8d 43 bd 31 29 5e 3d c8 8d d8 3d 49 5d c1 bb
       -0.04774196 0.054238502 0.105739176 -0.005901013
000310 94 35 80 3d ab c5 e7 3c de 38 f0 39 6f f6 34 bd
       0.06260219 0.028292498 0.00045818737 -0.04418033
000320 39 59 15 3d d8 11 bc bd 99 39 db bc 24 34 79 bc
       0.036462042 -0.09183091 -0.026760863 -0.015210185
000330 88 b5 51 3c 50 15 52 bd 28 15 88 3d 5c 5c 8d 3c
       0.012799628 -0.051289856 0.0664466 0.017255954
000340 45 71 73 bd 99 6f 99 bd 2f a5 44 bd e8 87 e1 bd
       -0.059434194 -0.07491989 -0.048009094 -0.1101225
000350 93 ef 9e bd 7e 64 98 bd af 04 77 3c ea 35 4c bd
       -0.07760539 -0.07441042 0.0150768 -0.049856104
000360 39 59 8f 3c 48 09 b7 bd ef f5 7d bd 80 e5 8c 3d
       0.0174986 -0.08937317 -0.06200212 0.06879711
000370 a5 ee 27 bd 84 c5 4e 3d 20 77 4f 3d bb b5 d9 3c
       -0.040999074 0.050481334 0.050650716 0.026575914
000380 1d cc 0c 3d e4 82 64 bd 02 23 03 3d bb 38 0c bd
       0.034374345 -0.05578889 0.032015808 -0.03423379
000390 6a 30 da bd 21 b0 ab bd e0 23 58 bc 89 b7 95 3d
       -0.106537655 -0.08383203 -0.013192147 0.07310397
0003a0 41 e1 18 bd 17 d7 51 3d a9 85 dd 3c 3a 28 e9 3b
       -0.037324194 0.051230516 0.027041273 0.007115391
0003b0 a1 ca 21 3d bb ad 72 bd 04 f4 ad bd 14 4e b0 bd
       0.039499883 -0.059247714 -0.08493808 -0.08608642
0003c0 78 9e d8 3d b3 03 5b bd be 3c 63 3d b0 69 a2 3d
       0.105771005 -0.053470325 0.05547785 0.079303145
0003d0 e6 3f 8e bd f7 99 10 bd 00 64 34 bd ad 08 90 3d
       -0.069457814 -0.035303082 -0.04404068 0.07032905
0003e0 16 5c 05 3c 7e 4c 93 bd 23 5c 51 3c de 1d c4 3d
       0.008139631 -0.07192324 0.012778315 0.09576009
0003f0 da 9e 9a 3d 24 ad 8b bd d3 fc 90 3d 89 9f ca bd
       0.0754983 -0.06820133 0.070794724 -0.0989371

layers.0.forward_conv1d.bias f4 [80]
000000 9d 21 ac 3d b2 c5 6b 3d 90 47 5e 3d 7f 39 84 bd
       0.08404849 0.057561584 0.054267466 -0.06456279
000010 b3 5b 82 3d 1b 07 b8 bd 17 17 35 bc 98 70 25 bc
       0.063651465 -0.0898573 -0.011052868 -0.010097645
000020 d6 d2 df 3b 00 b0 87 bc 61 d2 74 3d 33 2b 39 3d
       0.0068305535 -0.016563416 0.059770945 0.045207214
000030 85 10 a4 3c 1f 6c c6 bc 37 12 0e 3d 42 01 9d bd
       0.020027408 -0.024221478 0.03468534 -0.076662555
000040 1c 4e 59 bd f9 b7 81 3c 5d b5 a1 bc a3 fa 59 3d
       -0.053053007 0.015834795 -0.019739801 0.05321754
000050 56 36 cc bd 2b d9 c2 3d a7 7f 7a bc e1 9c 4c 3d
       -0.09971301 0.09514078 -0.015289224 0.0499543
000060 b4 4a e4 bc 66 15 12 3d e5 6b 0d bc 28 a6 ee 3c
       -0.027867652 0.03566494 -0.008631681 0.029131964
000070 8f 54 cf bc a5 43 44 bd 62 6b a5 3d 85 0f 13 3d
       -0.025308875 -0.047916073 0.08077122 0.035903472
000080 3c e8 c2 3d 2b e5 a7 3d 2c 9a 4a 3d 7e cd 90 bd
       0.095169514 0.08198007 0.049463436 -0.070704445
000090 dc 31 53 bc 6d b7 cb bc 13 c7 9d bd ac ae da 3d
       -0.012890305 -0.024867738 -0.07703986 0.10677847
0000a0 86 4e 50 bc 55 be de 3d 3d 90 6c 3d bb 69 d1 3d
       -0.012714034 0.10876147 0.057754744 0.102252446
0000b0 d4 de 8a bd bf 7c a8 3d 7c 1f 51 3d 19 d5 d6 bd
       -0.06780782 0.082269184 0.051055416 -0.10489864
0000c0 b0 7c 77 bd 37 1d a0 bd 62 bf 64 3d 39 50 3a bc
       -0.060421646 -0.07818072 0.05584658 -0.011371666
0000d0 10 0b c7 3c 88 1f 78 3d 3f f0 84 bd 5f 99 3e 3d
       0.024297267 0.060576946 -0.06491136 0.046532985
0000e0 f7 39 4c bd a5 9c 89 bd 3c 5e ca bd f4 05 b9 3d
       -0.049859967 -0.06719331 -0.09881255 0.090343386
0000f0 60 f4 96 3d 25 94 be 3d 79 e2 86 3d 2e 8d 78 3d
       0.073708296 0.093056 0.06586165 0.060681514
000100 12 ea 26 bc fc 82 74 3d da 36 63 bd a9 f5 42 bd
       -0.010187643 0.05969523 -0.055472232 -0.04759756
000110 9c b5 a7 3d c5 b8 3d 3d d8 d6 a8 bd 3b 85 52 bd
       0.08188936 0.046318788 -0.08244103 -0.05139659
000120 05 af 2f bc 8e 11 bb 3d f9 7f 17 3d 84 b2 a1 bc
       -0.01072288 0.09134208 0.03698728 -0.019738443
000130 a1 69 80 3d 6a 70 b4 bd fe 3f 9d bc 9a 85 21 bc
       0.06270147 -0.08810504 -0.019195553 -0.009858513

layers.0.backward_conv1d.weight f4 [80, 80, 1]
000000 0c 76 28 3a 81 52 57 3d d3 01 b0 bd c3 5d 23 bd
       0.0006426282 0.052568916 -0.08594098 -0.03988434
000010 91 dc a7 3d ab 4b c1 3b 64 f1 07 ba 27 43 1f bc
       0.081963666 0.005898913 -0.00051858113 -0.0097206
000020 fc 61 a9 bc 05 c8 cc 3d 1e 7b 41 3d ad e5 ad bd
       -0.020676605 0.09999088 0.047236554 -0.08491073
000030 e0 2e d0 bc 86 37 60 3d 0a a1 5d bc 3f 25 03 3d
       -0.025412977 0.05474045 -0.013527164 0.032017943
000040 6e 1a 74 bd 32 56 0e bc 38 22 0e 3d 3a 80 03 3d
       -0.059595518 -0.008687543 0.034700602 0.03210471
000050 a4 29 d3 bc e3 6c 9b 3d c2 28 88 3d 57 9b 9f 3d
       -0.025776692 0.07589128 0.06648399 0.077933006
000060 45 a2 5d bc 80 8a 80 3c ab e1 b5 3c 0a ad cb 3c
       -0.013527458 0.015691042 0.022202333 0.024862785
000070 57 0a 0e bd 23 6d 96 3d e8 af 8e 3d 83 d5 ad bd
       -0.03467783 0.07345035 0.06967145 -0.0848799
000080 70 93 9a 3d dc d7 bc bd b2 49 1c bd b9 f6 86 bd
       0.07547653 -0.092208594 -0.03815622 -0.06590027
000090 5a c8 c5 bc cc 26 9e 3c 83 aa 66 bd e6 fd 80 bc
       -0.024143387 0.01930561 -0.056314956 -0.015746068
0000a0 38 79 b2 bc 62 a4 1a 3c b1 d8 dc bd 41 42 b0 3a
       -0.021786317 0.009438606 -0.10783518 0.001344748
0000b0 c5 84 50 bd a6 1b c9 bc 6f 09 4e 3c 6e 84 f5 3b
       -0.05090787 -0.024549317 0.012575491 0.0074925935
0000c0 0a 0e bd bd cc 47 b3 3d 1c 08 bd bb 88 da 79 bd
       -0.09231193 0.087539285 -0.005768789 -0.060999423
0000d0 8a b0 af 3d b1 ea 96 3c f9 d4 13 b8 84 74 26 bc
       0.08578594 0.018422456 -3.5245877e-05 -0.010159615
0000e0 2e 1f b7 3d ed 7f 4d 3d 85 04 89 3d 61 43 cf bd
       0.08941494 0.050170828 0.06690315 -0.101202734
0000f0 5d 1f 72 bd 78 e5 63 3c 1a 72 96 3b 6b d8 08 3a
       -0.05911194 0.01390969 0.0045912387 0.0005220237
000100 cb f3 20 bd 6c cd 9b bd a5 16 1a bd 03 95 89 bd
       -0.039295 -0.076075405 -0.03761925 -0.06717875
000110 41 3b 4b 3d f0 55 6a bd 41 dd 86 3d 21 b4 8a bd
       0.049617056 -0.057210863 0.065851696 -0.06772638
000120 0e ae 06 3c af 94 2d 3d ca 55 d3 bb 8f 19 a7 3d
       0.008220209 0.042378124 -0.006449436 0.08159172
000130 74 07 7c bd eb 80 b6 3c d9 f9 9c bd 21 a3 b1 3d
       -0.061530545 0.02227827 -0.07664842 0.086736925
000140 88 9b 6b 3d c4 4c c2 3d 31 99 dc 3d 56 ef c6 bd
       0.057521373 0.09487298 0.107714064 -0.097136185
000150 a2 33 97 3d 22 f9 b8 bd e5 27 81 bd d4 55 d3 bd
       0.07382895 -0.09031893 -0.063064374 -0.10319105
000160 e5 4b 73 3c bb 10 dd 3c 78 e1 69 bd a7 51 83 3d
       0.014849638 0.026985517 -0.05709979 0.06412058
000170 88 26 b7 bd 27 14 3f 3d d7 d5 8e bc 6b d4 aa 3d
       -0.08942896 0.04665008 -0.017435951 0.08341297
000180 6b f6 c9 bd 80 cc 15 3c 3b 6f 71 bc 55 68 c3 3d
       -0.098614536 0.009142995 -0.014735992 0.09541384
000190 f9 55 08 bd 79 7f c5 3d 97 79 b9 3c 33 af 30 bc
       -0.033285115 0.09643454 0.022640986 -0.010783958
0001a0 68 42 a5 3c 66 44 39 bd c4 f6 bf 3d 7a b6 3c 3d
       0.020173267 -0.045231245 0.09373239 0.04607246
0001b0 d7 3f 82 bd 67 b3 4a bd b0 87 31 3c 5c 92 13 3d
       -0.06359833 -0.049487498 0.010835573 0.03602825
0001c0 52 38 94 bd 3b d1 de 3d e6 71 e7 3c c5 90 a2 3d
       -0.07237305 0.10879751 0.028252553 0.07937769
0001d0 66 6b 08 3d e1 4d 8c 3d 7b af b5 3d d6 0c 09 bc
       0.033305548 0.06850792 0.08871361 -0.008364877
0001e0 07 60 8a 3c ae f8 f3 3d bd a7 f5 3b d7 df 1e 3c
       0.016891493 0.11912666 0.0074968026 0.009696922
0001f0 9b e2 9f bc a9 fb 98 bd bf 49 38 bd f8 21 73 3d
       -0.019517234 -0.07469875 -0.044992205 0.059358567
000200 d5 24 36 3d be 03 56 bd 1c bd 71 3d 1f 86 5b bd
       0.04446872 -0.052249663 0.05901824 -0.053594705
000210 cd fa 33 3d f0 78 b0 bd a0 2c c8 3d a2 81 87 bd
       0.043940354 -0.08616817 0.097741365 -0.06616522
000220 ea 39 7e 3d c8 64 bb bd 88 9b 47 bd 59 2b 3b 3c
       0.06206695 -0.09150082 -0.04873231 0.011423909
000230 cf 25 b2 3d a9 59 06 bd d9 b1 66 3d 1c e6 27 3c
       0.08698618 -0.03280035 0.056321952 0.010247733
000240 05 15 ce 3d a5 05 95 3d f7 bd a8 bb 9e 3f 1f bd
       0.10062603 0.07276467 -0.0051495987 -0.03887903
000250 3c 6f fb 3c 64 9d 6c bd 90 f3 21 3d 88 6c c5 3d
       0.03069269 -0.057767287 0.03953892 0.09639841
000260 05 bb 53 3c 31 f9 96 3d 96 78 20 3d 26 82 82 bd
       0.012923007 0.07371748 0.0391775 -0.0637248
000270 f9 46 3f bd 41 0b b7 bd 5a 19 1a bd 0d 2a 37 bc
       -0.046698544 -0.089376934 -0.037621833 -0.011179459
000280 c7 10 5c 3d 38 22 9b 3c 33 7a 9c bd f7 a4 bb bc
       0.053726938 0.018937215 -0.07640495 -0.02290581
000290 1b 77 87 bd 29 08 31 3c 52 f5 c3 3c 53 3d 17 3d
       -0.066145144 0.010805168 0.023920689 0.036923718
0002a0 e2 26 4c bd bc 73 cd 3d 70 7b 4e bc 33 62 ae 3b
       -0.04984177 0.1003184 -0.012602672 0.005321765
0002b0 48 f8 30 bd 1c 02 cb 3c 52 fd eb 3c 37 df 9c bd
       -0.04320553 0.02478128 0.028807316 -0.07659762
0002c0 6e 4d b2 3b 6c 20 9f bd 7d 05 e2 3d d7 bc 15 bc
       0.0054413592 -0.07769856 0.11036203 -0.009139261
0002d0 17 cb ad 3d 19 2c 1a bd 3e 82 b0 3d b3 24 66 3d
       0.08486002 -0.03763971 0.08618592 0.056187343
0002e0 b6 f8 2a 3c 2c 5e 7a bc 32 ec d8 3c c5 24 5b 3d
       0.010435274 -0.015281241 0.026479814 0.053501863
0002f0 e8 5c bf bc 8b e5 9c bd 82 2b 21 bd 4f 82 94 3d
       -0.02335973 -0.07660969 -0.039348133 0.07251417
000300 35 96 93 3d d4 15 3a 3d e0 1b de bd 12 f0 ce bd
       0.07206384 0.045430973 -0.108451605 -0.101043835
000310 26 db c3 bd 52 13 ab 3d a0 45 cb 3d 2d e2 d2 bd
       -0.095632836 0.083532944 0.09925389 -0.10297046
000320 c2 01 96 bd 3b bf ad bd 9e 0c 08 bd 40 84 9f bd
       -0.07324554 -0.0848374 -0.033215158 -0.077888966
000330 71 bb 12 3d 3a 21 20 bc f6 ae be bd 3b f1 80 3d
       0.03582329 -0.009773547 -0.09310715 0.06296011
000340 ae 73 82 bc f5 50 29 3c 08 b9 95 3d 4a 80 17 3d
       -0.015924301 0.010334243 0.073106825 0.03698758
000350 59 b2 90 3d b2 eb e9 bb 06 a7 d6 3d 8e 70 eb 3c
       0.07065267 -0.007138693 0.10481076 0.028740194
000360 1e 8b 88 bc 82 9b 9c bd 69 c5 a2 bd 7c 35 ad bd
       -0.016667899 -0.07646848 -0.07947809 -0.08457467
000370 8d b0 79 bc 79 23 8c bc be ed e6 bc 9f 1f 9e bd
       -0.015239847 -0.017106758 -0.028189536 -0.07720875
000380 1a fb 24 3d fb dc 3d bd 16 a6 f2 3d 44 32 89 bd
       0.04027853 -0.04635332 0.11848085 -0.066990405
000390 7b 65 20 bd a7 aa 48 bc b6 d4 80 3d 0d be d0 3d
       -0.03915928 -0.012247718 0.062905714 0.10192499
0003a0 4a dc a5 bd bc 2c 66 bd 86 b6 8f 3d 6b da 17 bd
       -0.080986574 -0.056195006 0.070172355 -0.037073534
0003b0 9a 7f 76 3d 0f 2c 14 bd bc 26 c0 bd 23 7d 86 bd
       0.060180284 -0.03617483 -0.09382388 -0.06566837
0003c0 53 e1 5b bd a7 9c 85 bd 6f de c6 3d da 4c 0b bc
       -0.053681683 -0.0652402 0.097103946 -0.00850221
0003d0 80 7b 89 3d d0 cd 1d bd 0e af 5d 3d af 70 30 3b
       0.06713009 -0.038526356 0.054122023 0.0026922633
0003e0 7e df 1f 3d 7f a9 e4 3d fe 74 98 3d 49 57 ce bb
       0.039031498 0.11165141 0.074441895 -0.0062970263
0003f0 2d 19 00 3d 7e d7 5a bd 12 34 a0 3d b9 49 4a 3c
       0.03127401 -0.053428166 0.078224316 0.012346678

layers.0.backward_conv1d.bias f4 [80]
000000 1b 59 43 bd a5 7c 58 bd ae c1 c0 bd c2 c6 dc bd
       -0.0476924 -0.052853245 -0.094119415 -0.107800975
000010 2c 8f a8 3d 03 ee da 3c c5 78 27 3d 5d 0c 97 3d
       0.08230433 0.026724821 0.04088666 0.07375405
000020 ca 5f aa 3d 47 80 26 3d 84 b9 5e bc 67 2c 77 bd
       0.083190516 0.04064968 -0.013594035 -0.06034508
000030 16 fe 31 39 8a 9b 3e 3d 02 86 7b 3b 52 2b 84 3c
       0.0001697469 0.046535052 0.0038379435 0.016133938
000040 9e 90 bf 3c 1d 03 1b bd 18 40 82 bb 85 02 3b 3d
       0.023384389 -0.037844766 -0.0039749257 0.0456567
000050 fc 00 b4 bd 0b fb c4 bd 9e ba bf 3d 22 08 e7 bc
       -0.0878925 -0.09618195 0.09361766 -0.02820212
000060 ea 37 b0 bd e5 a8 c7 bd 0c 02 ba 3d 82 f6 c0 3d
       -0.08604415 -0.09749011 0.09082422 0.09422018
000070 09 3b 98 bd 35 cb 99 bd 5a f1 03 3d fe 81 94 3c
       -0.07433135 -0.07509462 0.032212593 0.018128391
000080 cc 29 6c bd fa 3d dc bd 30 2c be 3d 38 29 2e bd
       -0.057657048 -0.107540086 0.09285772 -0.042519778
000090 ba 7c 40 bd ca 36 ca b9 9a 93 22 bd 34 ab 16 3d
       -0.04699395 -0.00038569263 -0.039691545 0.036784366
0000a0 72 d2 7a 3b c1 28 3c bc e0 1d c8 3c 3f 2d 56 3d
       0.0038272408 -0.011484326 0.024428308 0.052289244
0000b0 16 78 a1 3d 23 d3 11 bd e4 d6 7f 3d 1e 09 c7 bd
       0.07884233 -0.035601746 0.062460795 -0.09718536
0000c0 a3 d2 8b bc b6 b7 4a bd 5a d9 a8 3d 84 5e e3 3d
       -0.017068213 -0.049491607 0.082445815 0.11102012
0000d0 95 3d 98 bc 25 3a f7 3c 6e fe 6b 3d a6 e6 ec 3b
       -0.018584052 0.030179093 0.05761569 0.007229644
0000e0 a9 01 a9 bd 62 88 2a bb cb ad c2 bc 81 75 8a bd
       -0.0825227 -0.0026021232 -0.023764512 -0.06760693
0000f0 e3 2e a9 bc aa f4 c3 3d ba b7 9f 3d 4b b7 1c 3c
       -0.02065224 0.0956815 0.07798715 0.009565185
000100 03 20 89 bc 77 bc 9b 3d 9f ab 78 3d 92 5b 04 3d
       -0.016738897 0.07604306 0.060710546 0.03231389
000110 6d a6 b5 3c 3c 31 a5 bd 0e 4b a9 3d f9 b5 9e 3d
       0.022174085 -0.08066031 0.08266269 0.07749552
000120 13 6b bc bd 06 94 c8 3d 84 77 49 bd 4d fc 70 3d
       -0.0920011 0.09793858 -0.049186245 0.058834363
000130 27 64 a6 bd 9b 03 98 bd f7 f5 2c 3c 93 70 c8 3b
       -0.08124571 -0.07422563 0.010556689 0.0061169355

layers.0.norm.weight f4 [80]
000000 ae 01 7e 3f 82 b6 7c 3f f4 35 7b 3f b8 96 7e 3f
       0.99221313 0.98715985 0.981292 0.9944873
000010 8c bc 7a 3f be 23 81 3f 73 e6 7c 3f bf c6 7c 3f
       0.9794395 1.0089033 0.9878914 0.9874076
000020 04 cb 78 3f 54 18 7e 3f c7 fd 7e 3f 49 91 7d 3f
       0.9718478 0.9925587 0.99605983 0.9904981
000030 f3 68 7e 3f 9f f1 7b 3f bf dd 76 3f 6e 77 7e 3f
       0.9937889 0.9841556 0.9643211 0.99400985
000040 48 3b 7e 3f a0 3e 7f 3f ac 3f 80 3f db 63 7e 3f
       0.99309206 0.99704933 1.0019431 0.9937112
000050 a6 3a 7e 3f 65 92 7b 3f f8 52 7c 3f 11 2c 7b 3f
       0.9930824 0.98270255 0.985641 0.98114115
000060 cd 1c 7f 3f 35 41 78 3f d1 88 80 3f 2d 34 80 3f
       0.9965332 0.969745 1.0041753 1.0015923
000070 8e be 7f 3f 8a 70 79 3f 57 30 7f 3f e8 91 7d 3f
       0.9990014 0.97437346 0.99683136 0.9905076
000080 dc e8 7e 3f b2 ae 7c 3f 97 ee 7c 3f 0a 4d 7d 3f
       0.99574065 0.98704064 0.9880156 0.9894568
000090 5c 1b 7c 3f 5d 53 7d 3f 81 3b 7b 3f f6 c6 7a 3f
       0.9847925 0.9895533 0.9813767 0.9795984
0000a0 94 a6 7b 3f 87 7e 7d 3f 40 ff 7f 3f f3 42 7b 3f
       0.98301053 0.9902119 0.99998856 0.9814903
0000b0 86 e6 7a 3f ad 27 7c 3f dc 21 80 3f c0 be 7d 3f
       0.98008 0.9849804 1.0010333 0.99119186
0000c0 98 6f 7b 3f 9f 5c 7e 3f 4e 0c 7c 3f c0 1c 7f 3f
       0.98217154 0.9936008 0.98456275 0.99653244
0000d0 3f 91 7e 3f ee 69 7e 3f b8 14 7f 3f ae 36 7d 3f
       0.9944038 0.99380386 0.9964099 0.9891156
0000e0 11 e7 7b 3f 6f 75 7d 3f 37 63 80 3f eb ef 7b 3f
       0.98399454 0.99007314 1.0030278 0.9841296
0000f0 cc ea 7d 3f e9 ba 7c 3f f7 8f 7c 3f 3b 6f 7d 3f
       0.99186397 0.987227 0.9865717 0.9899785
000100 87 8a 7f 3f de 51 80 3f 98 a4 7b 3f 9d 7e 7a 3f
       0.9982075 1.0024984 0.98298025 0.97849447
000110 1b d1 7c 3f c3 8b 7d 3f 25 44 7e 3f 6b 38 79 3f
       0.9875657 0.99041384 0.9932273 0.9735171
000120 a0 1f 7d 3f d9 9b 79 3f e2 66 74 3f 22 8a 7d 3f
       0.9887638 0.9750343 0.95469487 0.990389
000130 b7 9d 80 3f 33 b6 75 3f 22 05 7b 3f ee 98 7f 3f
       1.0048131 0.9598114 0.9805471 0.9984273

layers.0.norm.bias f4 [80]
000000 c8 83 85 bb 58 7a c8 bb e9 8b f6 3a 9f 81 41 bb
       -0.0040745474 -0.0061181 0.0018810007 -0.0029526723
000010 74 5f 1e 3c 46 58 27 3b dc 21 ca 3b 6f 95 d5 3b
       0.0096663125 0.0025534793 0.006168587 0.006518058
000020 19 64 2b bc da de a9 3b 6f 21 a4 3b 5a 7b 02 3c
       -0.010460877 0.0051840367 0.0050088684 0.00796398
000030 96 a4 8c 3b 93 68 26 3b 8e e6 2b bb 85 5c da ba
       0.004292081 0.002539192 -0.002622995 -0.0016659653
000040 a6 7e a6 bb eb 6a 88 ba 6f 8c d1 ba 59 da 14 3b
       -0.0050810156 -0.0010407841 -0.0015987287 0.0022713153
000050 28 9e 0d 3b 84 04 89 3a a6 a8 ab bb 5d cc 2f 3c
       0.002160916 0.0010453616 -0.0052386103 0.010729876
000060 d7 c4 85 3b 8c 2d d3 3b b3 65 74 bb c7 4d 96 3a
       0.004082303 0.0064446386 -0.0037292063 0.0011467271
000070 38 0d ee b9 6d ca a8 3b 94 73 e2 bb 1f eb 15 3c
       -0.00045404746 0.005151084 -0.0069107506 0.0091502955
000080 b0 d9 a5 3a de 82 e2 3b d3 7b bd 3a 2c a4 71 bb
       0.0012653377 0.0069125732 0.0014456458 -0.0036871536
000090 4c be 02 bb 5e 86 29 bc 85 0c 24 bc f1 e8 ba ba
       -0.0019949852 -0.010346977 -0.0100127505 -0.0014260096
0000a0 17 b7 c2 bb 49 0b c0 3b d8 f6 41 3b 13 0f 84 3b
       -0.005942236 0.0058607203 0.0029596593 0.0040301173
0000b0 bb 10 89 3b d1 dd 31 3b 73 e4 52 3b c7 5f 57 3b
       0.0041829026 0.002714027 0.0032179623 0.0032863484
0000c0 c3 ed 0e bc f6 86 fe 3b 61 59 bf ba bd 77 38 3b
       -0.008723679 0.0077675534 -0.001459878 0.0028147541
0000d0 f4 f3 bc 3a 20 ce fc bb cd df 7f bb c6 d0 be bb
       0.0014415965 -0.0077150017 -0.0039043308 -0.0058232276
0000e0 01 a6 93 bb e1 e9 3c 3a 32 19 52 bb 85 78 0d bb
       -0.004505873 0.00072064815 -0.0032058475 -0.0021586728
0000f0 bb 85 dd ba 4b 70 b7 bb c3 37 b6 bb c3 3c 35 3b
       -0.0016900817 -0.005598103 -0.0055608465 0.0027654625
000100 47 f2 a9 bb 57 50 08 bb b1 5c f8 3a d8 37 a7 3b
       -0.0051863524 -0.002079984 0.0018948523 0.0051030926
000110 71 d7 cb bb 3c 3e 84 3b e4 16 1c bb 2c c6 1e bb
       -0.006220751 0.004035739 -0.0023817355 -0.0024227006
000120 c1 77 f7 3a 14 eb bc bb 13 80 40 ba df c1 37 ba
       0.0018880294 -0.005765328 -0.00073433033 -0.0007009785
000130 03 9e 16 bb 50 15 31 bb a1 89 8f 3c 13 40 34 bb
       -0.0022982366 -0.002702076 0.017521681 -0.0027504012

layers.0.ssm.A_log f4 [80, 64]
000000 bb 0e 57 bb 2e df a4 3e b8 c0 11 3f ee 95 3f 3f
       -0.0032815177 0.32201523 0.5693469 0.7483815
000010 27 2f 76 3f f5 9a 92 3f 7e 76 a7 3f c0 05 b6 3f
       0.961657 1.1453539 1.3083036 1.4220505
000020 33 e5 c4 3f 98 33 d2 3f 70 44 de 3f 71 49 e9 3f
       1.5382446 1.6421995 1.7364635 1.8225538
000030 14 74 f3 3f a9 d5 fc 3f f3 cb 02 40 a4 e4 06 40
       1.9019799 1.9752704 2.043698 2.107705
000040 70 be 0a 40 29 60 0e 40 7a cf 11 40 12 12 15 40
       2.1678734 2.2246192 2.2782884 2.329228
000050 59 2c 18 40 c1 21 1b 40 77 f5 1d 40 72 aa 20 40
       2.3777068 2.4239352 2.468107 2.5104032
000060 e2 43 23 40 2b c3 25 40 3b 2a 28 40 d8 7a 2a 40
       2.5510182 2.590037 2.6275775 2.6637478
000070 a0 b6 2c 40 c8 df 2e 40 5f f6 30 40 f5 fb 32 40
       2.6986465 2.7324085 2.7650373 2.7966282
000080 90 f1 34 40 29 d8 36 40 97 b0 38 40 a8 7b 3a 40
       2.8272438 2.8569434 2.8857782 2.9137974
000090 94 3a 3c 40 d4 ed 3d 40 bc 95 3f 40 df 32 41 40
       2.9410753 2.9676409 2.993514 3.01873
0000a0 c8 c5 42 40 f6 4e 44 40 ea ce 45 40 ff 45 47 40
       3.0433216 3.0673194 3.090754 3.1136472
0000b0 9d b4 48 40 23 1b 4a 40 eb 79 4b 40 9e d1 4c 40
       3.1360238 3.1579063 3.1793163 3.200294
0000c0 6f 22 4e 40 72 6c 4f 40 e4 af 50 40 0a ed 51 40
       3.2208517 3.240994 3.2607355 3.2800927
0000d0 24 24 53 40 67 55 54 40 c4 80 55 40 45 a7 56 40
       3.2990808 3.3177125 3.3359842 3.3539593
0000e0 39 c8 57 40 12 e4 58 40 58 fb 59 40 9b 0d 5b 40
       3.3715956 3.3889203 3.4059658 3.4227054
0000f0 37 1b 5c 40 04 25 5d 40 2d 2a 5e 40 15 2b 5f 40
       3.439161 3.4553843 3.4713242 3.4870045
000100 54 3b ef bb 49 17 dd 3e 01 8e 1a 3f 73 21 41 3f
       -0.0073007736 0.43181828 0.6037293 0.75441664
000110 53 3c 76 3f 89 7f 94 3f 33 18 a9 3f c0 05 b6 3f
       0.961858 1.1601421 1.321051 1.4220505
000120 9e ea c4 3f 33 39 d2 3f 00 44 de 3f 30 4b e9 3f
       1.53841 1.6423706 1.7364502 1.822607
000130 f5 87 f3 3f 63 d5 fc 3f 91 cc 02 40 69 e4 06 40
       1.9025866 1.975262 2.0437357 2.107691
000140 49 be 0a 40 03 60 0e 40 69 cf 11 40 fc 11 15 40
       2.167864 2.22461 2.2782843 2.3292227
000150 65 2c 18 40 b5 21 1b 40 6e f5 1d 40 72 aa 20 40
       2.3777096 2.4239323 2.4681048 2.5104032
000160 e7 43 23 40 2a c3 25 40 33 2a 28 40 d9 7a 2a 40
       2.5510194 2.5900369 2.6275756 2.663748
000170 9e b6 2c 40 cc df 2e 40 64 f6 30 40 ed fb 32 40
       2.698646 2.7324095 2.7650385 2.7966263
000180 99 f1 34 40 29 d8 36 40 95 b0 38 40 a7 7b 3a 40
       2.827246 2.8569434 2.8857777 2.9137971
000190 94 3a 3c 40 d1 ed 3d 40 bc 95 3f 40 e1 32 41 40
       2.9410753 2.9676402 2.993514 3.0187304
0001a0 c7 c5 42 40 f8 4e 44 40 ea ce 45 40 ff 45 47 40
       3.0433214 3.0673199 3.090754 3.1136472
0001b0 9d b4 48 40 23 1b 4a 40 eb 79 4b 40 9e d1 4c 40
       3.1360238 3.1579063 3.1793163 3.200294
0001c0 6f 22 4e 40 72 6c 4f 40 e4 af 50 40 0a ed 51 40
       3.2208517 3.240994 3.2607355 3.2800927
0001d0 24 24 53 40 67 55 54 40 c4 80 55 40 45 a7 56 40
       3.2990808 3.3177125 3.3359842 3.3539593
0001e0 39 c8 57 40 12 e4 58 40 58 fb 59 40 9b 0d 5b 40
       3.3715956 3.3889203 3.4059658 3.4227054
0001f0 37 1b 5c 40 04 25 5d 40 2d 2a 5e 40 15 2b 5f 40
       3.439161 3.4553843 3.4713242 3.4870045
000200 a7 af 02 bb 71 e7 08 3f 10 b0 28 3f 58 43 49 3f
       -0.0019941123 0.5347815 0.6589365 0.78618383
000210 e1 12 76 3f f2 d1 94 3f 8e 20 a9 3f 8d 05 b6 3f
       0.96122557 1.162657 1.321306 1.4220444
000220 e1 21 c5 3f ed 42 d2 3f b1 4a de 3f cc 4d e9 3f
       1.5400964 1.6426674 1.7366544 1.8226867
000230 12 86 f3 3f 68 d7 fc 3f 31 ce 02 40 a1 e4 06 40
       1.902529 1.9753237 2.043835 2.1077044
000240 29 be 0a 40 02 60 0e 40 7b cf 11 40 60 12 15 40
       2.1678565 2.2246099 2.2782886 2.3292465
000250 db 2c 18 40 b0 21 1b 40 76 f5 1d 40 69 aa 20 40
       2.3777378 2.4239311 2.4681067 2.510401
000260 0c 44 23 40 1c c3 25 40 36 2a 28 40 d6 7a 2a 40
       2.5510283 2.5900335 2.6275764 2.6637473
000270 9d b6 2c 40 c7 df 2e 40 60 f6 30 40 f9 fb 32 40
       2.6986458 2.7324083 2.7650375 2.7966292
000280 94 f1 34 40 29 d8 36 40 94 b0 38 40 a5 7b 3a 40
       2.8272448 2.8569434 2.8857775 2.9137967
000290 93 3a 3c 40 d8 ed 3d 40 ba 95 3f 40 d7 32 41 40
       2.941075 2.9676418 2.9935136 3.018728
0002a0 c7 c5 42 40 f7 4e 44 40 eb ce 45 40 ff 45 47 40
       3.0433214 3.0673196 3.0907543 3.1136472
0002b0 9e b4 48 40 24 1b 4a 40 eb 79 4b 40 9e d1 4c 40
       3.136024 3.1579065 3.1793163 3.200294
0002c0 6f 22 4e 40 72 6c 4f 40 e4 af 50 40 09 ed 51 40
       3.2208517 3.240994 3.2607355 3.2800925
0002d0 24 24 53 40 67 55 54 40 c4 80 55 40 45 a7 56 40
       3.2990808 3.3177125 3.3359842 3.3539593
0002e0 39 c8 57 40 12 e4 58 40 58 fb 59 40 9b 0d 5b 40
       3.3715956 3.3889203 3.4059658 3.4227054
0002f0 37 1b 5c 40 04 25 5d 40 2d 2a 5e 40 15 2b 5f 40
       3.439161 3.4553843 3.4713242 3.4870045
000300 2c 10 cb bb 5b bb 1a 3f e7 fa 48 3f 96 10 54 3f
       -0.006196996 0.6044213 0.78507847 0.8283781
000310 f7 4b 76 3f 0b a3 97 3f 85 df aa 3f 31 04 b6 3f
       0.96209663 1.1846632 1.3349463 1.4220029
000320 25 cf c4 3f da 30 d2 3f 31 41 de 3f c6 4b e9 3f
       1.5375715 1.6421158 1.7363645 1.8226249
000330 32 7c f3 3f ec d5 fc 3f de cb 02 40 a7 e4 06 40
       1.9022276 1.9752784 2.043693 2.1077058
000340 6d be 0a 40 ef 5f 0e 40 7e cf 11 40 6d 12 15 40
       2.1678727 2.2246053 2.2782893 2.3292496
000350 b3 2c 18 40 be 21 1b 40 78 f5 1d 40 6c aa 20 40
       2.3777282 2.4239345 2.4681072 2.5104017
000360 f5 43 23 40 2a c3 25 40 3a 2a 28 40 d8 7a 2a 40
       2.5510228 2.5900369 2.6275773 2.6637478
000370 9c b6 2c 40 d3 df 2e 40 5e f6 30 40 f7 fb 32 40
       2.6986456 2.7324111 2.765037 2.7966287
000380 95 f1 34 40 29 d8 36 40 99 b0 38 40 a7 7b 3a 40
       2.827245 2.8569434 2.8857787 2.9137971
000390 94 3a 3c 40 d2 ed 3d 40 bc 95 3f 40 e1 32 41 40
       2.9410753 2.9676404 2.993514 3.0187304
0003a0 c6 c5 42 40 f8 4e 44 40 eb ce 45 40 ff 45 47 40
       3.0433211 3.0673199 3.0907543 3.1136472
0003b0 9d b4 48 40 24 1b 4a 40 eb 79 4b 40 9e d1 4c 40
       3.1360238 3.1579065 3.1793163 3.200294
0003c0 6f 22 4e 40 72 6c 4f 40 e4 af 50 40 0a ed 51 40
       3.2208517 3.240994 3.2607355 3.2800927
0003d0 24 24 53 40 67 55 54 40 c4 80 55 40 45 a7 56 40
       3.2990808 3.3177125 3.3359842 3.3539593
0003e0 39 c8 57 40 12 e4 58 40 58 fb 59 40 9b 0d 5b 40
       3.3715956 3.3889203 3.4059658 3.4227054
0003f0 37 1b 5c 40 04 25 5d 40 2d 2a 5e 40 15 2b 5f 40
       3.439161 3.4553843 3.4713242 3.4870045

layers.0.ssm.D f4 [80]
000000 91 e0 66 3f 0f 9e 71 3f 66 46 7a 3f 10 db 7a 3f
       0.9018641 0.94381803 0.9776367 0.9799051
000010 9b b4 77 3f 0d b7 71 3f 72 1e 69 3f 59 9b 79 3f
       0.9675996 0.9441994 0.9106208 0.97502667
000020 1e 94 75 3f db df 74 3f f4 73 78 3f 00 f1 66 3f
       0.95929134 0.95654076 0.9705193 0.90211487
000030 5a 8d 6b 3f 5f 4f 73 3f fb 17 79 3f 8e c4 76 3f
       0.9201256 0.95042986 0.97302216 0.9639367
000040 ca 53 72 3f 99 21 70 3f f4 26 75 3f 3c 3c 71 3f
       0.946591 0.93801266 0.9576256 0.94232535
000050 fa df 76 3f 18 a0 71 3f 1e f8 62 3f 4c a3 65 3f
       0.9643551 0.9438491 0.88659847 0.89702296
000060 d0 34 77 3f 0b b7 7d 3f 05 d9 75 3f c1 33 72 3f
       0.9656496 0.99107426 0.9603427 0.9461022
000070 c1 b4 67 3f 06 07 66 3f 88 1c 74 3f be 6c 63 3f
       0.90510184 0.89854467 0.95356035 0.888378
000080 59 ba 75 3f 07 85 77 3f 11 b3 74 3f a0 0f 79 3f
       0.9598747 0.9668736 0.95585734 0.97289467
000090 1f 2f 6e 3f e6 e6 66 3f 56 e4 5c 3f ee 6b 7c 3f
       0.9304065 0.90196073 0.86285913 0.9860219
0000a0 8a e4 68 3f 15 28 7c 3f f2 62 78 3f 77 2c 65 3f
       0.9097372 0.9849866 0.9702598 0.8952097
0000b0 63 19 74 3f 3f 8e 6d 3f df d3 75 3f 51 22 66 3f
       0.9535124 0.92795175 0.96026415 0.8989611
0000c0 43 23 60 3f 8d f4 79 3f d1 a9 78 3f bb 94 78 3f
       0.87553805 0.9763878 0.9713412 0.97101945
0000d0 87 51 77 3f 67 ab 79 3f d8 22 77 3f b2 13 4e 3f
       0.96608776 0.97527164 0.9653754 0.804988
0000e0 03 45 5e 3f 3c aa 66 3f 43 5c 5c 3f e0 02 79 3f
       0.86824054 0.9010351 0.8607828 0.9727001
0000f0 ac 24 6e 3f f7 0a 61 3f 51 4c 73 3f 14 86 65 3f
       0.93024707 0.87907356 0.95038325 0.8965771
000100 e1 7a 7a 3f 70 1b 6d 3f fb a0 5d 3f b2 3a 67 3f
       0.9784375 0.9261999 0.8657376 0.90323937
000110 d6 05 5f 3f cc 69 70 3f ff 9a 79 3f c0 90 68 3f
       0.8711828 0.93911433 0.9750213 0.9084587
000120 2a c1 7c 3f 57 94 67 3f 4b 02 76 3f 25 8d 6f 3f
       0.98732245 0.90460724 0.9609725 0.93574744
000130 2e 95 53 3f 53 76 6c 3f 17 3b 6f 3f 1b ec 6c 3f
       0.82649505 0.9236805 0.9344954 0.9254777

layers.0.ssm.deltaBC_layer.weight f4 [144, 80]
000000 76 d0 99 3d ee 05 00 bc 4b 53 84 3d 08 f6 4e bc
       0.07510464 -0.007813914 0.064611994 -0.012631901
000010 4d f1 b7 bb 0b 3c 93 bc 2a ee 4d bc 89 e1 25 3d
       -0.005613482 -0.017972967 -0.01256899 0.04049829
000020 9d 68 bf bd a3 e0 93 bd 88 f8 cd bd 6c a9 49 bd
       -0.09346125 -0.072205804 -0.10057169 -0.04923384
000030 d9 ba c3 bd 41 13 1d bc 99 46 94 3b 55 1e 4a bd
       -0.09557123 -0.00958711 0.0045250175 -0.049345333
000040 e6 f5 38 bd 0a 32 81 bc 92 15 93 bd df 6d 7f 3c
       -0.045156382 -0.01577093 -0.071818486 0.01559016
000050 60 4d 79 3d d8 c0 25 3d ee 2f 4b bd bb 4f 99 3d
       0.060864806 0.040467113 -0.049606256 0.074859105
000060 99 bd 1a bc 45 e1 c5 bc ef b3 66 bc 0f 29 4a bd
       -0.009444618 -0.024155268 -0.014080985 -0.049355563
000070 62 2e 4f 3c 62 37 19 bd 36 9e ad bd ab c0 dd bc
       0.012645336 -0.037406333 -0.08477442 -0.02706941
000080 0d 1c 91 3b 21 90 b9 bd d1 22 a3 bd 9f b9 7a bd
       0.0044283927 -0.090606935 -0.07965625 -0.06121218
000090 d1 a4 53 3d 0e 52 02 3d 84 a5 a0 3d d2 06 e0 3c
       0.051670853 0.031816535 0.078440696 0.027347002
0000a0 7f 60 61 3d 0e e2 68 bc 42 c2 b3 bd 80 ce 95 3d
       0.055023666 -0.014214052 -0.08777286 0.073147774
0000b0 ee 41 53 3d a9 54 a6 3d 7b d0 18 bd 41 3d ce 3c
       0.051576547 0.081216164 -0.037308197 0.025175693
0000c0 15 07 bb bd b0 4d c6 bd 67 5b e3 b9 b4 62 98 3c
       -0.0913221 -0.096827865 -0.00043364914 0.018601753
0000d0 43 9c 60 bd 43 00 aa bd 48 37 90 bd 9a c2 97 3c
       -0.054836523 -0.08300831 -0.07041794 0.01852541
0000e0 cf ed 73 bc 39 ff be 3c 63 92 a4 3d a4 ab 16 bd
       -0.014888241 0.023315059 0.080357336 -0.036784783
0000f0 86 eb b6 3b 3b 3e a7 bd bd 02 33 3d 4b 92 cd bd
       0.005582276 -0.081661664 0.043703783 -0.10037669
000100 7c a5 88 3d fa 9b 26 3c 4a e4 d5 3c 63 e1 d1 bb
       0.06672189 0.010169024 0.026109833 -0.006405042
000110 81 9f 11 ba 0f 7d 90 bd fb a5 4d bc 96 96 ec bc
       -0.0005555079 -0.07055103 -0.01255178 -0.028880399
000120 09 7f b1 bc ea c7 bf bd 14 ca 8b bc 70 04 eb bc
       -0.02166702 -0.093643025 -0.017064132 -0.02868864
000130 14 94 ca 3c 78 85 a0 3a 8d 9c 24 3c 0e 7b ae 3c
       0.024728812 0.0012246808 0.01004709 0.021298911
000140 26 d9 91 bd f5 c4 ce bd 18 df db bd 31 81 44 bd
       -0.07121496 -0.1009616 -0.10735911 -0.04797477
000150 df 49 82 bd 6e ca 6f bd c9 d9 e2 bc 8a 45 a5 bd
       -0.06361746 -0.05854266 -0.027691739 -0.08069904
000160 c9 6b 95 3d 5a 00 82 3d fe 1a c8 bd 1a fc 19 bd
       0.07295949 0.06347723 -0.09770773 -0.03759394
000170 3d 60 b6 3d 8e d0 bd bd b3 a5 ec bc 13 cb a3 3d
       0.08905075 -0.09268294 -0.028887605 0.07997718
000180 b9 b3 b0 bd 72 12 66 3d ea 1e ec bc 43 0f 67 bd
       -0.086280294 0.056169935 -0.028823335 -0.05641104
000190 21 2a 98 3c fd 31 ae bd f0 e6 95 3d d3 12 30 bd
       0.018574776 -0.08505628 0.073194385 -0.042986702
0001a0 d3 fa 3f bb f2 05 02 3d f6 7b b5 3d c4 7d 07 3c
       -0.002929379 0.03174395 0.08861534 0.008269731
0001b0 4d 58 ad 3d 75 6b a9 3d 94 12 8c 3d e6 64 8f bd
       0.08464108 0.08272449 0.06839481 -0.07001667
0001c0 f8 97 6a 3d f0 f6 e9 bc d6 bb a3 bd 39 99 9d bd
       0.057273835 -0.028560132 -0.07994811 -0.076952405
0001d0 d1 17 63 3d ad d2 34 3d 8e 03 d4 3c 21 19 6a bd
       0.055442635 0.04414623 0.025880601 -0.05715287
0001e0 d9 67 70 3d 24 d0 05 bd bd be 9e 3d 8e 9a 82 3c
       0.058692787 -0.0326692 0.07751224 0.015942838
0001f0 5e 0f 22 bd 81 bc 58 3d 70 a4 ce bd cd f3 d8 bd
       -0.039565437 0.052914146 -0.10089958 -0.10593376
000200 da 35 96 bd 99 63 76 3d dc d0 e1 bd db 2a a9 bd
       -0.0733449 0.060153577 -0.11026165 -0.08260127
000210 34 1c c3 3d 06 3b 52 3d 94 a6 64 bd fe a3 4e bd
       0.09526864 0.05132582 -0.055822924 -0.050449364
000220 31 34 e3 bc 2e 81 93 3d 68 8f db bd 4c 2a 8c bc
       -0.027734848 0.072023734 -0.10720712 -0.017110012
000230 2b f4 a1 3b 1c 31 71 bd 50 56 71 bd 2a 53 3f 3d
       0.004942437 -0.058884725 -0.058920205 0.04671017
000240 71 20 cd 3d b9 96 0f 3d b3 c9 d4 3c d4 64 4b 3b
       0.10015953 0.03505585 0.025975084 0.003103544
000250 6f 3f c8 bd db 93 8f bd e2 27 6d bc 67 5b 8f bd
       -0.09777724 -0.07010623 -0.014474841 -0.069998555
000260 62 a2 df bd 8f 3a 0d 3d 67 15 3d 3d b4 26 99 3d
       -0.10919644 0.034479674 0.04616299 0.07478085
000270 89 b7 1a bc 55 8a db 3d 7f 08 a0 bc 44 fb 78 bc
       -0.009443172 0.10719744 -0.019535301 -0.015196625
000280 db 04 06 bd 00 9b 79 bd 6a f0 be bc 38 bf 85 bc
       -0.032719474 -0.060938835 -0.023307998 -0.016326532
000290 f7 c8 89 3d a1 29 be bd ad 71 ca 3d d3 a9 a8 3b
       0.06727784 -0.09285284 0.09884963 0.0051471977
0002a0 c0 3b a8 bd 3a ed d6 bd dc c4 ca 3d be 50 86 bd
       -0.082145214 -0.10494466 0.09900829 -0.06558369
0002b0 f0 42 63 bb 30 c9 6e bd 2a 9f 1d 3d 9a 05 8a bd
       -0.003467735 -0.058297336 0.03848187 -0.0673935
0002c0 9b 34 17 bd 8e 00 62 bc 5e f9 f8 bc c8 06 9b bc
       -0.036915403 -0.013794078 -0.030392345 -0.018924132
0002d0 48 b6 3a bd bc 33 d7 bd 18 7f a7 3d 07 b2 99 bd
       -0.045583993 -0.105079144 0.08178538 -0.07504659
0002e0 42 28 a1 3d 68 13 cf bd b8 93 d2 bd 09 f9 3d 3d
       0.07869007 -0.10111123 -0.10282081 0.046380077
0002f0 f0 d4 a8 bd 55 c5 47 bc 99 64 73 bd f5 58 80 bd
       -0.082437396 -0.012193044 -0.05942211 -0.06266967
000300 8e ac 5f bd 82 d5 c2 bd d0 e3 cf bd 49 9d 98 bc
       -0.05460792 -0.0951338 -0.10150874 -0.018629687
000310 3d 9c 7a bd fc b3 83 bd 64 fa 3d bd d6 fc fc 3c
       -0.061184157 -0.06430814 -0.04638137 0.03088228
000320 a6 44 d3 3d bd 1b 49 3d ee 75 bf bd 56 d6 9e bc
       0.10315828 0.04909872 -0.09348665 -0.019389313
000330 57 1c 2f 3d af 0a 8b bd 84 f0 82 3d f1 cb b9 bd
       0.042751636 -0.06789147 0.06393531 -0.09072102
000340 21 68 12 3c 0d 62 32 3d b3 d9 46 3d 34 81 80 bd
       0.008935959 0.04355054 0.048547458 -0.062746435
000350 4c bb cb 3d 40 a6 a6 3b d7 2a 8d 3d c7 83 83 bd
       0.099478334 0.0050857365 0.06892937 -0.06421619
000360 fc ef e2 bd c0 35 41 bc 28 6e 72 3b 44 db 33 3c
       -0.1108093 -0.0117926 0.0036991928 0.01097757
000370 6a 60 e3 3c dd 28 83 bb 6f 54 9e 3b 7b 61 bf bd
       0.027755935 -0.004002674 0.0048318426 -0.09344765
000380 d4 fc 8c 3d 40 a7 f5 3a b0 01 a1 bc eb 77 a6 bd
       0.06884161 0.0018741861 -0.019654125 -0.08128341
000390 b8 70 24 ba c4 f7 27 3d fb b0 18 bc 53 c2 9d bd
       -0.00062729 0.041007772 -0.009319539 -0.0770308
0003a0 74 91 4e bc 06 cb 80 3d 6d 61 e5 bd fd 5e 00 bd
       -0.012607921 0.06288724 -0.11200223 -0.031340588
0003b0 6f f3 97 3c aa d7 01 3d 15 5f a1 3c 50 da a6 bd
       0.018548695 0.031699814 0.019698659 -0.081471086
0003c0 53 5b b1 bd 02 fe c2 3c fd 04 6c 3d 7c fc c3 bd
       -0.08659997 0.023802761 0.057621945 -0.09569642
0003d0 0a 4b c4 3d 4f 29 19 3d 1a d2 7e 3d e8 0a 0d 3d
       0.09584625 0.03739291 0.062212087 0.03443423
0003e0 a9 ce 82 bd 11 28 8b bc 70 de 34 3d e1 d8 db 3c
       -0.063870735 -0.016986879 0.044157445 0.026836814
0003f0 94 fb 7c 3d 3b d4 56 3c dd c6 c8 3d 32 eb 91 3d
       0.06176336 0.013112123 0.09803555 0.07124938
