vim_model.pth (torch, 531235 bytes, 58 tensors)

cls_token f4 [1, 1, 64]
-0.84508103 0.6197025 0.9455293 0.14951743 0.9711907 -0.41385612 -0.08811971 -0.61518437
1.1239711 0.75621337 0.29837456 0.76121014 -1.1046959 -0.40310788 -0.17300393 0.0750282
0.015578377 0.47001848 -1.7762288 -0.73130316 -0.36528936 -0.080896646 1.5032665 0.48958257
-0.6734369 -0.12963313 1.1913996 0.6937226 -1.0062273 -1.9524162 1.0952948 -0.49156693
-0.58674383 -0.09741929 -0.18393281 1.2786094 0.6054034 0.2547465 -1.0062064 2.007276
-0.19337516 -0.4297565 0.9705277 -0.59320223 -0.31881726 0.36453304 -0.9340023 -1.0828439
-0.1229529 -1.9036218 0.13908967 1.356231 1.8544251 0.2737358 -1.4184844 -0.28961593
0.15307777 0.70322967 0.666739 -2.157855 1.0616624 -0.33517274 -0.85014653 -0.58426136
00000000: 3b57 58bf d3a4 1e3f 350e 723f 191b 193e
00000010: f49f 783f f3e4 d3be 1b78 b4bd b97c 1dbf
00000020: 49de 8f3f 3397 413f 8dc4 983e abde 423f
00000030: ad66 8dbf 2864 cebe f127 31be 63a8 993d
00000040: 733c 7f3c 43a6 f03e 775b e3bf af36 3bbf
00000050: 3507 bbbe 24ad a5bd 096b c03f 91aa fa3e
00000060: 5c66 2cbf 8cbe 04be c87f 983f ce97 313f
00000070: 0ecc 80bf c6e8 f9bf 9f32 8c3f a9ae fbbe
00000080: d834 16bf c483 c7bd e258 3cbe 79a9 a33f
00000090: b8fb 1a3f 226e 823e 5fcb 80bf 3677 0040
000000a0: 2304 46be 0b09 dcbe 8174 783f 1adc 17bf
000000b0: 043c a3be 13a4 ba3e c61a 6fbf a19a 8abf
000000c0: bbce fbbd e1a9 f3bf 866d 0e3e fa98 ad3f
000000d0: cd5d ed3f 1927 8c3e e690 b5bf 8a48 94be
000000e0: 6bc0 1c3e dc06 343f 68af 2a3f 4c1a 0ac0
000000f0: 8ee4 873f c39b abbe 34a3 59bf 2792 15bf

to_patch_embedding.1.weight f4 [64, 169]
0.05089491 0.06225947 0.05446132 0.039474055 0.06636832 0.019290857 -0.05419401 -0.062602445
-0.055036135 -0.0009968347 -0.018661635 0.014738203 -0.039184432 -0.05157982 -0.07189984 0.06890463
0.064728595 0.0021521507 -0.06611762 -0.002321954 0.05498124 -0.0452656 -0.031697508 0.05872386
0.04946269 0.008539516 0.0686163 0.012828679 0.062229063 -0.0046266187 -0.036930062 0.032248784
-0.025511337 0.047314037 -0.06983774 -0.067715354 0.021132711 0.060672063 -0.0069093504 -0.031117622
0.014661909 0.07987967 0.025847573 0.044935904 0.07028011 -0.049235467 -0.08207404 -0.01895046
-0.043857742 0.048707075 0.030013792 0.019579113 -0.026779298 0.035270773 -0.057947952 0.057601478
0.025537731 -0.055525377 -0.06521418 -0.050183535 -0.06563208 0.047578186 -0.056962818 -0.064931884
0.024711102 -0.021115221 0.0434573 -0.0518657 -0.060377114 -0.06006275 0.04279392 -0.04069952
0.065549016 0.034149747 0.062058173 0.039557636 0.009823287 -0.018179288 0.013201238 0.06044565
-0.009367867 0.085008815 0.0077866963 0.03717338 -0.026805095 0.0072210524 0.07505137 -0.013157584
0.07272839 0.06052373 -0.0021927343 0.07985297 0.09002738 -0.04647937 -0.064403735 -0.024098802
0.06288415 0.027258094 0.052918285 0.09820945 0.00467195 0.08989656 -0.040590283 0.02173545
-0.05045717 0.023345986 0.04959105 0.021341633 0.058591064 -0.015698591 -0.011371747 0.055550884
0.09366652 0.04811142 0.05810647 -0.0019142632 -0.06740199 0.012026431 -0.014278816 0.06351622
-0.060173538 -0.05431364 0.063389 -0.011679467 -0.008420678 0.06427499 0.06953491 -0.035667926
-0.060976762 -0.05230666 -0.042518206 0.015224255 0.03127758 -0.075914584 -0.020782547 -0.017665919
0.05645143 0.015291754 -0.045871146 0.0054474985 0.054957658 0.012047516 -0.05475058 0.091881126
-0.030638797 -0.022760466 0.06863862 -0.0001691922 -0.03920635 -0.04424226 0.03586701 -0.018089825
0.015506257 -0.06592971 -0.011456502 -0.024720939 -0.02364393 -0.029135132 -0.036407694 -0.040633917
-0.054020032 0.01064013 0.011160871 -0.021297889 0.0017842583 0.06427096 -0.03570469 0.03222966
-0.018937409 -0.062050708 0.030435605 -0.049729086 -0.08253979 -0.036989957 0.06729097 0.06488476
-0.05145321 -0.008855853 0.07561412 0.04502263 -0.024791908 0.048874054 -0.04731826 0.009821246
0.06945917 0.010653295 0.017486537 -0.024732942 0.00051932875 -0.012836027 0.032354467 -0.0025486334
0.059183847 0.0643327 0.059265886 -0.061327305 0.0053217597 0.0076998705 -0.012460529 -0.05867395
0.052765977 0.045374785 0.033232253 0.025482591 -0.05957718 -0.027481714 -0.014995316 -0.050143827
-0.053000443 0.009741031 -0.02153291 -0.011589161 -0.07473646 0.010415325 0.005611235 0.0566022
-0.055836447 0.03457544 0.051436976 -0.054701682 -0.0847261 -0.025955038 0.014082778 -0.071048796
0.006610602 -0.031248005 -0.03259019 0.042691894 -0.05773144 0.050178975 0.012605228 0.051885597
0.032528948 0.015259389 0.025363093 0.079947256 0.05560642 -0.0569554 0.07084539 -0.050221395
0.05301841 0.07422607 0.014909429 -0.02224659 -0.027585942 -0.022254609 0.040346224 0.04947165
0.07153236 -0.03748432 -0.054497164 -0.015732836 0.048347283 -0.040332478 -0.03306321 0.03342449
00000000: 2e77 503d c903 7f3d d512 5f3d 8caf 213d
00000010: 1dec 873d dc07 9e3c 8afa 5dbd b635 80bd
00000020: 926d 61bd 39a8 82ba 49e0 98bc 8178 713c
00000030: db7f 20bd 5d45 53bd 3940 93bd df1d 8d3d
00000040: 6d90 843d 190b 0d3b ad68 87bd ec2b 18bb
00000050: 0234 613d 6c68 39bd 3fd5 01bd 6e88 703d
00000060: 6499 4a3d 53e9 0b3c b486 8c3d 612f 523c
00000070: e7e3 7e3d e49a 97bb fa43 17bd 4d17 043d
00000080: 27fd d0bc 5dcc 413d 1707 8fbd 59ae 8abd
00000090: 821e ad3c 4583 783d d567 e2bb 62ea febc
000000a0: 8138 703c f497 a33d 4abe d33c b60e 383d
000000b0: 05ef 8f3d 21ab 49bd 6f16 a8bd ff3d 9bbc
000000c0: 2da4 33bd 1281 473d 7cdf f53c 6064 a03c
000000d0: 4260 dbbc 1678 103d d55a 6dbd 87ef 6b3d
000000e0: 8134 d13c 946e 63bd 038f 85bd 408d 4dbd
000000f0: 1d6a 86bd 58e1 423d d851 69bd 02fb 84bd
00000100: f06e ca3c d4f9 acbc 4800 323d 2171 54bd
00000110: fe4d 77bd 5c04 76bd ad48 2f3d 8ab4 26bd
00000120: 903e 863d 9be0 0b3d b630 7e3d 3007 223d
00000130: daf1 203c bbec 94bc 014a 583c dc95 773d
00000140: af7b 19bc 1a19 ae3d 8b27 ff3b 1d43 183d
00000150: 5c96 dbbc 949e ec3b 88b4 993d e892 57bc
00000160: 9ff2 943d bbe7 773d fab3 0fbb f489 a33d
00000170: 4660 b83d 2761 3ebd 1be6 83bd da6a c5bc
00000180: 68c9 803d 5e4c df3c d8c0 583d 0922 c93d
00000190: 2817 993b b01b b83d ff41 26bd 8b0e b23c
000001a0: 2dac 4ebd 1540 bf3c fc1f 4b3d a6d4 ae3c
000001b0: 2ffd 6f3d 559a 80bc 9050 3abc 5389 633d
000001c0: 3cd4 bf3d 7b10 453d 0d01 6e3d 04e8 faba
000001d0: 0e0a 8abd 820a 453c b2f1 69bc cb14 823d
000001e0: 8778 76bd fb77 5ebd 18d2 813d 3c5b 3fbc
000001f0: e2f6 09bc 9ba2 833d 5268 8e3d 8818 12bd
00000200: c5c2 79bd 823f 56bd 9227 2ebd 276f 793c
00000210: eb1c 003d 1b79 9bbd 2940 aabc 1eb8 90bc
00000220: 9d39 673d 448a 7a3c 62e3 3bbd ee80 b23b
00000230: 481b 613d f262 453c 2542 60bd 2c2c bc3d
00000240: 37fe fabc 2874 babc 6892 8c3d 2f69 31b9
00000250: d696 20bd 5f37 35bd 49e9 123d 1d31 94bc
00000260: f50d 7e3c 2806 87bd 0db4 3bbc 9183 cabc
00000270: eab0 c1bc cdac eebc 3c20 15bd c06f 26bd
00000280: 1c44 5dbd f153 2e3c 16dc 363c e978 aebc
00000290: c6dd e93a 7ea0 833d 153f 12bd 3f03 043d
000002a0: a022 9bbc e228 7ebd 1754 f93c bab0 4bbd
000002b0: 9f0a a9bd c882 17bd d9cf 893d 4de2 843d
000002c0: 9ac0 52bd 2418 11bc 93db 9a3d a669 383d
000002d0: 6618 cbbc 2930 483d cbd0 41bd 4be9 203c
000002e0: 9c40 8e3d 288b 2e3c ed3f 8f3c bd9c cabc
000002f0: 9023 083a 334e 52bc 1e86 043d f906 27bb
00000300: c36a 723d ddc0 833d c9c0 723d 5732 7bbd
00000310: 2862 ae3b 324f fc3b 3f27 4cbc 1954 70bd
00000320: 2321 583d e9da 393d 8b1e 083d dec0 d03c
00000330: 3307 74bd 5521 e1bc eaae 75bc 9d63 4dbd
00000340: fe16 59bd d898 1f3c c965 b0bc 77e0 3dbc
00000350: 6e0f 99bd 0aa5 2a3c 73de b73b b5d7 673d
00000360: c2b4 64bd fa9e 0d3d 94af 523d df0e 60bd
00000370: e184 adbd a99f d4bc 74bb 663c 0882 91bd
00000380: c09d d83b d1fb ffbc 4b7d 05bd b2dd 2e3d
00000390: cd77 6cbd 7888 4d3d 2986 4e3c fe85 543d
000003a0: 133d 053d 8402 7a3c 43c6 cf3c 63bb a33d
000003b0: 8fc3 633d 114a 69bd 6317 913d f3b4 4dbd
000003c0: d529 593d d603 983d ad46 743c 7b3e b6bc
000003d0: eafb e1bc 4c4f b6bc 1542 253d c9a2 4a3d
000003e0: 8f7f 923d 2989 19bd 6b38 5fbd 26e2 80bc
000003f0: cd07 463d ab33 25bd 4a6d 07bd 1ee8 083d

to_patch_embedding.1.bias f4 [64]
-0.011277098 0.01835588 -0.07313484 0.013617202 -0.016723972 0.053674594 -0.043446224 0.044126365
-0.05082213 0.049623925 0.06137245 0.059055593 0.018622266 -0.07104 -0.056400865 0.054963578
-0.0615927 0.03956312 -0.055825155 -0.020255106 -0.06241895 -0.036428496 0.0015344333 -0.00730207
0.010428668 0.06442338 0.006372153 0.009004205 -0.034338996 0.057957925 0.00547643 0.047581602
-0.008101452 0.044573072 0.047444627 0.00056425284 0.006820859 -0.054866206 0.034782995 0.03744924
0.004119461 -0.031970732 -0.066910364 -0.009068048 0.01922265 -0.013746052 -0.04082705 -0.070082836
-0.057048477 -0.017647352 -0.03903545 0.011118803 -0.066182375 -0.06349897 -0.025980663 0.056024164
-0.019082276 -0.011085586 -0.040538985 0.037456088 0.012607608 0.05415479 -0.039332718 -0.04431532
00000000: 94c3 38bc 125f 963c b8c7 95bd af1a 5f3c
00000010: b600 89bc e4d9 5b3d abf4 31bd d9bd 343d
00000020: de2a 50bd 7542 4b3d ae61 7b3d 47e4 713d
00000030: b98d 983c 6b7d 91bd 9804 67bd 7d21 613d
00000040: a148 7cbd f00c 223d eba8 64bd 09ee a5bc
00000050: 03ab 7fbd 0c36 15bd 0a1f c93a 3446 efbb
00000060: 01dd 2a3c 68f0 833d 7ecd d03b 6086 133c
00000070: 0ca7 0cbd 4a65 6d3d a073 b33b ede4 423d
00000080: f4bb 04bc 4192 363d 4c55 423d 5eea 133a
00000090: 8381 df3b 63bb 60bd 9d78 0e3d 6064 193d
000000a0: 8bfc 863b bef3 02bd 4d08 89bd 2692 14bc
000000b0: d278 9d3c 1f37 61bc 443a 27bd 9787 8fbd
000000c0: aaab 69bd 2e91 90bc a3e3 1fbd a42b 363c
000000d0: a08a 87bd bf0b 82bd 66d5 d4bc 9879 653d
000000e0: 6f52 9cbc 51a0 35bc 350c 26bd 8e6b 193d
000000f0: 2490 4e3c 6ad1 5d3d 581b 21bd fb83 35bd

layers.0.forward_conv1d.weight f4 [64, 64, 1]
-0.10409913 -0.09579729 0.009054687 -0.07760344 0.04126969 0.05304348 0.08998018 0.086317256
0.03464258 0.03538552 0.019232912 0.04258055 0.10866501 0.012576148 0.12099319 0.058452345
0.07546706 0.06335218 0.10715439 -0.012403971 0.10366139 -0.086737856 -0.101532474 0.120206
0.018209603 -0.07651769 0.032779574 0.10173224 0.050576318 0.018288577 -0.099344976 -0.09079058
0.009997286 -0.11547738 0.10297535 -0.05736745 -0.067026086 0.043209296 0.064920135 -0.13287163
0.06801807 0.12049049 0.03978214 -0.019083202 0.06350062 0.043047752 0.1048035 0.056235522
-0.08713984 0.12799925 -0.09705063 -0.04900599 -0.050740674 -0.040807243 0.043502424 0.04071571
0.13849762 -0.04780401 0.076807976 0.074453235 0.060735907 -0.06607764 -0.018982328 0.06504972
-0.014689661 -0.071135305 -0.08476719 -0.017689807 0.040221207 -0.083213806 0.03805697 0.040656004
0.105612725 -0.01369876 0.1018828 0.050166003 -0.050503563 0.030293457 -0.09484555 -0.103718996
-0.1254115 -0.093035094 -0.00839573 -0.079598114 -0.11778094 -0.029659621 -0.10758551 0.058860566
-0.091851056 -0.06547499 0.046816666 -0.053969607 -0.06036246 -0.05109389 0.051569775 0.076239295
-0.114599004 0.10816441 0.013446346 -0.05817152 -0.049431905 0.001105151 -0.08644647 -0.11414723
0.09381332 0.070319846 -0.11279344 0.04390593 7.2454946e-05 -0.015837658 0.067486055 -0.071342096
-0.026251271 0.014214104 -0.046943106 -0.08228182 -0.0036278996 0.032361418 -0.09195711 0.11042488
0.121861786 -0.021840066 0.01996798 6.482394e-05 -0.02067104 0.08843717 0.1147189 -0.11763364
-0.018390248 0.1127658 0.025864819 0.10347974 -0.04328589 0.05508584 -0.0056733885 0.12636292
0.024399694 -0.04502125 -0.057044197 0.11279518 0.0879431 0.093628645 -0.005277981 0.08137645
-0.13155174 0.057471573 -0.108349994 -0.044900276 0.065381594 -0.020219365 -0.058879957 -0.0040475023
-0.10230679 -0.04809465 -0.02486056 0.08547372 -0.008501549 0.029686766 0.023985103 0.08260385
-0.12286463 0.027739026 0.07200444 -0.09974047 0.07642749 0.02487355 -0.048217095 0.016374253
0.049764246 0.07097115 -0.001659781 -0.0100039095 0.08887419 -0.1205416 0.051014293 0.051931866
-0.046613388 -0.07497804 -0.04637048 -0.07169762 0.08764452 0.03938138 -0.019798331 0.08729546
0.08729642 -0.06120608 0.088195965 -0.07815023 -0.0028503074 0.07894398 -0.048077904 -0.082066394
0.04524449 -0.01582166 0.003547214 0.05189829 0.11810836 0.07730393 -0.0847671 -0.07234395
-0.09385164 0.07524055 0.06936174 0.00292695 -0.0031770105 -0.069395125 -0.0021901885 0.046156567
-0.10451339 -0.0395226 0.003966054 -0.039768502 -0.07652641 -0.007947261 0.0705871 0.032106973
-0.012782663 -0.06714663 -0.0066854944 -0.08159389 -0.04316914 0.0047701905 0.01643407 -0.067613214
-0.071627125 -0.060293052 -0.06410217 0.057446267 -0.036485624 -0.081585094 0.008433234 -0.044856876
-0.014936853 -0.020626653 -0.011132897 -0.036944564 -0.09943077 0.008961725 -0.050720703 -0.02810476
0.052198306 -0.08529727 -0.031262524 0.098857015 -0.07440992 -0.030530531 -0.027438935 0.07108611
0.016479658 0.071308486 -0.055894256 0.10122579 0.043413423 -0.09087924 -0.068200484 0.08457507
00000000: ed31 d5bd 5f31 c4bd 1c5a 143c 8dee 9ebd
00000010: 680a 293d 1f44 593d 8747 b83d 1ac7 b03d
00000020: 61e5 0d3d 68f0 103d 578e 9d3c f168 2e3d
00000030: c38b de3d 300c 4e3c 47cb f73d ba6b 6f3d
00000040: 798e 9a3d cabe 813d c373 db3d 063a 4bbc
00000050: 6c4c d43d 9ea3 b1bd 42f0 cfbd 902e f63d
00000060: 4e2c 953c 4fb5 9cbd e043 063d fe58 d03d
00000070: 1d29 4f3d edd1 953c 6175 cbbd 69f0 b9bd
00000080: a8cb 233c 687f ecbd bee4 d23d 22fa 6abd
00000090: f944 89bd 3bfc 303d d9f4 843d 800f 08be
000000a0: 0f4d 8b3d b8c3 f63d 99f2 223d 6054 9cbc
000000b0: 9d0c 823d d752 303d 38a3 d63d 3857 663d
000000c0: 5f76 b2bd 3c12 033e 7bc2 c6bd 81ba 48bd
000000d0: 74d5 4fbd 7f25 27bd 992f 323d 84c5 263d
000000e0: 52d2 0d3e 23ce 43bd 804d 9d3d f07a 983d
000000f0: 37c6 783d b753 87bd d480 9bbc ca38 853d
00000100: e7ac 70bc 63af 91bd 6c9a adbd 37ea 90bc
00000110: febe 243d 006c aabd a0e1 1b3d e986 263d
00000120: 7c4b d83d c470 60bc eea7 d03d de7a 4d3d
00000130: d3dc 4ebd fc29 f83c 623e c2bd a06a d4bd
00000140: df6b 00be 2f89 bebd 3e8e 09bc 5604 a3bd
00000150: 2237 f1bd bcf8 f2bc cb55 dcbd c717 713d
00000160: 681c bcbd c017 86bd d5c2 3f3d 3c0f 5dbd
00000170: a03e 77bd d447 51bd d43a 533d 5923 9c3d
00000180: e2b2 eabd 4d85 dd3d 104e 5c3c 4245 6ebd
00000190: 1c79 4abd b7da 903a d90a b1bd 06c6 e9bd
000001a0: 3321 c03d da03 903d 3f00 e7bd b4d6 333d
000001b0: f4f2 9738 fabd 81bc 2136 8a3d ce1b 92bd
000001c0: e80c d7bc 46e2 683c 6a47 40bd 5f83 a8bd
000001d0: 0ec2 6dbb 688d 043d 0254 bcbd 7126 e23d
000001e0: ac92 f93d f0e9 b2bc e493 a33c 16f2 8738
000001f0: 5056 a9bc 8c1e b53d bef1 ea3d e8e9 f0bd
00000200: 25a7 96bc c1f1 e63d 75e2 d33c 30ed d33d
00000210: 8c4c 31bd b1a1 613d d5e7 b9bb 4865 013e
00000220: dee1 c73c 3468 38bd 2da7 69bd 2901 e73d
00000230: 831b b43d 60c0 bf3d eaf2 acbb b2a8 a63d
00000240: 80b5 06be 5067 6b3d 9ae6 ddbd 5ae9 37bd
00000250: c9e6 853d 15a3 a5bc 1c2c 71bd e9a0 84bb
00000260: 3986 d1bd e5fe 44bd 60a8 cbbc d90c af3d
00000270: 154a 0bbc a931 f33c 687c c43c 352c a93d
00000280: 73a0 fbbd f43c e33c 1077 933d bb44 ccbd
00000290: 0486 9c3d 9dc3 cb3c 4a7f 45bd 4c23 863c
000002a0: 98d5 4b3d 5359 913d 028d d9ba 70e7 23bc
000002b0: ac03 b63d 84de f6bd 5df4 503d 82b6 543d
000002c0: aeed 3ebd 168e 99bd f9ee 3dbd 34d6 92bd
000002d0: f87e b33d 5f4e 213d 1c30 a2bc f6c7 b23d
000002e0: 77c8 b23d 3ab3 7abd 16a0 b43d 3a0d a0bd
000002f0: 39cc 3abb 62ad a13d 56ed 44bd 6d12 a8bd
00000300: 4952 393d 6d9c 81bc 6078 683b 4d93 543d
00000310: cce2 f13d 8651 9e3d 609a adbd 1129 94bd
00000320: 4a35 c0bd b817 9a3d 870d 8e3d 13d2 3f3b
00000330: 6435 50bb 081f 8ebd 4489 0fbb ab0e 3d3d
00000340: 1e0b d6bd 73e2 21bd acf5 813b 4ce4 22bd
00000350: e1b9 9cbd 3b35 02bc f88f 903d 9a82 033d
00000360: 606e 51bc 2c84 89bd fe11 dbbb b31a a7bd
00000370: 20d2 30bd 424f 9c3b bea0 863c cc78 8abd
00000380: 3eb1 92bd d9f5 76bd 0048 83bd c74c 6b3d
00000390: f371 15bd 1616 a7bd 8c2b 0a3c d8bb 37bd
000003a0: b4b9 74bc 3af9 a8bc c166 36bc 2f53 17bd
000003b0: 5ca2 cbbd 33d4 123c 83c0 4fbd f43b e6bc
000003c0: e4cd 553d 56b0 aebd 220d 00bd 8c75 ca3d
000003d0: 3a64 98bd 2a1b fabc 9ec7 e0bc 9895 913d
000003e0: 5900 873c 2f0a 923d 60f1 64bd 784f cf3d
000003f0: 46d2 313d e51e babd b2ac 8bbd b235 ad3d

layers.0.forward_conv1d.bias f4 [64]
-0.06784197 0.11584288 -0.0953997 0.0282466 0.10745848 0.01605219 0.013953314 -0.033544842
0.04551941 -0.10387749 0.07577679 0.032366693 0.020954382 -0.0043124203 -0.06000652 0.044029884
-0.050635412 0.08619272 -0.0444393 0.072473794 -0.012927369 0.083451435 0.0076455753 -0.09922015
0.09587776 -0.022124594 0.0785892 -0.04769791 0.09747041 -0.11288504 -0.06175437 0.10394591
-0.08338947 0.027807683 0.04905518 -0.0338316 -0.09941905 0.03148254 -0.018207133 0.056228574
-0.12445641 0.09695465 -0.10152749 -0.11435296 0.045491625 0.055645186 -0.07521138 -0.03055633
-0.015703682 -0.08080108 0.09441857 -0.092088796 0.011754069 0.04692012 0.102543026 0.0911158
0.055429045 0.10491409 -0.10372523 -0.1059899 0.07508794 0.03105107 0.07790352 0.09457045
00000000: bbf0 8abd 083f ed3d eb60 c3bd 6a65 e73c
00000010: 3113 dc3d e27f 833c 719c 643c 5166 09bd
00000020: 9072 3a3d b9bd d4bd dd30 9b3d f092 043d
00000030: 86a8 ab3c 344f 8dbb 66c9 75bd ae58 343d
00000040: 1467 4fbd cf85 b03d fc05 36bd 246d 943d
00000050: 51cd 53bc 96e8 aa3d bc87 fa3b ef33 cbbd
00000060: 8f5b c43d a33e b5bc 60f3 a03d e25e 43bd
00000070: 919e c73d 4630 e7bd 26f2 7cbd 98e1 d43d
00000080: 19c8 aabd f0cc e33c 16ee 483d 0193 0abd
00000090: 379c cbbd d6f3 003d 2027 95bc ef4f 663d
000000a0: 01e3 febd 2990 c63d a5ed cfbd e231 eabd
000000b0: 6d55 3a3d 35ec 633d 6d08 9abd 4551 fabc
000000c0: 02a5 80bc 097b a5bd 865e c13d 0d99 bcbd
000000d0: 2394 403c 502f 403d 1402 d23d ec9a ba3d
000000e0: 9109 633d 33dd d63d e56d d4bd 3c11 d9bd
000000f0: b5c7 993d d05e fe3c e18b 9f3d 27ae c13d

layers.0.backward_conv1d.weight f4 [64, 64, 1]
0.10291908 0.08465822 0.102889486 -0.043018315 0.10658802 0.059791103 -0.038940262 0.010876467
-0.10795267 0.024388717 -0.12079148 0.014396712 -0.076337986 0.06809094 -0.03049347 -0.067370325
0.073642746 0.013664642 0.058059525 -0.12054757 0.01450263 -0.045553487 0.03483882 0.021579461
-0.0902615 0.094718054 0.00933926 0.04930962 -0.07700159 0.036676854 -0.07273808 0.09148041
0.11737063 0.023026118 -0.12035489 -0.045537516 -0.11037545 0.11742329 0.05448099 0.086726785
0.04439395 0.10635074 -0.09417204 0.06491322 0.0010863411 -0.077025495 0.007478179 0.083131
-0.033902835 -0.10323284 -0.010997389 0.058645938 -0.078712 -0.09212749 -0.086254396 0.026760073
-0.083436176 -0.0032079082 -0.027828401 -0.03479944 -0.102257594 -0.09791042 0.033182785 -0.013702254
0.044478588 0.044011466 -0.08231854 -0.074214466 -0.06153604 0.033095572 -0.11877985 0.09588616
0.07467435 0.022636035 -0.12386252 -0.039528936 0.057202693 -0.012342059 -0.001741077 -0.090938024
-0.058751136 0.0033939902 -0.01875949 -0.030904412 -0.05639065 0.024072373 -0.016206566 0.07499446
-0.04323331 -0.0058875624 -0.118131176 0.082430966 -0.011766862 0.06736891 -0.053332947 0.013784267
0.039312936 0.025052361 0.076424696 -0.058807906 -0.048165508 0.13129134 -0.013957923 0.083945185
0.035253484 0.054217596 0.09456914 0.056813195 -0.08285154 -0.02000386 0.018441245 -0.0009711784
0.002297172 0.086289465 0.075991526 0.053606085 0.013104335 0.0076137492 -0.013158366 -0.02258168
-0.092108525 0.10269512 -0.113084294 -0.07722756 -0.111630775 -0.12648888 0.010611481 0.010332707
0.120616816 0.03565173 -0.016853679 0.0010957877 -0.10453765 -0.11525719 -0.076896235 0.13094917
-0.0983876 0.058888067 0.030860314 -0.054242563 -0.03409991 0.026779637 -0.05255616 -0.050928816
-0.05048761 -0.07012471 0.07846128 0.015945764 0.004786022 -0.036732256 0.1186456 0.11982896
0.09989884 -0.10231506 -0.07270461 -0.06906336 -0.050229836 -0.109285675 -0.049190104 0.01522058
0.12207515 0.07001168 -0.12601379 0.054484695 -0.0788632 -0.0786746 0.07081169 -0.07288583
0.023747383 -0.02678467 -0.04955291 -0.0013381982 0.08404398 0.023575826 0.11932998 -0.013157172
0.02285277 0.006741083 -0.048741806 0.023081122 -0.07805277 0.104510486 0.09870879 0.104746565
-0.0955466 -0.016777692 -0.024050001 0.12128097 -0.1124206 0.030546641 -0.043068126 -0.033631142
0.043136105 -0.07268049 0.044854812 0.054551795 0.057656948 -0.07729885 -0.039140817 -0.07648267
-0.043875728 0.095048204 -0.06391613 -0.04773948 -0.061859407 -0.006342995 -0.08177908 -0.090741925
-0.028085966 -0.07848724 0.051787343 -0.08312573 0.07288823 -0.040088322 -0.082971 0.004897233
-0.08753403 0.09044103 0.05589592 0.07598082 0.0382808 0.05096706 -0.04737962 -0.079661086
-0.0617806 0.012192271 -0.03384034 0.09100228 0.003699015 -0.037129402 0.06418021 0.05781489
0.028283153 0.028078217 0.066148356 0.0071437727 0.07898727 -0.013208058 -0.016060585 0.059426785
0.08948626 0.029965414 0.0073951026 0.041201234 -0.08777332 -0.076975316 0.01861992 0.08144527
-0.046455696 0.0039504613 -0.038047273 0.02057777 0.07680737 0.11198675 -0.01243925 0.0074070576
00000000: 3dc7 d23d 4a61 ad3d b9b7 d23d f933 30bd
00000010: d24a da3d 84e7 743d d37f 1fbd 3633 323c
00000020: 4a16 ddbd d9ca c73c 8661 f7bd 30e0 6b3c
00000030: 1757 9cbd 4373 8b3d 71cd f9bc 74f9 89bd
00000040: 02d2 963d aae1 5f3c d3cf 6d3d a5e1 f6bd
00000050: 709c 6d3c 4b96 3abd 27b3 0e3d 69c7 b03c
00000060: 05db b8bd 8afb c13d b203 193c e2f8 493d
00000070: 02b3 9dbd 783a 163d b4f7 94bd 155a bb3d
00000080: 0360 f03d 45a1 bc3c a07c f6bd 8c85 3abd
00000090: 860c e2bd 9f7b f03d 7527 5f3d d09d b13d
000000a0: 6ed6 353d 6bce d93d 45dd c0bd 39f1 843d
000000b0: 8f63 8e3a 8bbf 9dbd 830b f53b 9640 aa3d
000000c0: b3dd 0abd bd6b d3bd 652e 34bc b936 703d
000000d0: c233 a1bd 56ad bcbd 25a6 b0bd f137 db3c
000000e0: 96e0 aabd c53b 52bb 63f8 e3bc dc89 0ebd
000000f0: 6e6c d1bd 4285 c8bd acea 073d 6b7f 60bc
00000100: 2e2f 363d 5e45 343d 9f96 a8bd c1fd 97bd
00000110: 370d 7cbd 398f 073d da42 f3bd f75f c43d
00000120: deee 983d 356f b93c a2ab fdbd 18e9 21bd
00000130: 5f4d 6a3d 5936 4abc da34 e4ba b73d babd
00000140: 08a5 70bd b56d 5e3b 81ad 99bc 402b fdbc
00000150: e2f9 66bd 6d33 c53c a2c3 84bc b296 993d
00000160: 6915 31bd 74ec c0bb c2ee f1bd 91d1 a83d
00000170: ccc9 40bc b6f8 893d a673 5abd 68d7 613c
00000180: 9a06 213d 9c3a cd3c 8d84 9c3d 8fe0 70bd
00000190: 3249 45bd 3d71 063e c6af 64bc 74eb ab3d
000001a0: f565 103d 4513 5e3d 77ad c13d f4b4 683d
000001b0: 11ae a9bd 23df a3bc 1812 973c ae96 7eba
000001c0: 278c 163b 88b8 b03d 72a1 9b3d 0e92 5b3d
000001d0: 91b3 563c c27c f93b 3096 57bc 37fd b8bc
000001e0: 65a3 bcbd d251 d23d bd98 e7bd 7c29 9ebd
000001f0: ad9e e4bd 4d86 01be c7db 2d3c 844a 293c
00000200: f305 f73d 8c07 123d ba10 8abc 89a0 8f3a
00000210: d617 d6bd f60b ecbd c67b 9dbd 8a17 063e
00000220: 707f c9bd 9d34 713d c5ce fc3c 732d 5ebd
00000230: 59ac 0bbd f860 db3c 2145 57bd bc9a 50bd
00000240: 19cc 4ebd 8b9d 8fbd 4fb0 a03d b1a0 823c
00000250: 10d4 9c3b 9074 16bd 77fc f23d e368 f53d
00000260: c397 cc3d 8f8a d1bd 28e6 94bd 1771 8dbd
00000270: cdbd 4dbd 2bd1 dfbd 907b 49bd bd5f 793c
00000280: 8902 fa3d 4962 8f3d c209 01be 582b 5f3d
00000290: 0883 a1bd 2620 a1bd b805 913d 2b45 95bd
000002a0: df89 c23c 866b dbbc fef7 4abd 7b66 afba
000002b0: 401f ac3d 1722 c13c 4763 f43d 2e91 57bc
000002c0: bb35 bb3c 4ee4 dc3b 7da5 47bd 9f14 bd3c
000002d0: 21da 9fbd 9809 d63d d627 ca3d 5e85 d63d
000002e0: f0ad c3bd 5f71 89bc 8204 c5bc 2862 f83d
000002f0: c63c e6bd f33c fa3c 3468 30bd cfc0 09bd
00000300: 7caf 303d 82d9 94bd aeb9 373d b471 5f3d
00000310: b129 6c3d dc4e 9ebd 1f52 20bd f2a2 9cbd
00000320: 09b7 33bd a2a8 c23d 76e6 82bd 798a 43bd
00000330: 4a60 7dbd e6d8 cfbb ca7b a7bd e7d6 b9bd
00000340: 8a14 e6bc ebbd a0bd f71e 543d d33d aabd
00000350: 6d46 953d a733 24bd b3ec a9bd f878 a03b
00000360: 0b45 b3bd 2639 b93d 1ff3 643d d59b 9b3d
00000370: 54cc 1c3d d6c2 503d 2211 42bd 5a25 a3bd
00000380: a80d 7dbd 17c2 473c 2b9c 0abd 675f ba3d
00000390: 2c6b 723b 0015 18bd ea70 833d 4ecf 6c3d
000003a0: 12b2 e73c 4a04 e63c ca78 873d 4f16 ea3b
000003b0: 14c4 a13d 9c66 58bc 7d91 83bc 8069 733d
000003c0: 9344 b73d 077a f53c 9e52 f23b a0c2 283d
000003d0: 80c2 b3bd 3ca5 9dbd cd88 983c c7cc a63d
000003e0: 5448 3ebd df72 813b 75d7 1bbd b692 a83c
000003f0: 2f4d 9d3d 4f59 e53d ffcd 4bbc e7b6 f23b

layers.0.backward_conv1d.bias f4 [64]
0.057131555 0.08373432 -0.06313816 0.015083545 -0.07725812 0.0006704118 -0.11496293 -0.050062902
-0.052709915 0.007536635 0.04155077 -0.11134294 0.08370829 0.010604003 -0.039917834 0.10802779
0.09098068 -0.019773388 -0.09197531 -0.005741898 -0.13259028 0.076066755 0.06594625 -0.066316634
0.09090511 -0.017434573 0.06992642 -0.0033901585 -0.089506716 -0.0969566 -0.09280669 -0.106646046
0.011125028 -0.1151312 0.088986635 -0.039137363 -0.002798139 0.03981417 0.122341596 -0.09196482
-0.050627317 0.107297495 -0.091222264 -0.036038425 0.045368165 -0.06954378 0.08038982 0.07780134
-0.10659585 -0.08460643 -0.059495587 -0.085620984 -0.09909895 -0.037589278 0.10030341 0.089456975
-0.012629976 -0.009165466 0.09587769 -0.029650819 0.008387952 0.069047846 0.019572511 0.0236184
00000000: c702 6a3d e67c ab3d 944e 81bd f920 773c
00000010: 8139 9ebd 93be 2f3a af71 ebbd c20e 4dbd
00000020: 5ae6 57bd e0f5 f63b 2431 2a3d c407 e4bd
00000030: 406f ab3d 6abc 2d3c e280 23bd ad3d dd3d
00000040: 1454 ba3d cdfb a1bc 8d5d bcbd 8826 bcbb
00000050: bfc5 07be e3c8 9b3d d40e 873d 04d1 87bd
00000060: 752c ba3d f3d2 8ebc 9535 8f3d 6c2d 5ebb
00000070: 4c4f b7bd 2f91 c6bd 6f11 bebd 3e69 dabd
00000080: c045 363c e8c9 ebbd a03e b63d 804e 20bd
00000090: fb60 37bb 2f14 233d 3b8e fa3d 0d58 bcbd
000000a0: 975e 4fbd cabe db3d bdd2 babd 079d 13bd
000000b0: f8d3 393d f86c 8ebd 6ba3 a43d 4f56 9f3d
000000c0: ed4e dabd 2346 adbd a5b1 73bd 0e5a afbd
000000d0: 64f4 cabd 37f7 19bd e06b cd3d 3835 b73d
000000e0: f5ed 4ebc c02a 16bc 865b c43d 46e6 f2bc
000000f0: 9f6d 093c f568 8d3d 8856 a03c 607b c13c

layers.0.norm.weight f4 [64]
0.98024225 0.9882174 0.9858766 1.0038676 0.972937 0.9699906 0.9974607 0.9608467
0.988103 0.988058 0.9771269 0.98786414 0.9788353 0.98417723 0.9901388 0.9798446
0.9946172 1.0032151 0.9787539 0.9456401 0.9748638 0.98967797 0.98703605 0.9997098
0.98842674 0.9918009 0.9965239 0.93050396 0.9851417 0.9859647 0.98830664 0.98090774
0.972465 0.98026866 0.9842941 0.99152327 0.93575287 0.9865507 0.97818375 0.9826485
0.9929887 0.9784234 0.98668486 0.98924816 0.9825552 0.9916372 0.9824222 0.9769831
0.9818109 0.9905068 0.9825358 0.9610046 0.9742377 0.99074125 0.9839498 0.98506147
0.9644703 0.9676964 0.9429609 0.9859631 0.991527 0.96595585 0.98473144 0.96364003
00000000: 28f1 7a3f d1fb 7c3f 6962 7c3f bc7e 803f
00000010: 6612 793f 4e51 783f 9659 7f3f 0dfa 753f
00000020: 51f4 7c3f 5ef1 7c3f fd24 7a3f aae4 7c3f
00000030: f394 7a3f 0af3 7b3f bd79 7d3f 19d7 7a3f
00000040: 3c9f 7e3f 5a69 803f 9e8f 7a3f 7815 723f
00000050: ad90 793f 895b 7d3f 65ae 7c3f fbec 7f3f
00000060: 8909 7d3f aae6 7d3f 311c 7f3f 8235 6e3f
00000070: 3f32 7c3f 2f68 7c3f aa01 7d3f c51c 7b3f
00000080: 77f3 783f e3f2 7a3f b3fa 7b3f 78d4 7d3f
00000090: 808d 6f3f 968e 7c3f 406a 7a3f da8e 7b3f
000000a0: 8234 7e3f f579 7a3f 6197 7c3f 5e3f 7d3f
000000b0: bd88 7b3f efdb 7d3f 0580 7b3f 901b 7a3f
000000c0: f657 7b3f db91 7d3f 7787 7b3f 6604 763f
000000d0: a467 793f 38a1 7d3f 22e4 7b3f fd2c 7c3f
000000e0: 87e7 763f f4ba 773f e365 713f 1468 7c3f
000000f0: b7d4 7d3f e248 773f 5c17 7c3f 1db1 763f

layers.0.norm.bias f4 [64]
0.006785542 -0.00081996445 -0.0025736494 0.0024653948 0.005336282 -0.013607764 -0.0019303832 0.005435954
-0.0054839607 -0.007998779 -0.003924288 -0.00095294474 -0.0054748887 0.008494888 0.0046742894 -0.006009027
-4.679844e-05 0.0036766885 0.0022803291 0.0025013145 0.005330278 0.006214724 -0.007591177 -0.00022268007
-0.0059535424 0.0040397174 -0.0035123394 -0.002350536 0.0011581547 -0.00438852 -0.003204547 -0.0080810925
-0.004109607 -0.00777561 -0.0032724289 -0.0022160816 0.0008075812 -0.00027935175 -0.00677207 -0.0017670622
-0.0008125228 0.007555957 0.0014125666 0.021453137 -0.0015526644 0.0076125036 0.0042731594 -0.00938551
0.0030872494 -0.0066044293 -0.0014569728 -0.0039499826 0.0038135878 0.0011749773 0.0034442525 -0.010817047
-0.0058995397 -0.0012943856 0.0025119395 -0.0030106045 -0.00882617 -0.008226251 0.0025589287 0.002578889
00000000: 4059 de3b e2f2 56ba acaa 28bb 7692 213b
00000010: fadb ae3b 19f3 5ebc e904 fdba 1620 b23b
00000020: ccb2 b3bb 500d 03bc 5097 80bb 0acf 79ba
00000030: b266 b3bb 252e 0b3c c82a 993b 5fe7 c4bb
00000040: 7149 44b8 99f4 703b 9371 153b 18ed 233b
00000050: 9da9 ae3b e2a4 cb3b 68bf f8bb 3a7f 69b9
00000060: ef15 c3bb 9b5f 843b 472f 66bb 730b 1abb
00000070: 39cd 973a 93cd 8fbb 6103 52bb 8f66 04bc
00000080: e2a9 86bb 8bca febb 3f76 56bb ae3b 11bb
00000090: dbb3 533a f575 92b9 3ee8 ddbb c59c e7ba
000000a0: 7bff 54ba f697 f73b df25 b93a 7dbe af3c
000000b0: c682 cbba 4f72 f93b dc05 8c3b afc5 19bc
000000c0: 7353 4a3b f869 d8bb e5f7 beba db6e 81bb
000000d0: 63ed 793b b201 9a3a f8b8 613b fc39 31bc
000000e0: ed50 c1bb 60a8 a9ba 5a9f 243b 904d 45bb
000000f0: a49b 10bc 66c7 06bc b3b3 273b 9402 293b

layers.0.ssm.A_log f4 [64, 64]
0.003135913 0.56169444 0.53696024 0.7161203 0.9578087 1.1087091 1.2748264 1.593427
1.5727657 1.6127588 1.7040633 1.790014 1.8691233 1.9605887 2.0108476 2.0750964
2.1349273 2.191569 2.2452357 2.2960854 2.3445332 2.3907046 2.434847 2.4771423
2.5176826 2.5566669 2.5941565 2.6302848 2.665191 2.6989102 2.7315001 2.7630875
2.7936697 2.8233461 2.8522043 2.880248 2.9075186 2.934058 2.959903 2.9850905
3.0096502 3.0336154 3.057027 3.0799325 3.1023207 3.1242137 3.1456344 3.1666007
3.187133 3.2072487 3.2269626 3.2462916 3.2652507 3.283853 3.302095 3.3200428
3.3376863 3.355018 3.37207 3.388816 3.4052777 3.421507 3.4374528 3.4531386
-0.0009891292 0.63943803 0.64587766 0.72269374 1.0881921 1.1101635 1.3099629 1.7484763
1.6703765 1.6163101 1.7038102 1.7897929 1.8691325 2.0067225 2.0109594 2.075701
2.1355164 2.1915522 2.2452924 2.2961257 2.3445256 2.3907323 2.434845 2.4772403
2.5176766 2.5566669 2.5941527 2.630298 2.6651938 2.698883 2.7314794 2.7630877
2.7936683 2.8233645 2.8522055 2.8802469 2.9075186 2.9340575 2.9598992 2.98509
3.0096455 3.0336142 3.0570273 3.0799322 3.1023207 3.1242137 3.1456344 3.1666014
3.187133 3.2072487 3.2269628 3.2462914 3.2652507 3.2838523 3.302095 3.3200428
3.3376863 3.355018 3.37207 3.388816 3.4052777 3.421507 3.4374526 3.4531386
-0.0029108098 0.5720674 0.5422737 0.71879333 0.9867541 1.1095442 1.2757308 1.6079037
1.5706034 1.6104983 1.7039456 1.7899399 1.8691553 1.9516826 2.010855 2.0748587
2.1349483 2.1915596 2.2451959 2.296096 2.3445318 2.390707 2.43483 2.4771297
2.5176828 2.5566664 2.594154 2.6302843 2.6652 2.6989183 2.7315168 2.763088
2.7936735 2.8233404 2.8522046 2.8802483 2.9075186 2.9340582 2.959903 2.9850903
3.0096495 3.0336158 3.057027 3.0799322 3.1023207 3.1242142 3.1456344 3.1666012
3.187133 3.2072484 3.2269626 3.2462916 3.2652507 3.283853 3.302095 3.3200428
3.3376863 3.355018 3.37207 3.388816 3.4052777 3.421507 3.4374528 3.4531386
-0.0046600485 0.47237685 0.47562274 0.71511847 0.94735485 1.1092546 1.2587831 1.4907465
1.5269372 1.6086143 1.7036874 1.7899386 1.8691776 1.9441929 2.0109112 2.0748801
2.134947 2.1915588 2.2451572 2.2960901 2.344527 2.390709 2.4348397 2.4771364
2.5176888 2.5566657 2.5941534 2.6302855 2.6651952 2.6989162 2.7315195 2.7630877
2.7936714 2.8233423 2.8522048 2.8802483 2.9075186 2.9340582 2.9599025 2.9850907
3.0096495 3.0336158 3.057027 3.0799327 3.1023207 3.1242142 3.1456344 3.1666012
3.187133 3.2072487 3.2269626 3.2462916 3.2652507 3.283853 3.302095 3.3200428
3.3376863 3.355018 3.37207 3.388816 3.4052777 3.421507 3.4374528 3.4531386
00000000: e483 4d3b 35cb 0f3f 3a76 093f a953 373f
00000010: f332 753f 2eea 8d3f 832d a33f 6af5 cb3f
00000020: 6350 c93f e16e ce3f bf1e da3f 2e1f e53f
00000030: 6f3f ef3f 92f4 fa3f bab1 0040 61ce 0440
00000040: a6a2 0840 ab42 0c40 f1b1 0f40 10f3 1240
00000050: d50c 1640 4e01 1940 89d4 1b40 8089 1e40
00000060: b621 2140 6ea0 2340 a906 2640 9656 2840
00000070: 7d92 2a40 f2ba 2c40 e6d0 2e40 6dd6 3040
00000080: 7ccb 3240 b4b1 3440 848a 3640 fc55 3840
00000090: c914 3a40 9bc7 3b40 0d6f 3d40 b90b 3f40
000000a0: 1c9e 4040 c126 4240 55a6 4340 9d1d 4540
000000b0: 6c8c 4640 1ef3 4740 1352 4940 96a9 4a40
000000c0: fdf9 4b40 9043 4d40 8e86 4e40 3ec3 4f40
000000d0: def9 5040 a62a 5240 8655 5340 957b 5440
000000e0: a79c 5540 9db8 5640 ffcf 5740 5de2 5840
000000f0: 12f0 5940 f8f9 5a40 3aff 5b40 3900 5d40
00000100: aba5 81ba 36b2 233f 3d58 253f 7502 393f
00000110: e149 8b3f d619 8e3f ddac a73f 12ce df3f
00000120: e6ce d53f 40e3 ce3f 7416 da3f ef17 e53f
00000130: bc3f ef3f 246e 0040 8fb3 0040 49d8 0440
00000140: 4dac 0840 6442 0c40 dfb2 0f40 b9f3 1240
00000150: b50c 1640 c201 1940 80d4 1b40 1b8b 1e40
00000160: 9d21 2140 6ea0 2340 9906 2640 cd56 2840
00000170: 8992 2a40 80ba 2c40 8fd0 2e40 6ed6 3040
00000180: 76cb 3240 01b2 3440 898a 3640 f755 3840
00000190: c914 3a40 99c7 3b40 fd6e 3d40 b70b 3f40
000001a0: 089e 4040 bc26 4240 56a6 4340 9c1d 4540
000001b0: 6c8c 4640 1ef3 4740 1352 4940 99a9 4a40
000001c0: fdf9 4b40 9043 4d40 8f86 4e40 3dc3 4f40
000001d0: def9 5040 a32a 5240 8655 5340 957b 5440
000001e0: a79c 5540 9db8 5640 ffcf 5740 5de2 5840
000001f0: 12f0 5940 f8f9 5a40 39ff 5b40 3900 5d40
00000200: 49c3 3ebb 0273 123f 73d2 0a3f d702 383f
00000210: eb9b 7c3f 8b05 8e3f 264b a33f cacf cd3f
00000220: 8809 c93f cf24 ce3f e41a da3f c01c e53f
00000230: 7b40 ef3f bcd0 f93f d9b1 0040 7cca 0440
00000240: fea2 0840 8342 0c40 4ab1 0f40 3df3 1240
00000250: cf0c 1640 5801 1940 41d4 1b40 4b89 1e40
00000260: b721 2140 6ca0 2340 9e06 2640 9456 2840
00000270: a392 2a40 14bb 2c40 2cd1 2e40 6fd6 3040
00000280: 8ccb 3240 9cb1 3440 858a 3640 fd55 3840
00000290: c914 3a40 9cc7 3b40 0d6f 3d40 b80b 3f40
000002a0: 199e 4040 c326 4240 55a6 4340 9c1d 4540
000002b0: 6c8c 4640 20f3 4740 1352 4940 98a9 4a40
000002c0: fdf9 4b40 8f43 4d40 8e86 4e40 3ec3 4f40
000002d0: def9 5040 a62a 5240 8655 5340 957b 5440
000002e0: a79c 5540 9db8 5640 ffcf 5740 5de2 5840
000002f0: 12f0 5940 f8f9 5a40 3aff 5b40 3900 5d40
00000300: 52b3 98bb 61db f13e d384 f33e 0112 373f
00000310: d985 723f 0efc 8d3f ce1f a13f c8d0 be3f
00000320: ae72 c33f 13e7 cd3f 6e12 da3f b51c e53f
00000330: 3641 ef3f 50db f83f c5b2 0040 d6ca 0440
00000340: f9a2 0840 8042 0c40 a8b0 0f40 24f3 1240
00000350: bb0c 1640 6001 1940 6ad4 1b40 6789 1e40
00000360: d021 2140 69a0 2340 9c06 2640 9956 2840
00000370: 8f92 2a40 0bbb 2c40 37d1 2e40 6ed6 3040
00000380: 83cb 3240 a4b1 3440 868a 3640 fd55 3840
00000390: c914 3a40 9cc7 3b40 0b6f 3d40 ba0b 3f40
000003a0: 199e 4040 c326 4240 55a6 4340 9e1d 4540
000003b0: 6c8c 4640 20f3 4740 1352 4940 98a9 4a40
000003c0: fdf9 4b40 9043 4d40 8e86 4e40 3ec3 4f40
000003d0: def9 5040 a62a 5240 8655 5340 957b 5440
000003e0: a79c 5540 9db8 5640 ffcf 5740 5de2 5840
000003f0: 12f0 5940 f8f9 5a40 3aff 5b40 3900 5d40

layers.0.ssm.D f4 [64]
0.97439045 0.9911753 0.98240143 0.97173667 0.98973346 0.9628907 0.9950952 1.0012736
0.98695743 0.9838092 0.97674793 0.9899296 0.98821384 0.99622023 0.9952279 0.9999064
0.98628664 0.96222246 0.97598237 0.9913898 0.9734493 0.9706719 0.99038345 0.97542524
0.98160607 0.98487824 0.9842907 0.9570238 0.9673391 0.99225444 0.98277974 0.9797972
0.9617223 0.9948706 0.9880153 0.9774653 0.9838187 0.9930628 0.99152505 0.9965925
0.9919609 0.987536 0.9934823 0.9929269 0.9916383 0.98161143 0.98598886 0.986781
0.97198707 1.0009232 0.97428745 0.98869056 0.97622174 0.988526 0.9961571 0.9863383
0.9890433 0.9618149 0.9925521 0.98590904 0.9832996 0.9675106 0.9823236 0.96797574
00000000: a771 793f aabd 7d3f a97e 7b3f bcc3 783f
00000010: 2c5f 7d3f 0180 763f 8fbe 7e3f bc29 803f
00000020: 3ea9 7c3f ebda 7b3f 270c 7a3f 076c 7d3f
00000030: 95fb 7c3f 4a08 7f3f 41c7 7e3f def9 7f3f
00000040: 487d 7c3f 3654 763f fbd9 793f b9cb 7d3f
00000050: f933 793f f47d 783f c589 7d3f 78b5 793f
00000060: 894a 7b3f fb20 7c3f 7afa 7b3f 83ff 743f
00000070: 89a3 773f 6304 7e3f 7497 7b3f fdd3 7a3f
00000080: 6f33 763f d7af 7e3f 92ee 7c3f 2a3b 7a3f
00000090: 8bdb 7b3f 5d39 7e3f 96d4 7d3f b020 7f3f
000000a0: 26f1 7d3f 29cf 7c3f db54 7e3f 7530 7e3f
000000b0: 02dc 7d3f e34a 7b3f c469 7c3f ae9d 7c3f
000000c0: 25d4 783f 401e 803f e76a 793f d31a 7d3f
000000d0: abe9 793f 0a10 7d3f 2704 7f3f ab80 7c3f
000000e0: f131 7d3f 8039 763f e517 7e3f 8964 7c3f
000000f0: 86b9 7b3f c6ae 773f 8f79 7b3f 42cd 773f

layers.0.ssm.deltaBC_layer.weight f4 [160, 64]
-0.026348807 -0.0020333694 -0.10176404 0.10017968 -0.11179138 -0.07392219 0.08807199 0.045480475
-0.114968754 0.12093617 -0.011290355 0.116646275 -0.05661539 0.06438372 0.09103512 -0.006347008
-0.041371364 -0.028268693 0.10869066 -0.027041622 0.100539185 0.092932954 -0.063772015 -0.067085184
-0.030525686 0.027565937 -0.05655164 -0.0889575 -0.11823988 0.06383809 0.006019539 -0.07730149
-0.02546218 -0.11918492 0.043290034 -0.06558002 0.10833769 -0.07416548 0.06704194 -0.050788656
0.08623016 -0.08967473 0.056893907 0.028081331 0.025624458 0.06895407 0.08646848 -0.07087689
0.07641649 -0.07391941 -0.027160553 0.053671118 0.10433971 -0.06919309 -0.0923918 0.07883864
-0.075944796 0.009162031 0.002369798 0.1032083 -0.09165812 0.09655043 0.08588665 -0.044869483
-0.033295915 0.06834323 0.036047097 0.048147652 -0.059891842 0.09133276 -0.06831346 -0.09143682
0.04343523 0.021235244 -0.12095254 -0.06300156 0.0105602415 -0.078377776 -0.043545395 -0.002560776
5.3842714e-06 -0.0040792604 -0.0374881 0.030156747 0.03611863 -0.0029384766 0.06350243 -0.019160181
0.07800394 0.09065 -0.12018996 -0.12169348 0.077912815 0.079288684 0.06915051 0.09037459
-0.111276746 -0.07270832 0.036840227 -0.051273953 0.009455535 0.09282616 0.08667155 -0.0997481
0.007874836 0.085145846 -0.030369082 0.078499906 -0.025571264 -0.07165373 -0.050814234 -0.027261538
-0.09940129 -0.034121435 0.028406797 -0.08843371 -0.07371685 0.0957166 -0.075288035 -0.007699272
-0.06596986 0.044316698 0.08900042 -0.09579206 -0.04812577 0.10947638 -0.08337806 0.06654162
-0.07552658 -0.07646393 0.08517743 -0.07853739 -0.086783856 -0.046360165 -0.04445481 -0.025818713
-0.02168753 -0.0063424506 0.032152608 -0.10573694 -0.009265597 0.116111815 0.048702363 -0.11041197
0.11282726 0.07119522 -0.080758534 0.025366021 -0.07233173 -0.024534415 0.08191591 0.024535432
0.07125779 -0.11601924 0.09843012 0.070028864 0.069089204 0.055292152 -0.07952781 -0.023483718
0.07606548 0.024373513 0.08082204 -0.028047979 0.044177685 -0.105769195 0.11533407 -0.029081864
0.10599302 0.05203631 -0.09301634 -0.016331218 0.0055630766 0.024769582 0.028159473 -0.04953885
-0.0623651 -0.026412537 0.09122451 0.003382745 -0.09356179 -0.016802896 0.09356565 0.034026492
0.08764077 -0.028041562 -0.07629009 -0.09288175 -0.022669328 -0.113822564 -0.10869054 0.0073037404
-0.07393095 -0.11565447 -0.015124412 0.10365597 0.09974491 -0.10105223 -0.025770944 0.0013166445
0.013243585 -0.08778972 -0.09781246 -0.053917393 -0.0003029975 0.02533092 0.06151882 0.077126086
-0.045980547 0.013588172 0.011256484 -0.06175191 -0.026991429 0.001308742 0.06918288 -0.11839666
-0.059841238 -0.070534594 -0.1146815 0.047083948 -0.013701022 -0.059139714 0.083081335 -0.09157137
-0.039553422 0.047221694 -0.06787511 0.017206207 -0.06829241 0.06634299 0.044048674 -0.041842617
0.09961911 -0.023240471 0.07782205 -0.10326005 0.055075526 0.00519413 -0.04593961 -0.10878026
0.023029003 -0.09438539 0.08463698 -0.08042632 -0.08789815 0.024886504 -0.108955644 -0.05437568
-0.11642669 0.09682682 0.037196442 -0.081781946 -0.023646826 -0.0014167688 -0.04445404 -0.11029074
00000000: 74d9 d7bc 4742 05bb aa69 d0bd 012b cd3d
00000010: e1f2 e4bd 8464 97bd 165f b43d bc49 3a3d
00000020: bd74 ebbd 62ad f73d 2efb 38bc 3ee4 ee3d
00000030: 8ae5 67bd 9ddb 833d 9f70 ba3d 90fa cfbb
00000040: 0575 29bd bf93 e7bc 3599 de3d 6486 ddbc
00000050: 7de7 cd3d a253 be3d e79a 82bd f563 89bd
00000060: 0111 fabc f6d1 e13c b1a2 67bd 5a2f b6bd
00000070: c027 f2bd 8bbd 823d 8e3f c53b 3e50 9ebd
00000080: 1096 d0bc 3917 f4bd e450 313d d14e 86bd
00000090: 27e0 dd3d 12e4 97bd 494d 893d c407 50bd
000000a0: 7099 b03d 63a7 b7bd 9609 693d d20a e63c
000000b0: 62ea d13c cb37 8d3d 6316 b13d e727 91bd
000000c0: 4080 9c3d 0f63 97bd cf7f debc 3fd6 5b3d
000000d0: 0fb0 d53d 1bb5 8dbd e937 bdbd 2776 a13d
000000e0: f288 9bbd 581c 163c 9d4e 1b3b e05e d33d
000000f0: 41b7 bbbd 3bbc c53d 57e5 af3d 10c9 37bd
00000100: 4c61 08bd 89f7 8b3d 1fa6 133d 7936 453d
00000110: 2651 75bd ac0c bb3d ede7 8bbd 3a43 bbbd
00000120: 24e9 313d 89f5 ad3c f7b5 f7bd f606 81bd
00000130: dd04 2d3c 8784 a0bd a85c 32bd b1d2 27bb
00000140: 8aaa b436 51ab 85bb 1f8d 19bd 480b f73c
00000150: 21f1 133d 7593 40bb 900d 823d d0f5 9cbc
00000160: 88c0 9f3d b5a6 b93d 2726 f6bd 6e3a f9bd
00000170: c190 9f3d 1b62 a23d c89e 8d3d 5016 b93d
00000180: 10e5 e3bd 1ae8 94bd c7e5 163d a304 52bd
00000190: 63eb 1a3c a41b be3d db80 b13d bb48 ccbd
000001a0: 7505 013c f260 ae3d 95c8 f8bc 8fc4 a03d
000001b0: d47a d1bc 31bf 92bd 9622 50bd 9753 dfbc
000001c0: e792 cbbd ebc2 0bbd 5fb5 e83c bc1c b5bd
000001d0: dcf8 96bd 1107 c43d 9d30 9abd 2d4a fcbb
000001e0: 351b 87bd 6d85 353d da45 b63d a12e c4bd
000001f0: 871f 45bd 2735 e03d 1ec2 aabd f946 883d
00000200: aead 9abd 1f99 9cbd 8171 ae3d 36d8 a0bd
00000210: bcbb b1bd 28e4 3dbd 3f16 36bd c481 d3bc
00000220: 0caa b1bc 55d4 cfbb 74b2 033d 9c8c d8bd
00000230: bbce 17bc 08cc ed3d 217c 473d ac1f e2bd
00000240: fa11 e73d cdce 913d bb64 a5bd 67cc cf3c
00000250: a822 94bd 66fc c8bc 87c3 a73d 88fe c83c
00000260: 9bef 913d 7f9b edbd bb95 c93d 4b6b 8f3d
00000270: a47e 8d3d 067a 623d 7adf a2bd ed60 c0bc
00000280: 38c8 9b3d f6aa c73c 0786 a53d e0c4 e5bc
00000290: a9f3 343d 859d d8bd 4534 ec3d 173d eebc
000002a0: de12 d93d 0724 553d 5a7f bebd 0cc9 85bc
000002b0: 784a b63b 94e9 ca3c b2ae e63c 40e9 4abd
000002c0: 8c72 7fbd 1b5f d8bc ead3 ba3d 0bb1 5d3b
000002d0: 539d bfbd 3aa6 89bc 599f bf3d 5d5f 0b3d
000002e0: 017d b33d 6bb7 e5bc fb3d 9cbd c938 bebd
000002f0: 07b5 b9bc ce1b e9bd 2599 debd 3754 ef3b
00000300: 1c69 97bd 40dc ecbd 62cc 77bc 9549 d43d
00000310: 0f47 cc3d 79f4 cebd 961d d3bc 4293 ac3a
00000320: 9ffb 583c 19cb b3bd e651 c8bd 7cd8 5cbd
00000330: a3db 9eb9 ca82 cf3c 28fb 7b3d 48f4 9d3d
00000340: 1956 3cbd eda0 5e3c 1e6d 383c 92ef 7cbd
00000350: 211d ddbc 188a ab3a c1af 8d3d f379 f2bd
00000360: 161c 75bd 7174 90bd 22de eabd 19db 403d
00000370: 407a 60bc 7c3c 72bd 8c26 aa3d c589 bbbd
00000380: c502 22bd 896b 413d 1b02 8bbd 08f4 8c3c
00000390: e4dc 8bbd d5de 873d 626c 343d 2a63 2bbd
000003a0: 1b05 cc3d cd62 bebc 2b61 9f3d 017a d3bd
000003b0: e096 613d 8533 aa3b 2c2b 3cbd 2fc8 debd
000003c0: 52a7 bc3c 214d c1bd 2756 ad3d 8eb6 a4bd
000003d0: f203 b4bd c8de cb3c 2324 dfbd 08b9 5ebd
000003e0: 1e71 eebd 244d c63d 4c5b 183d 4b7d a7bd
000003f0: fdb6 c1bc dfb2 b9ba 7015 36bd 1de0 e1bd

layers.0.ssm.dt_proj_layer.weight f4 [64, 32]
-0.0077162613 0.06070466 -0.035337955 -0.17349929 -0.15758933 0.10306153 -0.14805265 -0.036650516
0.072371215 0.017928896 -0.10725128 -0.16166204 0.12819941 -0.054983724 -0.0739473 -0.0665506
-0.072524056 -0.0442353 0.16616581 -0.05666356 -0.1441461 0.050032485 0.025973493 0.12003413
-0.02659172 0.06840455 0.09302233 -0.048897643 0.12641056 -0.13063651 0.13917115 0.1496705
0.018533397 0.033892017 0.08207703 -0.1173901 -0.1022265 0.06555559 0.06985547 -0.13012339
-0.05687468 0.11328135 0.14172721 -0.05405927 -0.08892742 0.037645966 0.09783181 -0.148841
0.043720856 0.08208486 0.02853643 0.09931278 0.07027294 -0.12689067 0.13993119 -0.06895521
-0.09101975 -0.14619572 -0.16540462 -0.039466012 -0.1384306 -0.06968812 0.09386442 0.077797525
0.038580198 -0.08649096 -0.06308507 -0.004244284 0.08795713 0.13775307 -0.10275569 -0.03515813
-0.0399555 -0.14003527 0.056438524 -0.08310874 0.014202678 0.14300227 -0.033906948 -0.017103424
-0.06651588 -0.16001992 0.011966429 0.09592869 0.09160717 0.060784172 -0.17933336 -0.1254469
-0.15514612 0.0906025 0.04786862 -0.12712649 0.053621124 -0.06865825 -0.08657001 0.0109715285
-0.082682736 0.05612736 -0.0032711537 0.11032926 -0.0880618 0.01750326 0.09020427 -0.09984476
-0.009218136 -0.00762994 0.012578795 -0.037225585 -0.09616866 0.08819235 -0.13430879 0.15309988
-0.103921786 -0.107608795 0.10773596 -0.16645117 -0.07828902 0.04318016 -0.051557068 0.054207284
-0.045786258 -0.02269488 -0.14715892 -0.064180024 -0.0047072396 -0.09349176 -0.13195884 0.09776674
0.103863806 -0.121402614 0.0037280214 0.09012924 0.14565107 -0.05102652 -0.11808698 -0.0273302
-0.11377736 -0.04470849 0.16571178 -0.017704008 -0.13614494 0.104105555 -0.123627484 0.03008647
0.13617943 -0.0694613 0.07194873 -0.026002318 0.16546933 0.12919559 0.06622208 0.09959408
0.11811707 -0.1269071 0.08193123 -0.092141695 0.051172275 0.07953558 0.09966631 -0.056713816
-0.0010666861 0.14500402 0.097845055 -0.053810753 0.0255854 -0.08240354 -0.04878161 -0.034310773
0.10189687 0.0084492825 0.07371432 -0.014996037 -0.011631725 0.06856784 0.14613941 -0.011353963
0.10854804 -0.015274867 -0.041011073 -0.0057110838 -0.11378659 -0.06698217 -0.09183389 -0.15080766
-0.1132603 0.07381154 0.08422522 0.09346344 0.11373138 0.0414745 0.13623728 -0.013304893
-0.10784754 0.13864891 -0.022599692 -0.092492 -0.12310743 0.12042854 0.06260045 0.12088845
-0.082831085 -0.1209116 0.09370367 -0.098009974 -0.105528794 0.09251055 -0.0058618346 0.019226504
0.051299796 -0.030574534 0.041660115 0.0308609 0.15972516 0.09660999 0.1109862 -0.009787727
-0.1391215 -0.013807571 -0.11723165 -0.13749814 0.07783429 -0.0714477 -0.15688527 -0.010299591
0.15404613 0.08259847 0.13419557 -0.15502413 0.106730424 -0.00082975585 0.0378024 0.02156734
0.11892575 -0.121718206 0.07659668 0.16268207 -0.1112417 -0.06628705 -0.11983947 0.03884617
-0.05920898 0.08293745 0.17459485 0.10388228 -0.068876356 0.07994921 -0.053703096 -0.089748934
0.14243919 0.07753284 -0.0042686593 0.12537153 0.04973073 0.069863215 -0.012528433 0.06296513
00000000: b1d8 fcbb 73a5 783d 88be 10bd cca9 31be
00000010: 195f 21be ec11 d33d 1d9b 17be da1e 16bd
00000020: 5c37 943d 9fdf 923c 8fa6 dbbd bc8a 25be
00000030: b546 033e 9d36 61bd af71 97bd ae4b 88bd
00000040: 7e87 94bd 1330 35bd 5f27 2a3e 0d18 68bd
00000050: 099b 13be ddee 4c3d 5dc6 d43c 74d4 f53d
00000060: e1d6 d9bc af17 8c3d 7e82 be3d e548 48bd
00000070: c571 013e 94c5 05be e282 0e3e 3943 193e
00000080: 5ad3 973c 5bd2 0a3d 0018 a83d 396a f0bd
00000090: 215c d1bd 0242 863d 6210 8f3d 113f 05be
000000a0: 6df5 68bd 0d00 e83d f020 113e 416d 5dbd
000000b0: 941f b6bd a832 1a3d 0b5c c83d c669 18be
000000c0: a414 333d 1b1c a83d 3bc5 e93c 8064 cb3d
000000d0: 42eb 8f3d a1ef 01be 1f4a 0f3e 6438 8dbd
000000e0: 9068 babd 55b4 15be d45f 29be 1da7 21bd
000000f0: c0c0 0dbe a5b8 8ebd fd3b c03d 4f54 9f3d
00000100: 4506 1e3d 2c22 b1bd bf32 81bd a213 8bbb
00000110: de22 b43d 240f 0d3e 9371 d2bd f901 10bd
00000120: 61a8 23bd 6865 0fbe 152c 673d ea34 aabd
00000130: 59b2 683c 306f 123e 03e2 0abd 7b1c 8cbc
00000140: 7a39 88bd 43dc 23be d70e 443c 4376 c43d
00000150: 8a9c bb3d d3f8 783d 2aa3 37be 2775 00be
00000160: a0de 1ebe ce8d b93d e311 443d 722d 02be
00000170: d3a1 5b3d b29c 8cbd 9e4b b1bd edc1 333c
00000180: 9155 a9bd cde5 653d da60 56bb 4ff4 e13d
00000190: bf59 b4bd ff62 8f3c 04bd b83d 697b ccbd
000001a0: aa07 17bc 9304 fabb 4a17 4e3c db79 18bd
000001b0: 13f4 c4bd 319e b43d 3e88 09be 37c6 1c3e
000001c0: f2d4 d4bd 0062 dcbd aca4 dc3d 2d72 2abe
000001d0: fe55 a0bd aedd 303d 812d 53bd 7508 5e3d
000001e0: 5f8a 3bbd 9dea b9bc d4b0 16be d170 83bd
000001f0: 303f 9abb 9c78 bfbd 3820 07be ee39 c83d
00000200: 8cb6 d43d efa1 f8bd d251 743b ae95 b83d
00000210: 8e25 153e 2f01 51bd 96d7 f1bd 95e3 dfbc
00000220: 1b04 e9bd 4020 37bd 59b0 293e ff07 91bc
00000230: 9469 0bbe 4b35 d53d 6830 fdbd e777 f63c
00000240: 9f72 0b3e ba41 8ebd db59 933d d002 d5bc
00000250: cb70 293e d94b 043e 719f 873d fbf7 cb3d
00000260: 5de7 f13d eff3 01be 90cb a73d c9b4 bcbd
00000270: 059a 513d 8de3 a23d da1d cc3d bf4c 68bd
00000280: 0cd0 8bba ef7b 143e fd62 c83d aa68 5cbd
00000290: 7998 d13c 30c3 a8bd 3acf 47bd 7489 0cbd
000002a0: 4eaf d03d dc6e 0a3c 89f7 963d f0b1 75bc
000002b0: fe92 3ebc 4c6d 8c3d 92a5 153e f905 3abc
000002c0: 6f4e de3d 7043 7abc 3afb 27bd 0b24 bbbb
000002d0: f208 e9bd f32d 89bd 6813 bcbd 536d 1abe
000002e0: 04f5 e7bd 812a 973d 467e ac3d c369 bf3d
000002f0: ffeb e83d 2ae1 293d c981 0b3e c4fc 59bc
00000300: 2cdf dcbd fbf9 0d3e fd22 b9bc 726c bdbd
00000310: c01f fcbd 3da3 f63d aa34 803d 5d94 f73d
00000320: 58a3 a9bd 80a0 f7bd b6e7 bf3d 74b9 c8bd
00000330: 7b1f d8bd 2c76 bd3d a214 c0bb e780 9d3c
00000340: bc1f 523d 7277 fabc cca3 2a3d 00d0 fc3c
00000350: fe8e 233e 75db c53d bc4c e33d b45c 20bc
00000360: de75 0ebe 2639 62bc 2617 f0bd 50cc 0cbe
00000370: 9667 9f3d 2c53 92bd 88a6 20be 9ebf 28bc
00000380: 45be 1d3e 6329 a93d 906a 093e a5be 1ebe
00000390: 7b95 da3d f983 59ba b0d6 1a3d fdad b03c
000003a0: 588f f33d 6547 f9bd b8de 9c3d 2196 263e
000003b0: b0d2 e3bd 81c1 87bd 656e f5bd 291d 1f3d
000003c0: 1e85 72bd 1cdb a93d fec8 323e 3cc0 d43d
000003d0: 0c0f 8dbd 69bc a33d c7f7 5bbd 4ace b7bd
000003e0: 94db 113e 8ac9 9e3d 1ce0 8bbb 6561 003e
000003f0: 73b2 4b3d 7214 8f3d 0f44 4dbc ddf3 803d

layers.0.ssm.dt_proj_layer.bias f4 [64]
-0.15087855 -0.12862767 -0.038698863 0.0074555767 0.092768714 -0.08592297 -0.123796344 0.08223947
-0.09595723 0.045539424 0.10117018 -0.07785504 -0.13898315 0.056627207 -0.10173725 0.07342012
-0.16999274 -0.10418838 0.12760125 -0.013510195 0.01387527 -0.10381354 -0.09967572 0.070629865
-0.025806649 -0.10075255 0.08843924 -0.079234 0.11355447 0.04023602 0.15192433 -0.09309449
-0.15250266 -0.051468007 -0.08515517 -0.104465105 -0.09371595 0.050151095 0.09093499 -0.13643588
0.117674254 -0.09558806 0.05604305 0.060581744 0.03373016 0.12866896 -0.1613856 -0.1283275
-0.053599983 -0.06398836 -0.15610011 0.03223271 -0.035331883 0.019356605 0.1707691 -0.047721688
-0.1004566 -0.12949985 0.13095279 0.038745426 -0.064668916 -0.07106604 -0.13299873 -0.11242429
00000000: e87f 1abe f9b6 03be b382 1ebd e94d f43b
00000010: 86fd bd3d 62f8 afbd f088 fdbd 2b6d a83d
00000020: 3985 c4bd 8c87 3a3d 5032 cf3d 7772 9fbd
00000030: 9951 0ebe eef1 673d 9f5b d0bd 4a5d 963d
00000040: 9412 2ebe b860 d5bd e7a9 023e dd59 5dbc
00000050: 1a55 633c 319c d4bd c922 ccbd 64a6 903d
00000060: 7768 d3bc 5a57 cebd a21f b53d 6f45 a2bd
00000070: 3f8f e83d 86ce 243d 0d92 1b3e 53a8 bebd
00000080: a829 1cbe 1ed0 52bd d565 aebd cdf1 d5bd
00000090: 26ee bfbd 3c6b 4d3d 203c ba3d d9b5 0bbe
000000a0: 33ff f03d acc3 c3bd 668d 653d 9024 783d
000000b0: a328 0a3d ccc1 033e 4442 25be 4968 03be
000000c0: a88b 5bbd 540c 83bd b5d8 1fbe 7206 043d
000000d0: 2ab8 10bd be91 9e3c 18de 2e3e d177 43bd
000000e0: 31bc cdbd 9c9b 04be 7d18 063e 86b3 1e3d
000000f0: 2371 84bd 128b 91bd d230 08be b53e e6bd
