vim_model_200.pth (torch, 62623 bytes, 58 tensors)

cls_token f4 [1, 1, 16]
1.5550112 -0.97653025 0.4929588 1.5960706 1.1279274 0.0067128846 -1.5274295 -2.3621585
-0.7019457 -0.7340266 -0.20018975 -0.87865674 -0.592699 -0.4884131 1.3222197 1.5080142
00000000: 9b0a c73f e3fd 79bf 1965 fc3e 0b4c cc3f
00000010: ed5f 903f c2f7 db3b cf82 c3bf 9b2d 17c0
00000020: b7b2 33bf 2be9 3bbf 8bfe 4cbe a6ef 60bf
00000030: 1fbb 17bf 4811 fabe 7f3e a93f 9c06 c13f

to_patch_embedding.1.weight f4 [16, 169]
0.07064548 0.022402318 -0.070448756 -0.08032455 0.04760029 -0.013799618 0.03147748 0.0794889
-0.064282686 0.096310616 0.017770091 -0.0240105 -0.05400035 -0.055681664 0.018042417 -0.07849214
0.043386202 0.000842449 -0.020471958 -0.061404157 0.013098357 -0.024541918 0.07201714 0.024592752
0.060648225 -0.0014686026 0.07343003 -0.009756636 0.06644276 -0.019142782 -0.07176232 0.041855257
0.03922824 -0.01655009 0.05380116 -0.0094978595 -0.014645131 0.018342065 0.043778315 -0.015512679
0.03145096 -0.02130176 0.011982327 0.053644568 0.043586127 -0.036900666 0.035911128 0.08376339
-0.03164866 0.016834874 0.01628018 0.038262162 -0.001180062 -0.07860419 -0.045941185 -0.04699027
-0.036731478 0.030545475 -0.012619164 -0.000106513115 -0.045750327 -0.0255345 0.08484448 0.023765763
0.025583573 0.007235322 -0.060559116 0.06780723 0.024549851 0.07385196 -0.059690434 0.062077913
0.05040921 -0.002564616 0.0050378437 0.04656304 -0.07291838 0.0017858321 0.011138369 0.028505845
0.020475741 0.0076015065 0.07424552 0.06372049 -0.028291345 -0.07482008 -0.019768778 0.049748097
-0.0034642748 -0.006921293 -0.050374 -0.04667017 0.006353176 0.014513004 0.045448076 0.032153726
-0.05010584 0.020074522 -0.05366667 0.07307582 -0.03704554 -0.027605347 0.010097398 0.022538109
0.073341414 0.051163714 0.0024951005 0.017462896 0.0499325 0.04213603 -0.023553649 0.028774945
-0.01610647 0.056242913 -0.053183567 0.035224576 0.0013868615 -0.022854742 0.04679704 -0.009157916
-0.053574078 -0.008770332 -0.06657272 -0.071369536 0.040733013 0.014967177 -0.001730249 0.044870395
0.046556603 0.019747058 0.044675082 -0.013691863 -0.057550102 -0.0037196025 0.014550116 -0.03600549
0.052372865 0.0036640621 0.011682949 0.0046281186 0.044932105 0.057512697 0.026286606 0.060673494
-0.0035564627 -0.060211018 -0.037170235 0.00077643 0.0014850091 -0.052962244 -0.053512007 -0.06679668
-0.012975626 -0.0718469 0.057734054 0.04074348 0.018429518 -0.072478905 0.022688404 0.004055873
0.04065086 -0.02825773 -0.04818535 0.018076379 0.04283072 0.0046738302 0.060759336 -0.01628753
-0.030902885 -0.04155999 -0.0041051838 -0.021286108 0.052034516 0.085104406 0.06808409 -0.06336147
-0.06272648 0.05009848 -0.018426182 0.03564015 -0.07380553 -0.0037914815 -0.053822074 0.02259124
0.03421728 0.001968015 -0.00045341684 -0.01341071 0.047308493 -0.038386963 0.032822296 0.010919824
-0.039400157 0.059625156 -0.06759726 -0.009345966 -0.020809134 0.045917153 0.0173492 -0.039444882
-0.039113656 -0.003330497 0.0055230316 0.011141453 0.015757794 -0.016154699 0.045261804 -0.0034498037
-0.022648487 -0.018897653 -0.02923485 -0.04164376 -0.05391093 0.062482357 -0.016476134 -0.10017075
-0.08451996 0.015087568 -0.047659718 0.03584255 0.0136513775 0.07866918 -0.021070097 -0.03173927
0.0038912473 0.04060277 -0.033201344 -0.07652543 -0.053190473 0.037885163 -0.0030082467 0.04324361
-0.0074350853 -0.03649996 -0.030702805 0.02003679 -0.068161696 0.06788582 -0.0033727398 -0.001884488
-0.066019125 0.048076216 -0.044238627 0.074453786 0.010624207 -0.053811178 0.0014108208 0.012958051
0.016963346 -0.036121443 0.06406072 -0.053820364 0.037012823 0.021411331 -0.024886789 0.07620929
00000000: 94ae 903d 1185 b73c 7047 90bd 3381 a4bd
00000010: 86f8 423d cb17 62bc 88ee 003d 14cb a23d
00000020: a4a6 83bd 803e c53d 9592 913c abb1 c4bc
00000030: 792f 5dbd 7512 64bd b1cd 933c 7dc0 a0bd
00000040: bbb5 313d ccd7 5c3a cfb4 a7bc ed82 7bbd
00000050: 7e9a 563c 220c c9bc b97d 933d bd76 c93c
00000060: 466a 783d 207e c0ba 7c62 963d 4cda 1fbc
00000070: 2413 883d 53d1 9cbc 20f8 92bd 6b70 2b3d
00000080: caad 203d 0e94 87bc 9b5e 5c3d e99c 1bbc
00000090: 22f2 6fbc 1942 963c e450 333d e428 7ebc
000000a0: b9d2 003d 0781 aebc 8651 443c 68ba 5b3d
000000b0: 5e87 323d 2725 17bd 8c17 133d 248c ab3d
000000c0: 06a2 01bd 4ae9 893c 035e 853c c9b8 1c3d
000000d0: 4fac 9aba 3cfb a0bd d32c 3cbd df78 40bd
000000e0: bf73 16bd 813a fa3c 9cc0 4ebc cb5f dfb8
000000f0: b264 3bbd ba2d d1bc f1c2 ad3d 6bb0 c23c
00000100: a494 d13c 4816 ed3b d60c 78bd 84de 8a3d
00000110: c51c c93c b23f 973d f57d 74bd 6945 7e3d
00000120: e379 4e3d 1e13 28bb 7f14 a53b e3b8 3e3d
00000130: 3b56 95bd 9512 ea3a b57d 363c 1785 e93c
00000140: bebc a73c 0f16 f93b 090e 983d e37f 823d
00000150: 40c3 e7bc 453b 99bd 22f2 a1bc a9c4 4b3d
00000160: e308 63bb 04cc e2bb f854 4ebd 3829 3fbd
00000170: 4e2e d03b f3c7 6d3c c327 3a3d a0b3 033d
00000180: c83b 4dbd 5373 a43c 95d1 5bbd c7a8 953d
00000190: 10bd 17bd 9c24 e2bc 8f6f 253c d7a1 b83c
000001a0: 0634 963d 0b91 513d d784 233b 590e 8f3c
000001b0: 0586 4c3d d496 2c3d 95f3 c0bc 6fb9 eb3c
000001c0: b7f1 83bc f85e 663d 03d7 59bd a547 103d
000001d0: 5ac7 b53a de39 bbbc 41ae 3f3d 150b 16bc
000001e0: 7e70 5bbd 70b1 0fbc 4757 88bd 312a 92bd
000001f0: a9d7 263d e438 753c 86c9 e2ba 05ca 373d
00000200: 23b2 3e3d 95c4 a13c 38fd 363d d653 60bc
00000210: a8b9 6bbd 93c4 73bb 9c63 6e3c 7e7a 13bd
00000220: ee84 563d c320 703b d769 3f3c 79a7 973b
00000230: ba0a 383d 6f92 6b3d 0257 d73c c584 783d
00000240: 8b13 69bb d49f 76bd d13f 18bd 5689 4b3a
00000250: a3a4 c23a f0ee 58bd 682f 5bbd b3cc 88bd
00000260: b897 54bc 7824 93bd 8b7a 6c3d a3e2 263d
00000270: 80f9 963c d26f 94bd 08dd b93c 21e7 843b
00000280: 8481 263d c17c e7bc 005e 45bd ea14 943c
00000290: 446f 2f3d ee26 993b c8de 783d 6d6d 85bc
000002a0: 0c28 fdbc cf3a 2abd c784 86bb 3460 aebc
000002b0: 2522 553d 384b ae3d ac6f 8b3d a9c3 81bd
000002c0: be76 80bd 1034 4d3d 81f2 96bc 68fb 113d
000002d0: 5b27 97bd 817a 78bb 8974 5cbd 4411 b93c
000002e0: 6b27 0c3d d0f9 003b 94b8 edb9 98b8 5bbc
000002f0: 8dc6 413d a63b 1dbd ac70 063d 10e9 323c
00000300: 0f62 21bd 8239 743d 6f70 8abd d31f 19bc
00000310: eb77 aabc a013 3c3d e91f 8e3c f590 21bd
00000320: a435 20bd 7844 5abb 8cfa b43b a48a 363c
00000330: 7d16 813c dc56 84bc 7164 393d 1a16 62bb
00000340: 5289 b9bc 40cf 9abc ed7d efbc a692 2abd
00000350: b5d1 5cbd 80ed 7f3d f5f8 86bc 5226 cdbd
00000360: cd18 adbd d931 773c d636 43bd a3cf 123d
00000370: 07aa 5f3c 4f1d a13d 329b acbc 0901 02bd
00000380: 4c04 7f3b 174f 263d 22fe 07bd 5db9 9cbd
00000390: 41de 59bd 792d 1b3d 0126 45bb 3620 313d
000003a0: 04a2 f3bb fb80 15bd 7384 fbbc 3224 a43c
000003b0: 5c98 8bbd b907 8b3d 2f09 5dbb ed00 f7ba
000003c0: 0935 87bd 91eb 443d 9033 35bd 3a7b 983d
000003d0: 2711 2e3c 1c69 5cbd 4aeb b83a 014e 543c
000003e0: b7f6 8a3c 14f4 13bd 4432 833d be72 5cbd
000003f0: c29a 173d d166 af3c 61df cbbc 9e13 9c3d

to_patch_embedding.1.bias f4 [16]
0.03249376 -0.0342813 -0.07623953 -0.028436523 -0.08147395 0.058552276 0.0013453064 0.029735604
0.036336713 0.022584936 0.06970731 -0.0064918436 -0.03728058 0.051035583 -0.025155494 0.02406766
00000000: 2d18 053d 8c6a 0cbd 7923 9cbd b6f3 e8bc
00000010: d0db a6bd 83d4 6f3d fe54 b03a 1598 f33c
00000020: ced5 143d 0b04 b93c b5c2 8e3d 88b9 d4bb
00000030: 85b3 18bd b00a 513d e512 cebc 8b29 c53c

layers.0.forward_conv1d.weight f4 [16, 16, 1]
0.17279087 0.14347565 0.22596331 0.007041226 0.08359634 -0.06085968 -0.114484966 0.13948356
-0.0002590453 0.24113275 -0.1657017 0.13009281 -0.12133777 -0.091294006 0.116125576 0.098306775
0.00032738212 -0.0623681 -0.07503525 -0.20271175 0.21956573 0.14428161 -0.24742027 0.19440483
-0.0947654 -0.02889243 0.090939984 -0.09423527 -0.15488113 0.16610916 -0.17050792 -0.10869921
0.03723108 0.19479072 0.06590153 0.0447234 0.22364184 -0.2589279 0.1166184 0.05472184
-0.15139209 -0.03529955 0.16150141 -0.11935232 0.012733817 -0.19336714 -0.011201534 0.04492271
0.1207876 -0.12310003 0.253085 0.16394158 -0.048948023 -0.2432974 0.0029181438 -0.046001118
0.14227852 0.20351201 -0.0009505854 -0.061950393 -0.049338296 -0.11373439 -0.1685392 0.14598021
-0.12695363 -0.1635401 -0.12731734 -0.13121942 -0.00344543 -0.048529644 -0.12321595 0.16558117
-0.078536406 0.17478643 -0.06621604 0.2690095 -0.020771021 -0.07112065 0.029296167 -0.005267546
0.07390548 0.217411 7.739653e-05 -0.15425684 0.09072578 -0.17786998 0.18632981 -0.031853247
0.12158604 -0.23619525 0.03379935 0.18799019 0.10169189 -0.052332886 -0.18644796 -0.10895614
0.03866093 0.08120171 -0.06463866 0.06001077 0.007534286 -0.07979437 0.16280454 -0.037163578
-0.011288921 0.091794655 0.15539145 -0.11149729 -0.07839686 -0.24184278 -0.08616691 0.047704898
0.21932036 0.09994419 0.032229796 0.03563449 -0.2207179 -0.15530099 0.22943996 0.14264093
0.22862083 -0.2211253 0.09347298 0.045840442 0.0036221207 -0.23152024 0.12734157 -0.14094102
0.028056536 0.1855643 -0.14899887 0.1874336 0.13346976 0.07188529 0.09088906 -0.018350374
0.028047822 0.12578946 0.06586048 0.17189503 0.14380717 0.1829893 -0.20530029 0.18299113
-0.12665467 -0.09505366 -0.23376635 0.2060438 -0.029288372 0.15107098 -0.17283177 -0.124149024
-0.09889335 -0.21448529 0.1752467 -0.07187157 -0.20999038 0.08456984 -0.039109547 0.19052896
-0.07760977 0.0037373474 0.1640374 -0.037768476 -0.25629202 0.011921561 -0.0967162 0.15208882
-0.13017213 0.12866706 0.19294994 0.08469557 0.14347522 0.06931416 -0.15770294 0.06266769
0.1345664 0.07077971 0.06884988 0.013574234 0.15413472 0.08676507 -0.28854448 -0.018523717
-0.141106 -0.09600964 -0.25314417 0.14335409 0.10050851 0.231596 -0.20047905 -0.11777248
0.04612727 -0.018115075 0.19957902 -0.21894056 -0.13840692 0.072769314 0.10513084 0.034242388
0.07322848 -0.04388297 -0.0976944 -0.034241673 -0.0615216 -0.21085578 0.087055214 0.008068764
-0.06268619 -0.22981179 -0.115515724 -0.22805123 -0.18668784 0.12872785 0.16886114 -0.0539673
-0.14566341 -0.08440432 0.08706523 0.19338696 0.1874875 0.1885816 -0.0721957 0.14452231
-0.041125406 -0.16717014 -0.028878916 0.024607062 0.010579804 0.03480666 0.07342386 0.1901292
-0.22228196 -0.09955623 -0.03334478 0.088718735 0.15440059 0.21500231 0.04203979 -0.03655522
0.03214733 -0.2177886 -0.11971417 0.15028062 0.062220708 -0.09982877 -0.031561684 0.004170146
-0.086654946 -0.07643741 -0.12839615 -0.025023825 -0.16693614 0.0570273 -0.119714014 -0.068620116
00000000: 17f0 303e 48eb 123e ed62 673e 16ba e63b
00000010: 8f34 ab3d 0048 79bd 1877 eabd c7d4 0e3e
00000020: 79d0 87b9 81eb 763e b5ad 29be 0d37 053e
00000030: f07f f8bd 5af8 babd 3fd3 ed3d 1055 c93d
00000040: 7ca4 ab39 b175 7fbd 15ac 99bd ab93 4fbe
00000050: d7d5 603e 8fbe 133e bd5b 7dbe 0f12 473e
00000060: 5d14 c2bd d1af ecbc be3e ba3d 6cfe c0bd
00000070: 2999 1ebe 8518 2a3e a199 2ebe b19d debd
00000080: 9e7f 183d 3877 473e 62f7 863d e22f 373d
00000090: 5e02 653e 3392 84be a1d5 ee3d 0224 603d
000000a0: 8706 1bbe 4396 10bd a060 253e fd6e f4bd
000000b0: 80a1 503c 0902 46be a486 37bc e000 383d
000000c0: 7d5f f73d de1b fcbd 5b94 813e 4de0 273e
000000d0: b97d 48bd f422 79be 543e 3f3b ab6b 3cbd
000000e0: 76b1 113e 7465 503e b530 79ba b2bf 7dbd
000000f0: f416 4abd 93ed e8bd 8a95 2cbe d67b 153e
00000100: 2200 02be 0e77 27be 7a5f 02be 625e 06be
00000110: b9cc 61bb 05c7 46bd a558 fcbd 1c8e 293e
00000120: b2d7 a0bd 37fb 323e 469c 87bd 9dbb 893e
00000130: fd27 aabc b4a7 91bd 84fe ef3c 619b acbb
00000140: c25b 973d fda0 5e3e f24f a238 81f5 1dbe
00000150: 70ce b93d 8c23 36be 3ecd 3e3e 8d78 02bd
00000160: 1a02 f93d 2bdd 71be 3071 0a3d 8080 403e
00000170: d643 d03d 025b 56bd 37ec 3ebe 6624 dfbd
00000180: ec5a 1e3d 154d a63d 4661 84bd dacd 753d
00000190: 2ce2 f63b 3b6b a3bd 3cb6 263e d638 18bd
000001a0: 2bf5 38bc d6fe bb3d f01e 1f3e b158 e4bd
000001b0: 888e a0bd a2a5 77be 4778 b0bd 3666 433d
000001c0: 8495 603e 8aaf cc3d 6403 043d 79f5 113d
000001d0: e003 62be 3907 1fbe 4ff2 6a3e 7710 123e
000001e0: 941b 6a3e ac6e 62be c36e bf3d 30c3 3b3d
000001f0: 1a61 6d3b a413 6dbe d465 023e d852 10be
00000200: d2d6 e53c 9104 3e3e 2993 18be 98ee 3f3e
00000210: 4cac 083e 9838 933d 0b24 ba3d 8653 96bc
00000220: 8cc4 e53c f4ce 003e dce1 863d 4005 303e
00000230: 3042 133e 8c61 3b3e 3d3a 52be 0762 3b3e
00000240: c3b1 01be 7eab c2bd 7260 6fbe 25fd 523e
00000250: 2bee efbc 5ab2 1a3e d0fa 30be d841 febd
00000260: 9988 cabd 08a2 5bbe df73 333e 6731 93bd
00000270: b807 57be f432 ad3d 5531 20bd 061a 433e
00000280: dff1 9ebd 49ee 743b 6cf9 273e 1eb3 1abd
00000290: b538 83be a752 433c 2513 c6bd 2cbd 1b3e
000002a0: d84b 05be 4cc1 033e ab94 453e df74 ad3d
000002b0: 2beb 123e 95f4 8d3d e17c 21be eb57 803d
000002c0: c6cb 093e f4f4 903d 2a01 8d3d 7766 5e3c
000002d0: 7ed5 1d3e e3b1 b13d 1abc 93be 0dbf 97bc
000002e0: 177e 10be b4a0 c4bd 1d9c 81be 6acb 123e
000002f0: 68d7 cd3d 8027 6d3e 614a 4dbe b332 f1bd
00000300: f3ef 3c3d 1166 94bc 715e 4c3e f431 60be
00000310: 8bba 0dbe 1408 953d d64e d73d bf41 0c3d
00000320: d0f8 953d a1be 33bd 0014 c8bd ff40 0cbd
00000330: 13fe 7bbd 94ea 57be 014a b23d d932 043c
00000340: 9e61 80bd c853 6bbe 8293 ecbd 4386 69be
00000350: 192b 3fbe 3cd1 033e efe9 2c3e d10c 5dbd
00000360: ca28 15be 2cdc acbd 414f b23d 3b07 463e
00000370: b9fc 3f3e 891b 413e 57db 93bd a8fd 133e
00000380: 1d73 28bd a62e 2bbe 7a93 ecbc c094 c93c
00000390: ea56 2d3c 6e91 0e3d 405f 963d 3bb1 423e
000003a0: e29d 63be 23e4 cbbd 8994 08bd 2bb2 b53d
000003b0: 301b 1e3e 9129 5c3e ea31 2c3d edba 15bd
000003c0: ebac 033d fa03 5fbe b42c f5bd 2ae3 193e
000003d0: 24db 7e3d 0773 ccbd d346 01bd b8a5 883b
000003e0: 2678 b1bd 388b 9cbd 487a 03be c4fe ccbc
000003f0: 4ff1 2abe 7595 693d 9f2c f5bd b488 8cbd

layers.0.forward_conv1d.bias f4 [16]
0.21464962 -0.20856021 -0.010407641 0.19083594 0.21734779 0.16175674 -0.11865162 0.021645492
-0.21070059 -0.110739395 0.16996828 -0.037366148 -0.0655448 0.02696523 0.02695195 0.046440504
00000000: 1ccd 5b3e cf90 55be cf84 2abc 7f6a 433e
00000010: 6b90 5e3e 8fa3 253e 9fff f2bd e351 b13c
00000020: e5c1 57be 56cb e2bd 2a0c 2e3e 3f0d 19bd
00000030: 5a3c 86bd 30e6 dc3c 56ca dc3c 6638 3e3d

layers.0.backward_conv1d.weight f4 [16, 16, 1]
-0.17007853 0.008024517 -0.07476195 -0.041053105 0.13646618 0.10859488 -0.21260507 -0.011865296
0.14709772 0.08148117 -0.07050422 0.04386316 0.20657665 -0.028178027 0.15523762 0.053918
0.033266574 -0.1533809 -0.03536115 -0.19317523 0.20410839 -0.09602532 -0.20770308 -0.048303816
-0.12654704 -0.16718775 0.22096726 0.12386309 0.14461426 -0.09647467 0.050768144 0.085312024
0.018727891 -0.04171545 -0.1993199 0.042649545 -0.045201167 -0.1875902 -0.24406299 0.0758602
-0.23295408 -0.14780661 -0.22339849 -0.16214241 -0.11342222 -0.059008878 0.2055214 -0.24097046
0.09071775 -0.08112654 0.1477114 0.0051577142 -0.01467324 0.098799996 -0.03128802 -0.048588093
-0.2384909 -0.2547666 -0.13534199 -0.074446 -0.023276504 -0.14199609 0.0015249046 0.15628906
0.15764503 -0.16497338 -0.029072482 -0.0252419 0.026963424 -0.035124913 -0.11307993 0.15387128
-0.075059116 -0.17862433 0.27459034 -0.19863021 -0.23693046 0.20893534 0.14140527 0.013417996
-0.18696295 -0.2198325 -0.16744006 0.070481524 -0.06445977 0.0021208355 0.1744629 0.019682743
-0.19042109 -0.05120772 0.15096867 -0.21565469 0.077390976 0.2036453 0.012991015 0.054841273
-0.015182531 -0.018167306 0.11097694 0.22134829 0.14587875 -0.07813085 -0.16534516 -0.13941318
-0.07548536 -0.10683579 -0.06329363 -0.14255026 0.06782507 -0.15016082 -0.07716776 -0.12878196
0.0061353287 -0.004644544 -0.21744591 -0.22623233 0.15544729 0.16838963 0.07058524 0.22715506
-0.0015896489 -0.112839356 0.12422799 -0.1522138 -0.17192973 0.1873301 -0.01348729 -0.18230404
0.057837855 -0.186392 0.08481014 0.08308315 -0.04133948 0.14264445 -0.11290644 0.18685739
-0.0740562 -0.19508684 0.08689796 0.045414537 0.22589289 -0.054341014 -0.14227775 0.18440975
0.0237716 0.13838737 -0.23640116 0.16354543 -0.11104806 -0.06797571 0.07764503 0.2450611
-0.02224663 -0.13513777 0.03231353 0.17854172 0.008255424 0.06900773 0.026085835 0.11073232
0.07393555 -0.06261298 -0.02268994 0.22030935 -0.16228731 0.03197626 -0.16330536 0.20094994
0.13897143 0.021619894 0.062882066 -0.20027445 -0.106843695 -0.12361339 -0.16274065 0.1338378
0.10487312 -0.24914558 -0.0029014105 0.037387386 -0.22128029 -0.066973366 -0.060252927 -0.1789041
0.08148387 -0.14872375 -0.21925424 -0.16270043 0.18911389 -0.030399198 -0.01399322 -0.13962755
0.09240763 -0.2288676 -0.061911903 0.010718169 -0.11274373 0.15697655 0.2555183 0.07278523
0.22933605 -0.18945737 0.15296833 -0.027741935 0.033184417 0.13900083 0.0066898726 0.021394236
-0.07769638 0.06362574 -0.17356233 -0.16483293 -0.025535882 0.18263915 -0.120580375 0.1758219
-0.039060738 -0.06873991 -0.12370097 0.17895028 -0.05480664 -0.23682842 0.020368068 -0.09512001
-0.12165803 0.22454938 -0.17621203 -0.029285349 0.24135204 -0.13572274 0.19325434 0.19620273
0.12242517 0.18761277 0.20275345 -0.03103706 0.08702923 -0.084696315 0.016352182 0.00803385
-0.11109551 0.20880884 -0.019339193 -0.10425001 0.20598465 0.058619823 0.22050326 -0.14899592
0.15461203 -0.14082453 -0.022407738 0.13913313 0.23686883 0.22441334 -0.04732827 -0.09838837
00000000: 1129 2ebe 4479 033c cb1c 99bd 4d27 28bd
00000010: cabd 0b3e fe66 de3d 25b5 59be a966 42bc
00000020: c9a0 163e 9adf a63d 8464 90bd dba9 333d
00000030: d488 533e 9bd5 e6bc 9cf6 1e3e 1fd9 5c3d
00000040: 8842 083d e20f 1dbe dad6 10bd bacf 45be
00000050: ca01 513e eca8 c4bd 1eb0 54be 39da 45bd
00000060: 8c95 01be 4433 2bbe 3e45 623e efab fd3d
00000070: c315 143e 8394 c5bd 42f2 4f3d 12b8 ae3d
00000080: 3c6b 993c d2dd 2abd 841a 4cbe 4ab1 2e3d
00000090: dc24 39bd a517 40be a6eb 79be 985c 9b3d
000000a0: 848b 6ebe 9e5a 17be 93c2 64be a908 26be
000000b0: e949 e8bd 4bb3 71bd 3474 523e f6c0 76be
000000c0: 3aca b93d ac25 a6bd a841 173e 0b02 a93b
000000d0: 0768 70bc a757 ca3d de27 00bd 4f04 47bd
000000e0: f536 74be c570 82be 1797 0abe 2577 98bd
000000f0: 5eae bebc 6c67 11be 4fdf c73a 3d0a 203e
00000100: b36d 213e c8ee 28be 6a29 eebc 1ac8 cebc
00000110: 66e2 dc3c 24df 0fbd 7396 e7bd 6f90 1d3e
00000120: 98b8 99bd 4ce9 36be 1b97 8c3e b865 4bbe
00000130: e69d 72be 25f3 553e 8bcc 103e 27d7 5b3c
00000140: 3773 3fbe c51b 61be 6875 2bbe 9e58 903d
00000150: 7c03 84bd b7fd 0a3b 67a6 323e b43d a13c
00000160: bffd 42be 30bf 51bd 8897 1a3e 95d4 5cbe
00000170: 297f 9e3d 6588 503e 44d8 543c 3ea1 603d
00000180: 27c0 78bc 9ad3 94bc e147 e33d 20a9 623e
00000190: 3d61 153e 1103 a0bd 3e50 29be 54c2 0ebe
000001a0: 1298 9abd b9cc dabd 17a0 81bd b2f8 11be
000001b0: dfe7 8a3d c2c3 19be 210a 9ebd 6bdf 03be
000001c0: de0a c93b 4231 98bb 24aa 5ebe 73a9 67be
000001d0: 932d 1f3e 556e 2c3e ff8e 903d 569b 683e
000001e0: c45b d0ba 5218 e7bd 3f6b fe3d efdd 1bbe
000001f0: 590e 30be 76d3 3f3e cbf9 5cbc e9ad 3abe
00000200: 63e7 6c3d 8bdd 3ebe f0b0 ad3d 8027 aa3d
00000210: 9653 29bd 6311 123e 7e3b e7bd 8b57 3f3e
00000220: c7aa 97bd d8c4 47be 8ff7 b13d 9804 3a3d
00000230: 7750 673e af94 5ebd 42b1 11be e9d5 3c3e
00000240: a9bc c23c 6bb5 0d3e 2513 72be 7478 273e
00000250: 2a6d e3bd d936 8bbd 5c04 9f3d 4cf1 7a3e
00000260: 913e b6bc 8e61 0abe 315b 043d a4d3 363e
00000270: c241 073c ed53 8d3d f6b1 d53c a0c7 e23d
00000280: 866b 973d 3c3b 80bd 41e0 b9bc c698 613e
00000290: a52e 26be 8af9 023d 8539 27be d2c5 4d3e
000002a0: 874e 0e3e 341c b13c 50c8 803d bf14 4dbe
000002b0: ded0 dabd 0429 fdbd 7ca5 26be c70c 093e
000002c0: b8c7 d63d 0520 7fbe 9725 3ebb 8423 193d
000002d0: 4d97 62be 5529 89bd c6cb 76bd a332 37be
000002e0: 04e1 a63d 0a4b 18be 2f84 60be f19a 26be
000002f0: 12a7 413e bd07 f9bc d243 65bc 86fa 0ebe
00000300: 3640 bd3d 455c 6abe 5697 7dbd 429b 2f3c
00000310: 2fe6 e6bd 76be 203e 4bd3 823e 6c10 953d
00000320: 12d7 6a3e 1d01 42be bba3 1c3e 0e43 e3bc
00000330: 62ec 073d 3c56 0e3e b836 db3b f742 af3c
00000340: 481f 9fbd 364e 823d 53ba 31be f7c9 28be
00000350: a030 d1bc c205 3b3e d8f2 f6bd a80a 343e
00000360: 27fe 1fbd 83c7 8cbd ef56 fdbd be3e 373e
00000370: ed7c 60bd 2683 72be efda a63c 48ce c2bd
00000380: d827 f9bd 46f0 653e ed70 34be d4e7 efbc
00000390: fd24 773e e7fa 0abe 77e4 453e 5ee9 483e
000003a0: 0cba fa3d 901d 403e 9a9e 4f3e 6f41 febc
000003b0: 623c b23d 4375 adbd 03f5 853c 69a0 033c
000003c0: 0b86 e3bd fcd1 553e 3a6d 9ebc 0781 d5bd
000003d0: a4ed 523e 571b 703d 9bcb 613e 6392 18be
000003e0: 9e52 1e3e 4e34 10be 6f90 b7bc ea78 0e3e
000003f0: be8d 723e 9ccc 653e 4adb 41bd d77f c9bd

layers.0.backward_conv1d.bias f4 [16]
-0.12955299 -0.05092765 -0.23091377 0.056564953 -0.056190223 0.09196438 -0.13013625 0.14117347
0.2390949 0.12026401 0.20071352 0.24475688 -0.21149893 -0.021986505 0.088783465 0.23414017
00000000: 8aa9 04be 8399 50bd a974 6cbe a7b0 673d
00000010: b827 66bd d257 bc3d 7042 05be c78f 103e
00000020: 4bd5 743e fa4c f63d d887 4d3e 8ca1 7a3e
00000030: 2d93 58be 0b1d b4bc 1bd4 b53d 71c2 6f3e

layers.0.norm.weight f4 [16]
0.9749242 0.99384284 1.0051855 0.98349625 1.01195 1.0036203 0.996368 0.99596715
0.9903234 0.9806645 1.0035313 0.9907416 0.98096627 0.9892643 0.97354895 0.9965491
00000000: a294 793f 7c6c 7e3f eba9 803f 69c6 7b3f
00000010: 9487 813f a176 803f f911 7f3f b4f7 7e3f
00000020: d685 7d3f d40c 7b3f b773 803f 3ea1 7d3f
00000030: 9b20 7b3f 6d40 7d3f 813a 793f d81d 7f3f

layers.0.norm.bias f4 [16]
-0.012629249 -0.018411905 -0.016231658 -0.007841383 -0.0070325756 -0.010930161 0.011200132 -0.008792483
-0.0069891857 0.010746442 0.0025734124 0.0083214445 0.007947156 0.021059418 -0.0044001145 -0.008524099
00000000: e9ea 4ebc 90d4 96bc 41f8 84bc 2579 00bc
00000010: 8571 e6bb 6b14 33bc c280 373c 590e 10bc
00000020: 8a05 e5bb d811 303c b2a6 283b ab56 083c
00000030: ca34 023c cd84 ac3c d62e 90bb aaa8 0bbc

layers.0.ssm.A_log f4 [16, 16]
0.0072541665 0.19094427 0.94490254 0.9557954 0.93712336 1.2207496 1.2762438 1.3752943
1.4508512 1.5563422 1.6496288 1.7418497 1.8159657 1.8855273 1.9536072 2.019546
0.0025089346 0.16298898 0.749488 0.823391 0.8754491 1.1080387 1.2142655 1.338845
1.4498936 1.5538772 1.6473968 1.7332171 1.8123268 1.885411 1.9536135 2.0174682
-0.007959651 0.22923496 0.985289 1.0102488 0.9057196 1.3008198 1.29975 1.401113
1.4525577 1.5628309 1.6531583 1.7432067 1.8155825 1.8854226 1.9536296 2.0190456
0.0023904834 0.22720595 0.9492384 0.9750093 0.9272434 1.2459432 1.3187182 1.3752782
1.4522285 1.5568087 1.6469686 1.7388135 1.8123305 1.8853796 1.9536513 2.018219
-0.024428062 0.267561 0.96548814 0.946505 0.8959513 1.2549511 1.2418919 1.3793662
1.4504839 1.554356 1.6481917 1.7360663 1.8128378 1.8853748 1.9536138 2.0177548
0.010051218 0.25555405 1.0118438 1.0521408 0.896732 1.3167692 1.3552035 1.4250416
1.4544797 1.5682135 1.6614158 1.7641888 1.826523 1.8857796 1.953754 2.0275996
-0.010766978 0.20395176 0.9850744 1.0134678 0.9291423 1.2365308 1.3421925 1.3350188
1.4494704 1.565499 1.6673981 1.7582375 1.8282529 1.8860873 1.9539278 2.0229375
-0.0024297873 0.14394394 0.8078494 0.84400564 0.8880751 1.1103889 1.2009447 1.3368326
1.4496412 1.5532143 1.6476256 1.7331921 1.8122576 1.8853947 1.9536319 2.0174634
0.012927617 0.1606503 0.9005658 0.8440869 0.89047945 1.1890228 1.2506952 1.3475322
1.4499767 1.5541692 1.6479985 1.7342876 1.8124948 1.8853589 1.9536232 2.0175102
-0.0070340633 0.2062232 0.9285533 0.9857906 0.9284795 1.2293003 1.3060278 1.3857943
1.4511613 1.5614581 1.6506449 1.7439559 1.8169687 1.8854799 1.9535987 2.0187461
0.016743718 0.17606597 0.878084 0.8111549 0.87662774 1.1806791 1.2603332 1.3414378
1.4503493 1.5548949 1.649231 1.7357477 1.8133072 1.885426 1.9536219 2.0179462
0.014786583 0.22439003 0.8749513 0.9052994 0.9126227 1.1991532 1.3070718 1.3375013
1.4498725 1.5548791 1.6475751 1.7338156 1.8122494 1.8853732 1.9536178 2.0174618
0.012482597 0.15444976 0.8588944 0.875567 0.8925969 1.136576 1.2112215 1.355594
1.4496905 1.5537964 1.6479511 1.734042 1.812691 1.8854645 1.9536217 2.0176349
0.0009257441 0.19804054 1.0137829 0.9897594 0.94099003 1.2746258 1.299719 1.4350611
1.4505609 1.5574431 1.6552215 1.7448726 1.8176161 1.8855028 1.95379 2.0206494
-0.0151933255 0.14414239 0.8359333 0.79834867 0.88221765 1.192966 1.2382914 1.3464302
1.4505352 1.5559853 1.6488931 1.7377586 1.8137379 1.8853179 1.9536315 2.0188453
0.009064544 0.2610629 0.9940627 1.0024495 0.9477369 1.2827655 1.2944537 1.393415
1.4527695 1.5612338 1.6532744 1.7435898 1.8174602 1.885279 1.9536005 2.0200646
00000000: 5cb4 ed3b e586 433e 22e5 713f 02af 743f
00000010: 51e7 6f3f 8641 9c3f f55b a33f a509 b03f
00000020: 7eb5 b93f 3936 c73f 0927 d33f eef4 de3f
00000030: 9071 e83f f558 f13f cd0f fa3f 3e40 0140
00000040: f06c 243b 95e6 263e 72de 3f3f c1c9 523f
00000050: 6f1d 603f 36d4 8d3f 0d6d 9b3f 465f ab3f
00000060: 1d96 b93f 73e5 c63f e6dd d23f 0fda dd3f
00000070: 53fa e73f 2655 f13f 0210 fa3f 331e 0140
00000080: 3269 02bc 92bc 6a3e e63b 7c3f d54f 813f
00000090: 3ddd 673f 4381 a63f 355e a63f ac57 b33f
000000a0: 69ed b93f d80a c83f b19a d33f 6621 df3f
000000b0: 0265 e83f 8755 f13f 8910 fa3f 0b38 0140
000000c0: a8a9 1c3b ada8 683e 4a01 733f 369a 793f
000000d0: d35f 6d3f 117b 9f3f c2cb a83f 1e09 b03f
000000e0: a0e2 b93f 8245 c73f decf d23f 7191 de3f
000000f0: 72fa e73f 1e54 f13f 3f11 fa3f 802a 0140
00000100: 5c1d c8bc c1fd 883e 3b2a 773f 274e 723f
00000110: 105d 653f 3da2 a03f 50f6 9e3f 128f b03f
00000120: 75a9 b93f 23f5 c63f f2f7 d23f 6c37 de3f
00000130: 120b e83f f653 f13f 0410 fa3f e522 0140
00000140: ddad 243c fbd7 823e 1984 813f 8dac 863f
00000150: 3a90 653f e58b a83f 4f77 ad3f c367 b63f
00000160: 642c ba3f 38bb c83f 46a9 d43f f0d0 e13f
00000170: 81cb e93f 3a61 f13f 9c14 fa3f 31c4 0140
00000180: fb67 30bc bbd8 503e d62d 7c3f 50b9 813f
00000190: 45dc 6d3f a446 9e3f f7cc ab3f e5e1 aa3f
000001a0: 3f88 b93f 4562 c83f 4d6d d53f ed0d e13f
000001b0: 3104 ea3f 4f6b f13f 4e1a fa3f cf77 0140
000001c0: 113d 1fbb 0a66 133e 38cf 4e3f c110 583f
000001d0: e458 633f 3921 8e3f 8eb8 993f 551d ab3f
000001e0: d88d b93f bacf c63f 65e5 d23f 3dd9 dd3f
000001f0: 0ff8 e73f 9d54 f13f 9c10 fa3f 1f1e 0140
00000200: 5bce 533c 8381 243e 7b8b 663f 1416 583f
00000210: 76f6 633f e631 983f c816 a03f ef7b ac3f
00000220: d698 b93f 04ef c63f 9df1 d23f 23fd dd3f
00000230: d4ff e73f 7153 f13f 5310 fa3f e31e 0140
00000240: 007e e6bb 2d2c 533e abb5 6d3f c65c 7c3f
00000250: d5b0 6d3f b659 9d3f eb2b a73f b561 b13f
00000260: a7bf b93f dcdd c73f 5548 d33f f239 df3f
00000270: 6e92 e83f 6857 f13f 860f fa3f 2333 0140
00000280: 1f2a 893c a34a 343e 1dca 603f d9a7 4f3f
00000290: ad6a 603f 7e20 973f 9952 a13f 3cb4 ab3f
000002a0: 0ca5 b93f cc06 c73f 001a d33f fb2c de3f
000002b0: 731a e83f a455 f13f 4810 fa3f 0826 0140
000002c0: 6d43 723c 80c6 653e cffc 5f3f b4c1 673f
000002d0: a4a1 693f da7d 993f 214e a73f 3e33 ab3f
000002e0: 6c95 b93f 4706 c73f bee3 d23f abed dd3f
000002f0: caf7 e73f e953 f13f 2610 fa3f 181e 0140
00000300: ce83 4c3c 1428 1e3e 81e0 5b3f 2925 603f
00000310: 3b81 643f 537b 913f 4e09 9b3f 1b84 ad3f
00000320: 758f b93f cde2 c63f 10f0 d23f 17f5 dd3f
00000330: 4206 e83f e756 f13f 4710 fa3f ee20 0140
00000340: a3ad 723a 24cb 4a3e a3c3 813f df60 7d3f
00000350: b9e4 703f f026 a33f 315d a63f 15b0 b73f
00000360: fbab b93f 4c5a c73f 4cde d33f fc57 df3f
00000370: a5a7 e83f 2858 f13f ca15 fa3f 5252 0140
00000380: 6ded 78bc 109a 133e baff 553f 9460 4c3f
00000390: 04d9 613f 1cb3 983f 5580 9e3f d357 ac3f
000003a0: 23ab b93f 872a c73f ee0e d33f e06e de3f
000003b0: 9028 e83f 1952 f13f 9910 fa3f c334 0140
000003c0: 7483 143c 09aa 853e e57a 7e3f 4450 803f
000003d0: e39e 723f a931 a43f a9b0 a53f 6c5b b23f
000003e0: 5af4 b93f 82d6 c73f 7f9e d33f f32d df3f
000003f0: 89a2 e83f d350 f13f 950f fa3f bd48 0140

layers.0.ssm.D f4 [16]
0.9812474 0.9769913 0.9947353 0.98409426 0.9786097 0.98550594 0.9817261 0.9839158
1.0070696 0.99181557 0.9938715 1.0248951 0.99349576 0.98338026 0.94034797 0.9965858
00000000: 0833 7b3f 1a1c 7a3f f9a6 7e3f 9aed 7b3f
00000010: 2a86 7a3f 1e4a 7c3f 6752 7b3f e8e1 7b3f
00000020: a8e7 803f a0e7 7d3f 5d6e 7e3f c32f 833f
00000030: bd55 7e3f cfbe 7b3f a5ba 703f 3f20 7f3f

layers.0.ssm.deltaBC_layer.weight f4 [40, 16]
0.00018318548 -0.07711472 0.1643069 -0.075595535 -0.1531515 -0.002236615 0.15819512 0.045424476
-0.12283934 -0.05794381 0.21704006 -0.14986831 -0.056367047 -0.09198961 0.21813169 -0.14743902
-0.21187903 -0.22787145 -0.094940364 0.013126981 -0.07259371 0.0360076 0.07958861 -0.23315454
0.10870931 0.040090725 -0.00022204888 -0.114349134 0.16719383 0.069820106 -0.05964347 -0.107273504
-0.11106455 0.09404851 0.1879269 0.12868217 0.20076111 -0.021217564 -0.1036568 -0.008661651
0.15868554 0.06745399 -0.13543941 0.19304858 0.19658463 -0.13703245 -0.22213376 0.028052945
0.07712042 -0.1805984 0.1384776 0.1918796 0.20970465 0.06295978 0.06997306 -0.22602303
0.080472626 0.17075522 0.24550761 -0.118198484 -0.12557313 0.03425053 -0.14300846 -0.021387052
-0.062385675 0.1906912 -0.13686484 -0.1408244 0.16248748 -0.077846296 -0.0584166 -0.11756305
0.10903058 0.20811555 0.18056466 -0.14332518 -0.18534379 -0.18053944 0.24086636 -0.14782818
-0.09484638 -0.003908287 -0.20508504 0.08117085 -0.05098684 -0.18874408 -0.034322467 -0.14406025
-0.18690264 0.18151581 -0.1324864 -0.13049376 -0.1925924 -0.20308411 0.03947462 -0.11429362
0.20033552 -0.043565467 -0.17435795 -0.1812317 -0.12023913 -0.07100716 -0.111762 -0.011104307
0.1899552 -0.22738682 0.19905235 -0.16455008 0.016308716 -0.15284172 -0.1608364 0.1624831
0.1573377 -0.1877138 -0.08943654 -0.034089096 0.1514975 -0.01813959 0.16478382 0.19032082
0.076025866 -0.18321903 -0.17439705 0.026490659 -0.0042286846 -0.008229152 -0.04930365 -0.11861537
0.05420013 0.17971577 -0.18008326 0.04855572 0.1259422 -0.13916485 0.06815251 -0.21053612
0.20231327 -0.08758057 -0.20289214 -0.030822055 -0.013649325 0.20756748 0.06932904 0.031360652
0.15100406 0.02213648 -0.16288567 -0.19024566 -0.10016173 0.19413818 -0.1412575 -0.22089368
0.0534178 -0.03544078 0.1920832 -0.04709511 0.14453521 0.10164651 -0.13946891 0.062119994
-0.18840866 0.07233929 -0.10745919 -0.088312335 -0.23472025 0.016192643 0.07609414 0.21119444
-0.06127884 -0.11949615 0.09148774 0.066952914 0.2169985 0.10862785 -0.20200573 -0.18380542
-0.12932564 0.17531458 -0.07665053 -0.10464275 -0.01752124 0.1282718 -0.18887678 -0.065355405
0.08598542 0.12595147 -0.15808275 0.023124324 -0.08717031 -0.021415865 0.089574754 -0.161144
-0.19443831 -0.11743616 0.21578299 -0.121396385 0.05814511 0.1679004 -0.073651925 0.08836831
-0.06636761 0.008339296 0.23636104 0.0028985913 -0.075036444 0.046696007 -0.051902153 -0.17992373
0.12278262 -0.24209951 -0.20459628 0.06311218 -0.0391307 -0.13767539 -0.12053216 0.16425654
0.040275127 -0.18259029 -0.055453964 -0.19878648 0.20598723 0.13047579 0.069304965 0.0071017104
0.19442397 0.10209842 -0.17481923 -0.058908973 0.20004962 0.05556857 0.17572783 0.20144334
0.2010247 0.14070088 -0.16705395 0.2257002 -0.1256742 0.037824042 -0.08926487 0.0024795996
0.035713263 -0.007232377 0.10553813 -0.12739465 -0.0027703634 -0.17784198 0.004183581 0.22016385
-0.16778745 -0.007986847 -0.1676883 -0.080753215 -0.028759878 0.14724202 -0.0022091232 -0.1239683
00000000: 7a15 4039 53ee 9dbd 1140 283e d5d1 9abd
00000010: bfd3 1cbe 2c94 12bb e7fd 213e 040f 3a3d
00000020: 3193 fbbd 7d56 6dbd c03f 5e3e 1477 19be
00000030: 22e1 66bd 0c65 bcbd ea5d 5f3e 41fa 16be
00000040: d1f6 58be 2257 69be 1870 c2bd 8d12 573c
00000050: 03ac 94bd b57c 133d 5aff a23d 10c0 6ebe
00000060: fda2 de3d 2c36 243d cbd5 68b9 e12f eabd
00000070: dc34 2b3e d8fd 8e3d b64c 74bd 36b2 dbbd
00000080: d075 e3bd 819c c03d e96f 403e 42c5 033e
00000090: 5294 4d3e 75d0 adbc 044a d4bd 99e9 0dbc
000000a0: 767e 223e 5125 8a3d a1b0 0abe 87ae 453e
000000b0: 7b4d 493e 3c52 0cbe 0877 63be 4acf e53c
000000c0: 50f1 9d3d c9ee 38be 12cd 0d3e 167c 443e
000000d0: d1bc 563e 0ff1 803d 094e 8f3d 9572 67be
000000e0: d5ce a43d 75da 2e3e 5966 7b3e 0c12 f2bd
000000f0: 3e96 00be 494a 0c3d cf70 12be e633 afbc
00000100: 1f88 7fbd 8e44 433e 4c26 0cbe 4634 10be
00000110: 1e63 263e e16d 9fbd 3f46 6fbd e5c4 f0bd
00000120: 6d4b df3d 3e1c 553e f1e5 383e d6c3 12be
00000130: c3ca 3dbe 55df 38be aca5 763e 4560 17be
00000140: d23e c2bd 1611 80bb d001 52be e73c a63d
00000150: 94d7 50bd 2146 41be b795 0cbd 8884 13be
00000160: 6863 3fbe 48df 393e 84aa 07be 28a0 05be
00000170: f136 45be 48f5 4fbe 24b0 213d c612 eabd
00000180: c124 4d3e b471 32bd e48a 32be ce94 39be
00000190: ef3f f6bd 346c 91bd 7ae3 e4bd d7ee 35bc
000001a0: 9e83 423e 17d8 68be 61d4 4b3e d17f 28be
000001b0: db99 853c 8a82 1cbe 4cb2 24be f861 263e
000001c0: 221d 213e 0c38 40be 812a b7bd 02a1 0bbd
000001d0: 2922 1b3e 7a99 94bc 17bd 283e 76e3 423e
000001e0: 73b3 9b3d c59d 3bbe 2495 32be f002 d93c
000001f0: c790 8abb 91d3 06bc a0f2 49bd 9dec f2bd
00000200: f500 5e3d 6907 383e bf67 38be 5de2 463d
00000210: fef6 003e 3b81 0ebe 8b93 8b3d c896 57be
00000220: 362b 4f3e 715d b3bd f5c2 4fbe 897e fcbc
00000230: 6ba1 5fbc 928c 543e 62fc 8d3d 0774 003d
00000240: cfa0 1a3e 9057 b53c 80cb 26be c2cf 42be
00000250: 9821 cdbd 29cc 463e cea5 10be f431 62be
00000260: a0cc 5a3d 5a2a 11bd 75b1 443e cde6 40bd
00000270: 0a01 143e 0c2c d03d f0d0 0ebe 8971 7e3d
00000280: 33ee 40be 9f26 943d 9013 dcbd 19dd b4bd
00000290: 815a 70be 6fa6 843c 3fd7 9b3d 5b43 583e
000002a0: 85ff 7abd 66ba f4bd ed5d bb3d 9c1e 893d
000002b0: db34 5e3e 4778 de3d 97da 4ebe 7d37 3cbe
000002c0: f16d 04be aa85 333e f4fa 9cbd f04e d6bd
000002d0: b488 8fbc af59 033e ea68 41be 0ed9 85bd
000002e0: 2019 b03d 6cf9 003e 72e0 21be 396f bd3c
000002f0: 5986 b2bd 5370 afbc f872 b73d ef02 25be
00000300: d61a 47be 5f82 f0bd 37f6 5c3e ab9e f8bd
00000310: 9129 6e3d 15ee 2b3e d2d6 96bd 72fa b43d
00000320: beeb 87bd 8ba1 083c a108 723e 4bf6 3d3b
00000330: b5ac 99bd 5044 3f3d 5a97 54bd ed3d 38be
00000340: 7475 fb3d efe8 77be b081 51be f540 813d
00000350: 8347 20bd c7fa 0cbe 91d9 f6bd de32 283e
00000360: 88f7 243d f3f8 3abe b223 63bd af8e 4bbe
00000370: 51ee 523e 729b 053e c3ef 8d3d 77b5 e83b
00000380: 1417 473e fa18 d13d d003 33be 894a 71bd
00000390: cfd9 4c3e de9b 633d fff1 333e 2a47 4e3e
000003a0: 6bd9 4d3e e413 103e 3110 2bbe f41d 673e
000003b0: bdb0 00be 62ed 1a3d 80d0 b6bd c780 223b
000003c0: 1248 123d 93fd ecbb 6024 d83d be73 02be
000003d0: fc8e 35bb 351c 36be 6c16 893b a272 613e
000003e0: 79d0 2bbe 44db 02bc 7bb6 2bbe f161 a5bd
000003f0: d699 ebbc 9dc6 163e f0c6 10bb 18e3 fdbd

layers.0.ssm.dt_proj_layer.weight f4 [16, 8]
-0.098722346 0.2253688 0.2717302 -0.13604477 -0.2052603 0.213843 -0.2204573 0.015354033
0.10587638 -0.15713128 0.23014636 0.25700548 -0.14315677 0.090177484 -0.24415421 0.022487616
0.121918835 -0.03523891 0.25538486 0.2545506 -0.10646534 0.12582843 0.00053896004 -0.2349925
-0.20629823 0.19083598 -0.15439263 -0.24322407 -0.1658144 -0.10921353 0.21391045 -0.100394875
0.2448495 -0.013740025 0.28348148 -0.2982599 -0.16868545 -0.30834284 0.017947547 0.06285469
0.12431027 0.09547471 -0.18406186 0.14970945 -0.25956705 -0.077218845 0.31014058 -0.020899339
0.079352096 0.10460288 -0.01190925 -0.27511013 -0.002182873 -0.064904846 0.21925846 0.13697733
-0.09476307 -0.06508886 0.18607807 -0.25752708 -0.16292396 0.0468146 -0.20489293 -0.029981384
-0.11648995 0.18480851 -0.18852136 0.29941845 0.12672779 -0.0830248 -0.21611121 0.22190645
0.16745138 0.031761404 0.22522715 -0.18523821 0.06923849 0.040759724 -0.2771707 -0.13193336
0.17538595 0.19058454 -0.07939166 0.1090366 -0.024842547 -0.28929552 -0.0032355727 0.070249915
-0.03338644 -0.15665983 0.1944411 0.15522243 0.035679016 -0.15935388 0.01321469 0.025622088
0.15210748 -0.110454746 -0.17282066 -0.25483793 -0.12462212 -0.23445621 0.20774658 0.05341015
0.040113796 0.3151087 0.029112248 0.15447491 -0.051334593 0.068880565 0.04245423 0.061917577
0.035362512 -0.042807966 -0.012293298 0.13435973 0.17666495 0.29132822 -0.10037619 0.008662206
0.19124933 -0.19664045 -0.03876777 0.16454479 0.2658165 0.13213596 -0.022827819 -0.18018465
00000000: f12e cabd 14c7 663e 3920 8b3e 524f 0bbe
00000010: c22f 52be a9f9 5a3e 8fbf 61be 7b8f 7b3c
00000020: b7d5 d83d 06e7 20be 7dab 6b3e 3996 833e
00000030: b097 12be f9ae b83d 9003 7abe f337 b83c
00000040: 95b0 f93d ad56 10bd cec1 823e 7554 823e
00000050: 800a dabd 2bd9 003e ff48 0d3a e0a1 70be
00000060: d83f 53be 826a 433e 1a19 1ebe bb0f 79be
00000070: 40cb 29be 58ab dfbd 570b 5b3e d49b cdbd
00000080: d4b9 7a3e d81d 61bc 7c24 913e 86b5 98be
00000090: e1bb 2cbe 1ddf 9dbe bc06 933c f6b9 803d
000000a0: 6296 fe3d 3f88 c33d b67a 3cbe 6f4d 193e
000000b0: f9e5 84be ea24 9ebd bfca 9e3e 1735 abbc
000000c0: 5a83 a23d 093a d63d 041f 43bc 3cdb 8cbe
000000d0: 880e 0fbb d5ec 84bd 4a85 603e c943 0c3e
000000e0: 2413 c2bd 4f4d 85bd 408b 3e3e 97da 83be
000000f0: 8ad5 26be aac0 3f3d 74cf 51be 859b f5bc
00000100: 4892 eebd 713e 3d3e be0b 41be 604d 993e
00000110: eec4 013e e808 aabd 424c 5dbe 723b 633e
00000120: 6078 2b3e 3f18 023d f2a1 663e 16af 3dbe
00000130: e9cc 8d3d abf3 263d 51e9 8dbe 8a19 07be
00000140: 6098 333e 9828 433e 1898 a2bd 954e df3d
00000150: 9982 cbbc 8b1e 94be e70b 54bb 30df 8f3d
00000160: 38c0 08bd 6f6b 20be 911b 473e a1f2 1e3e
00000170: 2924 123d aa2d 23be 6d82 583c 6ae5 d13c
00000180: 10c2 1b3e 1936 e2bd e6f7 30be 1e7a 82be
00000190: e239 ffbd 4a15 70be 85bb 543e 9ac4 5a3d
000001a0: 5d4e 243d ed55 a13e cf7c ee3c ac2e 1e3e
000001b0: 3944 52bd 4111 8d3d 7de4 2d3d 499d 7d3d
000001c0: 48d8 103d 6857 2fbd d469 49bc 9995 093e
000001d0: a8e7 343e f928 953e 0892 cdbd edeb 0d3c
000001e0: ddd6 433e 1d5c 49be f4ca 1ebd 6e7e 283e
000001f0: 1a19 883e a64e 073e 6801 bbbc 5382 38be

layers.0.ssm.dt_proj_layer.bias f4 [16]
0.2241458 -0.049483493 0.12786125 0.12300105 0.32162544 -0.034115244 -0.19118115 0.26760444
0.27887425 0.21148176 -0.24446112 0.3242495 0.2648174 0.25763428 0.015234801 -0.0026725973
00000000: 7a86 653e 34af 4abd 0fee 023e f9e7 fb3d
00000010: 17ac a43e 6dbc 0bbd fec4 43be 7303 893e
00000020: 9bc8 8e3e ad8e 583e 0454 7abe 0804 a63e
00000030: 2596 873e a4e8 833e 639b 793c be26 2fbb

layers.0.proj.weight f4 [16, 16]
-0.08959494 -0.21684739 0.18961886 -0.10191957 -0.041201603 0.039389838 -0.17861104 0.20198639
0.09154296 -0.16272505 0.1592279 -0.037015975 0.07144609 0.18516955 0.0868778 0.09957854
0.010204413 -0.16103084 -0.062323608 0.07888424 0.19531327 -0.20304973 0.21174474 0.048781868
0.15013905 0.0030921162 -0.20068316 -0.21823806 -0.0621711 0.17751873 0.0015723596 -0.09738244
-0.022351746 -0.13349473 -0.15899636 -0.02806428 -0.054984067 -0.16285104 0.17486025 0.1444613
0.057452995 -0.077341504 -0.15891103 0.14541905 -0.23603532 0.18369532 -0.048519548 0.04473631
-0.13274042 0.22200117 -0.12148442 0.08771674 0.20903118 -0.02029957 0.04339054 -0.030006599
-0.06670046 -0.16527373 -0.22030579 -0.16639216 0.23494084 0.037204865 0.122915104 0.20752679
0.13897993 0.022843577 0.098343186 0.19051185 0.21761271 -0.16510934 0.07626641 0.019833535
-0.23783474 0.20501445 -0.050233718 0.004718357 -0.19079319 0.08207573 0.235349 -0.13385563
-0.055580713 0.09703307 0.107834026 -0.16734962 -0.123244725 0.2524396 -0.21467292 0.13390814
0.25304526 0.08966298 -0.1783607 0.1919304 0.14741518 -0.14487386 0.1076956 0.11455788
-0.1006863 -0.16826816 -0.18212888 -0.13950877 0.20762637 -0.19081914 -0.0076457956 -0.073882215
-0.12038376 0.044255998 0.105725184 0.077121854 0.23284195 -0.013247105 0.2075512 -0.03459566
-0.10587216 0.20413765 0.041285805 -0.14179587 -0.2109282 -0.13501143 0.13872771 -0.09806116
-0.09364459 -0.011322544 -0.19510289 0.039902605 -0.017931402 0.13698496 -0.19099961 0.009299077
0.0655261 0.23373021 0.11457651 -0.1377577 0.14091939 -0.10943828 -0.16908401 0.1934657
-0.039152265 -0.21676892 -0.23683402 0.07644985 0.0487226 -0.051407248 0.03587556 0.080359206
-0.14198594 -0.21633889 -0.07946024 0.0059716334 -0.13150592 0.11306965 -0.10840271 0.22495015
0.13769571 0.17829868 -0.21799308 -0.1674676 0.24406363 0.14279395 0.036375176 0.037477076
-0.072552204 -0.15511097 0.10945225 -0.18330131 0.22102958 0.023921449 -0.07854737 0.099445954
0.0395943 -0.036262672 -0.15001936 -0.18092011 0.013978024 0.088093646 -0.10531938 -0.261914
0.24299255 -0.21904394 0.1165342 0.16344398 0.24018982 -0.114220865 -0.19796512 0.15887237
-0.06216191 0.18791424 -0.18024354 0.22764036 -0.16883762 0.15160654 -0.10822392 0.17026843
-0.087836735 0.039822333 0.053561658 -0.09740429 -0.044830542 -0.016827317 -0.013157058 -0.22080147
-0.27136734 0.014739465 -0.042815443 0.1993873 0.0013615458 0.2250528 0.2742298 -0.10418181
0.22468078 -0.12794264 0.25635263 0.1097533 0.027564244 0.23144418 -0.13146283 0.07677261
0.01227581 -0.02244215 0.09849603 -0.10564674 -0.17838685 0.019749045 -0.12664522 0.19904226
-0.18807264 0.19077134 -0.05227472 0.20422108 -0.010405987 0.062088434 -0.09740715 0.16445015
0.0039802273 0.10463472 -0.116301954 0.1486085 -0.1872343 -0.17409235 -0.14263566 0.07360881
0.16422895 0.020860337 -0.10682442 -0.023697149 -0.09175956 0.22010988 -0.08132179 0.022604022
-0.15252559 -0.22573353 0.076890744 0.19511361 0.14034641 0.117649004 -0.10902565 -0.24165529
00000000: 8d7d b7bd 3e0d 5ebe 722b 423e 35bb d0bd
00000010: 03c3 28bd 3d57 213d d0e5 36be 85d5 4e3e
00000020: e07a bb3d 65a1 26be a30c 233e 109e 17bd
00000030: 5452 923d 169d 3d3e fdec b13d d5ef cb3d
00000040: 6930 273c 45e5 24be 0a47 7fbd 0f8e a13d
00000050: 3400 483e 45ec 4fbe 9dd3 583e 7fcf 473d
00000060: 0dbe 193e 1aa5 4a3b e37f 4dbe cc79 5fbe
00000070: 20a7 7ebd 78c7 353e a217 ce3a 7270 c7bd
00000080: 021b b7bc d8b2 08be f1cf 22be 10e7 e5bc
00000090: f936 61bd 6cc2 26be 910e 333e aaed 133e
000000a0: d553 6b3d 3965 9ebd 93b9 22be bbe8 143e
000000b0: 3eb3 71be a01a 3c3e 6fbc 46bd 6c3d 373d
000000c0: 1bed 07be 4654 633e d3cc f8bd d6a4 b33d
000000d0: 450c 563e 494b a6bc 47ba 313d 66d0 f5bc
000000e0: 409a 88bd 843d 29be d797 61be b562 2abe
000000f0: 5594 703e 2164 183d eaba fb3d e781 543e
00000100: c150 0e3e 7422 bb3c 2768 c93d 8a15 433e
00000110: ded5 5e3e 6c12 29be 9031 9c3d f079 a23c
00000120: f38a 73be 4fef 513e dfc1 4dbd 739c 9a3b
00000130: 4a5f 43be 5217 a83d 54ff 703e 7311 09be
00000140: 9aa8 63bd 46b9 c63d 16d8 dc3d b35d 2bbe
00000150: bb67 fcbd c33f 813e 38d3 5bbe 371f 093e
00000160: 268f 813e 39a1 b73d 30a4 36be 6789 443e
00000170: 01f4 163e d059 14be 838f dc3d 529d ea3d
00000180: 9e34 cebd 7d4e 2cbe fe7f 3abe 63db 0ebe
00000190: 029c 543e 1866 43be 9589 fabb 8f4f 97bd
000001a0: c38b f6bd c745 353d 7286 d83d 10f2 9d3d
000001b0: 1f6e 6e3e 630a 59bc 4d88 543e 2eb4 0dbd
000001c0: 81d3 d8bd 7609 513e 4e1b 293d f032 11be
000001d0: 90fd 57be 7040 0abe a30e 0e3e 4ad4 c8bd
000001e0: bcc8 bfbd 3182 39bc 0dc9 47be ea70 233d
000001f0: e0e4 92bc c945 0c3e 6795 43be 285b 183c
00000200: 8c32 863d f956 6f3e 17a7 ea3d 5b10 0dbe
00000210: 2c4d 103e 2d21 e0bd 5c24 2dbe df1b 463e
00000220: 205e 20bd acf8 5dbe 9e84 72be bd91 9c3d
00000230: 5991 473d 6890 52bd 40f2 123d 5e93 a43d
00000240: c364 11be f187 5dbe 0dbc a2bd b1ad c33b
00000250: 7da9 06be 1091 e73d 3d02 debd 5559 663e
00000260: 1b00 0d3e ee93 363e 9439 5fbe a07c 2bbe
00000270: d1eb 793e 9438 123e 23fe 143d 9081 193d
00000280: 4096 94bd 69d5 1ebe 8028 e03d 57b3 3bbe
00000290: 9455 623e eaf6 c33c 72dd a0bd 52aa cb3d
000002a0: a22d 223d 2b88 14bd ad9e 19be 1f43 39be
000002b0: 1504 653c 716a b43d b0b1 d7bd 9819 86be
000002c0: 0ad3 783e 0e4d 60be 7ca9 ee3d dc5d 273e
000002d0: 52f4 753e a1ec e9bd 5eb7 4abe 70af 223e
000002e0: 7d9d 7ebd 976c 403e c391 38be 8e1a 693e
000002f0: c5e3 2cbe bf3e 1b3e 81a4 ddbd d95a 2e3e
00000300: bfe3 b3bd be1c 233d 7863 5b3d e77b c7bd
00000310: 3ba0 37bd 71d9 89bc b390 57bc c819 62be
00000320: a9f0 8abe cc7d 713c 3f5f 2fbd 2f2c 4c3e
00000330: e575 b23a 3e74 663e d967 8c3e 465d d5bd
00000340: b812 663e 6503 03be a740 833e 57c6 e03d
00000350: 69ce e13c b4ff 6c3e 319e 06be f53a 9d3d
00000360: 7b20 493c 9ad8 b7bc 49b8 c93d 515d d8bd
00000370: 0bab 36be c0c8 a13c 49af 01be bcd1 4b3e
00000380: 1d96 40be 9059 433e 041e 56bd 551f 513e
00000390: df7d 2abc 7150 7e3d 667d c7bd 9f65 283e
000003a0: 916c 823b ba4a d63d b82f eebd d42c 183e
000003b0: 59ba 3fbe 4445 32be 150f 12be 37c0 963d
000003c0: a22b 283e 4ce3 aa3c c3c6 dabd 8620 c2bc
000003d0: 70ec bbbd 7c64 613e 0a8c a6bd 122c b93c
000003e0: ab2f 1cbe b126 67be e578 9d3d ddcb 473e
000003f0: f8b6 0f3e f6f1 f03d d748 dfbd 7c74 77be

layers.0.proj.bias f4 [16]
-0.06262077 -0.10029396 0.1389853 0.016949484 -0.028947046 0.21758398 -0.104992375 -0.00635999
0.16590893 -0.06390179 -0.17670204 -0.03690135 -0.08281833 -0.060018722 -0.07403963 0.17776749
00000000: 513f 80bd eb66 cdbd 2a52 0e3e a5d9 8a3c
00000010: 5b22 edbc 56ce 5e3e 3e06 d7bd 7767 d0bb
00000020: 08e4 293e f1de 82bd 61f1 34be df25 17bd
00000030: a89c a9bd 31d6 75bd 17a2 97bd ae08 363e

layers.1.forward_conv1d.weight f4 [16, 16, 1]
0.0059927893 -0.012019703 -0.0044501177 -0.13577539 0.13781436 0.013574968 0.020111827 -0.0052272724
-0.15121657 -0.15089631 0.046324506 -0.024443466 -0.1887887 -0.06643651 0.005884849 0.099040195
-0.08667308 -0.23202507 0.2005379 0.09455095 0.104508966 -0.051498495 -0.15997955 -0.050287377
-0.044299573 -0.18289472 0.0104302205 0.042126674 -0.013089918 0.15165748 0.14685512 -0.14428003
-0.2155094 0.15421815 -0.14572345 0.21551238 -0.05911807 0.14890319 0.016127076 -0.23310247
-0.20357908 -0.06456258 -0.24701624 -0.18600254 -0.10259762 -0.19807208 0.07981604 -0.019633872
0.0920837 -0.02973875 -0.18595028 0.13684662 0.12558508 0.1067616 -0.060697235 -0.18725635
0.118542284 -0.10806249 -0.089010425 0.16205306 -0.19449893 -0.075300634 -0.11409862 0.1271611
-0.09572264 -0.11081159 -0.026804922 0.113213025 0.02060429 0.0071604885 -0.15014817 -0.10055598
-0.10100558 -0.027280316 -0.1773404 0.1610759 0.12850595 0.11183272 -0.0969716 -0.089034125
0.11039875 -0.03709326 0.012164894 0.07708499 0.21596546 -0.2397622 -0.21705598 -0.014460642
-0.0021923846 -0.14996386 -0.14528954 -0.18686314 0.20499 -0.19476381 -0.017571365 -0.13009451
-0.1407518 -0.11089778 -0.10001264 -0.14469373 -0.090689376 -0.16502036 0.120757505 -0.12086803
-0.081615336 0.23090859 -0.2628428 -0.03915388 -0.0727155 -0.040682763 0.07754626 0.25501144
-0.067220196 0.21558222 0.095693216 -0.025011014 -0.048192605 0.060260523 0.05619231 -0.09290196
-0.030277543 0.21033886 0.015972544 -0.04562858 -0.15437166 -0.16361195 -0.08830349 -0.021264704
0.06547477 0.08583406 0.1730739 0.041222874 0.20509113 -0.21750689 0.01303607 0.05062097
-0.11399428 0.12422082 -0.12006619 -0.036718618 0.12307374 -0.24033335 0.022704769 -0.083562545
0.022077546 -0.21863855 -0.09931935 0.031350765 -0.17280363 -0.19532801 -0.01783752 -0.23313247
-0.20696421 -0.09005068 0.05628645 0.16064413 0.10401282 0.17742172 0.15521887 0.07881233
0.09122755 -0.079910986 -0.09696611 0.04951218 0.12678817 -0.010957093 0.07881467 -0.12271162
-0.06605384 0.24181046 -0.19615726 -0.17145419 0.049716428 0.06993632 0.20451105 0.12599772
-0.19649623 -0.22577955 -0.055301707 0.15071957 0.12244923 -0.14391291 -0.21425289 -0.21491869
-0.13438971 0.090413414 -0.040454183 0.17687836 -0.10047226 0.058805443 0.08171129 0.05986456
0.19242823 -0.12716365 0.018654585 0.20398182 0.14351282 -0.18318692 -0.15471652 -0.24987793
-0.03309857 -0.169979 0.15315875 -0.07929087 -0.19387932 -0.19512026 0.19950934 -0.1865794
0.07157789 0.2048736 -0.20791495 -0.15761358 0.16472903 -0.05521972 0.23548053 -0.056964133
-0.1789956 -0.083831474 0.08229033 -0.05190904 0.050691362 -0.035480767 -0.18842179 -0.16331981
-0.06823832 -0.23408902 0.13912691 -0.053108856 0.085165314 -0.015695289 0.041490715 -0.08252688
0.13668054 0.01723 -0.02194356 -0.030773947 -0.017043138 -0.08210348 0.19743364 -0.088118725
0.17258476 0.13096617 -0.11832264 0.21381927 0.21580058 0.21293613 -0.13030802 -0.14841092
-0.1040742 0.034661144 -0.1702904 -0.16427328 0.22307687 0.23671207 0.04378713 0.25043365
00000000: 295f c43b 4aee 44bc 4bd2 91bb b408 0bbe
00000010: 351f 0d3e 8b69 5e3c 8fc1 a43c 8a49 abbb
00000020: 84d8 1abe 9084 1abe c4be 3d3d aa3d c8bc
00000030: d351 41be dd0f 88bd b1d5 c03b 96d5 ca3d
00000040: a881 b1bd fb97 6dbe cf59 4d3e eea3 c13d
00000050: cc08 d63d 16f0 52bd aed1 23be 23fa 4dbd
00000060: 7873 35bd c148 3bbe 84e3 2a3c 058d 2c3d
00000070: 1877 56bc 194c 1b3e 3061 163e 25be 13be
00000080: 7fae 5cbe 5deb 1d3e 8738 15be 47af 5c3e
00000090: ca25 72bd 147a 183e ee1c 843c 6ab2 6ebe
000000a0: 0977 50be 6339 84bd d3f1 7cbe 7377 3ebe
000000b0: b31e d2bd 68d3 4abe 9876 a33d 37d7 a0bc
000000c0: 6196 bc3d ae9e f3bc c069 3ebe 8521 0c3e
000000d0: 6099 003e d3a5 da3d aa9d 78bd 21c0 3fbe
000000e0: 4cc6 f23d de4f ddbd 194b b6bd 3df1 253e
000000f0: ba2a 47be 3837 9abd 8aac e9bd 8536 023e
00000100: 3b0a c4bd 30f1 e2bd ff95 dbbc 3bdc e73d
00000110: 54ca a83c 88a2 ea3b 71c0 19be 4bf0 cdbd
00000120: 03dc cebd f87a dfbc b998 35be 15f1 243e
00000130: 1097 033e 8e08 e53d 0c99 c6bd 8657 b6bd
00000140: bd18 e23d 1aef 17bd 434f 473c bcde 9d3d
00000150: 0d26 5d3e 3984 75be ec43 5ebe 54ec 6cbc
00000160: 1cae 0fbb 2090 19be c8c6 14be 0d59 3fbe
00000170: e6e8 513e 2a70 47be d3f1 8fbc 7f37 05be
00000180: 3d21 10be 601e e3bd 6dd3 ccbd 982a 14be
00000190: 5abb b9bd 19fb 28be b64f f73d a889 f7bd
000001a0: f125 a7bd 4d73 6c3e 5593 86be d25f 20bd
000001b0: ddeb 94bd f8a2 26bd 93d0 9e3d dc90 823e
000001c0: beaa 89bd 96c1 5c3e cefa c33d e6e3 ccbc
000001d0: 9c65 45bd bdd3 763d e829 663d 6243 bebd
000001e0: 9c08 f8bc 1263 573e dad8 823c 09e5 3abd
000001f0: 9b13 1ebe e489 27be 76d8 b4bd 5133 aebc
00000200: a317 863d c5c9 af3d 493a 313e 51d9 283d
00000210: 6903 523e 20ba 5ebe 3e95 553c ef57 4f3d
00000220: d575 e9bd 7c67 fe3d 43e5 f5bd 4366 16bd
00000230: 160e fc3d f219 76be 5aff b93c d722 abbd
00000240: f8db b43c c9e2 5fbe f267 cbbd a969 003d
00000250: 6ff3 30be 1104 48be fe1f 92bc 47ba 6ebe
00000260: 6dee 53be 7e6c b8bd 9f8c 663d e57f 243e
00000270: ac04 d53d 0aae 353e b2f1 1e3e 5c68 a13d
00000280: 82d5 ba3d 5fa8 a3bd 2b96 c6bd 49cd 4a3d
00000290: c2d4 013e 6185 33bc 9669 a13d 3b50 fbbd
000002a0: 3c47 87bd 299d 773e 73dd 48be b091 2fbe
000002b0: 74a3 4b3d c63a 8f3d 586b 513e 8c05 013e
000002c0: 4f36 49be c132 67be 0b84 62bd 3b56 1a3e
000002d0: a9c6 fa3d e85d 13be 1c65 5bbe a513 5cbe
000002e0: 759d 09be ab2a b93d 49b3 25bd 9a1f 353e
000002f0: 66c4 cdbd fadd 703d 4058 a73d 8a34 753d
00000300: e80b 453e 3037 02be 80d1 983c 9ce0 503e
00000310: 06f5 123e 5a95 3bbe 026e 1ebe 00e0 7fbe
00000320: 5e92 07bd fa0e 2ebe a6d5 1c3e 4063 a2bd
00000330: 4d88 46be 9bcd 47be 2d4c 4c3e ac0e 3fbe
00000340: 6e97 923d 63ca 513e a8e7 54be 7465 21be
00000350: baae 283e 132e 62bd cf21 713e 3953 69bd
00000360: 9f4a 37be d6af abbd d587 a83d 939e 54bd
00000370: bfa1 4f3d 4854 11bd a4f1 40be 4f3d 27be
00000380: 88c0 8bbd 08b5 6fbe 4977 0e3e ac88 59bd
00000390: 276b ae3d 6893 80bc 2bf2 293d da03 a9bd
000003a0: fcf5 0b3e ee25 8d3c fbc2 b3bc a519 fcbc
000003b0: 0d9e 8bbc df25 a8bd 0b2c 4a3e 9777 b4bd
000003c0: 0fba 303e ff1b 063e 2453 f2bd 70f3 5a3e
000003d0: d4fa 5c3e ee0b 5a3e 776f 05be 08f9 17be
000003e0: db24 d5bd d8f8 0d3d 9b60 2ebe 4137 28be
000003f0: 436e 643e a664 723e 225a 333d d738 803e
