pengujian/pengujian_random_23/vim/vim_model_1.pth (torch, 611374 bytes, 71 tensors)

cls_token f4 [1, 1, 64]
000000 f2 ef e3 bf f8 08 47 3f 32 aa 38 bf ee cd 72 3e
       -1.78076 0.7774806 -0.721347 0.23711368
000010 88 94 b9 3e 63 80 2e 3e 6e ec 7f be 0a 74 98 3f
       0.36246133 0.17041163 -0.24992535 1.1910412
000020 cb 23 74 3d 56 36 31 3f 3b 8b d4 3e c7 fc 00 bf
       0.059604447 0.69223535 0.41512474 -0.5038571
000030 97 59 1f be cc d6 99 3f 33 e3 12 bf 42 07 ab bf
       -0.1556152 1.2018676 -0.5737793 -1.336159
000040 c6 e3 a1 3f a5 6d 14 3f 01 2c 00 3e 56 fb 48 c0
       1.2647636 0.57979804 0.12516786 -3.1403403
000050 ad 0d 15 3d 34 e4 82 bf e7 73 a9 3e f5 2c 41 3e
       0.036389995 -1.0225892 0.3309624 0.18864806
000060 ba 5c 62 bf cf 52 a0 bf fc 42 c3 3e 60 29 dd 3d
       -0.8842274 -1.2525271 0.38137043 0.10798907
000070 4e 78 91 bb cf 7a 1d 3f 7c 22 9a 3f 4c d5 ca 3f
       -0.0044393903 0.61515516 1.2041774 1.5846343
000080 15 af 3e bf 49 e2 40 bf ca 75 50 bf 43 fe c1 3e
       -0.74485904 -0.75345284 -0.8142973 0.378893
000090 69 e8 89 3e a2 99 64 3e e2 a4 f2 bd 1b c6 cd 3f
       0.26935127 0.22324231 -0.11847855 1.6076082
0000a0 5c a5 44 3e dc 55 b8 3f 7e d2 3f bf a4 3e 21 bf
       0.19203705 1.4401202 -0.7493056 -0.62986207
0000b0 67 26 a9 3f 9c 7c 37 bf bf 6e 1f 3e f2 0f a8 bf
       1.3214844 -0.71674514 0.1556959 -1.3129866
0000c0 75 f7 2b bf db aa 36 40 05 c8 94 bf 92 0a 8e bd
       -0.67174464 2.8541782 -1.1623541 -0.0693561
0000d0 35 f1 40 bf 0c 79 73 bf e0 c5 d0 3f 3f 6c 6f 3f
       -0.7536805 -0.9510658 1.6310387 0.93524545
0000e0 c5 80 11 be 1d 13 df be 00 7c 10 bf 78 71 ca 3f
       -0.14209278 -0.4356927 -0.5643921 1.5815878
0000f0 43 87 34 3f a7 ef 15 3f 9d 89 9c bf 42 54 7f bf
       0.70518893 0.58568805 -1.2229496 -0.9973794

to_patch_embedding.1.weight f4 [64, 169]
000000 c2 c6 a8 bd dd 94 24 3d a5 ca 96 bd 7b d4 49 bd
       -0.08241035 0.04018103 -0.0736287 -0.049274903
000010 ce 78 23 3d e9 0f 7a 3d 8f 60 fd bc d8 e6 31 bc
       0.03991013 0.06105033 -0.030929832 -0.01085826
000020 c6 5d 88 bc 23 a0 06 bd 49 9d 9b 3d 58 6b 5b 3d
       -0.016646277 -0.032867562 0.07598359 0.053569168
000030 5b 5a 84 3d cc e6 8a bd ac d9 3e bd b8 21 8e 3d
       0.064625464 -0.06782302 -0.046594307 0.06940025
000040 d3 a1 4b bd 32 74 82 3d 51 3d 29 3c d8 61 25 3d
       -0.049714874 0.06369819 0.01032956 0.040376514
000050 86 43 59 bd 2e 2f 5f bd 91 db 2f 3d 49 4b 99 3d
       -0.05304291 -0.054488353 0.042934004 0.07485063
000060 be 8a 14 bc d8 81 5a bd 95 06 06 bd 83 4c 30 bd
       -0.009066282 -0.053346485 -0.03272112 -0.043041717
000070 4e bd cb b8 b1 ea 57 3c 76 e3 6f 3d 49 1e 7c 3d
       -9.715055e-05 0.013178513 0.058566533 0.06155232
000080 29 f1 44 bd 05 d2 ff 3a 8d df ee bc 3c 45 99 bc
       -0.04808155 0.0019517547 -0.029159332 -0.018709771
000090 d4 de 5d 3d 87 63 21 3d 2b a1 74 3c 29 0f de 39
       0.054167584 0.039401557 0.014931004 0.00042354435
0000a0 53 61 95 bd c6 76 cc 3c c4 01 3b bd 63 4c 9b 3b
       -0.07293954 0.02495898 -0.04565598 0.0047393306
0000b0 f3 23 cd bb 32 9e 8f bc b0 d2 28 3d bf 21 7b bd
       -0.006260389 -0.017531488 0.041216552 -0.06131148
0000c0 6b 54 3e 3d f6 e1 0c bd f5 e6 ae bb c1 ad 7a bc
       0.046467226 -0.03439518 -0.005337591 -0.015300215
0000d0 7f 47 cc 3c 30 3d f0 bb 3d e8 e5 3c 7e 62 3c bd
       0.024936436 -0.007331513 0.028064841 -0.045992367
0000e0 7d ab 94 3c 77 b2 83 bd 94 b0 05 bd 76 6d 45 3d
       0.018148178 -0.06430524 -0.0326391 0.048200093
0000f0 5c 07 03 bd ac 2a dd bb 1f a2 2a bd f0 b0 cf bc
       -0.03198944 -0.0067494716 -0.041658517 -0.025352925
000100 f4 cf f0 bb ab a1 a7 3c e8 7e a4 bc 8a bf 4b 3d
       -0.0073490087 0.020462831 -0.020080045 0.049743213
000110 69 4e 2b 3d 61 c3 1c 3c aa 09 d9 bc 1b 44 1b 3c
       0.041822825 0.009568066 -0.026493866 0.009476687
000120 be fd 8c bc 19 1c 7f 3d 28 e5 b4 bd 41 31 57 bb
       -0.017210837 0.062282655 -0.088327706 -0.0032835754
000130 d6 b0 4a 3d 12 0c 0c 3d bc 4f cb 3c b6 3e 72 bd
       0.04948505 0.0341912 0.024818294 -0.059141837
000140 aa 5e de 3b 46 ae 40 3b fa 7d 8e bd c6 5d f4 3c
       0.006786187 0.002940075 -0.06957622 0.02982987
000150 3c 81 a2 3b 85 b2 77 bd 1e 61 2e bd b5 4e b3 bc
       0.0049592536 -0.060472984 -0.042573087 -0.021888116
000160 38 2e 27 3c cc 0d 66 3d 2c df 86 3d 97 60 92 3d
       0.0102038905 0.0561655 0.065855354 0.07147329
000170 b4 6e 62 3c f3 b4 aa 3d cb e1 fd bc 04 b2 9a 3d
       0.013820339 0.083352946 -0.030991456 0.07553485
000180 0a b3 0e bd 92 37 fb bc 99 7b bb bc 57 a0 13 bd
       -0.034838714 -0.030666146 -0.022886084 -0.036041584
000190 7a 40 c6 3b ff e7 42 ba 15 4a 88 3d df 22 4d 3d
       0.0060501667 -0.0007435083 0.06654755 0.050082084
0001a0 eb ce 3e bd c9 8e 63 3d f5 cb 8d 3c cb 2a d8 bc
       -0.04658405 0.055556092 0.017309168 -0.026387593
0001b0 91 bb 89 bc 7e 96 13 3d f8 20 1c bc f0 7e e6 3b
       -0.016813071 0.036032192 -0.009529345 0.007034175
0001c0 3a c1 4e bd e3 56 01 3d 42 ae 0e bc 00 89 11 bd
       -0.050477244 0.031577002 -0.0087085385 -0.035531044
0001d0 89 22 c7 3c e9 36 88 3d ab 45 54 bd 06 0d 81 3d
       0.02430846 0.06651098 -0.051824253 0.06301312
0001e0 fe aa 0c bd 7b d1 26 3d 4c dc fc bb 0b 6f 50 3d
       -0.03434276 0.04072712 -0.007716691 0.05088715
0001f0 ff c8 c9 3a 75 37 b6 3c 99 ba 50 3d f0 ce 78 3d
       0.0015394985 0.02224324 0.050959203 0.060744226
000200 0f 10 5b bd 5b fd 89 3b d2 c4 75 bd 7f b5 91 bc
       -0.05348211 0.0042111105 -0.060002156 -0.01778674
000210 9a d5 81 3d 4d c4 32 bd ed 54 51 bc ae 8b d1 3c
       0.063395694 -0.04364424 -0.012776596 0.0255793
000220 e7 13 20 3d 51 e0 7e bd 70 62 ab bd 97 82 30 bb
       0.03908148 -0.062225644 -0.08368385 -0.0026933306
000230 33 a3 0e 3d b4 c8 db 3c 86 53 7e 3c 55 0b 47 3d
       0.034823608 0.026829101 0.015522843 0.04859479
000240 ca 5f c4 bc 6f 0c 57 3d bb d0 28 3d e0 1d 16 3d
       -0.023971457 0.052502092 0.041214686 0.036649585
000250 2a fc 84 bd ac d2 56 3d e2 25 0a 3d a4 3d 50 bc
       -0.06493409 0.052447006 0.033727534 -0.012710009
000260 d6 b1 bd bc e7 83 30 bc 04 dd ee bc 1f b4 30 bc
       -0.023156088 -0.0107736355 -0.029158123 -0.010785132
000270 b9 79 05 3d 82 8f 95 bd 87 49 0f 3d dc 33 32 3d
       0.032586787 -0.073027626 0.03498223 0.04350649
000280 2a f4 9a bd 20 d0 14 bd 98 d2 2d bd ec 0e 25 bd
       -0.07566102 -0.036331296 -0.042437166 -0.040297434
000290 19 7e cd 3c cb ba 70 3d fc 60 08 3d 97 97 71 bd
       0.025084542 0.05877189 0.033295617 -0.058982458
0002a0 bd 24 12 3d b5 a4 80 bd f9 59 88 bd 0a 7f a1 bd
       0.035679568 -0.062814154 -0.06657786 -0.07885559
0002b0 3d a0 3f 3d b8 38 01 3d 42 e6 78 bd 92 ef 46 3c
       0.046783675 0.03154823 -0.060766466 0.012142079
0002c0 9a 43 ba bb 71 87 f2 bc 95 b1 fe 3a 0d 5d 2e 3d
       -0.0056843283 -0.0296056 0.0019431586 0.04256921
0002d0 5a 4f 59 bc c0 8e 20 3d 64 0b e4 3c c6 48 57 3d
       -0.013263548 0.039198637 0.027837463 0.052559637
0002e0 33 b7 39 3d b3 b3 21 3c 3f 67 89 3d 5c 4e d6 bc
       0.045340728 0.009869504 0.06709146 -0.026160412
0002f0 4c 30 7b bd b9 f0 3b bd 86 c6 9b bc 81 6d 8c 3d
       -0.061325356 -0.045883868 -0.019015562 0.06856824
000300 8b c4 27 3d 3c bb 84 3d d5 00 52 3d a9 4c 93 3c
       0.040958922 0.064810246 0.051270325 0.01798089
000310 b6 7a 2b 3d 1f a1 aa 3a 0a c4 63 3c 1b 9c a3 bc
       0.041865073 0.0013017989 0.01390172 -0.019971898
000320 00 f1 04 3b 85 4e 8d 3d 4e d6 f1 3c c2 d1 72 bc
       0.0020285249 0.06899742 0.029521134 -0.014820518
000330 0a 1c 95 3d 7c 72 14 3d 9e ff 01 3d 34 a3 bd 3c
       0.07280739 0.036241993 0.031737916 0.02314911
000340 90 92 71 bc 83 71 a3 bc 86 1e 30 3d ff 27 20 3d
       -0.014744416 -0.019951588 0.04299786 0.039100643
000350 e3 53 a3 3b 80 f7 b9 bc 30 fc e7 3c e5 2b f2 bb
       0.0049843653 -0.022701025 0.028318495 -0.0073904865
000360 b8 fc 47 3c b3 39 db bb 4d bb 91 3b 81 7d fc bc
       0.012206249 -0.006690228 0.004447377 -0.030821564
000370 2b 72 08 3d 70 b1 23 39 e2 d5 31 bd eb 31 4a bc
       0.033312004 0.00015610992 -0.043416865 -0.012341003
000380 96 ae 60 3d 53 25 98 3d 4d 76 31 3c 22 83 02 bd
       0.054853998 0.07428994 0.010831428 -0.03186334
000390 3c d2 bd bb 60 81 56 3d 53 93 01 bd 7a cd b9 3c
       -0.005792884 0.052369475 -0.03163464 0.022680987
0003a0 4d c9 0b bc a9 5f 05 bd ee 3f 01 3d b1 48 48 bd
       -0.008531881 -0.03256193 0.03155511 -0.04889745
0003b0 e8 b8 88 3c 9f 5d bc ba a0 ed 81 3c 78 35 51 3d
       0.016689733 -0.0014371163 0.015860379 0.051076382
0003c0 e5 6f c2 3c fa 65 82 bb e7 7f da bb 63 e5 56 bd
       0.023734996 -0.0039794417 -0.006668079 -0.052464854
0003d0 8d 8c 2f bd 6a dc f9 bc c5 54 1d 3d d2 35 e5 3b
       -0.04285865 -0.03050061 0.03841092 0.0069949413
0003e0 1a 3d 15 bd f8 62 5b 3d f4 06 46 3d 06 98 64 bc
       -0.036435224 0.05356118 0.048346475 -0.013952261
0003f0 2c 12 03 bd ed 99 28 bd 9e 33 3a bd 6c 09 4e 3d
       -0.031999752 -0.04116242 -0.045459382 0.050301954

to_patch_embedding.1.bias f4 [64]
000000 e3 fd 70 3d 29 4b cc bc be 90 63 bc 86 54 f1 bc
       0.058835875 -0.024938183 -0.01388949 -0.02945925
000010 0f 20 f3 bc 3c a8 c1 3b 26 d7 ca bb 58 00 50 bd
       -0.029678373 0.0059099477 -0.0061901985 -0.050781578
000020 6d 42 97 bd a5 93 8f 3c 47 1d 4f bd c1 e2 4f bd
       -0.073857166 0.017526457 -0.05056503 -0.05075336
000030 e5 c1 08 bd a6 47 e0 3b a8 f4 1a bd 08 e8 2c 3d
       -0.033388037 0.0068444787 -0.03783098 0.04221347
000040 35 82 93 3c 9a 79 1f 3c c0 15 85 3c c1 95 76 3a
       0.018006423 0.009733582 0.016245723 0.00094064703
000050 9a a7 a5 3c d6 53 3a 3c de e6 94 bd c8 0c d7 bc
       0.02022152 0.011372527 -0.07270597 -0.026251212
000060 04 d7 54 bd 1d bd 3f bd 4f 91 02 bd ba e2 60 3b
       -0.051962867 -0.04681121 -0.03187686 0.0034314827
000070 78 44 84 bc 1f e5 3f 3c 2d a7 9b bc ce 52 96 bd
       -0.01614593 0.011712342 -0.019000614 -0.073400125
000080 07 da c0 bc ce 86 af bc d0 d0 2a bd 70 f4 ed bc
       -0.023541464 -0.021426585 -0.041703045 -0.029047221
000090 06 fd 0f 3d 4d 7f 28 3d de 06 85 3d e3 3e 6d bd
       0.03515341 0.04113703 0.064954504 -0.0579213
0000a0 e2 9a ba bb 2c d1 8a bd cb 42 cd bc 8c 59 12 3d
       -0.005694733 -0.067781776 -0.025056263 0.03572993
0000b0 8a 88 93 bc 77 f7 84 bc d4 d7 da 3c 51 94 d6 bc
       -0.018009443 -0.016231282 0.026714243 -0.02619377
0000c0 8b 18 56 bd ee eb b0 bc 0e 38 1d 3d dd 75 6d bd
       -0.0522695 -0.021596875 0.038383536 -0.05797373
0000d0 61 23 71 3c 55 f9 1b 3d c4 aa ec bc 56 1f d4 3a
       0.014717908 0.03807958 -0.028890021 0.0016183655
0000e0 51 81 27 bd 48 50 c9 3b 7f 6a 1e 3d 3b 8e 42 bd
       -0.04089481 0.0061436035 0.03867578 -0.047498923
0000f0 ce 92 29 bd af 5a c7 3b f3 cd 99 bc 23 b4 47 bd
       -0.04139977 0.0060838084 -0.018774962 -0.048755776

layers.0.forward_conv1d.weight f4 [64, 64, 1]
000000 69 0e df bc 0b 08 78 bd 06 ad e2 ba b0 c7 3a bd
       -0.027228551 -0.060554545 -0.0017293997 -0.045600593
000010 76 5c 30 ba 05 bd 40 37 3b 29 c7 3d 30 0b 5d 3c
       -0.0006727645 1.1488101e-05 0.09724661 0.013491437
000020 af f6 8f bd 11 83 33 bd 23 56 38 bd 51 dd 2b bb
       -0.07029473 -0.043826167 -0.04500402 -0.0026224444
000030 86 7b 83 bd d2 93 f3 bc 4c d1 8f 3d ba 36 c8 3c
       -0.064200446 -0.029733572 0.07022342 0.024440158
000040 3e b7 06 bd 38 56 cf bc d1 61 5f 3d e2 7f 2f bd
       -0.032889597 -0.025309667 0.054536644 -0.042846568
000050 72 73 52 3d 73 a5 b0 bd 5d 85 9b 3d a6 1b 36 3d
       0.05137963 -0.08625307 0.075937964 0.04445996
000060 01 e6 b8 bc 28 64 91 bc ca 10 22 bc 01 5b c7 3c
       -0.022570612 -0.017747954 -0.009891698 0.024335386
000070 dc fa 16 3d b3 aa a7 3d 34 5f 9a bd 6c 1a d6 bc
       0.036860332 0.08186855 -0.0753769 -0.026135646
000080 c4 c3 8c 3c 79 de 4f 3c 34 ba 5b bd e2 22 93 3d
       0.017183192 0.012687319 -0.053644374 0.07184388
000090 6c da 28 3d c8 b7 c6 3d c0 7d 5a 3d 8f b3 55 3d
       0.04122393 0.09703022 0.05334258 0.052173194
0000a0 75 64 1b bd 36 56 65 bd 88 2b c1 3c 27 2c 58 3d
       -0.0379376 -0.05599042 0.023580328 0.052776482
0000b0 00 97 3a bd 94 8d 3a 3d be 32 90 3d ed b2 33 bd
       -0.04555416 0.045545176 0.07040928 -0.04387181
0000c0 0a 52 8b 3c 90 81 5f 3c 32 13 93 bd 43 ec ac bd
       0.017006893 0.01364173 -0.071813956 -0.08443501
0000d0 a4 75 94 bc b7 dd 9b 3d 5f 8c a4 bc 1f ab b1 ba
       -0.018122502 0.07610648 -0.020086465 -0.0013555026
0000e0 6a a3 e3 bd ce ec 2c 3c 4f ed b8 3d ce 83 05 bd
       -0.11115153 0.0105545055 0.09029638 -0.032596402
0000f0 39 50 42 bd 17 2e 74 bd 23 df 8b bb 4e 35 e4 3d
       -0.047439788 -0.059614267 -0.0042685433 0.111429796
000100 7d 19 4b bc 98 a0 da 3d a8 55 91 bb 88 9a 05 3c
       -0.012396214 0.10675162 -0.00443526 0.008154519
000110 0c d0 94 bd d8 11 d7 bc 4e 42 d8 bd 2e 76 b8 3c
       -0.07266244 -0.026253626 -0.105595216 0.02251729
000120 87 75 a6 bd c9 c8 2e 3d 2a 9d 82 bd 1f 9a 88 bd
       -0.08127885 0.042671952 -0.06377633 -0.06670021
000130 7c b4 81 3c a2 33 0c bd 86 d4 88 3d 9b d4 1d 3d
       0.015833132 -0.03422893 0.06681161 0.038532835
000140 e5 86 8a bd cd 8e 98 bd 95 d0 36 3c 9c c1 92 3d
       -0.0676401 -0.07449112 0.011158128 0.07165834
000150 e4 62 c2 bd b7 12 05 3d c1 7c 1c bd 8e 51 85 3d
       -0.09491518 0.03248855 -0.038204912 0.06509696
000160 a4 d2 68 3d c6 b8 5a bc 86 d4 b5 3d 5f 99 a0 3d
       0.056841508 -0.0133497175 0.08878426 0.07841753
000170 33 7d 4b 3b e8 d3 98 bc c7 b0 86 3d 91 cd 1d bc
       0.0031049966 -0.018655732 0.06576686 -0.00963153
000180 e7 2c a3 bd 34 b2 c1 3c b0 eb e0 bc a8 a5 a2 bd
       -0.07967549 0.023644544 -0.027456135 -0.07941753
000190 42 b1 49 3d 58 2d 63 bd 0a 60 dd bd 35 39 06 3c
       0.04924131 -0.055463165 -0.108093336 0.00819235
0001a0 a9 33 94 bc 03 94 91 bd e6 e5 9e bd 1b 45 9f bd
       -0.01809104 -0.07108309 -0.077586934 -0.07776853
0001b0 52 e6 85 bd 25 f8 0b bc af 43 95 bd 07 fa cc 3d
       -0.06538071 -0.008543049 -0.072883 0.100086264
0001c0 6a 86 13 bd 25 1d 26 3d 91 72 23 bc 71 57 3d 3d
       -0.03601686 0.04055514 -0.009976045 0.04622597
0001d0 31 89 30 3b 22 01 87 3d 46 cb 79 3c d4 37 b4 bd
       0.0026937241 0.06592013 0.015246218 -0.08799711
0001e0 5f 88 7b 3d 2c 9d 67 bd 5b e6 bd 3d c3 02 c7 3c
       0.06140935 -0.056546375 0.092724524 0.02429331
0001f0 7b bc ae bd 31 62 d0 3d ca 04 3b 3d fb 05 70 3d
       -0.085320435 0.101749785 0.045658864 0.058599453
000200 90 7c f0 bc 9c 29 44 bd d6 8b 39 3d 60 38 48 3d
       -0.029356271 -0.047891244 0.045299374 0.04888189
000210 3d b9 e6 bc 73 b5 0b 3d 32 0d 1e bd ea 7c 0d 3d
       -0.0281645 0.03410859 -0.038586803 0.034542955
000220 1e 72 a4 bc dd e0 70 bd bc 43 7e bd ec 74 59 3d
       -0.020073947 -0.058808196 -0.062076315 0.05309002
000230 f2 9a 41 3d 79 ca 6f bc 1c 55 49 bd e6 55 b7 3c
       0.047266908 -0.014635676 -0.049153432 0.022379827
000240 50 69 12 bd 09 5a f3 bc c7 a0 40 3c c6 5d d5 3c
       -0.035744965 -0.029706018 0.011757082 0.026045691
000250 29 07 3b bd 6e 90 8b bb 8b 83 1f bd c6 ab 35 bd
       -0.045661125 -0.0042591607 -0.03894381 -0.04435327
000260 09 8f 0f 3d 64 c7 8f 3d 73 e8 ae 3d 86 1b 62 bc
       0.03504852 0.070204526 0.0854043 -0.013800507
000270 5e 1a 8e 3d db 36 76 bb b3 e9 87 3b a8 ba 32 bd
       0.06938623 -0.0037569318 0.004147732 -0.04363504
000280 ff 16 d5 3c bd 9a 89 3d cc ff 77 bd 60 1a 48 3d
       0.026011942 0.06718967 -0.06054668 0.04885328
000290 fe 7b a5 3c 49 06 f4 bb ad 73 4a 3d 2a 47 25 bd
       0.020200726 -0.0074470383 0.049426723 -0.04035107
0002a0 52 26 5c bd 5b b9 97 bc 0a d5 4f 3c 5b 83 d2 3c
       -0.053747483 -0.018521002 0.01268507 0.0256974
0002b0 2a 1f 31 bd 3d 9b 10 bd 67 07 50 3d b3 58 3a 3d
       -0.04324261 -0.035304297 0.05078831 0.045494746
0002c0 96 fd 3d bc 8b 96 4d 3d e7 f4 8a bc 4d e6 2f 3d
       -0.011596104 0.050192397 -0.016962482 0.04294424
0002d0 bc 06 e2 3c 00 00 12 bd 07 c7 a6 bc 75 1a 93 3d
       0.027591102 -0.03564453 -0.020358576 0.07182781
0002e0 ff 4d 46 3c 8c 8e 3f 3d 65 28 80 3d 34 54 8c 3d
       0.012103557 0.046766803 0.06257705 0.06851998
0002f0 4a dd f0 3c fd 48 7d bd 4e c2 60 bd 16 dd 8c bd
       0.029402394 -0.061837185 -0.054872803 -0.06878106
000300 7a cb aa bd f3 74 0f bd 9b ac d1 bc 4f a8 9d 3d
       -0.08339591 -0.03502364 -0.025595 0.07698118
000310 33 e5 76 bd 49 e7 d7 3c ed e2 b9 3c 88 d1 97 bd
       -0.060277175 0.026355403 0.022691214 -0.07413012
000320 04 55 30 3d 4f 47 a0 3c 06 ac b1 bc 5c b7 cf bb
       0.043049827 0.019565253 -0.021688472 -0.006338997
000330 6b 78 87 3d f9 0c 02 3d 61 82 15 bd b7 f2 9d 3c
       0.06614765 0.031750653 -0.036501292 0.019280775
000340 1b 88 f6 3c 1e 09 bf bc bd 7c 73 3c e9 78 1c bd
       0.030094197 -0.023319777 0.014861283 -0.038201246
000350 dc 6f 6d bc c9 0e d6 3d 0c 03 c1 bc 76 4f 8b bc
       -0.014492001 0.10452039 -0.023561023 -0.017005663
000360 9f 61 1f 3d de ba 55 bd 67 98 93 bd 55 02 99 3d
       0.038911458 -0.052180164 -0.07206803 0.07471148
000370 fa 8c bc 3a 56 fd 73 3c b3 8b 89 3d 21 48 89 3d
       0.0014385276 0.014891943 0.06716099 0.067032106
000380 58 73 94 bd cd 18 13 3d ec 5d a7 bd 5d 25 23 bc
       -0.072485626 0.035912324 -0.08172211 -0.009957639
000390 27 24 6f 3d 1e 8c cd 3c 62 e8 22 bd 84 a6 5d bd
       0.058384087 0.025091227 -0.0397724 -0.05411388
0003a0 0a e1 56 bc 57 0f 46 3d f9 ca 85 3c cf 61 7b 3d
       -0.013115177 0.048354473 0.016332136 0.061372574
0003b0 71 65 4a bd 4d 0e 70 bd 23 3a 8c 3d 8f 2d 1f 3d
       -0.04941315 -0.05860739 0.06847026 0.038861807
0003c0 23 31 25 3d 36 85 a8 3d 63 fe e1 bc ed db 58 3d
       0.040330064 0.08228533 -0.027587121 0.052944113
0003d0 d6 69 7c bd 7e 1b a8 3c 0c 4a 5f bd 67 c1 9b bd
       -0.06162437 0.020520922 -0.054513976 -0.07605248
0003e0 92 76 1d 3d dc f3 64 bd 35 3e 5d 3d 6e 7c 88 3d
       0.038443156 -0.055896625 0.054014403 0.06664358
0003f0 20 71 0c bd 9a 2d 03 3d 2d c0 a2 3c 48 f4 53 bd
       -0.034287572 0.03202591 0.019867027 -0.051746637

layers.0.forward_conv1d.bias f4 [64]
000000 3f a8 c4 bc 7e af 8f bd f0 03 42 bd 83 a3 ec 3b
       -0.024006007 -0.07015894 -0.047367036 0.0072216406
000010 ce 0b 35 bd f2 d7 aa bd ad d7 41 3c 97 fc 8b bc
       -0.04420071 -0.083419695 0.011831206 -0.017088218
000020 fd c1 c8 bd 4c 9e 8d bd d8 92 cf bd 20 e6 bf bd
       -0.09802625 -0.06914958 -0.1013543 -0.09370065
000030 3e 40 ed 39 9f 33 8f bd 51 8d 10 3c 08 1d c6 3c
       0.00045252027 -0.06992268 0.008822755 0.024183765
000040 a8 3a 03 bd 9f 1d c8 bb f9 64 a9 bd a4 c3 5f 3c
       -0.03203836 -0.0061070467 -0.08271212 0.013657484
000050 17 6a 27 bd 51 b2 83 bd cf 78 99 bd ff e0 86 3d
       -0.04087266 -0.064304955 -0.074937455 0.06585883
000060 c6 ab 98 bc 3b a7 c1 3d 05 f4 a0 3d 18 89 52 bc
       -0.018636595 0.09455725 0.07859043 -0.0128500685
000070 9c 4f 59 bd b7 4f 45 bc ca c2 e6 3d 4e 6b 9d 3c
       -0.053054437 -0.012042931 0.11267622 0.019216206
000080 f6 b0 b7 bd 07 6e 49 3d 2f 37 36 bd aa c5 85 bd
       -0.089692995 0.049177196 -0.04448622 -0.06531842
000090 4c 3a c2 bd fb 4c 8e 3d 89 41 c4 3d c1 66 a2 3d
       -0.094837755 0.069482766 0.09582812 0.07929755
0000a0 af 1d f2 3c 93 c0 c3 3d f6 be 05 bd aa 4c bb bc
       0.02955517 0.09558215 -0.032652818 -0.022863705
0000b0 92 cb cc 3d b2 95 2d bc d5 51 bc bd 0d 92 72 bd
       0.099997655 -0.010594772 -0.09195296 -0.059221316
0000c0 c8 0a 96 3d 52 75 c1 bd 69 a7 17 bd ae bb 04 bc
       0.07326275 -0.09446205 -0.03702489 -0.008101387
0000d0 7e 7f 12 bb c8 92 92 bd 44 6c 30 3d 43 d4 af bd
       -0.0022353823 -0.071569026 0.043072 -0.085854076
0000e0 ab 06 98 3d 32 35 9e bd 8d a4 b8 bd 71 a8 90 bd
       0.07423147 -0.0772499 -0.090157606 -0.07063378
0000f0 28 db 6f 3d 87 1b bd 3d 7b 10 ca 3c 7e 84 80 3d
       0.058558613 0.09233766 0.024666062 0.06275271

layers.0.backward_conv1d.weight f4 [64, 64, 1]
000000 9f 99 b5 bc ca a4 70 3d 04 38 5d 3c da 6c 7d bc
       -0.022167979 0.058750905 0.013502125 -0.015467847
000010 29 ce 77 3d 9f 84 57 bc 16 ac 79 bc 6c 6f 4a bd
       0.060499344 -0.013154178 -0.015238782 -0.049422666
000020 d5 41 af 3d c0 a9 2e 3d dc 14 3d 3d e0 f8 6a 3c
       0.08557478 0.042642355 0.04616247 0.014341563
000030 2b f3 2f 3d c3 8c 22 bd 14 cc 54 3d b4 b8 0f 3d
       0.042956512 -0.039685022 0.051952437 0.035088256
000040 99 f3 63 3d c6 16 4b bd f4 8d 32 3d de 66 8d bd
       0.055652235 -0.049582265 0.04359241 -0.06904386
000050 74 ac 47 bd 1b 3c 56 bd 30 48 67 bd 54 55 fd 3c
       -0.04874845 -0.052303415 -0.056465328 0.030924477
000060 74 c6 7d 3c 65 53 6e bb 0a 03 cc 3d 46 72 06 3d
       0.015489209 -0.0036365625 0.09961517 0.032823823
000070 bc 00 4e 3d d5 e2 22 3c 04 e3 ab bc eb eb 4c bd
       0.05029367 0.009941776 -0.020982273 -0.050029676
000080 1c 6b 47 3d 6e e5 ea bc e3 36 08 3d 1a dd f6 bc
       0.04868613 -0.028673854 0.03325547 -0.030134726
000090 6c 16 84 3d 3f aa 31 bd b5 71 97 3c e5 d5 80 3d
       0.06449589 -0.04337525 0.018486837 0.06290797
0000a0 d3 9d c2 3d 99 e4 c2 bc ce dd 63 bd d8 b8 c2 3a
       0.09502759 -0.023790644 -0.05563145 0.0014856113
0000b0 c0 9a e8 bc 55 02 24 bd bb cf dd 3a 04 4b ed 3c
       -0.028394103 -0.040041286 0.001692287 0.028966434
0000c0 6b af a8 3c 33 e4 11 3d fc bd de 3b 62 9a 76 bc
       0.020591458 0.03561802 0.0067975502 -0.015051456
0000d0 72 68 ab 3d 95 2a 77 3d c7 5a 99 3d f0 01 81 3d
       0.08369531 0.060343344 0.074880175 0.06299198
0000e0 18 47 a7 3c 0b af 2d bd fb 87 a1 bd 87 10 da bc
       0.020419642 -0.042403262 -0.07887264 -0.026619209
0000f0 28 65 09 bc 2d 68 bd 3c b0 78 84 3d 9a d2 64 3d
       -0.008385934 0.023120964 0.06468332 0.055864908
000100 78 9b 91 3d d3 00 89 3b 1d 27 a6 3d d4 1d 45 3d
       0.071097314 0.0041810065 0.08112929 0.04812415
000110 58 bf bb 3b 0b df ea bb 0c 0b a9 bd 3f 53 00 3c
       0.005729597 -0.007167702 -0.0825406 0.007832347
000120 a7 64 2f 3d 7b 3b 74 3d b5 59 b7 3b a1 de 52 bd
       0.0428206 0.059627037 0.0055954107 -0.051481847
000130 21 a0 46 bd b4 4a 70 3d a3 5d 49 bd df 85 24 3d
       -0.048492555 0.058664992 -0.049161565 0.040166732
000140 73 7b 83 bd 76 ba c5 bc 26 af 8a bd c2 cd 21 3c
       -0.064200304 -0.024136763 -0.06771688 0.009875717
000150 f9 77 22 bd c2 c1 0e bd 94 ae 84 bd c7 6e 9c 3d
       -0.039665196 -0.03485275 -0.06478611 0.076383166
000160 10 80 f5 bb d8 1e 52 3d 74 f3 08 bd 01 6c a3 3d
       -0.007492073 0.051298946 -0.0334353 0.079795845
000170 57 8e 99 3d 12 b4 bf 3d 3f be 5f bd a4 81 28 3c
       0.07497852 0.093605176 -0.054624792 0.010284815
000180 69 24 90 ba 6a e4 40 bd b0 d4 b8 bc 52 6d a0 bc
       -0.0010997179 -0.047092833 -0.022562355 -0.019583378
000190 10 f7 3c bd 19 57 26 bd f8 a4 65 3d bf d7 bc bd
       -0.046134055 -0.040610407 0.05606553 -0.09220838
0001a0 e1 a8 ab bd d5 58 ab bd eb d3 00 bc 02 bb 41 bd
       -0.083818205 -0.08366553 -0.007863025 -0.047297485
0001b0 24 64 b6 bd 7f 2e 95 bc c1 d2 c4 3d a5 53 2c bd
       -0.08905819 -0.018210648 0.096105106 -0.042071957
0001c0 f3 3b af 3d 87 35 ff bb 4e 2a ee bc f7 11 ac 3d
       0.08556356 -0.0077883634 -0.029072907 0.08401864
0001d0 24 b8 8b bb ba 7e 5f 3c 2a 45 73 bd 3e 77 a1 bc
       -0.0042638946 0.013641054 -0.059392132 -0.01971018
0001e0 93 e5 2a ba 8c 89 5c 3d 6b 81 bb 3c 68 3f 04 bc
       -0.00065191946 0.053842112 0.02288886 -0.008071758
0001f0 60 3c be 3d f4 79 3d bb 73 dd 47 bc 2f 1b a7 bd
       0.09288859 -0.00289118 -0.012198794 -0.08159482
000200 99 c1 4e bc ad f8 8f bd 32 ac 17 bd 89 2d 07 bd
       -0.012619399 -0.07029853 -0.037029453 -0.03300241
000210 fa 30 2d bd f7 d8 2d bd e1 9d f9 3a b1 a1 72 bd
       -0.042283036 -0.042443242 0.0019044244 -0.059236232
000220 62 49 8b 3d 82 0e 4f 3d fe a6 54 bc 59 3b ca 3c
       0.06801106 0.050550945 -0.012979267 0.024686502
000230 f3 22 38 3c b8 ae 88 3c 30 a3 99 3d 30 58 30 3c
       0.011238801 0.016684875 0.07501829 0.010763213
000240 50 4a bb 3c 55 bb a7 3d 64 f2 1c 3d e9 51 d3 bc
       0.022862583 0.081900276 0.0383171 -0.025795894
000250 07 3f 51 bd 9a b8 c5 bd ee f7 16 3d ed af 58 bd
       -0.0510855 -0.096543506 0.036857538 -0.05290215
000260 94 dd 3d 3c 94 34 4c 3d 2c aa 3a 3c 45 c2 32 bd
       0.011588473 0.04985483 0.011393111 -0.0436423
000270 3c d4 40 bd bb 05 d2 3c 5b d0 90 3c 42 d6 7c bd
       -0.047077402 0.025637498 0.017677477 -0.06172777
000280 42 6b 18 3c 95 dd 26 bc 29 ba 7d 3d 4b 81 81 3d
       0.009302916 -0.010184665 0.061945114 0.06323489
000290 1f 4e 08 3d c7 06 aa 3c 56 18 b1 3c 61 73 2b bd
       0.033277627 0.020755185 0.02161805 -0.04185808
0002a0 58 43 c4 3c ce 13 cb bc 0b 3e 8e bc 17 0f 45 3d
       0.023957893 -0.024789717 -0.017363569 0.048110094
0002b0 6e cb 4a 3d e2 5e 51 3d db 11 94 bd ba bd 5a 3c
       0.049510412 0.051115878 -0.07229968 0.013350898
0002c0 f2 6c 05 bd 0c 40 6f bd 37 81 70 bd 01 ba 0c bd
       -0.0325746 -0.05841069 -0.05871698 -0.034357075
0002d0 7a cd d3 3c b3 47 7d 3d 6d fd 7e 3d 6a fa 1c bd
       0.025854815 0.061835956 0.062253404 -0.03832475
0002e0 72 cf 9f 3c 58 39 98 3d b2 47 1d bc 74 4d 57 3d
       0.019508097 0.074328125 -0.009599613 0.0525641
0002f0 1b 83 9e 3b 12 76 20 3d 3b cd 02 3c b0 08 87 3d
       0.0048374063 0.0391751 0.007983501 0.06593454
000300 8e 1e 7a bd 3d 8a 68 3d 4c 33 96 bd bc 2c 06 3d
       -0.061064295 0.05677246 -0.07334003 0.032757506
000310 aa 23 2e 3c 03 7c 20 bd ff 96 36 bd f2 a0 14 bd
       0.01062862 -0.039180767 -0.044577595 -0.036286302
000320 9b c8 4c 3d dc a7 c6 bc 65 2d 4e bc 61 47 49 3c
       0.049996 -0.024249963 -0.012584065 0.012285084
000330 38 9d c1 bb 97 5a 22 bc b5 6d 8a bc b1 a0 f1 bc
       -0.0059086345 -0.009909294 -0.016898016 -0.029495569
000340 0e 64 73 3d 7b 1e cb bb d5 b6 b1 bb 3f fb eb bc
       0.05942159 -0.006198702 -0.0054234066 -0.028806327
000350 94 7d f1 3b 28 46 a3 3d 53 f4 54 3d ae 60 9f 3c
       0.0073697064 0.079723656 0.05199082 0.01945528
000360 f5 e8 13 3d f4 21 3c bd 52 41 10 bd 4f 77 94 3d
       0.036110837 -0.045930818 -0.035218544 0.07249319
000370 d8 ba 92 3d 84 7a 2f bd d5 6c 07 3d 54 ea 77 bd
       0.07164544 -0.04284145 0.033062775 -0.060526207
000380 88 03 0b bc 5d e0 7e bd 1f 6b 1c 3b da 33 13 3d
       -0.008484729 -0.06222569 0.002386756 0.03593812
000390 80 a8 06 bd 2e 82 6a bd eb 4a b3 3d 14 c8 17 bd
       -0.032875538 -0.057253055 0.08754524 -0.037056044
0003a0 55 c4 95 bd ac 69 be bd e7 3f a5 3b e7 23 a6 bc
       -0.07312838 -0.09297499 0.005043018 -0.020280791
0003b0 6a 79 82 bb b2 af fb b9 a9 00 14 bb 06 6b a2 bd
       -0.003981759 -0.00048005354 -0.0022583401 -0.07930569
0003c0 bf a9 1c 3d 2e c2 52 bd ba 2b 62 3d 73 21 83 bd
       0.03824782 -0.051454715 0.055217482 -0.06402864
0003d0 6a f0 7d bc bd 06 89 3b c3 cf 30 bd 1f 66 19 3d
       -0.015499214 0.0041817115 -0.043166887 0.037450906
0003e0 2c 0c 75 3d d8 97 60 bd 31 04 46 bd bf 01 16 3d
       0.05982606 -0.05483231 -0.04834384 0.03662276
0003f0 04 4f ca 3c e6 e6 61 3c 57 df d7 3a f7 47 f5 bb
       0.02469588 0.013787961 0.0016469759 -0.0074853855

layers.0.backward_conv1d.bias f4 [64]
000000 71 85 8c bc 61 56 5f 3d 5e cb 9a 3d 87 74 40 bc
       -0.017153474 0.054525737 0.075583205 -0.011746532
000010 95 d3 df bb b4 2d d8 bc cd 0f 89 3d ae c5 e8 3d
       -0.0068306425 -0.02638898 0.06692467 0.113658294
000020 19 1b 78 3d a9 4b 23 3d 82 19 96 bc 21 23 a4 bd
       0.060572717 0.039867077 -0.01832271 -0.08014513
000030 7a 6c 82 bb 15 02 b4 3d bc a0 8a bc 39 25 ab 3d
       -0.0039802166 0.087894596 -0.016922347 0.08356709
000040 e9 87 c8 3d 9f 54 31 3d a0 ac 8a 3d 52 4b 3f 3d
       0.09791548 0.04329359 0.06771207 0.04670269
000050 64 f8 c0 3d 45 f5 c2 3d 6a 37 0f 3d 2f 8e 66 3d
       0.09422377 0.09519438 0.034964956 0.05628794
000060 c6 d4 10 3d c4 59 12 bd 7f 81 e7 3c 76 02 67 bd
       0.035359167 -0.03573014 0.02825999 -0.05639883
000070 44 1c 27 bd 3f 81 5b bb 71 5d d2 3d a3 83 f0 bc
       -0.04079844 -0.0033493785 0.10271729 -0.029359644
000080 36 75 0f 3c 22 91 46 bd 85 3d 85 3c 24 1a 8a 3d
       0.008755973 -0.048478253 0.016264686 0.06743267
000090 b0 37 9b bd 6e 8c 82 bd 11 7c 52 bb d3 b4 85 bd
       -0.07578981 -0.06374441 -0.0032117406 -0.0652863
0000a0 0d 58 a9 bd 3c 3e bb 3c d7 79 01 bc e7 99 8b 3d
       -0.082687475 0.022856824 -0.007902584 0.06816464
0000b0 44 05 b4 3b 79 e0 c7 3d 1f bd 3b 3d 17 92 e0 bc
       0.005493792 0.09759612 0.045834657 -0.027413411
0000c0 ff 2b 87 3d 33 ef d7 3d 0c 79 d2 3d 73 51 f8 bc
       0.066001885 0.105436705 0.10276994 -0.030312276
0000d0 ba f4 b3 bb fc 24 65 3d dc 37 37 bc a2 f6 0f 3d
       -0.00549182 0.055943474 -0.0111827515 0.035147317
0000e0 df b6 a1 bd fb db 84 bd 37 35 b3 3d a5 db 8a 3d
       -0.07896208 -0.064872704 0.08750384 0.06780175
0000f0 cf fe 61 3d bd e4 84 3d ee 6c 89 3b 4a 3a 55 bd
       0.055174645 0.06488941 0.0041938936 -0.052057542

layers.0.norm.weight f4 [64]
000000 13 27 76 3f 89 f7 6d 3f e2 af 69 3f 90 35 6f 3f
       0.9615337 0.92955834 0.91284 0.93441105
000010 5d 0f 64 3f c8 17 6d 3f 4d b1 66 3f 15 b9 64 3f
       0.8908594 0.9261441 0.9011429 0.8934491
000020 33 e6 71 3f 81 ab 6b 3f ed 2e 74 3f 2e 20 67 3f
       0.9449188 0.9205857 0.95384103 0.9028348
000030 62 a4 6d 3f d9 d2 64 3f a3 56 67 3f 2c 80 75 3f
       0.92828953 0.8938423 0.9036657 0.958987
000040 70 79 6a 3f 50 56 6b 3f 6d ba 6a 3f 3c d5 6e 3f
       0.9159155 0.9192858 0.91690713 0.9329412
000050 13 6f 6d 3f d8 33 74 3f 12 2c 6f 3f a0 3a 5c 3f
       0.9274761 0.9539161 0.9342662 0.86026955
000060 bd f4 71 3f f1 05 6a 3f a2 06 72 3f 3d 06 67 3f
       0.94514066 0.91415316 0.9454137 0.90243894
000070 39 5e 65 3f ff 45 62 3f da 76 68 3f af a9 75 3f
       0.895969 0.88388056 0.90806353 0.9596204
000080 76 7b 68 3f ac 8a 66 3f e8 b3 6a 3f 9b a3 53 3f
       0.90813386 0.90055346 0.91680765 0.8267152
000090 33 d1 74 3f 1d c9 70 3f 42 a6 74 3f b5 e1 75 3f
       0.9563171 0.94056875 0.9556619 0.96047527
0000a0 53 a3 6b 3f 79 bc 74 3f 65 dc 66 3f 7f 6d 74 3f
       0.9204609 0.95600086 0.90180045 0.9547958
0000b0 bb df 6c 3f 20 e3 66 3f 25 9c 78 3f b6 dc 5e 3f
       0.92528886 0.90190315 0.9711326 0.8705553
0000c0 f7 bc 73 3f dd ee 6e 3f 5c 17 7a 3f 88 4e 6e 3f
       0.9521021 0.93333226 0.97691894 0.9308858
0000d0 90 b1 6e 3f 1f 51 78 3f 68 74 59 3f 0c b6 6a 3f
       0.9323969 0.9699878 0.84943247 0.9168403
0000e0 ab 6e 64 3f 9c c6 60 3f ea 69 77 3f 0b b6 71 3f
       0.89231366 0.87803054 0.9664599 0.944184
0000f0 37 93 70 3f b8 57 70 3f b2 20 67 3f f0 c1 71 3f
       0.9397463 0.9388385 0.90284264 0.9443655

layers.0.norm.bias f4 [64]
000000 e5 51 fd bb 8a 4e f6 3b b5 64 12 bc f6 94 34 3a
       -0.00773071 0.007516687 -0.008935143 0.0006888652
000010 c1 0e 06 3b 98 21 2b 39 82 15 de bb 64 57 74 3c
       0.0020455571 0.00016320345 -0.0067774663 0.014913414
000020 f6 63 0f bb 9e e3 f2 bb 20 8c 54 3b ca 73 99 3b
       -0.002187965 -0.007412388 0.0032432154 0.0046829926
000030 13 1e 19 ba f7 05 47 bb 9a 36 b7 3b 0e 96 0a bb
       -0.0005840968 -0.0030368546 0.005591226 -0.0021146568
000040 d1 16 9f bb a1 5c 3e 3b d9 84 ac bb 16 29 3f 3b
       -0.004855015 0.002904691 -0.00526486 0.0029168776
000050 ff da ed 3a e7 27 af 38 ec 36 fb 3a 68 12 0e 3b
       0.0018146931 8.352083e-05 0.0019166148 0.0021678451
000060 50 e9 67 3b 6f fc 78 3a 88 19 ff ba 1d d8 2c bb
       0.0035386868 0.0009498065 -0.0019462565 -0.002637393
000070 23 e8 4e ba da 6c 22 bc a1 97 ab 3a 52 f3 46 3a
       -0.00078928674 -0.009913648 0.0013091454 0.0007589358
000080 b1 5f 62 3b 51 07 b2 3b 57 55 c2 3b c2 35 f1 3b
       0.00345419 0.005433001 0.0059305835 0.0073611448
000090 ef e9 c5 ba 89 c7 38 bb 40 5f 38 3b b5 18 f3 3a
       -0.0015099625 -0.0028195104 0.0028132945 0.0018546792
0000a0 54 d1 d6 3a 0c 64 c4 3b 1a 4f e9 b7 33 36 4d 3a
       0.0016389289 0.005993372 -2.7812599e-05 0.00078282057
0000b0 56 79 dc 3a 70 fa 2d bb cf dd a8 bb 7b f4 96 3b
       0.0016820829 -0.0026546977 -0.005153395 0.004606781
0000c0 98 5b 80 3b bc c3 d9 b9 7b 56 50 bb e8 80 3f 3b
       0.003917169 -0.000415353 -0.0031789828 0.0029221121
0000d0 04 07 8f bb 72 dc c7 bb 65 2a 7e 3b 03 05 38 bb
       -0.00436485 -0.006099277 0.0038782593 -0.002807916
0000e0 30 be ed 3b 29 a7 20 3b fb f9 2a 3a 91 2a 15 bb
       0.007255338 0.0024513698 0.00065222353 -0.0022760967
0000f0 3f 04 93 3b c1 49 99 b9 71 f3 7e ba 46 d2 7f 3c
       0.00448659 -0.00029237385 -0.00097256067 0.015614098

layers.0.ssm.A_log f4 [64, 64]
000000 dc 11 09 3b a5 cd b1 3e 3f 0e 10 3f f3 74 56 3f
       0.0020915186 0.34727207 0.5627174 0.837722
000010 f2 fd 86 3f d3 fb 9d 3f 93 78 b1 3f 98 62 c2 3f
       1.0546248 1.2342476 1.3864921 1.5186338
000020 b7 51 d1 3f 16 b4 de 3f e7 cc ea 3f 97 dc f5 3f
       1.6353062 1.7398708 1.8343781 1.9207944
000030 27 03 00 40 5b ba 04 40 63 1f 09 40 ad 3b 0d 40
       2.0001924 2.0738742 2.1425407 2.2067673
000040 11 19 11 40 fa bd 14 40 6b 30 18 40 99 72 1b 40
       2.267155 2.3240952 2.3779552 2.4288695
000050 97 8c 1e 40 3c 83 21 40 68 58 24 40 f8 0e 27 40
       2.477331 2.523635 2.567896 2.6102886
000060 99 a9 29 40 1d 2a 2c 40 77 92 2e 40 80 e4 30 40
       2.6509764 2.6900704 2.7276895 2.7639465
000070 b5 21 33 40 70 4b 35 40 4a 63 37 40 3f 6a 39 40
       2.7989323 2.8327293 2.8654351 2.8971097
000080 37 61 3b 40 29 49 3d 40 f6 22 3f 40 66 ef 40 40
       2.9278085 2.9575903 2.9865088 3.0146117
000090 35 af 42 40 13 63 44 40 99 0b 46 40 5e a9 47 40
       3.0419438 3.068547 3.0944579 3.1197124
0000a0 0b 3d 49 40 1d c7 4a 40 b2 47 4c 40 27 bc 4d 40
       3.1443508 3.168403 3.191876 3.214609
0000b0 99 2a 4f 40 48 91 50 40 64 f0 51 40 2b 48 53 40
       3.236975 3.2588673 3.2802973 3.3012798
0000c0 fd 98 54 40 0d e3 55 40 99 26 57 40 e0 63 58 40
       3.3218377 3.341983 3.3617308 3.381096
0000d0 22 9b 59 40 95 cc 5a 40 26 f8 5b 40 e0 1e 5d 40
       3.4000936 3.4187367 3.4370208 3.4550095
0000e0 12 40 5e 40 45 5c 5f 40 00 74 60 40 bb 86 61 40
       3.4726605 3.4900067 3.50708 3.5238483
0000f0 d2 94 62 40 1c 9f 63 40 c8 a4 64 40 34 a6 65 40
       3.5403333 3.5565863 3.5725574 3.5882692
000100 eb b6 39 3a e8 7a cf 3e fd 46 0f 3f 35 20 56 3f
       0.0007084447 0.40523458 0.55967695 0.83642894
000110 67 02 87 3f 3e fc 9d 3f 8c 78 b1 3f ee 61 c2 3f
       1.0547608 1.2342603 1.3864913 1.5186136
000120 79 51 d1 3f a7 b9 de 3f 78 cd ea 3f 99 dc f5 3f
       1.6352988 1.7400407 1.8343954 1.9207946
000130 27 03 00 40 53 ba 04 40 78 1f 09 40 ad 3b 0d 40
       2.0001924 2.0738723 2.1425457 2.2067673
000140 12 19 11 40 7f bd 14 40 6b 30 18 40 ed 72 1b 40
       2.2671552 2.324066 2.3779552 2.4288895
000150 98 8c 1e 40 3a 83 21 40 68 58 24 40 f9 0e 27 40
       2.4773312 2.5236344 2.567896 2.6102889
000160 98 a9 29 40 1d 2a 2c 40 79 92 2e 40 80 e4 30 40
       2.6509762 2.6900704 2.72769 2.7639465
000170 b4 21 33 40 70 4b 35 40 4a 63 37 40 3f 6a 39 40
       2.798932 2.8327293 2.8654351 2.8971097
000180 37 61 3b 40 29 49 3d 40 f6 22 3f 40 66 ef 40 40
       2.9278085 2.9575903 2.9865088 3.0146117
000190 35 af 42 40 13 63 44 40 99 0b 46 40 5e a9 47 40
       3.0419438 3.068547 3.0944579 3.1197124
0001a0 0b 3d 49 40 1d c7 4a 40 b2 47 4c 40 26 bc 4d 40
       3.1443508 3.168403 3.191876 3.2146087
0001b0 98 2a 4f 40 48 91 50 40 64 f0 51 40 2b 48 53 40
       3.2369747 3.2588673 3.2802973 3.3012798
0001c0 fd 98 54 40 0d e3 55 40 99 26 57 40 e0 63 58 40
       3.3218377 3.341983 3.3617308 3.381096
0001d0 22 9b 59 40 95 cc 5a 40 26 f8 5b 40 e0 1e 5d 40
       3.4000936 3.4187367 3.4370208 3.4550095
0001e0 12 40 5e 40 45 5c 5f 40 00 74 60 40 bb 86 61 40
       3.4726605 3.4900067 3.50708 3.5238483
0001f0 d2 94 62 40 1c 9f 63 40 c8 a4 64 40 34 a6 65 40
       3.5403333 3.5565863 3.5725574 3.5882692
000200 a2 c8 53 3b 4b 21 a4 3e e9 6c 0e 3f e0 fe 55 3f
       0.0032315631 0.3205665 0.55634934 0.83592033
000210 98 07 87 3f a5 ff 9d 3f 61 79 b1 3f 54 61 c2 3f
       1.0549192 1.2343642 1.3865167 1.5185952
000220 f8 51 d1 3f 6d b2 de 3f 61 cb ea 3f fd dc f5 3f
       1.635314 1.7398201 1.8343316 1.9208065
000230 28 03 00 40 5d ba 04 40 4a 1f 09 40 ae 3b 0d 40
       2.0001926 2.0738747 2.1425347 2.2067676
000240 10 19 11 40 85 bd 14 40 69 30 18 40 2e 73 1b 40
       2.2671547 2.3240674 2.3779547 2.428905
000250 98 8c 1e 40 3d 83 21 40 65 58 24 40 f9 0e 27 40
       2.4773312 2.5236351 2.5678952 2.6102889
000260 99 a9 29 40 1d 2a 2c 40 77 92 2e 40 80 e4 30 40
       2.6509764 2.6900704 2.7276895 2.7639465
000270 b5 21 33 40 70 4b 35 40 4b 63 37 40 3f 6a 39 40
       2.7989323 2.8327293 2.8654354 2.8971097
000280 37 61 3b 40 29 49 3d 40 f6 22 3f 40 66 ef 40 40
       2.9278085 2.9575903 2.9865088 3.0146117
000290 35 af 42 40 13 63 44 40 99 0b 46 40 5e a9 47 40
       3.0419438 3.068547 3.0944579 3.1197124
0002a0 0b 3d 49 40 1d c7 4a 40 b2 47 4c 40 25 bc 4d 40
       3.1443508 3.168403 3.191876 3.2146084
0002b0 98 2a 4f 40 48 91 50 40 64 f0 51 40 2b 48 53 40
       3.2369747 3.2588673 3.2802973 3.3012798
0002c0 fd 98 54 40 0d e3 55 40 99 26 57 40 e0 63 58 40
       3.3218377 3.341983 3.3617308 3.381096
0002d0 22 9b 59 40 95 cc 5a 40 26 f8 5b 40 e0 1e 5d 40
       3.4000936 3.4187367 3.4370208 3.4550095
0002e0 12 40 5e 40 45 5c 5f 40 00 74 60 40 bb 86 61 40
       3.4726605 3.4900067 3.50708 3.5238483
0002f0 d2 94 62 40 1c 9f 63 40 c8 a4 64 40 34 a6 65 40
       3.5403333 3.5565863 3.5725574 3.5882692
000300 4e 3e 31 bb e2 cc b1 3e cb 3b 0f 3f 0d 24 56 3f
       -0.0027045193 0.34726626 0.5595061 0.8364876
000310 dd 04 87 3f 07 fd 9d 3f ac 78 b1 3f 8c 62 c2 3f
       1.0548359 1.2342843 1.3864951 1.5186324
000320 1b 52 d1 3f 6a b7 de 3f cf cc ea 3f 15 dc f5 3f
       1.6353182 1.7399724 1.8343753 1.9207789
000330 15 03 00 40 5c ba 04 40 52 1f 09 40 ad 3b 0d 40
       2.000188 2.0738745 2.1425366 2.2067673
000340 11 19 11 40 ea bd 14 40 6b 30 18 40 12 73 1b 40
       2.267155 2.3240914 2.3779552 2.4288983
000350 98 8c 1e 40 3e 83 21 40 66 58 24 40 f8 0e 27 40
       2.4773312 2.5236354 2.5678954 2.6102886
000360 99 a9 29 40 1d 2a 2c 40 76 92 2e 40 80 e4 30 40
       2.6509764 2.6900704 2.7276893 2.7639465
000370 b5 21 33 40 70 4b 35 40 4a 63 37 40 3f 6a 39 40
       2.7989323 2.8327293 2.8654351 2.8971097
000380 37 61 3b 40 29 49 3d 40 f6 22 3f 40 66 ef 40 40
       2.9278085 2.9575903 2.9865088 3.0146117
000390 35 af 42 40 13 63 44 40 99 0b 46 40 5e a9 47 40
       3.0419438 3.068547 3.0944579 3.1197124
0003a0 0b 3d 49 40 1d c7 4a 40 b2 47 4c 40 26 bc 4d 40
       3.1443508 3.168403 3.191876 3.2146087
0003b0 99 2a 4f 40 48 91 50 40 64 f0 51 40 2b 48 53 40
       3.236975 3.2588673 3.2802973 3.3012798
0003c0 fd 98 54 40 0d e3 55 40 99 26 57 40 e0 63 58 40
       3.3218377 3.341983 3.3617308 3.381096
0003d0 22 9b 59 40 95 cc 5a 40 26 f8 5b 40 e0 1e 5d 40
       3.4000936 3.4187367 3.4370208 3.4550095
0003e0 12 40 5e 40 45 5c 5f 40 00 74 60 40 bb 86 61 40
       3.4726605 3.4900067 3.50708 3.5238483
0003f0 d2 94 62 40 1c 9f 63 40 c8 a4 64 40 34 a6 65 40
       3.5403333 3.5565863 3.5725574 3.5882692

layers.0.ssm.D f4 [64]
000000 26 93 70 3f 87 3f 6a 3f 80 4b 62 3f 84 d2 5c 3f
       0.9397453 0.91503185 0.88396454 0.8625872
000010 8c b8 52 3f cf 80 58 3f 37 93 69 3f 7e 07 71 3f
       0.82312846 0.84571546 0.9124026 0.9415206
000020 db e6 6f 3f a9 98 59 3f bc 63 5c 3f fb e1 61 3f
       0.9371163 0.84998566 0.8608968 0.88235444
000030 c1 6c 6b 3f b2 30 56 3f fa 3a 6b 3f a7 7f 68 3f
       0.9196282 0.83668053 0.91886866 0.9081978
000040 2d de 6d 3f ed 95 5c 3f 4b 7c 6d 3f 26 ad 25 3f
       0.9291714 0.8616627 0.9276778 0.6471733
000050 5f e3 6b 3f 64 e7 77 3f 7e 8e 64 3f da a4 68 3f
       0.92143816 0.9683745 0.89279926 0.90876544
000060 5c 79 5c 3f d7 e9 71 3f f2 be 5f 3f 64 50 6b 3f
       0.8612268 0.94497436 0.87400734 0.9191954
000070 70 29 62 3f 83 57 71 3f ac 5f 78 3f be ca 6b 3f
       0.8834448 0.9427416 0.97020984 0.92106235
000080 42 69 68 3f 88 06 61 3f 67 0b 6f 3f ca 09 6b 3f
       0.9078561 0.8790059 0.93376774 0.9181181
000090 92 da 5f 3f 80 1d 6b 3f 37 8c 70 3f 25 80 60 3f
       0.87442887 0.9184189 0.9396395 0.87695533
0000a0 f2 64 6d 3f 83 cc 66 3f 0f da 4a 3f d7 79 5c 3f
       0.92732155 0.9015581 0.7923898 0.8612341
0000b0 74 51 6e 3f 7b 10 6a 3f f3 c5 67 3f 50 68 59 3f
       0.9309304 0.914314 0.9053642 0.84924793
0000c0 2e a3 54 3f 54 bc 64 3f 95 05 75 3f ae 56 6e 3f
       0.8306149 0.89349866 0.9571164 0.9310101
0000d0 52 ae 56 3f 98 61 4f 3f 6b 57 6c 3f 52 42 67 3f
       0.8385974 0.8100829 0.9232089 0.9033557
0000e0 8b db 67 3f fd 89 50 3f b6 a4 6e 3f 22 13 5f 3f
       0.9056937 0.81460553 0.9322008 0.8713857
0000f0 da 0d 5b 3f 08 2d 72 3f eb 9d 65 3f c1 10 6a 3f
       0.8556801 0.9459996 0.8969409 0.91431814

layers.0.ssm.deltaBC_layer.weight f4 [144, 64]
000000 51 c8 ce bc 29 d8 71 bd d8 39 b3 3c 75 b6 cd bc
       -0.025242003 -0.059044037 0.021878168 -0.025111416
000010 47 da a7 bd 58 3b a6 bc be ec 1a 3d 02 27 1a 3d
       -0.0819593 -0.02029197 0.03782343 0.037634857
000020 67 af ed 3b 99 2c 9c bd 3d 48 9e bd b7 6a ab 3c
       0.0072535756 -0.07625694 -0.07728622 0.020924909
000030 29 47 8a bd 89 5a 9b bc 12 25 ae bd cc bf 9d 3c
       -0.06751854 -0.018964069 -0.08503164 0.019256495
000040 39 10 81 3a 0c c4 29 3d 89 ba e2 3c f5 b6 60 bd
       0.0009846754 0.04144673 0.027676838 -0.05486198
000050 81 dd 52 bd 1d 2e 88 3d 7a 94 9e bd 42 39 09 bd
       -0.051480774 0.066494204 -0.077431634 -0.03350187
000060 56 e2 69 3c ce 33 40 3d 31 84 d4 3c e0 20 50 3d
       0.014275154 0.046924405 0.02594194 0.050812602
000070 2a 9c b6 3c c9 76 de bc 14 e7 fd bc e8 56 6d bd
       0.022291262 -0.02715625 -0.030993976 -0.05794421
000080 12 a5 7d bd 5e bb 7e bd db 15 93 3c 7f c4 f9 bc
       -0.061925 -0.062190406 0.017954757 -0.030489204
000090 e0 fa 10 3d cd e6 35 bd 1c 6c a5 bd 45 cb 3a bd
       0.035395503 -0.044409562 -0.08077261 -0.04560401
0000a0 ba 80 95 bd 19 d2 1b bd 53 2d 28 3d 71 a2 91 bd
       -0.07299943 -0.03804216 0.04105885 -0.07111061
0000b0 e0 e2 3d bd 68 37 39 3d 80 40 02 bd 57 8e 8e 3d
       -0.046358943 0.045218855 -0.031799793 0.06960743
0000c0 50 b4 a3 bd 2d bd 3e bc c0 95 61 3d 83 e9 3e 3d
       -0.07993376 -0.011641783 0.055074453 0.046609413
0000d0 de 61 eb bc f4 91 26 bd 7c 82 9d bd 12 3e 0e 3d
       -0.02873319 -0.040666535 -0.076909035 0.034727164
0000e0 9d 66 5c bb c9 90 2d bd 4b cc 09 bc 0f e3 53 3d
       -0.0033630498 -0.042374406 -0.008410524 0.05173021
0000f0 84 8a d4 3c d8 98 08 3b a8 12 81 bd 04 70 ad bd
       0.025944956 0.0020843055 -0.063023865 -0.08468631
000100 29 ca ba 3c 39 64 88 3d ec 88 2f 3d 71 6a b2 bd
       0.022801476 0.06659741 0.04285519 -0.08711708
000110 3f d1 c5 3a b3 ef 9c 3d 6e 84 87 3d 7f 17 98 3c
       0.0015092267 0.076629065 0.06617056 0.018565891
000120 bf 34 6e bb 67 d5 59 bc ca 51 36 bd c8 7b 9f 3d
       -0.0036347357 -0.013295508 -0.044511594 0.07787281
000130 b7 d6 bd bc bb ab b0 bd af 74 1b 3d 59 03 03 3d
       -0.023173673 -0.08626505 0.037953075 0.031985614
000140 f4 8c b8 bc 01 e5 4b 3d 52 e3 94 3c 46 63 91 3d
       -0.02252815 0.049778942 0.018174801 0.07099013
000150 8a 57 9e bd 27 67 97 3d 8d 2b ec 3b f0 03 43 bc
       -0.077315405 0.073927216 0.00720734 -0.011902794
000160 8a ce cc bc ba bb b7 3d 4b d5 17 3c f1 f9 01 bb
       -0.02500083 0.08971353 0.009267162 -0.0019832815
000170 d7 17 6d 3d 8f 24 18 bd 39 75 d0 3c d2 5e 8e bc
       0.057884064 -0.03714424 0.025446521 -0.017379198
000180 46 0c 8a bc 53 82 86 bd da c5 b7 bd c7 72 70 3d
       -0.016851556 -0.06567826 -0.08973284 0.05870321
000190 40 22 83 3d 58 3a b0 3d bc 90 a1 3d e3 23 b5 3d
       0.06403017 0.08604878 0.07888934 0.088447355
0001a0 1e a8 ea 3c 49 cd a9 3d a5 a8 b9 bc a1 c6 74 3d
       0.028644618 0.08291108 -0.022663424 0.05975974
0001b0 74 60 41 3c ca 71 c4 bc 0e f1 cb 3b 83 70 a6 3d
       0.011802781 -0.02398004 0.0062238043 0.08126929
0001c0 f3 37 87 bd 13 0d fe 3c a9 6f c0 bc a4 70 9e 3c
       -0.06602468 0.031012094 -0.023490744 0.01934082
0001d0 fb 10 9a 3d fa 86 0f 3d 86 dd 9b bd 00 c2 8b bd
       0.0752277 0.035040833 -0.076106116 -0.06824112
0001e0 06 63 4d bc 9c bb 53 3d 0d fb 86 bd d3 b3 29 bd
       -0.012535816 0.05169259 -0.06590853 -0.04143126
0001f0 13 c7 33 3b 6e 94 9a 3d 58 29 68 3c 74 63 d7 3c
       0.002743189 0.07547842 0.014170013 0.02629254
000200 19 cd 95 3d 7b 86 24 3d 4e 03 23 bd ff 6d 7c bd
       0.0731451 0.040167313 -0.039798073 -0.061628338
000210 9f 74 52 bd 56 66 98 3d b6 2b 7f bd 22 26 37 bd
       -0.05138075 0.07441394 -0.062297545 -0.0447141
000220 91 3b 8e 3d 5c d2 54 3d b3 ff 8c bd fd f0 36 3c
       0.06944955 0.051958427 -0.06884708 0.0111658545
000230 89 fa 38 3d 08 be 03 3d ab 4f 6c 3d 37 3d 87 bc
       0.045160804 0.03216365 0.057693165 -0.016508682
000240 c2 4f 12 3c 8f cc 30 bb c3 c1 b0 bd fe fa 44 3c
       0.008930149 -0.0026977395 -0.08630707 0.012022732
000250 15 cf 33 3d 84 ee 3d bc 97 76 a0 bd 2d f6 07 bc
       0.04389866 -0.011592511 -0.07835119 -0.008298439
000260 d5 20 e1 3c 3e 70 50 3d e9 ec d5 3c 32 1a 94 bd
       0.027481476 0.050888292 0.026113944 -0.07231559
000270 50 fc 72 bd f1 15 9e bd 31 83 f9 3c a6 11 ea bc
       -0.059322655 -0.07719029 0.030458065 -0.028572869
000280 af ca 63 bc 7a 7a 60 3d c8 ee 20 3a bb f1 8e 3d
       -0.013903304 0.054804303 0.0006139097 0.069797
000290 c8 d7 0c bd d9 f6 74 3d ab ee 9a 3d d2 7b 19 3d
       -0.034385473 0.059805725 0.075650536 0.0374716
0002a0 e2 5a 65 bd 28 2d 40 3d 3b 87 7f bc ca 52 65 bd
       -0.055994876 0.046918064 -0.015596206 -0.055987157
0002b0 7f 2d 3f bd c7 6c 9e 3d a2 3a 82 3d df a6 13 3d
       -0.046674248 0.077355914 0.063588396 0.036047813
0002c0 d3 79 c9 3c 06 cc b0 bd 3b 05 95 3d e4 a4 09 bc
       0.024594223 -0.086326644 0.07276388 -0.008401129
0002d0 e8 6c be 3c 42 3b 78 bc ad f5 bc 3d 05 b6 95 3d
       0.02324529 -0.015150847 0.092265464 0.07310108
0002e0 4c 75 68 3c 98 92 d0 bb 26 97 cd 3c 8e 3d 6a bd
       0.014188122 -0.0063651316 0.025096487 -0.05718761
0002f0 2d 52 8d 3d 56 b8 f9 b9 3c 05 60 3d 09 e4 a6 3d
       0.069004394 -0.00047630322 0.054692492 0.08148963
000300 97 72 82 3d a3 30 82 bd 0e b5 01 ba 0e 9d 54 bd
       0.063695125 -0.06356933 -0.0004947939 -0.05190759
000310 26 91 7d bd eb 43 25 3d 49 b9 97 bd d9 e4 e7 3c
       -0.061906002 0.040347975 -0.07408387 0.028307365
000320 21 88 c1 38 18 7f 05 bd 03 7f ba bc dc 1e ad 3c
       9.228313e-05 -0.03259191 -0.022765642 0.021132879
000330 d8 50 83 3d 9b d6 6a 3d 9d de 7d 3d 4e ef 95 3d
       0.06411904 0.05733357 0.06197988 0.07321034
000340 e3 e5 92 3d 56 b1 0c bd 5c a2 96 bd ba ab 9c bd
       0.07172754 -0.03434881 -0.07355186 -0.07649942
000350 a5 c3 21 3b a5 2c 6c bd 3c cb d2 bc a9 0d 67 bd
       0.0024683264 -0.057659764 -0.025731675 -0.05640951
000360 61 46 72 3d 39 fb f9 bc 45 a6 8c 3d b8 eb 1e bc
       0.05914915 -0.0305153 0.06867651 -0.009699754
000370 fd df 0f 3d 8f d6 54 3d b2 f9 90 3d 76 32 b2 bc
       0.03512572 0.05196243 0.070788756 -0.021752577
000380 9f 4c 63 bd de 6f 26 bd 50 0e a6 bb d3 15 e9 39
       -0.055492993 -0.04063403 -0.005067624 0.00044457483
000390 74 96 f3 3c dc dd 9a bd 57 14 db bb 41 fc 18 3d
       0.029734828 -0.075618476 -0.0066857743 0.037349943
0003a0 c8 b7 bd bc df 98 36 3c b0 7e 8e 3d ce b4 09 bc
       -0.023158923 0.011144846 0.069577575 -0.008404924
0003b0 f8 20 50 bd 40 e5 5c bd b9 af f4 bc 09 a3 8a bc
       -0.05081269 -0.053929567 -0.029868947 -0.016923444
0003c0 af 10 2e 3d 5b 6e d3 3b c7 7b a7 bd f7 f2 4b 3c
       0.04249638 0.0064523644 -0.081779055 0.012448064
0003d0 23 06 1e 3d 12 9d e6 3c 5a b7 cf bc a6 c8 6e 3d
       0.03858007 0.028151069 -0.025355984 0.058296822
0003e0 1e 51 d4 bc a6 11 81 bd 74 9f 32 bd c0 0e 70 bd
       -0.025917586 -0.06302194 -0.043609098 -0.058607817
0003f0 b2 1c 20 bd d4 b1 f3 bc dc d8 23 bd 69 99 34 3c
       -0.039089866 -0.029747881 -0.040001735 0.011022904
