pengujian_split_data/80-20/vim/vim_model_2.pth (torch, 611374 bytes, 71 tensors)

cls_token f4 [1, 1, 64]
00000000: a3c0 fbbf e308 ac3f 9ad6 723e 7707 843e
00000010: ff26 ac3f 7fa6 e33f 1f7c 0f40 01eb 8c3f
00000020: 6f21 41bf 6fd8 653f 65a3 86bd ef2f 5ebf
00000030: 887a 8ebf ce7d 86bd bb71 95be bf05 0fc0
00000040: 3170 c4be 50e0 34bf 2f04 9a3f 3406 ee3f
00000050: 63f6 10bf 19b6 99be 242a c9bf 1423 5dbf
00000060: a35a a23f 3b70 823f 987e 993d 599f aabf
00000070: 1375 43bf 2304 62bf 60d0 9abf d937 a03d
00000080: 4857 ca3f 1ce9 e93e 4a60 26bf 33d4 853f
00000090: 462b 8e3f 68d1 2fc0 6202 0b40 42ee 89bf
000000a0: 8000 e83e c64e 7d3f fad2 bb3f e2c1 d4be
000000b0: 3959 f3bf 3d87 73bf 84f0 65be aaf5 0fbf
000000c0: a651 cb3e 20eb ae3e 4006 503e 7f27 77bf
000000d0: 6afe 833f 4101 5ebf 3fbd 8cbe 1de6 33bf
000000e0: 1cf0 6fbf 1d0e 253f 8b1f 263f 353f 5fbf
000000f0: 7d4f 503f 9fe3 ce3e 0f80 df3f 7f5d 8bbe
-1.9668163 1.3440212 0.23714676 0.25786945 1.3449401 1.7785186 2.2419508 1.1009218
-0.7544164 0.89783376 -0.06574134 -0.8679189 -1.1131144 -0.06566964 -0.29188332 -2.2347257
-0.38366845 -0.70654774 1.2032527 1.8595643 -0.56625956 -0.30021742 -1.5715985 -0.8638165
1.268391 1.01905 0.07494849 -1.3329879 -0.76350516 -0.8828756 -1.2094841 0.07823152
1.5807886 0.4568566 -0.64990675 1.0455383 1.1106956 -2.7471561 2.1720204 -1.0775836
0.4531288 0.98948324 1.467376 -0.4155417 -1.9011604 -0.9512823 -0.2245503 -0.5623423
0.3971073 0.3416376 0.20314884 -0.9654464 1.0312016 -0.86720663 -0.27488133 -0.70273
-0.9372575 0.6447466 0.6489188 -0.8720582 0.8137129 0.40408036 1.7460955 -0.2721977

to_patch_embedding.1.weight f4 [64, 169]
00000000: f318 843d 4dbb 46bd 73f0 4c3d 95f1 663c
00000010: 5a62 e5bb cfed 23bd 694d 8dbd cb5a 61bc
00000020: ae3e 693c 1ee8 903c 2aaa 693d e115 463c
00000030: 5961 383a 8f23 80bd 0abd 763c 4e86 bd3b
00000040: e641 803d 5644 30bc f27d d3bb 1413 d43a
00000050: 9941 2fbd 0852 63bd bbd8 633d e22f 613d
00000060: dde6 1f3d b1ae 98bb e64a cb3c f1b4 74bd
00000070: 4ac6 893b 4469 953d 3a82 d4bb 94a4 303d
00000080: 82fa eb3c b784 743c 2f25 a3bc f7f9 8a3a
00000090: 636f 98bd ddca ec3c 52f3 d93c 8d8c 2cbd
000000a0: 1432 8d3d 3a87 113d 15cc e7bc c483 f9bb
000000b0: 05e5 babc 38d6 5dbc a2d2 25bd e2ad d5bb
000000c0: 450d 72bd 420d 8fbb 72c5 263d ab14 2dbb
000000d0: 9f08 47bd feb2 9c3d 12c7 69bd 1108 fa3c
000000e0: 6e19 57bc 20a7 583c 981e 7a3d ad26 ecb9
000000f0: 1e56 073d 5a38 91bd 6bbd b1bd a985 c5bc
00000100: 67cf 41bd 5c22 6a3b 3002 0fbd 2b20 a73c
00000110: 6820 a73c ab29 0fbd 20f5 903c 7478 913d
00000120: 1abb 9ebd 9ea8 013c da59 023d e33f 143d
00000130: 10c0 38bc b804 6d3d a019 61bd 5ef2 913d
00000140: fc4b 84b8 785f a5ba cc79 fb3c 761f 173d
00000150: 01dd 8abd 4aac 27bd 25fb 6cbd 8a04 f43c
00000160: 5778 40bd 68d3 443d 7ae6 33bd e3e9 83bd
00000170: 3885 8b3c b737 29bd 8b71 e5bb 295d 233c
00000180: 9770 563d 8dae 663d d052 a7bc 90f6 933c
00000190: e291 eebc 29bf 363d ae5b 0bbd 201c 5dbd
000001a0: 0ea9 94bc 87d6 f03b 77a6 6b3d 756c 053c
000001b0: c4fa 223d a8f4 8a3d 5503 8f3d 50b8 e73c
000001c0: 597d 8fbb 1574 0ebc de6a a13d 016f 0d3c
000001d0: 4d2d 3bbd d1ee 21bd e5aa 293d bec9 45bd
000001e0: 72e2 8abd 05cd 833d c0e6 86bc 07e1 68bc
000001f0: de94 6d3d 2949 30bd e75a 3d3d 56fc cbbb
00000200: 71ce 40bd d5c2 523c 8135 473d a9c5 80bd
00000210: ad2d 23bd 4e99 b1bb 748a 253b 92fb 98bd
00000220: 0dea 15bc 19da 223b a557 22bd 5aeb 2a3d
00000230: e95b 7ebd 1a95 afbc 9724 f1bc 82ce ae3c
00000240: 6064 4abd 9751 a2bc c679 863c 7d82 41bd
00000250: 4fc5 163d 6b9e 49bd 0f2b e33c bb43 f6bb
00000260: b21a a4bc bb49 4cbd b3a4 7a3d 538c 5ebc
00000270: 8691 bb39 4e95 843d c99c e43c 7627 38bd
00000280: 9558 62bc 1433 c0bc 888a 143d dbf7 a93a
00000290: 10c7 0b3c c058 5ebd a5f1 2dbd 7c0d 85bc
000002a0: 9058 55bd 6d59 bf3b 03f6 ea3c 8431 c73c
000002b0: 0e84 1fbd 18ef 1cbd 154e 573d 6ef0 43bd
000002c0: 9620 81bd 57f0 1fbb e9cd 1fbd 3b31 0a3d
000002d0: ddc3 9a3c d891 cfbc 285e e03c ef16 203c
000002e0: 9b59 dbbc 7f88 03bd 646f 30bd ec15 b2bc
000002f0: 9ac5 90bc 47f5 2a3d 9a78 793d 3666 07bd
00000300: 8e6b 1bbc 0ebc 4c3b 3303 31bd 1634 813d
00000310: a019 ad3d cd47 493d b9cc 38bd bf85 5bbd
00000320: 4294 f43c 4a67 103d bd4f 80bd 2e2a 563d
00000330: 5175 503d 40d7 383d 584e 5a3c 25b1 a1bc
00000340: 8a42 16bd afc4 c2bc 3205 753d fb8b 073d
00000350: 3427 96bc 0c1f dbbc eedc 5fbd 1228 b03c
00000360: 657a 36bd 50e1 6cbb 9bae 003d be7e 6abd
00000370: f517 0d3d dbee 14bd bf71 2dbd 1754 6a3c
00000380: 1173 34bd 34d2 42bd d5d9 583d 88b5 0e3d
00000390: f0c9 ba3c 857b 58bd 1233 90bc 17ea 4c3b
000003a0: e9b9 4e3d 9c2d 543c ad1f 05bd f0b4 113d
000003b0: 6ef4 96bd aa0e 40bd 8e66 c4bc 7175 7fbd
000003c0: 47e9 3cbd b1c4 a13d 16c1 6cbd 9fcb 663d
000003d0: f490 623d 7d06 eb3c 41ae 42bd 2f08 44bd
000003e0: 9c64 b4bc 64c2 06bd 0d96 f5bc 8254 103d
000003f0: 8e4c 3fbd f32a 613c cf6d db3c 2d1c 303d
0.06450071 -0.048518468 0.050033998 0.014095684 -0.00700025 -0.040021714 -0.068995304 -0.013754557
0.014236135 0.017688807 0.057047047 0.012090177 0.0007033549 -0.06256782 0.015059719 0.0057838326
0.06262569 -0.01075848 -0.006454223 0.0016180002 -0.04278717 -0.055498153 0.055626612 0.054977305
0.039038528 -0.0046594967 0.024815988 -0.05974287 0.004204546 0.072954684 -0.006485251 0.043125704
0.028805975 0.01492422 -0.019915191 0.001060306 -0.0744312 0.028905327 0.026605282 -0.042126227
0.06894317 0.035529353 -0.028295556 -0.0076145846 -0.022814283 -0.013539843 -0.04048408 -0.0065209726
-0.059094686 -0.004365594 0.040715642 -0.0026410024 -0.048592206 0.076513276 -0.057074614 0.030521424
-0.0131286215 0.013223439 0.061064333 -0.00045042243 0.033041112 -0.07090826 -0.08678707 -0.024111586
-0.047316935 0.0035726046 -0.034914196 0.020401081 0.020401195 -0.034951847 0.01769501 0.07103053
-0.077505305 0.007913737 0.03182397 0.03619374 -0.01127626 0.05786583 -0.05495608 0.07126306
-6.308404e-05 -0.0012616953 0.030697726 0.036895238 -0.067804344 -0.040935792 -0.057856698 0.02978732
-0.046989765 0.048053175 -0.04392097 -0.06441095 0.017031297 -0.0413129 -0.007002061 0.009970942
0.052353468 0.05631881 -0.02042523 0.018061906 -0.029122297 0.0446159 -0.03402298 -0.0539819
-0.018147018 0.0073497924 0.0575318 0.008143534 0.03978993 0.06784946 0.069830574 0.02828613
-0.0043789563 -0.008694668 0.078817114 0.008632422 -0.0456975 -0.039534394 0.041422743 -0.0482881
-0.06781472 0.06435589 -0.016467452 -0.014213807 0.0580033 -0.04303852 0.04622927 -0.006225149
-0.047071878 0.012863834 0.04863501 -0.06287701 -0.03983848 -0.0054198867 0.0025259526 -0.07469858
-0.00915004 0.0024849235 -0.039634366 0.041728355 -0.06209937 -0.021433402 -0.029436393 0.021338705
-0.04941213 -0.019814296 0.016415488 -0.047243584 0.036809262 -0.049223345 0.027730493 -0.0075153983
-0.02003226 -0.049875002 0.061192226 -0.013583261 0.00035775843 0.0647379 0.027906792 -0.044959508
-0.013815065 -0.023461856 0.036264926 0.0012967543 0.008531347 -0.054283857 -0.04246678 -0.016241781
-0.052086413 0.005839518 0.02868176 0.024315603 -0.038944297 -0.038313955 0.0525647 -0.047836713
-0.063050434 -0.0024404728 -0.03901473 0.033738356 0.018892223 -0.025338098 0.027388647 0.009771093
-0.026776126 -0.032112595 -0.04307498 -0.021738969 -0.017672349 0.04173782 0.06090603 -0.03305646
-0.009486092 0.003124002 -0.04321594 0.06308763 0.08452153 0.04914074 -0.045117114 -0.053594347
0.029855851 0.035254754 -0.06265209 0.05228632 0.05089313 0.045127153 0.013324343 -0.01973779
-0.03668455 -0.023775427 0.059819408 0.03309248 -0.01832924 -0.026748203 -0.054654054 0.021503482
-0.04455032 -0.003614504 0.031416517 -0.057249777 0.034446675 -0.036360603 -0.042344805 0.014302275
-0.04405505 -0.047563747 0.052942116 0.03484109 0.02280137 -0.052852172 -0.017602477 0.0031267458
0.050470266 0.012950327 -0.03250091 0.035572946 -0.0737084 -0.046888985 -0.023974683 -0.06236786
-0.046120908 0.07898844 -0.05780133 0.056346532 0.05531402 0.028689617 -0.047529463 -0.047859367
-0.02202063 -0.03290023 -0.029978776 0.035236843 -0.046703868 0.01374315 0.02678576 0.04299562

to_patch_embedding.1.bias f4 [64]
00000000: 4c3f ac3c 4977 8c3d 0545 f7bc 6aa2 083c
00000010: 1f22 8fbd 685e 973c d977 b43c 0d41 b9bc
00000020: 0630 36bd e7ab 62bd c820 d8ba 9182 1bbd
00000030: e9a0 bb3c 4660 41bd 3ebd 73bd 09b9 73bd
00000040: 86d2 b23c ac4b 82bd 934e 5b3d 4627 b23c
00000050: 0508 24bd 22bd eabc 5bd2 6c3c 6d31 cd3c
00000060: e1e1 d7bb 059e 2d3d 00a9 c9bb 81e8 84bd
00000070: 2e3b 753d 7b6c 053d dcd1 b73b 318f bf3c
00000080: 3d69 8fbd aff1 87bc 0860 94bd 5f23 3dbb
00000090: bdd1 7f3d 88a6 81bd bf2a 81bc 1022 62bc
000000a0: d1e6 9b3c 98d9 48bb 584f a43c 1201 65bc
000000b0: c497 8b3d dea5 4c3b d262 323d 1fd0 183b
000000c0: e996 c4bc 387d 95bd 85f5 32bc fb5b 8cbd
000000d0: 459f 853d 2c1c d13c 2cea 3d3d c9e7 4cbd
000000e0: 04c9 5b3d e6b5 4b3c c3c6 5e3d 1b4d 8c3d
000000f0: e849 393d f449 313d ebc7 8b3d f62e 33bd
0.021026276 0.06858689 -0.030184278 0.008339504 -0.0698893 0.018477634 0.022029804 -0.022614026
-0.044479392 -0.05533972 -0.0016489262 -0.037966315 0.022903876 -0.047210954 -0.059506647 -0.059502635
0.021828901 -0.063620895 0.05354173 0.021747243 -0.04004671 -0.028654639 0.0144544495 0.025047982
-0.006588206 0.042387027 -0.0061541796 -0.06489659 0.05987089 0.03257416 0.005609734 0.023383709
-0.070024945 -0.016594736 -0.07244879 -0.0028860194 0.06245588 -0.063305914 -0.015767453 -0.013802066
0.01903096 -0.0030647274 0.020057365 -0.013977306 0.06816056 0.0031226794 0.043551274 0.002331741
-0.02399774 -0.07299274 -0.010922794 -0.068534814 0.06524519 0.025526129 0.0463659 -0.050025735
0.0536585 0.012433505 0.054388773 0.06850644 0.045236498 0.043283418 0.06825241 -0.043745957

layers.0.forward_conv1d.weight f4 [64, 64, 1]
00000000: 9df5 81bd 5e83 1dbd 42be d23d 1909 a63d
00000010: 8d82 623d ce70 9cbd 2550 ce3b 4bb5 2fbd
00000020: 0ed9 e0bd d135 b5bc 31a3 1a3b af86 e53c
00000030: 9d0d bf3d 630c 853d a740 4dbc e8e3 cbbd
00000040: 95a5 333a 2f89 2abd 573d 0b3d 41bd 6abd
00000050: 34d4 d63c 1e14 053d 9dc3 41bc 8d24 cebd
00000060: 2c11 a33c 7ac1 8cbc 691d 793d 4b16 a8bd
00000070: 5fc3 44bd 2e12 23bd cdba e3bd 15be 313d
00000080: 8516 85bd 50a6 8c3d 2182 723d 0420 c4bb
00000090: bece 8fbd 5c54 2fbc 3471 943c 6d71 f9bb
000000a0: 9a91 e5bd 4760 4d3d b3e0 69bd c81e cc3d
000000b0: e70d 273d 629b 41bd 90b3 8dbc c5b2 4b3c
000000c0: 5fe2 c3bc a62d 7cbd 9430 2f3d 8ccb 98bc
000000d0: b060 d83d c147 583d b912 d13d 4c5a afbd
000000e0: 29fe 783d f04a 61bd 6d88 aebd 29b6 8bbb
000000f0: d253 73bd aff0 1fbd 4b6b 693d 1291 623d
00000100: 17d3 8f3d 3498 29bd 7225 aebd a116 8c3c
00000110: 6af4 81bd 4e4f c2bc 88ca 1abd df8a 573c
00000120: 71fa 02bd b540 c9bc e2a0 51bc 654c 1fbd
00000130: ff59 20ba 31c0 67bd 97a4 993d e464 d53c
00000140: aa83 d43b b87c d43b 1511 3abc 7854 f03c
00000150: b842 39bd 19f1 90bd 431f 4fbd 9ffa 99bd
00000160: b5e2 113d 2086 bdbc e896 e53c 5346 ac3d
00000170: ec65 9a3d 2e51 823d d63a 273c f2c5 e5bc
00000180: 1441 cebc 48ab b9bc f5ae 8a3d e9d5 4a3d
00000190: 027c b5bc e5fb 35bd def0 91bc c4c2 a73d
000001a0: fb13 8c3d e188 00bd e599 e8bc 8195 e83b
000001b0: d6e7 983d 4058 f83c db66 88bc 4ad6 3fbd
000001c0: f6f6 2fbd 6374 6f3d 0218 7d3c dc4a a13b
000001d0: f898 44bd c4c2 88bc e945 473d d14e 2bbd
000001e0: 53a4 923d a2a6 61bd c6f4 c4bd 5bd8 d1bc
000001f0: 414f bcbd e5fc 863d d1be 803c 3ad4 963d
00000200: 4505 b7bd 0ea1 a53c 8b46 443d 61f8 3ebc
00000210: d73f c33c 4846 86bd 7039 40bc 27a7 ad3c
00000220: fc84 333d 3f9e 973d 554e 16b9 b3f8 2a3d
00000230: 4f20 c83c b90d 7e3d fdfa 7dbd cf35 483d
00000240: 3b24 2c3d 5799 283d 6763 0838 839e 51bc
00000250: 3638 83bd 733f 33bd 3598 573d 2290 86bd
00000260: 8f79 2a3d 8376 28bd 8ac8 ffbc 3498 923d
00000270: 8fa5 9abd 020e 85bd 6687 efbb cadd 1bbd
00000280: 5331 b3bd ea70 e8bc ab8b f23c e6c5 b7bd
00000290: 137e 933c 2672 4c3d 461f 8b3d 07aa 1fbd
000002a0: a7aa 033d 9fe9 043d 5e9b f13c 50c0 873c
000002b0: f02a 8dbd ab12 04bd 5b98 30bd 9449 aebc
000002c0: 68e6 70bd 621d 2abd f66f 9d3d 35e1 383d
000002d0: d881 ac3d 8172 24bd 1f05 d43d eb2b 9e3d
000002e0: 2bf3 233d 1ac2 73ba 9a6b 5b3c 8d6c e23b
000002f0: 2410 ccbc 0ce8 a2bd 1fcc 493d 2abe 3fbd
00000300: da07 11bd aa97 0a3d 5cb5 9dba 4a3e 30bd
00000310: 9e79 493d 28c8 52bd c05a 9f3d 12aa 6abd
00000320: a191 653d d630 27bc 6841 de3b 7c41 9dbd
00000330: 9159 1ebd dfe2 ae3c 1dfb b43b afdb 1abc
00000340: dffc 2bbd 2d1f ce3c e89e 55bc 5fe1 633d
00000350: 119e f2bc a57a 833a 8475 ff3c 3e5c 4d3d
00000360: 5fcd d03d e218 5b3d 32c4 b13c 2157 b6bd
00000370: af6b c13d 68ee debc efcf 813c 0f63 7739
00000380: 0662 b2bd 1c46 68bd 4201 70bd 19b5 ab3c
00000390: 9268 56bd 9521 8e3c 8285 d6bc 1b80 b9ba
000003a0: 5ea9 ac3d 690a debb fcdd 00bd 24e2 683d
000003b0: e712 273c 6125 7fbd 13f8 a93d 1225 d8bb
000003c0: 3844 68bd d67e 3dbd 3168 99bb 4d6a 38bd
000003d0: dc18 7bbd 6022 b2bb 1ad7 67bd 2e43 303d
000003e0: 63c7 2c3d 9879 66bc f2bb c73c 1997 3bbc
000003f0: f5be 11bd 7a65 043d 1efa 63bd 0e46 053d
-0.06345675 -0.03845536 0.10290195 0.08107204 0.055300284 -0.07638703 0.006296175 -0.042897504
-0.109789 -0.022120388 0.0023595805 0.028018324 0.093287684 0.06496503 -0.012527621 -0.09955579
0.0006852982 -0.041634735 0.033994045 -0.057309393 0.026224233 0.03248989 -0.011826423 -0.10065565
0.01990565 -0.0171821 0.060819063 -0.08207377 -0.048037883 -0.03981226 -0.11119614 0.043394167
-0.06498436 0.06867659 0.05920613 -0.005985262 -0.07021855 -0.010701265 0.018120386 -0.0076123984
-0.11209412 0.050140645 -0.057099055 0.099668086 0.040784743 -0.047267325 -0.017297536 0.012432759
-0.023911653 -0.06156697 0.042770937 -0.018651746 0.10565317 0.052802805 0.10208649 -0.08562145
0.06078926 -0.055003107 -0.08522115 -0.0042636585 -0.05940611 -0.039047893 0.05698709 0.05531413
0.07022684 -0.041404918 -0.08503236 0.017100634 -0.063454464 -0.023719456 -0.037790805 0.013155668
-0.03197712 -0.024566988 -0.012794705 -0.038891215 -0.0006116926 -0.056579772 0.07502096 0.026049085
0.006485422 0.006484594 -0.011356612 0.029337153 -0.045229644 -0.07077236 -0.050566923 -0.07518505
0.035616595 -0.023135245 0.02802606 0.08411851 0.07538971 0.0636314 0.010206899 -0.02804849
-0.025177516 -0.022664681 0.06771652 0.049520407 -0.022153858 -0.04442968 -0.01781505 0.081914455
0.068397485 -0.031380538 -0.028393695 0.0070979004 0.07466094 0.030315518 -0.016650608 -0.04683522
-0.04296013 0.058460604 0.015447618 0.004922254 -0.047997445 -0.016694434 0.048650656 -0.041823212
0.071602486 -0.055090554 -0.09616999 -0.025615862 -0.09194804 0.065912046 0.015715988 0.07364698
-0.08936552 0.020218398 0.047918838 -0.011655898 0.023834152 -0.06556374 -0.011732444 0.021197869
0.043827996 0.0740323 -0.00014334296 0.041741084 0.024429468 0.062024806 -0.06200694 0.04887944
0.04202674 0.04116186 3.2517502e-05 -0.01279414 -0.06407206 -0.04376168 0.05263539 -0.0657046
0.041619834 -0.041128647 -0.031223554 0.07157937 -0.07551109 -0.064968124 -0.007309842 -0.03805331
-0.08749642 -0.028374154 0.029607615 -0.08973293 0.018004453 0.049913548 0.06793074 -0.03898051
0.03214517 0.03244936 0.02949303 0.016571194 -0.06892955 -0.032244366 -0.043114047 -0.02127532
-0.058813483 -0.041531928 0.076873705 0.04513665 0.08423203 -0.040148262 0.10352539 0.077232204
0.040026825 -0.0009298638 0.013392353 0.006909913 -0.02491004 -0.07954416 0.04926693 -0.046812214
-0.03540788 0.033836044 -0.0012032199 -0.043028153 0.04918825 -0.051460415 0.07780981 -0.057291098
0.056047086 -0.0102045145 0.0067826994 -0.07678506 -0.038659636 0.021348415 0.005523099 -0.009451791
-0.041989204 0.02516135 -0.0130383745 0.055634852 -0.029616388 0.0010031058 0.031183966 0.050136797
0.101954214 0.053490527 0.021699999 -0.08903337 0.09444367 -0.02721329 0.01584622 0.00023592658
-0.08710103 -0.056707487 -0.05859495 0.020960378 -0.05234582 0.017349998 -0.026186708 -0.0014152558
0.08430742 -0.0067761433 -0.0314617 0.05685629 0.010197378 -0.062291507 0.082992695 -0.006596216
-0.056705683 -0.04626354 -0.00468161 -0.04502325 -0.061303005 -0.0054362267 -0.05660162 0.043032818
0.042182337 -0.014067076 0.024381611 -0.011449599 -0.0355825 0.032323338 -0.055658452 0.032537512

layers.0.forward_conv1d.bias f4 [64]
00000000: 2c81 93bd 2f10 7c3d ad10 8ebc 0b95 f2bc
00000010: 2841 963c 808a 873d e2ac c13d ec23 84bd
00000020: 0767 6abd 5fc5 41bd 196f 5a3c 43de c2bd
00000030: 8406 85bd 28be cbbc e9f9 e63d c315 903d
00000040: 8f5c 1bbd 9995 2d3c 5ff8 6bbc 6dde afbb
00000050: 732e babc d0c1 d23d 5e40 ef3d 7e0f b73d
00000060: 281e 03bd f62d 96bc a69a c13d 1030 6bbd
00000070: 9d7c 9a3d 334c c43d 1902 95bc 4efb 17bb
00000080: 0b2a 27bd 2258 203d 7893 ef3d c2cf 173d
00000090: 9741 4a3d 4db9 ab3c db4a dbbd b479 ac3d
000000a0: 465c fd3c b767 e23d 5f59 8a3d 931d c7bd
000000b0: e02f a2bb a481 bb3d 8b31 66bd 701f 67bd
000000c0: 860e 813c 3fdc 9d3d 1ab0 9fbd 0775 c73d
000000d0: 0a6c 163d 6a2f b93d 34eb 39bd a3e2 3e3d
000000e0: dd1f 9b3c 6827 6ebd 985f 923d 2819 0d3d
000000f0: 41f4 113d 93b0 4dbc 7bbc 633d 69d8 f4bc
-0.07202372 0.06153887 -0.017341936 -0.029612085 0.018341616 0.06618214 0.09456803 -0.06452164
-0.05722716 -0.04730737 0.013332152 -0.09515049 -0.064953834 -0.024870947 0.11278135 0.07035401
-0.037930068 0.010594749 -0.014402478 -0.0053670914 -0.022727227 0.10290873 0.11682199 0.08938502
-0.03201118 -0.018332463 0.09453325 -0.057418883 0.07543299 0.09584846 -0.018189477 -0.002319056
-0.04081158 0.03914655 0.11698049 0.037063368 0.049378958 0.020962382 -0.10707637 0.084216505
0.030927788 0.11054938 0.067553274 -0.09722438 -0.004949555 0.09155586 -0.05619959 -0.056426466
0.015753996 0.07708024 -0.077972606 0.09739118 0.036724128 0.09042247 -0.045390323 0.046602856
0.018936092 -0.05814305 0.07147139 0.03444782 0.03563333 -0.012554306 0.05559967 -0.029888349

layers.0.backward_conv1d.weight f4 [64, 64, 1]
00000000: 35a6 8d3d fb94 0b3d 1112 943d d965 4d3d
00000010: e160 a9bd 50be 5cbc fe8e fabc 0541 3e3d
00000020: b749 68bd c525 d0bc 3714 85bd d0db 7a3c
00000030: 2f0d fc3c 8648 11bc 43dd 45bd a7b1 b43d
00000040: ce6d 283d 5742 073d 2551 d9bc 31a4 b7bc
00000050: 1e13 463d 2321 1ebd e656 db3d 0acd 4bbd
00000060: 2e5b 7b3c 8e54 19bc 5994 113d 7583 183d
00000070: b123 a63d 73e7 77bd 333f ff3c 288b 973d
00000080: aa0e 8ebc cd55 b2bc 06b7 91bd 98e3 483d
00000090: 2949 ec3c 3b40 f23b ba32 00bc c2cb 0c3d
000000a0: 3e14 403c cff3 ae3d 8ef4 553d 6b94 a33d
000000b0: d80f ab3d d95b abbd b37a b3bd 9411 963d
000000c0: 2c8a a7bc 0d93 b5bd f039 aabd 02ca 7dbd
000000d0: 0f6e 84bb d907 c73c 2b6f 0f3d 7ed1 8bbc
000000e0: 9bd1 9dbc 7a9e 333b 0c06 80bd ee2f c2b9
000000f0: 579b b6bd 475b 4c3d b74d e7bc 57a7 453d
00000100: cc58 5bbd d791 c93d 59af a4bd 32b8 61bc
00000110: 2749 4fbc 66a8 ca3b a260 11bd e650 7c3d
00000120: e052 e03d 4323 b8bc c99d 673d 3e2b 753d
00000130: 957f 723d ac30 223d 4cc6 3f3c 7dea 893d
00000140: 233b a8bc e87b 7ebd 6bb5 4abd 39f8 953d
00000150: 3995 853d ac5d 803d 2d07 bbbd 3e54 733c
00000160: 9afc c63c 8596 a5bd 5868 27bd 6698 333d
00000170: fd7b 3b3d 23d9 553b 7f33 b7bb c7a4 48bb
00000180: 6419 203d 93fb 61bd 4d94 17bd 4f64 21bd
00000190: 7944 a1bd f7e5 25bd 02d3 07bd f409 1e3c
000001a0: 34d0 5cbd 332e 92bb 9066 45bc 99f9 5e3d
000001b0: e464 f6bc 3967 82bd 9ec1 aabd a32c bf3c
000001c0: 1088 1cbb 91ad 95bd f160 303d 04bd 69bd
000001d0: 1744 73bd 0194 873d 5818 a23d 2152 323d
000001e0: 76eb 413d 2b6e ff3c 0834 1fbd d5f8 4b3d
000001f0: a533 8e3b f763 2abd cd94 e93b 2948 413d
00000200: abc6 ddbc c24c 8dbd a2ca 7abc 088b 7cbd
00000210: dcf7 c0bd fab9 58bd 76f1 a9bd 159e b4bc
00000220: 9c99 053d 9328 0cbd 9322 263c 3105 efba
00000230: 9b18 82bd 1341 66bb 8c5a 05bd 16ed 893d
00000240: 9014 82bd 907c 3d3d 9470 783d cc0a 90bd
00000250: 5aba 083d ce8d 243d 81be 5bbd c172 3d3b
00000260: 69c6 da3c 1ff0 d6bb d5b8 fcbc 0688 95bd
00000270: dd3a 733c 3115 9dbb 0b7e 3a3d 968c 213a
00000280: ea7e c83c 311e 25bd 5a34 7f3b c406 babd
00000290: 3b94 76bd 5968 13bd fee8 35bd 2e5d 553d
000002a0: 43ae 55b8 f85a adbd ecff 0a3d b0cc 8c3d
000002b0: dfc4 a83c bc39 0abd 4fda 953d c089 99bd
000002c0: 6efb 0abc da1c a53d c27e 533d b4e5 87bd
000002d0: 88a3 06bb b67f 3f3d 1617 893d 7283 0b3c
000002e0: 1bc0 06bd 6576 4b3d 2521 733d eb3a 42bd
000002f0: 4126 4c3c 4893 b73a c173 513c 25ca 0c3d
00000300: 7ec7 82bd 3c5a 29bc 02b6 2abc c9b1 b93c
00000310: 0de8 083c 1457 8bbd 6119 983c 6be6 8f3d
00000320: d0fe 843c cd59 903c eb25 133c da4e 2fbc
00000330: 2580 043a b4fd 14bd eb83 963d 5254 a7bd
00000340: 5e8a 63bd e381 273d 4f63 58bc 1554 6ebc
00000350: c8ac 81bd 0ca0 07bd d59f e3bc 4e4f dbbc
00000360: 0b98 2d3d ec45 283d 10b8 b23c 9745 533d
00000370: a927 293d 97f7 21bd 758e aabd 5d94 e7bb
00000380: 5a6c b0bd cdbc 8bbd af1b c93c a49c ca3c
00000390: 7e15 87bd 643d e73c 407a 0cbb 7579 8b3d
000003a0: c02f debb 9458 97bc 6d17 963d 585d 97bd
000003b0: fc7b 553d a343 523d 5bc3 2c3d 6ef6 5d3d
000003c0: bcb6 f3bc 6a38 4c3d 71b4 b23c dcb5 463d
000003d0: 5d31 343d 5f1b 00bd eb86 793d 9f98 723b
000003e0: dd73 05bd a3cd 9cbd 3b9d fa3c 7b82 183d
000003f0: d29f b7bd 9133 91bc 17ed afbc 1d8a 213d
0.06916467 0.034077626 0.072300084 0.050145958 -0.08270431 -0.013473108 -0.030585762 0.046448726
-0.056710925 -0.025408635 -0.06497996 0.015311196 0.030768005 -0.008867389 -0.048306715 0.08822947
0.041120343 0.03302225 -0.02652795 -0.02241716 0.048358075 -0.03860582 0.10709934 -0.049756087
0.015341563 -0.009358538 0.035541866 0.037234742 0.08112276 -0.06052346 0.031158065 0.07399589
-0.017340977 -0.021769429 -0.07114987 0.049045175 0.02884348 0.007392911 -0.007824594 0.034374006
0.011723576 0.085425965 0.05223518 0.07987293 0.08352631 -0.08367128 -0.087636374 0.073275715
-0.020451628 -0.08865938 -0.08311832 -0.061960228 -0.0040414403 0.024295734 0.035018127 -0.017067667
-0.019264987 0.0027407692 -0.06251153 -0.00037038274 -0.089163475 0.049891736 -0.0282353 0.04825529
-0.05355148 0.0984227 -0.080412574 -0.013776826 -0.012651718 0.0061846254 -0.035492547 0.06160059
0.10953307 -0.022477752 0.05654696 0.059855692 0.059203703 0.0395972 0.0117049925 0.06734178
-0.020536011 -0.062129885 -0.04948942 0.07322735 0.065226026 0.062678665 -0.09132228 0.014851628
0.024290372 -0.0808535 -0.040870994 0.04384651 0.04577254 0.0032630644 -0.0055908556 -0.0030615793
0.039086714 -0.05517156 -0.037006665 -0.039402302 -0.07874388 -0.040502515 -0.033160217 0.009645928
-0.053909495 -0.004461074 -0.012048379 0.054437254 -0.030077405 -0.063673444 -0.08337711 0.023336714
-0.002388481 -0.07308496 0.0430612 -0.057065025 -0.059391107 0.066200264 0.079147995 0.043535355
0.047343694 0.031180462 -0.03886798 0.04979785 0.0043396526 -0.04159924 0.007128334 0.047187958
-0.027072271 -0.06899406 -0.0153071005 -0.061656028 -0.094222754 -0.052911736 -0.08298008 -0.022048036
0.032617196 -0.034218382 0.010140079 -0.00182358 -0.06352349 -0.0035134002 -0.032557055 0.06734674
-0.06351578 0.04626137 0.060654238 -0.07033309 0.033380844 0.040174298 -0.053648476 0.002890751
0.026705937 -0.0065593864 -0.030849854 -0.07301335 0.014845577 -0.004793786 0.04553036 0.00061626115
0.02447458 -0.040311996 0.0038941116 -0.09083322 -0.060199957 -0.035988186 -0.04441165 0.052090816
-5.094545e-05 -0.084646165 0.033935472 0.068749785 0.020601688 -0.033746466 0.0731703 -0.07496977
-0.008482797 0.080621436 0.051634558 -0.06635609 -0.002054425 0.046752654 0.066938564 0.008515226
-0.03289805 0.049673457 0.05935778 -0.04741947 0.012460292 0.0014005685 0.012783946 0.034372468
-0.06385706 -0.010336455 -0.010419371 0.022667782 0.0083561065 -0.06803718 0.01856679 0.070263706
0.016234785 0.017620945 0.008981208 -0.010699952 0.00050544954 -0.036374763 0.0734938 -0.0817038
-0.05555188 0.040895354 -0.013207271 -0.014546414 -0.063317835 -0.033111617 -0.027786175 -0.026771214
0.042381328 0.041082308 0.021816283 0.051580038 0.04129759 -0.03954276 -0.08327953 -0.007067247
-0.086144164 -0.0682312 0.024549333 0.024732895 -0.06595896 0.028227516 -0.0021435171 0.068102755
-0.0067805946 -0.018474855 0.07328687 -0.07390851 0.052120194 0.051334035 0.042178493 0.05419009
-0.02975022 0.04985849 0.021814557 0.04851328 0.04399239 -0.031276103 0.060919683 0.0037017239
-0.0325812 -0.076564096 0.030592551 0.03723381 -0.0896603 -0.017724784 -0.021475358 0.039438356

layers.0.backward_conv1d.bias f4 [64]
00000000: 2f95 883d bd67 c2bc f71f b9bd 8266 3a3d
00000010: b6a9 d53d cc69 1f3d 804f c43d 1edc 3a3c
00000020: ea8a 9dba d559 ddbd 5dc2 75bc fcb2 df3c
00000030: 9be7 7a3d c238 38bd 3b3b 5a3d 3cd8 d3bd
00000040: 2366 e1bd b627 a0bd d859 d5bd e5f7 c7bd
00000050: 5bd7 9a3c 15e1 de3d be26 793d dfd5 adbd
00000060: 7e5e 37bc d4be c23d 8e68 d2bd 6095 ab3d
00000070: f2cf cabd 6dd6 ae3d aacb a53d c06a 48bc
00000080: 3e0b ab3d fc57 153d f9e9 d63b 1d0f 58bd
00000090: 59f7 cf3c a52d 013d 4100 c93c 09a5 59bd
000000a0: 0c14 5ebd 320d 83bb 3def 77bd 58e7 f3bc
000000b0: 2731 b1bd c17f a33c edcd e8bd 698e 003e
000000c0: e582 283d 73de b9bc 24a6 5f3d 3aee 89bd
000000d0: 4348 85bd a62c 2b3d 50bb 0b3d 2f04 36bd
000000e0: f843 2f3a 052e 813d 4188 6cbb 6405 c53d
000000f0: 40c2 323d fa14 80bd 2e75 9f3d 1fa1 8c3a
0.066690795 -0.023731107 -0.090393 0.045507915 0.104327604 0.038919255 0.09585476 0.011405019
-0.0012019549 -0.1080815 -0.014999953 0.027307026 0.061256032 -0.044976003 0.053279143 -0.10343978
-0.11005809 -0.07820074 -0.10417527 -0.09764079 0.018901518 0.10882775 0.060827963 -0.08488058
-0.011191962 0.09509054 -0.102738485 0.083781004 -0.09902944 0.08536992 0.080954865 -0.012232482
0.08351754 0.03646086 0.0065586534 -0.05274879 0.0253865 0.03153767 0.024536254 -0.053135905
-0.054218337 -0.0039993757 -0.06053089 -0.0297734 -0.08651953 0.019958379 -0.11367402 0.12554325
0.041140456 -0.02268908 0.054601803 -0.06734891 -0.065079235 0.041790627 0.034114182 -0.044437584
0.00066858483 0.06307606 -0.0036091956 0.09620169 0.043642282 -0.06254001 0.07786022 0.001072917

layers.0.norm.weight f4 [64]
00000000: 92ce 6e3f 36de 753f 1a21 783f 94be 773f
00000010: 5b94 7d3f 3b82 6b3f d1f3 743f 2eba 723f
00000020: 25f9 703f 85b9 743f 8aec 753f 0157 743f
00000030: 5329 753f 0ba4 743f 55d4 763f 86ae 7a3f
00000040: 2e19 6a3f 3cfc 763f 395a 6e3f 8aa1 6d3f
00000050: 856e 733f 7963 773f 0b0d 6d3f e3fd 763f
00000060: a931 723f f1c1 753f be48 643f 2875 743f
00000070: e401 783f 43e2 6f3f bd5e 643f 54e3 6f3f
00000080: b363 783f 91ca 6a3f eaa7 793f 3706 633f
00000090: d3ce 763f cfa9 7a3f 3fbb 753f 28bb 763f
000000a0: bd6a 783f 5449 733f f046 703f fdca 6e3f
000000b0: 3c1b 7b3f d266 6b3f b3c0 733f 3e2a 753f
000000c0: af77 703f b79d 7a3f 8ea6 713f 477e 733f
000000d0: c10d 793f 8481 723f fa3a 753f 58bf 7c3f
000000e0: 68ef 763f 0618 703f c631 7a3f 0ee2 7a3f
000000f0: 3cbf 763f 53fd 733f 222a 783f 2dfc 703f
0.9328395 0.9604219 0.9692551 0.96775174 0.990545 0.9199559 0.95684534 0.9481534
0.94130164 0.9559558 0.96064055 0.9544526 0.9576618 0.9556281 0.9641774 0.9792255
0.9144467 0.9647863 0.9310642 0.92824614 0.95090514 0.9663616 0.92598027 0.9648115
0.94607025 0.95999056 0.89173496 0.95491266 0.96877885 0.93704623 0.8920706 0.9370625
0.9702713 0.9171534 0.9752184 0.8868136 0.9640934 0.9791536 0.9598884 0.9637933
0.9703787 0.95033765 0.9385824 0.93278486 0.9808843 0.91953766 0.9521591 0.9576758
0.9393262 0.97896904 0.9439477 0.9511456 0.9728661 0.94728875 0.95793116 0.9872947
0.96459055 0.93786657 0.977322 0.9800118 0.9638555 0.9530842 0.9693929 0.9413479

layers.0.norm.bias f4 [64]
00000000: ccd2 bdbb efbf d3bb 23a3 cf3b 8eb1 94bb
00000010: c3f0 e2ba ca50 d9bb 6b19 5f3b 575c 9aba
00000020: daf7 95bb 1dde a33b 37fb 913b b9d2 11bb
00000030: edf7 9b3b 4fa2 163b c1f2 473b 1e0f b53a
00000040: b4e3 b3bb 7784 ae3b 7c67 93bb 38ca 49bb
00000050: c74f cd3b 81fe 2e39 4070 9fbb 619c e5bb
00000060: 7f47 cd3b cb93 8ebb 081c 283a 960c 9f3b
00000070: f6fc 673b c9aa 67bb ff9b b4ba 2888 20bb
00000080: dd22 ff38 b55b 43ba 2c51 153b b6a3 97bb
00000090: 880e 8abb 55dd ac3a ca70 6ebb c1ab 8bbb
000000a0: aaad db39 6b1e 94ba 0ad9 adba 1751 673b
000000b0: 003f 57bb 26a2 56bb 4aaf 39ba 1e0d f3ba
000000c0: ad57 a33b ac68 cdba 45f8 4cba e281 e43b
000000d0: 1664 a1bb 1e5c 003b 8f0c 06ba 0427 9e3b
000000e0: 442e 94bb efe5 943a a944 04ba 4ec6 b0ba
000000f0: 04b6 0dbc ad74 2cbb bc8e 72ba 5806 733b
-0.005792951 -0.0064620893 0.006336586 -0.0045377677 -0.0017314184 -0.0066319453 0.003404225 -0.0011776787
-0.0045766653 0.005000843 0.004454996 -0.0022250845 0.0047597797 0.0022984927 0.0030509683 0.0013813709
-0.005489791 0.0053258496 -0.0044984203 -0.0030790698 0.0062656137 0.00016688743 -0.004865676 -0.007007167
0.0062646265 -0.0043511144 0.00064128684 0.0048537953 0.003539858 -0.0035349599 -0.0013779401 -0.0024495218
0.00012165841 -0.0007452325 0.0022783978 -0.00462767 -0.004213158 0.0013188521 -0.0036383145 -0.004262418
0.00041900325 -0.0011300569 -0.0013263535 0.0035296136 -0.0032843947 -0.0032750457 -0.000708331 -0.0018543338
0.004984817 -0.0015671453 -0.00078189775 0.006973491 -0.0049252613 0.0019586156 -0.0005113566 0.0048264284
-0.004522117 0.001136003 -0.00050456316 -0.0013486834 -0.008649353 -0.0026314661 -0.00092528365 0.0037082639

layers.0.ssm.A_log f4 [64, 64]
00000000: 8989 f4b9 30df cc3e 5508 4b3f 6c77 8a3f
00000010: 8510 a73f 93a6 bd3f b24b d13f 3c5e e23f
00000020: 734e f13f cdbf fe3f 5177 0540 8303 0b40
00000030: 921e 1040 4dd9 1440 0841 1940 8e5f 1d40
00000040: ac3e 2140 10e5 2440 d358 2840 8a9f 2b40
00000050: 70bd 2e40 28b6 3140 ff8c 3440 e744 3740
00000060: 96e0 3940 2f62 3c40 88cb 3e40 671e 4140
00000070: 665c 4340 e686 4540 349f 4740 79a6 4940
00000080: f99d 4b40 7486 4d40 c460 4f40 b52d 5140
00000090: 00ee 5240 58a2 5440 564b 5640 91e9 5740
000000a0: 907d 5940 cd07 5b40 c588 5c40 df00 5e40
000000b0: 9570 5f40 50d8 6040 4c38 6240 e090 6340
000000c0: 57e2 6440 fe2c 6640 1671 6740 e2ae 6840
000000d0: a0e6 6940 8a18 6b40 8d44 6c40 b46b 6d40
000000e0: 518d 6e40 d2a9 6f40 c2c1 7040 b0d4 7140
000000f0: f6e2 7240 6fed 7340 46f3 7440 dcf4 7540
00000100: 2090 003b 18b6 cd3e e1fa 4b3f ac95 8a3f
00000110: 03ba a63f 66a9 bd3f 0c4c d13f 7653 e23f
00000120: 3252 f13f e0c2 fe3f c075 0540 ee02 0b40
00000130: 791e 1040 69d9 1440 eb40 1940 8a5f 1d40
00000140: a93e 2140 0de5 2440 d258 2840 8b9f 2b40
00000150: 70bd 2e40 2cb6 3140 068d 3440 e744 3740
00000160: 94e0 3940 2d62 3c40 87cb 3e40 681e 4140
00000170: 675c 4340 e686 4540 349f 4740 79a6 4940
00000180: f99d 4b40 7486 4d40 c460 4f40 b52d 5140
00000190: 00ee 5240 58a2 5440 564b 5640 91e9 5740
000001a0: 907d 5940 cd07 5b40 c588 5c40 df00 5e40
000001b0: 9570 5f40 50d8 6040 4c38 6240 e090 6340
000001c0: 57e2 6440 fe2c 6640 1671 6740 e2ae 6840
000001d0: a0e6 6940 8a18 6b40 8d44 6c40 b46b 6d40
000001e0: 518d 6e40 d2a9 6f40 c2c1 7040 b0d4 7140
000001f0: f6e2 7240 6fed 7340 46f3 7440 dcf4 7540
00000200: 605b e8bb ffbd cd3e d3cc 4b3f 719b 8a3f
00000210: ca9f a63f 28af bd3f 754c d13f cf50 e23f
00000220: b054 f13f 85c3 fe3f 6f75 0540 c802 0b40
00000230: 5f1e 1040 66d9 1440 c440 1940 8c5f 1d40
00000240: ab3e 2140 12e5 2440 cf58 2840 8d9f 2b40
00000250: 70bd 2e40 1db6 3140 078d 3440 e744 3740
00000260: 96e0 3940 2d62 3c40 86cb 3e40 691e 4140
00000270: 675c 4340 e686 4540 349f 4740 78a6 4940
00000280: f99d 4b40 7486 4d40 c460 4f40 b52d 5140
00000290: 00ee 5240 58a2 5440 564b 5640 91e9 5740
000002a0: 907d 5940 cd07 5b40 c588 5c40 df00 5e40
000002b0: 9570 5f40 50d8 6040 4c38 6240 e090 6340
000002c0: 57e2 6440 fe2c 6640 1671 6740 e2ae 6840
000002d0: a0e6 6940 8a18 6b40 8d44 6c40 b46b 6d40
000002e0: 518d 6e40 d2a9 6f40 c2c1 7040 b0d4 7140
000002f0: f6e2 7240 6fed 7340 46f3 7440 dcf4 7540
00000300: 2c18 643b 64ef cd3e 6f88 4b3f 9f53 8a3f
00000310: dd88 a63f e8ab bd3f 1f4c d13f 5f50 e23f
00000320: e652 f13f b1c2 fe3f b475 0540 d102 0b40
00000330: 721e 1040 6fd9 1440 e740 1940 895f 1d40
00000340: ab3e 2140 0ae5 2440 d158 2840 8b9f 2b40
00000350: 70bd 2e40 27b6 3140 078d 3440 e744 3740
00000360: 94e0 3940 2d62 3c40 87cb 3e40 681e 4140
00000370: 675c 4340 e686 4540 349f 4740 79a6 4940
00000380: f99d 4b40 7486 4d40 c460 4f40 b52d 5140
00000390: 00ee 5240 58a2 5440 564b 5640 91e9 5740
000003a0: 907d 5940 cd07 5b40 c588 5c40 df00 5e40
000003b0: 9570 5f40 50d8 6040 4c38 6240 e090 6340
000003c0: 57e2 6440 fe2c 6640 1671 6740 e2ae 6840
000003d0: a0e6 6940 8a18 6b40 8d44 6c40 b46b 6d40
000003e0: 518d 6e40 d2a9 6f40 c2c1 7040 b0d4 7140
000003f0: f6e2 7240 6fed 7340 46f3 7440 dcf4 7540
-0.00046641778 0.4001403 0.7930959 1.0817695 1.3051916 1.481646 1.6351225 1.7685008
1.8852066 1.9902283 2.0854075 2.1720893 2.2518659 2.325763 2.3945942 2.4589572
2.5194502 2.5764809 2.6304214 2.6816125 2.7303123 2.776743 2.8211057 2.8635805
2.9043326 2.9434927 2.9811726 3.0174806 3.0525146 3.0863585 3.119092 3.1507857
3.181517 3.2113314 3.240281 3.2684147 3.2957764 3.3224087 3.3483481 3.3736308
3.3982887 3.4223511 3.4458477 3.4688032 3.4912465 3.5132027 3.534686 3.5557175
3.5763147 3.596496 3.6162772 3.635674 3.6547012 3.6733727 3.691684 3.7096987
3.7273753 3.74474 3.761826 3.7786064 3.7951026 3.8113668 3.8273482 3.84307
0.0019617155 0.4017799 0.79679686 1.0826926 1.3025516 1.4817321 1.6351333 1.768172
1.8853209 1.9903221 2.085312 2.1720538 2.25186 2.3257697 2.3945873 2.4589562
2.5194495 2.5764802 2.6304212 2.6816127 2.7303123 2.776744 2.8211074 2.8635805
2.9043322 2.9434922 2.9811723 3.0174809 3.0525148 3.0863585 3.119092 3.1507857
3.181517 3.2113314 3.240281 3.2684147 3.2957764 3.3224087 3.3483481 3.3736308
3.3982887 3.4223511 3.4458477 3.4688032 3.4912465 3.5132027 3.534686 3.5557175
3.5763147 3.596496 3.6162772 3.635674 3.6547012 3.6733727 3.691684 3.7096987
3.7273753 3.74474 3.761826 3.7786064 3.7951026 3.8113668 3.8273482 3.84307
-0.007090971 0.40184018 0.7960941 1.0828687 1.3017514 1.4819078 1.6351458 1.7680911
1.885397 1.9903418 2.0852926 2.1720448 2.2518537 2.325769 2.394578 2.4589567
2.51945 2.5764813 2.6304204 2.6816132 2.7303123 2.7767403 2.8211076 2.8635805
2.9043326 2.9434922 2.981172 3.017481 3.0525148 3.0863585 3.119092 3.1507854
3.181517 3.2113314 3.240281 3.2684147 3.2957764 3.3224087 3.3483481 3.3736308
3.3982887 3.4223511 3.4458477 3.4688032 3.4912465 3.5132027 3.534686 3.5557175
3.5763147 3.596496 3.6162772 3.635674 3.6547012 3.6733727 3.691684 3.7096987
3.7273753 3.74474 3.761826 3.7786064 3.7951026 3.8113668 3.8273482 3.84307
0.0034804447 0.40221703 0.79505056 1.0806769 1.3010517 1.4818087 1.6351355 1.7680777
1.8853424 1.9903165 2.085309 2.172047 2.2518582 2.325771 2.3945863 2.458956
2.51945 2.5764794 2.630421 2.6816127 2.7303123 2.7767427 2.8211076 2.8635805
2.9043322 2.9434922 2.9811723 3.0174809 3.0525148 3.0863585 3.119092 3.1507857
3.181517 3.2113314 3.240281 3.2684147 3.2957764 3.3224087 3.3483481 3.3736308
3.3982887 3.4223511 3.4458477 3.4688032 3.4912465 3.5132027 3.534686 3.5557175
3.5763147 3.596496 3.6162772 3.635674 3.6547012 3.6733727 3.691684 3.7096987
3.7273753 3.74474 3.761826 3.7786064 3.7951026 3.8113668 3.8273482 3.84307

layers.0.ssm.D f4 [64]
00000000: 72cf 783f 246b 773f 961b 733f 9264 6d3f
00000010: cff8 713f f54f 713f dac2 753f 8ef4 6e3f
00000020: c6b1 753f b743 753f 7ead 743f 6fe0 733f
00000030: cabc 743f d563 753f 4d6e 753f 9d97 783f
00000040: bd93 723f 8eea 6d3f 0885 6e3f 8402 773f
00000050: 81eb 753f 7cca 7a3f 8aaa 7b3f d6e2 713f
00000060: 8c17 743f 82a8 703f 779e 7a3f 436b 733f
00000070: 6f6a 733f a6cc 793f ffeb 703f fe6d 6d3f
00000080: 49da 6c3f 8c89 743f 9153 773f 4161 693f
00000090: 64fc 663f 8fee 723f da68 6f3f 7592 7a3f
000000a0: 4240 6b3f f190 723f bbb1 6e3f 12ac 683f
000000b0: f914 613f b14e 753f baeb 7d3f 189c 7c3f
000000c0: f4fa 7b3f bcc1 783f 356d 793f 3c53 733f
000000d0: 96c4 723f a3e4 6e3f 7b8c 7a3f 2ab9 753f
000000e0: 8ae7 763f fd3a 763f 3ba2 743f f9d2 663f
000000f0: 883e 743f 3e61 733f e069 613f e7aa 683f
0.97191536 0.9664786 0.9496397 0.92731583 0.94520277 0.9426263 0.96000445 0.9334191
0.95974386 0.9580645 0.9557723 0.95264333 0.9560057 0.95855457 0.9587143 0.97106344
0.9475668 0.9293603 0.9317174 0.96488214 0.96062475 0.97965217 0.98307097 0.9448675
0.9534843 0.9400712 0.9789805 0.95085543 0.9508428 0.97577894 0.941101 0.9274596
0.92520577 0.9552238 0.9661189 0.9116402 0.9022887 0.9489526 0.93519366 0.97879726
0.91894925 0.94752413 0.93239945 0.9088756 0.87922627 0.958232 0.99187815 0.9867568
0.984298 0.97170615 0.9743226 0.9504888 0.94831216 0.9331762 0.97870606 0.9598566
0.9644705 0.9618376 0.95560044 0.9016567 0.95407915 0.95070255 0.8805218 0.90885776

layers.0.ssm.deltaBC_layer.weight f4 [144, 64]
00000000: ef8f cf3d 8d4e e4bc 9ad3 c93d 604a 383d
00000010: cd5b 44bd 578c 833d ef71 d63d 3aba 813b
00000020: 9ece b13c 0793 d73d 566b e0bc 0aed e5bc
00000030: edb0 7c3d 1c53 bfbd 5670 8cbd 5edf a5bc
00000040: 53ef 563d a462 553d 5957 86bd 821f b43d
00000050: 9031 d13a 50ae abbd bb02 c4bd 328f 5a3b
00000060: 921e bebd 4f84 aabd b0f7 df3d 178c db3c
00000070: 3f65 af3d 49ed 953d 8d08 133d 3b50 92bd
00000080: 1de6 a6bd 2d35 bebc 6524 f13c 3a80 e43d
00000090: 906c 17bd 8946 ca3d 8429 3ebc 8246 e13d
000000a0: 7e6b 8c3d fa99 74bc 4ed2 953c 826c 723d
000000b0: 88ec 21bc 3c10 98bb 9bcf 933c 7c95 c33d
000000c0: 8458 6c3d 8b11 bb3d 383b 9fbd a3cc e33d
000000d0: 5aca b5bc 60b8 9c3d d6a0 a13d 899c 713d
000000e0: 65ee 8c3d 098e d23d 84b5 71bd 487d 553d
000000f0: d9bb e73c b008 2ebd 52cd c5bd feae 883d
00000100: 24de 793d 31a4 8fbc 6db8 c3bc 062a 3abc
00000110: caca 92bd 6f71 1f3d 55c8 96bb d01b c2bc
00000120: de1e 4f3c 6ec7 a63c cd91 a4bd 5034 74bd
00000130: 6abf a2bd c55c dabc 646c b5bd cb33 663d
00000140: e083 a7bd 4b89 c2bc 8864 51bb 7d67 acbc
00000150: 2eb0 473d 60f2 69bd 9666 443d fa4d 803d
00000160: e185 bbbc 4129 02bd dd82 293d 4dbf b9bd
00000170: 0f54 9abd ad70 b63d cd97 4ebd b733 eebc
00000180: 7c52 8e3d d261 3e3c 88d7 aa3d 7c78 7bbd
00000190: 198d 84bc 9b63 553c e071 bd3d d83b bd3d
000001a0: d55f adbc 61e1 803d ff3e 6fbd 74b4 583d
000001b0: 6b31 31bd b2bd c3bc be41 bebd eaa5 183d
000001c0: e41d e6bc 160f 9c3c 02a0 41bd 8fc2 bc3c
000001d0: fc8d eabc 19ea 9fbc 0bcf 1cbd 6185 633d
000001e0: 7129 b73c b972 73bc 7079 ba3d 1a7f 9fbc
000001f0: f5cd 173c f0a5 acbc 8709 973d 1614 0f3d
00000200: 2994 10bd 37d7 cabd e457 163c 7a9f 463d
00000210: e27c abbd d22b 6cbd aed5 ebbc 7f21 ad3d
00000220: 3f53 a2bd 88d4 b2bd b199 b03d 1faa af3d
00000230: 7d67 05bb e30b 82bd ddfa e0bc 95a8 53bc
00000240: 92ed 423d 857a 5f3d d726 793c 25b5 37bd
00000250: 7ba5 bcbd fad9 a53c be11 9f3c 3fbf 5fbc
00000260: 47d7 703b bb72 56bd 61ae a73d c7bb 8b3d
00000270: 2b52 c2bd e7ac 9cbc af48 053d 1d11 84bd
00000280: 6f92 71bd 17ab 273d 909a 823b 1183 133d
00000290: 01a6 8c3d 177c ccbd 383e 4cbd 2647 6f3d
000002a0: c2cb b5bc 4ff9 c53c 75c7 24bd 405b 3d3d
000002b0: e72c 74bd 3ba3 4c3d 6e17 97bd f5c2 333d
000002c0: 24c2 2ebd c4c5 10bd 1645 1ebc c4d7 b83d
000002d0: 2c27 3e3c bfb3 213d b2ad 2e3d a1d7 bdbd
000002e0: 71e2 893d f20b a63d 6251 8e3d c22b c83d
000002f0: 64bf cfbc 02b5 5cbc da09 bfbd b341 a0bd
00000300: 6d6f 383a 8164 fc3c 8e82 00bd 5714 c4bd
00000310: 236a 47bd 5425 843d d808 b53c 2ade f8bb
00000320: 6173 803d 5cc7 67bd 8669 a23c d99d 9dbd
00000330: 2e60 b3bd 6f05 c9bd 5f1d 933c 29d6 833d
00000340: a6a7 ccbd ec72 4b3d 2ec9 eb3c b5b5 c43d
00000350: b5bf 68bd e8d8 8dbd 3b23 9fbd dd76 873b
00000360: 3434 973d cdc4 85bc 263c 99bb 134a f1bb
00000370: 81a9 81bb cea4 7d3d 492e 353d 3c2f 94bd
00000380: 75f8 1d3d 3d3b 8fbd 4fdd 073d 50bd d0bd
00000390: c1c4 a8bd 1d9d 133d 95ca c7bd e75d b33c
000003a0: 995a b33d ec28 15bc d477 ad3c 0e1e ab3d
000003b0: 313a 293d e3ed 2dbd cf9d 903d dded c23c
000003c0: 2e29 91bd b006 8bbd 4e35 9e3d 9414 3abd
000003d0: 6c97 c53c 53c4 4dbc 31fb 35bd f287 7dbd
000003e0: 29de 503c 6eda bcbd 9c94 b1bd f239 c23d
000003f0: c471 173d ef98 d0bd c551 7b3d 7a60 023c
0.10134875 -0.027869487 0.09854813 0.044992805 -0.04793911 0.06423252 0.1047095 0.0039589675
0.021704968 0.1052609 -0.027394932 -0.02806713 0.061692167 -0.09342024 -0.06857364 -0.020248111
0.05247433 0.052096024 -0.06559629 0.08795072 0.0015960205 -0.08382857 -0.09570833 0.0033349511
-0.092831746 -0.08326017 0.109359145 0.026800198 0.08564233 0.07320649 0.035896827 -0.07144209
-0.081493594 -0.023218716 0.0294363 0.1115727 -0.036968768 0.09876735 -0.011606578 0.109997764
0.0685644 -0.014929289 0.018288758 0.059185512 -0.009883054 -0.004640607 0.01804333 0.09549996
0.057701603 0.091342054 -0.07774967 0.11123016 -0.022191215 0.07652354 0.07892005 0.058987174
0.06881408 0.10280997 -0.059010997 0.05212143 0.028287815 -0.042488754 -0.09658302 0.06674002
0.061002865 -0.017534347 -0.023891652 -0.011362558 -0.07167585 0.038926538 -0.004601518 -0.023694903
0.012641637 0.020358767 -0.08035622 -0.0596202 -0.079466656 -0.026655564 -0.088585645 0.056201737
-0.0817945 -0.023747107 -0.003195079 -0.02104544 0.048752002 -0.057115912 0.047949396 0.06264873
-0.022890987 -0.031777624 0.041384567 -0.09069691 -0.07535564 0.0890821 -0.050437737 -0.029077394
0.069493264 0.011620002 0.083418906 -0.0613942 -0.016180562 0.013024236 0.092502356 0.0923993
-0.02116386 0.062929876 -0.058409687 0.05290647 -0.04326002 -0.023894165 -0.09289883 0.037267603
-0.028090425 0.019050162 -0.047271736 0.023041992 -0.028632157 -0.019520806 -0.03828339 0.055547122
0.022358628 -0.014858895 0.091051936 -0.019469786 0.009265413 -0.021075219 0.07374864 0.034931265
-0.035297547 -0.0990433 0.009176228 0.048491932 -0.08373429 -0.057658978 -0.028788414 0.084536545
-0.07926034 -0.08731943 0.08623064 0.0857737 -0.0020355873 -0.063499235 -0.027463371 -0.012918611
0.047589846 0.054560203 0.015207014 -0.044850487 -0.092112504 0.02024554 0.01941764 -0.0136564365
0.003674941 -0.05235551 0.08187557 0.06822925 -0.094883285 -0.019125415 0.03254002 -0.064485766
-0.05897754 0.04093465 0.0039857104 0.036013667 0.068676 -0.09984606 -0.049864024 0.05841746
-0.022191886 0.024166731 -0.04022928 0.0462296 -0.059613135 0.049960356 -0.07377516 0.043887097
-0.042665616 -0.035344854 -0.009660026 0.09025529 0.011606019 0.03947806 0.042646118 -0.092696436
0.067326434 0.08107747 0.06949116 0.09773971 -0.025359817 -0.01347089 -0.09328051 -0.07825031
0.00070356467 0.030809643 -0.031374507 -0.09574192 -0.048685204 0.06452432 0.022098944 -0.0075948434
0.06272007 -0.05658661 0.019825708 -0.07696123 -0.08758579 -0.098154895 0.017958341 0.06437332
-0.09992914 0.049670145 0.028782453 0.0960497 -0.05682345 -0.06926137 -0.077703916 0.0041340427
0.07383004 -0.016329193 -0.0046763597 -0.0073635667 -0.003956974 0.061924748 0.044233594 -0.07235572
0.038567025 -0.06993721 0.03317004 -0.101923585 -0.08240653 0.036038507 -0.09755436 0.021895362
0.087575145 -0.009103995 0.021175303 0.08355342 0.04131526 -0.042463195 0.070613496 0.023795063
-0.070879325 -0.06788385 0.07725011 -0.04542978 0.024120055 -0.012559014 -0.044429008 -0.061897226
0.01274828 -0.0922135 -0.08670923 0.094837084 0.03697373 -0.1018542 0.06135728 0.007957572

layers.0.ssm.dt_proj_layer.weight f4 [64, 16]
00000000: 6b98 b3bc 6047 453c c747 02bd d146 c0bd
00000010: 139f c93d 9881 87ba 4ba2 f7bd 1437 2abd
00000020: cec5 67bd 86bb 37bd cf47 f5bd 68df 25bb
00000030: 0d57 403d 7805 0c3e ebe9 29be a66a a23d
00000040: 134f edbc 91cb 33bd 8cca e83d 8353 c2bd
00000050: 3131 b8bc eb25 83bd 48f1 613d ab39 543d
00000060: ee8c ebbd 4738 6e3c 487d bc3d 44f4 97bd
00000070: e6f6 bbbc 44f3 c93d 5457 4d3d c7be 4c3d
00000080: ba02 00be 5fdc 933b 4269 d3bb bd21 f8bd
00000090: 9dd3 52bc 5f23 ee3c 0f6c 723d a798 0ebd
000000a0: 8086 8f3d cf57 25bd 6dd1 dcbd 1fa9 82bd
000000b0: 7d97 aebd 09f7 5e3d 5fd3 133d 5886 4a3b
000000c0: aff9 54bc f942 193d dc63 43bc 3e2f d6bb
000000d0: 72aa 033a 1ab3 9ebd d8ef 4abc a162 a9bb
000000e0: fddc 9d3d f6f7 1c3d e8c8 9b3d 7021 ad3c
000000f0: 242d 52bd 7f19 bc3c c76a dabd dfe5 2abd
00000100: 41ad 153e bbba 003d 9062 a93d adb0 413b
00000110: 2765 98bd ff40 bd3d e658 123e ce4f 763d
00000120: 7867 bb3d 424b 063e 73e4 58bd 03db 993d
00000130: d91a e63d 5a83 fb3d 1219 02bd ea4a 183e
00000140: d934 46bc 27e1 3abc 173b 5bbd d1ef 4c3c
00000150: d3c2 0abd e34f 98bc b3f2 97bd 480e 8fbd
00000160: 8c5b 1e3d 6806 d03d f500 0dbd c993 87bd
00000170: 93c6 043c 2864 c9bd 1cad 623d f5f5 123d
00000180: 3faa de3d cca2 34bd 5aa6 61bd 559e 0bbe
00000190: 847d b3bc 37b7 58bd 1ad4 a63d 9cb5 fe3c
000001a0: f663 0bbe 65ef 053e 19cb 09be ac6f 84bc
000001b0: 33fb adbd 7b60 cb3b ae65 50bd 7f76 4bbc
000001c0: 7caa 60bb e724 f93b 30a3 88bb dc2c 0d3e
000001d0: 6539 833d ca81 3dbc 146a 00be c703 7bbd
000001e0: d8b4 9f3d 0420 91bb 9618 bf3d f05e bfbd
000001f0: a7f7 45bd f375 f03d ad88 1fbd 5a93 9b3d
00000200: ccbf 2a3e 779a 8c39 aac3 19bd 6d18 d03d
00000210: 3382 71bd 5952 f7bd ea9f 6c3d 4fc7 4e3c
00000220: 9b9b 34bd 8d95 c43d e687 be3d 5942 2bbd
00000230: e050 bbbd 6a6a 093e c8d3 2e3e 8ce5 39bd
00000240: 449c cbbd aba4 88bb a4b8 acbd 7d7c 7ebd
00000250: 2c03 51bd 9586 033e 5c13 2cbd 8267 a43d
00000260: cdbd 743d f710 33bd f878 13be 1beb 8e3d
00000270: 5cec 19bd ff98 0ebe a5fc b03d a0c0 3ebd
00000280: 3788 99bd 57f1 703d 5c95 bbbd 94c4 77bc
00000290: aed1 d93b d4f4 22bd a2ee 813c 6b11 963c
000002a0: 9a6c 0abe 7206 1abe bf25 d93d 8c45 f9bd
000002b0: 0c7c 843d 05dd 12bd 384d b5bd 891e c33c
000002c0: 3c75 0a3e 423f 383c 15d1 9fbd f51c a73d
000002d0: 62ce 293b 4cb5 bebc 84ad b8bd 123d 853c
000002e0: 429b 54bc eeec 17bd 947e bdbd 3af7 553c
000002f0: ed55 3d3d b741 c53d 76fc 44bd fe96 85bd
00000300: f25b 2abe d09e ae3d 3f21 8d3d f7b9 15be
00000310: c028 f3bd cb3e d4bd 6055 193e bc8a 083d
00000320: 4f61 9dbd c510 0cbc dfad 103e dd95 49bd
00000330: 1156 de3d ae7a 873c 164d bbbd 968f 7dbd
00000340: 9cb7 46be d416 8dbc d5eb 933c 0bbd 003e
00000350: 80b5 d0bc 768f 83bb a55a 8ebd dc0b 10bd
00000360: dfb4 323d c5b1 63bd 9f61 673b ce5d 05bb
00000370: cb58 85bd 9605 65bb c87f 933c 75f8 2bbe
00000380: f5bc 09be 3139 6bbd 8a69 333d 2915 d83c
00000390: ad2c 943a fdde 23bd 22ec 8a3b cc40 16bc
000003a0: 4112 a03d 20ce ab3d fcd6 b5bc 98b8 d8bc
000003b0: c06f 923d dcd5 973c 155a 84bd d9ec 71bd
000003c0: 8a98 9a3d 10d6 763d c5d5 043d ecc4 8a3d
000003d0: 937a acbb 3322 ce3c ae07 4bbe 0778 dfba
000003e0: d379 8ebd 1340 113e 1f4f 313e e690 a1bd
000003f0: 5288 ac3c 4765 253e 52d1 503d 56a4 e03d
-0.021923264 0.012040943 -0.031806733 -0.09388507 0.09844794 -0.0010338305 -0.12091502 -0.041556433
-0.056585126 -0.04485657 -0.11976587 -0.0025310162 0.046958018 0.13673961 -0.16593139 0.07930498
-0.02896837 -0.043895308 0.11366758 -0.09488585 -0.022484394 -0.06403717 0.055161744 0.05181281
-0.115014896 0.014539785 0.09203583 -0.07419637 -0.022944879 0.09860852 0.05013211 0.049986627
-0.1250104 0.0045123543 -0.0064517567 -0.1211581 -0.012867835 0.0290696 0.059185084 -0.03481355
0.07008076 -0.040366944 -0.10782132 -0.063799135 -0.08524988 0.05443481 0.03609025 0.003090283
-0.012998982 0.037417386 -0.011925664 -0.0065363934 0.0005022652 -0.07749005 -0.012386285 -0.005169228
0.07708166 0.03832241 0.07606679 0.021134108 -0.05131258 0.022961376 -0.106648974 -0.04172313
0.14616872 0.03142808 0.082707524 0.002955477 -0.07441168 0.09240913 0.14291725 0.0601347
0.091505945 0.13114646 -0.05295224 0.07512476 0.112355895 0.12280913 -0.03176219 0.14872327
-0.012097561 -0.01140622 -0.05352315 0.012508349 -0.033877205 -0.01859278 -0.07419338 -0.06985146
0.038661525 0.10157472 -0.03442474 -0.06619985 0.008103984 -0.098335564 0.05534087 0.035879094
0.108723156 -0.044100568 -0.055090286 -0.13634618 -0.021910436 -0.052909102 0.08145924 0.031092457
-0.13612351 0.13079603 -0.13456382 -0.01616653 -0.08495178 0.0062065697 -0.05087822 -0.012418388
-0.0034281304 0.007603276 -0.004169844 0.13786644 0.064074315 -0.011566589 -0.12540466 -0.0612829
0.07798165 -0.0044288654 0.09330861 -0.0934428 -0.048331883 0.11741247 -0.038948704 0.075964645
0.16674727 0.00026817966 -0.037540115 0.10160909 -0.05896206 -0.120762534 0.057769693 0.012620761
-0.04409371 0.09598837 0.09303264 -0.04181132 -0.09146285 0.134195 0.17072976 -0.04538493
-0.09941915 -0.0041700206 -0.08433655 -0.06213044 -0.051028416 0.12844308 -0.04201065 0.08027555
0.05975132 -0.04371735 -0.14401615 0.069784366 -0.037578925 -0.13925551 0.08641938 -0.04657042
-0.07496684 0.05882391 -0.091593474 -0.0151225515 0.00664731 -0.039784268 0.01586086 0.018318852
-0.1351799 -0.15041521 0.106029026 -0.12171468 0.064689726 -0.035855312 -0.08852619 0.023818271
0.13521284 0.011245551 -0.07803551 0.0815982 0.0025910367 -0.023279808 -0.090174705 0.016264472
-0.0129764695 -0.037091188 -0.092526585 0.013059432 0.046224523 0.09631675 -0.048092328 -0.0652294
-0.16636637 0.08526385 0.06891107 -0.14621721 -0.11873007 -0.10363539 0.14973974 0.033335432
-0.07684576 -0.00854892 0.14128827 -0.049215186 0.108562596 0.01653799 -0.09145562 -0.061904512
-0.19405979 -0.0172228 0.01805679 0.12572114 -0.025477171 -0.0040149046 -0.06950883 -0.03516756
0.043629523 -0.055589456 0.003530599 -0.0020350101 -0.065110765 -0.0034945956 0.018005267 -0.16793998
-0.13450988 -0.05742759 0.04380182 0.026377277 0.0011304818 -0.04000758 0.004239575 -0.009170722
0.07815982 0.083889246 -0.02219724 -0.026455209 0.07150221 0.018534593 -0.06462494 -0.059063766
0.07548626 0.06026274 0.03243043 0.06775841 -0.0052636354 0.025162792 -0.19827148 -0.0017049321
-0.0695683 0.14184599 0.17315339 -0.07888965 0.021061096 0.16151915 0.050980873 0.109688446

layers.0.ssm.dt_proj_layer.bias f4 [64]
00000000: 22fa 8fbd 6150 78bd 7f52 0bbe 58ef c0bd
00000010: 240c 4cbe 6b67 ef3d d2ef 273e b537 13be
00000020: e583 08be ea61 0fbe 8f50 50bd 2e27 e63d
00000030: d7f9 b9bd 675f e6bd 276c e7ba af9e 643c
00000040: bb50 313e aba0 a9bd 01fb 963d 0713 0e3e
00000050: 2c5f 4abd a974 293d a4a0 173e 456c 9c3c
00000060: 7bbf 17bd c409 07be 6e92 fd3c 4fc9 b33d
00000070: c69b 4c3e c8b7 dbbd 5eb6 363e 5337 223e
00000080: 939e 7d3c 8336 163d 535f eebd 5a16 5a3d
00000090: cb62 3ebd 9a6b 0bbe 5889 6d3c 1686 0bbe
000000a0: 1d41 edbd 2fa0 cb3d b2e6 dc3d 6356 33be
000000b0: 05ee 3b3d 5a7c 223c 332a 393b 960a 103e
000000c0: 569f 9cbc 9863 713d 716e 253d 6e86 3b3b
000000d0: 973b 2f3e 573d 093d 94e6 3f3e 100a 113e
000000e0: c337 79bd 0ef5 46be 5e14 2dbe 367d aabd
000000f0: 6652 adbd 072a 2d3d 5ccc 2dbc 9075 2e3d
-0.07030131 -0.06062353 -0.13605689 -0.09420651 -0.19926506 0.11689647 0.16400078 -0.1437672
-0.13331564 -0.14002195 -0.050858077 0.11237942 -0.09080856 -0.11248665 -0.0017656133 0.013953849
0.17315952 -0.08282598 0.07372094 0.13874446 -0.04940717 0.04137102 0.14807373 0.019094596
-0.037047844 -0.13187319 0.030953612 0.08778631 0.19981298 -0.10728413 0.17843005 0.15841417
0.015479702 0.03667308 -0.116392754 0.053243972 -0.046480935 -0.13615265 0.014498077 -0.13625368
-0.11584685 0.09942662 0.10786189 -0.17513423 0.04588129 0.009917343 0.0028253912 0.14066538
-0.019118946 0.05893287 0.04038853 0.0028614062 0.17112575 0.033505764 0.18740302 0.14163995
-0.060844194 -0.19429418 -0.169023 -0.08324663 -0.08462982 0.04227641 -0.010607805 0.042592585
