pengujian/pengujian_split_data/90-10/cnn/cnn_model_3.pth (torch, 320240 bytes, 3 tensors)

conv1.weight f4 [4, 1, 4, 4]
00000000: d89e 113d 41cb 32bc 5c3d 673e 3cbd 25be
00000010: 91a4 703e 8496 77be 9b7a 9d3d f2b2 053d
00000020: 8557 23bd 88f0 693e bdf4 64be bd55 373e
00000030: 6b4c 2e3c a05e 15be d7c1 be3d 9350 e5bd
00000040: 0c48 8cbe f230 4ebe dd54 3dbe 73ac 093e
00000050: 6357 8abe 0f78 10be 139a b5bd c41b 293c
00000060: a4c6 2d3e 0636 153e 88ed d83d 34bc a4bd
00000070: e1ed 8abe 242b b4bd 382f 27be c4ce 85be
00000080: 0a95 4bbd 1152 373e 6b2c 1d3e f135 32be
00000090: f93e 1dbe bbb8 533e 465c 813e 94d2 61be
000000a0: f482 943d b220 d5bd d540 803e 2fa9 39be
000000b0: 1906 db3d 673c 4ebe 7ce0 5a3e e7d0 04be
000000c0: 3815 73bc b04e 08be 8599 6fbe 4b92 0a3b
000000d0: dd03 773d 0b94 333e 0a4a 2a3e baea 4f3e
000000e0: 6197 403e 509a 85be 807c babc 757b 27bd
000000f0: 3a4c c8bd ab14 593e 5cfd a6bd a820 0c3e
0.035551876 -0.010912717 0.22582 -0.16185468 0.23500277 -0.24178511 0.07689401 0.03264136
-0.039878387 0.22845662 -0.22358985 0.179038 0.010638337 -0.14586878 0.09314316 -0.11197009
-0.27398717 -0.20135859 -0.18489404 0.1344469 -0.27019796 -0.14108299 -0.08867278 0.010321561
0.16970307 0.1457139 0.105921805 -0.080437094 -0.27134612 -0.08797291 -0.16326606 -0.26134312
-0.04970268 0.179024 0.15348975 -0.1740339 -0.15356053 0.20675938 0.25265712 -0.22052985
0.0725154 -0.10406627 0.25049463 -0.18130945 0.106945224 -0.20140229 0.21374696 -0.12970315
-0.014836602 -0.13311267 -0.23398407 0.0021144326 0.06030642 0.17536943 0.16629806 0.20304385
0.18807746 -0.26094294 -0.022764444 -0.040889222 -0.09780164 0.2119929 -0.08153793 0.13684332

conv1.bias f4 [4]
00000000: 77ac ad3c 8142 4abe 313d 40be c92c 033e
0.021200402 -0.19751932 -0.18773343 0.12810053

fc1.weight f4 [1, 79524]
00000000: 51c3 1f3b bc3a 49bb 0e9a 123b ec2f a537
00000010: 5caa 12b7 1efb 4db6 cc4d aabb b15f 00bb
00000020: 266b 82bb dbcb 99ba 8f78 ed39 411f 0ebb
00000030: 14c4 63bb 73ee 1c3b 0a96 2ebb 25fc ddba
00000040: aa4c ae37 8334 daba cf83 5cba 0e2c 98ba
00000050: 71b6 2bbb 4639 a0b6 0473 76bb a60a b4ba
00000060: 4a39 3837 3fe6 1538 dac4 f136 8c6c 043b
00000070: 2ac9 263b 91fb c5b7 7005 3e39 2868 27ba
00000080: b104 1ebb 374c cab6 bf39 51bb 34cc 5d35
00000090: 6e6e 8fb6 10ff b237 d962 7337 5b7a cfba
000000a0: 6708 df39 9750 2bba 303c 3eba 2e14 24b7
000000b0: ea8d eab5 781c 8239 a2d7 e3ba f6cb 633a
000000c0: 120f ab3a 6d8e adba fb5d 98bb 14fb e8bb
000000d0: fb5d 98bb 0eb4 8d36 8615 603a 8570 09bb
000000e0: a7d0 3839 66be 8eba 11ba e13a 96eb 223a
000000f0: 99db 013b 4237 3c3a 4c2a 9f39 a120 463b
00000100: 5c2a 08ba 384c 2a38 3175 e0b7 7237 ec37
00000110: 30ca 6a37 58fc 1338 930e 81bb 59cf c9ba
00000120: 6a77 30bb cf7d 6437 c53b b6ba d2a5 38bb
00000130: 86ca 3737 695e 853a d305 3f3b 61b7 c537
00000140: 8a15 533b a7e8 7e3a 0b86 9437 9da5 5638
00000150: 39f8 e13a 080d e237 88f1 8c37 2f82 293b
00000160: a5b3 a73a e1f0 8838 ca03 b63a 98e3 6038
00000170: 78ed 3436 80f9 af34 3267 01bb 9aff 113b
00000180: 73ec 633a fd71 3f3b 3761 993a 5574 183b
00000190: e01c 7bb6 646f eb37 c7b0 163b 5d5f 7b3a
000001a0: 9642 8439 5b7d b83b 0d14 d83a cc00 4e36
000001b0: 3243 a83a db03 a23b 85eb b73a 4d8c 2838
000001c0: b2ed 1439 f1de 8e38 2a46 8838 62bd 8b3a
000001d0: 79d7 953b bb4d 7d3a a19e 453b 6e37 743a
000001e0: e807 d3b5 5fea 3b3a b176 b93a 9145 4d3a
000001f0: c65f 9c38 4d45 8e38 c4ba 8738 663c 453b
00000200: 9a91 353b 80bb 8538 69d2 773a 5ef9 5738
00000210: 2e7a 4ab7 23cc 53b7 8c99 15bb cb67 48ba
00000220: a62c dd39 1d96 a03a 80ac 5537 69e9 7d3b
00000230: 952a 0c3a 6fbb 1537 f087 303a 1ead 75bb
00000240: 658e 23bb e536 b2ba c40f 463b 61e9 cd3a
00000250: a75e 8238 e330 0038 6dd0 59bb 3f61 0cba
00000260: 825f 6bbb c47b 8b39 4d5e 32bb 5609 383a
00000270: f893 a13a b372 0437 70c6 1cbb a526 953a
00000280: 6814 b639 1f75 00bb 1af9 5b3a ea14 6bba
00000290: 9bd1 3b3a 1147 c83a e8f7 3238 a627 e436
000002a0: cc62 0abb e320 deba 2fe7 1ebb d862 f337
000002b0: 7089 b1b6 93fd 85ba b532 c6ba f6d1 d63a
000002c0: 893d 8d38 f8f8 353b 24ef 8838 967d 033a
000002d0: 2ab2 30bb f1e8 d039 2dad 3ebb a5b1 a8b6
000002e0: 0bff 8cb6 d428 d6b5 9db0 4238 9ad6 9db9
000002f0: 6151 83bb 275b 33ba bccd b0ba cce2 3136
00000300: 8bd6 833b 1f06 c137 b711 e73a fdfc 0cbb
00000310: 3780 b1b9 fcaf fa38 eed6 063a 19d4 e938
00000320: 4db3 9638 80c4 013a d07f 78b6 c62a db37
00000330: c9e4 523b ea39 173b 6229 f9b7 d8ed cd3a
00000340: 8137 6c38 60c0 9c3a 50b6 93bb 05b0 9fb9
00000350: 1f85 33ba 7a25 083a 5802 92ba 8413 3739
00000360: 891c 8839 604a d23a 8e25 3fb7 3063 b338
00000370: 71d4 2cb8 321f 2138 2859 613b 28de 5a37
00000380: dd03 de3a 4663 b13a 9388 7b38 80a0 61b7
00000390: 28b5 bfb7 1179 c0b9 72f2 cab7 5a7a 58b8
000003a0: 16ab 7c36 f22e bdb6 a4e7 37b6 7dff 6337
000003b0: 2846 81ba c074 6c3b 71bf 8d3a 5b90 983a
000003c0: 5fa8 e13a 9752 aeb9 c6d0 3139 93a3 c53a
000003d0: 15d8 b33b 2981 ea39 5fad db3b c4cb 013b
000003e0: 97d9 003b aed6 f13a 307b 8737 f132 a03a
000003f0: 6aaa 34b7 c149 3d3b e473 673b a4c1 6c3b
0.0024377892 -0.0030705174 0.0022369656 1.9691848e-05 -8.741943e-06 -3.069355e-06 -0.0051972624 -0.0019588287
-0.0039800582 -0.0011733727 0.00045293986 -0.002168611 -0.0034754323 0.0023945838 -0.0026639723 -0.0016936107
2.0778116e-05 -0.001664773 -0.0008411975 -0.0011609809 -0.0026201273 -4.775039e-06 -0.0037605176 -0.0013736084
1.0980593e-05 3.57388e-05 7.2052762e-06 0.00202063 0.0025449493 -2.3601375e-05 0.00018121838 -0.0006386065
-0.0024111683 -6.0289417e-06 -0.0031925288 8.262607e-07 -4.274588e-06 2.1338026e-05 1.4506943e-05 -0.0015829311
0.00042540135 -0.0006535141 -0.00072568934 -9.77986e-06 -1.7475661e-06 0.00024816743 -0.0017382989 0.00086897553
0.0013050756 -0.0013241299 -0.004649875 -0.007110009 -0.004649875 4.2230886e-06 0.0008548129 -0.0020971608
0.00017625336 -0.0010890483 0.001722159 0.00062149146 0.0019814728 0.0007179865 0.00030358357 0.003023185
-0.00051943003 4.0602143e-05 -2.6757452e-05 2.8159211e-05 1.3994562e-05 3.5282545e-05 -0.003938505 -0.0015396877
-0.0026926645 1.3619151e-05 -0.0013903311 -0.0028175008 1.0954804e-05 0.0010175231 0.0029147759 2.3569622e-05
0.0032208883 0.0009723999 1.7705393e-05 5.1175815e-05 0.0017240114 2.6947368e-05 1.6801772e-05 0.002586495
0.0012794627 6.5298525e-05 0.0013886627 5.3617725e-05 2.6960315e-06 3.2777825e-07 -0.0019745347 0.0022277595
0.00086945965 0.002921223 0.0011701946 0.0023262699 -3.7418722e-06 2.8066053e-05 0.002299355 0.00095891004
0.00025226612 0.005630178 0.0016485468 3.0696856e-06 0.0012837409 0.0049443073 0.0014031982 4.0184987e-05
0.00014202928 6.812614e-05 6.4980544e-05 0.0010661299 0.0045728055 0.0009662767 0.0030154365 0.0009316121
-1.5723026e-06 0.0007168408 0.0014149753 0.00078304956 7.456499e-05 6.783996e-05 6.4720894e-05 0.0030095815
0.0027705193 6.376859e-05 0.0009453656 5.1492236e-05 -1.2068585e-05 -1.2624109e-05 -0.0022827117 -0.0007644861
0.0004218567 0.0012251768 1.2735953e-05 0.003874386 0.00053469214 8.924732e-06 0.00067341235 -0.003748722
-0.00249567 -0.0013596682 0.00302218 0.0015709811 6.2165134e-05 3.0563107e-05 -0.0033235804 -0.0005355067
-0.0035915081 0.0002660436 -0.0027216852 0.0007020434 0.0012327423 7.894519e-06 -0.002392199 0.0011379315
0.0003472895 -0.001960106 0.0008391306 -0.0008967655 0.00071647175 0.0015279969 4.2669388e-05 6.799545e-06
-0.0021116016 -0.0016947057 -0.0024246683 2.9013885e-05 -5.291011e-06 -0.0010222666 -0.0015121313 0.0016389478
6.734866e-05 0.0027766805 6.529529e-05 0.0005015967 -0.0026961663 0.00039846406 -0.002909492 -5.0274707e-06
-4.202016e-06 -1.5956125e-06 4.641769e-05 -0.00030105264 -0.004007504 -0.0006841891 -0.0013489048 2.6507068e-06
0.0040233782 2.3010243e-05 0.0017629181 -0.0021513097 -0.00033855598 0.000119537086 0.00051437214 0.00011149812
7.185955e-05 0.000495024 -3.7029276e-06 2.6126752e-05 0.0032179824 0.002307529 -2.9702383e-05 0.0015711142
5.6318477e-05 0.0011959188 -0.0045078173 -0.00030457988 -0.00068481447 0.0005193573 -0.0011139615 0.0001745951
0.00025961202 0.0016043894 -1.1393231e-05 8.55386e-05 -4.1205847e-05 3.8414444e-05 0.0034385417 1.3045537e-05
0.0016938407 0.0013533614 5.9970258e-05 -1.3448414e-05 -2.2853332e-05 -0.00036711295 -2.4193174e-05 -5.1612362e-05
3.7650511e-06 -5.638104e-06 -2.7403958e-06 1.358974e-05 -0.0009862827 0.003608033 0.00108145 0.0011639701
0.0017216316 -0.000332494 0.0001695781 0.0015078656 0.0054884055 0.0004472819 0.006704017 0.0019805292
0.0019660944 0.001845082 1.6150618e-05 0.0012222213 -1.0768514e-05 0.0028883072 0.003531688 0.003612616
