pengujian/pengujian_split_data/90-10/cnn/cnn_model_2.pth (torch, 320240 bytes, 3 tensors)

conv1.weight f4 [4, 1, 4, 4]
00000000: ab4b 193e b46c 343e 3e91 e73d cabb 29be
00000010: b1db 903d 3958 073d 66cc 46bd 5ced 17b7
00000020: 5e54 35be 28af 50be 1c1e 2cb7 758e 693d
00000030: 6bcb c6bd 6d09 243e 1afd 5ebe 752b 5f3e
00000040: 55a7 b0bd 231d e6bd 3599 22be 9277 40be
00000050: ae64 30bd 5937 2b3d 8ab3 98bd 061a 44be
00000060: 00fc 2ebe 8ff0 23be ecc0 6e3c e628 513e
00000070: 898e bfbd 6693 86bd dd10 9fbd 5755 12be
00000080: 65a4 d13d b425 c43b 6d0d 11be 65cb 1bbd
00000090: 3be8 e83d e68a 0d3e 0cab 893e 024a 18be
000000a0: 98bd 32be 5aea c4bd bff2 6c3e 3c14 1c3e
000000b0: 502e 38be f0a8 4fbe 1645 203e 5174 4dbe
000000c0: 2694 28be e13a 463e def8 2abe 77cd 5d3e
000000d0: 5194 11be df33 3f3e 3b3d 24be b584 0e3e
000000e0: 6ed4 423e edf9 c5bd 5b60 3b3e bbff 34be
000000f0: 8530 f9bd 16ac 4d3e 234b 2dbd afad a13d
0.14970271 0.17619592 0.113069996 -0.16575542 0.07073153 0.03304312 -0.048534773 -9.055566e-06
-0.17707965 -0.20379317 -1.0259009e-05 0.057020623 -0.09706768 0.1601922 -0.21776238 0.21793921
-0.08625666 -0.11236026 -0.15878756 -0.18795612 -0.043064766 0.04180083 -0.07456119 -0.19150552
-0.17088318 -0.16009735 0.014572363 0.20425758 -0.09353358 -0.06571083 -0.07766888 -0.14290367
0.10236434 0.00598594 -0.14165278 -0.03803577 0.113724194 0.13822517 0.2688831 -0.14871982
-0.17455137 -0.096150115 0.23139475 0.15242094 -0.17986417 -0.20279288 0.15651354 -0.20063902
-0.16462764 0.19358398 -0.16696498 0.2166041 -0.14216734 0.18672131 -0.16038983 0.13917811
0.19026348 -0.0966681 0.18298475 -0.17675678 -0.121674575 0.20085177 -0.042307984 0.07894456

conv1.bias f4 [4]
00000000: de5b 4cbe 25df c33b 8ce0 4cbb 5c56 a63d
-0.1995692 0.0059775286 -0.003126177 0.081219405

fc1.weight f4 [1, 79524]
00000000: f101 0a3d a91b 68b6 828b 313c dd43 c6b6
00000010: e136 8f35 d6c4 81b6 dcf0 5ab6 012a e236
00000020: 1556 2037 9430 e7b6 f281 b536 c3e5 92b6
00000030: 40ad 2e36 c175 3c38 1c84 f0b6 90a4 e4b4
00000040: ef81 15b6 cba1 a3b6 803d 2536 9fa5 c0b6
00000050: 4c63 dcb6 bed2 0636 8e0d 7837 77ba 86b5
00000060: ea3e 72b7 2416 da35 5c05 10b7 fef4 b936
00000070: deca 9335 f2a3 86b6 dadc 7836 5463 f436
00000080: e832 2ab6 c423 a5b5 eb83 9cb6 5b08 17b7
00000090: 87ed a135 0006 8336 345c 4735 101c b736
000000a0: 1ecf 9936 16dd d536 115e dd35 f42d bab6
000000b0: 1063 94b4 3816 55b6 fcd5 2bb7 a6c9 7036
000000c0: 4340 22b6 089a c3b6 9a26 2bb6 8bbc e9b6
000000d0: c627 fbb5 7482 d1b6 c29a b836 b15a f936
000000e0: e232 e836 34e4 6e36 afb1 6c36 830d 9336
000000f0: 1677 d937 11bd 0c37 fd79 94b6 2046 fbb4
00000100: 64b6 0a36 405f c334 20a1 3834 26a7 24b5
00000110: 46df adb6 807e 3fb7 7c3f 14b6 1053 9935
00000120: e632 0e37 ba5c 0737 f56a 12b6 748f c736
00000130: 5038 7436 f43c d6b6 6a93 f535 dceb f433
00000140: 06c6 b0b6 8f29 f3b6 90e0 40b5 2caf a436
00000150: 3099 9835 c256 c7b6 0150 f5b6 89a0 0537
00000160: 20a6 adb6 ac04 9736 c289 8935 e264 28b6
00000170: 60b0 40b4 3a71 9735 2a70 37b6 e062 a5b3
00000180: 206b 8d34 f0f4 feb4 2cba fd35 b26b 60b7
00000190: 8cf3 9bb6 c82b ea34 c23b 6eb6 e2d4 f036
000001a0: 608d 46b6 9a57 1737 a0d9 ebb5 0295 cfb6
000001b0: 0ce7 1f37 ecc8 cc36 809f 68b7 f1e2 0a36
000001c0: 6041 c6b6 b6bc c536 edc8 ca36 10c1 8b34
000001d0: 8e5a 00b6 7df6 c3b6 5a03 5836 5432 9336
000001e0: 595d 0e36 3e3c 8736 4d77 3db6 6a2e 7c37
000001f0: 3c45 3036 5cee 64b6 6a9d bdb6 b3c2 1037
00000200: 60cf b036 f2d6 d6b5 a720 8e36 dfcc 2e36
00000210: 3c00 92b6 5c6c 8037 f0eb 73b5 0a22 ee36
00000220: b8dc 96b5 1ccf 4537 d4e0 0b37 c7cd 6836
00000230: 60a9 b7b4 9abc a2b6 05a3 1537 e564 1fb9
00000240: 87a7 adb6 7ac1 8436 6038 f336 c087 4c33
00000250: 6854 23b7 2340 9d36 00ec 91b0 90a7 5b35
00000260: 0a63 1ab9 3ca0 9e37 1728 dd36 6479 a335
00000270: ac90 e0b8 b837 fbb6 5c60 9436 aa3f 2fb7
00000280: b83a f5b6 7811 27b6 ba43 f2b5 ba74 dfb6
00000290: 651f d1b6 aa2f 3336 bbf3 6ab7 a332 b336
000002a0: fad9 67b7 c3d0 af37 dd87 44b7 5f86 1737
000002b0: 60d9 5d37 6355 9136 0cda 5cb6 fee8 e535
000002c0: 78d7 75b3 b734 edb6 8255 3636 662b 1236
000002d0: b6f3 38b7 647c f836 d48f 8f38 f0e6 2936
000002e0: b4f7 d6b5 4d09 83b6 1837 0db7 5046 7b35
000002f0: 7469 e636 0040 ad36 ff47 98b6 4b09 a6b6
00000300: 0e2f 2635 30c2 77b5 b535 c436 28e2 5537
00000310: 3032 7bb6 f01c f136 a41c a9b7 9c50 beb5
00000320: 0606 3f36 b69f 5338 2c49 05b7 9ea3 0eb7
00000330: be77 54b6 588a ff37 4358 d0b6 2262 8436
00000340: 0839 87b6 b063 ae36 40cb 8bb6 f4e3 0d36
00000350: 235a ba36 50a4 9cb5 9203 aeb6 6085 8db4
00000360: c3e0 ac38 8ef4 b738 4c3a d836 9569 56b6
00000370: fca3 7fb7 6828 b7b6 ccbf 62b7 50f2 92b4
00000380: 310e c335 1cf7 a6b5 8a3a 8b36 1658 aeb6
00000390: 7e2d ca36 84c2 16b7 d01c 1735 fcd6 c5b6
000003a0: 4d1c 2237 1e02 0935 e55a 3137 cc33 d635
000003b0: 72d6 87b7 d858 07b7 7834 5e37 7a60 3936
000003c0: f0c8 4035 6c08 e035 e0a7 7f36 80c9 cb34
000003d0: fef5 42b7 4d64 35b6 a22d 87b6 50eb b9b6
000003e0: 5616 9fb6 7cd5 1236 5351 0e37 2669 2cb7
000003f0: a43a c336 f8eb 6335 9adb 33b6 9bbc acb6
0.033693258 -3.4586794e-06 0.010836484 -5.90876e-06 1.0670302e-06 -3.8674143e-06 -3.262473e-06 6.7402148e-06
9.556786e-06 -6.8899917e-06 5.409348e-06 -4.377887e-06 2.6028865e-06 4.493236e-05 -7.167937e-06 -4.2588044e-07
-2.2278361e-06 -4.8766137e-06 2.4622714e-06 -5.7413267e-06 -6.5680706e-06 2.0090224e-06 1.4785108e-05 -1.0038046e-06
-1.4438972e-05 1.624871e-06 -8.584317e-06 5.5419505e-06 1.1011396e-06 -4.012597e-06 3.7083432e-06 7.28333e-06
-2.5361605e-06 -1.2303867e-06 -4.6645196e-06 -9.002247e-06 1.2064564e-06 3.9048027e-06 7.426745e-07 5.457092e-06
4.583867e-06 6.3736325e-06 1.649316e-06 -5.5485816e-06 -2.7639226e-07 -3.1752406e-06 -1.0242216e-05 3.5880162e-06
-2.4177286e-06 -5.8293845e-06 -2.5503455e-06 -6.9658904e-06 -1.8712533e-06 -6.243872e-06 5.5016435e-06 7.431336e-06
6.9200623e-06 3.5597595e-06 3.5270166e-06 4.3825144e-06 2.592387e-05 8.388671e-06 -4.424945e-06 -4.6803416e-07
2.0669768e-06 3.6390884e-07 1.7194952e-07 -6.1337994e-07 -5.181794e-06 -1.141394e-05 -2.2090671e-06 1.1423563e-06
8.47571e-06 8.068217e-06 -2.1817953e-06 5.9473623e-06 3.6391612e-06 -6.384793e-06 1.8296826e-06 1.1405038e-07
-5.2682617e-06 -7.2468024e-06 -7.1852355e-07 4.9079736e-06 1.1369466e-06 -5.940762e-06 -7.3108827e-06 7.964795e-06
-5.1751413e-06 4.5006946e-06 1.0247388e-06 -2.5092672e-06 -1.7945558e-07 1.128333e-06 -2.7334413e-06 -7.7013965e-08
2.634124e-07 -4.7489402e-07 1.8904152e-06 -1.3376515e-05 -4.6477126e-06 4.3617752e-07 -3.5499547e-06 7.17734e-06
-2.958659e-06 9.020698e-06 -1.7572202e-06 -6.1864275e-06 9.530933e-06 6.103064e-06 -1.3865414e-05 2.06957e-06
-5.9084705e-06 5.8930264e-06 6.04346e-06 2.603124e-07 -1.9126196e-06 -5.840148e-06 3.218846e-06 4.3868004e-06
2.1213984e-06 4.0303266e-06 -2.8232637e-06 1.5031177e-05 2.6266343e-06 -3.411339e-06 -5.6509643e-06 8.628401e-06
5.2693504e-06 -1.60068e-06 4.235731e-06 2.6047271e-06 -4.3511664e-06 1.5309248e-05 -9.086789e-07 7.0969154e-06
-1.1240109e-06 1.1790336e-05 8.3373925e-06 3.4690472e-06 -3.4209643e-07 -4.8499323e-06 8.919048e-06 -0.00015201008
-5.1753045e-06 3.95643e-06 7.2485273e-06 4.7620915e-08 -9.7352095e-06 4.686431e-06 -1.0617214e-09 8.1827693e-07
-0.0001472348 1.8909683e-05 6.5909803e-06 1.2179776e-06 -0.000107080996 -7.4868694e-06 4.4219614e-06 -1.0445636e-05
-7.3084047e-06 -2.4895107e-06 -1.8050116e-06 -6.6595067e-06 -6.23234e-06 2.6700823e-06 -1.4004235e-05 5.3405106e-06
-1.3819425e-05 2.0958838e-05 -1.17141435e-05 9.031587e-06 1.3223238e-05 4.331277e-06 -3.2909475e-06 1.7129639e-06
-5.7239475e-08 -7.069287e-06 2.7169885e-06 2.1780957e-06 -1.1023998e-05 7.405457e-06 6.8455614e-05 2.5317386e-06
-1.6016334e-06 -3.905187e-06 -8.417082e-06 9.3607105e-07 6.8668105e-06 5.1632524e-06 -4.5383345e-06 -4.9482674e-06
6.190829e-07 -9.229725e-07 5.8475075e-06 1.2748445e-05 -3.7431128e-06 7.1857285e-06 -2.0159707e-05 -1.4179564e-06
2.8464724e-06 5.0455063e-05 -7.944454e-06 -8.501955e-06 -3.166016e-06 3.046279e-05 -6.209158e-06 3.9453307e-06
-4.029953e-06 5.1972092e-06 -4.166184e-06 2.1143323e-06 5.5537253e-06 -1.1670727e-06 -5.1860197e-06 -2.636034e-07
8.243464e-05 8.771672e-05 6.4440883e-06 -3.1949942e-06 -1.5237365e-05 -5.458529e-06 -1.3515306e-05 -2.7370925e-07
1.4532762e-06 -1.2439882e-06 4.1493377e-06 -5.1958586e-06 6.025365e-06 -8.985986e-06 5.629381e-07 -5.896085e-06
9.662542e-06 5.103956e-07 1.0571185e-05 1.5959317e-06 -1.6193113e-05 -8.067313e-06 1.32444475e-05 2.7623305e-06
7.1817976e-07 1.6691752e-06 3.8095677e-06 3.7958307e-07 -1.1620576e-05 -2.7029484e-06 -4.028626e-06 -5.5408236e-06
-4.7411695e-06 2.187996e-06 8.482794e-06 -1.0276481e-05 5.8182795e-06 8.490747e-07 -2.6800903e-06 -5.147956e-06
