pengujian/pengujian_random_23/cnn/cnn_model_1.pth (torch, 320240 bytes, 3 tensors)

conv1.weight f4 [4, 1, 4, 4]
000000 7c ff 0e 3e 2c bb 42 3e 2c 33 7f 3d ea 73 67 be
       0.13964647 0.19016713 0.06230466 -0.22602811
000010 19 4f 5a 3b 24 c0 68 3e d6 36 16 3d 42 37 5a 3e
       0.0033311306 0.22729546 0.03667339 0.21310142
000020 1f a3 03 3e 3c ff d6 3c 16 00 41 be 2c a8 e2 bd
       0.12855195 0.026244752 -0.18847689 -0.110672325
000030 1b ae f7 bd 33 ef 7a 3e 54 70 b4 3d ed f8 16 be
       -0.12093755 0.2450531 0.088104874 -0.14743395
000040 08 69 5e be dd eb 42 3a 84 2b 84 be bc 88 31 3d
       -0.21719754 0.0007435659 -0.2581445 0.04334329
000050 15 9a 08 3e da 71 39 be 06 c0 15 be 1b 73 cf 3d
       0.13340028 -0.18109837 -0.14624032 0.101293765
000060 29 c3 83 be 5f 9b 73 be 2c 87 45 be 5d a0 80 be
       -0.25734833 -0.23789738 -0.19289845 -0.25122347
000070 cc fe 3d bd 4d 1b 0c be 23 04 53 be 26 02 9b bd
       -0.04638557 -0.1368229 -0.20607047 -0.07568769
000080 5c 5b 7c 3e 53 b1 04 bd c5 2a 5d 3e 98 ae 39 3e
       0.24644226 -0.032395672 0.21598347 0.18133008
000090 4f fb 5a 3c 24 8d f4 bc a3 9a 04 bd 31 ec e7 bd
       0.013365581 -0.029852457 -0.032374036 -0.11324347
0000a0 62 f1 b0 bd c9 2f 16 3e 6f 10 67 3e 0a ac 6d be
       -0.0863979 0.14666666 0.22564863 -0.23210159
0000b0 28 23 b3 bd a5 dd 6b be 11 e5 a0 bd 07 b2 47 be
       -0.0874694 -0.2303377 -0.07856191 -0.19501506
0000c0 c9 e1 80 be 89 b9 55 be 73 15 01 3d 71 62 42 be
       -0.2517226 -0.20871557 0.031514596 -0.18982865
0000d0 fe 84 65 be d8 3b fc bc 2b 3e 33 3d aa a1 4c bd
       -0.22414014 -0.030790254 0.04376046 -0.049958862
0000e0 d5 6d 55 be c0 2f e5 3d 95 2b 9f bc ac 43 74 be
       -0.20842679 0.11190748 -0.019429961 -0.2385394
0000f0 74 54 d6 3d 16 74 87 3e 05 aa 1c be 2a 71 5c 3e
       0.10465327 0.26455754 -0.15299232 0.21527544

conv1.bias f4 [4]
000000 bd 73 c6 bd cf 37 3d be 09 41 3b 3d cc de 91 3d
       -0.09690044 -0.1847832 0.04571632 0.07122573

fc1.weight f4 [1, 79524]
000000 58 df d2 bb a7 7c 8f bb b6 cc b3 b7 f4 37 42 37
       -0.006435316 -0.0043788734 -2.1433789e-05 1.1576329e-05
000010 36 4b 23 bc a2 48 32 38 38 d3 03 39 cc 8e 84 b8
       -0.009966662 4.250615e-05 0.00012571819 -6.3208485e-05
000020 2e f4 18 37 2f 52 19 39 5e 93 92 b7 e9 28 d0 ba
       9.1167585e-06 0.00014621833 -1.747318e-05 -0.0015881333
000030 90 10 72 bb 3b 62 5e b9 cf c8 07 3b ac 27 b4 37
       -0.0036936142 -0.00021208164 0.0020719056 2.1476146e-05
000040 12 9a a0 38 c8 78 4c b6 7c 68 0f 3b af 28 1b b8
       7.658092e-05 -3.0468673e-06 0.0021882346 -3.699277e-05
000050 3e ff 8a 37 77 02 dd 38 7a da b8 38 e4 1e 58 38
       1.6569738e-05 0.0001053856 8.814498e-05 5.1527182e-05
000060 2a da 0d 38 32 fd 32 38 98 bb 9f 37 6e 3e e3 3b
       3.38202e-05 4.2674314e-05 1.9041632e-05 0.0069349324
000070 db 19 6a bb 74 45 55 39 cc fd da b6 bb 6c 0c ba
       -0.0035720977 0.00020339136 -6.526452e-06 -0.0005356778
000080 78 4c 4d b8 4a c5 ba 38 94 ce 3a 38 e6 32 88 38
       -4.8947026e-05 8.905919e-05 4.4538247e-05 6.494466e-05
000090 8f 1e 61 37 be 6e 91 38 ca 7e 0e b8 e5 32 77 39
       1.341816e-05 6.934766e-05 -3.397352e-05 0.00023574715
0000a0 92 16 00 b7 68 85 7a 39 44 ad d6 b8 e2 10 b2 b8
       -7.63465e-06 0.00023891556 -0.000102365884 -8.490846e-05
0000b0 0d 38 c7 b8 87 a1 a0 3b 33 e1 ec ba 1f c8 1e ba
       -9.4995e-05 0.004902068 -0.0018072486 -0.0006057042
0000c0 04 b4 b7 ba a6 3c e4 b6 d0 93 3a b8 20 20 45 34
       -0.0014015441 -6.80199e-06 -4.4483517e-05 1.8358742e-07
0000d0 c0 16 52 38 b5 18 87 38 dd 6f dc 37 59 73 82 38
       5.008909e-05 6.441904e-05 2.6278134e-05 6.220368e-05
0000e0 9e 81 4d bb 36 de ba b7 7f 03 27 3c 8e 17 5d b8
       -0.0031357775 -2.2276403e-05 0.010193705 -5.2712443e-05
0000f0 79 62 60 3c 63 40 48 3c 82 ad 94 bb 76 b3 c4 b9
       0.013695353 0.012222382 -0.0045372853 -0.00037517742
000100 89 cd 8c 3b 4b 31 96 b8 a6 3b a2 b7 ba cd ce 39
       0.0042969626 -7.161739e-05 -1.933968e-05 0.0003944466
000110 41 fc d6 3b 66 56 8e 3b 0e a2 11 b9 db e4 0f bb
       0.0065608327 0.0043437956 -0.00013888648 -0.0021956477
000120 90 41 26 b9 1b 4a cc bb 43 0b 13 38 b9 77 2f 39
       -0.00015855418 -0.00623442 3.505802e-05 0.000167339
000130 80 96 c0 b4 d1 33 fa 39 ac 85 9c 3b dc 36 be 38
       -3.587229e-07 0.00047722322 0.004776677 9.070124e-05
000140 05 ce 2b 39 04 a3 ec 38 fa 27 f9 38 28 59 3c 3b
       0.00016384579 0.00011283721 0.000118806915 0.0028739665
000150 be 38 f9 38 81 e4 c8 38 ca bc 9e 38 ea ec 86 38
       0.00011883814 9.579305e-05 7.569192e-05 6.4337466e-05
000160 85 1a 79 3c 9a bc ff 38 a7 31 fd 3b 84 09 5e b6
       0.015204077 0.00012194477 0.0077268663 -3.3086117e-06
000170 76 c7 bc b7 26 9d 63 b7 25 f8 de 37 45 37 d9 38
       -2.2504228e-05 -1.3566843e-05 2.6580014e-05 0.00010357661
000180 fc 57 83 38 8c d5 6b 38 cd 6a ae 38 c0 e8 cf 38
       6.262955e-05 5.6227247e-05 8.31686e-05 9.913882e-05
000190 8b 80 9f 38 ff b1 92 3a 40 dd 54 3c 9b 82 01 3b
       7.605654e-05 0.0011191963 0.012992203 0.0019761685
0001a0 82 a5 13 3b 6b 10 f9 3b 85 c9 12 38 50 38 07 37
       0.002252907 0.007600834 3.4996792e-05 8.059738e-06
0001b0 f5 3a 81 3b 37 1c e3 38 86 e6 f6 b5 68 92 d1 36
       0.003943796 0.00010829459 -1.8395519e-06 6.2457293e-06
0001c0 66 a7 53 b7 8a fe 2e 38 b6 7d cf 38 9b 68 3f 3b
       -1.26155555e-05 4.172189e-05 9.893945e-05 0.0029206637
0001d0 4d 45 b6 3b 04 fa 03 39 ce bc 8a 3c c9 c4 e0 38
       0.0055624605 0.00012586272 0.016935732 0.000107178064
0001e0 c3 bd a4 3b cb 08 59 38 18 52 d5 38 89 45 ed 38
       0.005027504 5.174502e-05 0.000101719226 0.000113139926
0001f0 56 75 1c 39 ee 38 0c 3c 56 ef e4 38 4b 52 25 39
       0.0001492103 0.008558495 0.00010916467 0.00015766283
000200 be 64 46 39 bf fa 03 39 bc 58 c4 38 f3 2d 8d 38
       0.00018920281 0.00012586544 9.3625364e-05 6.731963e-05
000210 be bc 08 b8 f8 40 21 b6 5b 27 31 b9 68 2d 2e 39
       -3.2600707e-05 -2.4028686e-06 -0.00016894696 0.00016610848
000220 86 89 57 38 30 ba 85 38 29 c4 87 38 94 44 e7 38
       5.1388073e-05 6.376614e-05 6.473839e-05 0.00011027712
000230 ea 41 f0 38 79 59 5b bb 65 5e ef bb ca 8a 80 bb
       0.00011456369 -0.0033470078 -0.007304954 -0.003922795
000240 27 cf 40 ba 06 37 92 bb 8d 00 50 38 ff 79 f2 38
       -0.0007355087 -0.0044621257 4.9591577e-05 0.00011562183
000250 68 33 82 38 79 d3 05 39 bc 25 8d b7 48 b9 9f bb
       6.208458e-05 0.00012762648 -1.6826081e-05 -0.004874382
000260 e0 f2 da bb 91 01 af b8 54 eb 8a bb 69 11 56 38
       -0.006681785 -8.344942e-05 -0.004239479 5.103779e-05
000270 11 33 2a bb 68 b3 9a 38 0a 4b 1e 37 98 6a e8 bb
       -0.002597038 7.376709e-05 9.435005e-06 -0.007092785
000280 a2 20 83 bb 87 69 eb 38 51 e5 00 37 99 eb 76 38
       -0.004001693 0.00011225329 7.682786e-06 5.8870388e-05
000290 89 fc d8 38 cf cb cd 38 2d cc 0a 38 e7 15 2c 37
       0.00010346721 9.813124e-05 3.3091917e-05 1.0257098e-05
0002a0 26 ca 8e b8 17 1f d0 bb 7e a8 c1 b7 32 cb 87 b7
       -6.808741e-05 -0.0063513624 -2.3085853e-05 -1.6187874e-05
0002b0 bf ec 56 bc 90 2d 27 ba c5 8c 3d b8 c4 9b 5a b7
       -0.013117968 -0.0006377334 -4.5192213e-05 -1.303008e-05
0002c0 1c 9f 43 36 0c 95 57 37 0b c8 85 37 e9 60 2a 38
       2.9149878e-06 1.2849701e-05 1.5947988e-05 4.0621413e-05
0002d0 75 96 9f ba 9a bc 21 ba 3c da 05 bb e0 92 97 b8
       -0.0012175577 -0.00061697664 -0.0020424267 -7.227599e-05
0002e0 99 74 9b b8 43 d7 b0 b8 ca 85 3a 3b 4f 4b d7 b9
       -7.412694e-05 -8.4324296e-05 0.0028461092 -0.00041064105
0002f0 19 c4 c6 b9 b0 09 34 bb 0c 47 a9 ba 7a 44 89 38
       -0.00037911607 -0.0027471595 -0.001291485 6.545424e-05
000300 43 06 aa 38 55 44 03 39 1a 04 9b 38 14 be 0b 38
       8.107398e-05 0.00012518589 7.39174e-05 3.3317207e-05
000310 2d 90 54 3b 5f 6d 98 ba b4 4d 2e b9 76 73 6c 3b
       0.0032434568 -0.0011629275 -0.0001662288 0.0036079562
000320 e8 82 b7 b8 40 2d 6d 3c 1b c9 27 b9 37 fc 29 bc
       -8.750503e-05 0.0144761205 -0.00016001279 -0.010375074
000330 85 ef 4c b9 db 57 14 3b 44 fc 93 ba 8a b6 60 b8
       -0.00019544184 0.0022635374 -0.0011290391 -5.3575764e-05
000340 bd 11 c4 3b e1 5d 59 3b fc 9f 9d 39 e8 4e fb b9
       0.00598356 0.0033167528 0.0003006457 -0.0004793324
000350 fe a8 16 bb 4c 2a 9b b7 79 0e 37 bb ae 6a 68 38
       -0.002298891 -1.8497136e-05 -0.002793221 5.5412464e-05
000360 23 30 04 39 72 00 39 39 1f a2 d4 3b cb 57 fd 38
       0.00012606433 0.00017643141 0.006489053 0.00012080333
000370 2d d5 03 38 8a 9a 46 39 d0 20 c6 38 1b 51 ce 38
       3.143137e-05 0.00018940322 9.4474875e-05 9.8379525e-05
000380 98 02 cc 38 fb e4 d2 38 16 b3 95 38 f3 9e 8c 38
       9.727961e-05 0.00010056231 7.138231e-05 6.705327e-05
000390 19 aa 20 39 fe ad 04 39 82 6f c3 38 df 4e 98 3c
       0.00015322155 0.00012653318 9.3190945e-05 0.018592296
0003a0 2c c1 d0 37 cc e4 92 b5 48 f2 c5 35 ee 27 24 39
       2.4885485e-05 -1.0944436e-06 1.4748157e-06 0.00015655134
0003b0 25 45 a2 37 cf e4 84 b7 c8 27 3b 38 9a 6a 8c 38
       1.9344103e-05 -1.5842174e-05 4.4621323e-05 6.695576e-05
0003c0 9e e8 e6 3a b8 3b 91 3b 34 61 46 3b eb 49 43 3c
       0.0017616933 0.004432168 0.003027034 0.011919479
0003d0 8d c0 80 b8 c9 dc bc b8 b4 8a b1 37 ea 43 55 37
       -6.139381e-05 -9.005663e-05 2.1164633e-05 1.2711602e-05
0003e0 a7 58 02 b6 4e 05 03 b9 ea a5 cd 38 8a 6a 5b 37
       -1.9423112e-06 -0.0001249511 9.806066e-05 1.3078223e-05
0003f0 79 90 89 bb 4b 12 16 bb c9 c2 43 bb e0 d0 66 b6
       -0.0041981307 -0.0022899087 -0.002987074 -3.4394252e-06
