result_2/result_200_epoch/vim_model.pth (torch, 611222 bytes, 71 tensors)

cls_token f4 [1, 1, 64]
00000000: c1dc 063e 877d fabe 6336 97bf bf8a 113f
00000010: 8320 bf3f 3ef3 bc3e 8ca4 41bf 6d6d 803f
00000020: a62d 813e 2f9c 113f e482 6abf 1146 a8be
00000030: 4066 d83f 912a 2b3f 09d5 a3bf 6d8e 0740
00000040: 16ed 8ebe 917f a43f 0ebe 56be 032e b83e
00000050: 56c9 fa3d f076 9a3f f9bb 913f 3170 dcbf
00000060: 545e 68be 9de2 f2bf 8ea2 a8bf 8790 66be
00000070: 7c69 df3f 7508 9c3e 758e 55bf 1bd6 98bf
00000080: 5e19 8abf e725 f2bd 120b ab3d 3926 66bf
00000090: 5a53 4b3f 0c67 673f a26a a5bf 97c0 f73f
000000a0: 137e 4540 eb19 643f 0c8d 0abf 3cad 0240
000000b0: 2552 073d 2ef1 1340 2dbe 98be 035f cebe
000000c0: 935e 113f 0876 82bf c77b 7cbd 671f 383f
000000d0: 4e97 72bc c307 e6be 9498 e7bf 23a7 cdbd
000000e0: e8b4 c03e 0bab f83e 32bd 4fbf 82e1 39bf
000000f0: d1ee 723d 3fc0 a1bf 9809 c73d 2697 9bbf
0.13170148 -0.48923895 -1.1813473 0.56852335 1.4931797 0.3690433 -0.75641704 1.0033394
0.2523014 0.5687894 -0.91605973 -0.32865956 1.6906204 0.66861826 -1.2799388 2.118068
-0.27915257 1.285143 -0.20970938 0.35972604 0.12245433 1.2067547 1.138549 -1.7221738
-0.22692233 -1.8975407 -1.3174608 -0.2251607 1.7454066 0.30475202 -0.834205 -1.194034
-1.0788991 -0.118236355 0.08351721 -0.89902073 0.7942406 0.9039161 -1.2923167 1.9355649
3.08582 0.8910205 -0.5412147 2.0418234 0.033037324 2.3115954 -0.29832593 -0.40306863
0.56784934 -1.019227 -0.06164148 0.71922916 -0.014806582 -0.44927797 -1.8093438 -0.100416444
0.3763802 0.48567995 -0.81148064 -0.7260972 0.059309784 -1.2636794 0.09718627 -1.2155502

to_patch_embedding.1.weight f4 [64, 169]
00000000: 0d05 1dbd 2fb3 0f3c b607 1e3d f2d9 abba
00000010: 727e 1fbb e31c 03bd 77d0 9bbc 06d3 edbc
00000020: eb07 723d 3db4 2ebd 1f49 e13c e28b dd3c
00000030: e19a 70bd aa3b 893c 5d28 683c d024 e83a
00000040: 2980 d93b 9fce 88bb bc36 45bd 320b 0abd
00000050: 1649 343d f5c3 3d3d 2967 953c 365c 3cbd
00000060: e49c 92bd 4e05 0fbd 58b8 8abd 3145 2f3d
00000070: 49d7 413a 26f9 11bd d948 643d 15d9 513c
00000080: 46c0 193d 3e78 65bc c615 bb3c 36fb 29bd
00000090: c5ed 6abd 91bd 053d f259 1b3d dad2 79bd
000000a0: 6d21 493d 3868 aeb9 7b81 583d ad9d fa3b
000000b0: 1539 883d 5d12 85bc f264 ea3a b07d 1ebc
000000c0: 3e25 4abd 4928 5bbc 9100 fd3c 62df e03c
000000d0: b4dc 133d 7b26 4d3d 6017 8fbb 782c b53c
000000e0: 2710 4fbd 4165 f83c 53c7 f6bc 8348 59bc
000000f0: a1a0 093d 9e5f 4c3c 339b 953c ba47 4f3c
00000100: c341 763d 8436 06bd dc37 6e3d 1591 83bc
00000110: 6bfd 2fbb 0aaa 4b3c 9f21 2abd 4dae 1b3c
00000120: 729e 4a3d 5841 c4bc d017 5f3d 605d 603c
00000130: 41bf 56bd cd6e b33c 8df6 c8bc b6a6 233d
00000140: c6f1 61bc b95c 793d 4486 8d3b 9c60 813d
00000150: 7871 353d e7e5 3d3d daa8 0a3d 28bb 04bd
00000160: 2c1d 74bc 8000 113d 7018 823d 4b60 113d
00000170: 548f 38bd 46b2 5f3c 497a 973c 0c78 af3b
00000180: fa97 1cbd 33d9 33bd 06da 613c ad9e 90bc
00000190: 49d0 ba3b 91de 86bc e3ee c83c 4b33 0bbd
000001a0: 88cd 93bb fa47 b43c 639e bdbb 8e27 33bd
000001b0: 250d 3abc abb8 6c3d a74e fabc a8b3 8bbc
000001c0: 9c71 453d 8ede 94bc 33fe 543d 8252 293d
000001d0: 55cc 003d 22f2 7bbd ecd2 33bd 791b 80bb
000001e0: cd51 393d b96e 0ebd 046b 7e3c f729 a13c
000001f0: 7cfd a33c 19be b43c 7ba4 ed3c 7379 81bc
00000200: 55d1 853b 992c b0bc 8c28 a2bc 6bc9 8c3c
00000210: 0933 38bd cb42 8c3d cd1e 213d 52d2 5b3c
00000220: 1094 823d df12 463d fe20 b1bc a6ea 4f3b
00000230: 8e0b 4cbd 48d0 17ba 3348 bc3c 3710 9cbc
00000240: ba03 8fb8 c48d 21bd e806 46bd d6e6 ffbb
00000250: 5080 ce3c cb47 9f3c 3a70 d6bc f1ea d4bc
00000260: 0a8e 603b 541e 763c 715c 5bbd 4adc 4b3d
00000270: ebc5 933c 0927 8e3c 6bc3 993c 16b6 15bc
00000280: 06ee 54bd b85d 8ebc b3bf 243d 7cd7 37bd
00000290: 749d 21bd 71ce 31bc 78c6 20bd 7581 49bd
000002a0: 652a b43b 17ee 5b3c f0e0 1abd 0bbe 5ebc
000002b0: 943e 88bc 4c94 1abc 5884 fdbc 8f62 55bc
000002c0: 2cef 50bc 300f 193c f5f4 82bc 935b a0bc
000002d0: 6545 523d c17b 13bd 45f6 3fbd 89f0 dfbc
000002e0: ee4e 71bb 6288 ce3c 0335 9dbc 1949 3bbb
000002f0: f476 d03a 42c7 973b 05dd b33b 04c2 24bc
00000300: cbb4 d03b 1a13 bfbc 5b32 fcbc 5c7d bb3b
00000310: f6c2 f13c d2a3 76bd 143a 553c f921 ec3c
00000320: 777f 6e3d 1d15 d03c 2b45 83bc 85ce 953c
00000330: 8d10 1e3c f584 0d3d 89cc e2bc 82e7 43bd
00000340: 6038 46bd df07 33bd eb4d c73b 8441 e6bb
00000350: 0e61 6fbd 2388 15bd 961b 583a daf6 54bd
00000360: 4ac9 413d ae9b b23c e1a0 71bd 534a 643d
00000370: 902f 053d 5c1e 9bbc 1f77 03bd 0593 d1bc
00000380: ce40 91bd 9f54 a33c e1fe 2b3d c7ee 94b9
00000390: a081 1a38 250a 18bd 42a8 efbb 05b4 5d3b
000003a0: e38d 13bd b82a 61bd 05db 0ebd fd35 6637
000003b0: 1ffc 8e3b 4b4f b3bc 09b2 213b ce3e 27bd
000003c0: de80 c13c dd66 ebbc d05e 79bb 4a76 d2bc
000003d0: 7b9b ae3b 2b03 0dbc 9522 523b 619d 04bc
000003e0: a570 003d d541 33bd 2666 f1bc 7099 28bd
000003f0: 5c7e cabb 53ad fa3c 3b8c c63c 299e f8bc
-0.038334895 0.008770748 0.038581572 -0.0013111217 -0.0024336842 -0.03200997 -0.019020302 -0.029031288
0.059089582 -0.042652357 0.027500687 0.02704424 -0.058741454 0.016752083 0.01416978 0.0017711166
0.0066375923 -0.004175022 -0.048147902 -0.033702083 0.044015013 0.046329457 0.018237667 -0.045986377
-0.07158831 -0.03491717 -0.06773442 0.042790595 0.0007394446 -0.035637997 0.055733535 0.012808104
0.037536882 -0.014005719 0.02283753 -0.04149934 -0.05735566 0.032651488 0.037927575 -0.0609921
0.049104143 -0.00033265515 0.052857857 0.007648191 0.066515125 -0.016244108 0.0017882867 -0.009673521
-0.049351923 -0.013376304 0.03088406 0.027450267 0.03609915 0.050085526 -0.0043668 0.02211593
-0.050552513 0.03032172 -0.030124342 -0.013261917 0.033600453 0.012473969 0.018262481 0.012651378
0.06012131 -0.032766834 0.05815874 -0.016060391 -0.002685393 0.012430677 -0.04153597 0.009502006
0.04946751 -0.02395694 0.05446607 0.013694137 -0.052428488 0.02190342 -0.024531627 0.03995391
-0.013790553 0.060879443 0.004318984 0.06317255 0.044297665 0.04636183 0.033852436 -0.03240505
-0.014899533 0.035400867 0.06352317 0.035492223 -0.045058563 0.013653344 0.018490927 0.005354887
-0.038230874 -0.04390831 0.013784891 -0.017653788 0.005701099 -0.01646355 0.024527973 -0.033984464
-0.004510585 0.022006977 -0.0057867034 -0.043738894 -0.011355673 0.0577933 -0.030555082 -0.01705344
0.04820405 -0.018172529 0.052000236 0.04133845 0.031444866 -0.061510213 -0.043902323 -0.003909525
0.045244027 -0.034773562 0.015528444 0.01967333 0.020018332 0.022063302 0.029009094 -0.015804982
0.004083792 -0.02150564 -0.019794725 0.017185887 -0.044970546 0.06848677 0.039336015 0.0134168435
0.06375897 0.04835784 -0.021622177 0.0031725555 -0.049815707 -0.0005791229 0.022983646 -0.0190507
-6.8194655e-05 -0.03944184 -0.04834643 -0.0078095 0.025207669 0.019443413 -0.02617656 -0.025990935
0.003426435 0.015021879 -0.053554956 0.04977063 0.01803871 0.017352598 0.01876994 -0.009137651
-0.05198481 -0.017378673 0.04022188 -0.044883236 -0.0394568 -0.010852442 -0.039251775 -0.049195725
0.005498218 0.013423464 -0.037812173 -0.013595114 -0.016631402 -0.009434771 -0.030946895 -0.0130239865
-0.0127523355 0.009342 -0.015985945 -0.019574916 0.05133571 -0.036006693 -0.04686572 -0.027336376
-0.0036820727 0.025211517 -0.019190317 -0.0028577505 0.0015904591 0.0046319077 0.005488994 -0.010056023
0.0063692085 -0.023324538 -0.03078573 0.005721731 0.02951191 -0.060214825 0.013014335 0.028824793
0.05822703 0.025400693 -0.016024193 0.018286953 0.009647501 0.034550626 -0.02768542 -0.047828205
-0.048393607 -0.04370868 0.0060822866 -0.007026853 -0.058442168 -0.036506783 0.0008243857 -0.05199323
0.047311105 0.02180275 -0.058991317 0.055734944 0.032516062 -0.018935375 -0.032096025 -0.0255828
-0.07092439 0.019937811 0.04199112 -0.00028406663 3.6837184e-05 -0.03711905 -0.007313759 0.0033829224
-0.036023986 -0.05497238 -0.034876842 1.3721638e-05 0.0043635513 -0.021888396 0.0024672768 -0.04083138
0.023621019 -0.028735572 -0.0038050897 -0.02569117 0.0053285933 -0.008606712 0.003206407 -0.008094163
0.031357426 -0.043763954 -0.029467653 -0.041161954 -0.006179614 0.030600226 0.024236789 -0.030348854

to_patch_embedding.1.bias f4 [64]
00000000: 0241 5cbd f109 88bd 4a19 16bd cd6a 5c3d
00000010: 3a64 eebb d415 43ba edf7 2f3d 1cc2 1cbc
00000020: 3965 ee38 b475 b0bc 8249 84bd 2e35 c53a
00000030: e31d 063d 1def 183d a2cf cf3b 1f53 993d
00000040: 2a5d 1bbd 17d6 a53c 2d3a b33c 2d84 1d3d
00000050: 9930 313d 8cc7 65bc 5c3a 88bd 4cbe 54bd
00000060: 2841 2d3d cbf5 2cbc aba5 fdbc ffe9 16bc
00000070: 47bd 293d 3f8a 5ebd c07d b0ba eb22 2c3c
00000080: d7ad 523d 6999 103c b884 7b3d c24e 1cbd
00000090: e525 583d 11af 693d ae80 7fbc 03c1 51bd
000000a0: a349 c1bb 4d1b cbbc ca26 203c 9548 2f3d
000000b0: 934d 76bd b251 f3bc 0918 3e3d 2c74 803d
000000c0: ab4c 93bd f6b4 1cbc b98b 0abc 457a c03c
000000d0: 6b3b 62bd ca80 1bbd 6919 bb3c fff1 913b
000000e0: e31e 703d 855c 9abc 0503 45bd e6f1 67bd
000000f0: ed70 163d ee96 f7bb 4349 2abd 5208 c9bb
-0.053772934 -0.06642521 -0.03664521 0.05381279 -0.0072751315 -0.00074419123 0.04296105 -0.009567764
0.000113675786 -0.0215405 -0.06459333 0.0015045756 0.032743346 0.03733741 0.0063418904 0.07486557
-0.037930645 0.020243688 0.021878326 0.03845613 0.043259237 -0.014024626 -0.06651756 -0.051939294
0.042298466 -0.0105566485 -0.030962786 -0.009211062 0.041440275 -0.05433106 -0.0013465211 0.010506372
0.051435318 0.008825638 0.061405867 -0.038161047 0.052770514 0.057051722 -0.0155946445 -0.05120946
-0.0058986708 -0.024793291 0.009774873 0.04279383 -0.060132574 -0.029702041 0.04640964 0.06272158
-0.07192358 -0.009564629 -0.008456164 0.023495803 -0.055232447 -0.03796462 0.022839265 0.004453897
0.058623206 -0.018842945 -0.048098583 -0.056627177 0.03672879 -0.007555834 -0.041573774 -0.006135025

layers.0.forward_conv1d.weight f4 [64, 64, 1]
00000000: b598 5e3d 57bb f4bc 7db2 5fbc 9e27 90bc
00000010: a3a1 013d d031 a93c 8554 123c 9270 f1bb
00000020: b815 4d3b 3f63 063b baf3 86bc f064 51bc
00000030: b7fc 1dbc 4182 6f3a e833 a43b 7634 ec3c
00000040: c90f f73c e84d ab3c 3fe9 a93b 08d2 793d
00000050: 5cd0 903d d1ba 75bd 4bc9 263a 727f 6a3b
00000060: 6a41 083d 87b8 383d a52f 38bb 25b5 46bc
00000070: 4f58 a1bb 2ef4 9d3c 634e 24bc a695 fcbc
00000080: 3f6c 693a 165d b33c 42e2 873c 7911 19bd
00000090: 4244 123c b065 c2bb 57ff 663c 2445 9cbd
000000a0: 3cc8 403b 2829 8d3c 6bbc 663b ca16 11bb
000000b0: 966a 3cbc 6d5b 813c 0a32 bdb9 364d 963c
000000c0: 2dc4 c23c 6f5d 3f3c 1dd5 6bb8 a3ef 223c
000000d0: 0ce6 863c e8d3 1e3c 67ae 86bc c15a 48bb
000000e0: 77a7 ccbb f424 083c d3eb ccbc 6a28 f8bc
000000f0: cf2e 44bb f7b1 ae3a f665 4ebc 458d dbbb
00000100: 4fde 01bd 7275 25bd b940 843d 32f5 dbbc
00000110: f991 ac3b b272 8c3b 175d 59bd fd82 8cbc
00000120: a250 5ebb 0c38 0dbd 27ed 39bc ab55 4abb
00000130: c0bd a13c c0e5 20bc a33c f3bb 951d 033d
00000140: 66f4 8cbc b1c4 26bd 0c1f 05bc 1ad5 f3bb
00000150: 6ddb 483d b53e 043d 8094 333d 97e9 df3c
00000160: 36a8 223c e8a3 4c3d 2f9a 97bc 4e34 b2ba
00000170: d6e1 373b 5761 c73c 96ab 13bd 9d21 463c
00000180: 31b3 8dbc 0ef9 c83b 1ff8 553b 6237 993c
00000190: 0f36 39bd 48a4 f23c 5b15 ee3c 4618 17bd
000001a0: 2ec8 babc f395 3b3d 9bc2 403c e2fe b8bc
000001b0: 308d 083d 4b4a fb3c c81a e03b bdc3 9abc
000001c0: 9e4f cbbc 8830 08bc ff1b 2d3c ca89 f73c
000001d0: 098c 8e3c 0784 aabc c029 233d 056d d73c
000001e0: 1df0 113c 711b c7bc 326d 3d3c 91f5 cebc
000001f0: 2d9a cabc 72cd 0cbd c090 9dbb 4edf 96bc
00000200: 5af7 68bc adae cf3c 4723 88bd b65e 003d
00000210: 93eb 073d 6d35 febc fb90 16bd 2338 b93c
00000220: 68dc ccbc 2764 0dbd 6473 15bd 0a68 dab9
00000230: c188 113c 6dee 633c e4cb aabc 35f5 7e3c
00000240: e0d0 ba3a cc27 82bd 2178 2d3c f111 b73b
00000250: d53e a63d 38f9 063d fcea 6f3d 10a4 45bc
00000260: 89ba 3f3c 1066 563d 3e0d e23c 89c5 e5bc
00000270: 852c 3e3a fbea e1bb ed60 503d 4bf7 46bd
00000280: 64df 1f3d 8cdb 83bc 9293 3bbd af2b ebbb
00000290: 01c8 d6bc c604 3abd 2180 6dbd ecdd e23a
000002a0: 4afc 813c 7be7 3ebc 2936 353b e952 eabc
000002b0: 438c 40bd 7db1 d43c 45bf 643b d998 ffba
000002c0: 67ad a53c 1584 54bc 8d64 333c 408d adba
000002d0: d8b9 b73c 2c84 14bd 0c50 453d 7703 0f3d
000002e0: 205d 50bc 7a84 14bc c094 93bc cc62 e4bc
000002f0: 6e2c 543d 102e 15bd 6592 88bc 92af c7bc
00000300: d2ee 333d f663 e43c f55d b23d c73c c3bb
00000310: 0fbc 9fbd 856b 8abc 9ab8 82bd 7dc1 ef3b
00000320: b564 4dbd 8e10 4e3d b8d9 9ebc 6353 393d
00000330: c25a 48bd d97e 55bc 3d7c afbb f341 e3bb
00000340: a596 8b3d 5723 c2bc 7f46 eabb 9d41 813b
00000350: 52dd aabd 9a0d 6c3d e92c 2b3d 42b9 d6ba
00000360: 11d4 8cbd 3607 debb c9e3 4ebb 61e2 47bd
00000370: 80d2 1a3d 9f9c 203d 59e4 cd3c c128 42bd
00000380: 2b1f ac3d 550d e33c fa54 29bd f632 babd
00000390: c788 253c 8afc 793d 00a9 5a3d c84d 97bd
000003a0: c1a6 fdbc 38bd 813b e34f a93c 2b6a 4b3d
000003b0: 13bc 4a3d 42b7 33bd 08e6 8ebb 5e1f 36bc
000003c0: 4709 9f3d 1c3b 5eba c6a8 8d3c 54be 70bd
000003d0: eedc 843d c90d 693c f74e 903d 4f34 f83b
000003e0: 17b5 9f3b 1ecd 133d 5f0f 023c 7b6a a6bd
000003f0: 1de2 043c eccd 61bd ab4d 82bc 6445 d7ba
0.05434485 -0.029874487 -0.013653395 -0.017597016 0.03164829 0.020653635 0.008931284 -0.0073681558
0.0031293463 0.0020505933 -0.01647364 -0.012780413 -0.009642771 0.0009136536 0.0050110705 0.02883361
0.030158894 0.020911172 0.005185276 0.060991317 0.070709914 -0.059992615 0.00063623925 0.003578153
0.03326551 0.045097854 -0.002810457 -0.012128149 -0.0049238573 0.019281473 -0.0100284545 -0.030833077
0.00089043746 0.021894973 0.01658738 -0.03737018 0.008927407 -0.0059325323 0.014098964 -0.07630375
0.0029416224 0.017231539 0.003520752 -0.0022138827 -0.011500021 0.015790666 -0.0003608617 0.018347364
0.023775185 0.011679991 -5.6226843e-05 0.009944829 0.016467117 0.009694077 -0.016440583 -0.0030571672
-0.0062455493 0.008309592 -0.025014794 -0.030292708 -0.0029935127 0.0013328184 -0.012597552 -0.0067001902
-0.03170615 -0.040395208 0.06457657 -0.026850317 0.0052664247 0.0042861337 -0.053067293 -0.017152304
-0.0033922573 -0.03447728 -0.011348045 -0.0030873816 0.0197438 -0.009820402 -0.007423 0.032010633
-0.017206382 -0.040714923 -0.008125078 -0.007441175 0.049037386 0.032286365 0.043842793 0.027333064
0.0099278 0.049961 -0.018506138 -0.001359591 0.0028058193 0.024338407 -0.03605231 0.012092975
-0.01729736 0.0061332053 0.0032649112 0.018703166 -0.04521757 0.029619351 0.029062917 -0.036888383
-0.022800531 0.0457973 0.011765148 -0.022582475 0.033337772 0.030675074 0.00683913 -0.018892163
-0.024818238 -0.008312352 0.010565757 0.03021707 0.017400758 -0.020814909 0.039834738 0.026297102
0.008907345 -0.024305077 0.011561679 -0.02526358 -0.02473172 -0.034375615 -0.0048085153 -0.018417027
-0.014219129 0.025351847 -0.066473536 0.031340323 0.033183645 -0.031031335 -0.036759358 0.022609776
-0.025007442 -0.03451934 -0.036487 -0.00041657715 0.008882702 0.013911826 -0.020849176 0.015561392
0.0014252923 -0.06355247 0.010587723 0.0055868556 0.08117453 0.032952517 0.058573708 -0.012063041
0.011702188 0.052343428 0.027594205 -0.028048294 0.0007254559 -0.006894467 0.050873686 -0.04857568
0.0390314 -0.016095899 -0.04579503 -0.0071768383 -0.026218416 -0.04541471 -0.05798352 0.001730857
0.015867371 -0.011651869 0.002765069 -0.028603988 -0.047008764 0.02596354 0.0034904045 -0.0019500508
0.020224286 -0.012970944 0.010949266 -0.0013240948 0.022427484 -0.03625886 0.04817204 0.034915414
-0.012717515 -0.009064788 -0.018015265 -0.027879141 0.051800184 -0.03642088 -0.016671369 -0.02437571
0.04392893 0.027879696 0.08709327 -0.005958173 -0.07799541 -0.016896972 -0.06382866 0.007316767
-0.05014487 0.050308757 -0.019390926 0.04524554 -0.04891468 -0.013030731 -0.0053553865 -0.006935352
0.068158425 -0.023698492 -0.007149517 0.0039445893 -0.08342995 0.05763016 0.041790877 -0.0016382115
-0.06876386 -0.006775762 -0.0031568876 -0.048799876 0.037798405 0.039211866 0.025133299 -0.047402147
0.08404382 0.027716318 -0.041340806 -0.09091751 0.010103411 0.061031856 0.053383827 -0.073878825
-0.030963304 0.003959324 0.020667976 0.049661797 0.049495768 -0.04387594 -0.004360918 -0.011115877
0.077654414 -0.0008477436 0.017292392 -0.05877526 0.064874515 0.014224478 0.07046311 0.007574595
0.0048738825 0.036084287 0.007938235 -0.08125778 0.00811055 -0.055128023 -0.015906176 -0.0016423878

layers.0.forward_conv1d.bias f4 [64]
00000000: a304 35bc b9bd 043d 6f57 f8bb 5c29 183c
00000010: a436 6d3d 96e4 223d 2b35 53bc 2aff 39bd
00000020: a0c1 04bd 3f31 a2bd 9f4c 69bc 9084 033d
00000030: 312b e0bc 350c 54bc 99fc 6a3d 3bcf fabc
00000040: ae61 32bd eba0 6b3d 479c bdbb b8ce 5a3d
00000050: bc02 133a 654e 603c bba4 43bc 0835 35bd
00000060: 9c27 3fbd d74f 41bd 0ec7 9c3d 3b22 bdbc
00000070: e454 c8bc 6903 6ebc 6b8e 8c3d 5600 9dbd
00000080: f48a 6a3b 5444 07bd 8751 043d ff58 24bc
00000090: 660c 6cbd 5e71 0abd a3dc 52bd 0fd1 06bd
000000a0: 69fc 473d 3a6d 903c d85b b1bb 3996 4bbd
000000b0: bd6d 42bd d9a2 5ebb 1a5c 33bd cdeb cabc
000000c0: 465c a8bd 541d 6ebb 7d97 9fbb 26e8 87bd
000000d0: 6955 993c 0a7a 19bd 2e18 9f3c fe59 333c
000000e0: a38d f23c 7513 813d 8d04 943c 1b1f 71bc
000000f0: e9a8 423d f3da 9c3b a361 2ebd 47e0 15bd
-0.011048469 0.032407496 -0.0075787823 0.009287205 0.057913437 0.039768778 -0.012891094 -0.04540936
-0.032411218 -0.07919549 -0.014239459 0.032108843 -0.027364345 -0.0129423635 0.057369802 -0.030616393
-0.043550186 0.05752651 -0.005786452 0.0534198 0.00056080124 0.013690566 -0.01194113 -0.044240028
-0.046668634 -0.04719528 0.07655154 -0.023087611 -0.024454542 -0.01452718 0.068631016 -0.0766608
0.003578839 -0.033024147 0.032304313 -0.010030984 -0.05762901 -0.03379952 -0.051479947 -0.032914218
0.0488247 0.017630208 -0.00541256 -0.04970381 -0.047467936 -0.0033971576 -0.043789007 -0.024770642
-0.08220725 -0.00363334 -0.0048703537 -0.06636076 0.018717485 -0.0374699 0.01942071 0.010946749
0.029608553 0.06302539 0.018068576 -0.014716889 0.047524367 0.004786843 -0.042573582 -0.03659084

layers.0.backward_conv1d.weight f4 [64, 64, 1]
00000000: 372e 843d 8426 dcbc fa43 c8bc f15a 7f3c
00000010: 8240 2d3c 0844 a8bc d423 e83b 048d fabb
00000020: 1ba5 fc3b 7938 843c 7b5a 223b bf5a 00bc
00000030: 9879 e9bb c867 0a3c 2576 443c 08fb 633b
00000040: 6c5f 883c bd21 f6ba f431 653b 2532 9abc
00000050: 452b fd3c 2b70 0b3b 4542 b03b 1dbe 813c
00000060: a704 f9bb 6f63 2b3d 36ca 883b 34f6 753b
00000070: 1914 cdbb a389 4e3c 4b31 6bbc 09d5 763c
00000080: a831 8c3b 4953 793c 38f5 67bc 9a1f ca3c
00000090: 3023 de3b 420d 33bc fcec 5fbc 7a68 1a3d
000000a0: 9e9f a83b 2f19 0d3c 1883 cc3a 960a 973c
000000b0: 12fb c0bb cbfc 11bc 3431 6a39 63ef d0bb
000000c0: 78cc 1fbb ec68 513c 4a48 84bb f1ca 13bc
000000d0: b0d5 80bb ccc4 83ba 33b1 a1b9 c540 c4b8
000000e0: 1a92 cebb 8eb8 4e3b 6e86 5dbb 9742 c5ba
000000f0: 79f3 0e3c 1317 023c b40b c539 b183 943b
00000100: 8b37 a33a 494a 293d e973 17bd cd61 3d3d
00000110: d65f a63c b004 bd3c 2bc5 79bc 38d8 45bc
00000120: b0f3 283d bbc2 8f3c 9b50 82bc b61f 8bbc
00000130: 59ea 04bd 48f2 f6bc 0f16 8dbc ee18 34bc
00000140: 944d 91bc 665c 6dbd e2a6 833c dc17 033b
00000150: 98ac 7bbd 40f2 9c3b d92d e23c 7372 ca3c
00000160: b425 44bc 7ea1 ac39 b0cb e1bc 37d9 173a
00000170: a826 2cbc ff16 40bc d72d 303a 0bea 0b3d
00000180: 47a1 f63b 0bb4 02bd 5bc7 093d c951 a83c
00000190: 7744 19bd 7280 42bd c86a 063a effd 7b3a
000001a0: be6e 153d bf30 3f3d 42e9 83bc 11ad 38bc
000001b0: 8017 fbbb 3ca9 17bd c48c e7bb 46bb 00bc
000001c0: 895e 13bd 310a 34bc 66bf 34bc ff57 fe3c
000001d0: 61e4 5cbb e215 b23b ea74 d5bc a682 4bbd
000001e0: d6e1 e73c 96c8 b1bb cd98 2dba 498b 01bd
000001f0: dc7e d1bc 59c5 49bd a52b 423c 82a1 0b3d
00000200: bc09 dd3c 0773 b43c 1823 013d 578f 1dbc
00000210: d780 c33c f278 0e3d e82f c43b 91da b9bc
00000220: 4b30 273d 1567 acbc 8404 933c 1fa4 37bd
00000230: 4a47 163b 49f7 dc39 84d1 a83b 9189 f63b
00000240: 2e4e 26bd 5aad d7ba 8428 a1ba d925 e1bc
00000250: 7620 19bd 6b87 4dbd adf6 fe3c 32ec 073d
00000260: 620c 613c 9487 2c3d eecd 13bd 1d56 a1bc
00000270: f5a6 973a fbbc d8bc 286d 473c 7617 26bc
00000280: fd68 ab3c 8da6 c5bc 55e7 093b 9d53 6f3b
00000290: 4a7e e33c 6e52 36bd bc5d c8bb 32f3 903b
000002a0: dae9 f6bc 6bbc 5f3b ad01 f53c 64b9 0f3d
000002b0: dcc3 37bd 94e8 c8bc 699d 7fbc 4b0e bd3c
000002c0: 5f25 bd3b 76e2 5bbc e7a0 ec3b beeb 08bb
000002d0: d737 56bb 8dd1 f9bc e348 2fbd 9269 4bbd
000002e0: f867 3c3d 9b04 e7bc a98c 14bd 710f 2d3d
000002f0: 6123 bf3c 7c41 b33a 6773 4abc a4d7 9fbc
00000300: f0d9 cb3c 5104 e5bc 2e8b af3d ceae 593d
00000310: b8e7 0dbd 2c5a 073b d428 90bc ff42 25bd
00000320: 5919 253b 646f a0bd f592 6fbd 2274 383d
00000330: 6017 19bd a956 f9bc 5820 7dbc a2a6 53bc
00000340: bc94 74bc 0a4b 30bb 9f72 3d3c f516 48bd
00000350: 97eb afbd 1435 823d cfed 453d 5509 573a
00000360: f9d5 8ebc db27 87bd 4f2c 4f3c 4849 933c
00000370: e959 49bc 6035 473d 2cad d23c d83c 623c
00000380: e837 343d 8272 4cbd 85a4 203d b0f0 8ebd
00000390: 796d 353d 3c40 8f3b 771e d73c 144b 7a3d
000003a0: ff8d 263c 5994 0f3c 5be2 e53c 36fa 273d
000003b0: 04f9 42bc 6a23 8a3c ede0 15bb 00d6 91bc
000003c0: 1122 8b3d e2cc 1e3d ead2 b4bc f9a2 f0ba
000003d0: 28d9 603c 1c87 aabc 1046 823d 5bd9 2a3c
000003e0: f52f 23bd 0583 23bd 57ba 813b 47f3 37bd
000003f0: 6cf9 113b c231 48bd 8646 dd3a 452a 6b3c
0.06454127 -0.026873834 -0.024446476 0.015585647 0.010574462 -0.020540252 0.007084349 -0.007646205
0.007710112 0.01614021 0.002477317 -0.007834136 -0.007125091 0.008447595 0.0119910585 0.0034787077
0.016647063 -0.0018778365 0.0034972401 -0.018822739 0.030904422 0.0021276574 0.0053789937 0.015837723
-0.0075994316 0.041842874 0.004174496 0.0037530782 -0.0062584993 0.012606057 -0.014355014 0.01506544
0.0042783804 0.015217611 -0.014157586 0.024673272 0.006779097 -0.010928454 -0.013667341 0.037697293
0.005145981 0.008611961 0.0015603034 0.018437665 -0.005889305 -0.008910368 0.00022334309 -0.0063761934
-0.0024383347 0.012781363 -0.004036938 -0.009020553 -0.0039317235 -0.0010053157 -0.00030840337 -9.3580726e-05
-0.0063040378 0.0031543109 -0.003380205 -0.0015049753 0.008725041 0.007940072 0.00037583488 0.0045323004
0.0012452466 0.04133061 -0.036975775 0.04623585 0.02030937 0.023073524 -0.015244762 -0.012075476
0.041248024 0.01754891 -0.015907576 -0.016982894 -0.032450054 -0.030144826 -0.017222432 -0.010992272
-0.017737187 -0.057949446 0.016070787 0.0020003235 -0.061443895 0.0047896206 0.027609752 0.024712777
-0.01197188 0.00032926718 -0.027562946 0.00057925604 -0.010507263 -0.011724233 0.0006720698 0.034158748
0.00752655 -0.031909984 0.033637386 0.02054681 -0.03741881 -0.047485776 0.0005127606 0.0009612729
0.036482565 0.046677347 -0.016102437 -0.011271731 -0.0076627135 -0.03702663 -0.007066341 -0.0078571495
-0.035978828 -0.010988758 -0.011031961 0.03104782 -0.003370546 0.0054347375 -0.026056726 -0.049685143
0.02830593 -0.005425523 -0.00066221954 -0.031626973 -0.025573187 -0.04926047 0.011851226 0.034089573
0.02698218 0.022027506 0.03152761 -0.009616694 0.023865147 0.03478331 0.005987156 -0.022687228
0.04081754 -0.021045247 0.01794649 -0.044834252 0.0022930675 0.00042145912 0.0051519293 0.0075237234
-0.0406019 -0.0016454861 -0.00122954 -0.027483867 -0.037384473 -0.050177973 0.031123484 0.033184238
0.013735862 0.042121485 -0.03608506 -0.019694382 0.0011570143 -0.0264573 0.012172021 -0.010137429
0.020924086 -0.02412727 0.0021042426 0.0036518343 0.02777018 -0.044512205 -0.0061146896 0.0044235224
-0.030140806 0.0034139405 0.029908026 0.03508891 -0.04486452 -0.024524964 -0.015601494 0.023078104
0.0057722772 -0.013420692 0.0072213295 -0.0020892466 -0.0032687092 -0.03049543 -0.04279412 -0.049661227
0.04599759 -0.028200438 -0.036266956 0.042251054 0.0233323 0.0013676132 -0.012356616 -0.019512005
0.024884194 -0.02795616 0.08571468 0.053145222 -0.034644812 0.0020653112 -0.017597593 -0.040347096
0.002519211 -0.07833746 -0.05848976 0.045032628 -0.037375808 -0.03043683 -0.015449606 -0.012918146
-0.014928039 -0.0026900196 0.011562972 -0.04885002 -0.08589857 0.0635778 0.048322495 0.00082029897
-0.017436014 -0.06599399 0.012644841 0.01797928 -0.012289503 0.048634887 0.02571734 0.013808452
0.04399863 -0.04991389 0.039219398 -0.06979501 0.044293854 0.004371671 0.026259644 0.061106756
0.01016569 0.008763396 0.028062036 0.041010104 -0.01190019 0.01686259 -0.0022869662 -0.017802238
0.06793607 0.03876961 -0.022073228 -0.0018359117 0.013723649 -0.020816378 0.063610196 0.010427798
-0.039840657 -0.03991987 0.003958981 -0.04490974 0.002227391 -0.048875578 0.001688198 0.01435334

layers.0.backward_conv1d.bias f4 [64]
00000000: b682 61bc 1c94 7c3d e064 3ebc a17f c33d
00000010: d159 11bd 12f2 3dbd 9987 103d 7742 4a3d
00000020: 2e3b 0abd c994 743d c8a2 813d 6ed5 af3b
00000030: a491 f83c c203 d0bb 3c8b 7e3d 0cf1 64bc
00000040: 25aa b0bc 020c 94bd acf0 783c c3f2 51bc
00000050: 958b 19bd ec31 6f3d b71a 88bd 83a4 823d
00000060: d17d 76bd aa5d 573d e9af 95bc ed49 2ebc
00000070: c0de 463d 05da 54bd d973 c03c 8ff9 9e3d
00000080: 8b12 cfbb 561e 173d 2d93 093d 27c9 c63c
00000090: 2f94 b83c 3b90 06bd 5664 25bc c322 4bbd
000000a0: a0af 31bc b85e d5bc e636 e4bc 005e d5bb
000000b0: 04c7 443d f5f8 66bd 8bcd de3c 8c63 173d
000000c0: 1794 63bd 70ed a03a 532c 1bbd acff 0fbc
000000d0: d375 b1bc 37ba d83c f393 8e3d c91f 653d
000000e0: 07be 92bd cd99 843d 8ef3 a2bd 8de5 083c
000000f0: 1e65 9c3c 5ba8 05bd 2564 833c c09e 473d
-0.013764074 0.061664686 -0.01162073 0.09545828 -0.035486046 -0.046373434 0.035285566 0.049379792
-0.033747844 0.059712205 0.06329876 0.005366019 0.030342884 -0.006348104 0.062144503 -0.013973486
-0.021565506 -0.07228853 0.015194099 -0.012814227 -0.03748663 0.05839722 -0.066457205 0.06379034
-0.06017858 0.05257956 -0.018272357 -0.0106377425 0.048552275 -0.051965732 0.02349274 0.07762443
-0.006319349 0.036894165 0.033587623 0.024265839 0.022531597 -0.032852393 -0.010094723 -0.0495937
-0.010845095 -0.026046142 -0.027858209 -0.00651145 0.04804136 -0.056389768 0.02719762 0.03696017
-0.05556115 0.0012277793 -0.037884068 -0.008788984 -0.021662628 0.026455982 0.06961813 0.055938516
-0.07165151 0.06474648 -0.079566106 0.00835551 0.019091185 -0.03263126 0.016038964 0.04873538

layers.0.norm.weight f4 [64]
00000000: bce3 603f 8843 593f 8841 543f e2cb 613f
00000010: ecaa 523f 1db3 393f b101 4e3f f629 493f
00000020: 8adc 4d3f b79d 413f c849 6e3f 8c61 3a3f
00000030: 9882 643f e450 5a3f d850 513f c9b4 683f
00000040: 2c7c 533f 6ee3 453f e8a0 5d3f 9ea9 553f
00000050: 8fd5 533f f2fd 4d3f 7e80 733f a986 583f
00000060: cc24 533f 111e 543f b7c4 643f e9e3 333f
00000070: 7265 663f 426b 533f d9ce 4f3f 5d8e 4f3f
00000080: dddf 643f 8b0f 4a3f 85e0 6b3f 464c 583f
00000090: b239 5d3f a01d 653f 2578 433f e3fb 653f
000000a0: 1143 563f 9e19 5c3f 94aa 3c3f 1917 5e3f
000000b0: 5ec3 573f cd35 403f 5946 5a3f c915 6d3f
000000c0: 373b 693f c434 593f 20f9 443f d842 4f3f
000000d0: ae59 503f f693 4c3f e8f2 473f 5d18 493f
000000e0: 75b0 653f 6b6c 4f3f de49 5c3f d73e 483f
000000f0: 00e7 6a3f 06a3 543f 8bc4 623f 00ab 4d3f
0.87847495 0.8486867 0.8291249 0.88201725 0.82292056 0.7253893 0.8047133 0.7857965
0.8041464 0.7563128 0.9308133 0.72805095 0.8926177 0.8527968 0.8176398 0.90900856
0.82611346 0.77300155 0.8657365 0.8346194 0.8274774 0.80465615 0.9511794 0.84580475
0.8247802 0.8285838 0.89362663 0.7026964 0.89998543 0.8258554 0.81175 0.81076604
0.8940409 0.78929967 0.92139465 0.84491384 0.8641616 0.8949833 0.763552 0.89837474
0.83696085 0.8597659 0.7369778 0.86753994 0.8428248 0.75082093 0.8526359 0.92611367
0.9110598 0.8484614 0.76942635 0.8096137 0.8138684 0.7991327 0.7810502 0.785528
0.8972238 0.8102481 0.8605021 0.78220886 0.9175873 0.83061254 0.8858115 0.8033905

layers.0.norm.bias f4 [64]
00000000: 085a 263b 9220 943b 5f9a 3d3b 0b46 07bc
00000010: c5aa d8b9 a2a9 85bb a0e9 cdba ee15 09bc
00000020: 3278 5fbb d537 133c c340 ec38 3f54 a1bb
00000030: 9212 12bb 4e66 0cbc 93fc d7bb 0dcb 2d3b
00000040: 7334 cc3b 21c6 7bbb c35b c43a bfdf 7737
00000050: 6d3e 69bb e5a3 1d3b 3062 3b3b 1f15 9dba
00000060: 2038 b5bb 5fec e03a 49b4 8ebb bb30 9e3b
00000070: 02fc 9c3b 01f3 e53b b81a 803b bc56 78bb
00000080: 5a02 91ba 7162 853a 134e 81ba ac40 523b
00000090: 874d 8abb 3e2f 6d3b 4155 6bba 1d4c 9ebb
000000a0: 9ad7 d739 1dde f0ba 8905 373b eaa7 133a
000000b0: 2a07 933c 26f5 2d3a 9118 aebb 116a a9ba
000000c0: f061 803a 3082 973b 8e58 6cbb ac3c 04bb
000000d0: 95d3 353c 0b29 b1ba a5e3 0937 b1f1 4b3b
000000e0: 6117 88b9 a306 883a 7166 f13a e3ea 823c
000000f0: 5852 04bb dbec ceba 6402 8dbb 8248 843b
0.0025383253 0.0045204842 0.0028931124 -0.008256446 -0.00041325964 -0.0040790597 -0.0015709884 -0.008367045
-0.0034098742 0.008985479 0.0001126542 -0.004923373 -0.00222889 -0.008569313 -0.0065913885 0.0026518733
0.0062318384 -0.0038417655 0.001498096 1.4774442e-05 -0.0035590187 0.0024053988 0.002859246 -0.0011984444
-0.0055303723 0.0017160288 -0.0043549878 0.0048275865 0.004790784 0.0070174937 0.003909435 -0.0037893495
-0.0011063323 0.0010176433 -0.0009865187 0.0032082004 -0.0042206678 0.0036191489 -0.00089772424 -0.0048308508
0.0004116863 -0.0018376742 0.0027926883 0.0005632626 0.017947752 0.0006635956 -0.005312987 -0.0012925287
0.0009794813 0.004623674 -0.0036063525 -0.0020177765 0.011097808 -0.001351626 8.218839e-06 0.00311194
-0.0002595736 0.0010377954 0.0018417371 0.015981143 -0.0020190682 -0.0015787141 -0.0043032635 0.004036964

layers.0.ssm.A_log f4 [64, 64]
00000000: 630c 90bb 3f17 bc3e 1b9a 423f 9cd2 853f
00000010: 4603 a23f 9839 b93f dfda cc3f 47de dd3f
00000020: 86e2 ec3f 5152 fa3f a33c 0340 76ca 0840
00000030: eae5 0d40 dea0 1240 b308 1740 e427 1b40
00000040: 5e07 1f40 35ae 2240 4f22 2640 9068 2940
00000050: e685 2c40 717e 2f40 4155 3240 270d 3540
00000060: bba8 3740 362a 3a40 7b93 3c40 50e6 3e40
00000070: 6b24 4140 194f 4340 9a67 4540 146f 4740
00000080: 9166 4940 064f 4b40 5329 4d40 44f6 4e40
00000090: 91b6 5040 ec6a 5240 f113 5440 34b2 5540
000000a0: 4b46 5740 b1d0 5840 d351 5a40 17ca 5b40
000000b0: e839 5d40 6da1 5e40 3801 6040 a159 6140
000000c0: f2aa 6240 71f5 6340 6c39 6540 2677 6640
000000d0: d6ae 6740 b3e0 6840 ac0c 6a40 ca33 6b40
000000e0: 6055 6c40 db71 6d40 c689 6e40 b29c 6f40
000000f0: f5aa 7040 6db5 7140 44bb 7240 e3bc 7340
00000100: a76c 84bb 450a bc3e 35c1 423f 8fc1 853f
00000110: dc08 a23f 2d3a b93f f4da cc3f 33de dd3f
00000120: 99e2 ec3f 2252 fa3f b23c 0340 72ca 0840
00000130: f7e5 0d40 e0a0 1240 af08 1740 e327 1b40
00000140: 5c07 1f40 36ae 2240 4f22 2640 9068 2940
00000150: e285 2c40 717e 2f40 4155 3240 270d 3540
00000160: bba8 3740 362a 3a40 7b93 3c40 50e6 3e40
00000170: 6b24 4140 194f 4340 9a67 4540 146f 4740
00000180: 9166 4940 064f 4b40 5329 4d40 44f6 4e40
00000190: 91b6 5040 ec6a 5240 f113 5440 34b2 5540
000001a0: 4b46 5740 b1d0 5840 d351 5a40 17ca 5b40
000001b0: e839 5d40 6da1 5e40 3801 6040 a159 6140
000001c0: f2aa 6240 71f5 6340 6c39 6540 2677 6640
000001d0: d6ae 6740 b3e0 6840 ac0c 6a40 ca33 6b40
000001e0: 6055 6c40 db71 6d40 c689 6e40 b29c 6f40
000001f0: f5aa 7040 6db5 7140 44bb 7240 e3bc 7340
00000200: 0b68 a63a 034e bc3e 0fb1 423f 8cd9 853f
00000210: 1109 a23f a636 b93f 33db cc3f bfde dd3f
00000220: dee2 ec3f 6a52 fa3f 253b 0340 12ca 0840
00000230: 89e5 0d40 dda0 1240 9b09 1740 df27 1b40
00000240: 5807 1f40 2bae 2240 5122 2640 8c68 2940
00000250: e385 2c40 727e 2f40 4055 3240 270d 3540
00000260: b9a8 3740 362a 3a40 7c93 3c40 50e6 3e40
00000270: 6b24 4140 194f 4340 9a67 4540 146f 4740
00000280: 9166 4940 064f 4b40 5329 4d40 43f6 4e40
00000290: 91b6 5040 ec6a 5240 f113 5440 34b2 5540
000002a0: 4b46 5740 b1d0 5840 d351 5a40 17ca 5b40
000002b0: e839 5d40 6da1 5e40 3801 6040 a159 6140
000002c0: f2aa 6240 71f5 6340 6c39 6540 2677 6640
000002d0: d6ae 6740 b3e0 6840 ac0c 6a40 ca33 6b40
000002e0: 6055 6c40 db71 6d40 c689 6e40 b29c 6f40
000002f0: f5aa 7040 6db5 7140 44bb 7240 e3bc 7340
00000300: 3393 a13a 1ae2 bb3e 3d5e 433f 05f3 853f
00000310: 6434 a23f 543b b93f deda cc3f 2dde dd3f
00000320: 7be2 ec3f 5252 fa3f 3c3d 0340 6fca 0840
00000330: e3e5 0d40 e1a0 1240 c908 1740 e327 1b40
00000340: 5707 1f40 37ae 2240 4e22 2640 9168 2940
00000350: e685 2c40 727e 2f40 4055 3240 280d 3540
00000360: baa8 3740 362a 3a40 7a93 3c40 50e6 3e40
00000370: 6b24 4140 194f 4340 9a67 4540 146f 4740
00000380: 9166 4940 064f 4b40 5329 4d40 44f6 4e40
00000390: 91b6 5040 ec6a 5240 f113 5440 34b2 5540
000003a0: 4b46 5740 b1d0 5840 d351 5a40 17ca 5b40
000003b0: e839 5d40 6da1 5e40 3801 6040 a159 6140
000003c0: f2aa 6240 71f5 6340 6c39 6540 2677 6640
000003d0: d6ae 6740 b3e0 6840 ac0c 6a40 ca33 6b40
000003e0: 6055 6c40 db71 6d40 c689 6e40 b29c 6f40
000003f0: f5aa 7040 6db5 7140 44bb 7240 e3bc 7340
-0.004396008 0.36736485 0.76016396 1.0454898 1.2657249 1.4470701 1.6004294 1.7333459
1.850663 1.9556371 2.050576 2.1373572 2.2171578 2.2910686 2.359906 2.4243097
2.4848247 2.5418828 2.595844 2.647007 2.6956725 2.7420924 2.7864535 2.8289278
2.8696735 2.9088264 2.9465015 2.9828072 3.0178478 3.0517027 3.0844483 3.1161547
3.1468852 3.1766982 3.2056472 3.2337809 3.261143 3.287776 3.3137171 3.3390017
3.3636653 3.3877375 3.4112442 3.4342096 3.4566593 3.4786026 3.5000744 3.5210955
3.5416837 3.5618556 3.5816298 3.6010222 3.6200461 3.6387146 3.6570234 3.675036
3.6927109 3.7100742 3.727159 3.743939 3.7604344 3.7766984 3.7926798 3.8084037
-0.0040412727 0.36726585 0.7607606 1.0449694 1.2658954 1.4470879 1.6004319 1.7333435
1.8506652 1.9556315 2.0505795 2.1373563 2.217161 2.291069 2.359905 2.4243095
2.4848242 2.541883 2.595844 2.647007 2.6956716 2.7420924 2.7864535 2.8289278
2.8696735 2.9088264 2.9465015 2.9828072 3.0178478 3.0517027 3.0844483 3.1161547
3.1468852 3.1766982 3.2056472 3.2337809 3.261143 3.287776 3.3137171 3.3390017
3.3636653 3.3877375 3.4112442 3.4342096 3.4566593 3.4786026 3.5000744 3.5210955
3.5416837 3.5618556 3.5816298 3.6010222 3.6200461 3.6387146 3.6570234 3.675036
3.6927109 3.7100742 3.727159 3.743939 3.7604344 3.7766984 3.7926798 3.8084037
0.0012695802 0.36778268 0.7605142 1.0457015 1.2659017 1.4469802 1.6004394 1.7333602
1.8506734 1.9556401 2.050485 2.1373334 2.2171347 2.2910683 2.3599613 2.4243085
2.4848232 2.5418804 2.5958445 2.647006 2.6956718 2.7420926 2.7864532 2.8289278
2.869673 2.9088264 2.9465017 2.9828072 3.0178478 3.0517027 3.0844483 3.1161547
3.1468852 3.1766982 3.2056472 3.2337806 3.261143 3.287776 3.3137171 3.3390017
3.3636653 3.3877375 3.4112442 3.4342096 3.4566593 3.4786026 3.5000744 3.5210955
3.5416837 3.5618556 3.5816298 3.6010222 3.6200461 3.6387146 3.6570234 3.675036
3.6927109 3.7100742 3.727159 3.743939 3.7604344 3.7766984 3.7926798 3.8084037
0.0012327194 0.3669594 0.7631567 1.0464789 1.2672238 1.447123 1.6004293 1.7333428
1.8506616 1.9556372 2.0506124 2.1373556 2.2171562 2.2910693 2.3599112 2.4243095
2.484823 2.5418832 2.5958438 2.6470072 2.6956725 2.7420926 2.7864532 2.828928
2.8696733 2.9088264 2.9465013 2.9828072 3.0178478 3.0517027 3.0844483 3.1161547
3.1468852 3.1766982 3.2056472 3.2337809 3.261143 3.287776 3.3137171 3.3390017
3.3636653 3.3877375 3.4112442 3.4342096 3.4566593 3.4786026 3.5000744 3.5210955
3.5416837 3.5618556 3.5816298 3.6010222 3.6200461 3.6387146 3.6570234 3.675036
3.6927109 3.7100742 3.727159 3.743939 3.7604344 3.7766984 3.7926798 3.8084037

layers.0.ssm.D f4 [64]
00000000: 50e4 623f 5f76 4d3f 749f 673f f48c 763f
00000010: b017 433f 108b 603f 5108 563f f376 423f
00000020: 130a 423f 6f55 5e3f 9e67 4f3f e1d0 3e3f
00000030: ed2c 593f 9bae 423f b0eb 4c3f c40d 3a3f
00000040: 9ee2 763f a922 6b3f 3c4f 383f 8135 543f
00000050: b842 543f 7563 733f 37f3 643f 7bed 583f
00000060: 57d0 513f a41b 5f3f b8cc 633f 45c6 313f
00000070: 72d0 5a3f 8108 533f f05f 653f 5cdc 6b3f
00000080: 6a98 563f 36e6 543f 8f95 5b3f 95b9 3c3f
00000090: e2d6 5b3f 6670 483f 2777 493f 4fa3 683f
000000a0: 2873 493f ff81 503f 0384 443f 078d 643f
000000b0: 8c75 603f f9fd 6c3f f0b5 423f 7185 603f
000000c0: 472f 733f c979 4f3f 26f7 4a3f 9587 5a3f
000000d0: 4e91 503f 2cc9 5f3f 1d0e 6e3f 2e30 5f3f
000000e0: b67f 4f3f b73a 553f 2684 523f 3501 513f
000000f0: ae01 5e3f 9965 4a3f 00f0 513f 0221 4d3f
0.8862963 0.80258745 0.9047768 0.9630883 0.7620802 0.8771219 0.8360644 0.7596275
0.7579662 0.8684911 0.8101748 0.74537474 0.84834176 0.76047677 0.8004713 0.72677255
0.9643954 0.9184976 0.719959 0.8289414 0.82914305 0.95073634 0.89433616 0.84737366
0.81958526 0.8715155 0.8898425 0.6944316 0.8547431 0.8243485 0.89599514 0.92133117
0.83826315 0.83163774 0.85775083 0.73720676 0.8587476 0.78296506 0.7869744 0.9087419
0.7869134 0.8144836 0.76763934 0.8927769 0.8767936 0.9257503 0.76058865 0.87703615
0.94994015 0.81045204 0.7928337 0.8536313 0.8147172 0.8741634 0.92990285 0.8718289
0.81054246 0.83292717 0.8223289 0.81642467 0.86721313 0.79061276 0.82006836 0.8012849

layers.0.ssm.deltaBC_layer.weight f4 [144, 64]
00000000: 7512 44ba 59fa ab3c c11e 6ebc e7ef 8b3c
00000010: 7d8e 29bc d843 24bc 1412 71bb 2d8a ef3a
00000020: 332d 61bc 9a9e 023c 4226 96bc 7600 d8bb
00000030: e147 bc3c af5b 8cbc 1d69 5a3c 967c f5bb
00000040: ebb6 8d39 7db6 6abb a74d e93b cece 80bc
00000050: b177 25bb e38f 3b3c b4e9 9b3c e80d 9bbc
00000060: 0861 b3bc 1473 b53b f3c7 1c3c 047c 9b3a
00000070: 296c 133c adff 793c 40ec 0a3a feb6 c63b
00000080: 8116 babb 7a4f d1ba b6ae 4fbc 4e8c 783c
00000090: f3d8 243a 1f90 133c b42f b03b dc04 18bb
000000a0: f961 dc3b f502 fd3b ce8e 88bb d993 94bc
000000b0: 7b38 a4bc 9189 763c 7998 01bb 87f6 05bc
000000c0: 919e 26bc 7285 923b b7bc 4f3c 6c5b 18bb
000000d0: 84ce d43a 5bfa a13c 0d59 85ba a0b4 01bd
000000e0: 5a8e 6dbb 6724 db3c 5884 57bc 9cd7 a9bc
000000f0: 6e5e 49bc 9c1c 273b 723f 243c ec1a 3d3b
00000100: 9f46 603c ecd5 e2bb 859b 173d 8cac 4bbd
00000110: 3601 99bb cdd9 b23c 8d07 0bbb a223 29bd
00000120: 942f c63c 30b6 d43c 3c9f 20bd 6f3f 8a3c
00000130: 062e 26bd 4f57 d53b 8d5a 28bd f64d 3fbc
00000140: 5dfd 8dbc 516a d33c 6b7c 6cbc 050e 9ebc
00000150: 80f2 273d aa99 1ebd 689f 983b 3541 01bc
00000160: 00b4 1ebc 8f1d 47bc 1b13 543c 74a2 003d
00000170: 802f 37bd 2cdc b93c 096f cbbb 8dd1 243c
00000180: b060 1dbd 1bbe 26bd 82fe 043d 7276 f1bc
00000190: abb3 27bd a132 29ba 5efc 33bd 900d 07bd
000001a0: dc25 ee3c 58af f53c 2a8a 8cbb ac3a c53c
000001b0: 5840 e63b 6202 853b 1e25 203c f4a7 d3bc
000001c0: ecbd 9b3c adf1 01bd a192 1abd 8e85 19bd
000001d0: 4806 4e3c 5a4b 673b bfbd 22bd f102 06bd
000001e0: a026 fe3c f013 003c 4e95 13bd 3208 333c
000001f0: 60ac 53bc 3435 1bbc 6849 a9bc 234a 993c
00000200: 1673 acbc c7cf e7bc 0ce8 b83c 776c 9abc
00000210: 0322 d83b 452a 8cbc 46e7 e33b 9b74 803c
00000220: e778 a63c c42c 113c 237a 813c 7ac3 b6ba
00000230: 5ffc a93b 0cb4 233b 691a 353a bbe9 30bc
00000240: aa04 18bc 5c8b c7ba 4e30 1ebb 4242 7ebc
00000250: 9546 ad3c abd1 9fbb 2d52 353b 9f5c 29bc
00000260: 68a1 963c e564 6fbb 4e08 f93a c919 603c
00000270: db26 c33c ed71 a1bc e81e 34bc 3896 3abc
00000280: d5e3 2fbc d870 983c b074 b73c e944 bd3c
00000290: eae1 6fbc 2f71 503c 9a21 2bbc 75d1 83bc
000002a0: eb63 b83c c30c a2bc bc44 87bc 804f 583c
000002b0: 5f99 5e3c 1520 613c eeec 26bc 0482 4ebc
000002c0: 2cd2 a2bb 156c a13b 682f bfbc b9bc ce3c
000002d0: df4a 30bc 2757 cf3c f1bf 4d3c 874c 99bc
000002e0: f4dd b3bc e4df e8bc 672c 553c 8635 8e3b
000002f0: fc16 9fbc 43c7 1d3c 486d d3bc 3bcc 953b
00000300: 0686 e5bb a221 3ebc eb0d 67bb e5c3 a9bc
00000310: 1981 8a3c 4f58 983b 33d2 35bc c2f0 80bc
00000320: 0dfb 5cbb 0e60 95bc 67ef 2a3c 2a14 843c
00000330: 1ba7 913c 9869 793c b1b2 883c 9a69 f8ba
00000340: f40a 83b9 a642 6ebc d797 8bbb 4af1 94bc
00000350: 0c52 15bc 3799 f03a 8701 333c 2f96 de3b
00000360: 5f5a 6e3b 6afe 83bb 141d 5bbc 3e7e 6c3b
00000370: a457 5aba 274c d5bb 93df 1b3c 77ac 1c3c
00000380: 520d 28bb 0aef a0bc 0b10 37bb 563b 5d3a
00000390: 88bf 5e3c dfd0 0fbb 0ae3 8abc 7840 67bc
000003a0: 691a 983b 94c3 823c 6b54 a8bc 9005 52bc
000003b0: 9592 93bc 310b 9ebb 0970 2339 721f 55bc
000003c0: b68b 1dbc 19bb 1cbc 927f 7fbc aafc 8cbb
000003d0: 7b74 1abb 23b7 a4bb 849a 943a 9900 a73b
000003e0: 0217 c3bb f17f b4bc 4311 bdba 7b46 fe3b
000003f0: 6d8c d6bc 59c3 723c 9d7c f93b 7e9c 15bc
-0.0007479557 0.020993399 -0.0145336995 0.017082168 -0.010348913 -0.010025941 -0.0036784457 0.0018275433
-0.0137436865 0.007972384 -0.01832879 -0.006591852 0.022983493 -0.017133562 0.013330725 -0.0074916584
0.000270299 -0.0035814338 0.0071198526 -0.015723612 -0.0025248344 0.0114478795 0.019032337 -0.01892753
-0.021896854 0.0055374 0.009569156 0.0011862521 0.008997955 0.015258712 0.0005299486 0.006064295
-0.005678952 -0.001596912 -0.012675932 0.01517017 0.00062884315 0.009006529 0.0053767804 -0.0023196256
0.0067255464 0.0077213 -0.0041674143 -0.018136906 -0.020046463 0.015047447 -0.0019774719 -0.0081764525
-0.010169641 0.0044714743 0.0126792705 -0.002324785 0.0016235863 0.0197727 -0.0010173634 -0.031666398
-0.0036248178 0.026750756 -0.013154112 -0.020732693 -0.01229058 0.002549923 0.010024892 0.0028855158
0.013688712 -0.006922474 0.03701355 -0.0497251 -0.004669334 0.021832371 -0.0021214217 -0.041293748
0.024192609 0.02596578 -0.039214358 0.01687595 -0.040571235 0.006510652 -0.04110198 -0.011676302
-0.017332727 0.025807532 -0.01443396 -0.019293794 0.04100275 -0.038720764 0.0046576746 -0.007889082
-0.00968647 -0.012153043 0.012944008 0.031404927 -0.044723034 0.022687994 -0.006208305 0.010059726
-0.038422287 -0.040708642 0.03246928 -0.029475424 -0.04094283 -0.00064543827 -0.043941848 -0.03297192
0.029070787 0.029990837 -0.0042889314 0.024075828 0.0070267133 0.004059122 0.009774474 -0.025836922
0.01901146 -0.03172462 -0.037737492 -0.037480883 0.01257474 0.0035292716 -0.039731737 -0.03271765
0.031024277 0.0078172535 -0.03603106 0.010927247 -0.012919515 -0.009473134 -0.020664886 0.018712109
-0.021050971 -0.028297318 0.022571586 -0.018850548 0.0065958514 -0.01711 0.00695506 0.015680602
0.020321323 0.008860771 0.01580531 -0.0013943755 0.0051875557 0.0024979142 0.00069085375 -0.010797913
-0.009278456 -0.0015224027 -0.0024137679 -0.015518727 0.02115182 -0.0048772893 0.0027667389 -0.010337024
0.018387511 -0.0036528644 0.0018999667 0.013678023 0.023822239 -0.019707644 -0.010993697 -0.011388354
-0.010735472 0.018608496 0.022394508 0.023104148 -0.014641264 0.012722298 -0.010445023 -0.016091088
0.022508582 -0.019781476 -0.016512267 0.013202548 0.013586371 0.013740559 -0.010188324 -0.01260424
-0.004968902 0.0049262145 -0.023338035 0.025236474 -0.010760038 0.025310112 0.012557969 -0.018713249
-0.021956421 -0.028427072 0.013011075 0.0043398766 -0.01942014 0.009630027 -0.025808945 0.0045714653
-0.007004502 -0.011604698 -0.0035256098 -0.020723293 0.016907262 0.004649199 -0.011097479 -0.015739802
-0.0033718974 -0.018234279 0.0104330545 0.016122896 0.017779877 0.015222929 0.01668677 -0.001895237
-0.00024994428 -0.014542257 -0.004260044 -0.018181462 -0.0091138 0.0018356208 0.010925657 0.0067928056
0.0036369783 -0.0040281313 -0.013373632 0.0036085988 -0.00083290995 -0.006509322 0.0095137535 0.009562603
-0.0025642705 -0.019645233 -0.0027933146 0.00084393227 0.013595469 -0.0021944565 -0.016953964 -0.014114492
0.00464182 0.0159624 -0.020548066 -0.012818709 -0.018014232 -0.0048231115 0.00015586628 -0.013007985
-0.009615829 -0.009566092 -0.01559438 -0.004302581 -0.0023567963 -0.0050267144 0.0011337553 0.005096507
-0.0059536705 -0.022033663 -0.00144247 0.007759867 -0.026190007 0.014817082 0.007613732 -0.009131549

layers.0.ssm.dt_proj_layer.weight f4 [64, 16]
00000000: ec53 ce38 e46b 8dbc ef40 c3b8 677e b93b
00000010: 84e3 c33b 903e ce3d 1cc6 11b9 9333 a23c
00000020: 2614 82bc 2127 8938 5f02 48bd 8a8b dd3b
00000030: 7f76 0ab9 ef3b 7cbc 8fe5 4b35 d950 283d
00000040: fa0b 7a38 2f6d e23b 0f5b 9738 9382 053a
00000050: c305 edbb 5e55 403d 42ec ad38 f2f1 d23c
00000060: edf2 5a39 764c 20b8 9f76 cf3b 7269 51b9
00000070: c3b7 26ba 64f8 15bc 7731 5637 17fb c5bb
00000080: dc6f 1438 bb14 783d d5f8 1139 67d9 0b3b
00000090: 4606 babc 4bb2 5d3d b5d3 3439 0be9 bbbc
000000a0: 6a40 8aba b49f d7b8 8152 903d ed56 54ba
000000b0: 2dea 4139 23ee 05bc 4b68 093a 6621 91bc
000000c0: fd01 df3c 74da ab3d 78be 473b af27 38bc
000000d0: be9a d7bd a1c6 f03b 588c 28ba 98b9 8b3c
000000e0: 46df 3abd 24df e53b 0e73 8f3d 354a 443d
000000f0: 91d4 31bc 7962 97bd d830 a1bc 37dd 933b
00000100: fd8f 93b8 96d3 ecbc def1 a3ba e0cf d0bc
00000110: f52b 4a3a 66c7 233d 3aa4 a4b8 efd3 b03b
00000120: c42e eab9 da0e 8a38 d996 4fbc ec83 cb39
00000130: 71cf b5b8 b774 f73c 1f34 4137 041e 72ba
00000140: 295a e739 8273 91bc 6ad0 d938 bf11 c93b
00000150: d4fe 06bc 2c22 ae3c 1f55 a639 ec79 2cbc
00000160: 2ddc 463c 359d 7c38 ed93 2b3d cc3a 54ba
00000170: 3294 a839 9baa 5c3d 5e22 09bc 1c83 86bc
00000180: 062e 663a 474a 453b 14b1 e1b9 83eb 853a
00000190: 80ef 91ba f84a 753d deb7 5c3c 0c4e 203c
000001a0: fbc3 af3a 454c 4bb7 d6ed a9bc 31b9 a1b9
000001b0: b738 803a eb10 91bc b429 96b6 9cae 9939
000001c0: afe6 9fb7 dcad 703d d76a cab9 64ea f0bb
000001d0: 8c5f f4bc b36e 97bd a92d 6639 a663 563c
000001e0: d4cb bdbc cb2a 973c a638 f9bc c3d4 0ab9
000001f0: 4e41 ee38 3495 d03c 36c1 30b9 a622 88bc
00000200: ed5b 60b8 f5a0 713c fc08 07b8 dede bd3c
00000210: b978 cb37 6fc7 62bd 0762 50b8 34c2 e4bc
00000220: d3c8 6ebb 1cd8 0038 32dd 8abc 2441 133c
00000230: 7941 e3bb f10d 16bc e68d 1bba d9ae a8bc
00000240: fc1c feba 60ec 9ebd dd4c 3bbc 6427 41bc
00000250: 3798 403d 5009 dcbd 8783 c5ba ed47 803c
00000260: 0ecd 533d ce3e 42ba cc7a 71bd d2ca 953c
00000270: dcb3 06bb f0a4 5ebd 8a29 223c 1a7d 203d
00000280: 0174 b338 42a7 eb3a b787 d8b8 0945 1bbc
00000290: a1f3 943c cae4 02bc 3147 f938 4d0b 4fbd
000002a0: 8f3c 4d3a 2787 1fb8 1b12 873d 4051 1b37
000002b0: 1234 1dbb b2b1 f5b8 b2ef aab8 4572 f23b
000002c0: f236 7c3a ab44 12bd 99e2 da38 cf7b 41bc
000002d0: d33f 8eba cdba 4a3d 9abe de38 2fe5 5d3a
000002e0: 939a 213a 82bb 54b7 edf4 133c 52e9 96b9
000002f0: 1bbc b938 8c6e e43c 395d 72b7 7a81 d4ba
00000300: a949 bb36 9cf7 4b3c 4832 91ba 820e 0c3b
00000310: 246b 4f3b 05b7 a9bd aa69 95b8 159c 593c
00000320: 274e afbc a62c 38bb 2cef c33c b067 0fba
00000330: bbec 9db8 2140 48bc 6b67 01bc 699a 79bd
00000340: 9420 323a f226 22bc 733b 2cbc d838 f3b9
00000350: 9bcd 7dbb 57d0 a43d e5d1 c838 b9e2 253d
00000360: be14 32bc 09c7 9a39 7318 bc3c fcfd b2bb
00000370: bd24 6739 b255 443b b685 a0b5 4d07 ecbc
00000380: 3d2f 2c39 3413 573c f47a eb37 44c4 2abc
00000390: 2d57 843a ba03 3dbd 0b6d 0d3a 65fa a73b
000003a0: c93e 413a b286 29b7 1de6 b7bb e242 d1bb
000003b0: aa3a 5a38 f201 0d3d e836 d837 9b50 893c
000003c0: d38b 5439 eb15 24bd 8493 8e34 7f35 27bb
000003d0: 3a9c ec38 71ce 4cbd 8d05 55b9 b741 8d3c
000003e0: 8205 313c b593 95b8 7772 13bd 6068 4abc
000003f0: a4e1 343c c725 53bc 31bd 11b8 fa8b 9cbb
9.838477e-05 -0.01726336 -9.3104194e-05 0.0056608203 0.0059780497 0.100705266 -0.00013902079 0.019799983
-0.015878748 6.5399574e-05 -0.048830386 0.006761019 -0.00013204849 -0.015395149 7.5957445e-07 0.041092727
5.96158e-05 0.0069099884 7.217202e-05 0.00050930044 -0.007233353 0.046956412 8.293289e-05 0.025750134
0.00020880597 -3.8218182e-05 0.0063312794 -0.00019971075 -0.000635978 -0.009153459 1.2766911e-05 -0.006041895
3.5390127e-05 0.060566645 0.00013920975 0.0021339299 -0.02270807 0.05412511 0.00017245005 -0.022938272
-0.0010547761 -0.00010281746 0.07046986 -0.0008100111 0.00018493152 -0.008174452 0.0005241676 -0.01771612
0.027222628 0.08391276 0.0030478518 -0.01123993 -0.105275616 0.007347897 -0.0006429604 0.017056271
-0.045623086 0.007015126 0.07004367 0.04792233 -0.010853902 -0.07391829 -0.01967661 0.004512455
-7.036326e-05 -0.028909486 -0.0012507995 -0.025489748 0.00077122386 0.039985083 -7.850719e-05 0.005396358
-0.000446668 6.583119e-05 -0.012670242 0.00038817467 -8.6693915e-05 0.030207021 1.1515832e-05 -0.000923604
0.00044126928 -0.017755274 0.000103861865 0.0061361487 -0.008239467 0.021256529 0.00031725407 -0.010527115
0.012137455 6.0227892e-05 0.04188912 -0.00080959196 0.0003215387 0.05387364 -0.00837001 -0.01641994
0.0008780662 0.0030104087 -0.00043047278 0.0010217283 -0.0011133999 0.05988595 0.013471572 0.009784233
0.0013409847 -1.2117501e-05 -0.020743292 -0.0003084629 0.0009782527 -0.017708262 -4.4752032e-06 0.00029312528
-1.9061697e-05 0.058759555 -0.00038608044 -0.0073521603 -0.029830717 -0.07394161 0.00021951519 0.0130852815
-0.023168482 0.018453022 -0.03042252 -0.00013239965 0.00011360888 0.02546177 -0.00016856645 -0.016618084
-5.3491374e-05 0.014747848 -3.2194876e-05 0.02317756 2.4255702e-05 -0.055365976 -4.968236e-05 -0.027924635
-0.0036435619 3.0718846e-05 -0.016951177 0.008987699 -0.006935295 -0.009158597 -0.0005933925 -0.020591186
-0.00193873 -0.07759929 -0.0114319 -0.011789177 0.047020163 -0.10743964 -0.0015069105 0.015659297
0.051709227 -0.00074098713 -0.058955 0.018285189 -0.0020553982 -0.054356515 0.009897599 0.039181806
8.5569925e-05 0.0017978924 -0.000103249615 -0.0094769085 0.018182578 -0.007989118 0.00011886506 -0.050547887
0.00078291533 -3.8034425e-05 0.0659525 9.257637e-06 -0.0023987335 -0.00011715609 -8.1508784e-05 0.007398876
0.00096212246 -0.035710018 0.00010437257 -0.011809303 -0.0010852761 0.049494553 0.00010621287 0.0008464632
0.0006164696 -1.2679842e-05 0.009030563 -0.00028784067 8.856525e-05 0.027884744 -1.4446029e-05 -0.0016212903
5.5816095e-06 0.012449171 -0.0011077607 0.0021370952 0.0031649554 -0.08286861 -7.124555e-05 0.013281842
-0.02139957 -0.0028102784 0.023917757 -0.0005470468 -7.530438e-05 -0.012222321 -0.007898192 -0.060938273
0.00067950157 -0.009896981 -0.010512221 -0.00046390924 -0.0038727287 0.0804755 9.575839e-05 0.040499423
-0.010869203 0.00029521462 0.022960877 -0.005462406 0.00022043563 0.0029958305 -1.1959844e-06 -0.028812075
0.00016420796 0.013127137 2.8071438e-05 -0.01042277 0.0010096781 -0.046146132 0.0005394972 0.005126285
0.00073717214 -1.0104546e-05 -0.0056121484 -0.006386147 5.2029885e-05 0.034425683 2.5774774e-05 0.016762068
0.00020269984 -0.040059965 2.6556893e-07 -0.0025514064 0.000112824564 -0.050001565 -0.00020315331 0.01724325
0.010804536 -7.132386e-05 -0.035997834 -0.0123539865 0.011040125 -0.012887425 -3.4746892e-05 -0.0047774287
