pengujian_parameter/3/vim_model_0.pth (torch, 124321 bytes, 58 tensors)

cls_token f4 [1, 1, 28]
00000000: 01c1 87bf 7239 10c0 beab 203e 4c4a 363f
00000010: 1b5e 28bf 10a7 343f 787b 0dbf 8db5 2fbf
00000020: 1362 953e 0ea3 603f d3b1 bc3e 4034 163f
00000030: 9570 24bf f236 efbe d218 c33e 5af5 6c3f
00000040: ac93 c6be 9c4a a63f 2d8f 0f3f bd72 6d3f
00000050: d966 f9be f423 403f 10bf c5bc eb59 3abf
00000060: ddd4 c2be 5b3a 523d fde3 133e ec8c ec3e
-1.0605775 -2.2535062 0.15690514 0.7120712 -0.65768594 0.7056742 -0.55266523 -0.686364
0.29176387 0.877488 0.3685442 0.5867348 -0.64234287 -0.46721607 0.38104874 0.92561877
-0.3878454 1.2991519 0.56077844 0.927532 -0.4871128 0.7505486 -0.024138957 -0.72793454
-0.38053027 0.051325183 0.1444244 0.46201265

to_patch_embedding.1.weight f4 [28, 169]
00000000: 4924 793c a086 3f3d 5e9f aebc b932 6f3c
00000010: a69b 833c 42f7 20bd 4ae3 29bd c9d8 353d
00000020: 19d7 ecbc fd62 003d c260 08bd f113 4f3c
00000030: 3885 2cbd 2b7c fd3c 180b 2fba 3328 bb3a
00000040: c904 4d3d b9c9 323d 5520 0b3d 55ff 163d
00000050: 8e07 93bd 0ebc 92bc e55f 973c 907b 42bd
00000060: 794c 453c 889c 45bd 934a ac3d 4bfc e7bc
00000070: 28d8 a5bc a013 893d f2bd 0cbc ef61 2cbd
00000080: b976 9cbd ad28 1dbd e4a9 24bd 996f 11bd
00000090: 5e25 0abd 3c1a 6e3c 3fa5 86bc e02e 823d
000000a0: 3a9c d0bc 9c2d e5bc 5f7c 33bc 4046 fbba
000000b0: d3a1 d238 1170 003d 2af7 72bd 0167 053d
000000c0: 9bde bd3b 4c2d 84bd 3e5e a4bc 0042 653d
000000d0: b895 3c3d df9f 90bb 1de7 703d 4646 5c3d
000000e0: 2953 9fbd 582f 293d 1487 19bc 6cdc 733c
000000f0: be37 3f3d 2514 60bd 4c38 edbb fe07 d53c
00000100: 162e 593d 3689 11bb 7fde 313d a735 7cbd
00000110: 4eca b53c e3b7 553d 5161 49bd 3ce1 a5bd
00000120: 4455 3c3d da9a 3ebd a406 793d c327 573d
00000130: 1bcf 47bd 62de 113d 6945 4e3c 9086 5ebd
00000140: 8d73 2bbd 3dfc 863d acac e0bc b195 55bb
00000150: f070 f43c f554 993d c18c 9a3d e017 ef3c
00000160: 80b1 213c 3c36 1f3d b0ad 92bd 51a3 89bb
00000170: 509f 12bd 2810 39bd 8b69 4abd 2172 5ebc
00000180: dcfb c0bd 2d06 563d 733a be3c dba9 193d
00000190: 6169 b4bc c7dc 46ba cdfc eeba 1f6f 2f3d
000001a0: ce20 83bc 3ac3 5a3d bf5c ee3c e324 b3bc
000001b0: 92f5 1e3d 404d 133d a974 373d 6f23 c63b
000001c0: 1689 203d 0dcc 41bb ecc7 24bc 6917 003c
000001d0: aba8 06bc 4552 2fbc 03af 273c 09ea 1abd
000001e0: 08f3 8abd 6e29 72bd 8974 fe3c 3301 9b3c
000001f0: fe92 29bd 911e 7c3d 11d2 21bd 9a45 1a3d
00000200: 83ea 8bbd 9104 6a3d 03cc 97bd 6ca5 9bbd
00000210: 10c0 8abd adc5 85bd de0f 7f3d fd2b 22bd
00000220: 8b62 0b3c 4d76 543d 8bc1 9b3d d80b 783d
00000230: d410 413d 2226 30bd 8f6c 363b 4696 d4bc
00000240: b9a9 77bd 9acb 5fbd d5e0 8b3d 5f05 943d
00000250: 3733 e83c 17bd 91bd ee1e 043d a51c 90bc
00000260: b0bd 8b3d 3f27 89bd 29e1 0d3d 4719 cebc
00000270: 039a 31bc 8dfd 0dbd 2dfd 093d ca13 ac3c
00000280: 1676 993d 7881 ce3c 7a54 b43c 499f 9d3d
00000290: 96df 34bd 6ee5 943c 826d 393d b1e2 243d
000002a0: 7904 9bbd 8abb 1dbc 93e4 21bc 7849 213d
000002b0: 1a19 203d dbf4 4bbd 8fca 8e3c cc14 103d
000002c0: 2722 933c cab7 17bd 1788 893d e8fc 4b3d
000002d0: 2ee4 3a3d c381 43bb 683c 8abc 6dd7 1abd
000002e0: 9c0a 2fbd 2b68 33bc abee 7bbb c6fb 6e3b
000002f0: ac27 473d 9b32 2bbd 2336 103d 8f03 68bd
00000300: 4bbe 003d a5dc d63c 9ce1 e3bc 6f03 003d
00000310: fbde a23c 21bc 013d 14e1 833d 4955 83bd
00000320: ec2a cb3c 9f27 503d d15e a9bd 879c 47bd
00000330: 48dd 23bd de55 923b 9154 223c cf89 08bd
00000340: 8c4b 1c3d c15c 0bbd c4b7 bebc 46a8 15bd
00000350: 637e f2bc fd46 93bc 954e f0bc e421 48bd
00000360: bc16 1f3c bfbe 38bc 08b1 213d 6051 f2bc
00000370: b45b 63bc f18e 773b 7176 6b3d 8e2d 8cbd
00000380: aa32 5e3d 5e8a 5cbd 5e9d 5fbd 2e90 5e3b
00000390: 802f 62bd 3e70 893d f9be d23c 5373 353c
000003a0: e5fe 80bc 8674 69bd 0d57 923d 118b 68bd
000003b0: 8cb1 04bd 9b40 813d 7f30 89bd 0867 5ebc
000003c0: 9d5c 50bd 08fd 203d ea30 9a3c f206 903c
000003d0: 1052 a03c 740f 743d edc9 f2bc 3828 5dbd
000003e0: 3889 8a3d d66c 0bbd 0f43 cdbc 29ed 153d
000003f0: 5415 553d 9aef 183c cd45 df3d fe96 9cbb
0.015206405 0.046759248 -0.021316227 0.014599496 0.01606543 -0.039298303 -0.041476525 0.044396196
-0.02891116 0.031344403 -0.0332954 0.012639032 -0.042119235 0.030942997 -0.00066773733 0.0014278948
0.05005339 0.04364941 0.03396638 0.036864597 -0.07179175 -0.017911937 0.018478343 -0.04748112
0.012042158 -0.048244983 0.084126614 -0.028318545 -0.020244673 0.06693196 -0.008590208 -0.042085584
-0.07639832 -0.03836887 -0.040201083 -0.03550682 -0.033727042 0.014532622 -0.016436217 0.06356597
-0.02546512 -0.02797585 -0.010954945 -0.0019170716 0.000100437224 0.031356875 -0.059317745 0.032568935
0.005794359 -0.06453952 -0.02006447 0.055971146 0.04604122 -0.0044135894 0.058814157 0.053777955
-0.077795334 0.041304916 -0.009370584 0.014884096 0.04668402 -0.05470671 -0.007239377 0.026004788
0.053022467 -0.0022207028 0.04342508 -0.061574604 0.022191193 0.05217732 -0.049165074 -0.08099601
0.045979753 -0.046534397 0.06079735 0.052528154 -0.048781496 0.03561247 0.012589791 -0.054327548
-0.041858245 0.065910794 -0.027426086 -0.0032590444 0.029839009 0.074869074 0.07546378 0.02918619
0.009868979 0.03887008 -0.071620345 -0.004200377 -0.035796463 -0.045181423 -0.04941706 -0.013577015
-0.09423038 0.052251983 0.02322123 0.037515502 -0.022022905 -0.0007585999 -0.00182333 0.042830583
-0.016006853 0.05340884 0.02909696 -0.021868175 0.038808413 0.035962343 0.04478899 0.0060467045
0.039193235 -0.0029571087 -0.010057431 0.007818081 -0.0082189245 -0.010700767 0.010234597 -0.03782085
-0.06784636 -0.05912154 0.031061428 0.01892147 -0.04139995 0.061552588 -0.039506976 0.037664033
-0.06831839 0.05713326 -0.07411959 -0.07599911 -0.06774914 -0.06531844 0.06227099 -0.03959273
0.008507381 0.051870633 0.07605275 0.06055817 0.04713519 -0.043005116 0.0027835702 -0.025950562
-0.060464595 -0.05463753 0.06829993 0.07227587 0.028344734 -0.07116144 0.03225606 -0.017591784
0.068232894 -0.06696939 0.034638558 -0.025158538 -0.010839942 -0.034665633 0.033688713 0.02100553
0.07493226 0.02520822 0.022012938 0.07696397 -0.04415854 0.018175807 0.04527045 0.040255252
-0.075692125 -0.009627232 -0.0098811565 0.039376706 0.03908644 -0.04979406 0.017430572 0.035176083
0.017960621 -0.03704051 0.0671541 0.049801737 0.045627765 -0.0029831983 -0.016874507 -0.037803102
-0.042734727 -0.010950129 -0.0038441818 0.0036465987 0.04862182 -0.041796308 0.03520788 -0.05664402
0.031431478 0.026228258 -0.02781754 0.031253275 0.019881716 0.031673554 0.064394146 -0.06412751
0.02480074 0.050819036 -0.08270038 -0.04873326 -0.040005952 0.0044658026 0.0099078575 -0.03333455
0.038157985 -0.034024004 -0.023280986 -0.03653743 -0.029601282 -0.017978186 -0.029334346 -0.048860446
0.00971001 -0.011275946 0.03947547 -0.029579818 -0.013876844 0.0037774409 0.057486 -0.06844626
0.054247536 -0.053842895 -0.054593436 0.003396045 -0.05522108 0.067108616 0.025725828 0.011074859
-0.015746543 -0.05699589 0.0714551 -0.05677325 -0.032395884 0.06311151 -0.06698703 -0.013574369
-0.050869573 0.03930381 0.018822152 0.017581437 0.01957038 0.05958505 -0.029637301 -0.053993434
0.06764454 -0.03403934 -0.02505639 0.036603127 0.052022293 0.009334469 0.10901985 -0.004778742

to_patch_embedding.1.bias f4 [28]
00000000: 6e0e 873d 45fa 86bc f3a2 a3bc 6881 f13a
00000010: 3b96 533d 22b8 143d e3b3 7bbc b98b aebc
00000020: e0ef 813d 3ab1 e53c c739 013d 0b63 bc3c
00000030: d370 3f3d 213e eabb 4f2d 9fbc d703 fd3c
00000040: dc2d a33d f38a 093d 0248 87bc 2b41 4fbb
00000050: aa16 8dbc d217 92bc c49f 753c 3b7f 7e3c
00000060: 1bd5 7ebc e005 063d 4a37 1d3d ef6b 9ebc
0.06594549 -0.01647676 -0.019975161 0.0018425407 0.051656943 0.036308415 -0.015362713 -0.02130686
0.06344581 0.02803861 0.03154924 0.022996446 0.046738457 -0.0071485196 -0.019430785 0.03088562
0.07967731 0.033579778 -0.016513828 -0.0031624536 -0.017222721 -0.017833624 0.014991704 0.015533264
-0.015553738 0.032720447 0.038382806 -0.019338576

layers.0.forward_conv1d.weight f4 [28, 28, 1]
00000000: b7bf 3c3d 0e7f dbbd 38aa 8dbc ed47 8bbb
00000010: c7f7 e3bd b610 b33d c705 8e3d f18a d43d
00000020: 3c54 993b dd78 bc3d a88d 14bd 390a ce3d
00000030: 046a 993d 5a78 c8bd 0b7a d2bd 2db8 57bd
00000040: af88 88bc 0009 053e a175 0fbe aae9 e43c
00000050: 9b18 773b e635 413b 053f ffbc 1195 a7bd
00000060: 886e cb3d 0a4b b13d 9217 4d3d 14ec 7a3d
00000070: 669a f03d 0f7e c7bd ce44 143e 442b babd
00000080: 3804 ca3d 423e f0bc ba25 0f3e 5a22 36bd
00000090: 51e8 123c beee 75bd cc89 d2bd 2ff4 113e
000000a0: 212c b63c c71a 0fb8 0213 9fbd 83b8 9cbd
000000b0: bb16 233c e927 f93d 4025 a4bd 721b 573d
000000c0: 28e9 953d 1695 033e de21 0ebe 205e d03b
000000d0: fbb9 6fbd b49d 6bbd f4d2 4e3b e5da 2abd
000000e0: 071f 383d 7df3 003e 02f9 dcbd 7088 473d
000000f0: b5cd f63d f808 06be b42e a4bd 025c 96bd
00000100: 055d d63d bf51 ba3c 4525 46bd 926f ba3d
00000110: 6a21 76bc 1b77 e3bd 32f2 b5bc f9a7 ab3d
00000120: 4afd 5bbd 2546 2bbc add8 fcbd afc6 8dbd
00000130: 5613 d9bd ee8b 95bd 0b46 013e e873 a6bd
00000140: 15d5 bdbd 6858 553d 28bd d83b abcd 893d
00000150: 832a 95bd f9a3 b7bd 5370 c2bc 4a2c 923d
00000160: 9623 d039 291a ef3d b7b9 683d 279f cf3b
00000170: 3d0f 053e 88fb ecb9 f994 fc3d ce25 e03c
00000180: 0f56 c13d 4cb2 0fbe fedc a43d 7017 32bd
00000190: 0f88 8a3d f0dd c4bd 59a4 e13d f515 f63d
000001a0: 97f2 db3d 5af2 893d 6bd5 f93c 8c42 cf3d
000001b0: e78d e8bd fbce c33d 2b16 b8bd d082 16be
000001c0: 9b75 b53d 852a 553d b40f 8fbd eeb0 2abc
000001d0: 8f81 d23d 5417 debd 51c0 6439 32c9 efbd
000001e0: c9c0 08be cd4c a4bd 120a cbbd 7a44 aebd
000001f0: 6ec6 c63c c364 c6bd 4b9c 19be 4200 c1bd
00000200: a4f7 d83d 348f 353e 803d 0f3e 9229 f63d
00000210: 2eb7 c1bd a57e 0a3d 98d0 193e 6839 953d
00000220: 01ad 133d 4ece 03bd aae0 9abd b2e4 b73d
00000230: b7d9 24ba 0aba 743d 711e c13c 540c 98bc
00000240: 73b4 d4bb 4aed 163e f6a0 2cbd 37d5 8dbd
00000250: c476 64bd dee8 72bd ff93 93bc b55a 6d3d
00000260: d027 e23d 1376 2c3e 4c21 0abc 090c b23d
00000270: 0faa b2bc 53ce 283c 76e4 d13d c8da c4bd
00000280: 2abb 86bb 907a fb3c c7e1 2abd 2f3e 02be
00000290: 5587 e23c ece1 233d 644a 7e3c 9795 04be
000002a0: 5050 efbd f674 d8bd 8ac3 fb3d 5935 4bbc
000002b0: 7786 393d 03d9 063d d391 573c 6cc8 a6bd
000002c0: ba3d 1ebd 720c 483d 2706 c6bb d66f 593d
000002d0: 0bc9 d8bd a309 fabd ec0f 003e c6df 403d
000002e0: 3806 dcbd bdcd aa3d baba 0cbe ee9c f4bc
000002f0: 7d82 8a3d 4f98 36bd 05a5 10bd cb4a a3bd
00000300: ce39 ac3d e10a bd3d 00c9 90bd b189 51bd
00000310: 1843 0c3e 6b8e fdbd 3d08 93bd 2a25 df3d
00000320: f95a 04bd 3b95 2bbd c928 63bd b79c 253d
00000330: 0419 f43d 8322 cabd 8b42 283e bf38 cfbd
00000340: ff0b 08be 3dd8 c73d 4847 803d 1ce1 d53d
00000350: 7c97 a53c 22d7 d0bc b3e3 e83b 64a3 983d
00000360: 272e 953d 4c11 ab3d ba99 2fbd c533 973d
00000370: f8d3 dfbd 62ce 97bc b07f a73d fb01 b23b
00000380: 7ecd 043e 6b07 3abd 31c6 8b3d c6e3 c33d
00000390: ace9 00be 9cb6 063e 46ad 673d 8643 05bd
000003a0: dacf 0fbe 4c3d ffbd 98e1 cf3d 6cd0 0b3e
000003b0: e28e c1bd df04 b63c e0ab 07bb ab8a e0bd
000003c0: 2422 e83b bc24 68bb af42 783c 6254 0f3e
000003d0: 1d87 f73d 4c00 c13d 5beb b83d 134e 583c
000003e0: 948e 0f3e 2974 273e 4b40 3cbc 06c1 133c
000003f0: 2d60 67bd 0479 b33d 31cb 90bc 7ecc 893d
0.04608127 -0.10717593 -0.01729308 -0.0042505176 -0.11131244 0.08743422 0.06934696 0.103780635
0.004679231 0.0920274 -0.036267906 0.100605436 0.07490924 -0.0978858 -0.10277184 -0.052665878
-0.016666738 0.12991714 -0.14009716 0.027943451 0.0037703875 0.002948159 -0.03115798 -0.08182729
0.099331915 0.08656891 0.050071307 0.061260298 0.11748199 -0.09740841 0.14479372 -0.090902835
0.09864086 -0.029326562 0.13979235 -0.044466354 0.008966521 -0.060042135 -0.10280189 0.14253305
0.02223784 -3.4118795e-05 -0.07767297 -0.0765238 0.00995415 0.121658154 -0.080149174 0.05251641
0.07319862 0.1284984 -0.13880107 0.006358877 -0.058526974 -0.057523444 0.0031558843 -0.04171266
0.044951465 0.12592883 -0.10789682 0.0487141 0.12050954 -0.13089359 -0.080167204 -0.07341768
0.10466961 0.022744058 -0.048375387 0.091033116 -0.015022615 -0.11106702 -0.022210214 0.083816476
-0.053708352 -0.0104537355 -0.12346015 -0.069226615 -0.10599391 -0.0730208 0.12624376 -0.08127576
-0.09269158 0.052086264 0.006614346 0.06728681 -0.07283499 -0.08966822 -0.023735201 0.07137354
0.00039699365 0.116749115 0.056817736 0.006336111 0.12994094 -0.00045200833 0.12333102 0.027361777
0.094402425 -0.14032859 0.080499634 -0.043479383 0.06764232 -0.09612644 0.11017675 0.12015907
0.1073963 0.06735678 0.030497273 0.10120115 -0.11355191 0.09560963 -0.08988603 -0.14698339
0.08860322 0.052042503 -0.06985417 -0.01041816 0.102786176 -0.10844293 0.00021815418 -0.11708297
-0.13354792 -0.08022461 -0.0991403 -0.085091546 0.02426454 -0.096871875 -0.15001027 -0.09423877
0.10594109 0.17730409 0.13988304 0.12019648 -0.09458767 0.033812184 0.15020978 0.0728634
0.03605366 -0.03217917 -0.075623825 0.08979167 -0.00062885456 0.059747733 0.023574086 -0.018560566
-0.006491238 0.14738956 -0.04214569 -0.06925433 -0.055777326 -0.05930411 -0.018014906 0.057947833
0.1104275 0.16841917 -0.00843079 0.08693702 -0.021809606 0.010303098 0.102486536 -0.09612042
-0.004111667 0.03069809 -0.041719224 -0.12719034 0.027652422 0.040010378 0.015520666 -0.12947689
-0.1168524 -0.105691835 0.122931555 -0.012402856 0.04529425 0.032921802 0.013157326 -0.08143696
-0.038633086 0.048839994 -0.006043214 0.05308517 -0.10585221 -0.12208869 0.12506074 0.047088407
-0.10743374 0.08340023 -0.13743106 -0.029859986 0.0676317 -0.044578847 -0.035313625 -0.0797325
0.08409463 0.092305906 -0.07069588 -0.051156703 0.13697469 -0.1238068 -0.07179306 0.1089576
-0.03231332 -0.041890364 -0.055458818 0.040432658 0.11918834 -0.09869864 0.16431634 -0.10118245
-0.13285826 0.09758041 0.06263596 0.10443327 0.020213835 -0.025493208 0.007107222 0.07453039
0.072841935 0.083529085 -0.042871214 0.07382921 -0.10929102 -0.018531028 0.08178651 0.005432365
0.12969014 -0.04541723 0.068249114 0.09564929 -0.12589139 0.13155597 0.05656173 -0.0325351
-0.14044133 -0.12462863 0.101504505 0.13653725 -0.09451081 0.02221912 -0.002070181 -0.10963949
0.007084148 -0.0035422286 0.015152617 0.13997033 0.12086318 0.09423885 0.090292655 0.013202208
0.14019233 0.16352905 -0.011489938 0.009018188 -0.056488205 0.08763316 -0.017675014 0.06728457

layers.0.forward_conv1d.bias f4 [28]
00000000: 60c3 463d 92c8 293e 0b24 593d b32b b4bd
00000010: 2d69 133e 65d1 1abd c9eb 0abc a945 863d
00000020: c9e5 8dbc 4783 853d e3d1 1dbd 56cf 753d
00000030: a381 853d 609a 3f3d 4fcb ebbd 6563 0d3e
00000040: 0781 043e d27b 73bd 01c7 e63d bb4c a2bd
00000050: f516 653d 8b1a adbd b3d4 40bd f740 e0bd
00000060: 0b29 b23c 6f34 443d 8c55 ffbd cc08 163e
0.048526168 0.16580418 0.05301289 -0.087973975 0.1439559 -0.03779735 -0.008479067 0.06556255
-0.017321484 0.0651918 -0.03853024 0.060012184 0.06518867 0.046778083 -0.115133874 0.13807447
0.12939845 -0.059444256 0.11268426 -0.079247914 0.055930097 -0.08452328 -0.047077846 -0.10949891
0.021748086 0.047901567 -0.12467489 0.14651793

layers.0.backward_conv1d.weight f4 [28, 28, 1]
00000000: aaf5 12be 53c6 b9bd 2a85 a53c 899e 8f3d
00000010: 00b0 8f3d 3235 f1bd 4bf8 efbc 1a2f 79ba
00000020: 6dd6 903d 73a7 d63d b08f 30bd 8f1a 003e
00000030: 87f1 c03d 7211 c4bd 29e8 ecbc 0bb4 ad3d
00000040: 423c 9a3d 8834 de3b f27d c43d cd3e e73c
00000050: 0f0d 383d 166f b4bd 7d28 643c e852 82bd
00000060: 2acd 09bc 5ab7 323d 0965 bfbc 87d1 06be
00000070: 1c66 2bbd 05b6 d0bc 1d47 ed3d 211d 6bbd
00000080: 47f2 a93c a71a 843d 1381 e7bd 4435 65bd
00000090: 716d e1bd 93be 68bd d1a5 b4bd 4219 853c
000000a0: 32c5 ae3d dd1b 6abd 006f fa3d 9fd1 c43d
000000b0: 830d b13d 4eaf 41bd 4f7f e43c 647f 1abd
000000c0: d2c8 53bd d671 9a3c c98f d83d 0f46 10be
000000d0: d67d 73bd bac9 17be 1b1c 2abd cf0a 513b
000000e0: a808 213d 8ed9 e23a 47d5 9cbd 245c c5bd
000000f0: 4f70 c8bd 7cc6 19bd d1a5 9dbd 0b82 743d
00000100: a1f4 a93b b851 c93d 136d 22be e074 f23d
00000110: 4458 ab3d 9bab 313c 67b6 e5bc 688c 153d
00000120: f295 d43d 5c48 b63c 4693 0dbe 12ef 94bd
00000130: 2ec6 81bc 127a eebd 93ba cebb 1331 1e3e
00000140: a856 c7bd 8070 bb3c 0db0 bfbd 96f8 1a3e
00000150: bba6 95bd f323 0ebe 8077 7d3c 8142 2fbe
00000160: a6f7 763d 39b1 b33c 59db 0abe 99b6 6f3d
00000170: 4efd c63d 09b5 943d 6d6a 1abd f57c 163d
00000180: 8320 c53d 4386 9abd 2cfe 1ebd a1de d6bc
00000190: 2dc1 a4bd 6ceb ac3c 6f3b 7c3d d8d8 883c
000001a0: aab7 9cbc 3158 33bb c97d 13be d432 663d
000001b0: e5cb 19bd 5840 11be e8a7 32bd 5d26 96bc
000001c0: 10fc e53c 2576 ef3d 1508 cc3c b46d 1f3e
000001d0: d0ab 213e 8438 00be a3c1 a0bd 9051 1cbe
000001e0: 40e3 14be 6fcf ff3d ca97 d4bd 166d 30be
000001f0: 3b62 c33d 886c 003e 5d0f b2bc ef8a 51bd
00000200: 1982 9ebd 9414 0f3e 8f25 abbd 389b 2bbc
00000210: 7581 b13c 5d24 ca3d 1961 babc 3c34 2abd
00000220: 197b 093d 7460 eb3d 0f9a 5c3d 14ed 983d
00000230: 12f4 db3d 0f2e 193d 5626 e03d ca1d aebb
00000240: 6370 bd3d 518e e3bd a3cf 663b 0f1d 9a3d
00000250: 5010 dcbd 8002 783d 9f41 223d 27f8 9c3d
00000260: 9100 8fbd b263 e03d e4bd 233d 1738 fe3c
00000270: 77f2 053d c8b3 a03d bc24 f73d 0bf8 8d3d
00000280: 0c75 533d 5d05 733d 0cfb 30bd b23e fb39
00000290: 67d0 a2bc 3d36 fcbd d368 31bb 1018 023e
000002a0: b7ef 1dbd 2c05 c1bb d3d1 7a3d 3300 4dbd
000002b0: 646e 2dbd b87a fb3c 5f01 a23c 420e fe3b
000002c0: da15 8abc 284f 79bd b3a0 123d 60f3 abbc
000002d0: 7c4a 06ba 45d5 3cbd 3f8c a63d 5afd ab3d
000002e0: f033 b8bd 6cfa 95bd 412d a93c c5da db3d
000002f0: 4857 15bd 2b61 8cbc 3432 28bd 7dac 0d3e
00000300: f42c e9bc fece 2bbd 500a 00be 1ea5 f83d
00000310: c51b 96bc 33fb f63d b958 bc3c 71e6 ee3d
00000320: 1d89 953d 392c d23d 168f 3a3d 2043 b63b
00000330: 7559 e23d bf6e 91bd 34dc 123d 2676 00be
00000340: 58cf 7b3d 4902 883c d80f 40bd 83f5 adbd
00000350: 6b4e 60bd c3cd 303c d639 35bd 3ae4 d93d
00000360: 2836 d13d 4f19 2abd 750c fc3d c623 06be
00000370: 7a04 fbbc 6cc6 873d bfdb 32bd ed75 4f3c
00000380: 936b 783d 6e3e 05be b1c3 8c3d 9f1e 943d
00000390: 29ea ac3c 86fd 31bc b4c8 2cbc f1ec 4a3d
000003a0: de1e 233e f2c9 b83d cd2f 1b3e ae4d ae3d
000003b0: d556 e03d 215f 4a3c 2ec1 dbbd 3109 17be
000003c0: 0b49 8e3d 4bec 0a3d 8e69 e93a 34af a33d
000003d0: e53a 87bd 9a02 663b 9b10 853d df17 b03d
000003e0: 5e8e 223e cc2d ef3d fb3a 9bbd 8b85 1d3e
000003f0: 2aea 833d d02d b3bc 14c2 7ebd b89a 4e3d
-0.14351526 -0.090710305 0.0202051 0.0701266 0.07015991 -0.11777724 -0.0292932 -0.0009505615
0.070721485 0.10481157 -0.04310578 0.12510131 0.09421068 -0.0957364 -0.028919296 0.08481606
0.075310245 0.0067811646 0.09594335 0.028228188 0.04493433 -0.088102505 0.013925669 -0.06363469
-0.008410731 0.04363189 -0.023363607 -0.13165866 -0.041845426 -0.025477419 0.115858294 -0.057400826
0.02074541 0.06450396 -0.11303916 -0.055959 -0.110072024 -0.05682237 -0.088206895 0.016247395
0.08533706 -0.05715548 0.12228203 0.096102946 0.08645155 -0.047286324 0.027892737 -0.037719145
-0.05170519 0.01885311 0.105743 -0.14089225 -0.05944618 -0.14823046 -0.04153071 0.0031897312
0.039314896 0.0017307268 -0.07657867 -0.09636715 -0.09787046 -0.037542805 -0.076976426 0.05969433
0.0051866327 0.0983004 -0.15861921 0.118386984 0.08366445 0.010844137 -0.028041078 0.036510855
0.10380162 0.0222513 -0.13825712 -0.072721615 -0.01584157 -0.11644377 -0.0063088625 0.15448408
-0.09733325 0.022880793 -0.09359751 0.1513389 -0.07307192 -0.13880901 0.015470386 -0.17115213
0.06029477 0.021935092 -0.13560237 0.058523748 0.09716283 0.07261092 -0.03769915 0.036740262
0.09625342 -0.0754514 -0.038816616 -0.026229205 -0.08044658 0.021108352 0.061580118 0.016704962
-0.019130547 -0.0027365799 -0.14403452 0.056200817 -0.037547965 -0.14184701 -0.04361716 -0.01832884
0.028074294 0.11692456 0.024906198 0.15569192 0.15788198 -0.12521559 -0.07849433 -0.15265489
-0.14539814 0.12490737 -0.10380514 -0.17229113 0.0954022 0.12541401 -0.021735841 -0.051157888
-0.07739658 0.13972694 -0.08356773 -0.010474019 0.021668175 0.09870217 -0.022751378 -0.04155372
0.03356466 0.11493006 0.05385786 0.07467094 0.10739912 0.03739744 0.10944812 -0.0053136097
0.09249952 -0.11111129 0.0035218976 0.07525074 -0.10745299 0.06054926 0.039613362 0.07664519
-0.0698253 0.10956515 0.039976016 0.031032605 0.032701936 0.078467906 0.120675534 0.06932076
0.051625296 0.059331287 -0.043208167 0.00047921162 -0.019874765 -0.12315033 -0.0027070537 0.12704492
-0.038558688 -0.005890509 0.06123526 -0.050049018 -0.042341605 0.030698165 0.019776044 0.0077531645
-0.016856123 -0.060866505 0.035797786 -0.020990074 -0.00051227934 -0.046101827 0.081322186 0.08397932
-0.08994281 -0.07323155 0.020651462 0.10735086 -0.03646019 -0.017136177 -0.041063502 0.1383533
-0.028463818 -0.04194545 -0.12503934 0.121408686 -0.018323788 0.12059631 0.022991525 0.11665047
0.07301543 0.10262341 0.045546614 0.005562201 0.11052219 -0.07101201 0.035854533 -0.1254507
0.061477035 0.016602652 -0.04689011 -0.08494093 -0.054762285 0.010791245 -0.04424461 0.10639234
0.102154076 -0.041528042 0.123070635 -0.13099584 -0.030641783 0.06629643 -0.043666597 0.012662393
0.060649466 -0.13012096 0.06873263 0.07232403 0.02110775 -0.010863667 -0.010545898 0.04954237
0.15929744 0.09022893 0.15154953 0.0851091 0.10954062 0.012351782 -0.107302055 -0.147496
0.069475256 0.033916753 0.0017807947 0.07992402 -0.0660303 0.0035096765 0.06497308 0.08598303
0.15874621 0.11678657 -0.07579609 0.15382974 0.064411476 -0.021872431 -0.062196806 0.05044052

layers.0.backward_conv1d.bias f4 [28]
00000000: d217 ecbd 70e6 14be adb7 2dbe 62ac 243e
00000010: e104 0cbd a175 ccbd bc9e 24be 7aa6 09bd
00000020: 959e 433c 0d2c 813d 8e6e 9fbd 642f 04be
00000030: f7a6 2fbd ba4d 553d c194 a8bc cae0 173e
00000040: 350d c83d a1ce c63d 66f8 933b 756f da3c
00000050: 0b26 193c 25ea d63c 3312 013e 40f5 d3bd
00000060: c443 02be fe6d b93d 72c9 18bd c86a 21be
-0.11527981 -0.1454103 -0.16964598 0.16081384 -0.03418434 -0.099833734 -0.16076177 -0.03360603
0.011939664 0.0630723 -0.077847585 -0.12908703 -0.04288384 0.05207608 -0.020578744 0.14831844
0.09768144 0.0970738 0.0045156954 0.026664475 0.009347449 0.026234696 0.12604599 -0.10349512
-0.12721163 0.090541825 -0.03730149 -0.1576339

layers.0.norm.weight f4 [28]
00000000: 3dfa 7f3f cbe9 723f c21a 6f3f 2dc6 683f
00000010: b146 723f f597 753f 2bd7 703f 5083 743f
00000020: 39dd 753f de0e 6b3f fc25 793f b4e6 683f
00000030: facc 7a3f 25a3 723f 9d51 703f d26f 773f
00000040: a7a8 7c3f 5824 673f a92d 723f 3c52 6f3f
00000050: 2f94 793f dcc1 763f 5f11 6d3f 1dba 693f
00000060: 505a 713f 2d22 7c3f e885 783f 19d8 7b3f
0.9999121 0.9488799 0.93400204 0.9092739 0.94639117 0.95934993 0.9407832 0.95512867
0.96040684 0.9181956 0.97323585 0.90977025 0.9796902 0.9478019 0.9387453 0.96655
0.98694843 0.9028983 0.9460092 0.93484855 0.97491735 0.96389556 0.9260463 0.9129961
0.9427843 0.9848965 0.97079325 0.98376614

layers.0.norm.bias f4 [28]
00000000: 83c0 3fbb cb22 493c 4b20 4dbc 55d2 19bc
00000010: 853b 9ebc b42d 743b 4c40 ce3b f01f c73b
00000020: 730c 2b3c 4861 5abc 64a1 f13b 829a d93b
00000030: fd6f 3abb 435f 19bc b41f 9cbc ee11 7abc
00000040: dc26 073c ca02 9f3b 0d8a f43b dec7 08bc
00000050: 123e 2fbc 852f 273c 8ea4 43bb 572e 603b
00000060: d2f4 4abc 56bc 1f3c 7267 02bc 08e3 9ebb
-0.0029259033 0.012276362 -0.012519906 -0.009388526 -0.01931549 0.0037258686 0.006294286 0.0060768053
0.01043998 -0.013328858 0.0073739756 0.006640733 -0.0028448098 -0.009361091 -0.019058086 -0.015263064
0.008249011 0.0048526274 0.007462746 -0.008348433 -0.010695951 0.010204201 -0.002985272 0.0034207308
-0.012387471 0.009749493 -0.007959234 -0.0048488416

layers.0.ssm.A_log f4 [28, 28]
00000000: 952a 07bb d528 a93e a40a 3c3f 7aa0 833f
00000010: a450 9c3f ea9f b43f 610d c73f fffb d73f
00000020: a8f9 e63f b963 f43f 3c44 0040 0cce 0540
00000030: 83e7 0a40 4ba1 0f40 7707 1440 1625 1840
00000040: e602 1c40 b6a8 1f40 331c 2340 0d62 2640
00000050: 737f 2940 bc77 2c40 434e 2f40 c305 3240
00000060: eca0 3440 e621 3740 be8a 3940 66dd 3b40
00000070: c3e7 e4ba bd68 a93e fde0 3d3f 0876 823f
00000080: fb52 9c3f 5210 b43f 3d11 c73f fffa d73f
00000090: 04f8 e63f 7b62 f43f 7843 0040 6fcd 0540
000000a0: 70e7 0a40 38a1 0f40 6707 1440 0025 1840
000000b0: e402 1c40 cfa8 1f40 361c 2340 3d62 2640
000000c0: 527f 2940 c177 2c40 464e 2f40 be05 3240
000000d0: eca0 3440 e621 3740 be8a 3940 69dd 3b40
000000e0: 4ef3 803a 2387 a93e fc52 3f3f e696 843f
000000f0: c057 9c3f 1920 b53f ba1d c73f 7dfa d73f
00000100: 52f9 e63f 6763 f43f f446 0040 9ecd 0540
00000110: 67e7 0a40 69a1 0f40 4e08 1440 0725 1840
00000120: fe02 1c40 cca8 1f40 3b1c 2340 2d62 2640
00000130: 787f 2940 c377 2c40 464e 2f40 b905 3240
00000140: eca0 3440 e621 3740 bf8a 3940 69dd 3b40
00000150: 80ea 153a e20d a93e 93dc 3f3f 5bf2 7e3f
00000160: 1588 9c3f 86b4 b23f d42b c73f ae05 d83f
00000170: 9df1 e63f 5d5a f43f f349 0040 60cd 0540
00000180: 59e7 0a40 aaa1 0f40 de07 1440 1f25 1840
00000190: eb02 1c40 a9a8 1f40 341c 2340 4762 2640
000001a0: 5b7f 2940 c077 2c40 454e 2f40 bf05 3240
000001b0: eca0 3440 e621 3740 bd8a 3940 69dd 3b40
000001c0: 82a4 0bbb 6f02 aa3e 42c0 443f 908c 8a3f
000001d0: e950 9c3f e653 b83f d076 c73f c2f5 d73f
000001e0: a6fe e63f 2f6f f43f 9549 0040 f5ce 0540
000001f0: 55e7 0a40 e5a1 0f40 fe08 1440 6125 1840
00000200: db02 1c40 c2a8 1f40 3b1c 2340 1c62 2640
00000210: 867f 2940 bf77 2c40 4b4e 2f40 c605 3240
00000220: eca0 3440 e521 3740 bd8a 3940 65dd 3b40
00000230: c2d2 e5ba 84ae a83e b80e 3b3f e7f0 843f
00000240: e712 9c3f 225a b53f d9c8 c63f 59f0 d73f
00000250: f604 e73f 656c f43f 873a 0040 44ce 0540
00000260: c1e7 0a40 5aa0 0f40 8706 1440 cf24 1840
00000270: f302 1c40 d8a8 1f40 2d1c 2340 2d62 2640
00000280: 5f7f 2940 c377 2c40 474e 2f40 bf05 3240
00000290: eca0 3440 e621 3740 bd8a 3940 69dd 3b40
000002a0: 8f71 c739 9483 a93e f0aa 483f 6279 863f
000002b0: 0a73 9c3f 13ac b53f 9e44 c73f 72fb d73f
000002c0: 30f5 e63f 675f f43f 7848 0040 afcd 0540
000002d0: 62e7 0a40 63a1 0f40 2908 1440 1d25 1840
000002e0: f902 1c40 b9a8 1f40 351c 2340 5762 2640
000002f0: 6d7f 2940 c277 2c40 414e 2f40 b505 3240
00000300: eca0 3440 e621 3740 c08a 3940 69dd 3b40
00000310: f1c3 903a 7216 a93e 8f7d 3c3f c89e 813f
00000320: a655 9c3f 04b5 b33f c712 c73f 50fa d73f
00000330: 06f6 e63f 4860 f43f 5844 0040 37cd 0540
00000340: 62e7 0a40 4ca1 0f40 4b07 1440 0d25 1840
00000350: e802 1c40 c3a8 1f40 3a1c 2340 4662 2640
00000360: 5b7f 2940 c077 2c40 464e 2f40 c105 3240
00000370: eca0 3440 e621 3740 be8a 3940 69dd 3b40
00000380: d735 9cba fcac a93e e2fc 423f 3004 823f
00000390: 2b59 9c3f 3cc4 b33f 7b08 c73f bbf9 d73f
000003a0: 13f7 e63f e961 f43f 9c42 0040 34cd 0540
000003b0: 81e7 0a40 1ca1 0f40 5007 1440 f924 1840
000003c0: ec02 1c40 caa8 1f40 331c 2340 4162 2640
000003d0: 587f 2940 c177 2c40 464e 2f40 be05 3240
000003e0: eca0 3440 e621 3740 be8a 3940 69dd 3b40
000003f0: 541c 78bb ed0f a93e 3b9d 393f b140 813f
-0.0020624746 0.33038965 0.73453736 1.0283349 1.221211 1.4111302 1.5550958 1.6873778
1.8044939 1.9092933 2.0041647 2.090701 2.1703804 2.2442195 2.3129556 2.3772635
2.437677 2.4946723 2.5485961 2.5997345 2.648404 2.694808 2.7391517 2.7816017
2.822322 2.861444 2.8990932 2.935388 -0.001746409 0.3308772 0.7417143 1.019227
1.2212824 1.406748 1.5552136 1.6873473 1.8044438 1.9092554 2.004118 2.0906637
2.1703758 2.244215 2.3129518 2.3772583 2.4376764 2.4946783 2.5485969 2.599746
2.648396 2.6948092 2.7391524 2.7816005 2.822322 2.861444 2.8990932 2.9353888
0.0009838135 0.33110914 0.74736 1.035855 1.2214279 1.415042 1.5555947 1.6873318
1.8044837 1.9092835 2.0043306 2.0906749 2.1703737 2.2442267 2.3130069 2.37726
2.4376826 2.4946775 2.548598 2.5997422 2.648405 2.6948097 2.7391524 2.7815993
2.822322 2.861444 2.8990934 2.9353888 0.0005718842 0.33018404 0.74945945 0.99588555
1.2229029 1.3961341 1.556025 1.6876733 1.8042485 1.9090077 2.0045135 2.09066
2.1703703 2.2442422 2.3129802 2.3772657 2.437678 2.4946692 2.5485964 2.5997484
2.6483982 2.694809 2.7391522 2.7816007 2.822322 2.861444 2.899093 2.9353888
-0.002130777 0.33204982 0.7685586 1.0824146 1.2212192 1.4400604 1.5583134 1.6871874
1.8046463 1.909643 2.004491 2.0907567 2.1703694 2.2442563 2.3130488 2.3772814
2.4376743 2.4946752 2.548598 2.5997381 2.6484084 2.6948087 2.7391536 2.7816024
2.822322 2.8614438 2.899093 2.9353878 -0.0017534124 0.32945645 0.73069334 1.0386018
1.2193269 1.4168131 1.5530044 1.6870223 1.8048389 1.9095579 2.0035722 2.0907145
2.1703951 2.244162 2.3128984 2.3772466 2.43768 2.4946804 2.5485947 2.5997422
2.648399 2.6948097 2.7391527 2.7816007 2.822322 2.861444 2.899093 2.9353888
0.00038040846 0.331082 0.7838583 1.0505793 1.2222607 1.4193138 1.5567815 1.687361
1.8043575 1.9091614 2.0044231 2.090679 2.1703725 2.2442253 2.312998 2.3772652
2.4376814 2.494673 2.5485966 2.5997522 2.6484025 2.6948094 2.7391512 2.7815983
2.822322 2.861444 2.8990936 2.9353888 0.0011044723 0.33024937 0.7362909 1.0126581
1.2213638 1.4039617 1.5552605 1.6873264 1.804383 1.9091883 2.0041714 2.0906503
2.1703725 2.2442198 2.3129451 2.3772614 2.4376774 2.4946754 2.5485978 2.5997481
2.6483982 2.694809 2.7391524 2.7816012 2.822322 2.861444 2.8990932 2.9353888
-0.0011917901 0.3313979 0.7616712 1.0157528 1.2214712 1.4044261 1.5549463 1.6873087
1.8044151 1.909238 2.0040655 2.0906496 2.1703799 2.2442083 2.3129463 2.3772566
2.4376783 2.494677 2.5485961 2.599747 2.6483974 2.6948092 2.7391524 2.7816005
2.822322 2.861444 2.8990932 2.9353888 -0.0037858682 0.33019963 0.7250554 1.0097867

layers.0.ssm.D f4 [28]
00000000: f1e9 753f dd12 743f 2cdf 693f 97e8 723f
00000010: 1d9c 7b3f 2152 6d3f 105f 793f a01a 673f
00000020: 1b3b 7a3f 4e79 663f 883c 763f 7a26 6e3f
00000030: 65e4 6a3f 9c73 6e3f 48f0 6b3f 0996 703f
00000040: 6a76 6d3f 8cb9 703f 3f9e 7b3f defe 7b3f
00000050: a4ec 733f 1204 5d3f 8484 693f b109 763f
00000060: c276 773f f891 6e3f a219 643f e3aa 803f
0.9606009 0.95341283 0.9135616 0.94886154 0.98285085 0.92703444 0.9741068 0.90275
0.9774644 0.90028846 0.96186113 0.9302746 0.9175475 0.93145156 0.92163515 0.93978935
0.9275881 0.9403312 0.9828834 0.9843577 0.9528296 0.86334336 0.9121783 0.9610854
0.96665585 0.9319148 0.8910161 1.005215

layers.0.ssm.deltaBC_layer.weight f4 [64, 28]
00000000: 1ccd e23d cd0d 013e 347d b63d 2809 933d
00000010: f562 3bba 06f1 2c3d a466 edbc 5248 aa3d
00000020: 9661 8a3d 167a 533d d157 48bd 31e4 833d
00000030: 6352 293d b794 033e f606 db3c f03d d33d
00000040: 60bb 9ebd b7f9 f3bd 5dcb 053e a47c fc3d
00000050: 6e9a e03d 4020 78bd 142a d03b ad6f 9e3d
00000060: 8bf8 503d af13 e3bd 7f12 dc3d a129 a4bd
00000070: 22e3 dbbd 0dca 76bd e1a5 d8bd 985e 013e
00000080: 9ee3 d2bd f1c8 963d dcc9 1cbc 5fe2 55bc
00000090: bcd4 1d3d a480 00be acb9 fbbd 6845 8abc
000000a0: a488 ad3d 1790 98bd f434 e43d 4612 db3c
000000b0: 5d32 6cbd 614f ea3d 50e1 873d 7722 bdbd
000000c0: 2c40 343d f189 efbd 954c 07be c841 f7ba
000000d0: e568 453d 0e8b 0d3d 537e 053d 95e3 9ebd
000000e0: 5ec9 903c 508e ba3c ee8f e63b e61d 7dbd
000000f0: e388 c8bd fde9 d4bd bb8c f03d a2dd e0bd
00000100: 5a1a cfbd 8fba d9bd 404e cebd 9940 793d
00000110: 508e 1ebe 7b7c 80bc f188 113d 1a73 a73d
00000120: 64f8 843d 2a9c 43bc 6891 363d 5d94 dcbd
00000130: 185d 943d 4faf 5ebd 878f bc3c 1981 de3b
00000140: 4599 c33d 5ea9 ecbd 1cfb 26bd 554e 9e3d
00000150: 9e80 653d 9d38 06be 908c e6bd f12a aabd
00000160: 4ad2 8fbd 9b01 6abd c0af 66bd c8fd a63c
00000170: 2046 b13c 51f1 debd 13af 103d 439c fb3d
00000180: a922 023e 7287 6a3d a6e3 523c 6fe4 863d
00000190: ee93 093e a6d3 6a3d 788f e53d 4eff e1bc
000001a0: d392 9f3d 47dd 0bbd 6510 ef3d 2c11 fc3d
000001b0: 178d 02bd a364 a5bd 115e 003e fb2f 873d
000001c0: d14e 0dbe e7b9 4ebc 7028 6dbd 2abf 07bd
000001d0: 005d c7bd 0bf1 ef3d c3da 3fbd f197 40bd
000001e0: 2f34 05be f5c8 c73d c4c7 f3bd a4e8 98bd
000001f0: 55e4 223d 5da4 84bd 7b03 f7bd 76a6 9a3d
00000200: ea02 6e3d 8bf3 f5bd c33b d53d b70a 893d
00000210: ee29 07be a87d 54bd 4cb4 983d 79ee dbbd
00000220: b809 b1bc 461f ac3d 99cf a5bc 568d 0bbe
00000230: c7bd a5bd b756 97bc 7f01 d7bd 7aa5 b33d
00000240: df24 813d 441c 153d 6422 10bd b557 ca3d
00000250: c142 e83c dd51 dcbd 1267 b13d 378d 463d
00000260: a815 c2bc ce50 81bd 52d0 433d bdb3 b5bc
00000270: 30d1 293c 2d54 023e cc44 063e ef2e 1e3d
00000280: b0bf b7bd ffc1 64bd 2ca3 2f3d d159 58bd
00000290: 57c9 f4bd 56cf f2bd 9443 4b3d 4575 c2bc
000002a0: 21db 87bd e71a 99bd 389a bdbd b68e 973d
000002b0: f1ab d13d 1e48 8dbd 714a 953d 2187 6d3d
000002c0: 35ac fabd 474a 49bc a494 e9bd 64cd 24bd
000002d0: a2b4 8f3d 4f41 cfbd af34 13bd 01b8 90bc
000002e0: cf7e 693d ff4f fcbc aa8a 57bb 03ce a8bc
000002f0: 7cdf ba3d 0b86 be3d 65d1 16bd 7cea fabd
00000300: 764f a8bd c90e 71bd b221 debd 34a4 733d
00000310: c1ab 6bbd b420 d93c 8c82 b63d 3fc7 c4bd
00000320: f1c4 f8bd 48d0 94bc 83cd 263d 7d48 033e
00000330: e0c6 9a3d 0385 ea3d f1c8 893d 48ab cabc
00000340: d4f4 e33b 7b56 debd 4145 463d 5856 9dbd
00000350: bdbd 15be 65e7 f23d 7ec1 c5bd 0913 183e
00000360: 97be 09bd 0505 8b3d 5060 c83d 29e7 0c3d
00000370: 597a ba3d 74e9 fe3d fe42 423d c513 bb3c
00000380: 1c7e dc3d 8657 3abe 195d 17be b3d6 dcbd
00000390: 9d01 a83d 8820 d93d 3fca c93d 6415 823d
000003a0: 151e 8e3b e613 fc3d 752c 01be 7895 9d3d
000003b0: d84d 9dbd 0a08 15be 5224 683a 2ada b83d
000003c0: 76a1 763c 6087 01bd 30f0 193e 0620 86bd
000003d0: d96c 113e ac92 9bbb 4082 bc3c 9172 133e
000003e0: faf1 30be 1673 1b3e 80ac 1fbe f950 28be
000003f0: 17cc c63d d843 08bc 6c63 d73c 996c e7bd
0.11074278 0.12602921 0.08910599 0.07179481 -0.00071482296 0.042222045 -0.028979607 0.08314575
0.06756894 0.051630102 -0.048911873 0.064400084 0.041338336 0.12849699 0.026736718 0.10314548
-0.07750583 -0.11912864 0.13065858 0.12328461 0.10966955 -0.06057763 0.0063526724 0.07736144
0.05101828 -0.11087739 0.10745715 -0.080157526 -0.107366815 -0.060251284 -0.10578514 0.12633741
-0.10297321 0.07362545 -0.009569611 -0.013054459 0.038532957 -0.12549073 -0.122912735 -0.016878799
0.08473328 -0.07449358 0.111429125 0.026742112 -0.057665218 0.114409216 0.06634772 -0.09235089
0.04400651 -0.11696232 -0.13212807 -0.0018864209 0.04819574 0.03455644 0.032591175 -0.077582516
0.017674144 0.022772938 0.0070362007 -0.06179609 -0.09791734 -0.10396192 0.11745592 -0.10979773
-0.10112448 -0.10631286 -0.10073519 0.06085262 -0.15483975 -0.015684357 0.035530988 0.08176251
0.06492689 -0.011939088 0.044572264 -0.107704856 0.07244319 -0.054366406 0.023017658 0.006790292
0.09550718 -0.11555742 -0.04076682 0.077297844 0.056030862 -0.13107534 -0.11257279 -0.08308972
-0.07022531 -0.057130437 -0.056319952 0.020384684 0.021639884 -0.10885871 0.035323214 0.12285664
0.12708534 0.057258077 0.012871658 0.06586539 0.13435337 0.05733075 0.11209005 -0.02758756
0.07791676 -0.034146573 0.11673049 0.12307963 -0.031872835 -0.080758356 0.12535883 0.066009484
-0.13799597 -0.012617565 -0.057899892 -0.033141293 -0.09734535 0.11715897 -0.046839487 -0.047019903
-0.13008188 0.097551264 -0.11903337 -0.07466248 0.039768536 -0.06476662 -0.12061211 0.07551281
0.058108248 -0.12009343 0.10411789 0.06691497 -0.13199589 -0.051877648 0.07456264 -0.107388444
-0.02161108 0.084044024 -0.020240592 -0.13628134 -0.08092838 -0.018473966 -0.10498332 0.087717965
0.06305861 0.03640391 -0.035189047 0.0988001 0.028352143 -0.10757802 0.08662237 0.048474517
-0.023691967 -0.063142404 0.04780609 -0.022180432 0.010364816 0.12727423 0.13112181 0.038618978
-0.08972108 -0.05584907 0.042880222 -0.05282003 -0.11952465 -0.118559524 0.049624994 -0.02373756
-0.066335924 -0.07475834 -0.092579305 0.07400267 0.10237873 -0.06898521 0.07289589 0.057990197
-0.12239877 -0.0122857755 -0.11405304 -0.04023494 0.07016875 -0.101198785 -0.035938915 -0.017665865
0.0570057 -0.030799864 -0.0032889047 -0.020606047 0.091246575 0.093029104 -0.036820788 -0.122517556
-0.08218281 -0.05885199 -0.108462706 0.05948277 -0.057536844 0.026504852 0.089116186 -0.09608316
-0.121469386 -0.018165722 0.040723335 0.12820621 0.07557464 0.11451151 0.0672778 -0.024739876
0.006956676 -0.108563386 0.04840589 -0.076824844 -0.1462316 0.11860541 -0.09656046 0.14851011
-0.033629026 0.06788067 0.09783995 0.03440014 0.09105367 0.124468714 0.04742717 0.022836575
0.10766241 -0.1819745 -0.14781608 -0.10783138 0.08203433 0.10601908 0.098530285 0.06351736
0.004337082 0.12308483 -0.12614615 0.076945245 -0.07680863 -0.14553848 0.000885551 0.090259865
0.015053144 -0.031623244 0.1503303 -0.06549077 0.14201678 -0.0047477093 0.023011327 0.14399172
-0.17279807 0.1518062 -0.15593147 -0.16437139 0.09706896 -0.008316956 0.026292525 -0.1130001

layers.0.ssm.dt_proj_layer.weight f4 [28, 8]
00000000: f9f1 37bc f9b9 163e 85af e53c 0ee9 edbd
00000010: 320b 233e 270c 9b3b 4015 ac3d bdc5 d73d
00000020: 11ca 58be 7a30 113e a471 c7bd cc7d 033d
00000030: 4715 43be 0b6f 7f3d 39c1 fabd 69d3 a33d
00000040: 8ec5 60be 958c 6fbc 27fb bbbd 3e4a 16bd
00000050: bf83 be3d bd51 303d a237 a93c 8131 bf3d
00000060: 9091 583d a409 c3bc 4e5e 0dbe 8cbc 6bbe
00000070: d3db b03c 238a 40bd 5a8f 1e3e b722 3c3d
00000080: 490e 47bc 519c 193c b465 873d 04cd c63d
00000090: 5c87 803e a941 38bd 71ee 40bd 0761 19be
000000a0: 4913 51be dec2 11be 73e7 e43d bf4a 6abe
000000b0: 8638 153e f8ca b6ba dd36 01bd 83ee 1a3e
000000c0: 394d 20bc 1361 43ba db56 9c3c d68e b23d
000000d0: 27bf 013d 2c86 b5bb d6dc 39be bdca b43d
000000e0: 7417 873d 5c71 fbbd fa90 d3bb 3d6f 25bd
000000f0: fbc9 5b3c 565b ccba 7c1c 0abd 2c8f 00be
00000100: 5d40 5d3e 4148 27be 9955 0cbe 8103 893e
00000110: 2c45 32bb 6061 653b eccb 7ebd fafa 063e
00000120: b7e3 0fbe 1877 cebd 0c38 a0bd 8a56 0fbe
00000130: 6731 1f3d 40a3 053b e873 7e3d 6726 6e3a
00000140: e237 db3c dabe a33d dc32 b73d 1c21 303e
00000150: 1eb6 be3d ade6 11bc ec8a 533c b96d 4abd
00000160: 73e9 543e b948 983b 1d8d 5abe cb66 083d
00000170: 237f 44be 8a7c c5b8 e9b4 313d 4926 72be
00000180: 6890 8cbd b787 ef3d f25f aa3d 7dd1 1dbe
00000190: 5c26 3bbd b95e 413b 956f 7ebd 170c 203e
000001a0: 4d33 0b3e b667 2a3e f733 453e e65d f93d
000001b0: 3245 e9bd d8f4 303b ed5e 27be f20a e0bd
000001c0: bdae 27be b414 893d 1066 c8bd 39d8 e43c
000001d0: 31e8 a83d cae2 66bb ba47 b7bc ffbb cbbd
000001e0: 9937 00be 319a 233e e1ce c5bd 3386 653e
000001f0: ecef 44be cac5 193d 3376 ac3b 108f 383e
00000200: 707f 00bd f9ff 253d c0b8 a73d 5bcf 013d
00000210: 1944 2abd 0557 5a3d 781f 5b3d 88e5 4b3d
00000220: a469 d73c 2051 16bd 1eb7 9f3d 77b1 08be
00000230: 7334 fbbd 417b eebb c736 43bd 3c8d 17be
00000240: 4bdf 163e 1ca9 213e fbbc 27be c5c6 8bbe
00000250: d899 133e b783 363d ef60 2abd 04f6 3c3e
00000260: f06e a0bd b418 6e3d e009 64be 563d eabd
00000270: 56f8 223d 004b 3fbc ce63 5bbe 8496 633e
00000280: ed90 823d d870 a1bd 25ee 283d f99b 5ebe
00000290: 4b23 ef3c f1d8 293d 63d3 4ebd 02db c4bc
000002a0: 0222 4d3c 1c83 f63b c5e9 ab3d 9a50 3bbe
000002b0: 710c 1fbe 8560 4cbb 8dfc 05bd 7b34 0ebd
000002c0: c523 803c 635c 663d feac ad3d 80b1 ca3c
000002d0: e580 193e a75a 7f3a c784 0c3d e02d 0dbe
000002e0: 16b4 7abe 59e4 d2bb 28ce 983d a0ae 1c3e
000002f0: 8208 b63b 90d8 003c 20ee 2c3e aaac 663c
00000300: e7b4 75be 5849 98bd 1321 9d3d 1ced b9bd
00000310: 486a 203e 8ad8 c33d 4f7a eb3d e208 18be
00000320: a707 2bbe 3720 a3bc 500a d03d e56d a7bd
00000330: adaf 9abd 69a1 203d bb72 0ebc 4160 f53d
00000340: d9c5 07be c101 04bd 9bd2 68bd 552b 80bd
00000350: 5a31 89bd d926 aebc d67d c8bd 55a3 ef3c
00000360: 033c 98be 0ab0 ae3d 18f2 963d df4b 5f3e
00000370: fa4e 0b3e 6448 b63d b7f5 353e e255 3dbe
-0.011227124 0.1471938 0.028037796 -0.11616717 0.1592224 0.0047316733 0.084024906 0.105357625
-0.21170832 0.14178649 -0.09738472 0.03210239 -0.19051085 0.06236176 -0.122438855 0.07999308
-0.21950361 -0.01462092 -0.09178763 -0.036691897 0.09302472 0.0430467 0.02065641 0.09335614
0.052873194 -0.023808308 -0.13805506 -0.23021144 0.021589195 -0.047006737 0.15484372 0.045931544
-0.012149402 0.009375648 0.06611195 0.097070724 0.2510327 -0.044984493 -0.047102395 -0.14978419
-0.20417513 -0.14234492 0.11176958 -0.22880076 0.14572343 -0.0013945987 -0.031546462 0.15130048
-0.009784036 -0.0007453125 0.019084385 0.0871865 0.031676438 -0.005539676 -0.18150648 0.08827732
0.0659627 -0.12277481 -0.0064564915 -0.04038929 0.013414855 -0.0015591185 -0.03371857 -0.12554616
0.21606584 -0.16336156 -0.13704528 0.26760486 -0.0027201874 0.0035000667 -0.062206194 0.13181677
-0.1405171 -0.10081309 -0.0782319 -0.13997856 0.038865473 0.0020391494 0.062122256 0.0009084702
0.026760045 0.079953864 0.089452475 0.1720013 0.0931208 -0.008905095 0.0129115395 -0.049421046
0.20792179 0.004647341 -0.21342893 0.033301156 -0.19189124 -9.416889e-05 0.04338542 -0.23647417
-0.06863481 0.116958074 0.08319081 -0.15411945 -0.04569088 0.0029505922 -0.06211813 0.15629612
0.13593788 0.16641125 0.19258104 0.12176113 -0.11390151 0.0027001407 -0.16344805 -0.10939588
-0.16375251 0.06693402 -0.09785092 0.027935134 0.08247412 -0.0035230392 -0.02237307 -0.09947967
-0.12521209 0.15976788 -0.096586 0.22414474 -0.19232148 0.037542142 0.005263114 0.18023324
-0.031371534 0.040527318 0.08189535 0.03169189 -0.04156885 0.053305645 0.053496808 0.049779445
0.02629549 -0.03669846 0.07798599 -0.13348947 -0.12265863 -0.0072778766 -0.04765966 -0.1479997
0.14733617 0.15787166 -0.16380684 -0.27300087 0.14414155 0.044559207 -0.04159635 0.18453223
-0.0783366 0.058129027 -0.22269392 -0.1143748 0.039787613 -0.011675596 -0.21424791 0.22225386
0.06375299 -0.07882851 0.041242737 -0.21739186 0.029191634 0.041466657 -0.050494563 -0.024030212
0.012520315 0.0075229537 0.083941974 -0.18292466 -0.1553209 -0.003118546 -0.032711554 -0.034718018
0.015642056 0.05624045 0.08480261 0.024742842 0.14990576 0.0009740986 0.034306314 -0.13787031
-0.2448276 -0.0064359126 0.07461196 0.15300989 0.0055552134 0.0078641325 0.16887712 0.014079252
-0.2399479 -0.07435864 0.07672324 -0.09078428 0.15665543 0.09562786 0.11497938 -0.14847139
-0.16702138 -0.019912822 0.10158217 -0.081752576 -0.07553039 0.039216433 -0.008694346 0.119812496
-0.13259067 -0.032228235 -0.056841474 -0.06258265 -0.06698866 -0.021258758 -0.09789626 0.029252687
-0.29733285 0.085296705 0.073703945 0.21806286 0.13604346 0.08900526 0.17769514 -0.18489793

layers.0.ssm.dt_proj_layer.bias f4 [28]
00000000: fc64 f5bd 63a6 20bd 0768 f4bc d508 e0bd
00000010: 1bb3 34be 5e5a 623e efbe 6fbe fede 17be
00000020: 92fe ceba b2b5 7c3d af92 98be 8b0f 7cbe
00000030: fe34 333e d32a 57be 1943 203e b4be 683d
00000040: 0ec1 1dbd e7b0 46bd ad03 1bbe 5981 62bc
00000050: 95b6 c8bd 4809 b03b fcd0 033e 69b7 2a3d
00000060: bed8 23bd 4866 09be 62e9 06be 90a2 e7bd
-0.11982152 -0.03922118 -0.02983476 -0.109391846 -0.17646448 0.22104785 -0.23412679 -0.14831159
-0.0015792421 0.061696716 -0.2979941 -0.24615304 0.17500684 -0.2101243 0.15650596 0.056822494
-0.03851419 -0.04850855 -0.15138121 -0.013824784 -0.0980045 0.0053722 0.1287269 0.04167882
-0.040001623 -0.13417923 -0.13174966 -0.11310303

layers.0.proj.weight f4 [28, 28]
00000000: 7651 31bc a044 26be d81b 26bc 02ac 70bd
00000010: e0cd 9f3c a7cc 3ebe b50d debd 5ec2 01be
00000020: 7162 05be 3454 0b3e 9318 483c 557b 3fba
00000030: 0fd6 debd fb86 1dbe 2923 62bd 6bf1 ebbd
00000040: aa50 96bd 21ea 05be 4d7b 8bbd dd44 733c
00000050: 4eb7 a5bd 9719 603d 9b20 0a3e e413 2c3e
00000060: 0cf0 113e 4c63 c33d cb75 96bd 9eb1 893c
00000070: 7781 0ebd 8fdb fa3d 84f7 68bd 8157 ad3c
00000080: c848 26be 42fc b03c 8b2e b6bd 8c9b 0c3c
00000090: 125a 3e3e b713 15be 1e13 dcbd 0d9f 56bd
000000a0: 263f 623d 5dbd 25be 3cb7 4fbd 0362 abbd
000000b0: 07e4 8cbc b649 673d 8659 a53d 1788 80ba
000000c0: 4fbf ebbd ce6b 923a d079 4f3e 6b44 3cbe
000000d0: 2baf 09bc e4fa b5bc 0321 31bd 6a36 95bd
000000e0: 9abc be3a aae5 d3bb edf3 2c3d 5142 d53d
000000f0: b05f af3c 6bd3 dcbd fc4f c83c 7fc5 293e
00000100: e5e8 f83d 6b83 11bd 0f43 15bd 419d e1bd
00000110: 1908 2cbd a59a 89bc a4cb 1ebe ede3 183e
00000120: 828f 1fbe 9b5d 1a3d e620 f2bc 6897 9bbc
00000130: 0314 033e 01da 3cbe 0c72 6abd c947 1b3d
00000140: 4879 ac3d de1a b33d 6ae6 09bd 8118 a5bc
00000150: b615 813d d512 2f3e c335 ccbd e722 d1bb
00000160: 0ef3 1ebe 2431 7ebd 9f6d 043e 3548 f0bd
00000170: 30aa 1a3d 9f31 2c3d 5098 1ebe 60b5 1d3e
00000180: bdbe 0d3e 59a3 0dbc 73fe 44bd c1b4 13be
00000190: 7af1 61bd ed74 e5bc c0cd ddbd 19c1 00be
000001a0: f798 253d 6970 6ebd 689b f93d 3cae 4f3d
000001b0: 1fd2 d23d d357 df3c 6e58 243e 9a2c e53d
000001c0: 0cbc 2a3e 3834 083d 9ee7 8bb9 7bc1 07be
000001d0: 8c93 12be 6707 a0bb 449c db3d 3728 143d
000001e0: 9953 d4bd 99cb 0a3e 0a05 8bbd 2be0 00be
000001f0: dc85 fa3d 1e47 a3bd cade 1f3d 0e0e 96bc
00000200: e8fc aabd 03d6 8c3d b6c1 aebd b0d3 11be
00000210: d678 203e 0f9a 23be 12e2 18bd d8ff a23d
00000220: 0868 d6bd 375a 313e 4813 f9bd 8eb9 09be
00000230: d6a2 2dbe 4db9 0b3e 8751 16bd ec83 09bc
00000240: c7a9 36bd 4c94 18be 5f7a 213e 2ea3 9f3d
00000250: fccd 1cbd 363a 6cbd e61f 283e 8dce fcbd
00000260: e0c6 ea3d c57b 12bd 86fc 4cbd 079e 3b3d
00000270: 814f 2bbc 8e31 183e 02ea 323c 5384 d43d
00000280: ceb9 86bb ee9d 233e f5a8 96bd bd85 033e
00000290: fea8 053e 8c77 14bc c962 2ebe ff88 01be
000002a0: 6d0e 0c3a 8ec3 103e 66a5 c93c 3cf1 f7bd
000002b0: ae54 36bd 0964 d33d b944 aa3d a752 fb3d
000002c0: 2fa0 313d c1d7 0f3e 35ac 3a3d c801 acbd
000002d0: c928 a7bd 8136 67bd 2831 833d 9548 063e
000002e0: 04f7 2a3e a117 ce3d a40b f03d 13da 41be
000002f0: 3ef7 4abd ebbe 1d3e 7481 3abe fb84 193e
00000300: 5c8e 0c3c 4d03 d9bc a9db d43d 628e 733d
00000310: 922e 3ebe b533 24be 277a 1f3e e25f 07bc
00000320: 3621 7a3c 1d8a 27be d8d0 8a3d bdb6 00bd
00000330: 7457 1abb f083 003d df27 173e 7760 553c
00000340: 4604 14be 81fb 953d c78f 87bd 8f3a e13d
00000350: 322a 0bbd 03c6 83bd e4de cabd 5c99 f0bd
00000360: b243 03be 9138 e63d b22d 03bd e334 07be
00000370: c85c 3ebd c147 083e 9055 b93d 5b92 04be
00000380: b3ec 5c3d ce9c 2bbe 4600 a4bd 01a7 ea3d
00000390: 6b35 b83d bc92 14be 77aa debd 555c 06be
000003a0: c51a e53d 5208 ab3d 1419 423e 55bc ec3d
000003b0: fee5 223e 71ca c6bd a321 d13d 0a8a 693d
000003c0: c9b8 be3d 2aef 463d f700 a03c c57c 88bd
000003d0: 8a54 2a3e c4b9 0b3e 44cd c23d b3e5 cc3b
000003e0: 730e 6bbc 6023 9cbd d67b b9bd c66b 05be
000003f0: 4c18 53bd 9cbe f33d 5659 413d c65e 923c
-0.010822644 -0.16237116 -0.010138474 -0.05875779 0.019507349 -0.18632756 -0.10842458 -0.12671801
-0.13025834 0.1360634 0.01221289 -0.00073044497 -0.10880672 -0.15383522 -0.055209313 -0.11520656
-0.07339604 -0.13077594 -0.06810627 0.014847961 -0.08091603 0.054711904 0.13489 0.16804463
0.14251727 0.09540424 -0.07346686 0.016808327 -0.034791436 0.12248909 -0.056876674 0.02115989
-0.16238701 0.02160466 -0.08895596 0.008582007 0.18589047 -0.14558302 -0.10745834 -0.052397776
0.055236004 -0.16185518 -0.050711855 -0.083683036 -0.017198576 0.05646678 0.08073716 -0.0009806183
-0.115110986 0.0011171044 0.20261312 -0.18385474 -0.00840358 -0.02221436 -0.043244373 -0.07285769
0.0014552057 -0.006466587 0.042224813 0.104130395 0.021407932 -0.10782512 0.024452202 0.16579245
0.12153796 -0.03552572 -0.036440905 -0.11016322 -0.04199991 -0.016797373 -0.1550737 0.14930697
-0.15582088 0.037686925 -0.029556703 -0.018993095 0.12800603 -0.18442537 -0.05723767 0.037910257
0.0842157 0.08745359 -0.033667006 -0.020153286 0.06302969 0.17097028 -0.09971192 -0.0063823345
-0.15522406 -0.062058583 0.12932442 -0.117325224 0.03775996 0.04203951 -0.1548779 0.1540122
0.13842292 -0.008644902 -0.048094224 -0.14424421 -0.05516193 -0.028009856 -0.10830259 -0.12573661
0.04042908 -0.05821267 0.121878445 0.050703272 0.10293984 0.027263558 0.16049358 0.11190148
0.16673297 0.033252925 -0.00026684714 -0.132574 -0.14314097 -0.004883695 0.10723165 0.036171164
-0.103675075 0.13554229 -0.067880705 -0.12585513 0.12232563 -0.07972549 0.039030828 -0.018317249
-0.08349019 0.06876757 -0.08533041 -0.14240909 0.15671095 -0.15976737 -0.037324972 0.079589546
-0.10469061 0.1731957 -0.12161881 -0.1344969 -0.16956648 0.13644905 -0.036698844 -0.008393269
-0.044595506 -0.14900321 0.15769337 0.07794796 -0.03828238 -0.0576727 0.16418418 -0.12344084
0.11463714 -0.035762567 -0.050045513 0.045805003 -0.010455967 0.14862654 0.01092005 0.10376801
-0.004111505 0.15978214 -0.07356445 0.12843986 0.13052747 -0.009061705 -0.17029871 -0.12649916
0.0005342726 0.14137098 0.024615001 -0.12106559 -0.04451435 0.103218146 0.08313889 0.12271624
0.043365654 0.14047147 0.045574386 -0.08398777 -0.08162076 -0.056448463 0.0640586 0.13113625
0.16695791 0.100631006 0.1172097 -0.18930845 -0.049552195 0.1540486 -0.18213445 0.14992134
0.008578863 -0.026490832 0.10393459 0.05946196 -0.18572453 -0.1603535 0.15573941 -0.008262606
0.015266707 -0.1636128 0.06778115 -0.031424273 -0.0023550661 0.031375825 0.14761303 0.013023487
-0.14454755 0.07323361 -0.0661922 0.10997497 -0.033975787 -0.06434252 -0.09905794 -0.11748001
-0.12818792 0.11241258 -0.032026 -0.13203768 -0.0464752 0.13308622 0.09049523 -0.12946455
0.05393667 -0.16759035 -0.08007865 0.11457635 0.08994564 -0.145091 -0.10872357 -0.1312116
0.111867465 0.08351196 0.18954879 0.11559359 0.15908048 -0.097065814 0.10211494 0.05701641
0.09312589 0.04856793 0.01953171 -0.06664423 0.16633812 0.13645083 0.095118076 0.006252968
-0.014346707 -0.07623935 -0.09056823 -0.13029394 -0.051536843 0.1190159 0.047204338 0.017867457

layers.0.proj.bias f4 [28]
00000000: 6203 333e e5da f73d 7d29 f83d 1fc2 1ebe
00000010: c732 c6bd 6137 a7bd e2af c03d c980 17be
00000020: c980 29be 21f0 68bd 0bdd da3d c31b 86bd
00000030: c0a0 16be 68d4 96bd 2487 b2bd bd4d 96bd
00000040: 5516 0b3e 61b3 0d3e 0f04 4d3c 6813 c83d
00000050: 0dd3 fbbd 60c0 01be c8db 1bbe 5345 1cbe
00000060: b5c5 f93c 3dd2 fabd cadc f9bd 2ff8 973d
0.17481759 0.12102298 0.12117288 -0.15503739 -0.09677654 -0.081648596 0.09408547 -0.14795221
-0.16553034 -0.05686963 0.10686692 -0.06548264 -0.14709759 -0.07364732 -0.08717182 -0.07339046
0.13582738 0.13837959 0.012513175 0.097693264 -0.12296114 -0.12671041 -0.15220559 -0.1526082
0.030489782 -0.12247131 -0.12200315 0.07420384
