pengujian/pengujian_split_data/80-20/vim/vim_model_3.pth (torch, 611374 bytes, 71 tensors)

cls_token f4 [1, 1, 64]
-1.3613079 0.25244612 1.5577284 -0.13021164 -0.13932419 -1.8610487 -0.6901222 -0.20857668
0.28235742 -1.263065 -1.4141309 -0.9227195 -0.8902659 -0.42024675 -0.43763885 1.2620463
1.0686314 0.08162782 2.2052457 0.6669584 -0.031159755 -0.28586623 -1.814282 0.44374332
-2.267209 -1.6880753 -1.1965648 -1.1224053 0.16977187 -0.32257596 0.8405632 0.5881791
2.2360537 1.3060888 -1.1101981 0.6541359 -0.156947 0.64246625 -0.07254959 0.9885794
0.49418724 1.7786592 -1.9209204 -0.13464056 1.3821585 -1.1272755 0.33484107 -1.3862075
-1.550961 -0.12699026 -0.046996314 1.3846722 -0.9825163 0.16461985 0.5378554 1.6584685
-1.5025052 1.010218 0.52686685 -2.5063736 0.70978236 0.81917447 -1.0450013 0.5681685
00000000: 563f aebf 9e40 813e a563 c73f 3356 05be
00000010: 00ab 0ebe d836 eebf d9ab 30bf 2095 55be
00000020: 2791 903e 1dac a1bf 3e02 b5bf 5837 6cbf
00000030: 77e8 63bf 952a d7be 3312 e0be bc8a a13f
00000040: eac8 883f 7d2c a73d bf22 0d40 c9bd 2a3f
00000050: be42 ffbc 0f5d 92be 643a e8bf 5332 e33e
00000060: f419 11c0 da12 d8bf 0929 99bf faaa 8fbf
00000070: add8 2d3e ad28 a5be 262f 573f e892 163f
00000080: 811b 0f40 eb2d a73f f91a 8ebf 7375 273f
00000090: b7b6 20be ab78 243f e194 94bd 8a13 7d3f
000000a0: 1c06 fd3e 1bab e33f b8e0 f5bf 37df 09be
000000b0: 92ea b03f 904a 90bf 4a70 ab3e 3f6f b1bf
000000c0: e485 c6bf bc09 02be 357f 40bd f03c b13f
000000d0: 3086 7bbf 1b92 283e e4b0 093f b248 d43f
000000e0: 1752 c0bf d34e 813f bfe0 063f 6d68 20c0
000000f0: 4cb4 353f 6bb5 513f 9ac2 85bf 7e73 113f

to_patch_embedding.1.weight f4 [64, 169]
-0.054264903 0.043907296 -0.061632156 0.050282363 -0.017774023 -0.03803597 0.008838184 -0.044740733
0.01912591 0.026020229 0.01682185 -0.0041627693 -0.032059565 0.005749016 0.033310026 0.05736573
0.05152645 0.064051345 -0.08943642 0.019998007 -0.019959582 0.053283513 -0.067034684 0.011186219
0.039780773 -0.017650582 -0.0008529607 0.06647605 0.025358265 0.046996806 -0.048991926 0.044033006
0.02653389 -0.015292352 -0.0660165 0.06399688 -0.010162442 0.00264076 -0.0014632251 -0.020707134
-0.06329553 0.05746087 -0.07841877 0.05545388 -0.07587634 0.000923755 0.015631411 0.017563114
0.02396656 -0.0093719205 0.0009012975 0.04074574 0.0636412 -0.040152837 0.05468278 0.035505984
-0.05333336 -0.008493857 0.045462165 0.0042786277 0.048546415 -0.029569 -0.031238975 -0.08365407
-0.007107578 -0.055481113 -0.033636965 -0.040929638 0.0025047066 -0.08657449 0.02214887 0.01063724
-0.02366396 -0.005494714 -0.029659458 0.020846363 -0.011062327 0.02373505 0.027814772 0.017600378
-0.0015628067 -0.038857955 -0.003616081 0.019912798 -0.047956616 0.070702374 0.02994368 -0.053753175
0.054749075 0.04894077 -0.0442797 -0.054137524 0.031568177 0.041943338 0.008327796 0.0034676595
0.06603097 0.048050858 0.06135944 0.0726303 0.029187996 -0.04653195 -0.036098637 0.036653176
0.05983885 -0.055421546 0.036800843 -0.008022503 0.039158214 0.053945635 0.029087149 0.03879296
0.08134631 0.07192682 0.0230517 -0.039915 0.056824658 -0.023925396 -0.016973615 -0.05341989
-0.024516517 0.039857317 -0.040936593 0.025054883 0.023662413 -0.039864313 -0.040424634 0.02713787
0.022031637 0.020858534 0.015879828 0.04931772 0.0023713056 -0.025376273 -0.0476281 0.013696563
0.06179082 0.07218895 0.026925255 0.046438474 -0.07912765 -0.027923666 0.035130274 -0.030722564
-0.05464511 -0.021842813 -0.017602157 0.011994871 -0.02599562 -0.012502095 0.061308037 0.042738747
-0.062752426 0.013872196 -0.0071379533 -0.020521441 -0.051617634 -0.024721367 -0.0635646 -0.05199764
0.034794483 0.05629693 0.0070095058 -0.05671603 0.026780523 -0.05562832 -0.058484443 -0.050726596
-0.052045003 0.009653433 -0.040072344 0.013493118 0.014415803 0.0060343635 0.009018345 0.0755192
0.032567795 0.057470996 -0.008937077 -0.07051257 0.007320928 -0.040492617 -0.03878884 -0.053183876
-0.03335575 -0.015525517 0.047098026 0.07366362 -0.036954 0.07245461 -0.042783264 -0.019602757
0.029267492 -0.020662624 0.04977291 -0.051832836 -0.0057079014 0.05755299 0.06878941 0.014403497
-0.0064440956 -0.060776487 0.026022442 -0.044779208 0.028212534 -0.0007856381 -0.03117373 -0.03730485
-0.024536585 0.0029087947 0.07298075 -0.021992978 -0.001690733 -0.05694228 -0.051057775 -0.012538415
-0.05532209 -0.008375104 0.0017377188 0.029529642 0.03350129 -0.015871814 0.055856533 -0.04684801
-0.048983432 0.06564209 -0.03040675 0.023925517 0.046350695 0.0764724 -0.009410885 -0.04012835
-0.054724462 -0.05776938 -0.011123898 -0.010428345 0.04599809 -0.035742845 0.054543514 -0.034271806
-0.020716878 0.003662329 0.034815736 -0.032038786 -0.014285225 -0.043539025 0.042216487 0.030443015
0.03383986 -0.026346851 0.049516667 -0.056324705 -0.008455022 0.03602027 0.03299919 -0.054896347
00000000: e044 5ebd 23d8 333d 0072 7cbd e1f4 4d3d
00000010: d49a 91bc 9bcb 1bbd 08ce 103c 0f42 37bd
00000020: f1ad 9c3c 6028 d53c facd 893c d767 88bb
00000030: e450 03bd 3e62 bc3b 1870 083d 54f8 6a3d
00000040: 660d 533d 5a2d 833d 712a b7bd dcd2 a33c
00000050: 4782 a3bc d03f 5a3d 7b49 89bd 6746 373c
00000060: 2af1 223d f497 90bc 3999 5fba 9824 883d
00000070: 23bc cf3c b97f 403d c2ab 48bd f45b 343d
00000080: 9a5d d93c c68c 7abc a933 87bd cc10 833d
00000090: 5f80 26bc 9a10 2d3b b0c9 bfba 02a2 a9bc
000000a0: 16a1 81bd 175c 6b3d 059a a0bd 9c23 633d
000000b0: 0e65 9bbd 2628 723a 720d 803c 85e0 8f3c
000000c0: 8555 c43c af8c 19bc 0d45 6c3a 01e5 263d
000000d0: 5156 823d 4d77 24bd 0dfb 5f3d b96e 113d
000000e0: 1574 5abd d229 0bbc 8936 3a3d bb33 8c3b
000000f0: 9bd8 463d b03a f2bc e1e8 ffbc d352 abbd
00000100: b0e6 e8bb 2a40 63bd eac6 09bd d6a5 27bd
00000110: 0126 243b f74d b1bd 8c71 b53c d147 2e3c
00000120: ecda c1bc 000d b4bb 64f8 f2bc fec5 aa3c
00000130: c33e 35bc 0270 c23c cedb e33c ab2e 903c
00000140: 17d7 ccba 8529 1fbd c6fb 6cbb 2a20 a33c
00000150: 286e 44bd 68cc 903d 734c f53c 4a2c 5cbd
00000160: 9140 603d 1e76 483d a15e 35bd 4fbf 5dbd
00000170: a24d 013d c7cc 2b3d 4f71 083c ac41 633b
00000180: 3f3b 873d fad0 443d 0954 7b3d 32bf 943d
00000190: aa1b ef3c 4998 3ebd 2adc 13bd a421 163d
000001a0: 9519 753d b401 63bd 7bbc 163d d170 03bc
000001b0: 5d64 203d 19f6 5c3d 2c48 ee3c 5ee5 1e3d
000001c0: e598 a63d 5e4e 933d ebd6 bc3c e97d 23bd
000001d0: f9c0 683d 31ff c3bc 400c 8bbc d1ce 5abd
000001e0: ddd6 c8bc 6d41 233d 21ad 27bd e63f cd3c
000001f0: add7 c13c c348 23bd 4d94 25bd 3d50 de3c
00000200: b17b b43c 84df aa3c 6a16 823c 6101 4a3d
00000210: e867 1b3b e7e1 cfbc af15 43bd 8d67 603c
00000220: 5f18 7d3d cdd7 933d 5a92 dc3c 4536 3e3d
00000230: ad0d a2bd 2cc0 e4bc c3e4 0f3d e3ad fbbc
00000240: 8dd3 5fbd b3ef b2bc 6632 90bc 2386 443c
00000250: c4f4 d4bc 96d5 4cbc 231e 7b3d d30e 2f3d
00000260: 5884 80bd 3548 633c 7ee5 e9bb 951c a8bc
00000270: 036d 53bd 7784 cabc 282e 82bd 7afb 54bd
00000280: a984 0e3d 9c97 663d ffaf e53b 114f 68bd
00000290: d462 db3c 85da 63bd 628d 6fbd b1c6 4fbd
000002a0: 242d 55bd 6f29 1e3c e622 24bd 3d12 5d3c
000002b0: 4330 6c3c e9bb c53b aec1 133c cfa9 9a3d
000002c0: cf65 053d b566 6b3d d16c 12bc e568 90bd
000002d0: 65e4 ef3b 96db 25bd 0ce1 1ebd 56d7 59bd
000002e0: 0aa0 08bd bd5e 7ebc dce9 403d f4dc 963d
000002f0: 145d 17bd 1563 943d 813d 2fbd f695 a0bc
00000300: 61c2 ef3c aa44 a9bc aede 4b3d ab4e 54bd
00000310: 5909 bbbb afbc 6b3d 76e1 8c3d a5fc 6b3c
00000320: fe28 d3bb c4f0 78bd 042d d53c 676a 37bd
00000330: f91d e73c 48f3 4dba 0d60 ffbc f8cc 18bd
00000340: f300 c9bc 7aa1 3e3b ee76 953d 9e2a b4bc
00000350: 969b ddba 4f3c 69bd f521 51bd ed6d 4dbc
00000360: 6a99 62bd bb37 09bc 2bc4 e33a 26e8 f13c
00000370: a638 093d 9b05 82bc d2c9 643d b3e3 3fbd
00000380: daa2 48bd 5c6f 863d 9417 f9bc 72ff c33c
00000390: 3ada 3d3d 909d 9c3d 1d30 1abc a05d 24bd
000003a0: c226 60bd 969f 6cbd 0341 36bc a6db 2abc
000003b0: 7e68 3c3d 1767 12bd 0569 5f3d 9860 0cbd
000003c0: 71b6 a9bc af03 703b f29a 0e3d 1a3b 03bd
000003d0: 940c 6abc fa55 32bd 32eb 2c3d a163 f93c
000003e0: aa9b 0a3d 5ad5 d7bc fdd1 4a3d bcb4 66bd
000003f0: ef86 0abc fe89 133d 292a 073d feda 60bd

to_patch_embedding.1.bias f4 [64]
0.007002225 0.047108047 -0.052299667 -0.07013754 0.046428885 0.071423545 -0.062543616 0.024484467
-0.022309067 -0.06136704 0.01903676 0.011338152 -0.037522003 0.042256184 0.0691738 0.040144905
0.027779853 0.05416666 -0.049688347 0.030488292 0.021001086 0.03424178 -0.038110394 0.03745911
-0.006294916 0.05709773 0.061457716 -0.036611892 0.032249395 0.03311042 0.028234797 -0.020841775
-0.033308573 0.021564133 0.0067022066 0.061106093 -0.0687827 0.0032135423 0.014957388 -0.022931548
0.022206143 0.07082473 0.012913416 0.04519465 0.06530278 -0.06093211 0.01740548 -0.044464316
-0.004840086 -0.05062817 0.021160526 0.06845456 -0.059033778 0.06474678 -0.015529867 -0.013793643
-0.042789385 -0.056960024 -0.016425787 -0.058456138 0.03576239 0.057539336 0.04011748 0.03535127
00000000: ec72 e53b 5ef4 403d 2d38 56bd 45a4 8fbd
00000010: 372c 3e3d 8246 923d de16 80bd a693 c83c
00000020: 81c1 b6bc 015c 7bbd fbf2 9b3c a8c3 393c
00000030: acb0 19bd d214 2d3d feaa 8d3d fc6e 243d
00000040: 9392 e33c dcdd 5d3d 0286 4bbd 95c2 f93c
00000050: 780a ac3c 1c41 0c3d a519 1cbd b96e 193d
00000060: 9545 cebb 4fdf 693d 16bb 7b3d 5af6 15bd
00000070: f117 043d cb9e 073d a94c e73c 5fbc aabc
00000080: 926e 08bd 44a7 b03c 2f9e db3b 624a 7a3d
00000090: f2dd 8cbd 4b9a 523b d50f 753c f1da bbbc
000000a0: a8e9 b53c 8e0c 913d cb92 533c 061e 393d
000000b0: 77bd 853d f393 79bd f095 8e3c 3720 36bd
000000c0: 9699 9ebb 7c5f 4fbd d758 ad3c e831 8c3d
000000d0: 67cd 71bd f699 843d fc70 7ebc bbfe 61bc
000000e0: ec43 2fbd ea4e 69bd 5f8f 86bc b46f 6fbd
000000f0: 957b 123d 5eae 6b3d 3a52 243d 7ecc 103d

layers.0.forward_conv1d.weight f4 [64, 64, 1]
0.04419288 -0.07886176 0.0738641 0.04902752 -0.068851426 -0.025488019 -0.052771598 0.017368883
-0.003040963 -0.047607597 0.047278773 -0.04815747 0.06567592 0.045685273 0.025669927 0.029074736
-0.046638615 -0.08443055 -0.038244054 -0.030946985 -0.015428112 -0.051258173 -0.08126896 0.04754602
0.04633025 0.056510806 -0.084246315 0.07474533 0.06747757 -0.07898485 -0.027075328 0.04829759
-0.07358775 0.08520443 -0.043416917 0.055925272 0.052163538 -0.061112247 -0.07270601 0.08664764
0.020324333 -0.031597253 -0.037747633 0.07920717 -0.00057858584 0.08366406 0.037096057 0.04387273
0.05437151 -0.06634212 0.027921598 0.09264259 -0.040587284 0.08976336 -0.04648945 0.014824799
-0.021300009 0.012123877 -0.045322213 -0.085065104 -0.011315533 -0.02486958 -0.028895989 -0.017207814
0.072486214 -0.075199775 -0.028135726 0.007786033 0.07122 -0.032231994 -0.06320719 -0.07747492
-0.018352726 0.025453392 0.07751159 0.07734407 0.06209089 0.08430683 0.10641977 0.05555299
-0.0077640563 -0.07645138 0.013551274 -0.06808226 0.05225869 0.030842245 -0.083156586 0.045806274
-0.07580196 0.045553304 -0.031761624 0.055043552 0.07165595 0.082812466 0.057144225 -0.046207335
-0.033962812 0.036209363 -0.061929032 0.042434298 0.020869492 0.07989909 -0.013779532 0.06708163
-0.0007398509 -0.10223694 -0.010457025 0.00784971 0.045318436 -0.010366195 -0.030726226 0.009259794
-0.07832854 -0.08857806 -0.03782868 -0.075389564 -0.010360555 0.007015772 0.056936536 0.025453705
0.00026908092 -0.008427395 0.047626976 0.057922293 -0.06244343 -0.0019307027 0.0012293792 0.07815602
-0.004338552 0.04855692 0.08505367 -0.02253029 -0.022239057 -0.033916198 0.022283418 -0.036946326
-0.065650195 -0.016092025 -0.033207167 0.052323334 -0.08024732 0.040834617 0.049675427 0.04939623
0.03606632 0.06924208 -0.014391851 -0.039397333 -0.05783745 -0.0062486213 -0.04536453 -0.05506163
0.06996454 -0.0915767 0.046771497 0.068274386 -0.0044612666 -0.043086592 0.06385694 -0.0069140843
-0.008945096 0.083590165 0.010217091 -0.05669283 0.03538092 0.05736782 0.070115246 -0.024892563
0.052653577 0.028828787 0.056425225 -0.056364488 -0.04639117 -0.027655574 -0.022266392 -0.036467217
0.023990855 -0.019444551 -0.024122555 0.086725436 -0.012826271 -0.053833086 0.00043728773 -0.022765359
-0.012801823 -0.054428067 -0.041868232 0.032755475 0.039434962 0.05237434 -0.06965199 -0.0072795996
0.04959244 -0.10276382 -0.029732853 0.026487485 0.07557162 0.01632872 -0.08810004 -0.09075558
0.08647808 0.11647875 0.033721596 0.039876625 0.020329505 -0.027079387 -0.002684586 0.06780877
-0.074105464 -0.007465753 -0.033481754 0.0029351902 0.004656469 -0.057405796 0.09530543 -0.016278705
0.013275116 -0.022921152 -0.038805448 0.03263116 -0.09976485 0.08360156 0.10080937 -0.060834985
0.009589 -0.07317932 -0.011694763 -0.043473385 -0.03277484 -0.053217225 -0.07934853 -0.051353335
0.079680145 -0.074018665 0.060393523 0.04229847 -0.030730221 -0.113656744 -0.04341435 -0.024363365
0.09108362 0.05575396 -0.09228209 -0.04861451 0.052571066 0.04703566 0.037181236 -0.045286458
-0.04097294 0.0063715866 -0.016371835 0.06998324 0.048040677 0.0044874446 0.036799077 -0.02413252
00000000: 9803 353d 4682 a1bd 1046 973d 15d1 483d
00000010: fa01 8dbd 40cc d0bc 0827 58bd 3049 8e3c
00000020: e54a 47bb 2f00 43bd 63a7 413d c440 45bd
00000030: 1981 863d 7b20 3b3d bd49 d23c 242e ee3c
00000040: 2208 3fbd ede9 acbd cca5 1cbd 8884 fdbc
00000050: 31c6 7cbc 17f4 51bd 5770 a6bd 9ebf 423d
00000060: cac4 3d3d e077 673d 5589 acbd 1414 993d
00000070: ae31 8a3d cfc2 a1bd 14cd ddbc b2d3 453d
00000080: 2db5 96bd a97f ae3d f0d5 31bd e611 653d
00000090: 6fa9 553d d650 7abd e3e6 94bd 5174 b13d
000000a0: 377f a63c 1f6c 01bd 439d 1abd 5e37 a23d
000000b0: 3dac 17ba 1058 ab3d 09f2 173d e4b3 333d
000000c0: a9b4 5e3d 61de 87bd d6bb e43c 66bb bd3d
000000d0: da3e 26bd dad5 b73d b96b 3ebd b7e3 723c
000000e0: 5b7d aebc 3aa3 463c c9a3 39bd 9d36 aebd
000000f0: c964 39bc 4abb cbbc 48b7 ecbc 67f7 8cbc
00000100: a773 943d 5702 9abd e57c e6bc fb21 ff3b
00000110: cbdb 913d b205 04bd c572 81bd 2cab 9ebd
00000120: 7558 96bc a283 d03c 66be 9e3d 9166 9e3d
00000130: 0453 7e3d 0fa9 ac3d 9cf2 d93d 888b 633d
00000140: a069 febb 8b92 9cbd 2a06 5e3c b66e 8bbd
00000150: 350d 563d e0a8 fc3c 004e aabd 5c9f 3b3d
00000160: 0f3e 9bbd 1a96 3a3d 7a18 02bd 5975 613d
00000170: 5bc0 923d 9599 a93d 1010 6a3d e743 3dbd
00000180: 971c 0bbd 4550 143d 4ca9 7dbd 96cf 2d3d
00000190: 7ff6 aa3c 22a2 a33d 8cc3 61bc 1862 893d
000001a0: 8ef2 41ba 9a61 d1bd f153 2bbc 129c 003c
000001b0: d39f 393d f9d6 29bc 91b5 fbbc 64b6 173c
000001c0: b76a a0bd 6a68 b5bd 3ff2 1abd d865 9abd
000001d0: 51bf 29bc 90e4 e53b 4936 693d 4a84 d03c
000001e0: 6e13 8d39 0e13 0abc 8114 433d ed3f 6d3d
000001f0: afc4 7fbd a20f fdba 1f23 a13a 4310 a03d
00000200: 692a 8ebb 9fe3 463d 9e30 ae3d 7191 b8bc
00000210: af2e b6bc b6eb 0abd b78b b63c 0855 17bd
00000220: 9c73 86bd 6cd3 83bc 3d04 08bd fe50 563d
00000230: b558 a4bd 3342 273d 7678 4b3d b453 4a3d
00000240: 47ba 133d cbce 8d3d cccb 6bbc 195f 21bd
00000250: f6e6 6cbd 3cc1 ccbb 28d0 39bd 4e88 61bd
00000260: 9249 8f3d 918c bbbd 7893 3f3d 71d3 8b3d
00000270: d12f 92bb 917b 30bd 6dc7 823d 8b8f e2bb
00000280: 748e 12bc 5231 ab3d 9665 273c be36 68bd
00000290: 95eb 103d 85fa 6a3d 9598 8f3d 7deb cbbc
000002a0: 47ab 573d 592a ec3c 231e 673d 73de 66bd
000002b0: ab04 3ebd f18d e2bc 0268 b6bc a65e 15bd
000002c0: 7888 c43c 2e4a 9fbc aa9c c5bc 1b9d b13d
000002d0: 4825 52bc 1580 5cbd c443 e539 6b7e babc
000002e0: bdbe 51bc f7ef 5ebd 067e 2bbd 9b2a 063d
000002f0: 8e86 213d 7a86 563d b4a5 8ebd b589 eebb
00000300: 7121 4b3d d675 d2bd 5092 f3bc 48fc d83c
00000310: 4bc5 9a3d cfc3 853c cb6d b4bd 10de b9bd
00000320: 6b1b b13d 698c ee3d a81f 0a3d ac55 233d
00000330: 108a a63c 97d5 ddbc e1ef 2fbb 53df 8a3d
00000340: 9bc4 97bd 46a3 f4bb 2a24 09bd 525c 403b
00000350: 4b95 983b 5722 6bbd 7e2f c33d eb5a 85bc
00000360: df7f 593c 24c5 bbbc 76f2 1ebd 40a8 053d
00000370: 8451 ccbd 4b37 ab3d 2575 ce3d 1b2e 79bd
00000380: 2e1b 1d3c 0adf 95bd 649b 3fbc 2611 32bd
00000390: e93e 06bd 4efa 59bd 7b81 a2bd e057 52bd
000003a0: 582f a33d 1997 97bd 335f 773d 2941 2d3d
000003b0: f2bd fbbc dec4 e8bd 3fd3 31bd ae95 c7bc
000003c0: 0d8a ba3d 445e 643d 64fe bcbd 0220 47bd
000003d0: c254 573d 77a8 403d 5a4b 183d 4b7e 39bd
000003e0: 3ed3 27bd bec8 d03b 3a1e 86bc 5f53 8f3d
000003f0: 4dc6 443d 6a0b 933b a1ba 163d 90b1 c5bc

layers.0.forward_conv1d.bias f4 [64]
0.081026465 0.01273433 -0.02056951 0.046818994 -0.06870487 -0.05068293 -0.03940169 0.11109167
-0.060449727 -0.09340232 -0.02038807 0.050794892 -0.082562216 0.019002879 0.037292358 -0.042401563
0.11088884 -0.01822591 -0.08750955 0.0022388834 -0.02558334 0.071558565 -0.02946741 0.025982928
-0.054360356 0.018555734 0.09660871 -0.08951867 -0.100075446 -0.10266167 -0.106831826 -0.016585173
-0.03521479 0.0988704 0.018049376 0.017079044 -0.102046214 0.028859233 -0.034064155 -0.109067805
0.10888523 0.02149893 0.038723867 -0.0760706 0.06992615 0.080779925 -0.0733313 -0.06318551
0.025323542 -0.07916857 0.00088824506 0.10343309 0.062097847 0.07564991 -0.040947936 0.08090215
-0.097759336 -0.026375216 0.078300074 -0.07129861 0.039472405 0.10252383 0.0690836 -0.020005325
00000000: 34f1 a53d a7a3 503c 6481 a8bc 46c5 3f3d
00000010: 24b5 8cbd e798 4fbd ab63 21bd 0884 e33d
00000020: 229a 77bd b749 bfbd e204 a7bc 4e0e 503d
00000030: 6116 a9bd edab 9b3c dfbf 183d 43ad 2dbd
00000040: b019 e33d 814e 95bc 3538 b3bd 3bba 123b
00000050: 2794 d1bc 4c8d 923d a365 f1bc 26da d43c
00000060: f7a8 5ebd 3202 983c cada c53d 9155 b7bd
00000070: 5bf4 ccbd 4840 d2bd a5ca dabd a1dd 87bc
00000080: 623d 10bd 907c ca3d 49dc 933c 5ae9 8b3c
00000090: 9bfd d0bd 336a ec3c db86 0bbd f15e dfbd
000000a0: 38ff de3d 861e b03c eb9c 1e3d e7ca 9bbd
000000b0: 7135 8f3d f26f a53d b82e 96bd 6867 81bd
000000c0: 5173 cf3c 2223 a2bd 1ed9 683a bad4 d33d
000000d0: 505a 7e3d 57ee 9a3d 06b9 27bd 07b0 a53d
000000e0: 0c36 c8bd d610 d8bc ca5b a03d 0105 92bd
000000f0: d1ad 213d 04f8 d13d b47b 8d3d 35e2 a3bc

layers.0.backward_conv1d.weight f4 [64, 64, 1]
0.060174502 -0.03329097 -0.013884582 0.006063852 0.036820427 -0.06993489 -0.09177255 -0.028518658
-0.07935655 0.06293778 -0.03669371 0.0022559343 -0.08640004 0.012977263 -0.0977184 -0.06141469
-0.053403553 0.07479921 -0.018625865 0.033770345 -0.0029146506 -0.01880196 -0.06718163 -0.0064876415
-0.07794978 -0.042092644 -0.0892107 -0.09007922 0.009084547 0.099227406 -0.08846587 -0.011010123
0.06707816 -0.0005820973 -0.07355062 0.078049436 -0.065612495 0.09654809 -0.073726654 -0.03180236
0.07053899 0.053929094 -0.018835653 0.047934104 0.04985555 -0.012519052 0.080216154 -0.08846283
0.057083633 -0.04036259 0.0817361 0.011111476 0.05337531 -0.02958875 0.007343007 -0.05497806
0.009883256 0.07636061 0.092983544 -0.09069262 0.032457463 -0.009570028 -0.08251608 0.049530897
-0.04227971 -0.022406721 -0.00014941218 -0.05147357 0.008495387 0.016160576 0.06071746 0.11101237
-0.0035447478 -0.015670748 -0.06924042 0.08879356 -0.05978927 -0.0794696 -0.06270333 -0.07484194
-0.035165243 -0.030179495 0.042289466 0.049770936 0.073630065 0.00732801 -0.06656961 -0.0029194786
0.05725943 0.08146267 -0.05075811 0.010300373 -0.07274071 0.054183066 0.03444113 0.02896544
-0.06536691 -0.0381427 0.09219092 -0.08629163 0.097535275 0.09100113 0.052712698 0.0780457
0.03197766 0.027681561 0.03762545 0.06030859 -0.05106907 -0.08181705 0.046296217 0.0069152326
0.052269004 0.03224516 0.005714064 -0.06389673 -0.10484374 0.04756816 0.07392756 0.089525454
-0.055543326 -0.050051663 -0.09358138 0.06019181 0.034540795 0.04176444 0.061342906 0.111720815
0.06071566 -0.008911488 -0.013002578 -0.027528824 -0.005796137 -0.0490655 0.022643082 0.042380814
0.0006009766 -0.06323965 0.05425298 -0.024906265 0.031042174 -0.084074475 -0.05798697 -0.039772827
-0.042322893 0.04897214 0.0040350603 0.06376197 0.01317148 0.007036816 0.062317066 -0.064152524
-0.0257737 -0.06579489 0.050052784 -0.039903842 -0.032667607 -0.06338787 0.027097313 -0.0041422206
-0.01241365 0.08360499 0.013730128 0.018740537 0.050457936 0.013805716 0.020091336 -0.037851475
0.007940629 0.08306405 0.018772952 -0.040310964 0.027782055 0.07115478 0.07310844 -0.035846144
0.074727856 0.057816233 0.029509472 -0.012879857 -0.019412473 -0.00030719762 0.035559624 -0.03435858
-0.008435159 -0.07193936 -0.061464615 -0.046534527 0.038871594 -0.021092843 -0.08115401 -0.031880092
0.027545124 0.07894235 0.008688886 0.019209484 0.08478935 0.07253739 0.029728241 -0.0025720787
-0.0039625606 0.07414602 0.043367658 0.0846648 -0.05600448 0.01485108 -0.028290186 0.035483625
-0.040753882 0.030438012 -0.06138343 -0.03855082 0.027218802 -0.020946497 -0.07045665 -0.04785587
-0.012374667 -0.08705473 0.092473164 -0.011420646 0.0057169646 0.055022832 -0.06741673 0.007849545
-0.028927863 0.010037002 0.03745505 0.07133835 -0.038861208 -0.028698131 -0.04696812 0.060838256
-0.09584584 -0.04447712 -0.049342956 0.09017058 0.027156593 0.07560358 0.060604252 -0.07125721
-0.034009304 -0.010706473 -6.761317e-05 -0.018142741 0.006886542 -0.03986153 -0.024956636 -0.0034278182
0.098315366 -0.07772785 0.023519503 0.08558096 0.050815813 -0.046339083 0.00094622385 0.017973188
00000000: 8a79 763d 1d5c 08bd 287c 63bc 47b3 c63b
00000010: 04d1 163d 063a 8fbd 3ff3 bbbd f69f e9bc
00000020: b085 a2bd 86e5 803d 254c 16bd 4cd8 133b
00000030: 81f2 b0bd 969e 543c 9620 c8bd f88d 7bbd
00000040: afbd 5abd 5430 993d 4595 98bc c652 0a3d
00000050: b903 3fbb 9106 9abc 8696 89bd 4896 d4bb
00000060: 22a4 9fbd 5669 2cbd 19b4 b6bd 747b b8bd
00000070: 5ad7 143c bd37 cb3d 982d b5bd ce63 34bc
00000080: 4660 893d e397 18ba b5a1 96bd 62d8 9f3d
00000090: d85f 86bd 01bb c53d 00fe 96bd 3143 02bd
000000a0: bf76 903d c1e4 5c3d 3a4d 9abc 8d56 443d
000000b0: 5535 4c3d b61c 4dbc 5e48 a43d 002c b5bd
000000c0: 87d0 693d 3e53 25bd 4265 a73d e90c 363c
000000d0: 12a0 5a3d 1b64 f2bc 9b9d f03b ad30 61bd
000000e0: 61ed 213c f462 9c3d 286e be3d 0dbd b9bd
000000f0: 1ef2 043d 9bcb 1cbc 31fe a8bd e9e0 4a3d
00000100: 7d2d 2dbd 4d8e b7bc 87ab 1cb9 f3d5 52bd
00000110: 3c30 0b3c 2f63 843c dfb2 783d 745a e33d
00000120: 004f 68bb f15f 80bc eccd 8dbd 66d9 b53d
00000130: 98e5 74bd f5c0 a2bd 9a6a 80bd bb46 99bd
00000140: 6e09 10bd fd3a f7bc b837 2d3d 9cdc 4b3d
00000150: 5ccb 963d ce1f f03b a655 88bd b954 3fbb
00000160: dd88 6a3d e6d5 a63d bce7 4fbd e5c2 283c
00000170: 15f9 94bd 10ef 5d3d 2412 0d3d ee48 ed3c
00000180: 16df 85bd 853b 1cbd 98ce bc3d abb9 b0bd
00000190: 93c0 c73d cd5e ba3d 45e9 573d 6dd6 9f3d
000001a0: 02fb 023d 71c4 e23c 251d 1a3d 2406 773d
000001b0: cd2d 51bd b38f a7bd 1aa1 3d3d 2d99 e23b
000001c0: 0618 563d 8013 043d 0b3d bb3b 4adc 82bd
000001d0: 51b8 d6bd d5d6 423d 5567 973d 1f59 b73d
000001e0: 6681 63bd f902 4dbd 98a7 bfbd b08b 763d
000001f0: a67a 0d3d 3011 2b3d b342 7b3d e2cd e43d
00000200: fcb0 783d 7d01 12bc c408 55bc 2184 e1bc
00000210: 85ed bdbb e8f8 48bd fc7d b93c 8197 2d3d
00000220: db8a 1d3a ca83 81bd 5f38 5e3d 3908 ccbc
00000230: 284c fe3c 3d2f acbd bf83 6dbd d5e8 22bd
00000240: c55a 2dbd 0397 483d 8a38 843b a395 823d
00000250: 31cd 573c 1795 e63b 2e40 7f3d 6662 83bd
00000260: 5e23 d3bc 79bf 86bd 2604 4d3d 3672 23bd
00000270: 78ce 05bd 80d1 81bd 2ffb dd3c 77bb 87bb
00000280: 9f62 4bbc 1839 ab3d 55f4 603c c185 993c
00000290: fbac 4e3d 5f31 623c 9696 a43c 260a 1bbd
000002a0: 6919 023c 7c1d aa3d bcc9 993c 1c1d 25bd
000002b0: 3197 e33c 99b9 913d e1b9 953d 68d3 12bd
000002c0: eb0a 993d b7d0 6c3d d9bd f13c 0906 53bc
000002d0: e806 9fbc 5e0f a1b9 f8a6 113d 95bb 0cbd
000002e0: 9f33 0abc f154 93bd 52c2 7bbd fd9a 3ebd
000002f0: d237 1f3d e6ca acbc 1334 a6bd b394 02bd
00000300: 50a6 e13c 87ac a13d d45b 0e3c 355d 9d3c
00000310: 0aa6 ad3d 7c8e 943d a488 f33c 5290 28bb
00000320: 5ed8 81bb ded9 973d 49a2 313d bd64 ad3d
00000330: f464 65bd f251 733c d2c0 e7bc 4757 113d
00000340: 8bed 26bd 2359 f93c 316d 7bbd 77e7 1dbd
00000350: f7f9 de3c fd97 abbc 934b 90bd 8404 44bd
00000360: 1ebf 4abc c049 b2bd 9262 bd3d a91d 3bbc
00000370: 6055 bb3b 9f5f 613d c811 8abd 619b 003c
00000380: 20fa ecbc 3d72 243c 776a 193d d719 923d
00000390: ee2c 1fbd 5818 ebbc a561 40bd 8931 793d
000003a0: d34a c4bd a42d 36bd d71b 4abd 5aab b83d
000003b0: 8177 de3c 0dd6 9a3d 2a3c 783d 4def 91bd
000003c0: 574d 0bbd 346a 2fbc 8bcb 8db8 16a0 94bc
000003d0: 80a8 e13b d845 23bd dc71 ccbc 3fa5 60bb
000003e0: 9159 c93d c72f 9fbd f9ab c03c 1245 af3d
000003f0: 3e24 503d 0dce 3dbd 020c 783a 823c 933c

layers.0.backward_conv1d.bias f4 [64]
-0.067949265 0.08444057 -0.009524953 -0.042490914 -0.051017962 -0.0779136 0.08495682 -0.07745732
0.07307916 -0.023790868 0.027840767 -0.039602067 0.051361598 0.117573015 0.07156434 0.018800702
0.029266065 0.036066107 0.031705312 -0.08647182 0.040117607 -0.0680175 -0.07060809 -0.055519354
0.021847073 -0.09010568 -0.112204425 0.033008356 -0.0226239 -0.054403648 0.0996521 -0.029472757
0.079638824 0.1076816 -0.068015166 0.05415 0.07602339 0.08323981 -0.023930142 -0.03955817
0.00069237436 -0.024165668 -0.09931478 0.07042542 0.10077372 0.055205032 0.0028830518 -0.0739163
-0.07806453 -0.10645736 0.018659305 -0.035157464 0.05098455 -0.06699765 0.014981635 -0.09880215
-0.05739549 0.031061316 0.03892252 -0.103049114 0.016802754 -0.088209525 -0.024451997 0.050235156
00000000: fc28 8bbd 2def ac3d 8c0e 1cbc f40a 2ebd
00000010: 36f8 50bd 2a91 9fbd d7fd ad3d f2a1 9ebd
00000020: 87aa 953d 11e5 c2bc 5212 e43c c735 22bd
00000030: 8a60 523d 1fca f03d 5390 923d ee03 9a3c
00000040: 63bf ef3c 0eba 133d 6edd 013d 2318 b1bd
00000050: 5c52 243d c24c 8bbd f99a 90bd 4368 63bd
00000060: a2f8 b23c 5489 b8bd 6fcb e5bd c533 073d
00000070: c255 b9bc 5cd6 5ebd 6616 cc3d da70 f1bc
00000080: ae19 a33d 2c88 dc3d 894b 8bbd 64cc 5d3d
00000090: 27b2 9b3d a279 aa3d 2509 c4bc bf07 22bd
000000a0: 7580 353a 14f7 c5bc 8c65 cbbd 343b 903d
000000b0: 7462 ce3d ac1e 623d 95f1 3c3b 6e61 97bd
000000c0: 4ce0 9fbd 5106 dabd 66db 983c 4601 10bd
000000d0: 2dd5 503d 1036 89bd 8875 753c c858 cabd
000000e0: 8917 6bbd 4d74 fe3c 386d 1f3d 6a0b d3bd
000000f0: eea5 893c 32a7 b4bd 8e4f c8bc 61c3 4d3d

layers.0.norm.weight f4 [64]
0.9388677 0.9598666 0.9519646 0.932761 0.97465146 0.9710869 0.98014575 0.92913276
0.95599204 0.9593725 0.9197901 0.94429314 0.96546346 0.9442789 0.9627903 0.98427784
0.9520422 0.9651128 0.9699878 0.9484475 0.95799494 0.91790205 0.96258974 0.9424508
0.93216735 0.9808797 0.9604864 0.94745445 0.8885 0.92135453 0.95638007 0.9262713
0.96359646 0.8884018 0.93939894 0.9537711 0.98302776 0.91873163 0.90950185 0.92168355
0.9266731 0.98127896 0.9492794 0.9427553 0.95122916 0.949191 0.96658033 0.9663372
0.9233795 0.979054 0.9360577 0.9640826 0.9360379 0.95013815 0.9394648 0.92746323
0.96033734 0.95435846 0.97742265 0.9417288 0.9471219 0.96363044 0.92150956 0.951093
00000000: a259 703f d1b9 753f f4b3 733f 6dc9 6e3f
00000010: c282 793f 2799 783f d5ea 7a3f a5db 6d3f
00000020: e5bb 743f 7099 753f 5d77 6b3f 32bd 713f
00000030: 9d28 773f 43bc 713f 6d79 763f a2f9 7b3f
00000040: 0ab9 733f a211 773f 1f51 783f 75cd 723f
00000050: 283f 753f a1fb 6a3f 486c 763f 7544 713f
00000060: 85a2 6e3f ef1a 7b3f 70e2 753f 608c 723f
00000070: bc74 633f e4dd 6b3f 53d5 743f 1e20 6d3f
00000080: 42ae 763f 4d6e 633f 737c 703f 582a 743f
00000090: b5a7 7b3f ff31 6b3f 1dd5 683f 74f3 6b3f
000000a0: 733a 6d3f 1935 7b3f fa03 733f 6958 713f
000000b0: c183 733f 2efe 723f cf71 773f e061 773f
000000c0: 9962 6c3f 48a3 7a3f 7aa1 6f3f 1ece 763f
000000d0: 2ea0 6f3f 413c 733f c480 703f 3b6e 6d3f
000000e0: abd8 753f d650 743f 5f38 7a3f 2315 713f
000000f0: 9576 723f 7cb0 763f 0de8 6b3f d57a 733f

layers.0.norm.bias f4 [64]
0.00077730604 -0.0020739862 0.0024955503 0.006302408 -0.0016831488 -0.0019730933 0.001148721 -0.0028734426
0.0010551796 0.00065928017 -0.0026559986 -0.001006616 0.0008688007 -0.006222594 0.004271298 0.0046751336
0.0031839055 -0.0017295216 0.003905819 -0.0051774494 0.0075817565 -0.0021474524 0.0023726623 -0.005700633
0.0007280838 0.0055247894 0.0018291621 0.006898764 0.0058250735 -0.0069827903 -0.013723622 0.00070095126
-0.0011776225 0.0020291335 -0.0026848041 -0.006452829 -0.002025183 -0.0020456389 -0.0013911048 0.0031468852
0.0074029556 -0.004002666 0.001068229 -0.004495817 -0.012784485 0.0068917605 -0.002369307 0.007392185
-0.003679326 0.0014876134 0.0007194597 0.0025738298 0.0044589345 0.0037281767 0.007902311 0.001914659
-0.0036417518 -0.0023487888 -0.005581519 0.014384799 -0.004737851 -0.0023311328 -0.0025785079 0.0030132597
00000000: 20c4 4b3a b7eb 07bb 638c 233b 6e84 ce3b
00000010: 1a9d dcba 034f 01bb ae90 963a 5e50 3cbb
00000020: f44d 8a3a 8bd3 2c3a 4310 2ebb 6ef0 83ba
00000030: 3ac0 633a e7e6 cbbb 3ff6 8b3b dd31 993b
00000040: 12a9 503b 1db1 e2ba c5f8 7f3b 98a7 a9bb
00000050: 6270 f83b 46bc 0cbb ab7e 1b3b 60cc babb
00000060: e0dc 3e3a 4b09 b53b 7fc0 ef3a 070f e23b
00000070: 42e0 be3b e4cf e4bb 0bd9 60bc 0bc0 373a
00000080: 745a 9aba 36fb 043b 8af3 2fbb 4172 d3bb
00000090: efb8 04bb 2010 06bb bb55 b6ba f93b 4e3b
000000a0: 7e94 f23b cc28 83bb d103 8c3a a551 93bb
000000b0: 0476 51bc 47d4 e13b 6046 1bbb 243a f23b
000000c0: d920 71bb 06fc c23a 209a 3c3a b3ad 283b
000000d0: 411c 923b 6d54 743b b278 013c 4cf5 fa3a
000000e0: 75aa 6ebb 23ee 19bb 2de5 b6bb 38ae 6b3c
000000f0: fa3f 9bbb ebc5 18bb 2ffc 28bb 1c7a 453b

layers.0.ssm.A_log f4 [64, 64]
0.0017491488 0.4627309 0.8165838 1.0918938 1.3208005 1.4941055 1.647296 1.78024
1.897617 2.0025852 2.097591 2.1843405 2.2641723 2.3380952 2.4069388 2.471331
2.5318136 2.5888479 2.6428092 2.6940024 2.7427022 2.7891395 2.8335278 2.8760238
2.916778 2.9559298 2.993602 3.0299032 3.0649424 3.098796 3.1315396 3.1632433
3.193968 3.2237825 3.2527323 3.2808657 3.3082275 3.3348598 3.3608005 3.3860939
3.4107623 3.4348354 3.4583426 3.4813087 3.5037587 3.5257149 3.5471983 3.5682297
3.588827 3.6090076 3.6287854 3.6481786 3.6672027 3.685871 3.7041793 3.7221909
3.7398646 3.7572298 3.7743196 3.791104 3.807604 3.823872 3.8398578 3.855584
0.0039326907 0.45577553 0.8130459 1.0911181 1.320818 1.4937408 1.6473787 1.7802498
1.8975673 2.0026693 2.097618 2.1843445 2.2641792 2.3380997 2.4069407 2.47133
2.5318089 2.5888476 2.6428065 2.6940026 2.742702 2.789142 2.833528 2.876024
2.9167783 2.9559295 2.9936018 3.0299034 3.0649424 3.098796 3.1315396 3.1632433
3.193968 3.2237825 3.2527323 3.280866 3.3082275 3.3348598 3.3608005 3.3860939
3.4107623 3.4348354 3.4583426 3.4813087 3.5037587 3.5257149 3.5471983 3.5682297
3.588827 3.6090076 3.6287854 3.6481786 3.6672027 3.685871 3.7041793 3.7221909
3.7398646 3.7572298 3.7743196 3.791104 3.807604 3.823872 3.8398578 3.855584
0.0013034282 0.45897436 0.8130493 1.0912142 1.3202174 1.4937257 1.6473866 1.7802438
1.8975335 2.0026293 2.0976014 2.1843457 2.2641737 2.338097 2.4069424 2.4713302
2.531815 2.5888498 2.6428063 2.6940024 2.7427022 2.7891407 2.833528 2.876024
2.916778 2.9559295 2.9936018 3.0299032 3.0649424 3.098796 3.1315396 3.1632433
3.193968 3.2237825 3.2527323 3.280866 3.3082275 3.3348598 3.3608005 3.3860939
3.4107623 3.4348354 3.4583426 3.4813087 3.5037587 3.5257149 3.5471983 3.5682297
3.588827 3.6090076 3.6287854 3.6481786 3.6672027 3.685871 3.7041793 3.7221909
3.7398646 3.7572298 3.7743196 3.791104 3.807604 3.823872 3.8398578 3.855584
-0.00022090212 0.42725065 0.8106988 1.0916438 1.3131236 1.4939638 1.6472765 1.7802444
1.8975843 2.002589 2.0976028 2.1843448 2.2641752 2.3380978 2.4069428 2.4713304
2.5318096 2.5888484 2.642808 2.6940029 2.7427025 2.7891412 2.833528 2.8760238
2.9167783 2.9559295 2.9936023 3.0299032 3.0649424 3.098796 3.1315396 3.1632433
3.193968 3.2237825 3.2527323 3.280866 3.3082275 3.3348598 3.3608005 3.3860939
3.4107623 3.4348354 3.4583426 3.4813087 3.5037587 3.5257149 3.5471983 3.5682297
3.588827 3.6090076 3.6287854 3.6481786 3.6672027 3.685871 3.7041793 3.7221909
3.7398646 3.7572298 3.7743196 3.791104 3.807604 3.823872 3.8398578 3.855584
00000000: b243 e53a 11eb ec3e a30b 513f 2dc3 8b3f
00000010: fe0f a93f d93e bf3f 98da d23f e8de e33f
00000020: 1de5 f23f 5b2a 0040 ee3e 0640 3ccc 0b40
00000030: 33e8 1040 5aa3 1540 490b 1a40 492a 1e40
00000040: 3c09 2240 afaf 2540 c923 2940 896a 2c40
00000050: 6f88 2f40 4381 3240 8558 3540 c610 3840
00000060: 7eac 3a40 f42d 3d40 2d97 3f40 efe9 4140
00000070: 0428 4440 ac52 4640 256b 4840 9472 4a40
00000080: f969 4c40 7452 4e40 c42c 5040 b4f9 5140
00000090: 00ba 5340 586e 5540 5b17 5740 c3b5 5840
000000a0: ee49 5a40 58d4 5b40 7c55 5d40 c3cd 5e40
000000b0: 953d 6040 50a5 6140 4c05 6340 e05d 6440
000000c0: 57af 6540 fbf9 6640 053e 6840 c27b 6940
000000d0: 73b3 6a40 4fe5 6b40 4611 6d40 6038 6e40
000000e0: f159 6f40 7476 7040 748e 7140 73a1 7240
000000f0: c9af 7340 52ba 7440 3bc0 7540 e3c1 7640
00000100: cddd 803b 695b e93e c723 503f c2a9 8b3f
00000110: 9010 a93f e632 bf3f 4edd d23f 3adf e33f
00000120: 7ce3 f23f bc2b 0040 603f 0640 4dcc 0b40
00000130: 50e8 1040 6da3 1540 510b 1a40 452a 1e40
00000140: 2809 2240 aeaf 2540 be23 2940 8a6a 2c40
00000150: 6e88 2f40 4d81 3240 8658 3540 c710 3840
00000160: 7fac 3a40 f32d 3d40 2c97 3f40 f0e9 4140
00000170: 0428 4440 ac52 4640 256b 4840 9472 4a40
00000180: f969 4c40 7452 4e40 c42c 5040 b5f9 5140
00000190: 00ba 5340 586e 5540 5b17 5740 c3b5 5840
000001a0: ee49 5a40 58d4 5b40 7c55 5d40 c3cd 5e40
000001b0: 953d 6040 50a5 6140 4c05 6340 e05d 6440
000001c0: 57af 6540 fbf9 6640 053e 6840 c27b 6940
000001d0: 73b3 6a40 4fe5 6b40 4611 6d40 6038 6e40
000001e0: f159 6f40 7476 7040 748e 7140 73a1 7240
000001f0: c9af 7340 52ba 7440 3bc0 7540 e3c1 7640
00000200: cbd7 aa3a b0fe ea3e 0024 503f e8ac 8b3f
00000210: e2fc a83f 6732 bf3f 90dd d23f 07df e33f
00000220: 61e2 f23f 142b 0040 1a3f 0640 52cc 0b40
00000230: 39e8 1040 62a3 1540 580b 1a40 462a 1e40
00000240: 4209 2240 b7af 2540 bd23 2940 896a 2c40
00000250: 6f88 2f40 4881 3240 8658 3540 c710 3840
00000260: 7eac 3a40 f32d 3d40 2c97 3f40 efe9 4140
00000270: 0428 4440 ac52 4640 256b 4840 9472 4a40
00000280: f969 4c40 7452 4e40 c42c 5040 b5f9 5140
00000290: 00ba 5340 586e 5540 5b17 5740 c3b5 5840
000002a0: ee49 5a40 58d4 5b40 7c55 5d40 c3cd 5e40
000002b0: 953d 6040 50a5 6140 4c05 6340 e05d 6440
000002c0: 57af 6540 fbf9 6640 053e 6840 c27b 6940
000002d0: 73b3 6a40 4fe5 6b40 4611 6d40 6038 6e40
000002e0: f159 6f40 7476 7040 748e 7140 73a1 7240
000002f0: c9af 7340 52ba 7440 3bc0 7540 e3c1 7640
00000300: f6a1 67b9 99c0 da3e f589 4f3f fcba 8b3f
00000310: 6f14 a83f 353a bf3f f5d9 d23f 0cdf e33f
00000320: 0be4 f23f 6b2a 0040 203f 0640 4ecc 0b40
00000330: 3fe8 1040 65a3 1540 5a0b 1a40 472a 1e40
00000340: 2b09 2240 b1af 2540 c423 2940 8b6a 2c40
00000350: 7088 2f40 4a81 3240 8658 3540 c610 3840
00000360: 7fac 3a40 f32d 3d40 2e97 3f40 efe9 4140
00000370: 0428 4440 ac52 4640 256b 4840 9472 4a40
00000380: f969 4c40 7452 4e40 c42c 5040 b5f9 5140
00000390: 00ba 5340 586e 5540 5b17 5740 c3b5 5840
000003a0: ee49 5a40 58d4 5b40 7c55 5d40 c3cd 5e40
000003b0: 953d 6040 50a5 6140 4c05 6340 e05d 6440
000003c0: 57af 6540 fbf9 6640 053e 6840 c27b 6940
000003d0: 73b3 6a40 4fe5 6b40 4611 6d40 6038 6e40
000003e0: f159 6f40 7476 7040 748e 7140 73a1 7240
000003f0: c9af 7340 52ba 7440 3bc0 7540 e3c1 7640

layers.0.ssm.D f4 [64]
0.943538 0.9356902 0.9328426 0.89510953 0.9371764 0.9757646 0.93766373 0.95273376
0.9478497 0.9294602 0.97744524 0.92982876 0.9091289 0.9160109 0.9588825 0.9438345
0.9540325 0.95277494 0.9708541 0.9880792 0.9256731 0.9001014 0.94847053 0.98003536
0.9546844 0.9864295 0.9744356 0.9446636 0.95843583 0.953548 0.9469189 0.8279069
0.96178776 0.9285863 0.9841812 0.936205 0.97570324 0.9290303 0.9825974 0.9740327
0.9800673 0.9922844 0.94278425 0.9236219 0.95446736 0.97489506 0.9416804 0.9735508
0.97767603 0.93602824 0.9641176 0.9674997 0.94023323 0.90843475 0.9773993 0.95815414
0.8954547 0.9602346 0.9503621 0.9362394 0.98626196 0.9181874 0.97277284 0.92486405
00000000: b58b 713f 6589 6f3f c6ce 6e3f e625 653f
00000010: cbea 6f3f b5cb 793f bb0a 703f 5ce6 733f
00000020: 47a6 723f 1bf1 6d3f da39 7a3f 4209 6e3f
00000030: acbc 683f b17f 6a3f 5379 753f 239f 713f
00000040: 793b 743f 0fe9 733f e589 783f c2f2 7c3f
00000050: eaf8 6c3f 0c6d 663f f7ce 723f 99e3 7a3f
00000060: 3266 743f a586 7c3f 9d74 793f 79d5 713f
00000070: 0d5c 753f b91b 743f 4769 723f b5f1 533f
00000080: b937 763f d5b7 6d3f 4df3 7b3f 22ab 6f3f
00000090: b0c7 793f eed4 6d3f 818b 7b3f 355a 793f
000000a0: b1e5 7a3f 5a06 7e3f 4f5a 713f 7c72 6c3f
000000b0: f957 743f b992 793f f711 713f a03a 793f
000000c0: fa48 7a3f 8c9f 6f3f 69d0 763f 0fae 773f
000000d0: 20b3 703f 2e8f 683f d736 7a3f 9749 753f
000000e0: 853c 653f efd1 753f ee4a 733f 63ad 6f3f
000000f0: aa7b 7c3f 540e 6b3f a407 793f e4c3 6c3f

layers.0.ssm.deltaBC_layer.weight f4 [144, 64]
-0.008166981 0.034374777 -0.02858084 -0.11436902 -0.012144949 0.0332931 0.02248448 0.01866987
0.03956584 -0.07564866 -0.033134583 0.12187704 -0.09074981 0.09203185 -0.024633568 0.060466852
-0.047122702 0.10956106 0.0346317 0.12460389 0.018028118 -0.022268387 0.058133014 0.070615344
0.11883805 0.09353564 0.019233027 0.10448392 0.10641389 -0.08992953 -0.034681734 0.026490854
-0.076339476 0.035385214 -0.06822173 -0.10254401 0.1044087 0.05518988 0.04132127 -0.07969815
-0.062114082 -0.05987575 0.124150045 0.032085065 -0.07394769 0.056644242 0.06550836 -0.018080693
0.07242875 4.16203e-05 -0.033153187 0.06429707 0.027987465 0.122910514 0.02957249 0.11952074
-0.043711845 -0.1029541 0.008556139 0.049254328 0.044988826 0.045200154 -0.05140801 0.12295579
-0.08167534 -0.10741377 0.018351004 0.045605246 0.10228576 0.10459904 0.10349354 0.044877388
0.030926213 -0.113910936 0.061328575 0.08684439 -0.08002952 -0.1060534 -0.08349511 0.0014498958
0.07765644 0.112287365 -0.08227723 -0.10389349 -0.033057425 -0.04648756 0.10584133 0.016301626
-0.075650685 -0.019526394 -0.09148406 -0.021767035 0.025137253 -0.012223252 0.029011155 0.020709934
-0.07453828 -0.030084878 0.09257999 0.029918658 0.040096667 -0.11438719 -0.11844288 -0.025889825
0.062204823 -0.006619333 -0.043823432 0.10609206 0.11266284 0.09164758 -0.11602964 -0.04089538
-0.00013847412 0.058510225 -0.016694011 0.10087565 0.0035714298 -0.08210048 -0.0024461152 -0.10405928
-0.0968483 0.09753143 0.11370692 0.0045904443 -0.09709782 -0.0059733232 0.0011146684 -0.011155303
0.10074556 0.07842725 -0.0780524 0.11479712 -0.09906395 0.07471975 -0.11175513 0.07185642
0.021946056 0.043733094 0.05469224 0.08327375 -0.07470739 0.0024476536 0.0441819 -0.08212002
0.116435274 -0.06914552 -0.031661235 0.030272938 -0.11226541 -0.10361186 -0.09993765 0.074341945
-0.046056397 0.0395974 0.11122068 0.084877744 -0.030931307 0.0947426 0.11712508 0.052888036
0.09102494 0.028010342 -0.10818034 -0.08825644 -0.09729138 0.023050997 0.053185336 0.122130394
0.0068685003 0.06336051 -0.065234266 0.086666465 0.08204101 0.06344362 0.057771746 -0.0006124204
0.07924126 0.047969807 -0.11092446 -0.05872448 0.10930823 0.018670605 0.00077977177 0.03113282
0.04089106 0.02653156 0.0005442938 -0.05065261 0.028515894 0.10279787 0.060571555 0.009955047
-0.018724745 -0.03264828 0.10244848 -0.038116213 0.04665544 -0.03179326 0.036701642 0.022162242
-0.05411426 0.007850516 -0.06440647 0.08345786 0.0954457 -0.03833341 0.11378449 0.027342584
0.06364498 0.09090017 -0.043122176 -0.044059247 0.10869166 0.11081299 0.03719021 -0.114756584
-0.00014161605 -0.006723778 -0.054428227 -0.0015802446 -0.044336468 -0.08192112 0.085325874 -0.07151996
-0.11045545 0.056275457 0.05248756 0.025212219 -0.05219865 0.072621144 -0.070661984 0.08315667
0.08268069 0.06953143 -0.10315836 -0.088264555 -0.052066334 0.0846088 -0.09097967 0.054516535
-0.008423307 0.042475205 0.09407313 0.10782367 0.040296763 0.0084106205 -0.09360277 0.10186054
-0.0039152093 0.11258495 0.12364818 0.047749918 -0.053511064 -0.11003116 -0.10291133 -0.035871837
00000000: cdce 05bc 91cc 0c3d 5e22 eabc 4e3a eabd
00000010: 9cfb 46bc 585e 083d 5f31 b83c 8ef1 983c
00000020: ca0f 223d afed 9abd 21b8 07bd ab9a f93d
00000030: 09db b9bd 327b bc3d 56cc c9bc 17ac 773d
00000040: bc03 41bd 8d61 e03d f8d9 0d3d 5330 ff3d
00000050: b4af 933c 316c b6bc e21c 6e3d c79e 903d
00000060: 5d61 f33d 9d8f bf3d 958e 9d3c aafb d53d
00000070: 87ef d93d f92c b8bd 6f0e 0ebd 5903 d93c
00000080: df57 9cbd 16f0 103d d6b7 8bbd 9802 d2bd
00000090: 3ad4 d53d c90e 623d 7e40 293d c938 a3bd
000000a0: 566b 7ebd 4640 75bd 6142 fe3d a16b 033d
000000b0: e371 97bd cb03 683d 3f29 863d f61d 94bc
000000c0: 8655 943d 7591 2e38 a3cb 07bd 2fae 833d
000000d0: f845 e53c 82b8 fb3d 0242 f23c 4ac7 f43d
000000e0: 310b 33bd 99d9 d2bd 0c2f 0c3c e8be 493d
000000f0: 3446 383d cc23 393d 3591 52bd 3fd0 fb3d
00000100: 6745 a7bd c0fb dbbd d854 963c 91cc 3a3d
00000110: 327b d13d 0538 d63d 6cf4 d33d 5ad1 373d
00000120: f858 fd3c 234a e9bd ac33 7b3d 79db b13d
00000130: 84e6 a3bd 8632 d9bd 7cff aabd 6e0a be3a
00000140: 570a 9f3d ebf6 e53d f780 a8bd 1cc6 d4bd
00000150: 3967 07bd bd69 3ebd 57c3 d83d fd8a 853c
00000160: bfee 9abd d1f5 9fbc ff5b bbbd c850 b2bc
00000170: a4ec cd3c 0944 48bc cda8 ed3c e1a7 a93c
00000180: 87a7 98bd 9074 f6bc 949a bd3d f917 f53c
00000190: 673c 243d d543 eabd 2e92 f2bd e616 d4bc
000001a0: 7cca 7e3d fde6 d8bb 3380 33bd cb46 d93d
000001b0: c6bb e63d bab1 bb3d f3a0 edbd ea81 27bd
000001c0: 5d33 11b9 6ba8 6f3d e1c1 88bc e597 ce3d
000001d0: a60e 6a3b 4c24 a8bd 014f 20bb 081d d5bd
000001e0: 6758 c6bd 8fbe c73d 2cdf e83d 706b 963b
000001f0: 39db c6bd debb c3bb 111a 923a bbc4 36bc
00000200: b053 ce3d 779e a03d f0d9 9fbd c11a eb3d
00000210: 0ae2 cabd ab06 993d e0df e4bd 7529 933d
00000220: 37c8 b33c 7921 333d f804 603d 6e8b aa3d
00000230: 3000 99bd d068 203b 14f8 343d 8b2e a8bd
00000240: 9e75 ee3d 2b9c 8dbd 36af 01bd f4fe f73c
00000250: 68eb e5bd 7432 d4bd 1cac ccbd 9740 983d
00000260: a2a5 3cbd e230 223d abc7 e33d 62d4 ad3d
00000270: a763 fdbc 6908 c23d 46df ef3d 20a1 583d
00000280: 496b ba3d f275 e53c a78d ddbd cbbf b4bd
00000290: b440 c7bd 72d5 bc3c ded8 593d 801f fa3d
000002a0: 2811 e13b 28c3 813d 8b99 85bd 307e b13d
000002b0: 1e05 a83d bbee 813d 11a2 6c3d d68a 20ba
000002c0: 3e49 a23d fd7b 443d 5d2c e3bd 1589 70bd
000002d0: fedc df3d 19f3 983c 9969 4c3a 410a ff3c
000002e0: 627d 273d b758 d93c f0ae 0e3a 1c79 4fbd
000002f0: 2a9a e93c b187 d23d e119 783d 7e1a 233c
00000300: a364 99bc 34ba 05bd 82d0 d13d bf1f 1cbd
00000310: c619 3f3d a639 02bd 7654 163d 978d b53c
00000320: eaa6 5dbd 739f 003c 8ae7 83bd f4eb aa3d
00000330: 0979 c33d 7e03 1dbd d807 e93d 8efd df3c
00000340: 4d58 823d de29 ba3d e1a0 30bd 7877 34bd
00000350: bc99 de3d ecf1 e23d c354 183d 8005 ebbd
00000360: c57e 14b9 2353 dcbb 22f0 5ebd 3620 cfba
00000370: 289a 35bd 43c6 a7bd 55bf ae3d 0f79 92bd
00000380: 7836 e2bd 1881 663d 32fd 563d db89 ce3c
00000390: 40ce 55bd 65ba 943d 3bb7 90bd 0b4e aa3d
000003a0: 7e54 a93d 7f66 8e3d b144 d3bd 0cc4 b4bd
000003b0: 8243 55bd 6147 ad3d 8d53 babd bb4c 5f3d
000003c0: e901 0abc 7bfa 2d3d 6aa9 c03d a8d2 dc3d
000003d0: 380e 253d b3cc 093c cfb2 bfbd 429c d03d
000003e0: 284b 80bb f092 e63d 423b fd3d 6b95 433d
000003f0: 6b2e 5bbd 0458 e1bd 2dc3 d2bd 59ee 12bd

layers.0.ssm.dt_proj_layer.weight f4 [64, 16]
0.08012655 0.033863638 0.05170047 -0.09404888 -0.14174256 -0.07210414 0.08312137 -0.119549006
-0.02643999 0.21018812 0.0138605675 -0.102340415 -0.07274396 0.11870743 0.16854593 -0.12731735
-0.10052116 0.00034755078 0.025944525 -0.009255565 0.14440143 -0.12698096 0.019495184 -0.10971557
-0.014798335 0.16287112 0.08559987 -0.1380595 0.0247917 0.07549886 0.0054895175 0.0033925003
-0.2266989 0.09680969 -0.04528302 -0.056137376 -0.175856 -0.05282497 -0.14815725 0.09690953
-0.022863323 -0.12628828 -0.055450775 -0.040987093 -0.14343643 -0.16403022 -0.06311317 -0.0192647
0.20372586 -0.10929901 -0.08279464 0.036890373 -0.059830625 0.14085996 0.14983276 -0.06745663
-0.07180604 -0.12233136 -0.22335611 0.049441572 0.204471 -0.19707376 -0.076632395 0.006487838
0.19052118 0.11832105 -0.1532589 0.05856902 -0.051472884 -0.14810158 0.09238141 -0.02641551
0.12797682 -0.1535029 0.07319519 -0.13405927 -0.07375181 0.068836026 -0.23110718 0.18149212
-0.23854028 -0.07655132 -0.12793076 -0.17799419 0.094086155 0.089611456 -0.0586847 -0.029009916
-0.018183777 -0.19650906 0.21114536 0.038548768 0.014233733 -0.11006585 0.07526113 0.094084114
-0.04337985 0.043664128 -0.055589058 -0.05392432 -0.12961012 0.16824502 -0.0640556 0.012638892
0.07541913 0.057110038 0.1254367 -0.07914015 0.1973691 -0.045070563 0.004459943 0.0686659
0.1433531 -0.040483404 0.09065037 0.099989615 -0.19499446 -0.07674625 -0.017848257 0.1021214
0.01744823 0.19698939 -0.108439356 -0.17025284 0.15916033 0.19733901 0.21117231 -0.04715596
0.1330125 -0.093497634 -0.22376183 0.14843126 0.0009894553 0.16803698 -0.11425315 0.0833828
0.0022764744 0.18211345 0.22883645 -0.13567153 -0.018849667 -0.13982996 -0.14877231 -0.12087978
0.20309159 0.137238 -0.015259223 0.0907441 -0.03880789 -0.0032148557 0.13871022 -0.059815787
-0.1309165 -0.23982835 0.05048645 0.09348231 -0.07979309 0.027976008 -0.20688061 0.023733864
0.18060929 0.15876253 -0.23605739 0.03545974 -0.148712 0.01480063 -0.031384613 0.2118302
0.001804724 0.16265818 -0.15347171 0.091828234 -0.015444497 0.1684137 0.21505278 0.22492026
0.10091506 -0.1415936 -0.12030985 0.11265954 0.05274391 -0.13481764 -0.072021104 -0.085023575
-0.059119646 -0.074344985 -0.23187162 0.12411505 0.011090038 0.04362275 0.10842529 -0.12661676
-0.052296583 -0.057755034 -0.16780707 0.11732067 0.14694026 -0.16158083 -0.13700798 -0.11018049
-0.03248252 0.044659905 -0.13746095 0.07439107 0.077148534 0.043844685 -0.031733733 0.10934554
-0.06852766 -0.03982703 -0.15306021 0.15974861 -0.076203205 -0.1400431 0.05881642 -0.029006
0.059973434 0.17005964 0.11206228 -0.026296241 0.15799437 0.14021829 0.03365747 0.016473198
-0.24329694 -0.09393069 -0.024216676 -0.17545243 -0.06600909 0.056595046 0.12956126 -0.023692848
-0.121051274 -0.17177464 0.00011956252 0.0060906536 -0.11087215 -0.081122555 -0.12394981 -0.20048095
0.15159233 0.09363648 0.03137266 0.03262034 0.05116551 -0.12924978 -0.0529116 -0.021660447
-0.019645903 -0.0034957067 -0.05945817 0.1013185 -0.21652669 0.16194595 -0.0980784 -0.190496
00000000: 6319 a43d 99b4 0a3d dfc3 533d b39c c0bd
00000010: f624 11be 56ab 93bd 893b aa3d 1cd6 f4bd
00000020: ae98 d8bc 8e3b 573e 6f17 633c da97 d1bd
00000030: c9fa 94bd e21c f33d 4e97 2c3e 7b5f 02be
00000040: 0ade cdbd 7a37 b639 9d89 d43c a7a4 17bc
00000050: f8dd 133e 4c07 02be 5db4 9f3c 8fb2 e0bd
00000060: b774 72bc b0c7 263e fc4e af3d 785f 0dbe
00000070: f717 cb3c 259f 9a3d 69e1 b33b b654 5e3b
00000080: c223 68be 2944 c63d b07a 39bd 4ef0 65bd
00000090: 9813 34be ff5e 58bd 89b6 17be 8178 c63d
000000a0: dd4b bbbc b751 01be 5a20 63bd 15e2 27bd
000000b0: 00e1 12be 8af7 27be 7a41 81bd 01d1 9dbc
000000c0: 839d 503e 29d8 dfbd 3c90 a9bd 5c1a 173d
000000d0: f510 75bd 983d 103e c26d 193e b426 8abd
000000e0: 0c0f 93bd dd88 fabd 77b7 64be 3f83 4a3d
000000f0: d960 513e b4cd 49be 72f1 9cbd ee97 d43b
00000100: fc17 433e 4f52 f23d e7ef 1cbe 12e6 6f3d
00000110: 3bd5 52bd f1a7 17be 7732 bd3d 5765 d8bc
00000120: 5b0c 033e dd2f 1dbe 5ce7 953d d546 09be
00000130: 300b 97bd e7f9 8c3d 5ca7 6cbe 12d9 393e
00000140: e743 74be f0c6 9cbd 4800 03be 1c44 36be
00000150: 3eb0 c03d 3686 b73d 5e5f 70bd 34a6 edbc
00000160: 25f6 94bc ac39 49be 7d36 583e 50e5 1d3d
00000170: 9a34 693c 346a e1bd 8222 9a3d 2caf c03d
00000180: 12af 31bd 28d9 323d 5ab1 63bd bfdf 5cbd
00000190: 84b8 04be 6c48 2c3e 952f 83bd 5b13 4f3c
000001a0: 5875 9a3d 37ec 693d 7a72 003e 3b14 a2bd
000001b0: 201b 4a3e e99b 38bd b724 923b b5a0 8c3d
000001c0: 28cb 123e edd1 25bd e7a6 b93d 5bc7 cc3d
000001d0: a1ac 47be 232d 9dbd 8236 92bc 0625 d13d
000001e0: 97ef 8e3c 96b7 493e 7415 debd c356 2ebe
000001f0: edfa 223e 3d13 4a3e 8e3d 583e 9c26 41bd
00000200: 6e34 083e b07b bfbd d221 65be 5dfe 173e
00000210: 9cb0 813a e311 2c3e 8efd e9bd 9ac4 aa3d
00000220: e730 153b f37b 3a3e 1a54 6a3e 7aed 0abe
00000230: 9e6a 9abc 962f 0fbe c557 18be d18f f7bd
00000240: 3ef7 4f3e 1e88 0c3e d201 7abc 0bd8 b93d
00000250: 06f5 1ebd 54b0 52bb 0d0a 0e3e 6601 75bd
00000260: fa0e 06be 9095 75be e1ca 4e3d a773 bf3d
00000270: 8f6a a3bd f12d e53c 83d8 53be 856d c23c
00000280: a4f1 383e a592 223e 07b9 71be 3b3e 113d
00000290: f547 18be 577e 723c 278d 00bd 04ea 583e
000002a0: 7d8c ec3a de8f 263e b027 1dbe 7110 bc3d
000002b0: ea0a 7dbc a474 2c3e cc36 5c3e 7f51 663e
000002c0: 8eac ce3d eafd 10be 0365 f6bd 0bba e63d
000002d0: 000a 583d a30d 0abe cd7f 93bd d720 aebd
000002e0: 7127 72bd 2f42 98bd c16f 6dbe 0830 fe3d
000002f0: feb2 353c c5ad 323d 140e de3d d3a7 01be
00000300: f134 56bd 8b90 6cbd 9ed5 2bbe d245 f03d
00000310: 8277 163e 7275 25be d24b 0cbe 4fa6 e1bd
00000320: 640c 05bd 4eed 363d 90c2 0cbe 585a 983d
00000330: 0d00 9e3d 7c96 333d 3bfb 01bd 8ef0 df3d
00000340: 3b58 8cbd ab21 23bd d1bb 1cbe 2495 233e
00000350: 6d10 9cbd 7567 0fbe 7de9 703d fe9d edbc
00000360: b4a6 753d 1d24 2e3e e980 e53d 376b d7bc
00000370: 47c9 213e 6295 0f3e 6adc 093d cdf2 863c
00000380: d522 79be bc5e c0bd 0d62 c6bc cda9 33be
00000390: c62f 87bd 35d0 673d b5ab 043e 8117 c2bc
000003a0: bbe9 f7bd b1e5 2fbe a4bd fa38 1b94 c73b
000003b0: f010 e3bd 9523 a6bd 66d9 fdbd e14a 4dbe
000003c0: 053b 1b3e 7cc4 bf3d 9e80 003d e89c 053d
000003d0: ed92 513d 0e5a 04be d5b9 58bd 4071 b1bc
000003e0: 72f0 a0bc 3a18 65bb 698a 73bd 1380 cf3d
000003f0: 2cb9 5dbe 29d5 253e 54dd c8bd 6211 43be

layers.0.ssm.dt_proj_layer.bias f4 [64]
-0.07509364 0.040248465 0.039777525 -0.0985732 0.05153882 -0.08425806 -0.02556926 0.08020223
-0.20107517 -0.10543869 0.0570361 -0.1555638 0.038239595 -0.19743565 -0.118283026 0.15420495
-0.20284338 0.20796758 -0.04527496 0.22385292 -0.10110701 -0.1801301 0.0059504574 -0.16869886
0.056138173 0.20942804 -0.21375445 -0.22746633 0.16886342 0.18298611 -0.107667215 0.112057455
0.083738096 0.061464563 0.16406278 0.23289068 -0.10691798 -0.10285356 -0.07405744 -0.14078231
-0.09500594 -0.037018165 -0.21861242 -0.030811807 0.20081763 0.081986904 -0.16989663 -0.19475377
-0.22835924 0.14670993 -0.10982291 -0.090552256 0.008791173 -0.2077163 0.056448244 0.2149721
0.1300784 0.19446485 -0.23666333 0.055288833 0.027242564 -0.17828633 0.08064219 0.020241952
00000000: b2ca 99bd 93db 243d c2ed 223d bfe0 c9bd
00000010: 5f1a 533d 7d8f acbd a076 d1bc 1141 a43d
00000020: a6e6 4dbe 3df0 d7bd b09e 693d 1e4c 1fbe
00000030: 1fa1 1c3d 922c 4abe 5f3e f2bd e7e7 1d3e
00000040: 2db6 4fbe 74f5 543e 3d72 39bd b339 653e
00000050: 3111 cfbd 0674 38be 0efc c23b 65bf 2cbe
00000060: 24f1 653d 4e74 563e 72e2 5abe efec 68be
00000070: 88ea 2c3e b660 3b3e a180 dcbd 617e e53d
00000080: e17e ab3d 44c2 7b3d 1300 283e e57a 6e3e
00000090: d0f7 dabd e3a4 d2bd 6dab 97bd 3d29 10be
000000a0: 7992 c2bd 5ca0 17bd efdb 5fbe 0b69 fcbc
000000b0: 23a3 4d3e c0e8 a73d 62f9 2dbe 886d 47be
000000c0: 01d7 69be 213b 163e d5ea e0bd 7673 b9bd
000000d0: da08 103c 95b3 54be 4636 673d a521 5c3e
000000e0: 4633 053e cb21 473e df57 72be 8b76 623d
000000f0: cc2b df3c b190 36be bc27 a53d 73d2 a53c
