pengujian/result_2/result_400_epoch/vim_model.pth (torch, 124195 bytes, 58 tensors)

cls_token f4 [1, 1, 28]
000000 82 83 c9 3f 98 b8 2c 3e 4a b8 af 3f bb 48 a6 bf
       1.5743258 0.16867292 1.3728116 -1.2990946
000010 2e 27 f4 be 8d a7 48 bf 5e e3 01 3f 9e da 8e 3f
       -0.47686142 -0.7838066 0.5073756 1.1160467
000020 9c 3d 1f 3f 79 61 c4 bf fd 68 17 40 00 eb 71 3f
       0.62203383 -1.5342246 2.365783 0.94499207
000030 01 1e a1 3f 81 00 1e bf be a5 8b 3f 86 bd 00 c0
       1.2587281 -0.6171952 1.0909956 -2.0115676
000040 b3 19 c5 3f 38 e2 87 3f 59 26 04 bf 51 3c cb ba
       1.5398468 1.0615911 -0.51621014 -0.0015505647
000050 36 75 d4 3e 11 f6 5f 3d b8 e3 10 3e e7 43 dc 3f
       0.41495675 0.054678027 0.14149368 1.7208222
000060 13 ef af 3d e0 10 a3 3e 49 31 a7 bf 0f 8c 69 3e
       0.08590522 0.31848812 -1.3061916 0.22807334

to_patch_embedding.1.weight f4 [28, 169]
000000 11 4d 42 3d 34 03 33 bd 3c 97 27 3d 86 bf 22 bd
       0.047436778 -0.043704227 0.040915713 -0.039733432
000010 f9 ed 4b bd 4c df 3f 3d fa 80 2f bd 1b 37 35 bd
       -0.049787495 0.046843812 -0.04284761 -0.044242006
000020 ce 50 50 bc 9b 6e 7c bc eb 67 86 bd d4 89 6c bc
       -0.012714578 -0.01540723 -0.065627895 -0.014437158
000030 a7 5e 69 bd 19 c4 5a 3b d1 58 52 3d 37 53 94 3d
       -0.056975033 0.0033381043 0.051354233 0.072424345
000040 35 5c 47 bd a2 85 84 3b 1d 56 dc bc 04 c2 f7 3b
       -0.04867192 0.0040442506 -0.02689653 0.0075609703
000050 08 ff 2b bc 2d f7 18 3d 19 6d 00 3d b4 ed 85 3d
       -0.010497816 0.0373451 0.031354044 0.06539479
000060 cd 7c 48 bd 2e 2c 37 bd e9 d3 06 3c 8d 77 a4 3d
       -0.048947144 -0.044719867 0.008229234 0.08030615
000070 6c 79 2d bc d6 42 d2 3a cb 9c 93 bc 51 b8 46 bb
       -0.010588031 0.0016041647 -0.0180191 -0.0030322263
000080 81 97 3f 3d b1 a8 93 bd e6 62 73 bc 50 b7 99 3c
       0.046775345 -0.0720991 -0.014855122 0.018764168
000090 be 50 82 bd 91 ae 42 bd cd 10 42 bd 05 2b b6 3d
       -0.063630566 -0.04752976 -0.047379304 0.08894924
0000a0 24 00 0c bd 15 fb 42 bd 53 6f 06 bd 48 b5 46 3d
       -0.03417982 -0.04760273 -0.03282101 0.048512727
0000b0 eb e9 e3 3a b1 69 9c bc df d1 1a bd 1a 4e 54 3d
       0.0017388439 -0.019093366 -0.037797805 0.051832296
0000c0 fe 8f f0 bb 33 2d 3e bd f1 19 cb 3a ca 9c 7b bd
       -0.007341384 -0.046429824 0.0015495402 -0.061428823
0000d0 9a 32 2a 3c 8b 8e a8 bc 30 b2 22 bd 27 de 1b bd
       0.010388041 -0.020575782 -0.039720714 -0.038053658
0000e0 6a 35 78 3d e6 de 63 3c b2 b7 a3 3d ce 25 93 3d
       0.060597815 0.013908124 0.079940215 0.07184945
0000f0 6f 80 1e 3d a2 19 55 bd 72 11 3a 3c 84 17 98 3d
       0.038696703 -0.0520264 0.011356698 0.0742636
000100 ed 79 47 3d 17 bd 66 bd 66 c7 16 3d d6 09 b9 bc
       0.04870026 -0.056332674 0.036811255 -0.022587698
000110 8b 86 0e 3d 9d f6 af bc b5 10 b9 bd 27 1c a6 3c
       0.03479628 -0.021479899 -0.0903639 0.020277096
000120 a3 b0 83 3d fa f9 c4 3c 18 44 64 bc c4 64 3d bd
       0.06430175 0.02404498 -0.01393225 -0.046238676
000130 b7 ee 40 bd 51 1b f7 3b 6d 61 be bc cd c7 08 bd
       -0.047102656 0.007541098 -0.023239816 -0.03339367
000140 2a 0a 3b bd 52 42 2e 3d 10 b4 61 bd 6f 9e 2b 3d
       -0.04566399 0.042543717 -0.05510336 0.04189914
000150 78 bc f7 bc 45 86 ba bc dd e8 68 bd a2 e2 d9 3c
       -0.030241236 -0.022769103 -0.0568627 0.026597325
000160 2a ac 74 3d 29 c8 1c 3d b5 dc d2 3c 55 f5 05 3d
       0.0597345 0.038276825 0.025740007 0.03270467
000170 b3 81 17 3c 69 8a 81 bd 68 d4 92 bd 44 fb 32 3d
       0.009247231 -0.06325228 -0.071694195 0.043696657
000180 b0 f9 91 3d 86 6a 50 3d 12 37 38 3d 40 6f 00 bd
       0.07127702 0.05088284 0.044974394 -0.031356096
000190 f7 c2 06 bd d8 4c 38 bc 11 49 6d bd 13 58 61 bd
       -0.032900777 -0.01124879 -0.05793101 -0.055015635
0001a0 c3 e1 51 3d a0 05 0d bd ac 12 ad 3d 20 c9 81 bd
       0.051240694 -0.034429193 0.08450827 -0.0633719
0001b0 6c 66 a7 3b 01 8f a6 3d 23 07 5e 3d da f8 3b bd
       0.005108645 0.081327446 0.054206025 -0.04589162
0001c0 21 a0 ea bc bc ac 81 3d 70 c9 2c bd af 29 3b bb
       -0.028640809 0.063317746 -0.042184293 -0.002855878
0001d0 8b 7e bc 3d c1 3b a1 bd fe 1c 6a bd 1f 79 30 bd
       0.09203824 -0.07872725 -0.057156555 -0.04308426
0001e0 6a 9a 5f bd d7 67 e1 3c 5c 60 26 bb cd 23 5d 3d
       -0.05459062 0.027515335 -0.0025387025 0.05398922
0001f0 5c 73 90 3d e9 b2 0e 3c fe bf de 3c 16 24 4b 3b
       0.07053253 0.008709648 0.027191158 0.003099685
000200 f0 3c 58 3b 3f 3e 86 bd 33 57 08 3d 0f b6 fa 3c
       0.0032995306 -0.06554841 0.033286285 0.03060439
000210 d5 24 2b bd 98 f3 25 3d 1a 16 96 bd b0 89 90 3c
       -0.041783173 0.040515512 -0.07328434 0.01764378
000220 c3 fd 5a 3c 24 5f 5c 3c ea 4f 38 3d 6d 9c 61 bc
       0.013366166 0.013450418 0.044998087 -0.013770205
000230 28 12 52 3d 11 75 25 bd ba a9 0c bd 60 0b 7f 3d
       0.051286846 -0.040394846 -0.03434155 0.062266707
000240 92 fb a6 3d 67 4f 34 bd 27 83 df 3c 0c fb 9b 3d
       0.08153452 -0.044021036 0.027284218 0.07616243
000250 17 1c a4 bc d7 75 5c bc e8 69 98 bd 9f f0 43 bd
       -0.020032926 -0.01345583 -0.07442075 -0.047836896
000260 2e 36 1c 3d 72 8c a2 bc ba 2c 32 bd dc e7 31 bd
       0.038137607 -0.01984236 -0.043499686 -0.04343401
000270 db f8 33 3d ad fb 03 3d 34 3c 5c 3d 7c 40 fa 3c
       0.0439385 0.03222244 0.05376835 0.030548327
000280 5d 52 6f bd 7f 99 8f 3d 4e 44 6d bc 3c b4 1f bd
       -0.058428157 0.07011699 -0.014481617 -0.038990244
000290 0a 90 a1 3c 69 fa 85 bd 94 ad ef 3c ef 4c 44 3d
       0.019722003 -0.065419026 0.029257573 0.047924932
0002a0 5e e1 fa 3c 20 62 9d 3d 6c 9d 50 bd e0 3d 9c bd
       0.030625042 0.076847315 -0.05093138 -0.07628989
0002b0 3d 29 84 bc d1 97 96 bd 9b 28 6f 3c 96 5d 7d 3c
       -0.016132945 -0.073531754 0.014597083 0.015464207
0002c0 16 e2 b4 3d 9c 7b 8e bd e1 1f 72 3d 60 8f 9f 3d
       0.08832185 -0.0695717 0.059112433 0.077910185
0002d0 bb 5d 12 3d ac 83 22 3d 9f 3d 91 3c 90 82 95 3d
       0.03573392 0.039676353 0.017729579 0.073002934
0002e0 4d 74 9f bd 86 ee e6 bc bc fd a0 bc 3f 2e 87 3d
       -0.077858545 -0.028189909 -0.01965224 0.066006176
0002f0 d7 de 7e 3d ac b6 35 3d ef d1 4f bd 72 64 c0 3d
       0.062224235 0.044363663 -0.050737318 0.093941584
000300 7d 41 16 bd ec 8e 86 bd f7 ca 8c bc 7a 2c 2c bd
       -0.03668355 -0.06570229 -0.017186625 -0.042034604
000310 3b 35 81 bb 30 ab 20 bd 04 5b a4 bd 5d f9 88 bd
       -0.003943113 -0.039225757 -0.08025172 -0.06688187
000320 91 48 79 3d 89 28 60 3c a2 d7 2e 3d 02 d9 5e bd
       0.06086022 0.013681539 0.042686112 -0.054406174
000330 ca af 46 bd 54 17 11 3d e6 08 5d bd 16 ea 0d bb
       -0.04850749 0.035422638 -0.053963564 -0.0021654419
000340 dd 88 eb bb 5d 69 f6 bc 69 18 72 bd bf d7 fd 3c
       -0.0071879462 -0.030079538 -0.05910531 0.030986665
000350 b1 10 c9 3c e2 ff 95 3d 73 c4 fd 3b b0 14 c0 3b
       0.024544092 0.073241964 0.007744366 0.005861841
000360 67 a4 8d 3c db fe 56 3d 79 b9 10 bd 86 30 96 bd
       0.017290307 0.052489143 -0.03533313 -0.07333474
000370 b9 f5 ad bc f3 3e fd bc f2 1e 11 3d 43 d6 f9 3c
       -0.021235334 -0.030913806 0.035429902 0.030497676
000380 c0 39 05 bd 56 de 02 bc 4a 7f 68 3d 05 87 8f bd
       -0.032525778 -0.007987579 0.056762017 -0.07008175
000390 56 80 53 bd d6 96 80 bd c4 d7 41 3d 28 0b 06 3b
       -0.051636063 -0.0627877 0.04732491 0.0020453427
0003a0 35 30 35 ba 6f 4a a4 bb f1 b7 3c bd 5e af c9 bc
       -0.00069117855 -0.005013756 -0.046073858 -0.024619754
0003b0 12 7f 73 3c 58 5b 1f bd 05 50 ad 3d 93 42 b7 bc
       0.014861839 -0.03890547 0.08462528 -0.022370612
0003c0 ba f8 50 bd d4 ee ac 3d d1 a6 e9 bb b1 2e 95 3a
       -0.051018454 0.0844399 -0.007130482 0.0011381713
0003d0 3c 98 91 bd f0 b6 55 bd 36 a7 3c 3d f0 39 ad 3d
       -0.071091145 -0.052176416 0.046057902 0.08458316
0003e0 a6 9f 90 bc d8 84 80 3b e9 ba 0d bc aa a0 8d 3b
       -0.017654251 0.003922086 -0.00865052 0.004322131
0003f0 90 bb a4 bc 99 b5 37 3c 71 43 0a bd a4 ca 9d bd
       -0.020108968 0.01121273 -0.033755723 -0.07704666

to_patch_embedding.1.bias f4 [28]
000000 4b a9 74 bd df 3a 5b bc f1 f7 89 3d c7 ae 12 bc
       -0.059731763 -0.013380735 0.06736744 -0.008952803
000010 72 5e c7 3c 5d 50 bf 3c 55 0f a3 3d 7e fc 97 3c
       0.024337027 0.02335375 0.07961909 0.018553015
000020 0e 3b 0d 3d b6 a5 75 bd 8e 70 20 bd 17 87 50 3d
       0.034480147 -0.059972487 -0.03916984 0.05091008
000030 e3 6d 27 bd 26 f5 a7 bc 2a 66 f6 3c fb e0 28 3d
       -0.04087628 -0.020502638 0.030078012 0.041230183
000040 87 7e a9 3b 30 23 12 3d 31 9b ed 3c 25 a3 2b bd
       0.005172554 0.03567809 0.029004665 -0.041903634
000050 50 18 82 3c e4 0a 00 bd 9e 85 f4 3c 5e 34 de 3c
       0.015880734 -0.031260386 0.02984887 0.02712458
000060 7d 7e 70 bb a9 01 2a bc b4 8d 1f 3c 3d ad dd bb
       -0.0036696487 -0.010376372 0.0097383745 -0.0067650364

layers.0.forward_conv1d.weight f4 [28, 28, 1]
000000 9f 74 92 3d 0b 83 f4 bd c8 ad 27 3e e8 b1 e2 3d
       0.0715115 -0.11939057 0.16374886 0.11069089
000010 c2 68 d2 3d 45 17 01 3e d4 bd 86 3d 6c 98 08 be
       0.10273887 0.12606533 0.065791756 -0.13339394
000020 03 cb de bd 25 95 28 be 32 5e 0a 3d 25 b7 21 be
       -0.10878565 -0.16463144 0.033781238 -0.1579252
000030 50 6a 17 be b3 e6 0a 3e 46 9e 5e bc 8e fe d1 bd
       -0.14786649 0.13564567 -0.01358754 -0.102536306
000040 25 e2 1a 3d ab 92 8a 3d 26 af 1f be 42 8b eb bd
       0.037813324 0.06766256 -0.15594158 -0.11501171
000050 69 76 17 3e 3c 32 20 3d 16 64 1a be 86 24 b2 bd
       0.14791264 0.039110407 -0.15077242 -0.086983725
000060 be fa 1a be 3b 3b e9 bd 29 44 f6 3d c3 ab f3 3d
       -0.15134713 -0.113882504 0.12024719 0.11897995
000070 7e c6 5a bd 28 80 0a 3e 62 f8 05 3e d6 05 dc bb
       -0.053411953 0.1352545 0.13083032 -0.006714563
000080 e9 a3 1f bd 8a fc f2 3d 04 41 aa bd 7c fe 2f bd
       -0.038974676 0.11864574 -0.08313182 -0.042967305
000090 45 08 ee 3d be b1 21 3e e2 a2 69 bd b4 7b c1 3d
       0.11622671 0.1579046 -0.057040103 0.094474226
0000a0 74 26 42 3d 83 29 20 be 5a 0a e0 bd fd 84 36 3e
       0.047399953 -0.15640835 -0.109394744 0.17824169
0000b0 1e 60 cc bd 0d 3e 3e bd 16 49 0e bd aa ba c8 3c
       -0.099792704 -0.046445895 -0.03473767 0.02450307
0000c0 7a 31 16 3d e5 8e 1f 3d 95 eb 05 be 7f be 20 bc
       0.03666828 0.038954634 -0.13078149 -0.009811043
0000d0 1e 9c b7 bd 4e 1a f3 bd 5a 5f f5 3d 32 3a f7 3d
       -0.08965324 -0.118702516 0.119810775 0.12071647
0000e0 c5 ff 48 3b eb 71 77 3d 94 b4 2c be 8f a0 b6 3d
       0.0030670029 0.060411375 -0.1686576 0.08917343
0000f0 c6 3a 38 3e ca 34 26 3e 0d 1e de 3d 1f 09 d3 3c
       0.1799117 0.16231075 0.108455755 0.025761185
000100 a5 a6 cc bd e1 d5 82 3d f8 dc b1 bd fb c5 d6 bd
       -0.099927224 0.063884504 -0.086847246 -0.104869805
000110 a5 85 a4 3d 70 7e a3 3d 51 ae 27 3e d6 75 08 3d
       0.08033303 0.079831004 0.1637509 0.033315502
000120 9f 89 01 3d ab a4 e6 3d 12 33 1e 3d 39 14 e0 bd
       0.031625386 0.11261877 0.038622923 -0.10941357
000130 43 1b 0d 3e 13 d4 f2 bd 07 e6 a7 3d 37 2d ed 3d
       0.13779931 -0.11856856 0.08198171 0.1158089
000140 7a 7c a7 3d 4e 97 cb 3c 8c 63 fa 3d 10 08 a2 3d
       0.08178039 0.024852421 0.12226018 0.07911694
000150 3f 4a 15 3e 7e 12 c4 3d c5 66 14 3e 68 de 31 3e
       0.14579104 0.095738396 0.14492328 0.17369998
000160 e7 bc 05 be 91 30 bf 3d 49 17 fc bd 4f 36 14 3e
       -0.13060342 0.09335435 -0.12309129 0.14473842
000170 50 11 22 3e e2 2e b9 3d b7 4a d1 3d 87 7c c1 3d
       0.15826917 0.09042145 0.10219329 0.0944758
000180 f5 2b 32 3e fc 3f da bd 93 cc c0 bd 42 35 b8 3b
       0.17399581 -0.10656735 -0.094140194 0.005621583
000190 af 88 58 3e 4d 08 19 be 9d e2 23 3e 4a c4 3b be
       0.2114589 -0.14944573 0.16004415 -0.18336597
0001a0 c9 f1 30 be 08 4c cc bd 0e 78 48 be 82 40 ff bd
       -0.17279734 -0.09975439 -0.19577047 -0.12463476
0001b0 fd 28 eb bd c7 b9 61 bd df 94 20 be b8 57 3f 3d
       -0.11482427 -0.05510881 -0.1568179 0.046714514
0001c0 f1 32 18 bd 61 f8 43 bd 33 8e 30 bd 4a b1 16 3d
       -0.037157957 -0.047844294 -0.04310436 0.03679017
0001d0 c3 49 21 3e f9 8c b8 3d 99 85 b8 bd b2 c4 1c be
       0.15750794 0.090112634 -0.09009857 -0.15309408
0001e0 a8 c4 a9 3d e4 b0 36 3e 02 64 1d 3e cb 66 5b 3d
       0.08289462 0.17840916 0.15370181 0.053564828
0001f0 7b 8e fa 3c 24 3f 25 be ef 94 23 bd 57 6c 42 bc
       0.030585518 -0.16137367 -0.039936956 -0.011866651
000200 0a de 3b be 71 8f c2 3d 20 0f 9c 3c 49 4c 1a 3e
       -0.1834642 0.095000155 0.01905018 0.15068163
000210 c1 e6 30 3e d5 1e 23 be ee 2f bd 3d eb a7 7e bc
       0.17275526 -0.1592973 0.092376575 -0.015542964
000220 b3 9d 05 3d 4f e8 1a bd 26 b7 10 3c a4 ae a5 bd
       0.032621097 -0.037819203 0.0088327285 -0.08089951
000230 0b c3 c1 bd 30 c4 2c 3e ce fb 32 be e7 fe 56 3d
       -0.094610296 0.16871715 -0.17478868 0.052489188
000240 73 05 cb bd 11 0f 3b be 42 12 4a 3e 22 7a 1a 3c
       -0.09913149 -0.18267466 0.19733527 0.009428533
000250 cc 23 99 3d 57 aa b3 3d b2 30 0e 3e 24 fc 28 3e
       0.07477531 0.08772724 0.13885763 0.16502434
000260 c0 b3 22 be a7 3b 02 3e b6 f2 3b 3e c4 c4 0a 3e
       -0.15888882 0.12718068 0.18354306 0.13551623
000270 dc b6 a7 3d 2c 17 23 be 8f fe db 3d 6d 29 14 3e
       0.081891745 -0.15926808 0.107419126 0.14468928
000280 bf 4a 8e bd 22 ba 23 bc c9 74 26 3e b5 66 cc 3b
       -0.069478504 -0.009993108 0.16255488 0.0062378296
000290 6e b9 d7 3d b5 98 19 be 2a 51 96 bd c3 ef 98 bd
       0.10533415 -0.1499966 -0.073396996 -0.07467606
0002a0 97 a8 f9 3c 87 d7 36 bb b7 c0 d5 bd 83 18 02 be
       0.030475898 -0.002789946 -0.10437148 -0.12704663
0002b0 4e 64 de 3d e4 4b 02 be 72 9f 1a bd c8 5b a4 bd
       0.10858975 -0.12724262 -0.037749715 -0.080253184
0002c0 c2 2a ea 3d 05 5e 2d 3e 45 4d 2f be 7e 7e 43 bd
       0.11433937 0.16930397 -0.1711932 -0.047728054
0002d0 3d a2 ea bd b5 89 e0 3d a6 fa bd 3d 8d de 0d 3e
       -0.11456726 0.109637655 0.09276323 0.13854428
0002e0 8c 6c 1b be 1b fa 2a 3e d3 d0 e5 bd 71 51 ac bd
       -0.15178126 0.1669697 -0.11221471 -0.08413971
0002f0 16 75 00 be 13 e1 13 3e 82 00 d3 bd 3a 17 8d bc
       -0.12544665 0.14441328 -0.10302831 -0.01722299
000300 b3 85 88 bd a1 4c 1e 3e b0 6d 10 3e 6e 8c cd 3d
       -0.06666126 0.15458919 0.14104342 0.100365505
000310 7a cf ff bd 5b 03 bf bd 9f d8 b4 bd a5 89 d1 bd
       -0.12490745 -0.09326812 -0.0883038 -0.10231332
000320 12 cc f4 3d 3c 82 47 bd 78 24 2f be d7 b7 7d bd
       0.11952986 -0.048708186 -0.17103755 -0.0619429
000330 d8 9e 1e 3c 8f 04 41 bc 4c 45 1b be af 6f 26 bd
       0.009681426 -0.011780872 -0.15163153 -0.040633854
000340 16 84 13 3a 74 d7 d0 3c 2b 10 12 3e 55 8e 0c be
       0.00056272873 0.025493361 0.1426398 -0.1372617
000350 5e e2 80 3d 70 64 85 3c 80 d6 1d be 29 f9 22 3e
       0.06293176 0.016283244 -0.15413857 0.1591536
000360 dc a4 cf bc 8d 8b 0e 3e 9f 91 d9 bd 6b 77 0c be
       -0.025347166 0.13920422 -0.10623478 -0.1371743
000370 8a 11 dd 3d 58 d3 1b bd 01 ec 34 be 45 b8 08 3e
       0.10794361 -0.03804335 -0.17668153 0.13351543
000380 d3 e5 06 be 80 7d b8 3d 5e a7 83 bd 59 ee 4e 3d
       -0.13173608 0.09008312 -0.06428407 0.050520275
000390 7e 5e 12 bd ea 04 d5 bb e0 0f d7 3d d4 4e a9 3d
       -0.035734646 -0.00650083 0.10501075 0.082669884
0003a0 3a e9 a2 bd 4e c3 15 be 49 39 ac bd 80 9e 59 3d
       -0.07954641 -0.14625284 -0.08409364 0.053129673
0003b0 dd 6f e0 bd 49 12 3b be 22 b8 42 be 46 94 98 bd
       -0.10958836 -0.18268694 -0.19015554 -0.07450156
0003c0 af fc 8e 3d 93 55 15 be e3 ec df bd 02 47 0f be
       0.06981789 -0.14583425 -0.109338544 -0.13991931
0003d0 69 76 5c bd 26 69 46 be 40 7b 2f bd 28 73 4f 3d
       -0.053823862 -0.19376048 -0.04284215 0.05064693
0003e0 09 d9 c5 3d 30 fa 3a be 57 1d b3 bd df d7 2f 3e
       0.09660537 -0.18259501 -0.087458305 0.17172192
0003f0 fc d6 99 3d 56 13 df ba af 19 14 be 80 3f da bc
       0.07511708 -0.0017019312 -0.14462923 -0.026641607

layers.0.forward_conv1d.bias f4 [28]
000000 62 9b 6e 3d e6 0c 84 3d a1 01 97 3d ab e8 bd 3d
       0.058253653 0.06447773 0.073733576 0.092728935
000010 ba ef b8 bc 80 9d 27 be fd 28 b7 3d 6a cb c2 bd
       -0.022575248 -0.16368675 0.08943365 -0.095114544
000020 cc fa 19 be f4 fa 09 bd 73 44 6a 3d f8 20 e5 3d
       -0.15037078 -0.033686593 0.057194185 0.11187929
000030 62 bf b9 bd f4 46 f3 3d 3f 63 ce 3d f7 4e 1a be
       -0.090697065 0.118787676 0.100775234 -0.15069185
000040 19 a1 18 3e da a0 64 bd 52 e6 c9 bb dd f6 c7 bd
       0.14905204 -0.055817463 -0.0061614895 -0.09763882
000050 dd dc 5c bd 0e 4d 09 3e 2c 4a 1c be 0e d1 33 3e
       -0.05392157 0.134083 -0.1526267 0.17560217
000060 7e b9 f5 3d 10 77 0b 3b fe 87 58 3d 3d df 60 3d
       0.119982705 0.0021280684 0.052864067 0.054900397

layers.0.backward_conv1d.weight f4 [28, 28, 1]
000000 9d fb 04 3e fe 91 ff 3b be 3f 3b 3e 80 22 c3 3d
       0.12986608 0.007799386 0.18286034 0.09528065
000010 0a 54 17 3c ff e4 42 3d f4 af 17 3e 0b 37 a6 bd
       0.009236345 0.04758167 0.14813215 -0.08115967
000020 d2 1a a5 3c 3c 99 78 3d 37 bf 9e bb a3 0d 3d 3c
       0.02015439 0.06069301 -0.004844572 0.011538896
000030 92 0c 32 3e 35 55 a9 3d 92 d1 3b bd 1d 62 27 be
       0.17387608 0.08268205 -0.04585416 -0.16346021
000040 dc 25 c8 bc 0a e0 17 3d 8a 72 08 3e c0 3e 07 3e
       -0.024432115 0.037078895 0.13324943 0.13207531
000050 2e b3 53 3d 3e 7a 57 3d b7 72 38 3e 51 83 22 3d
       0.05168455 0.052606814 0.1801251 0.039676014
000060 0b cd 49 3d 27 33 f3 3d 8a 53 16 3d e9 7e 03 3e
       0.04926781 0.11874991 0.036700763 0.12841381
000070 e6 e3 06 be 81 9d c7 bd a6 af 20 be 31 d2 34 be
       -0.13172874 -0.09746838 -0.15692005 -0.17658307
000080 14 38 9c 3d d3 c4 41 be dd 02 9e bd 58 1a 34 be
       0.076278836 -0.18922739 -0.0771539 -0.17588174
000090 84 97 c2 3d c1 b9 a4 3d a1 b2 8b bd c0 17 fc 3d
       0.095015556 0.08043242 -0.0682118 0.123092175
0000a0 c0 13 a7 bd 91 91 35 3e bf 61 39 3e f6 96 88 3d
       -0.08158064 0.1773131 0.18103693 0.066694185
0000b0 5e ab dd bd 53 67 bf bd 14 7b 5b 3d d0 01 db bd
       -0.10823701 -0.093458794 0.053584173 -0.10693705
0000c0 90 16 f3 3c d4 54 9a 3d 6a 29 92 3b 2c 4a 2b be
       0.029673845 0.07535711 0.0044605033 -0.16727513
0000d0 5c 4a 11 bc c4 8a 76 bd d2 ec 33 be 4e 2d 75 bd
       -0.008867826 -0.06019093 -0.17570809 -0.05985766
0000e0 f3 1f d2 bd e2 39 10 3e 60 ee 91 3d b6 65 f7 bd
       -0.1026 0.1408458 0.071255445 -0.12079947
0000f0 a8 11 cd bb f6 6c 81 3d 44 2d 95 3d 75 39 89 bd
       -0.0062582083 0.06319611 0.07284024 -0.06700412
000100 98 1a 90 3d db 53 f1 bd 6b bd b7 3d 06 1f 85 bb
       0.07036322 -0.11783572 0.089716755 -0.004062536
000110 cc 32 16 3d 86 60 88 bd 87 58 ae bd 42 e9 9c 3c
       0.036669537 -0.066590354 -0.08512979 0.019154195
000120 32 58 93 3b f8 f1 19 be 41 98 34 be 00 fb fc 3d
       0.0044965977 -0.1503371 -0.17636205 0.12352562
000130 54 0e 1a bd 0e 86 49 bc d1 4a 77 bc c3 b7 16 be
       -0.03761132 -0.012300028 -0.015093521 -0.14718537
000140 bc 7b 2d 39 d3 96 05 be 8c e2 f0 bd 91 61 14 3e
       0.0001654466 -0.13045816 -0.117619604 0.14490344
000150 ec c9 0f bd 8e cc bb bd 78 a0 95 bd c4 6c 19 3d
       -0.035104677 -0.09169875 -0.073059976 0.037457243
000160 2c c1 ec 3d 3f 67 e1 3c 13 55 af 3d cc 0c 96 3c
       0.11560282 0.027515052 0.085611485 0.018316649
000170 c4 06 7f bd 7e 80 1f 3e a6 dd 13 3e 73 a1 ec bd
       -0.06226231 0.1557636 0.14440021 -0.115542315
000180 f0 86 83 3c fa 0a 37 be 1e d2 05 3d ea 9a fe 3d
       0.016055554 -0.17875281 0.032671086 0.12431891
000190 32 fd 0c be f3 8b 9a bd 66 96 35 be b4 af 2c be
       -0.13768461 -0.075462244 -0.17733154 -0.168639
0001a0 a6 03 03 3e ca 77 0d 3e 44 da dd bd 80 0a 4a 3d
       0.1279436 0.13815227 -0.108326465 0.04932642
0001b0 70 aa 9b bd cf 50 40 3e 9a 15 92 bd 83 75 36 be
       -0.07600868 0.18780826 -0.071330264 -0.17818265
0001c0 f6 36 20 3e c1 87 64 bd 09 d2 fc bd 9e 88 50 bd
       0.15645966 -0.055793528 -0.123447485 -0.05091154
0001d0 58 ad c2 bd 89 4d 52 bc 32 15 2f be 6f d2 fa 3d
       -0.09505719 -0.012835869 -0.17097929 0.12247168
0001e0 56 0d 94 3d 3c 28 b1 3d 6b 24 06 3e 4b a7 90 bd
       0.07229106 0.08650252 0.1309983 -0.070631586
0001f0 0f 1e 31 bd f8 d8 f1 bc 71 f0 2b 37 13 1a 28 3e
       -0.043241557 -0.029522404 1.0248376e-05 0.16416197
000200 70 a0 b3 bd 2e 66 1b be d4 b0 1a 3e 5f d8 2c 3d
       -0.087708354 -0.15175697 0.15106517 0.042198535
000210 f2 c1 2a be b6 d6 1f be 5d 6f e6 bd c3 b2 0a 3e
       -0.16675547 -0.1560925 -0.112517096 0.13544755
000220 c8 a0 32 3e 46 be 1a 3e 36 52 3c be b3 e8 7d bd
       0.17444146 0.15111646 -0.18390736 -0.061989497
000230 77 49 d4 bd 7f e6 71 3d e4 c7 32 3d 53 66 39 bc
       -0.10365575 0.05905771 0.04364766 -0.0113159
000240 2f 5f 7a bd f2 e6 88 bd 95 56 cc bd d6 ed 23 3d
       -0.06112593 -0.06684674 -0.09977452 0.04002174
000250 4e 94 d3 3d 12 3c 2f bd ba f5 3e 3d d3 1b bd 3d
       0.10331021 -0.042781897 0.04662106 0.09233823
000260 a6 0c 8c bb 12 29 18 bc b4 db 8e bd ad 1d 8f bd
       -0.0042739687 -0.009287136 -0.06975499 -0.06988082
000270 f2 dd f5 bd cc 8a e0 bd e1 b2 be 3d 13 97 6e 3d
       -0.12005223 -0.109639734 0.09311462 0.058249544
000280 af ac 2f 3e 18 e6 01 3e b1 db dd bd 9c cf 1c 3e
       0.17155717 0.1268543 -0.108329184 0.15313572
000290 e8 2a 67 3d 0c 42 1d be 0b 4c 5e 3e 79 72 a5 bd
       0.056437403 -0.15357226 0.21708696 -0.080784746
0002a0 3e 2d 4a 3d 0e c9 0d be 67 61 e7 3d e6 09 68 bd
       0.049359553 -0.13846228 0.11297875 -0.056650065
0002b0 29 75 f3 3d ae 23 5f 3d 48 34 3f 3e 2b c6 2d be
       0.11887581 0.054477386 0.18672287 -0.16970126
0002c0 f0 04 da bd c4 3e fa 3d 0b 45 39 bd a8 f5 2d bd
       -0.10645473 0.12219003 -0.04523186 -0.042470604
0002d0 25 c8 17 3d c9 f8 13 bd d5 98 91 3c 03 83 22 3d
       0.037056107 -0.036125932 0.017773071 0.039675724
0002e0 10 b1 1d be 1e 1a a1 3d b1 8c 25 3d 27 a4 e0 3d
       -0.15399575 0.078663096 0.040417377 0.109688096
0002f0 a5 4b 45 be 2c c8 1c 3c 5b b1 86 bd e1 9a d7 bc
       -0.19267137 0.009569209 -0.065767966 -0.02631897
000300 1c b8 f9 3d cd 4c c5 bd 3d 4f 16 bd 09 c8 2b be
       0.12193319 -0.09633789 -0.03669666 -0.16775526
000310 0b 6b 29 be 4f 81 ac bd 2c 86 a7 bd 1a f4 1a 3e
       -0.1654474 -0.08423101 -0.08179888 0.1513218
000320 b6 84 be bd bc 68 01 be 91 d7 92 3c c7 ac 36 3e
       -0.09302656 -0.12637609 0.017925056 0.17839347
000330 6a b2 c4 3d 57 21 c2 3d ee 20 1b be 01 32 8a 3d
       0.09604342 0.09479015 -0.1514928 0.06747819
000340 3b 30 f5 bd cc 69 37 3e 10 ea 2c be 5c 23 19 bc
       -0.1197209 0.17911452 -0.16886163 -0.009346809
000350 4b 03 29 be dc 99 93 bd b1 e6 8a bd 1a 49 61 3c
       -0.16505162 -0.07207081 -0.06782282 0.013750339
000360 75 d6 cd 3c 55 16 10 3e 88 1c 74 3c 29 61 d1 3d
       0.025126675 0.14071019 0.0148993805 0.1022361
000370 04 b7 08 be c0 35 f1 bd b6 0d d0 bd 25 59 1a 3e
       -0.13351065 -0.1177783 -0.10158865 0.15073068
000380 5f 5d 0c be c0 94 e3 bd cf 5d 88 bd 2a 91 e8 bb
       -0.13707493 -0.11112356 -0.066585176 -0.007097383
000390 d2 68 62 3d 65 ae e6 bb d3 d7 e3 bc b7 92 13 be
       0.055275746 -0.0070398324 -0.027812874 -0.14411436
0003a0 9f c9 3a 3e 3a e9 05 be 87 51 00 bd 07 30 ae 3c
       0.18240975 -0.1307725 -0.03132775 0.021263136
0003b0 63 60 65 3c 30 ed dc bd 74 ec 30 3d 59 07 24 be
       0.014000031 -0.107874274 0.04319425 -0.16018428
0003c0 ea e3 37 be f3 9f c3 bd ec 35 5d bd 77 a1 2a 3e
       -0.17958036 -0.09551992 -0.054006502 0.16663156
0003d0 7d b0 6a 3d 4e 44 30 bc f2 15 15 bd 71 3f b0 3d
       0.05729722 -0.010758473 -0.03639788 0.086058505
0003e0 10 eb 21 3e 7b 1d e2 bd 63 e9 00 3e 92 8a c1 bc
       0.15812325 -0.11040779 0.1258903 -0.023625646
0003f0 1b eb 5c bc c9 c2 3d be da fd 3e bd 75 79 38 bd
       -0.013483788 -0.18531336 -0.04662881 -0.045037705

layers.0.backward_conv1d.bias f4 [28]
000000 ea 39 bf 3c 13 a5 9a bd 76 49 2a be 8b f6 fd 3c
       0.023343045 -0.07551017 -0.16629586 0.03100135
000010 b2 15 c1 3d c1 84 88 3d c5 49 18 3c 4b 46 63 bb
       0.09427966 0.06665946 0.009294932 -0.003467935
000020 5a 78 0a 3e e0 78 8e bb 94 56 69 bc b5 81 d7 3d
       0.13522473 -0.0043479055 -0.014241833 0.105227865
000030 b2 76 3b 3e 6d 6d 05 3e be 84 a3 3c ec 2b c3 bd
       0.18306997 0.13030024 0.019960757 -0.09529862
000040 da 94 c4 bd 3d 0f 10 bd 73 73 cd bc 78 96 cd bd
       -0.09598704 -0.035170782 -0.025079465 -0.10038465
000050 f7 ad f1 3c ad 39 02 be d4 14 b6 3d 43 be 90 bd
       0.029501898 -0.12717314 0.088906914 -0.070675395
000060 90 9d 8b 3d f5 ab 5c 3d bf 41 36 3e 89 4e d2 3b
       0.06817162 0.05387493 0.17798518 0.0064180535

layers.0.norm.weight f4 [28]
000000 89 ea 7a 3f 1e 14 81 3f e8 e1 7f 3f 96 85 81 3f
       0.9801412 1.0084264 0.9995408 1.0118892
000010 bd d2 7e 3f 89 df 7c 3f 62 50 7f 3f 9f 49 7e 3f
       0.9954031 0.9877859 0.9973203 0.99331087
000020 af 07 7b 3f f4 54 7f 3f e6 95 7f 3f ca 97 80 3f
       0.980586 0.99739003 0.998381 1.0046322
000030 dc b0 80 3f ef ec 80 3f 49 73 80 3f b1 87 80 3f
       1.0053973 1.0072306 1.0035182 1.004141
000040 f7 14 80 3f b2 51 80 3f 26 7c 7d 3f 4d 0d 7e 3f
       1.0006398 1.0024931 0.9901756 0.99239045
000050 35 f5 77 3f 52 52 80 3f 7b 5f 81 3f c3 e8 81 3f
       0.9685853 1.0025122 1.0107263 1.0149158
000060 53 74 83 3f 23 4a 81 3f b7 ad 7a 3f bb 52 7f 3f
       1.0269874 1.010075 0.9792132 0.9973561

layers.0.norm.bias f4 [28]
000000 fd 33 f3 3b 1f 9b c9 bb de 19 a1 3b 74 3e f4 ba
       0.007421969 -0.006152525 0.0049164137 -0.0018634335
000010 4a 32 a7 39 49 44 6e 3a 39 35 d7 3b 47 2e 21 bc
       0.0003189019 0.0009089155 0.006567624 -0.009837694
000020 97 ef e2 bb 42 d3 4d ba d3 e1 80 3b 8e 5d f5 3b
       -0.006925534 -0.0007851609 0.0039331703 0.007487959
000030 b1 a0 86 bb d5 e1 07 bc a9 4d 0b bb 7e 63 b4 39
       -0.0041085114 -0.008293589 -0.0021256006 0.00034406403
000040 f3 b0 40 bb 24 9a 78 3b ba 88 0b bc 43 0c 06 3c
       -0.0029402345 0.0037933672 -0.008516485 0.008181634
000050 4f 03 35 bc 53 2d 8e 3c 74 38 8f 3b e6 03 0b bb
       -0.011048152 0.017355597 0.0043707434 -0.002121204
000060 97 7e 96 3c 5f ae 91 bb 98 8b 08 3b 7b 7f b3 3a
       0.01837091 -0.0044458355 0.0020835157 0.0013694608

layers.0.ssm.A_log f4 [28, 28]
000000 ae 3a 2f bc c7 96 2d 3f 81 f1 6a 3f 49 bb 95 3f
       -0.010695143 0.6780819 0.91774756 1.169778
000010 6c 2f b5 3f b0 6e b2 3f b6 40 bf 3f eb a9 c0 3f
       1.4155097 1.3940029 1.4941623 1.5051855
000020 b7 6c f7 3f 9e cc d5 3f 5f 6b e8 3f a7 2c e5 3f
       1.9330052 1.6703069 1.8157767 1.7904252
000030 4b 84 f5 3f f6 7d 03 40 fe df 00 40 fe 8a 05 40
       1.9180998 2.054563 2.0136714 2.0866084
000040 95 32 09 40 52 42 0c 40 1e b3 0f 40 ca f2 12 40
       2.1437123 2.1915479 2.2453074 2.2960687
000050 e9 1f 16 40 ee 03 19 40 cf d4 1b 40 1f 89 1e 40
       2.3456976 2.3908648 2.4348638 2.4771192
000060 57 21 21 40 93 a0 23 40 66 06 26 40 34 57 28 40
       2.51766 2.5566757 2.5941405 2.6303225
000070 ea 9c d4 3b 80 fa 1d 3f bb e2 51 3f c4 86 8c 3f
       0.006488432 0.6171036 0.8198659 1.0978627
000080 c1 59 ad 3f 1e 1c 9e 3f 3e e9 b8 3f bf d5 b7 3f
       1.3543016 1.2352331 1.444618 1.4362105
000090 13 bc e5 3f 1e 8a d2 3f b8 71 e3 3f 8a 2f e5 3f
       1.7948021 1.64484 1.7769079 1.7905133
0000a0 f6 bc f3 3f 83 67 01 40 34 b9 00 40 8d ee 04 40
       1.9042041 2.0219429 2.011304 2.07706
0000b0 20 c0 08 40 6f 42 0c 40 16 b1 0f 40 2e f4 12 40
       2.1367264 2.1915548 2.2451835 2.2961535
0000c0 b4 10 16 40 e6 01 19 40 d4 d4 1b 40 f3 89 1e 40
       2.3447695 2.3907409 2.434865 2.4771698
0000d0 fb 21 21 40 7d a0 23 40 2f 07 26 40 52 57 28 40
       2.517699 2.5566704 2.5941885 2.6303296
0000e0 81 30 2a bc 75 56 2d 3f a6 dc 6b 3f 92 cd 94 3f
       -0.010387541 0.6771005 0.9213356 1.1625235
0000f0 a2 e0 b0 3f 3f 73 ba 3f 22 cd c6 3f 33 66 d0 3f
       1.3818552 1.456642 1.5531352 1.6281189
000100 b6 cd 01 40 bb a8 e5 3f b7 4c f8 3f e9 4a e5 3f
       2.0281806 1.7942117 1.9398412 1.7913486
000110 43 52 01 40 ad 97 09 40 b3 5d 03 40 1e 4e 06 40
       2.0206459 2.1498826 2.052594 2.098518
000120 67 3b 0a 40 f5 44 0c 40 75 d4 0f 40 8b f4 12 40
       2.1598756 2.1917088 2.2473423 2.2961757
000130 bd 48 16 40 b5 05 19 40 f9 d4 1b 40 73 c9 1e 40
       2.3481896 2.3909733 2.4348738 2.4810455
000140 8c 23 21 40 06 a0 23 40 e4 0f 26 40 3a 58 28 40
       2.5177946 2.556642 2.59472 2.630385
000150 4e 05 23 3c cb 88 31 3f 85 cd 5d 3f a4 59 9c 3f
       0.009949995 0.69349355 0.8664172 1.2214856
000160 2d cc bc 3f d7 93 a4 3f b8 8b bc 3f 09 81 bd 3f
       1.474981 1.2857617 1.4730139 1.4805003
000170 79 ca f1 3f 5c a9 d3 3f f6 9b e8 3f 0a 34 e5 3f
       1.8889915 1.6536059 1.8172596 1.7906506
000180 7e a8 f4 3f 62 ad 01 40 80 c9 00 40 78 2a 05 40
       1.911392 2.0262074 2.0122986 2.080717
000190 85 f2 08 40 bf 42 0c 40 79 b6 0f 40 15 f3 12 40
       2.1398022 2.1915739 2.2455122 2.2960865
0001a0 d9 13 16 40 db 02 19 40 bf d4 1b 40 6c 8c 1e 40
       2.3449614 2.3907993 2.43486 2.4773207
0001b0 2c 22 21 40 9d a0 23 40 7a 07 26 40 64 57 28 40
       2.5177107 2.556678 2.5942063 2.630334
0001c0 fb 46 f6 38 e8 f5 24 3f d6 a4 72 3f 4c 4b 9c 3f
       0.00011743415 0.64437723 0.9478277 1.2210479
0001d0 f6 0a c0 3f 52 57 bb 3f 86 83 c3 3f 2f 4d be 3f
       1.5003345 1.4636023 1.5274513 1.4867305
0001e0 59 c2 ee 3f 05 ae d6 3f e9 02 e5 3f 39 30 e5 3f
       1.865306 1.6771857 1.7891513 1.7905341
0001f0 2b 72 f3 3f 3e cd 00 40 b0 c8 00 40 75 d8 04 40
       1.9019216 2.012527 2.012249 2.0757115
000200 c6 cf 08 40 c4 42 0c 40 bb af 0f 40 f5 f2 12 40
       2.1376815 2.191575 2.2451007 2.296079
000210 7b 12 16 40 a6 01 19 40 94 d4 1b 40 96 88 1e 40
       2.344878 2.3907256 2.4348497 2.4770865
000220 09 22 21 40 b7 a0 23 40 8b 06 26 40 1f 57 28 40
       2.5177023 2.5566843 2.5941494 2.6303174
000230 af 12 2a bc bc 5a 2d 3f ed 0c 80 3f ea ca 9f 3f
       -0.010380431 0.67716575 1.0003945 1.24838
000240 fd 7c be 3f 18 4a c1 3f 09 83 d4 3f 31 b0 d8 3f
       1.4881893 1.5100737 1.6602489 1.6928769
000250 68 70 05 40 38 1a ec 3f 54 f2 00 40 48 14 e7 3f
       2.0849857 1.8445501 2.0147905 1.8053064
000260 58 42 06 40 95 0c 0f 40 cf fc 02 40 0b 11 0a 40
       2.0977993 2.235143 2.0466802 2.1572902
000270 1f 53 0e 40 5e 45 0c 40 ca e8 0f 40 6a fd 12 40
       2.2238233 2.1917338 2.2485833 2.2967172
000280 f4 f3 17 40 15 0e 19 40 8b d3 1b 40 6e 42 1f 40
       2.3742647 2.3914845 2.4347866 2.4884295
000290 31 21 21 40 63 a2 23 40 16 3b 26 40 96 56 28 40
       2.5176508 2.5567863 2.5973563 2.6302848
0002a0 b1 82 21 bc 9d 9e 2f 3f 1d 88 6e 3f 53 7a 99 3f
       -0.009857819 0.686014 0.9317644 1.1990455
0002b0 47 e9 b9 3f 4e 90 ae 3f 1a 8a c1 3f 44 ed bd 3f
       1.4524316 1.3637788 1.512027 1.4838033
0002c0 b5 7e ea 3f 87 29 d6 3f 50 25 e8 3f 3e 2b e5 3f
       1.8319918 1.6731423 1.8136387 1.7903821
0002d0 75 f9 f5 3f 87 7d 01 40 2a b4 00 40 b6 f7 04 40
       1.9216753 2.0232866 2.0109963 2.077619
0002e0 c0 c9 08 40 99 42 0c 40 48 b2 0f 40 79 f3 12 40
       2.1373138 2.1915648 2.2452564 2.2961104
0002f0 39 0f 16 40 9a 01 19 40 d1 d4 1b 40 ca 89 1e 40
       2.344679 2.3907228 2.4348643 2.47716
000300 38 22 21 40 b6 a0 23 40 15 07 26 40 23 57 28 40
       2.5177135 2.556684 2.5941823 2.6303184
000310 e0 cf d6 bb ad 0e 30 3f db 93 7c 3f 4f 85 a0 3f
       -0.0065555423 0.68772393 0.9866311 1.2540683
000320 c8 99 bd 3f 8e d4 ae 3f d4 2e ce 3f 57 a2 c3 3f
       1.4812555 1.3658617 1.6108041 1.5283917
000330 83 b9 fa 3f f4 ba d7 3f 3a 72 eb 3f c7 84 e5 3f
       1.9587864 1.6853929 1.8394234 1.7931145
000340 2e de f7 3f 15 7b 04 40 a2 e6 00 40 a6 86 05 40
       1.9364679 2.0700123 2.0140767 2.0863433
000350 3e fa 08 40 0a 42 0c 40 69 b2 0f 40 db f3 12 40
       2.1402736 2.1915307 2.2452643 2.2961338
000360 12 14 16 40 ed 01 19 40 ed d4 1b 40 33 8a 1e 40
       2.344975 2.3907425 2.434871 2.477185
000370 f1 21 21 40 9f a0 23 40 6d 07 26 40 77 57 28 40
       2.5176966 2.5566785 2.5942032 2.6303384
000380 b4 49 8b bb 12 c1 2f 3f fd af 84 3f d2 39 a5 3f
       -0.0042507295 0.68653977 1.0366207 1.290827
000390 9b 6e c3 3f 3a 9e bb 3f 04 01 cc 3f c1 6a d4 3f
       1.5268129 1.4657662 1.593781 1.6595079
0003a0 d3 8d fd 3f b4 b0 e4 3f d7 2e f7 3f d1 df e5 3f
       1.9808906 1.7866426 1.9311169 1.7958928
0003b0 54 1a 01 40 6f eb 07 40 a5 42 01 40 d5 6f 06 40
       2.017232 2.1237447 2.0196927 2.1005757
0003c0 ec cb 0a 40 7c 42 0c 40 2f b5 0f 40 10 f4 12 40
       2.1686964 2.191558 2.2454336 2.2961464
0003d0 df 38 16 40 91 01 19 40 d7 d4 1b 40 26 8f 1e 40
       2.3472211 2.3907206 2.4348657 2.477487
0003e0 f5 21 21 40 82 a0 23 40 d9 07 26 40 3e 57 28 40
       2.5176976 2.5566716 2.594229 2.6303248
0003f0 97 35 fd bc 64 59 21 3f 1b d0 57 3f e3 09 94 3f
       -0.030909343 0.63027024 0.8430192 1.1565517

layers.0.ssm.D f4 [28]
000000 f4 32 80 3f 7e b6 79 3f 19 63 80 3f 32 da 80 3f
       1.001555 0.97544086 1.0030242 1.0066588
000010 3f d3 7a 3f f5 27 81 3f 98 eb 80 3f 4d 2c 80 3f
       0.97978586 1.0090319 1.0071898 1.001352
000020 cc bf 80 3f c4 3b 78 3f d8 1c 82 3f 9d 73 7f 3f
       1.0058532 0.96966195 1.0165052 0.99785787
000030 c0 10 7d 3f ed 0a 80 3f 99 c8 7f 3f 09 9b 7e 3f
       0.98853683 1.0003334 0.9991546 0.99455315
000040 e5 31 7b 3f 54 6d 80 3f 1f c1 84 3f 5f 47 7e 3f
       0.9812301 1.0033364 1.0371436 0.99327654
000050 fa 8b 7b 3f 8b 8d 80 3f f6 23 7f 3f 8c 6c 80 3f
       0.9826046 1.0043195 0.9966425 1.0033126
000060 8a 17 7d 3f f0 0b 82 3f 6a 20 7f 3f 0c a7 81 3f
       0.9886404 1.0159893 0.99658835 1.0129104

layers.0.ssm.deltaBC_layer.weight f4 [64, 28]
000000 b9 80 ae bc 99 fd 2e 3e f4 a9 92 bd 2d f6 bf 3c
       -0.021301614 0.17088927 -0.07161322 0.023432815
000010 87 f5 76 bd ae 12 db 3c 19 03 12 3e 28 ba 31 3e
       -0.060292747 0.026742306 0.14258994 0.17356169
000020 7b b9 47 be ec e3 95 bc f5 a3 08 3e 72 d3 33 3e
       -0.19504349 -0.018297158 0.13343795 0.17561129
000030 e8 99 a5 38 b0 b1 8a bd 95 8d 65 bd 20 a1 ac bd
       7.8964804e-05 -0.067721725 -0.056043226 -0.0842917
000040 28 3c fe 3d 59 e7 52 3d 32 11 b0 bd d6 cc ce 3c
       0.12413818 0.05149016 -0.0859703 0.025244158
000050 f5 75 e4 3d 22 ef 8a 3d 0c 41 db 3d c8 01 23 3e
       0.11155311 0.06783892 0.10705766 0.15918648
000060 6d cd 31 3e cd 59 8a 3c 6e 49 2a be 49 55 77 bd
       0.1736352 0.016888523 -0.16629574 -0.06038407
000070 b1 63 9f 3d b7 5d cf bd e7 ba 39 be 07 0a 9b 3d
       0.077826865 -0.101252966 -0.18137704 0.07570272
000080 88 cd 2c 3e 28 3e c0 bd ec 3c 06 3d 7c 57 7d bd
       0.16875279 -0.09386855 0.032772943 -0.06185101
000090 76 4b 2c 3e f4 5f 1d 3e db 32 f4 bd 26 a3 1f be
       0.16825661 0.15368634 -0.119237624 -0.1558958
0000a0 74 45 2f 3e d0 ca 14 be 36 bb 47 bd 32 a7 0f be
       0.17116338 -0.14530492 -0.048762523 -0.14028624
0000b0 0e ac 19 be 0e ee 04 be b0 6d 57 3c 67 18 3b 3e
       -0.1500704 -0.12981436 0.01314871 0.18271028
0000c0 bf 40 08 3e 9a 14 1c 3e 61 81 d1 bc 17 98 4d 3c
       0.13305949 0.15242234 -0.025574388 0.012548468
0000d0 6c a9 35 3e 5f d5 28 be a4 b1 72 bd 1c 46 5d 3b
       0.1774041 -0.16487645 -0.059251443 0.0033763712
0000e0 87 7c 24 be 06 28 e5 3d 7e a2 1c 3e 83 56 d3 3b
       -0.16063128 0.111892745 0.15296361 0.006449522
0000f0 51 04 1f bd 03 14 35 be 3c 9f 1c be ae 0c 0d be
       -0.038822476 -0.17683415 -0.15295118 -0.13774368
000100 45 0c 2f 3d 9c dd 06 3d bd 35 e0 3d 18 09 ad bd
       0.04273631 0.032926187 0.1094775 -0.08449
000110 ee df 29 3e 32 c6 d0 bc b8 4b 42 be fb ed 87 3d
       0.16589329 -0.025485132 -0.18974197 0.06637188
000120 dd b1 79 bc 3e 5c 6d 3d fe f3 eb bd d0 02 8c bc
       -0.01524016 0.057949297 -0.11521147 -0.017091185
000130 5e b6 7e 3d 63 a6 9b 3d 06 73 1f 3e 55 93 1d 3e
       0.062185638 0.07600095 0.15571222 0.15388234
000140 1b 9c 92 3c 3b 64 06 3e d6 ca 48 3c 15 c2 27 be
       0.017896703 0.13124172 0.012255391 -0.1638263
000150 17 f1 4a 3d 2a e1 8c bd 5e a2 8d 3d ca c3 37 be
       0.049546327 -0.06878884 0.06915735 -0.17945781
000160 64 84 dd 3d 7f fa 9c bd 4f 40 94 3d 9c 8a 93 bd
       0.10816267 -0.07664966 0.072388284 -0.07204172
000170 6d 68 e0 3d f2 9e f4 bc 53 5b 15 be 77 ee a9 3d
       0.10957418 -0.029860947 -0.14585619 0.08297437
000180 d5 9b 80 bd ab ec 18 3e 7a 00 14 3d 85 f6 c6 3d
       -0.062797226 0.14934032 0.036133267 0.097149886
000190 e2 52 9f bd 89 4e 07 be c4 35 0d 3d 31 af 2b 3e
       -0.077794805 -0.13213553 0.034475103 0.16766049
0001a0 1f 26 86 3d 28 fa 1d be 08 0b 36 3d 87 00 e6 3d
       0.0655024 -0.15427458 0.044444114 0.11230569
0001b0 07 29 d0 ba 7a 3b 1b 3d b5 bb d5 bd b2 a4 99 3d
       -0.0015881368 0.03789852 -0.10436193 0.07502116
0001c0 ef e3 bd bd b3 0a 1d be 61 93 36 3e b5 8f cb bd
       -0.092719905 -0.15336113 0.17829658 -0.09939519
0001d0 4b 94 a0 3b ed 27 70 bc a6 97 15 3e 08 64 84 3c
       0.0049004904 -0.014657957 0.1460863 0.01616098
0001e0 94 dd 7a bb e2 f8 0f 3e ed c8 42 3e 71 74 1c 3e
       -0.0038279044 0.14059785 0.1902196 0.15278794
0001f0 3e 70 61 3d b7 4f 05 3d 88 7d 6d bd bb 87 3a 3e
       0.055038683 0.032546725 -0.057981044 0.1821584
000200 49 1b 3e 3e b2 33 91 bc 7d 2e 9f bd dd 90 a8 bd
       0.18565096 -0.017724846 -0.07772539 -0.082307555
000210 34 ea 15 3e 5e 0f 14 3e 0a 36 31 3c 41 b0 f0 3d
       0.14640123 0.14458987 0.010816107 0.11752368
000220 5b e3 f7 3d c4 aa 84 3c ad 99 84 bd 74 32 f3 3c
       0.121039115 0.016194709 -0.06474624 0.029687144
000230 7c c8 54 bd f5 5b 94 bd 3e b2 0a be a5 98 1b be
       -0.05194901 -0.07244102 -0.13544556 -0.15194948
000240 78 7d 21 3e d7 34 17 be ac 1d b9 3c 4b 77 ce 3d
       0.15770519 -0.1476625 0.022597156 0.10081347
000250 4a c1 c4 3d e0 9e 25 3e 92 32 42 bc e7 4a 15 3e
       0.096071795 0.16173887 -0.011852877 0.14579354
000260 0f cf f6 bd 8c 00 d4 bd 73 96 c7 3d a6 c5 08 3d
       -0.12051212 -0.10351667 0.09745493 0.033391617
000270 c9 e7 c6 bd 2e 18 04 be e2 f9 d5 3d fb e8 e6 bd
       -0.09712178 -0.12899849 0.10448052 -0.11274906
000280 5e 12 2a 3e f1 f8 06 3e 0c e6 40 ba a2 9b e5 bc
       0.16608569 0.13180901 -0.00073584984 -0.028028313
000290 7e a4 f8 bd a6 77 fa 3d 93 f7 8f bd 14 03 b1 bc
       -0.121407494 0.122298524 -0.07029643 -0.021607913
0002a0 bb 09 13 be 16 5e b8 bd 16 80 34 3c 3a a2 c9 bd
       -0.1435918 -0.090023205 0.011016866 -0.098453954
0002b0 c3 5e 0a 3e 9d 80 9c bd 3b db 27 3e 91 c1 01 3e
       0.13512711 -0.076417185 0.16392224 0.12671496
0002c0 e5 16 df 3d 92 ec 0a 3e a0 3e 1e 3e ac a5 36 3e
       0.10893039 0.13566807 0.15453577 0.17836636
0002d0 2a 40 52 bd 48 91 f2 bd 63 cd 34 3e 9e aa 00 be
       -0.051330723 -0.118441164 0.17656474 -0.12565085
0002e0 64 12 c4 bd b2 c0 ea bd 78 12 fe 3d cb 99 a6 bd
       -0.0957382 -0.11462535 0.124058664 -0.081348024
0002f0 b7 95 25 be 98 2e f9 3d ab 6e e1 3d ac fd d3 3d
       -0.16170393 0.1216709 0.11007436 0.103511184
000300 9a 79 04 bd 75 bb e7 3d 88 64 78 bd e1 c2 0d 3e
       -0.03234253 0.113150515 -0.06064275 0.13843872
000310 aa 13 29 3e 3c ba 40 be 7b 2b 28 3e 8c c3 07 3d
       0.16511407 -0.18821043 0.16422836 0.033145472
000320 a1 f5 2b be cc 0c 87 3d 07 80 62 bd e5 7b 64 3d
       -0.16792919 0.06594238 -0.055297878 0.055782218
000330 24 e2 e5 3c be 89 26 3d 5e 7e 30 3e 58 84 50 be
       0.028061934 0.040658705 0.17235705 -0.20362985
000340 9a eb 88 3d 17 5c 02 3e 7d 25 1c 3d 50 5b bc 3d
       0.066855624 0.12730442 0.03812169 0.09197104
000350 b3 25 b8 bd 4d 38 9a 3d 0a e0 0d be 29 2e f1 3d
       -0.089915656 0.0753027 -0.13854995 0.117763825
000360 4d fd d0 bd 07 df cb 3d 6c ac b1 3c 93 8f 07 3e
       -0.10204563 0.099546485 0.021688662 0.13238363
000370 a7 04 1f be 5d a3 85 bd f2 74 68 bb 3b a5 09 3d
       -0.15529118 -0.065253 -0.0035470095 0.03360484
000380 ba 0d d8 bd c4 68 e0 3d 97 e2 05 3c c8 e7 a7 3d
       -0.10549493 0.109574825 0.008171699 0.08198506
000390 d3 98 80 3d e9 ce 9a bd 68 a6 cd bd f9 c8 cd 3c
       0.06279149 -0.07558996 -0.10041505 0.025120245
0003a0 43 86 bf 3d f0 c2 f3 3d ea cc ff ba d6 8e ac bd
       0.0935178 0.11902416 -0.0019516025 -0.08425681
0003b0 bd fd 0e be df 89 06 be 47 ef a1 3d 67 7f 0b bd
       -0.13963981 -0.13138531 0.07906967 -0.034057047
0003c0 8a cc 53 bc bc aa 6f bd b8 14 2b 3e 9b 06 5d 3d
       -0.012927184 -0.058512434 0.16707122 0.053961378
0003d0 4e 42 d8 3d c1 46 b7 3c e1 35 e2 bc 87 62 33 3e
       0.105595216 0.022372605 -0.027613582 0.17518054
0003e0 03 ea b8 bd 95 c5 2a be aa 86 01 3e 99 b0 d8 bd
       -0.09029009 -0.16676934 0.12649027 -0.10580558
0003f0 4f 7b 04 3e 58 8a 9f 3d 45 51 c6 bd 50 df 14 be
       0.12937663 0.07790059 -0.0968347 -0.14538312

layers.0.ssm.dt_proj_layer.weight f4 [28, 8]
000000 2b 6c ad bc 60 5e 4a 3d 42 63 b9 bd cd f1 66 3e
       -0.021169743 0.04940641 -0.09052135 0.22553177
000010 13 17 24 3e 0f cf 88 be e2 54 e1 3d 1e 1e 14 3e
       0.16024427 -0.26720473 0.11002518 0.14464614
000020 22 4b 13 bd ad 30 23 3e 25 ec bc 3e 24 77 52 bd
       -0.035960324 0.15936537 0.36898914 -0.051383153
000030 aa 0b 3f be fd bb 6a bd e6 7f 98 3e 2c ef 22 3e
       -0.18656793 -0.057308186 0.2978508 0.1591155
000040 c7 29 a5 be f8 cd 7d 3e d4 10 6f 3e 22 56 90 3c
       -0.32258436 0.24785602 0.23346263 0.017619196
000050 21 67 c9 3d ed f0 55 3e 67 de 43 3e 22 81 86 3e
       0.098341234 0.20892687 0.19127809 0.26270396
000060 10 c7 10 bd ee 75 92 3e 1d f9 da 3c f2 d9 04 be
       -0.03534609 0.28605598 0.026730115 -0.12973765
000070 32 b4 62 3e e4 40 ab 3c d8 aa ac bd c2 72 a5 3e
       0.22139052 0.020904966 -0.08431023 0.32314116
000080 81 74 c4 3c 40 2d a5 3e 80 33 98 3e e4 6b ac 3e
       0.023981335 0.32261086 0.2972679 0.33676064
000090 01 c9 23 3e e8 eb 88 be ee 8f 7c be 8e df 4d 3e
       0.15994646 -0.26742482 -0.2466428 0.2010481
0000a0 e7 6d de 3c 80 7e 32 be 3a 22 df 3d 3f 68 f7 39
       0.027152015 -0.17431068 0.108952 0.0004718918
0000b0 6e ae 96 be 0d 05 4b be db ab a1 3d 4e 6e 99 be
       -0.29429954 -0.19826145 0.07894107 -0.29966968
0000c0 0d 28 ae 3e 6d cc 54 be ae d7 04 be a9 a7 8e 3e
       0.3401493 -0.20781107 -0.129729 0.2786229
0000d0 cf cb 89 3c c3 ce 43 be 13 b7 35 3e 76 f0 cf bd
       0.016820816 -0.19121842 0.17745619 -0.10153286
0000e0 fc c1 13 bd 96 6e fb bd 8c da a4 be b4 34 c9 bd
       -0.03607367 -0.12276952 -0.32197988 -0.098245054
0000f0 bd 1a 90 3e 0a 2f b4 3c bc 41 37 3c c9 0b 7c be
       0.281454 0.021995086 0.011185106 -0.2461387
000100 8f a7 29 3e 5c d7 a0 3e 58 46 fb bd 2c 22 a0 3e
       0.16567825 0.31414306 -0.122692764 0.3127607
000110 9c 67 89 3e 6c 5b f3 3d b3 1b 0a be c5 76 d6 3d
       0.2683686 0.11882672 -0.13487129 0.10471872
000120 5e 1e 59 be a3 f0 8e 3e 22 ab dd bc 21 c8 f8 3c
       -0.2120299 0.27917966 -0.027059142 0.030368866
000130 97 ee 48 bd 78 96 76 3e 8b e9 b7 3e 43 07 6c 3d
       -0.049055662 0.24080837 0.35920367 0.057624113
000140 44 57 65 3d 3a f6 0e 3e 2d 8e 34 3e b1 b6 7a be
       0.055991426 0.13961115 0.17632361 -0.24483754
000150 dd 81 a5 be 55 4f 15 be 53 39 ef 3d e1 1b 9b bd
       -0.3232564 -0.14581044 0.116808556 -0.07573677
000160 8a 06 25 bd 4b e9 74 3e 35 f0 8f be 8c d1 e7 3c
       -0.04028944 0.23917119 -0.2811295 0.028298162
000170 b1 b3 87 3e 7e ba 45 be fa 4e 18 bd b4 66 0e 3e
       0.2650428 -0.19309422 -0.037184693 0.13906366
000180 dc dc 3e 3e 4a d4 b7 bd bd 5a 1e 3c d9 4a 81 3e
       0.18638939 -0.08976038 0.009665188 0.25252417
000190 e6 ae 2f 3e 3c 33 83 3e 88 05 6f 3e 3f 5c 99 be
       0.17156562 0.25625026 0.23341954 -0.2995319
0001a0 0e c8 49 be 79 4b a1 be 65 01 0e 3e 4b a5 32 3e
       -0.19705221 -0.31502894 0.1386772 0.17445867
0001b0 41 53 ab 3e 1d e7 70 be 2e 04 16 3e ee 20 27 be
       0.33461955 -0.23525663 0.14650032 -0.16321155
0001c0 97 86 cc 3d 80 f8 87 3e 49 76 99 bc 78 9b cc 3d
       0.099866085 0.26556778 -0.01873316 0.09990591
0001d0 aa fe 6a 3e 8f 80 6b 3e 14 35 8d be 3e 04 71 bd
       0.22948709 0.2299826 -0.27579558 -0.058841936
0001e0 2c ca a2 bd b4 a9 d9 bb ab 34 cd 3d 06 10 32 3e
       -0.079487175 -0.0066425446 0.10019811 0.17388925
0001f0 27 1b 22 3e 65 8b bc 3d 07 e9 48 3d f1 e7 98 3d
       0.1583067 0.09206275 0.049050357 0.07466114
000200 4f 75 e2 bd d6 c1 71 3e 70 2a 42 3e 36 6d 95 be
       -0.11057531 0.23609099 0.18961501 -0.29184884
000210 f4 74 b3 3e 28 22 52 3e 14 65 97 3e bf ab 8a be
       0.35050166 0.20520842 0.29569304 -0.27084157
000220 49 a7 65 be 7e 08 b6 be a0 9e 36 be a4 03 86 3e
       -0.22427095 -0.35553354 -0.17833948 0.26174653
000230 f9 09 35 3d 12 18 ba 3c c0 7d a6 3e c4 fb a4 bd
       0.044198964 0.022716556 0.32517815 -0.08055833
000240 ff 19 59 3e a1 30 a3 3d 44 0f 45 bd 12 9a 7f 3e
       0.21201323 0.079682596 -0.04811026 0.24961117
000250 fc 87 34 3d 0d 2e c6 3d 6c 22 41 be e4 b9 93 3e
       0.044074997 0.09676752 -0.18860787 0.2885276
000260 3d 07 96 be e4 5b 39 be 80 a5 6c be d2 10 8e 3e
       -0.29302397 -0.1810146 -0.23110008 0.27747208
000270 6e ab b3 bd 66 ed 8f b9 e1 51 4c bd 74 ef 89 bd
       -0.08772932 -0.0002745196 -0.049882773 -0.06735125
000280 48 af 99 3e 46 f3 11 3e ef 23 11 3e e4 b9 00 bd
       0.3001654 0.14252958 0.14173864 -0.03142728
000290 dd f1 92 3d 2c 3b db bd 88 c8 44 3e c0 d2 3b be
       0.07175038 -0.107046455 0.19217122 -0.18342113
0002a0 ad e5 01 3e 16 cb 54 3d e5 8f 31 3e 3f 0e de 3d
       0.1268527 0.05195149 0.17340048 0.10842561
0002b0 ad 99 39 bd e4 90 5b 3d c6 ab cc 3c c4 cb d3 3c
       -0.045312572 0.053604975 0.024984252 0.025853999
0002c0 71 8b f6 bd e2 95 9f be e0 71 13 be 4f 66 96 bd
       -0.12038315 -0.3116904 -0.14398909 -0.073437326
0002d0 b2 07 61 3e 7e b3 3c 3e 49 86 dc 3d cf 93 a2 be
       0.21975592 0.18427846 0.107678 -0.31753394
0002e0 67 ce a3 bd 19 2b 8c 3d d1 c9 57 be 33 c5 b5 bd
       -0.079983525 0.06844158 -0.2107308 -0.088755034
0002f0 60 d5 9c be af eb 7d 3d 66 57 ad bd 62 8e 2d be
       -0.30631542 0.061992344 -0.084639356 -0.16948846
000300 56 78 ae 3e c0 72 8b be d6 01 17 3e c3 53 87 3e
       0.34076184 -0.27235985 0.14746794 0.26431093
000310 4b 7d 97 3e f9 5b cd bd 5a bf 91 be 95 58 a4 be
       0.29587778 -0.10027308 -0.28466302 -0.32098833
000320 4c 1e 47 3c 16 18 3d 3e ed 8f b4 be 82 cc a6 3e
       0.012153219 0.1846622 -0.35266057 0.32577902
000330 62 5f 86 3d 86 ff 12 be bc 57 d9 3d 75 4b a5 bd
       0.065611616 -0.14355287 0.10612437 -0.08071033
000340 16 c3 a9 bd 0e 5b 72 3e cb 21 2a 3e 5d af 66 bd
       -0.08289163 0.23667547 0.16614453 -0.056319583
000350 0d 02 29 3e 85 37 b1 be 18 f2 8c be a5 a6 c3 bd
       0.16504689 -0.3461267 -0.27528453 -0.09553269
000360 48 2f 6e be 74 2d b9 be fd 7d 9d be 20 00 11 be
       -0.23260224 -0.3616749 -0.30760184 -0.14160204
000370 5b 3a 08 3d 22 0a 9c 3d 25 a4 55 be f3 6a 5a 3e
       0.033258777 0.0761912 -0.20863397 0.2132986

layers.0.ssm.dt_proj_layer.bias f4 [28]
000000 33 65 9f be 24 b3 d9 3d e1 6e 93 be a7 fa 3f be
       -0.31131896 0.106298715 -0.2879553 -0.1874796
000010 3d 91 44 3e a0 5b aa 3c fe f5 b0 3d 56 a8 2e 3d
       0.19196029 0.020795643 0.08640669 0.042641006
000020 39 cc 4f 3d b2 01 ae 3e f6 c1 43 3e b7 0f e0 3c
       0.05073187 0.33985668 0.19116959 0.027351243
000030 ba f8 64 3e 1a 77 b9 3d ce 89 b0 bd 0a 1c 86 be
       0.22360507 0.0905592 -0.08620034 -0.26193267
000040 97 c1 44 be 1f a2 0a be a2 65 41 bd f4 45 31 be
       -0.19214474 -0.13538407 -0.047216065 -0.17311841
000050 36 85 41 3e 20 e2 99 3e af 80 a4 be 9b ad 24 be
       0.18898472 0.30055332 -0.32129428 -0.1608185
000060 c7 a1 d2 3d 6a d2 89 bd 90 90 57 3e da 8d a5 be
       0.10284763 -0.067295864 0.2105124 -0.32334787
