pengujian_split_data/90-10/cnn/cnn_model_0.pth (torch, 320240 bytes, 3 tensors)

conv1.weight f4 [4, 1, 4, 4]
0.1608321 0.17677604 -0.0012359187 -0.011589239 0.22068329 -0.13317671 0.20667297 0.13235527
-0.21766986 -0.08192002 -0.16564211 0.13370597 0.009053506 -0.09277793 0.104730636 -0.16727893
-0.016017204 -0.2016098 -0.2081338 0.17803983 0.15814267 -0.2812324 -0.0086702015 -0.21005271
-0.1829587 -0.19941403 -0.0636887 -0.21563219 0.0123695955 -0.024093993 -0.08998955 -0.017333522
-0.20649602 -0.17426233 -0.0026338948 0.028305184 0.21789882 0.04652942 -0.1887103 -0.1692594
-0.16292086 0.084348164 0.056328606 0.18757962 -0.14564426 0.091313444 0.23173176 -0.08340335
-0.11338164 0.1349563 0.00085099787 -0.24950337 -0.14320497 0.0062895003 -0.116177306 -0.060056224
-0.23213382 0.123521075 0.07947642 0.07169411 0.22897315 0.10814224 0.21602103 0.21855192
00000000: 2cb1 243e c704 353e 8dfe a1ba cbe0 3dbc
00000010: cdfa 613e 7a5f 08be 14a2 533e 2488 073e
00000020: d9e4 5ebe afc5 a7bd 169e 29be 38ea 083e
00000030: 2855 143c 5b02 bebd 047d d63d 2b4b 2bbe
00000040: 8336 83bc cd72 4ebe 0721 55be 1350 363e
00000050: 27f0 213e b1fd 8fbe 760d 0ebc 0f18 57be
00000060: 8759 3bbe 3133 4cbe 396f 82bd afce 5cbe
00000070: d8a9 4a3c c460 c5bc 714c b8bd 08ff 8dbc
00000080: b173 53be d371 32be 6c9d 2cbb 46e0 e73c
00000090: de20 5f3e a295 3e3d 463d 41be 5652 2dbe
000000a0: bad4 26be bbbe ac3d d3b8 663d df14 403e
000000b0: c523 15be 8b02 bb3d 174b 6d3e 60cf aabd
000000c0: a234 e8bd fc31 0a3e 8015 5f3a d07d 7fbe
000000d0: 53a4 12be 2718 ce3b 5eee edbd 84fd 75bd
000000e0: 7db4 6dbe 9ef8 fc3d 89c4 a23d 5dd4 923d
000000f0: f077 6a3e ae79 dd3d 9e34 5d3e 13cc 5f3e

conv1.bias f4 [4]
-0.0031973445 -0.19007865 0.07995122 0.07510488
00000000: 8a8a 51bb faa3 42be 77bd a33d 96d0 993d

fc1.weight f4 [1, 79524]
0.0016565594 -0.0031121937 -0.0009692317 -0.00077465957 -0.0022485305 -0.0039221575 -0.0019923144 0.00013826646
8.279544e-05 -0.0013778084 -3.2209093e-05 0.00010413789 0.0012250112 -0.00041347326 0.00018862312 0.0039031631
0.00028287355 -4.2634074e-06 -0.0034791187 -0.0013637323 2.8464474e-06 -5.2929954e-07 0.00013724 0.00014435501
0.00012407375 0.00010823415 9.704477e-05 0.0019541942 5.244061e-06 1.7977947e-05 7.937851e-05 -9.850039e-06
0.0012092899 0.0013049328 7.945573e-05 0.00036851058 0.00034667138 0.00027590882 0.0001922294 3.7043348e-05
-2.374456e-05 0.005033534 5.91532e-06 -1.0082676e-06 2.343496e-06 0.007102715 -4.6530504e-06 0.00025174418
1.5151674e-05 -9.2577604e-05 -0.007998731 8.811237e-05 0.00014369312 0.00021767964 0.00011075752 -2.8144623e-06
-0.0022592419 0.0011792025 0.0038071054 0.0015471538 0.0040306575 0.010074102 7.1456816e-05 0.0055700066
0.012898104 0.0019985067 3.4888199e-06 -7.6331435e-06 0.003651722 6.286286e-05 4.6514953e-05 -0.0010549742
-0.0014696518 -0.001538619 -0.0074092196 0.00016667215 6.379898e-05 0.0038116383 0.0045392914 0.0007729581
0.0021420543 3.9659637e-05 0.00014039263 8.281225e-05 0.0007369223 0.004089549 0.0010080843 0.002300686
0.0014228508 0.0035589 0.00015018723 0.00040630403 -4.0802017e-05 -2.2054963e-05 5.1643212e-05 0.008974003
0.008256722 0.00855138 0.0076956423 0.00076550303 -0.0012772157 -5.40839e-05 0.0012043545 0.005754146
0.004058024 0.015462233 0.003904044 -2.6020787e-05 0.00750151 0.0018867293 -6.7000714e-05 0.0018576959
0.00049609004 0.0028775018 0.0041653938 0.004167164 0.009344322 0.0042962586 0.002314272 0.0009383839
0.0036368421 0.0014800834 0.00013068302 0.00012722326 0.0030546202 6.164918e-05 2.5628193e-05 0.00010230903
0.00012579012 0.00012650866 0.002256843 0.0030828628 8.226929e-06 -1.7301181e-05 -8.0164355e-05 3.4537064e-05
8.3926294e-05 8.357708e-05 0.0009985974 4.1519048e-05 0.00011088193 0.0010400977 -4.591027e-05 -5.1769486e-05
-0.0025575415 -0.0007310043 -0.0017901438 3.619352e-05 4.393538e-06 -2.3884597e-05 -6.8479585e-07 -0.0025382827
-0.0035019065 -0.0003709084 -2.2148466e-05 0.001559635 0.0029439495 -0.0018164547 -3.266961e-05 0.0001301723
-0.0032619946 -1.0272579e-06 -0.00064587273 -0.0031367333 -0.002597601 5.144693e-06 -0.002837311 -1.35377295e-05
-0.0051828288 -0.0021190979 -0.0028128345 -0.0023496435 -9.5435724e-05 -0.005210357 -5.7804123e-06 -4.4170854e-05
2.7613743e-05 1.5436752e-05 5.885424e-06 -5.859092e-06 -7.1886294e-05 -2.5927482e-05 -0.0020135436 0.00015737189
0.00017629947 -0.00039231696 4.6893445e-05 -0.0018261072 -0.002997999 0.0015261051 -0.00020908403 -5.5010216e-05
-8.371109e-06 3.4759483e-05 -4.4234635e-05 -2.7981263e-05 0.0003701386 0.00025103166 1.8412593e-06 0.0006555371
0.0009961493 0.006391865 0.0071696597 0.0048502623 0.0002678537 0.012659245 0.0021060833 -5.610007e-06
9.6831885e-05 0.0015781492 -1.68848e-05 -0.00029246538 -0.0020120898 0.002035537 0.0010444062 1.3678143e-05
7.195068e-05 -0.00017310413 -1.2660748e-05 -1.6525792e-05 -1.1840652e-05 1.0184122e-05 -2.6850992e-05 8.551199e-05
8.5854226e-05 9.930203e-05 8.8347784e-05 6.53444e-05 -5.433614e-05 0.00033636112 -4.440371e-05 0.0038674013
-9.170491e-05 -9.330195e-05 -0.00010413491 7.293422e-05 0.00053052366 0.0002282869 0.0026227946 0.0027705922
0.0011397981 7.0648144e-05 3.9736344e-05 0.0032435362 0.0068280436 0.0031379175 0.0013563802 6.897275e-05
-3.220533e-05 0.0009409626 0.0008009728 -4.413865e-05 0.0047222204 1.41805585e-05 6.440966e-06 9.126049e-05
00000000: e920 d93a f2f5 4bbb 0a14 7eba 8612 4bba
00000010: 155c 13bb 7185 80bb 7d91 02bb 9ffb 1039
00000020: 77a2 ad38 9497 b4ba 4018 07b8 9b64 da38
00000030: 8e90 a03a 71c7 d8b9 22c9 4539 36cc 7f3b
00000040: a54e 9439 640e 8fb6 ed01 64bb 43bf b2ba
00000050: 9805 3f36 3015 0eb5 15e8 0f39 015e 1739
00000060: cb19 0239 c4fb e238 8484 cb38 f011 003b
00000070: 24f6 af36 59cf 9637 0378 a638 9841 25b7
00000080: 0981 9e3a 470a ab3a 78a1 a638 a734 c139
00000090: 72c1 b539 dba7 9039 3091 4939 fe5e 1b38
000000a0: 0e2f c7b7 58f0 a43b 367c c636 d053 87b5
000000b0: f444 1d36 e4bd e83b 6621 9cb6 88fc 8339
000000c0: f233 7e37 3926 c2b8 1c0d 03bc f8c8 b838
000000d0: 54ac 1639 ef40 6439 7e46 e838 18e0 3cb6
000000e0: ca0f 14bb 788f 9a3a a180 793b dec9 ca3a
000000f0: 9b13 843b d90d 253c 16db 9538 9a84 b63b
00000100: 9252 533c 61f9 023b 7821 6a36 1a10 00b7
00000110: bb51 6f3b 3ed5 8338 0d19 4338 0f47 8aba
00000120: 55a1 c0ba 7dab c9ba 0ac9 f2bb b7c4 2e39
00000130: d1cb 8538 aecc 793b 56be 943b 57a0 4a3a
00000140: b561 0c3b 3658 2638 5c36 1339 7dab ad38
00000150: 052e 413a a001 863b b221 843a 1bc7 163b
00000160: f37e ba3a 6f3c 693b 947b 1d39 3405 d539
00000170: d522 2bb8 ac02 b9b7 7a9b 5838 b207 133c
00000180: 3447 073c 161b 0c3c ba2b fc3b 0aac 483a
00000190: 3f68 a7ba 25d8 62b8 6edb 9d3a 468d bc3b
000001a0: 2cf9 843b 4e55 7d3c fdda 7f3b 3747 dab7
000001b0: 3acf f53b 214c f73a bc82 8cb8 ee7d f33a
000001c0: 0a0c 023a 7894 3c3b db7d 883b b58c 883b
000001d0: ed18 193c a1c7 8c3b 0bab 173b e1fd 753a
000001e0: 1658 6e3b 5cff c13a f507 0939 3c67 0539
000001f0: 0630 483b a749 8138 20fc d637 be8e d638
00000200: 87e6 0339 69a7 0439 8be7 133b db09 4a3b
00000210: 6406 0a37 0122 91b7 e91d a8b8 e4db 1038
00000220: 9601 b038 1a46 af38 5ee3 823a bd24 2e38
00000230: 4889 e838 e353 883a c78f 40b8 1023 59b8
00000240: 6d9c 27bb dea0 3fba 42a3 eaba 7fce 1738
00000250: 346c 9336 c85b c8b7 d0d2 37b5 5159 26bb
00000260: 3e80 65bb 7c76 c2b9 78cb b9b7 ab6c cc3a
00000270: 47ef 403b 1b16 eeba ba06 09b8 dc7e 0839
00000280: 30c7 55bb 50e0 89b5 c94f 29ba a791 4dbb
00000290: 833c 2abb 94a0 ac36 2ef2 39bb 1b20 63b7
000002a0: b8d4 a9bb 90e0 0abb 8857 38bb 7afc 19bb
000002b0: aa24 c8b8 a4bb aabb 5df5 c1b6 1844 39b8
000002c0: 10a4 e737 2c7e 8137 687b c536 3899 c4b6
000002d0: a9c1 96b8 d87e d9b7 a8f5 03bb 3204 2539
000002e0: 07dd 3839 e4af cdb9 74af 4438 fd59 efba
000002f0: 147a 44bb 9707 c83a 913d 5bb9 c5ba 66b8
00000300: a471 0cb7 b6ca 1138 9488 39b8 4eb9 eab7
00000310: 290f c239 e69c 8339 3021 f735 5ad8 2b3a
00000320: 3991 823a da72 d13b 77ef ea3b f3ee 9e3b
00000330: b76e 8c39 b968 4f3c 3706 0a3b 983d bcb6
00000340: 3912 cb38 e6d9 ce3a d5a3 8db7 0a56 99b9
00000350: 44dd 03bb a566 053b 75e4 883a 2d7b 6537
00000360: 3ae4 9638 4983 35b9 8069 54b7 dea0 8ab7
00000370: 37a7 46b7 79dc 2a37 113e e1b7 e654 b338
00000380: a30c b438 5f40 d038 5b47 b938 8209 8938
00000390: fce6 63b8 a059 b039 1f3e 3ab8 3a74 7d3b
000003a0: b351 c0b8 1aab c3b8 0163 dab8 43f4 9838
000003b0: d712 0b3a 4c60 6f39 31e3 2b3b d392 353b
000003c0: 4765 953a ef28 9438 93aa 2638 8291 543b
000003d0: c8bd df3b 85a5 4d3b 91c8 b13a 77a5 9038
000003e0: 3614 07b8 eeaa 763a 60f8 513a 8421 39b8
000003f0: dbbc 9a3b 09e9 6d37 7a1f d836 1a63 bf38
