pengujian/pengujian_parameter/1/vim/vim_model_4.pth (torch, 611374 bytes, 71 tensors)

cls_token f4 [1, 1, 64]
-0.4539967 -0.87890476 -1.0312854 -1.0365498 -1.8379271 -0.6356414 0.030498821 0.42547593
0.55687183 0.73909414 -0.019258725 0.8656063 -0.83943677 0.94839776 -0.8044042 -1.8673362
-0.04059139 -0.025633337 0.7060808 -0.7280307 1.6480527 -1.2370485 -0.21105964 1.871961
0.36601606 1.0548425 -0.55908245 1.1002816 1.2448791 0.6581749 0.32317474 -0.7906611
-1.2365545 -0.3330003 0.23273024 1.1815975 -1.4791775 1.2729679 1.8610038 0.25744453
0.089629665 -0.36315417 -0.8074782 1.0106921 1.8878444 -1.0548743 0.08719685 -0.22397578
-0.23032586 -0.6205142 0.3216872 1.3007765 -0.8880748 -0.7079949 0.58229697 -0.7032765
0.5044152 -0.54115397 -0.9024116 -0.5159015 -0.29932547 -0.56870633 0.5862088 -0.049744006
00000000: 4172 e8be e7ff 60bf 2901 84bf aaad 84bf
00000010: 3241 ebbf 65b9 22bf aad8 f93c fbd7 d93e
00000020: 278f 0e3f 4635 3d3f 79c4 9dbc 6098 5d3f
00000030: 54e5 56bf 32ca 723f 6fed 4dbf df04 efbf
00000040: 2843 26bd 01fd d1bc b6c1 343f 3860 3abf
00000050: 64f3 d23f 9b57 9ebf 0520 58be 6b9c ef3f
00000060: 7566 bb3e 1405 873f 0720 0fbf 07d6 8c3f
00000070: 3358 9f3f 267e 283f 2977 a53e c468 4abf
00000080: 6b47 9ebf 047f aabe d650 6e3e 963e 973f
00000090: b055 bdbf 9df0 a23f 5f35 ee3f c5cf 833e
000000a0: c28f b73d 58ef b9be e4b6 4ebf 5c5e 813f
000000b0: e3a4 f13f 1f06 87bf 4394 b23d e859 65be
000000c0: 8bda 6bbe 05da 1ebf 2fb4 a43e d87f a63f
000000d0: df58 63bf 273f 35bf 6a11 153f ee09 34bf
000000e0: 5b21 013f 1189 0abf 7204 67bf 1f12 04bf
000000f0: 3041 99be bd96 11bf c811 163f 5fc0 4bbd

to_patch_embedding.1.weight f4 [64, 169]
-0.057879187 -0.019677771 0.028354308 0.04113068 0.018379036 -0.01284675 0.025972001 0.036277905
-0.037173014 -0.029677361 0.08190884 0.008594752 0.051235642 0.061769452 0.007088808 -0.0668151
-0.031590156 -0.049658816 0.0348317 0.05617479 0.034229886 -0.058662508 0.031514894 0.06894463
0.021864997 -0.056972865 -0.012708843 -0.008654103 0.02400752 -0.05134887 -0.007955807 0.019930592
-0.014119577 -0.071835026 0.0158873 -0.026406968 0.079495296 -0.015097836 0.07791508 -0.06275785
-0.016480705 -0.041492358 -0.00637769 -0.05389529 0.019716809 -0.040775977 -0.064547025 0.030133467
-0.003341461 0.07284101 -0.014750586 -0.0418561 0.03208404 -0.053439677 -0.045000453 -0.063899495
-0.03852813 0.06415759 0.023687862 0.008874225 -0.04246224 0.05182212 0.006332589 0.040504277
0.05871467 0.00958884 0.02141274 0.042197887 0.027818395 -0.00040620923 -0.06438884 0.044512432
0.054452684 0.03563851 -0.055523556 -0.013396015 0.06286126 0.015565458 0.019863142 -0.076478854
0.054537084 -0.030257436 0.039802242 0.056768477 0.06697628 -0.04033821 -0.05269482 -0.05087153
-0.010991874 0.032357305 -0.06313522 0.0067297146 -0.0035306932 0.052539982 -0.03502858 0.01161158
-0.051172674 0.039865278 0.024246823 -0.001820127 0.05189329 0.06516787 -0.07993484 0.062682934
-0.072894715 0.024610547 -0.018790528 -0.017935218 -0.0029857391 -0.04975493 0.02637899 0.07187355
0.006147593 0.010872075 -0.051830266 0.043250483 -0.01091564 0.07784559 0.026692549 0.062440995
-0.060899686 0.027850315 0.0013913481 0.071875446 0.07257625 -0.04260049 0.057602204 0.022364961
0.032255244 -0.051203206 0.009493351 0.05890095 0.03210221 0.018172586 0.05228022 -0.0016671004
0.017507212 0.047240343 0.042865913 0.045861423 0.054584913 -0.0009791648 0.050661717 0.04402548
0.045962017 -0.039230436 0.06136763 0.06551537 -0.06332442 0.045476135 -0.053304523 -0.042256728
0.005488771 -0.015957432 0.07772182 0.045923453 0.053450953 0.05170307 0.00025747815 -0.015716601
-0.04217732 -0.027402379 -0.002479565 -0.0058990265 0.0012972928 0.028004065 -0.04542957 0.034453135
0.0040861326 -0.017314699 -0.05746508 0.014238135 -0.0010387484 0.061511435 -0.045602426 0.047592267
0.07136172 -0.027235148 0.004996279 -0.055032857 0.04518047 -0.087737694 -0.055518784 0.06811748
-0.04211927 0.018677648 -0.00086878566 0.07858617 -0.04946985 0.01163743 0.025114654 0.0625043
-0.06692138 -0.015915766 0.047130562 0.0132798 0.04747806 -0.070220694 -0.022143725 -0.0018578134
-0.021328682 -0.014994314 -0.017311769 -0.033626746 0.035789803 -0.0008308809 -0.08159485 -0.049499586
-0.06420669 0.012430507 0.05352723 0.04107289 -0.042655442 0.0810686 -0.0101064015 0.07736707
-0.021184726 0.042146217 -0.008166719 -0.06396481 0.02923137 0.042978402 -0.020527212 0.03774511
0.027834667 0.077190086 -0.026472865 -0.018158937 -0.010621634 -0.05651894 0.06756822 0.025414849
-0.04625963 0.024914704 -0.0077357786 -0.0030161715 -0.015280432 0.03640973 -0.005051738 0.07045989
-0.012762581 0.08578576 -0.021893006 -0.036453437 -0.047137957 0.01274662 -0.02972399 -0.03178675
0.024033835 0.06481618 -0.02754439 0.07294047 -0.0082371645 0.07246514 -0.046163432 -0.041882955
00000000: ba12 6dbd 4733 a1bc 4b47 e83c a578 283d
00000010: a28f 963c 2d7b 52bc 3cc3 d43c 2498 143d
00000020: bb42 18bd f01d f3bc d2bf a73d 01d1 0c3c
00000030: 77dc 513d f701 7d3d 3b49 e83b 5bd6 88bd
00000040: ae64 01bd 0b67 4bbd afab 0e3d 8917 663d
00000050: a334 0c3d 1948 70bd c315 013d d832 8d3d
00000060: 391e b33c 615c 69bd c038 50bc f0c9 0dbc
00000070: 6bab c43c 3153 52bd 1359 02bc 7b45 a33c
00000080: cc55 67bc 3e1e 93bd 1526 823c 6d53 d8bc
00000090: 6ece a23d ea5c 77bc f191 9f3d 3087 80bd
000000a0: 8b02 87bc e4f3 29bd f1fb d0bb 4fc1 5cbd
000000b0: 2585 a13c b604 27bd 3b31 84bd 76da f63c
000000c0: 6afc 5abb ab2d 953d 71ac 71bc 4d71 2bbd
000000d0: 8e6a 033d 90e3 5abd 6552 38bd bddd 82bd
000000e0: accf 1dbd 0e65 833d 0c0d c23c 3365 113c
000000f0: e3ec 2dbd 6e43 543d 9b81 cf3b d0e7 253d
00000100: cb7e 703d 831a 1d3c c569 af3c b1d7 2c3d
00000110: 67e3 e33c 7bf8 d4b9 4cde 83bd ab52 363d
00000120: c709 5f3d b0f9 113d ab6c 63bd f67a 5bbc
00000130: 67bd 803d 4306 7f3c 07b8 a23c f2a0 9cbd
00000140: 4762 5f3d 71de f7bc ad07 233d 1086 683d
00000150: dc2a 893d ae39 25bd 86d6 57bd aa5e 50bd
00000160: 4317 34bc 1889 043d 0a4d 81bd f084 dc3b
00000170: 3463 67bb 2a34 573d 217a 0fbd 7f3e 3e3c
00000180: 709a 51bd c649 233d 46a1 c63c 5491 eeba
00000190: 0f8e 543d bb76 853d e1b4 a3bd e95f 803d
000001a0: d349 95bd 0f9c c93c 98ee 99bc e1ec 92bc
000001b0: 64ac 43bb d3cb 4bbd c018 d83c 7132 933d
000001c0: bf71 c93b ca20 323c f94b 54bd 6b27 313d
000001d0: 83d7 32bc 826d 9f3d 55aa da3c 21c2 7f3d
000001e0: f371 79bd 5826 e43c e55d b63a 6f33 933d
000001f0: dba2 943d da7d 2ebd 4af0 6b3d b936 b73c
00000200: 131e 043d 74ba 51bd 008a 1b3c 1f42 713d
00000210: 9b7d 033d adde 943c c923 563d 9b82 daba
00000220: 496b 8f3c 177f 413d 2b94 2f3d 30d9 3b3d
00000230: 6e94 5f3d 5257 80ba a982 4f3d 1054 343d
00000240: ab42 3c3d 18b0 20bd a05c 7b3d ec2c 863d
00000250: 3cb0 81bd 2f45 3a3d d855 5abd 6415 2dbd
00000260: 26db b33b 29b9 82bc 9e2c 9f3d 3b1a 3c3d
00000270: 63ef 5a3d 99c6 533d 22fe 8639 1ac0 80bc
00000280: 20c2 2cbd f47a e0bc 3380 22bb 9f4c c1bb
00000290: ec09 aa3a c868 e53c 5b14 3abd bb1e 0d3d
000002a0: f7e4 853b 8ed7 8dbc 8160 6bbd 1147 693c
000002b0: 9d26 88ba 6af3 7b3d 9cc9 3abd 1cf0 423d
000002c0: 1826 923d 3f1c dfbc d3b7 a33b 226a 61bd
000002d0: 280f 393d d2af b3bd aa67 63bd 2d81 8b3d
000002e0: 4185 2cbd de01 993c 38bf 63ba c9f1 a03d
000002f0: e6a0 4abd ebaa 3e3c 3fbd cd3c 4102 803d
00000300: 140e 89bd c861 82bc fa0b 413d 8593 593c
00000310: 5b78 423d decf 8fbd c266 b5bc e081 f3ba
00000320: 7db9 aebc b6aa 75bc 69d1 8dbc 33bc 09bd
00000330: 5498 123d 79cf 59ba 331b a7bd 14c0 4abd
00000340: cc7e 83bd 53a9 4b3c 5e3f 5b3d 0c3c 283d
00000350: 79b7 2ebd 4b07 a63d 5295 25bc a072 9e3d
00000360: 978b adbc 83a1 2c3d b4cd 05bc fbff 82bd
00000370: a076 ef3c 1f0a 303d af28 a8bc 9e9a 1a3d
00000380: 8705 e43c d615 9e3d 9fdd d8bc 0dc2 94bc
00000390: 5d06 2ebc 6780 67bd 3561 8a3d cd32 d03c
000003a0: bd7a 3dbd ec19 cc3c 6a7c fdbb f6aa 45bb
000003b0: c75a 7abc 5e22 153d 0d89 a5bb 464d 903d
000003c0: 251a 51bc 72b0 af3d f658 b3bc 3350 15bd
000003d0: bb13 41bd 33d7 503c ba7f f3bc d332 02bd
000003e0: 9be2 c43c 58be 843d c6a4 e1bc d061 953d
000003f0: 2cf5 06bc 9a68 943d de15 3dbd 768d 2bbd

to_patch_embedding.1.bias f4 [64]
-0.004182468 0.047648694 -0.070213124 -0.06511475 -0.008788256 -0.06767962 -0.037723433 -0.01606017
-0.01955664 -0.06013758 0.064275965 -0.039961837 -0.014982602 -0.036485795 0.020656742 -0.06919205
0.026687562 0.06433884 0.033533864 0.045323916 0.034263685 -0.037539665 -0.012644131 0.0015295845
-0.017623078 -0.028784795 0.043965448 -0.04798986 -0.028766448 0.04053948 0.027209563 0.05040474
0.027145913 -0.04431952 0.01154504 -0.021777969 0.010126235 0.017022144 -0.019385012 -0.029718352
0.026606418 0.014537945 0.041422814 -0.03638863 0.01936926 0.05682744 0.033902064 -0.04451926
-0.03859819 0.016662832 -0.048016623 -0.0009251869 0.0051788064 0.0060369098 -0.001991708 0.007755744
-0.008251637 -0.05927953 -0.036296904 -0.04252966 -0.0019895292 0.001322779 0.004200144 0.048016902
00000000: 160d 89bb 472b 433d e6cb 8fbd e25a 85bd
00000010: 9efc 0fbc 9d9b 8abd e383 1abd 9e90 83bc
00000020: 3f35 a0bc d352 76bd 1ea3 833d 06af 23bd
00000030: 9679 75bc 2172 15bd 5438 a93c 90b4 8dbd
00000040: e09f da3c 15c4 833d ce5a 093d 92a5 393d
00000050: 1458 0c3d 31c3 19bd 5429 4fbc 577c c83a
00000060: 465e 90bc 17ce ebbc 1d15 343d 0491 44bd
00000070: 9da7 ebbc ba0c 263d 97e6 de3c 3375 4e3d
00000080: 1b61 de3c 6388 35bd 6827 3d3c b667 b2bc
00000090: 82e8 253c 0672 8b3c 51cd 9ebc e773 f3bc
000000a0: b4f5 d93c 9030 6e3c f8aa 293d 3e0c 15bd
000000b0: 48ac 9e3c e4c3 683d e4dc 0a3d d459 36bd
000000c0: 2319 1ebd 7e80 883c 14ad 44bd 3e88 72ba
000000d0: fab2 a93b 45d1 c53b 5187 02bb e523 fe3b
000000e0: e031 07bc 18cf 72bd 10ac 14bd 9533 2ebd
000000f0: c362 02bb 1961 ad3a 5da1 893b 5fad 443d

layers.0.forward_conv1d.weight f4 [64, 64, 1]
0.056077044 0.05604698 -0.05715028 -0.060794737 0.079321794 0.08572232 0.034402322 0.024962056
-0.039889954 0.059217725 -0.0012227143 0.045728896 -0.0030856794 0.05417056 0.07757532 0.02809612
0.051773727 0.07864559 -0.01219006 0.07212154 0.049571864 -0.027411563 0.029392371 -0.0066237557
-0.018133458 -0.027976403 -0.05265429 0.04758148 -0.03398897 0.07570633 0.027642552 -0.013263593
-0.037314676 -0.009923154 -0.032662574 0.050700203 0.04085862 0.029025136 -0.09318451 -0.008298122
0.082540736 0.074682556 0.01795189 -0.026966272 0.0071710106 0.046683416 -0.050960224 -0.046330497
0.036719937 0.00054832856 0.054939672 0.011595161 -0.08268513 -0.0699199 -0.039410014 -0.040095426
-0.020078618 0.07132421 -0.013277091 0.049865372 -0.056838926 0.034212306 -0.028756453 0.038171373
0.0514319 0.111157976 0.06875298 -0.10384816 -0.030668532 0.027055502 0.04641398 -0.03404173
0.06815257 0.001619364 0.055153195 0.0017767532 0.08981164 -0.007464287 0.08486858 0.0007573579
0.07751509 0.012979785 0.03268734 0.05698159 -0.04111718 0.039196227 -0.0023960916 -0.06346511
0.0071924706 -0.047447067 0.05552873 -0.016613882 0.04522741 -0.036526404 -0.0125878975 -0.07519314
0.044949006 -0.052267738 0.021570321 0.05240247 0.024282685 -0.038213484 0.07337812 -0.035021346
0.0046709883 -0.02559206 -0.07512807 -0.057896882 0.08431119 -0.056265976 -0.067949675 0.048665315
0.03691409 0.031500086 0.03941776 0.079359144 0.03937608 -0.004087819 0.09482957 0.035067227
-0.06349771 0.07921877 0.06925317 -0.04896334 0.042684186 -0.04598324 -0.010689188 0.040137906
0.030213395 -0.011349009 -0.07394763 -0.07191366 0.01616659 -0.06757018 0.06503769 0.06059653
-0.06698945 -0.015510829 0.03255299 -0.013092645 0.015546442 -0.05060368 0.021311633 -0.057248358
-0.06486902 0.03087662 -0.07148426 -0.058240816 -0.033880804 0.038107034 0.07659671 -0.061064746
0.09582989 -0.035697322 -0.08241361 0.09714297 -0.010594372 0.04935639 0.06707699 0.032346208
0.020989057 -0.0670611 0.04712199 -0.017734462 -0.033097524 0.06523877 -0.021627316 -0.009288934
0.002911825 0.033159018 -0.01908285 -0.059811793 0.0571642 0.049428537 -0.057481144 -0.015429065
0.036410987 0.04582701 0.008476334 0.057668537 -0.05608437 0.07682223 -0.063024625 0.0065128654
-0.058067553 0.0011235336 -0.032458715 0.03818637 -0.08930607 -0.028835148 0.06583832 0.020941833
-0.024075268 0.08756962 0.030433316 0.023119591 -0.031922795 0.09541502 0.03722919 0.05045324
0.063779876 -0.0022455552 0.082479574 0.10115114 0.024110718 0.02705605 0.005067877 -0.0001730088
-0.026469635 -0.040370937 -0.10032754 0.0460787 -0.021018503 -0.0615964 0.014972168 0.03781128
0.025407055 0.027350238 -0.049221974 -0.07493002 0.052796952 -0.049726095 0.057036176 -0.06893874
-0.053401142 -0.060579326 -0.009282825 -0.028636262 0.010750327 -0.026402188 0.07715916 -0.082435034
0.06867499 -0.0229263 -0.08578907 0.059037432 -0.013534263 0.009663159 -0.058841243 0.056734934
-0.0108571835 0.005347318 0.036108915 0.010023932 -0.0453874 -0.030120233 -0.03269174 0.014422251
-0.048664857 -0.04488847 -0.013603359 -0.047407653 -0.07569976 -0.08571752 -0.09040343 0.10205984
00000000: 0bb1 653d 8591 653d 6916 6abd e703 79bd
00000010: 7773 a23d 2f8f af3d 73e9 0c3d 3a7d cc3c
00000020: a663 23bd 498e 723d 7c43 a0ba 394e 3b3d
00000030: 1c39 4abb f3e1 5d3d cfdf 9e3d d629 e63c
00000040: b010 543d f010 a13d d1b8 47bc 75b4 933d
00000050: de0b 4b3d 378e e0bc 45c8 f03c 170c d9bb
00000060: 9e8c 94bc c52e e5bc 06ac 57bd cce4 423d
00000070: 0538 0bbd ec0b 9b3d a272 e23c 8b4f 59bc
00000080: 46d7 18bd b994 22bc 31c9 05bd 04ab 4f3d
00000090: 5e5b 273d 1fc6 ed3c 85d7 bebd d9f4 07bc
000000a0: 1e0b a93d 2bf3 983d d80f 933c 5fe8 dcbc
000000b0: ccfa ea3b 1c37 3f3d abbb 50bd 0cc5 3dbd
000000c0: a567 163d b5bd 0f3a 6c08 613d a1f9 3d3c
000000d0: d256 a9bd 2a32 8fbd 656c 21bd 1a3b 24bd
000000e0: ea7b a4bc 6d12 923d 2888 59bc a23f 4c3d
000000f0: efcf 68bd 3422 0c3d a792 ebbc 9659 1c3d
00000100: 42aa 523d cba6 e33d 5dce 8c3d 58ae d4bd
00000110: 933c fbbc 80a3 dd3c 961c 3e3d 576f 0bbd
00000120: 9393 8b3d d740 d43a 51e8 613d f2e1 e83a
00000130: 2aef b73d fa96 f4bb 94cf ad3d 6e89 463a
00000140: 3bc0 9e3d 2aa9 543c 29e3 053d 8765 693d
00000150: 7d6a 28bd 398c 203d bf07 1dbb fff9 81bd
00000160: d1ae eb3b db57 42bd 1872 633d d619 88bc
00000170: 6040 393d b69c 15bd 783d 4ebc dcfe 99bd
00000180: 731c 383d b216 56bd 3eb4 b03c f9a3 563d
00000190: 7bec c63c be85 1cbd 4547 963d 8b72 0fbd
000001a0: 170f 993b 71a6 d1bc bfdc 99bd 4825 6dbd
000001b0: 58ab ac3d 2777 66bd 3329 8bbd 4855 473d
000001c0: 3b33 173d 3c06 013d 8474 213d 0c87 a23d
000001d0: d048 213d 1cf3 85bb 0136 c23d a7a2 0f3d
000001e0: 160b 82bd 733d a23d 9bd4 8d3d c98d 48bd
000001f0: 9dd5 2e3d ec58 3cbd b421 2fbc a567 243d
00000200: 1582 f73c 32f1 39bc db71 97bd 7847 93bd
00000210: cc6f 843c 3c62 8abd 7b32 853d 1134 783d
00000220: c431 89bd 2221 7ebc 4956 053d 8982 56bc
00000230: 81b6 7e3c ce45 4fbd bc95 ae3c 417d 6abd
00000240: 0cda 84bd f7f0 fc3c 5766 92bd ec8d 6ebd
00000250: 99c6 0abd 1f16 1c3d bcde 9c3d 071f 7abd
00000260: 7642 c43d 5b37 12bd 77c8 a8bd e5f2 c63d
00000270: 0494 2dbc ed29 4a3d a95f 893d 757d 043d
00000280: 3ef1 ab3c 5457 89bd fd02 413d dd47 91bc
00000290: 4591 07bd e79b 853d c52b b1bc 9d30 18bc
000002a0: 51d4 3e3b c0d1 073d a353 9cbc 36fd 74bd
000002b0: 0225 6a3d 9475 4a3d 5971 6bbd 30ca 7cbc
000002c0: b023 153d 1ab5 3b3d 52e0 0a3c d835 6c3d
000002d0: b9b8 65bd f954 9d3d 0e13 81bd e069 d53b
000002e0: 3ed8 6dbd 8843 933a 6ef3 04bd 5069 1c3d
000002f0: 1ae6 b6bd b037 ecbc 3ed6 863d 358e ab3c
00000300: 7f39 c5bc b357 b33d 4a4f f93c 4c65 bd3c
00000310: 7ac1 02bd f368 c33d a37d 183d 0ea8 4e3d
00000320: 069f 823d 2a2a 13bb 0deb a83d 5428 cf3d
00000330: d783 c53c a6a4 dd3c 6f10 a63b b269 35b9
00000340: d9d6 d8bc ff5b 25bd 8678 cdbd 05bd 3c3d
00000350: ff2e acbc 824c 7cbd d34d 753c 00e0 1a3d
00000360: 7522 d03c 9b0d e03c fb9c 49bd e974 99bd
00000370: 9e41 583d 97ad 4bbd c49e 693d c12f 8dbd
00000380: 28bb 5abd 0722 78bd fd16 18bc 9896 eabc
00000390: 2422 303c 6749 d8bc 9f05 9e3d b3d3 a8bd
000003a0: 79a5 8c3d f0cf bbbc 2eb2 afbd 3cd1 713d
000003b0: d0be 5dbc 3a52 1e3c 8403 71bd e462 683d
000003c0: 54e2 31bc 8e38 af3b f1e6 133d 6b3b 243c
000003d0: 23e8 39bd b5be f6bc c6e7 05bd 4e4b 6c3c
000003e0: cd54 47bd f9dc 37bd a0e0 5ebc 872e 42bd
000003f0: 7a08 9bbd ab8c afbd 6f25 b9bd c004 d13d

layers.0.forward_conv1d.bias f4 [64]
-0.09503556 0.04387565 0.07741162 0.050916076 -0.014468727 -0.03542895 -0.0053567556 0.10839989
0.020045763 0.0680603 -0.07604423 -0.10950781 -0.005322991 -0.08400204 -0.08465399 -0.083455905
0.104100995 0.065495424 0.030849416 0.048548482 0.031142002 -0.022427164 -0.030050177 0.022088263
0.008546271 -0.047286265 -0.06402716 0.03178745 0.006293181 -0.087127954 -0.1113154 0.019614799
-0.060653478 0.05646837 -0.027469072 -0.070297144 0.073283166 -0.007957169 -0.006954336 0.006491285
0.020571766 -0.054887407 0.043015875 -0.047348287 0.09800969 0.03416783 0.07520737 -0.0039204806
-0.018052468 0.04283696 0.058673628 0.111451045 -0.006748211 -0.040830217 0.02227911 0.055566616
-0.044010594 -0.09293932 0.06938766 0.071521334 -0.069675334 -0.027359074 0.07831445 -0.08397781
00000000: 01a2 c2bd f4b6 333d fc89 9e3d 608d 503d
00000010: 3d0e 6dbc f21d 11bd b987 afbb c300 de3d
00000020: 0337 a43c 3363 8b3d 14bd 9bbd a145 e0bd
00000030: 7c6c aebb 4309 acbd 125f adbd eeea aabd
00000040: e732 d53d 7722 863d eab7 fc3c c6da 463d
00000050: 831d ff3c 2cb9 b7bc ca2b f6bc 72f2 b43c
00000060: a905 0c3c 3eaf 41bd ac20 83bd 8f33 023d
00000070: 0737 ce3b 2470 b2bd 54f9 e3bd 37af a03c
00000080: c86f 78bd 614b 673d d206 e1bc f3f7 8fbd
00000090: 7c15 963d c95e 02bc 33e1 e3bb d8b4 d43b
000000a0: 1f86 a83c 9ed1 60bd 6a31 303d 47f0 41bd
000000b0: 4eb9 c83d 91f3 0b3d 5206 9a3d 6077 80bb
000000c0: c5e2 93bc cf75 2f3d c253 703d 7240 e43d
000000d0: 1920 ddbb 963d 27bd ae82 b63c d299 633d
000000e0: 7444 34bd f856 bebd 1e1b 8e3d c779 923d
000000f0: f1b1 8ebd 2320 e0bc 5463 a03d 8ffc abbd

layers.0.backward_conv1d.weight f4 [64, 64, 1]
0.087262064 0.012681603 0.04632008 0.08312738 0.0015212931 -0.06191124 0.09383626 0.105420485
0.04829238 -0.070509925 0.030382477 -0.035821024 -0.04933403 -0.047396414 -0.05851187 0.02591366
0.059188835 0.04744187 0.02711515 0.034814533 0.027831223 0.018282663 -0.05080508 0.016618984
0.031530093 0.07511891 0.0018423698 -0.015909499 -0.02468548 0.0068293987 -0.051255595 0.003620223
0.004922131 0.023965454 -0.022800634 0.022682063 0.03933864 -0.0038378492 0.0608188 -0.034625247
0.072838195 -0.01800636 -0.040852856 -0.051406447 0.05014877 -0.045260545 0.073785864 -0.04046913
0.016715258 0.059426572 0.05746908 -0.06013244 -0.088396706 0.06410931 -0.047837537 -0.009259686
0.0978042 0.06886881 0.0524362 -0.09282818 0.0002117446 0.017689252 0.073769085 0.026178353
-0.018654227 0.04381497 0.015880505 0.049485505 0.042205956 -0.0051312624 0.060254615 -0.0745812
0.03997099 -0.021737479 -0.027950533 -0.026046762 0.0036002956 -0.05005135 0.046001043 -0.013139125
0.007227554 -0.00022537335 -0.019191727 0.052284688 0.04572136 0.057304025 0.0011050563 -0.0056857457
0.010874298 0.027879622 0.04018453 0.05073166 -0.05971988 -0.053778 -0.00928472 -0.031733662
-0.091337904 -0.030748641 -0.012830625 0.047618955 0.09624387 -0.021543004 0.0696149 0.03714204
0.015792131 -0.008730018 0.0033191778 -0.013230612 0.030585622 -0.020020822 -0.060840238 -0.0025314982
-0.09377389 0.06303554 -0.06554185 -0.085618906 -0.044676714 -0.077809125 0.036485616 -0.023323355
0.017894791 -0.026734749 0.025693778 -0.06606702 -0.051190667 -0.027357955 -0.033431876 0.05628904
-0.098281875 0.06421196 0.08304224 0.07256376 0.03517908 0.06458441 0.040511575 0.06420556
-0.07074375 -0.040034022 -0.013066718 -0.041339427 -0.011525817 0.05539889 -0.014776113 0.008108718
0.063679166 0.08831434 -0.03795748 -0.015990537 0.013003569 -0.017836813 -0.077416316 0.025687736
0.044181507 -0.0424442 0.0800217 0.037618842 0.044485476 0.015880385 -0.051342603 -0.03204548
-0.04856616 0.017905964 0.023626486 0.08980205 0.0743493 -0.015312491 -0.04969464 0.081468664
0.044999123 0.0690012 -0.054131184 -0.01806554 -0.013564012 0.03272372 0.01406265 0.012309631
-0.0022595685 -0.014547168 -0.0751776 -0.0040179784 -0.08770986 -0.010715585 0.008078657 -0.033481877
-0.0789762 0.07292292 0.045463 0.056980003 -0.085747816 0.090594634 0.062244214 0.016091121
-0.07129318 0.004897602 0.035842728 -0.025519762 0.07930545 -0.0043727476 0.058075383 -0.047917593
0.019518107 0.04420331 0.058277465 -0.030111846 -0.008902321 0.061261967 0.023128776 -0.039408457
-0.0015157429 0.02658887 0.059728943 0.043873016 -0.06083957 -0.06380094 -0.1004523 -0.065597914
0.023754615 0.082693465 0.10026343 0.07728951 0.061369505 -0.06077066 0.09393472 0.021830868
0.050459445 0.06095074 0.028716085 -0.04648287 0.08011977 -0.030345686 0.05986996 -0.07289612
-0.04370244 0.064730816 -0.03965035 0.07314891 0.04088638 0.090716325 -0.030168798 -0.055732895
-0.07929598 0.006783482 -0.007118789 0.019211648 -0.011893962 -0.058544487 0.06875157 0.024564156
-0.038533766 0.07569988 -0.0520313 -0.003516571 -0.014175038 -0.006508226 0.08538719 -0.016059088
00000000: 74b6 b23d 80c6 4f3c 20ba 3d3d b03e aa3d
00000010: 2066 c73a a496 7dbd 3a2d c03d b2e6 d73d
00000020: 3bce 453d 8267 90bd ace4 f83c 11b9 12bd
00000030: 7b12 4abd be22 42bd 25aa 6fbd e248 d43c
00000040: fe6f 723d 6852 423d 9720 de3c af99 0e3d
00000050: 4efe e33c 86c5 953c fd18 50bd 8924 883c
00000060: b325 013d f1d7 993d ac7b f13a a354 82bc
00000070: 3439 cabc 26c9 df3b 63f1 51bd 4341 6d3b
00000080: d449 a13b 3353 c43c 65c8 babc bccf b93c
00000090: 8e21 213d 6d84 7bbb 221d 793d 34d3 0dbd
000000a0: 312c 953d 1382 93bc 5355 27bd 918f 52bd
000000b0: cc68 4d3d 1f63 39bd 0b1d 973d f5c2 25bd
000000c0: 70ee 883c 4769 733d b364 6b3d 6f4d 76bd
000000d0: 5509 b5bd be4b 833d 4bf1 43bd f0b5 17bc
000000e0: 924d c83d 170b 8d3d 57c7 563d b31c bebd
000000f0: c207 5e39 0de9 903c 3f14 973d fc73 d63c
00000100: c0d0 98bc 5377 333d d517 823c 50b1 4a3d
00000110: 27e0 2c3d 2624 a8bb 8bcd 763d 07be 98bd
00000120: 9fb8 233d cc12 b2bc 84f8 e4bc 0560 d5bc
00000130: f0f2 6b3b a502 4dbd 976b 3c3d 7c45 57bc
00000140: 1ed5 ec3b 3352 6cb9 f837 9dbc 7828 563d
00000150: 5246 3b3d a0b7 6a3d 89d7 903a 7e4f babb
00000160: 1d2a 323c ce63 e43c 8998 243d 00cc 4f3d
00000170: d59c 74bd 5246 5cbd f01e 18bc 28fb 01bd
00000180: 5e0f bbbd 93e4 fbbc 8b37 52bc 180c 433d
00000190: 821b c53d f47a b0bc 4292 8e3d 4022 183d
000001a0: 805e 813c 5908 0fbc 9086 593b 35c5 58bc
000001b0: b38e fa3c b502 a4bc 9d33 79bd 7ee7 25bb
000001c0: 860c c0bd c718 813d ce3a 86bd f758 afbd
000001d0: eefe 36bd 645a 9fbd f171 153d 9f10 bfbc
000001e0: 1998 923c d502 dbbc c27b d23c 254e 87bd
000001f0: 4ead 51bd ca1d e0bc ddef 08bd 568f 663d
00000200: 0248 c9bd 8f81 833d 0d12 aa3d 4f9c 943d
00000210: f017 103d d544 843d 77ef 253d 347e 833d
00000220: 19e2 90bd b7fa 23bd ca15 56bc 8853 29bd
00000230: c8d6 3cbc f2e9 623d 8317 72bc 6eda 043c
00000240: 396a 823d 26de b43d 4d79 1bbd 96fe 82bc
00000250: ec0c 553c 821e 92bc 728c 9ebd 166f d23c
00000260: abf7 343d f8d9 2dbd 6be2 a33d 3716 1a3d
00000270: 6736 363d 9517 823c 9f4c 52bd 1f42 03bd
00000280: 4fed 46bd 87af 923c 558c c13c 23ea b73d
00000290: 7244 983d 3ee1 7abc 9b8c 4bbd 0bd9 a63d
000002a0: 0051 383d 8050 8d3d a9b8 5dbd 2ffe 93bc
000002b0: 973b 5ebc 4f09 063d 0767 663c 56ae 493c
000002c0: 4515 14bb 3f57 6ebc b7f6 99bd 3fa9 83bb
000002d0: 3aa1 b3bd 6c90 2fbc 585c 043c 4b24 09bd
000002e0: 46be a1bd 9d58 953d 6937 3a3d dd63 693d
000002f0: 8d9c afbd ae89 b93d caf3 7e3d 87d1 833c
00000300: 2902 92bd 107c a03b d3cf 123d d20e d1bc
00000310: e56a a23d 4449 8fbb 74e0 6d3d 3d45 44bd
00000320: 70e4 9f3c 880e 353d 5ab4 6e3d 1ead f6bc
00000330: 0adb 11bc d4ed 7a3d 8f78 bd3c c36a 21bd
00000340: e4ab c6ba e7d0 d93c 56a6 743d 31b4 333d
00000350: ea32 79bd 11aa 82bd efb9 cdbd 3358 86bd
00000360: 0a99 c23c 315b a93d ea56 cd3d f649 9e3d
00000370: 975e 7b3d a8ea 78bd d960 c03d a6d6 b23c
00000380: 90ae 4e3d 7ca7 793d ff3d eb3c d264 3ebd
00000390: d515 a43d 8497 f8bc 343a 753d 904a 95bd
000003a0: 5401 33bd 9791 843d 6868 22bd 19cf 953d
000003b0: 7a78 273d 7bc9 b93d 8e24 f7bc 2d48 64bd
000003c0: ee65 a2bd f947 de3b bb44 e9bb bf61 9d3c
000003d0: e4de 42bc 58cc 6fbd a0cd 8c3d c53a c93c
000003e0: 95d5 1dbd 8a08 9b3d c61e 55bd 4576 66bb
000003f0: 6b3e 68bc f542 d5bb 7bdf ae3d 598e 83bc

layers.0.backward_conv1d.bias f4 [64]
0.05236318 -0.044221386 -0.09090082 -0.008176203 -0.03439593 -0.03670525 -0.0900304 0.048125315
-0.0524111 0.047908984 -0.082306035 -0.02815478 0.00675295 0.009881587 0.07179826 -0.03653098
-0.015467213 -0.109996825 0.03558946 3.288264e-05 -0.070618704 -0.043642864 -0.029953225 0.08348931
0.010364297 -0.042459067 0.052489802 -0.043451563 0.09824669 -0.04509464 -0.01795597 -0.018430056
0.08180277 -0.07910121 -0.026956458 0.03990163 0.06190507 0.06254037 -0.020552747 -0.021353101
-0.050895307 0.02567666 -0.08933098 0.0017442892 0.07333881 -0.050049238 0.054185126 -0.08258849
-0.07407162 -0.07064661 -0.09305332 -0.014170277 0.01574138 0.016079886 0.021701517 -0.054238617
-0.055348635 -0.08109851 0.013485109 -0.017916821 -0.082045384 -0.09463251 -0.042686224 0.08737463
00000000: c67a 563d 7c21 35bd 362a babd 7bf5 05bc
00000010: bfe2 0cbd 3f58 16bd dc61 b8bd 0d1f 453d
00000020: 06ad 56bd 363c 443d 1190 a8bd daa4 e6bc
00000030: da47 dd3b 61e6 213c f70a 933d 82a1 15bd
00000040: 316a 7dbc 0446 e1bd 41c6 113d 77eb 0938
00000050: 8aa0 90bd dcc2 32bd 7760 f5bc 72fc aa3d
00000060: 03cf 293c 8fe9 2dbd 8cff 563d 44fa 31bd
00000070: 9035 c93d 28b5 38bd 6618 93bc a1fa 96bc
00000080: 3688 a73d d1ff a1bd cad3 dcbc e46f 233d
00000090: 2c90 7d3d 2a15 803d 3c5e a8bc b3ec aebc
000000a0: 9977 50bd dc57 d23c 29f3 b6bd a2a0 e43a
000000b0: a832 963d 6e00 4dbd 39f1 5d3d 2724 a9bd
000000c0: ddb2 97bd 2baf 90bd bd92 bebd 732a 68bc
000000d0: 11f4 803c f7b9 833c 61c7 b13c 5029 5ebd
000000e0: 40b5 62bd fa16 a6bd a6f0 5c3c 4cc6 92bc
000000f0: 6907 a8bd b0ce c1bd c0d7 2ebd 78f1 b23d

layers.0.norm.weight f4 [64]
0.9739991 0.96045727 0.97336406 0.9565628 0.9623457 0.9715203 0.97718996 0.87860024
0.8718668 0.9653228 0.9615772 0.9562914 0.9453226 0.9378606 0.9366362 0.9705428
0.9580258 0.9619134 0.96278334 0.9568528 0.94795066 0.94024974 0.9428124 0.9632928
0.92489964 0.9700941 0.9582715 0.9782406 0.92096317 0.9411104 0.9425293 0.9490391
0.9448269 0.94654024 0.97201335 0.94881386 0.9261998 0.92241967 0.9652013 0.9530018
0.9193794 0.9538131 0.95455194 0.9212987 0.91272527 0.9663248 0.94676507 0.94721013
0.9575496 0.93444294 0.98572886 0.9699567 0.8860855 0.8919485 0.9350238 0.9468596
0.95822656 0.9465251 0.93080896 0.9683113 0.92693037 0.9284521 0.9496593 0.96553653
00000000: 0158 793f 87e0 753f 632e 793f 4de1 743f
00000010: 4a5c 763f 8eb5 783f 1f29 7a3f f2eb 603f
00000020: aa32 5f3f 651f 773f ec29 763f 83cf 743f
00000030: a900 723f a217 703f 64c7 6f3f 7e75 783f
00000040: 2e41 753f f53f 763f f878 763f 4ef4 743f
00000050: e5ac 723f 35b4 703f 275c 713f 5b9a 763f
00000060: 39c6 6c3f 1658 783f 4851 753f fa6d 7a3f
00000070: 3ec4 6b3f 9cec 703f 9a49 713f 3af4 723f
00000080: 2de0 713f 7650 723f ded5 783f 77e5 723f
00000090: 6e1b 6d3f b223 6c3f 6f17 773f edf7 733f
000000a0: 735c 6b3f 182d 743f 845d 743f 3bda 6b3f
000000b0: 5da8 693f 1061 773f 325f 723f 5d7c 723f
000000c0: f821 753f a737 6f3f ba58 7c3f 154f 783f
000000d0: 80d6 623f bd56 643f b85d 6f3f 6465 723f
000000e0: 564e 753f 784f 723f 7f49 6e3f 40e3 773f
000000f0: 4f4b 6d3f 09af 6d3f df1c 733f 672d 773f

layers.0.norm.bias f4 [64]
0.0031423823 -0.001712459 0.00073734304 0.007839903 0.005626135 -0.00094162364 0.002500861 0.002736178
0.0054235854 0.004589882 -0.006654418 -0.0007760119 -0.003248562 0.0018731758 -0.007936075 0.0007835274
-0.0033482073 -0.0049002417 -0.0052532433 -0.0023488572 -0.014413042 0.0039799926 -0.0034516146 0.0018494492
-8.597251e-05 0.00876575 -0.00707361 0.008024814 0.009223804 -0.008771597 0.0032514671 -0.0015402721
-0.0054822816 0.003272931 0.0030443657 -0.0017813421 0.003467325 0.002720034 0.00086498994 0.0033707859
-0.005803502 0.00393934 -0.0055945255 -0.0045990245 -0.0014869448 0.002418887 0.0035011377 0.004493615
-0.0019427473 -0.005689028 0.0023232386 0.007061353 -0.004900013 0.0031645421 -0.0037182427 0.00884381
-0.006923788 0.008148738 0.0064421883 -0.0026172057 0.006883766 -0.0017286581 -0.018515944 -0.0016610826
00000000: 6df0 4d3b 9774 e0ba 414a 413a f072 003c
00000010: 715b b83b 4bd7 76ba 7ce5 233b 7351 333b
00000020: 55b8 b13b b966 963b 4e0d dabb 476d 4bba
00000030: d4e5 54bb 5a85 f53a 5006 02bc a265 4d3a
00000040: 996d 5bbb 3592 a0bb 6623 acbb 49ef 19bb
00000050: ae24 6cbc 996a 823b 7c34 62bb 3869 f23a
00000060: 244c b4b8 389e 0f3c bec9 e7bb 827a 033c
00000070: 701f 173c bfb6 0fbc 9116 553b f5e2 c9ba
00000080: b6a4 b3bb ac7e 563b fb83 473b ec7b e9ba
00000090: 0f3c 633b 9942 323b 7ec0 623a 67e8 5c3b
000000a0: 4e2b bebb 9415 813b 4852 b7bb 6ab3 96bb
000000b0: 97e5 c2ba 3186 1e3b 5873 653b 2d3f 933b
000000c0: c8a3 feba 076b babb 7a41 183b ec62 e73b
000000d0: 4a90 a0bb 3564 4f3b c3ad 73bb a1e5 103c
000000e0: f2e0 e2bb 4982 053c fe18 d33b 6d85 2bbb
000000f0: 3791 e13b 2494 e2ba c0ae 97bc afb8 d9ba

layers.0.ssm.A_log f4 [64, 64]
-0.00047327764 0.29703602 0.6849851 0.96476793 1.1845967 1.3648973 1.5175189 1.6500505
1.7670612 1.8717947 1.9665979 2.053162 2.132824 2.2066164 2.2753162 2.3395796
2.3999813 2.4569314 2.5108016 2.561944 2.610588 2.6569548 2.701258 2.743691
2.7844038 2.8235176 2.861156 2.8974273 2.9324274 2.9662418 2.9989681 3.0306554
3.0613654 3.091158 3.120086 3.148198 3.1755385 3.2021494 3.2280679 3.2533298
3.277981 3.3020334 3.3255203 3.3484664 3.370897 3.3928337 3.4142978 3.4353116
3.4558935 3.47606 3.4958262 3.515208 3.5342207 3.5528777 3.5711744 3.5891747
3.6068408 3.624202 3.6412826 3.6580577 3.6745489 3.6908078 3.7067845 3.7225013
-0.000511502 0.2980809 0.69438446 0.9646634 1.1844324 1.3647445 1.5175245 1.6500493
1.7670624 1.8717922 1.9665987 2.0531614 2.1328306 2.206617 2.2753124 2.339578
2.3999834 2.4569297 2.510803 2.5619445 2.6105883 2.6569548 2.7012582 2.7436912
2.7844038 2.8235176 2.8611557 2.897427 2.9324274 2.9662418 2.9989681 3.0306554
3.0613654 3.091158 3.120086 3.148198 3.1755385 3.2021494 3.2280679 3.2533298
3.277981 3.3020334 3.3255203 3.3484664 3.370897 3.3928337 3.4142978 3.4353116
3.4558935 3.47606 3.4958262 3.515208 3.5342207 3.5528777 3.5711744 3.5891747
3.6068408 3.624202 3.6412826 3.6580577 3.6745489 3.6908078 3.7067845 3.7225013
-0.0006740399 0.29801506 0.7407366 0.9646106 1.1845264 1.3648082 1.5175188 1.6500443
1.7670524 1.871802 1.9665978 2.053162 2.132838 2.2066157 2.275317 2.3395777
2.399979 2.4569314 2.5108023 2.561943 2.6105864 2.656956 2.701258 2.7436924
2.7844036 2.8235176 2.8611557 2.8974268 2.9324272 2.9662418 2.9989681 3.0306554
3.0613654 3.091158 3.120086 3.148198 3.1755385 3.2021494 3.2280679 3.2533298
3.277981 3.3020334 3.3255203 3.3484664 3.370897 3.3928337 3.4142978 3.4353116
3.4558935 3.47606 3.4958262 3.515208 3.5342207 3.5528777 3.5711744 3.5891747
3.6068408 3.624202 3.6412826 3.6580577 3.6745489 3.6908078 3.7067845 3.7225013
-0.0032248388 0.29773453 0.7033618 0.9647274 1.1846421 1.3647993 1.5175227 1.650046
1.7670555 1.8717988 1.9665953 2.0531623 2.1328285 2.206617 2.2753148 2.3395777
2.3999813 2.4569314 2.5108008 2.5619442 2.6105876 2.6569548 2.701258 2.7436914
2.7844038 2.8235176 2.8611557 2.8974273 2.9324274 2.9662418 2.9989681 3.0306554
3.0613654 3.091158 3.120086 3.148198 3.1755385 3.2021494 3.2280679 3.2533298
3.277981 3.3020334 3.3255203 3.3484664 3.370897 3.3928337 3.4142978 3.4353116
3.4558935 3.47606 3.4958262 3.515208 3.5342207 3.5528777 3.5711744 3.5891747
3.6068408 3.624202 3.6412826 3.6580577 3.6745489 3.6908078 3.7067845 3.7225013
00000000: 4022 f8b9 1b15 983e 2f5b 2f3f 08fb 763f
00000010: dda0 973f f4b4 ae3f 0f3e c23f db34 d33f
00000020: 102f e23f f896 ef3f 7bb9 fb3f 0267 0340
00000030: 3080 0840 3439 0d40 c89e 1140 acbb 1540
00000040: 4b99 1940 5d3e 1d40 f9b0 2040 e4f6 2340
00000050: e013 2740 8c0b 2a40 69e1 2c40 a298 2f40
00000060: ac33 3240 83b4 3440 2e1d 3740 736f 3940
00000070: e4ac 3b40 e8d6 3d40 18ef 3f40 42f6 4140
00000080: 69ed 4340 88d5 4540 7daf 4740 137c 4940
00000090: 063c 4b40 04f0 4c40 aa98 4e40 8e36 5040
000000a0: 71ca 5140 8454 5340 53d5 5440 464d 5640
000000b0: c7bc 5740 3024 5940 db83 5a40 25dc 5b40
000000c0: 5c2d 5d40 c477 5e40 9ebb 5f40 2bf9 6040
000000d0: ac30 6240 5962 6340 1f8e 6440 0ab5 6540
000000e0: 7bd6 6640 edf2 6740 c60a 6940 9e1d 6a40
000000f0: cf2b 6b40 3236 6c40 f53b 6d40 763d 6e40
00000100: 5116 06ba 0f9e 983e 2ec3 313f 2ef4 763f
00000110: 7b9b 973f f3af ae3f 3e3e c23f d134 d33f
00000120: 1a2f e23f e396 ef3f 82b9 fb3f ff66 0340
00000130: 4c80 0840 3739 0d40 b89e 1140 a5bb 1540
00000140: 5499 1940 563e 1d40 ffb0 2040 e6f6 2340
00000150: e113 2740 8c0b 2a40 6ae1 2c40 a398 2f40
00000160: ac33 3240 83b4 3440 2d1d 3740 726f 3940
00000170: e4ac 3b40 e8d6 3d40 18ef 3f40 42f6 4140
00000180: 69ed 4340 88d5 4540 7daf 4740 137c 4940
00000190: 063c 4b40 04f0 4c40 aa98 4e40 8e36 5040
000001a0: 71ca 5140 8454 5340 53d5 5440 464d 5640
000001b0: c7bc 5740 3024 5940 db83 5a40 25dc 5b40
000001c0: 5c2d 5d40 c477 5e40 9ebb 5f40 2bf9 6040
000001d0: ac30 6240 5962 6340 1f8e 6440 0ab5 6540
000001e0: 7bd6 6640 edf2 6740 c60a 6940 9e1d 6a40
000001f0: cf2b 6b40 3236 6c40 f53b 6d40 763d 6e40
00000200: 0db2 30ba 6e95 983e eaa0 3d3f b8f0 763f
00000210: 909e 973f 09b2 ae3f 0e3e c23f a734 d33f
00000220: c62e e23f 3597 ef3f 7ab9 fb3f 0267 0340
00000230: 6b80 0840 3139 0d40 cb9e 1140 a4bb 1540
00000240: 4299 1940 5d3e 1d40 fcb0 2040 e0f6 2340
00000250: d913 2740 910b 2a40 69e1 2c40 a898 2f40
00000260: ab33 3240 83b4 3440 2d1d 3740 716f 3940
00000270: e3ac 3b40 e8d6 3d40 18ef 3f40 42f6 4140
00000280: 69ed 4340 88d5 4540 7daf 4740 137c 4940
00000290: 063c 4b40 04f0 4c40 aa98 4e40 8e36 5040
000002a0: 71ca 5140 8454 5340 53d5 5440 464d 5640
000002b0: c7bc 5740 3024 5940 db83 5a40 25dc 5b40
000002c0: 5c2d 5d40 c477 5e40 9ebb 5f40 2bf9 6040
000002d0: ac30 6240 5962 6340 1f8e 6440 0ab5 6540
000002e0: 7bd6 6640 edf2 6740 c60a 6940 9e1d 6a40
000002f0: cf2b 6b40 3236 6c40 f53b 6d40 763d 6e40
00000300: d157 53bb a970 983e 850f 343f 60f8 763f
00000310: 5aa2 973f beb1 ae3f 2f3e c23f b534 d33f
00000320: e02e e23f 1a97 ef3f 65b9 fb3f 0367 0340
00000330: 4380 0840 3739 0d40 c29e 1140 a4bb 1540
00000340: 4b99 1940 5d3e 1d40 f6b0 2040 e5f6 2340
00000350: de13 2740 8c0b 2a40 69e1 2c40 a498 2f40
00000360: ac33 3240 83b4 3440 2d1d 3740 736f 3940
00000370: e4ac 3b40 e8d6 3d40 18ef 3f40 42f6 4140
00000380: 69ed 4340 88d5 4540 7daf 4740 137c 4940
00000390: 063c 4b40 04f0 4c40 aa98 4e40 8e36 5040
000003a0: 71ca 5140 8454 5340 53d5 5440 464d 5640
000003b0: c7bc 5740 3024 5940 db83 5a40 25dc 5b40
000003c0: 5c2d 5d40 c477 5e40 9ebb 5f40 2bf9 6040
000003d0: ac30 6240 5962 6340 1f8e 6440 0ab5 6540
000003e0: 7bd6 6640 edf2 6740 c60a 6940 9e1d 6a40
000003f0: cf2b 6b40 3236 6c40 f53b 6d40 763d 6e40

layers.0.ssm.D f4 [64]
0.7558051 0.79681194 0.9037575 0.84005356 0.9094538 0.84735835 0.8240017 0.86594224
0.8195249 0.8383488 0.75191903 0.8877103 0.83628345 0.86217636 0.94902617 0.81757396
0.9506613 0.8988322 0.8186693 0.74581516 0.8326199 0.8791665 0.90869695 0.885154
0.8421373 0.92911834 0.824351 0.9429658 0.8533641 0.8465634 0.9399325 0.83165765
0.8925269 0.77639616 0.7868448 0.81461936 0.8694695 0.72082543 0.80517155 0.81328005
0.79753757 0.8752447 0.81386656 0.8538241 0.9070054 0.83499 0.912959 0.73989266
0.7834684 0.7707403 0.9237759 0.87918544 0.91113156 0.8259752 0.7343446 0.8265454
0.9477831 0.78681254 0.746462 0.8813659 0.8840873 0.7794699 0.8324761 0.94115967
00000000: 717c 413f defb 4b3f a75c 673f c00d 573f
00000010: f7d1 683f 7aec 583f c7f1 523f 64ae 5d3f
00000020: 62cc 513f 079e 563f c47d 403f fb40 633f
00000030: ac16 563f 97b7 5c3f 61f3 723f 874c 513f
00000040: 8a5e 733f de19 663f 5094 513f beed 3e3f
00000050: 9426 553f 0e11 613f 5da0 683f 7499 623f
00000060: 4f96 573f b3da 6d3f ab08 533f 3566 713f
00000070: 1276 5a3f 61b8 583f 6b9f 703f 84e7 543f
00000080: a57c 643f e6c1 463f a96e 493f e58a 503f
00000090: 8e95 5e3f 0488 383f b91f 4e3f 1f33 503f
000000a0: 6c2b 4c3f 0910 603f 8f59 503f 3794 5a3f
000000b0: 8231 683f e8c1 553f aeb7 693f 9b69 3d3f
000000c0: 6391 483f 3c4f 453f 947c 6c3f 4c12 613f
000000d0: eb3f 693f 1c73 533f 02fe 3b3f 7b98 533f
000000e0: eaa1 723f 8c6c 493f 2218 3f3f 32a1 613f
000000f0: 8c53 623f 578b 473f 271d 553f d7ef 703f

layers.0.ssm.deltaBC_layer.weight f4 [144, 64]
-0.046139084 -0.0014998998 0.08703312 0.047618385 0.0983467 0.047325592 0.06079882 0.047710367
0.09049994 -0.10881337 0.091451034 0.07321118 -0.04986745 0.059704922 -0.06447724 -0.088156894
0.01666054 -0.046725664 0.04149163 0.059155345 0.030404244 0.056647774 -0.01907536 0.048494928
-0.022273598 -0.01974292 0.021541595 -0.05972883 0.048980862 -0.1024348 0.05162215 0.028029028
-0.087466076 0.08337925 0.0537561 -0.016812993 0.015401737 0.05509884 -0.013690984 -0.053699557
-0.030581735 -0.06895271 -0.09318377 0.0050126864 -0.105781496 -0.056327436 0.055803366 -0.049541324
0.07931002 -0.10879558 0.069443636 -0.08684156 -0.009586794 0.04576913 0.027919872 0.011755841
-0.094527856 -0.06551558 0.0371855 -0.014364932 0.0010836483 0.02112685 -0.042960923 -0.0024053818
-0.02199488 -0.025027964 -0.07566947 0.015962927 0.06739549 0.028562246 0.059831373 -0.0040857824
0.055335265 0.052659098 0.007343959 0.089301236 0.06407013 -0.019415772 -0.065662205 -0.0225246
0.009330642 0.069749825 -0.053629495 -0.007411052 0.06458137 -0.06257733 -0.06992997 -0.079851635
-0.10165838 0.08704699 -0.03364854 0.0038103042 -0.06984255 -0.023979284 -0.06840279 -0.069549985
0.061806675 0.08724291 0.078937024 0.0028340898 -0.05332024 -0.026057849 0.07410892 -0.02091832
-0.001552829 0.0822459 -0.07002202 -0.04961383 0.03308449 0.041915774 0.030114915 0.03670257
0.03526145 -0.033918038 0.038573604 0.057591382 0.08638396 0.08527473 -0.049169976 -0.019043103
-0.0596239 -0.035160515 0.020537714 0.039451674 -0.041651163 0.055323496 -0.08458477 -0.036124546
0.06577218 0.05456021 -0.09828536 -0.053406596 0.100485764 0.036977064 0.11135786 -0.019930564
0.03775086 0.039419856 0.022402696 0.072682425 0.011048141 -0.040250428 -0.100895494 -0.05835844
-0.07214308 0.09515159 0.09960418 -0.0060118204 0.049285583 0.09301527 -0.008946983 -0.09479802
0.00084687304 -0.047240343 -0.10980752 -0.04386712 0.100955844 0.020439109 0.048185814 -0.013018283
0.016007332 0.02955343 0.054323122 0.009773845 0.10379743 -0.042266723 -0.099958204 -0.06647902
0.07722196 -0.10796321 0.09360844 0.0018945554 -0.0118154725 -0.07661783 0.024504248 -0.10811164
0.082599886 0.083484866 0.06621624 0.03773085 0.11015699 -0.08155819 -0.070221655 -0.053305607
0.08535358 0.09641519 0.049385943 0.049547344 -0.10038983 -0.102629475 -0.025410276 0.06804058
-0.08925963 0.020389251 -0.08123693 -0.10389844 0.085428044 0.074746065 -0.08825944 -0.09390071
0.09152492 0.040044267 0.0009010297 -0.023332236 0.0039547742 -0.059365705 0.10639586 -0.07432563
0.07618933 -0.08698887 -0.06677575 0.06360414 -0.008423931 0.10307647 0.034525752 -0.070920646
0.066813074 -0.10375639 0.024125447 -0.0027626776 -0.034976736 0.03065562 -0.004040853 0.09645593
0.084443994 0.04617127 0.021496804 0.084478244 0.015004098 -0.02971262 0.085872576 0.015916886
-0.03926918 0.02860933 0.065439425 0.03430636 -0.034899473 -0.09581228 -0.067698956 -0.0044434047
-0.024002213 -0.1070171 0.0147130275 -0.01025883 -0.06841575 0.09595771 -0.09762671 -0.03313787
0.06817108 0.069347195 -0.046219867 -0.07999941 -0.05360193 -0.014899397 -0.057119504 -0.035664428
00000000: 56fc 3cbd 4998 c4ba 6c3e b23d 7f0b 433d
00000010: ff69 c93d 7bd8 413d 2f08 793d f26b 433d
00000020: 0858 b93d 8bd9 debd ae4a bb3d beef 953d
00000030: d041 4cbd 268d 743d a50c 84bd 9a8b b4bd
00000040: af7b 883c 6963 3fbd 21f3 293d e04c 723d
00000050: 5212 f93c 7f07 683d ee43 9cbc 9ea2 463d
00000060: 1f77 b6bc e7bb a1bc 0078 b03c 38a6 74bd
00000070: 28a0 483d 56c9 d1bd bf71 533d 229d e53c
00000080: 6a21 b3bd bdc2 aa3d 5b2f 5c3d 67bb 89bc
00000090: 9157 7c3c 52af 613d 2650 60bc 11f4 5bbd
000000a0: 8c86 fabc 1437 8dbd 22d7 bebd 7641 a43b
000000b0: f8a3 d8bd 99b7 66bd 1292 643d d8eb 4abd
000000c0: 4b6d a23d 38d0 debd 7738 8e3d fdd9 b1bd
000000d0: ee11 1dbc 6978 3b3d 37b8 e43c 929b 403c
000000e0: d297 c1bd 082d 86bd d34f 183d e45a 6bbc
000000f0: 3409 8e3a 3712 ad3c cbf7 2fbd 9ca3 1dbb
00000100: 9b2e b4bc 7207 cdbc 98f8 9abd afc4 823c
00000110: a606 8a3d 5ffb e93c be11 753d 07e2 85bb
00000120: 3ba7 623d 11b1 573d 98a5 f03b 91e3 b63d
00000130: 3337 833d d30d 9fbc e879 86bd 8385 b8bc
00000140: 8ddf 183c ffd8 8e3d 9aaa 5bbd 69d8 f2bb
00000150: 3d43 843d 8b28 80bd 7237 8fbd 4189 a3bd
00000160: 4532 d0bd b145 b23d 0dd3 09bd 4cb6 793b
00000170: 9c09 8fbd 3470 c4bc c316 8cbd 3970 8ebd
00000180: ff28 7d3d 69ac b23d bca9 a13d 23bc 393b
00000190: 5366 5abd 4577 d5bc 6bc6 973d e65c abbc
000001a0: 4c88 cbba 8a70 a83d b467 8fbd df37 4bbd
000001b0: 9a83 073d e0af 2b3d 8eb3 f63c 6f55 163d
000001c0: 4f6e 103d a4ed 0abd 5bff 1d3d f1e4 6b3d
000001d0: 13ea b03d 85a4 ae3d 7566 49bd 4800 9cbc
000001e0: 3138 74bd 7904 10bd b53e a83c 1498 213d
000001f0: 699a 2abd e49a 623d c83a adbd 55f7 13bd
00000200: 91b3 863d 877a 5f3d d649 c9bd e0c0 5abd
00000210: 7bcb cd3d 4375 173d 970f e43d 6c45 a3bc
00000220: a5a0 1a3d b776 213d dc85 b73c 86da 943d
00000230: 4303 353c a2dd 24bd 4ca2 cebd 4209 6fbd
00000240: c0bf 93bd d6de c23d 47fd cb3d cefe c4bb
00000250: aedf 493d ca7e be3d 5e96 12bc 7725 c2bd
00000260: b000 5e3a 177f 41bd c4e2 e0bd 02ae 33bd
00000270: f0c1 ce3d eb6f a73c 7d5e 453d a34a 55bc
00000280: cf21 833c 091a f23c ec81 5e3d 7a22 203c
00000290: bf93 d43d df1f 2dbd e3b6 ccbd 2726 88bd
000002a0: 8c26 9e3d d11b ddbd c8b5 bf3d bb52 f83a
000002b0: af95 41bc cfe9 9cbd 22bd c83c a369 ddbd
000002c0: 212a a93d 1dfa aa3d 619c 873d aa8b 1a3d
000002d0: fd99 e13d fb07 a7bd 5fd0 8fbd fb56 5abd
000002e0: dccd ae3d 5475 c53d ea48 4a3d 28f2 4a3d
000002f0: 2f99 cdbd 672f d2bd 3629 d0bc dc58 8b3d
00000300: c1cd b6bd 5c07 a73c 8c5f a6bd b5c8 d4bd
00000310: e6f4 ae3d 7714 993d 5ec1 b4bd 044f c0bd
00000320: 6b71 bb3d 7505 243d 1433 6c3a 3f23 bfbc
00000330: 0d97 813b 7429 73bd 13e6 d93d 0938 98bd
00000340: 2709 9c3d 3827 b2bd b9c1 88bd e342 823d
00000350: 8704 0abc c219 d33d e06a 0d3d d83e 91bd
00000360: 4bd5 883d 3b7e d4bd bba2 c53c 0a0e 35bb
00000370: c443 0fbd 7f21 fb3c 2269 84bb b08a c53d
00000380: f9f0 ac3d 161e 3d3d 111a b03c ee02 ad3d
00000390: c0d3 753c e167 f3bc f6dd af3d 2164 823c
000003a0: b8d8 20bd 1d5e ea3c 1b05 863d d384 0c3d
000003b0: c0f2 0ebd 3b39 c4bd c0a5 8abd fb99 91bb
000003c0: 4aa0 c4bc c82b dbbd e90e 713c a714 28bc
000003d0: 8f1d 8cbd 7a85 c43d 83f0 c7bd 93bb 07bd
000003e0: 479d 8b3d e705 8e3d 0b51 3dbd bbd6 a3bd
000003f0: b38d 5bbd 9a1c 74bc 24f6 69bd dd14 12bd

layers.0.ssm.dt_proj_layer.weight f4 [64, 16]
0.02644001 -0.041969437 -0.11776848 0.052777648 0.031957194 0.050343093 0.08356184 0.007027694
0.0028707513 0.01968292 -0.045270145 0.0005598036 0.08914799 0.059915394 0.008487718 0.001641794
-0.056201413 -0.0103940815 0.1369925 0.0043600937 0.081224285 -0.103751674 0.09455994 0.029050505
-0.013273271 -0.007954362 -0.008914795 -0.07046044 -0.07039888 0.05962579 -0.0009896216 -0.1585862
-0.03821585 0.013229856 -0.16340622 -0.031873237 0.032296512 0.14537378 0.00805708 0.027560724
-0.14124386 -0.15442398 0.047718495 0.033209626 0.012306174 0.11368112 -0.06551667 -0.0382986
-0.09662084 -0.120508604 0.051974196 0.011307844 0.0017817959 -0.1271587 0.038515154 -0.1088673
-0.035146274 0.011061166 -0.06502564 0.07210163 -0.10669323 0.038138263 0.00534274 0.10407414
-0.05078669 -0.115353264 0.14303604 -0.01047747 -0.058048606 -0.0001647942 0.10254101 0.08816142
-0.13292447 -0.13968745 0.033741288 -0.069128096 -0.0019742686 0.08381112 -0.059071094 -0.031443413
0.06852234 0.013295181 0.15753101 -0.06418892 0.19197167 -0.14838818 0.110913344 0.08195025
-0.07908899 -0.05494493 -0.008380715 -0.022296954 -0.085022934 -0.022831466 0.09919716 0.021113137
0.09303144 0.0748123 -0.10608534 0.031750735 -0.027103506 -0.11082208 0.010178551 0.0075208126
0.026187155 -0.12607493 0.033584908 0.00950739 0.010806503 0.11689234 0.061664283 0.16810314
-0.06488462 -0.089470096 -0.1083461 -0.13739914 0.1775515 0.13157988 0.06431427 -0.088433675
0.07116021 -0.1073945 -0.0007147039 0.027830904 0.09639367 0.026825499 0.032784205 -0.085881054
-0.07380046 -0.124917306 0.11573109 0.022462728 -0.020722466 -0.09087822 -0.12767097 -0.017521247
0.08603807 0.033188038 -0.0025440825 -0.01544439 -0.13339345 -0.085142724 0.051547535 0.14221372
0.045653995 -0.024427438 -0.07276796 -0.025599066 0.05751052 -0.14040165 -0.06616873 -0.042276178
0.011524239 0.055528257 0.009063554 -0.07641395 -0.08870496 -0.013176956 -0.068919405 0.11554411
0.03653712 0.06529185 -0.04992137 -0.004488988 -0.13367872 -0.08758083 0.016521258 -0.060137957
0.0034337984 -0.008844341 0.009278155 -0.0062944056 -0.057347037 -0.00037594163 -0.00029047643 -0.15111338
0.14827594 -0.12289078 -0.17282374 -0.09947305 -0.015803836 0.07568752 -0.09259622 -0.010304362
-0.00046511527 0.064021274 -0.01892511 -0.05045078 -0.08342099 -0.050652225 0.02639788 0.08668325
0.007417715 0.016932122 0.04598512 -0.045300376 -0.14823061 0.047648247 -0.019763507 0.10026595
-0.0035589833 -0.05606952 0.036687016 0.04390843 0.122144826 -0.101966985 -0.004925772 0.053535588
-0.05672085 -0.10633474 0.16498627 0.08700706 0.13176581 -0.07030489 0.13687737 0.020448083
0.031457227 -0.07777893 0.04337771 0.08242358 0.07649635 -0.07698963 -0.08521456 -0.11429405
-0.16377415 -0.17250493 0.18911801 0.05961297 -0.09354742 0.1592564 -0.06691632 -0.025697479
0.01599575 0.048821192 0.0009292896 0.08274646 0.07236536 0.15442158 0.12837172 0.09650175
-0.01577408 0.0026398564 0.06414751 -0.021886427 0.121811725 0.10686079 -0.025673017 0.031103732
-0.07805679 0.0020246129 0.036169205 -0.07070938 -0.12811142 0.0803708 -0.0010681287 0.023624124
00000000: b898 d83c 25e8 2bbd 9a30 f1bd 602d 583d
00000010: 8ce5 023d 8f34 4e3d 7822 ab3d 9248 e63b
00000020: 3723 3c3b 133e a13c 306d 39bd c9bf 123a
00000030: 3993 b63d d869 753d 1210 0b3c 7731 d73a
00000040: 7433 66bd f04b 2abc c347 0c3e 1edf 8e3b
00000050: eb58 a63d c27b d4bd a4a8 c13d 53fb ed3c
00000060: 2278 59bc 0353 02bc 5c0f 12bc 904d 90bd
00000070: 4a2d 90bd 2c3a 743d 31b6 81ba 6c64 22be
00000080: 3988 1cbd 0ac2 583c f653 27be 838d 02bd
00000090: 5949 043d dddc 143e d801 043c 07c7 e13c
000000a0: 3ba2 10be 5221 1ebe 7874 433d d106 083d
000000b0: d69f 493c a6d1 e83d 9b2d 86bd fede 1cbd
000000c0: 26e1 c5bd 37cd f6bd e5e2 543d 8944 393c
000000d0: 268b e93a e435 02be 11c2 1d3d d2f5 debd
000000e0: 8af5 0fbd e539 353c 2a2c 85bd 05aa 933d
000000f0: fb81 dabd de36 1c3d 2712 af3b d324 d53d
00000100: b405 50bd 553e ecbd 0a78 123e b2a9 2bbc
00000110: 60c4 6dbd 9bcc 2cb9 0501 d23d f98d b43d
00000120: 5a1d 08be 3a0a 0fbe 4e34 0a3d 0893 8dbd
00000130: bb62 01bb 2aa5 ab3d 88f4 71bd cfca 00bd
00000140: 7155 8c3d 08d4 593c cf4f 213e 7b75 83bd
00000150: 3994 443e 12f3 17be 8926 e33d 88d5 a73d
00000160: 69f9 a1bd ef0d 61bd 444f 09bc 1aa8 b6bc
00000170: 8120 aebd 0e09 bbbc e127 cb3d 75f5 ac3c
00000180: 4587 be3d 3137 993d 4543 d9bd 0f0d 023d
00000190: 2c08 debc b0f6 e2bd f0c3 263c 2671 f63b
000001a0: 7286 d63c c919 01be 5490 093d e2c4 1b3c
000001b0: c20d 313c 4065 ef3d b093 7c3d 3b23 2c3e
000001c0: 3ae2 84bd 193c b7bd 8fe4 ddbd 5cb2 0cbe
000001d0: 0fd0 353e e0bc 063e 33b7 833d b71c b5bd
000001e0: 72bc 913d a6f1 dbbd f85a 3bba a3fd e33c
000001f0: 0b6a c53d 26c1 db3c bb48 063d 68e2 afbd
00000200: b224 97bd a5d4 ffbd 6c04 ed3d c103 b83c
00000210: 29c2 a9bc 5c1e babd 2ebc 02be b888 8fbc
00000220: ba34 b03d 2ef0 073d 9fba 26bb 770a 7dbc
00000230: 4b98 08be 4f5f aebd 8223 533d 79a0 113e
00000240: afff 3a3d 0d1c c8bc 5e07 95bd 22b5 d1bc
00000250: 2790 6b3d 73c5 0fbe 7983 87bd c929 2dbd
00000260: 29d0 3c3c 9971 633d 4d7f 143c eb7e 9cbd
00000270: f2aa b5bd 29e4 57bc 9e25 8dbd 64a2 ec3d
00000280: f2a7 153d bcb7 853d 5a7a 4cbd 5c18 93bb
00000290: 13e3 08be 945d b3bd 9757 873c 3853 76bd
000002a0: 9409 613b dbe7 10bc 6703 183c 4d41 cebb
000002b0: bae4 6abd 081a c5b9 164b 98b9 77bd 1abe
000002c0: a6d5 173e 29ae fbbd b5f8 30be 87b8 cbbd
000002d0: 0c77 81bc 0f02 9b3d 16a3 bdbd a0d3 28bc
000002e0: b7da f3b9 961d 833d d508 9bbc 7aa5 4ebd
000002f0: a0d8 aabd b578 4fbd 5e40 d83c fd86 b13d
00000300: 4e10 f33b 3cb5 8a3c e55a 3c3d e38c 39bd
00000310: c4c9 17be cf2a 433d 14e7 a1bc 3c58 cd3d
00000320: d53d 69bb 27a9 65bd 2045 163d 53d9 333d
00000330: 1127 fa3d 11d4 d0bd 5f68 a1bb 2248 5b3d
00000340: 1f54 68bd 07c6 d9bd 29f2 283e c230 b23d
00000350: 9eed 063e 03fc 8fbd 9529 0c3e bd82 a73c
00000360: 4bd9 003d 8f4a 9fbd d3ac 313d b2cd a83d
00000370: 1eaa 9c3d bdac 9dbd f984 aebd 0013 eabd
00000380: 69b4 27be 22a5 30be 27a8 413e bb2c 743d
00000390: ca95 bfbd 1c14 233e 6c0b 89bd 8583 d2bc
000003a0: 8509 833c bbf8 473d 929b 733a fa76 a93d
000003b0: 4a34 943d b120 1e3e e073 033e b6a2 c53d
000003c0: a538 81bc 7101 2d3b c55f 833d 2a4b b3bc
000003d0: 6d78 f93d d4d9 da3d 3850 d2bc 41cd fe3c
000003e0: 3ddc 9fbd 5eaf 043b 2926 143d 14d0 90bd
000003f0: a42f 03be 7299 a43d 7400 8cba 6187 c13c

layers.0.ssm.dt_proj_layer.bias f4 [64]
0.15581362 -0.13450454 -0.07291788 0.0013707821 0.20233834 0.22625573 0.1367521 -0.015585888
-0.015393928 -0.020343442 -0.1877586 0.18248492 -0.114389464 0.17496555 -0.12939487 -0.1327282
0.22947192 0.19876024 -0.033236016 0.090031065 0.021656644 -0.13028386 -0.13674057 -0.08587578
-0.1309791 -0.0694205 -0.19640785 0.021599699 -0.17387505 0.15155433 -0.10422736 -0.14224727
-0.14374962 0.017151 0.09037958 -0.084631465 -0.16572553 -0.15765147 0.10405534 0.051351443
0.10368748 -0.05418642 -0.10059821 -0.151412 0.23070447 0.055737827 0.12789159 0.04823274
0.05048146 0.09136612 0.1604236 -0.17795429 -0.0517513 -0.19484393 -0.08358523 -0.050028183
-0.17714876 0.16866997 -0.05666888 -0.0037809287 -0.11308379 0.07506337 0.07449773 0.19306819
00000000: 9b8d 1f3e 8fbb 09be f855 95bd d1ab b33a
00000010: c831 4f3e 95af 673e be08 0c3e f45b 7fbc
00000020: d036 7cbc 4aa7 a6bc ca43 40be 54dd 3a3e
00000030: 0645 eabd 2b2a 333e 1780 04be e7e9 07be
00000040: b0fa 6a3e ce87 4b3e 7d22 08bd 3562 b83d
00000050: 4669 b13c 2269 05be b805 0cbe a4df afbd
00000060: 631f 06be 562c 8ebd 241f 49be daf1 b03c
00000070: 4d0c 32be 0f31 1b3e 2775 d5bd 45a9 11be
00000080: 1a33 13be 4180 8c3c ee18 b93d 4353 adbd
00000090: f4b3 29be 636f 21be f71a d53d e455 523d
000000a0: 1a5a d43d 94f2 5dbd 6f06 cebd bf0b 1bbe
000000b0: cb3d 6c3e 594d 643d 03f6 023e b28f 453d
000000c0: a6c5 4e3d 291e bb3d 1646 243e a639 36be
000000d0: 2cf9 53bd 2b85 47be bc2e abbd 5aea 4cbd
000000e0: 7c66 35be d2b7 2c3e a11d 68bd 75c9 77bb
000000f0: 7998 e7bd d3ba 993d 4492 983d abb3 453e
