pengujian_parameter/2/vim_model_0.pth (torch, 177825 bytes, 58 tensors)

cls_token f4 [1, 1, 32]
1.2848538 0.77094144 0.76376176 1.2895317 -0.41418093 0.93924445 0.36540434 -0.5863516
0.5535071 -2.2092667 0.25884014 -0.24341375 -1.9887828 -0.6286695 0.4549998 -0.071368136
-0.21441475 -0.029928837 1.0264404 0.50342965 -2.3857336 -0.71148854 2.0083208 -0.4858909
-0.69224256 0.80705076 1.0233583 0.040312286 -0.33878323 3.754255 2.4861424 0.7816362
00000000: 1776 a43f 6b5c 453f e485 433f 600f a53f
00000010: 860f d4be 5372 703f 4716 bb3e 231b 16bf
00000020: a4b2 0d3f a064 0dc0 b286 843e 7441 79be
00000030: 6f90 febf 7cf0 20bf bcf5 e83e 7529 92bd
00000040: 8a8f 5bbe 522d f5bc 6662 833f c4e0 003f
00000050: dcaf 18c0 1d24 36bf 5488 0040 b1c6 f8be
00000060: cf36 31bf e19a 4e3f 68fd 823f 7f1e 253d
00000070: ff74 adbe b745 7040 f51c 1f40 4f19 483f

to_patch_embedding.1.weight f4 [32, 169]
0.04578141 0.05667245 0.0031702581 -0.019402212 -0.03465697 -0.007840688 -0.055054784 -0.042144187
-0.021323113 0.00045815107 0.040018823 0.062938966 0.039651982 -0.019884817 -0.07799488 -0.05952484
-0.020153128 -0.06481405 -0.0018750755 0.03566762 0.013985389 -0.01415322 -0.029392526 0.036802456
0.028802635 0.026435813 -0.0734941 -0.06860462 -0.07022622 -0.033841882 -0.002328852 -0.053403642
0.07130844 -0.048781175 0.013352591 -0.042659275 -0.0029788883 0.03650039 0.051433146 0.0006415933
0.021446744 0.038934898 -0.050902344 -0.0112451315 -0.0075978134 0.0011845259 0.06699898 0.04882794
-0.019586073 0.04019961 0.013776655 0.041055303 0.01201903 0.03803312 -0.032349568 -0.03996783
0.01143442 0.03826149 -0.05071673 -0.07754473 -0.04521011 -0.059677802 -0.039923932 -0.052763633
0.012841354 0.002791529 -0.033925556 -0.014269819 0.03489209 0.05153421 -0.056696765 0.03338248
0.008630564 -0.08463228 -0.017053109 0.0037728418 -0.041764498 -0.014469063 0.08100629 0.084354624
0.068160094 -0.040931985 0.01089779 -0.00051492394 -0.02344708 -0.08588614 -0.05801238 0.05565297
0.07328279 0.023547558 0.06966396 -0.066734314 0.031106045 -0.02771702 0.07327393 -0.016376948
-0.005886824 0.025092315 0.016409548 -0.10531566 0.037407894 -0.07897165 0.06257109 0.02474229
-0.00814266 -0.0477767 0.009129799 0.01921114 -0.06686303 0.017691005 0.04604929 -0.08011405
-0.046343524 0.033510935 0.048372447 0.03798781 -0.052138824 -0.07976969 -0.070120655 -0.04052614
-0.0077710636 -0.02916275 -0.06326561 0.031802878 -0.05795244 -0.07509419 0.051668443 0.070739195
0.025693435 0.0017837564 0.028515236 0.002971303 0.030073468 0.0534511 0.017123288 -0.06442101
0.04010382 0.01914372 -0.0318014 0.011943717 -0.018890733 0.030055115 0.058390733 0.017293707
0.046464216 -0.059781846 -0.01848585 0.012702576 -0.035134368 0.062015843 -0.021321813 -0.0512704
-0.011056631 0.09544648 -0.006011011 0.027156651 -0.060703754 0.0029335911 0.048325907 -0.046909418
-0.027098084 -0.030474335 0.026521878 -0.05615275 -0.0452187 0.010666902 0.05172627 0.04095294
0.018375302 0.059470512 0.046337068 -0.010539748 0.0021721565 0.018357785 0.023309475 0.047835372
-0.070947416 -0.055132866 -0.083397165 -0.044635966 -0.07946948 -0.044396233 -0.014236216 -0.05377164
-0.00875323 0.037998546 0.015450681 0.0360263 0.0588005 0.013732005 -0.045533206 -0.03238791
0.0611659 0.024279648 -0.002812457 -0.033244975 0.08132309 -0.022852639 0.010139734 -0.012390906
0.07185663 -0.048174836 -0.056014918 -0.030618673 -0.03484216 -0.040729802 -0.023261309 0.0659562
0.07482337 0.034384847 -0.05059534 -0.01528484 0.039087895 0.0495107 0.036625687 -0.019987928
-0.049925108 0.028372936 -0.04268128 0.0650635 -0.050290525 0.078893594 -0.005195115 -0.05224702
-0.043708444 0.013187156 -0.052442413 0.050485343 0.012191317 0.034705058 0.021166593 -0.030285621
0.034857217 -0.009574864 -0.04437626 0.049846895 0.015482417 0.011994306 -0.0653136 0.07146581
0.044001274 -0.01917942 -0.03178867 0.016066892 0.012796598 0.064584635 -0.029182771 -0.02052866
-0.005285089 0.0054006204 0.0068888627 0.005425883 -0.027365949 -0.052407656 -0.040527266 0.022990447
00000000: 4a85 3b3d 5f21 683d 1bc4 4f3b 63f1 9ebc
00000010: 78f4 0dbd 3b76 00bc 2081 61bd 629f 2cbd
00000020: cfad aebc ff33 f039 c7ea 233d 25e6 803d
00000030: 1e6a 223d 7ce5 a2bc c8bb 9fbd 52d0 73bd
00000040: 2c18 a5bc 3bbd 84bd 18c5 f5ba 3618 123d
00000050: f922 653c e8e2 67bc 98c8 f0bc 2cbe 163d
00000060: 81f3 eb3c eb8f d83c 1384 96bd 9480 8cbd
00000070: c4d2 8fbd c99d 0abd a79f 18bb c7bd 5abd
00000080: 290a 923d c5ce 47bd d3c4 5a3c 7ebb 2ebd
00000090: 7439 43bb 6f81 153d 90ab 523d 9930 283a
000000a0: 15b1 af3c 337a 1f3d fa7e 50bd 803d 38bc
000000b0: 14f7 f8bb 1842 9b3a c336 893d ceff 473d
000000c0: f972 a0bc 59a8 243d 7bb7 613c 9b29 283d
000000d0: 77eb 443c 9ec8 1b3d fb80 04bd 4fb5 23bd
000000e0: 6f57 3b3c 15b8 1c3d 59bc 4fbd c5cf 9ebd
000000f0: 3c2e 39bd b670 74bd 4787 23bd ae1e 58bd
00000100: 8b64 523c 16f2 363b 86f5 0abd f5cb 69bc
00000110: 02eb 0e3d 8915 533d de3a 68bd 11bc 083d
00000120: 3667 0d3c b053 adbd f6b2 8bbc c841 773b
00000130: 4011 2bbd a60f 6dbc a0e6 a53d 1ec2 ac3d
00000140: 8597 8b3d 4ca8 27bd a58c 323c f6fb 06ba
00000150: 1714 c0bc 13e5 afbd 649e 6dbd 5ef4 633d
00000160: 4a15 963d cfe6 c03c faab 8e3d 00ac 88bd
00000170: 1bd2 fe3c ce0e e3bc a410 963d f328 86bc
00000180: 42e6 c0bb 668e cd3c 516d 863c bdaf d7bd
00000190: 0539 193d e3bb a1bd 4625 803d 58b0 ca3c
000001a0: cb68 05bc 80b1 43bd 2795 153c ae60 9d3c
000001b0: 7cef 88bd baec 903c 2e9e 3c3d d612 a4bd
000001c0: b5d2 3dbd c342 093d 3022 463d 1b99 1b3d
000001d0: 858f 55bd 4b5e a3bd 6b9b 8fbd bdfe 25bd
000001e0: 68a4 febb b8e6 eebc 6691 81bd bc43 023d
000001f0: 8a5f 6dbd fcca 99bd 4aa2 533d b6df 903d
00000200: 0a7b d23c efcc e93a c998 e93c 31ba 423b
00000210: a25c f63c 8aef 5a3d 2346 8c3c 2aef 83bd
00000220: e743 243d 4ad3 9c3c 2f42 02bd 94af 433c
00000230: bdc0 9abc 2536 f63c 1f2b 6f3d 88ab 8d3c
00000240: 4351 3e3d cfdd 74bd a36f 97bc 771e 503c
00000250: 0ee9 0fbd 5304 7e3d 15ab aebc e900 52bd
00000260: df26 35bc 7279 c33d 04f8 c4bb a077 de3c
00000270: 80a4 78bd 7e41 403b 63f1 453d 1724 40bd
00000280: cdfc ddbc 50a5 f9bc 6944 d93c 6d00 66bd
00000290: 3e37 39bd 3bc4 2e3c edde 533d 45be 273d
000002a0: cd87 963c 5a97 733d f0cb 3d3d e8ae 2cbc
000002b0: bd5a 0e3b 1163 963c 83f3 be3c 06ef 433d
000002c0: e14c 91bd 00d3 61bd 22cc aabd 34d4 36bd
000002d0: e5c0 a2bd d3d8 35bd 053f 69bc a73f 5cbd
000002e0: b569 0fbc 5da4 1b3d da24 7d3c 5090 133d
000002f0: cbd8 703d 34fc 603c 0781 3abd 2fa9 04bd
00000300: 1889 7a3d 1de6 c63c 3351 38bb e22b 08bd
00000310: b88c a63d 7535 bbbc 2021 263c 3a03 4bbc
00000320: 9229 933d fa52 45bd e66f 65bd 03d4 fabc
00000330: a7b6 0ebd 4bd4 26bd 808e bebc 0b14 873d
00000340: ff3c 993d 20d7 0c3d 0f3d 4fbd 446d 7abc
00000350: a11a 203d bbcb 4a3d d104 163d b9bd a3bc
00000360: 457e 4cbd 5c6e e83c 91d2 2ebd 0340 853d
00000370: 70fd 4dbd f792 a13d c93b aabb f900 56bd
00000380: a007 33bd f10e 583c dbcd 56bd b8c9 4e3d
00000390: 17be 473c e426 0e3d 9065 ad3c 8d19 f8bc
000003a0: 71c6 0e3d e4df 1cbc e2c3 35bd 422c 4c3d
000003b0: f7a9 7d3c c483 443c 23c3 85bd ab5c 923d
000003c0: ae3a 343d 291e 9dbc d634 02bd b79e 833c
000003d0: d2a8 513c f344 843d b510 efbc b82b a8bc
000003e0: 8a2e adbb b0f7 b03b f8bb e13b 9bcb b13b
000003f0: 8e2e e0bc 69a9 56bd ebff 25bd 7656 bc3c

to_patch_embedding.1.bias f4 [32]
-0.044127326 0.05784218 -0.0229898 -0.06535286 0.032081716 -0.022720043 0.019278795 -0.040945716
-0.0013230047 -0.073053114 0.06917949 0.04094415 -0.02136526 0.03394223 0.02707843 0.050910186
0.00049017504 0.020779684 -0.059573457 0.061509673 -0.03718953 0.009419184 -0.04335975 0.004477183
0.00924477 0.03166758 0.06485253 -0.01349309 -0.045653433 0.027217384 -0.056990173 -0.033213828
00000000: dbbe 34bd eceb 6c3d 1b55 bcbc b8d7 85bd
00000010: 1e68 033d 621f babc 90ee 9d3c b2b6 27bd
00000020: ac68 adba df9c 95bd faad 8d3d 0eb5 273d
00000030: 3306 afbc 0207 0b3d 95d3 dd3c 3387 503d
00000040: 177f 003a 283a aa3c 4c03 74bd 91f1 7b3d
00000050: 0c54 18bd ec52 1a3c fe99 31bd 55b5 923b
00000060: 6077 173c ddb5 013d 67d1 843d 1f12 5dbc
00000070: 18ff 3abd fef6 de3c 876e 69bd 390b 08bd

layers.0.forward_conv1d.weight f4 [32, 32, 1]
-0.1263008 -0.068816155 0.07525723 0.15374793 0.10938945 -0.16782252 0.10742768 -0.095923975
0.07644431 -0.11293432 -0.04321306 0.10554276 0.057213247 0.13038602 -0.025831727 -0.002417765
0.08210421 0.10119445 0.06487652 -0.07938732 0.13041747 -0.07266375 -0.16637923 -0.10442187
0.10181822 -0.0022032012 0.11423539 -0.053601548 0.1148861 -0.12828505 -0.13335286 0.08435014
0.1503143 -0.13091773 0.15673117 -0.099510826 -0.11006773 0.10461861 -0.062411133 0.07070052
-0.06102918 0.04370338 0.02679257 0.0917384 0.13255621 -0.015644934 -0.08981887 -0.034372047
0.15669195 -0.09736761 -0.06635355 0.026216438 -0.017799335 0.009031229 -0.1185676 0.00017348737
-0.04538578 -0.035520084 -0.06761304 0.06999457 -0.060861208 0.01730335 0.08973235 0.023680396
0.11873887 0.08425081 -0.019277718 -0.019442277 0.056985855 -0.12020538 0.14363337 -0.04807894
-0.11076425 -0.07268674 -0.08119362 0.07331151 -0.1553222 0.049497 0.0076709064 -0.054170866
0.08880837 -0.14595906 0.05514547 -0.0132864 -0.095518276 0.088954695 -0.009476858 -0.095838964
-0.060566243 0.005587503 -0.0042567044 0.14623684 -0.16127847 0.06243237 0.15924394 0.10070831
0.113216944 -0.12846456 0.041071095 -0.043698225 0.05324973 -0.108124025 0.113116436 0.07757841
0.100012645 0.0010046315 0.028369348 0.04249314 -0.11744765 0.09029816 -0.053350504 0.04511622
0.0104315365 0.06258814 0.08117288 0.1294147 0.008176872 -0.062245477 -0.12893729 -0.122567795
0.048153035 0.14068615 -0.068172604 0.010682474 0.09885123 -0.12112687 -0.121501975 0.10773504
-0.011961687 -0.048853796 0.077856295 0.021860996 -0.020608949 -0.10332584 0.06709506 0.08012883
0.039247382 0.11354226 -0.045018427 -0.043748792 -0.0007119813 0.052964047 0.009323313 -0.06244727
0.09148348 -0.150603 0.12388873 -0.10751359 0.0267642 0.101239555 -0.12862991 0.011607446
-0.0047370866 -0.006275777 -0.0337797 -0.008837513 -0.026233723 0.14222324 0.08255977 -0.14906119
0.03695405 0.019997668 -0.048580986 -0.09570101 0.045150205 0.037929334 -0.111045085 -0.042399257
0.08870084 -0.07615273 -0.0074142693 0.1319738 -0.0011019063 0.076858245 -0.041426495 0.016262079
0.07023227 0.011318044 0.015656304 -0.0687841 -0.046073608 0.023461973 -0.04095515 0.03436927
0.10042161 -0.08438779 -0.09744687 0.09057065 0.012541918 -0.076360516 0.015627567 -0.11584449
0.045347277 -0.03431161 -0.07971065 0.09994188 -0.081935495 -0.0057502137 0.11177761 -0.11727406
-0.05199376 -0.09511477 0.03132538 0.0014327064 0.08076057 -0.08276751 0.035046965 0.018816695
0.08641802 0.028434955 -0.08294622 0.13168298 -0.053693447 0.020532716 0.056146692 -0.13911478
0.044031538 -0.07680748 0.054208122 -0.07269749 -0.06496124 0.019862764 0.07221674 0.08225376
0.10594878 -0.079850614 0.051270563 0.10464738 -0.013373451 0.04855011 0.07823476 0.010518975
-0.065377794 -0.089915365 0.023486346 -0.03844585 0.06774823 -0.0068458216 0.041395474 0.031882893
0.016299356 -0.0071237325 -0.031578984 0.024864724 -0.008173459 -0.12449441 0.06804642 -0.0027330925
0.08081378 0.004503354 0.105244085 0.104995996 0.004338543 0.05215311 -0.03728575 0.071137324
00000000: ff54 01be 7cef 8cbd 7620 9a3d 1970 1d3e
00000010: 9307 e03d abd9 2bbe 0b03 dc3d ca73 c4bd
00000020: d68e 9c3d 1c4a e7bd 2d00 31bd cd26 d83d
00000030: 7058 6a3d ea83 053e 0f9d d3bc 5e73 1ebb
00000040: 4126 a83d 093f cf3d fbdd 843d d295 a2bd
00000050: 288c 053e bbd0 94bd 515f 2abe 22db d5bd
00000060: 1286 d03d 9563 10bb 3ff4 e93d 4c8d 5bbd
00000070: 6749 eb3d 285d 03be a78d 08be c4bf ac3d
00000080: feeb 193e 4c0f 06be 237e 203e 55cc cbbd
00000090: 316b e1bd 4842 d63d d1a2 7fbd 6fcb 903d
000000a0: bcf9 79bd 5102 333d 177c db3c 58e1 bb3d
000000b0: d1bc 073e ce29 80bc f5f2 b7bd b4c9 0cbd
000000c0: db73 203e ab68 c7bd 5fe4 87bd dbc3 d63c
000000d0: e9cf 91bc b8f7 133c 92d3 f2bd 29ea 3539
000000e0: 71e6 39bd 827d 11bd b578 8abd 5059 8f3d
000000f0: 9a49 79bd c1bf 8d3c 98c5 b73d 64fd c13c
00000100: 5d2d f33d b08b ac3d 4eec 9dbc 6945 9fbc
00000110: 006a 693d 3d2e f6bd a014 133e 6cee 44bd
00000120: 5ed8 e2bd c9dc 94bd d748 a6bd 5824 963d
00000130: c80c 1fbe 5ebd 4a3d 3a5c fb3b 45e2 5dbd
00000140: 2ae1 b53d 4b76 15be 37e0 613d 33af 59bc
00000150: 169f c3bd e12d b63d d344 1bbc 3847 c4bd
00000160: 4f14 78bd 5f17 b73b d37b 8bbb 1cbf 153e
00000170: 2f26 25be 16b9 7f3d d810 233e 2940 ce3d
00000180: 49de e73d 378c 03be 2a3a 283d e9fc 32bd
00000190: 641c 5a3d 2170 ddbd 97a9 e73d 6ee1 9e3d
000001a0: 6ed3 cc3d d7ad 833a d666 e83c 490d 2e3d
000001b0: 6588 f0bd 3eee b83d 0f86 5abd c9cb 383d
000001c0: 09e9 2a3c 362e 803d f83d a63d 4a85 043e
000001d0: 49f8 053c 1df5 7ebd 2308 04be d304 fbbd
000001e0: 1e3c 453d 0810 103e 149e 8bbd 8b05 2f3c
000001f0: 8472 ca3d 5d11 f8bd 07d6 f8bd 30a4 dc3d
00000200: f4fa 43bc eb1a 48bd 1f73 9f3d d515 b33c
00000210: 19d4 a8bc 7f9c d3bd 2369 893d 961a a43d
00000220: ddc1 203d d888 e83d 3e65 38bd ef31 33bd
00000230: 42a4 3aba d4f0 583d cfc0 183c b5c8 7fbd
00000240: b15b bb3d ac37 1abe 60b9 fd3d 1630 dcbd
00000250: 9840 db3c af56 cf3d 8fb7 03be 282d 3e3c
00000260: 9039 9bbb 08a5 cdbb 955c 0abd 37cb 10bc
00000270: 1be8 d6bc f8a2 113e 1915 a93d 7fa3 18be
00000280: 215d 173d 26d2 a33c dbfc 46bd e4fe c3bd
00000290: 6cef 383d ca5b 1b3d 9b6b e3bd d8aa 2dbd
000002a0: c9a8 b53d f6f5 9bbd 66f3 f2bb 2424 073e
000002b0: d76d 90ba db67 9d3d d4ae 29bd 0d38 853c
000002c0: f0d5 8f3d 516f 393c a641 803c aede 8cbd
000002d0: aeb7 3cbd 5333 c03c 96c0 27bd cbc6 0c3d
000002e0: d8a9 cd3d 81d3 acbd 3992 c7bd 1b7d b93d
000002f0: 9e7c 4d3c e762 9cbd 6205 803c e03f edbd
00000300: 11be 393d 558a 0cbd 563f a3bd 54ae cc3d
00000310: cccd a7bd 4a6c bcbb a9eb e43d 622d f0bd
00000320: 69f7 54bd 88cb c2bd 0b4f 003d a6c9 bb3a
00000330: cc65 a53d 0382 a9bd 688d 0f3d 7825 9a3c
00000340: eefb b03d 6cf0 e83c b5df a9bd e7d7 063e
00000350: a9ed 5bbd 3a34 a83c 13fa 653d 1b74 0ebe
00000360: 6a5a 343d 3d4d 9dbd 5609 5e3d 6ce2 94bd
00000370: 660a 85bd 3cb7 a23c 5fe6 933d a974 a83d
00000380: adfb d83d b888 a3bd 1501 523d 5e51 d63d
00000390: 521c 5bbc 7bdc 463d 8c39 a03d c757 2c3c
000003a0: cbe4 85bd 8c25 b8bd 7066 c03c 6579 1dbd
000003b0: 96bf 8a3d ea52 e0bb 4d8e 293d a397 023d
000003c0: 3a86 853c 336e e9bb f758 01bd 1bb1 cb3c
000003d0: f9e9 05bc edf6 febd ec5b 8b3d af1d 33bb
000003e0: b281 a53d df90 933b 368a d73d 2408 d73d
000003f0: 562a 8e3b 809e 553d f1b8 18bd 72b0 913d

layers.0.forward_conv1d.bias f4 [32]
-0.124325335 0.11304079 -0.022620812 0.05150661 -0.1359973 -0.061054714 -0.07893813 -0.06703131
0.08611968 0.03899236 0.08180589 0.032412704 -0.100461945 0.08577531 0.079859495 0.01099847
-0.04552118 -0.084951736 0.042056825 -0.07442723 0.083345704 0.0073012346 -0.07782674 -0.1136824
-0.13327064 0.1412717 -0.025084276 -0.0010265418 -0.049705546 -0.06380019 -0.09060419 0.14291896
00000000: 489e febd ee81 e73d 484f b9bc 98f8 523d
00000010: e042 0bbe 8214 7abd 50aa a1bd b647 89bd
00000020: 845f b03d 74b6 1f3d d989 a73d 2fc3 043d
00000030: febe cdbd f7aa af3d 608d a33d ed32 343c
00000040: 6b74 3abd 2dfb adbd c743 2c3d 4e6d 98bd
00000050: 27b1 aa3d 323f ef3b a063 9fbd 51d2 e8bd
00000060: 1978 08be 87a9 103e 8a7d cdbc 078d 86ba
00000070: 0b98 4bbd ada9 82bd b18e b9bd 5959 123e

layers.0.backward_conv1d.weight f4 [32, 32, 1]
-0.051760618 -0.004259377 -0.020403216 -0.115628846 -0.08028445 -0.020778537 -0.038091127 0.105381034
0.12986143 0.025391048 0.020037398 0.021578062 -0.0587197 -0.067478016 -0.11474459 0.16074552
-0.07667136 -0.104646295 0.13374533 -0.10917635 0.09098429 0.17441933 -0.15254903 0.13483271
-0.13294092 -0.079509266 -0.047977775 -0.10853572 -0.047615003 0.09319261 0.012466349 -0.06951196
-0.13670729 0.11295173 0.14680411 -0.081227414 0.04184824 -0.04994473 0.062030077 -0.039649237
-0.057953313 0.009884203 0.01642475 0.032470055 -0.01604459 -0.016318249 0.1400028 -0.13912345
-0.11074744 -0.0045876317 -0.0374722 0.14270446 -0.12818913 0.007659837 0.078794286 0.16956516
0.062030535 -0.0753196 0.013585478 -0.068580516 -0.059392005 -0.15922873 0.09963315 0.05696897
-0.040575378 -0.10203223 -0.063637175 -0.05755627 0.07092757 -0.11705664 0.059216265 0.12553698
-0.10299878 -0.022209937 0.113457166 -0.06018215 -0.08073349 -0.11538355 -0.090261646 -0.011943307
0.1123178 -0.018174406 0.11182921 0.086719 -0.053763233 -0.1279632 -0.14447287 0.12601344
-0.005492308 0.13964815 -0.107426584 0.03931294 -0.008507684 -0.058760136 -0.10888252 0.060508322
-0.08664399 -0.0851154 0.06720933 0.0067626573 0.08547205 0.1599406 0.0025153642 -0.112567805
-0.1512476 0.044612344 0.021301853 -0.08870402 -0.032324743 -0.15937611 0.029393988 -0.16187905
0.10323889 -0.14318617 -0.039588712 0.07825601 -0.07273721 -0.055276584 0.05627775 0.027139805
0.0951953 0.018655587 0.03374133 0.025603553 0.14413099 0.110345 0.08556163 -0.03237625
0.019188775 -0.119636565 -0.07542604 -0.039515104 -0.075429246 -0.12370044 -0.08186856 0.039682124
-0.10578356 -0.035785593 0.07388612 0.0013961659 -0.16031702 0.13673097 -0.014003083 -0.092123054
-0.03911006 -0.13971154 0.04716185 0.13987342 0.018170133 0.12709434 0.10567038 0.011201739
-0.14312232 0.0790048 0.03996626 0.044889558 -0.16123295 -0.0060000536 0.15691586 0.060073778
0.070206024 -0.031234253 -0.006639476 -0.03719109 -0.07974992 -0.15306729 -0.012875155 -0.038882464
-0.14698607 -0.09464302 0.14266497 0.035545394 -0.007475975 0.11134129 0.066997185 0.13723457
-0.06560275 -0.043557044 0.05411052 -0.12765257 0.09590141 0.060492232 0.10456561 0.09888369
-0.034391426 -0.025902258 -0.044603404 0.033163287 0.0532686 0.06867528 -0.0875434 0.058627937
0.04587957 -0.07264414 0.09942331 0.12926024 0.026973296 0.060791414 -0.015895769 0.065766715
0.016164713 -0.025289599 0.117570475 -0.0070145745 -0.0031230699 -0.07479232 -0.07338215 0.07586987
0.061215166 0.045296483 0.055434406 0.003678898 0.0399553 -0.13094044 0.14554727 -0.006099899
-0.08787125 -0.007605391 0.020767808 0.09929751 0.14540166 0.0035297447 -0.08436633 0.07316303
-0.043805927 0.039027616 0.0114041 0.021464922 -0.035890214 0.05488407 -0.08258475 0.121008664
-0.0037881064 -0.004299279 -0.010439987 0.112860575 0.10244237 0.08455877 -0.013755818 0.1286755
0.0561662 0.049430545 -0.043221556 0.046520907 -0.06995285 0.10269432 0.015513777 0.112708814
-0.014008811 -0.01800267 -0.087010115 -0.0040937588 0.019436294 -0.012667673 -0.026510049 0.01587669
00000000: f102 54bd 3e92 8bbb a524 a7bc d1ce ecbd
00000010: 2c6c a4bd c037 aabc 7105 1cbd 03d2 d73d
00000020: 65fa 043e e300 d03c 7825 a43c 7ac4 b03c
00000030: 1184 70bd ea31 8abd 36ff eabd 799a 243e
00000040: e005 9dbd cc50 d6bd 89f4 083e da97 dfbd
00000050: f955 ba3d fb9a 323e d035 1cbe 9611 0a3e
00000060: aa21 08be c1d5 a2bd 5884 44bd fa47 debd
00000070: f307 43bd c4db be3d a83f 4c3c 495c 8ebd
00000080: fffc 0bbe 3d53 e73d d153 163e 8f5a a6bd
00000090: 0f69 2b3d d892 4cbd 4013 7e3d 3d67 22bd
000000a0: 7460 6dbd 5af1 213c 338d 863c 52ff 043d
000000b0: f26f 83bc d9ad 85bc e55c 0f3e 6176 0ebe
000000c0: 8ecf e2bd d853 96bb 737c 19bd 1e21 123e
000000d0: 0344 03be 5fff fa3b e65e a13d 7da2 2d3e
000000e0: bb13 7e3d 2a41 9abd a095 5e3c f173 8cbd
000000f0: 0845 73bd db0c 23be 770c cc3d 4b58 693d
00000100: 5e32 26bd 46f6 d0bd 3554 82bd 20c0 6bbd
00000110: 7942 913d 64bb efbd c18c 723d c48c 003e
00000120: 06f1 d2bd 9df1 b5bc 3b5c e83d 8f81 76bd
00000130: 9a57 a5bd 364e ecbd 19db b8bd dcad 43bc
00000140: e006 e63d 7ee2 94bc b606 e53d bb99 b13d
00000150: d636 5cbd c908 03be b2f0 13be ab09 013e
00000160: d2f8 b3bb edff 0e3e 7802 dcbd 9b06 213d
00000170: d063 0bbc 78ae 70bd ccfd debd 93d7 773d
00000180: 6772 b1bd fc50 aebd 0ca5 893d 4899 dd3b
00000190: f80b af3d 78c7 233e cfd8 243b f389 e6bd
000001a0: a7e0 1abe 6fbb 363d 3981 ae3c 74aa b5bd
000001b0: f366 04bd 7e33 23be a9cb f03c 9fc3 25be
000001c0: e96e d33d 659f 12be c627 22bd b044 a03d
000001d0: 3ff7 94bd b369 62bd 7f83 663d 4c54 de3c
000001e0: c1f5 c23d 9ad3 983c 5934 0a3d 8bbe d13c
000001f0: 1397 133e 8ffc e13d f03a af3d f59c 04bd
00000200: c731 9d3c 0404 f5bd f878 9abd 97da 21bd
00000210: a67a 9abd a856 fdbd b4aa a7bd b989 223d
00000220: 0da5 d8bd ea93 12bd 9b51 973d 8eff b63a
00000230: 252a 24be 3403 0c3e 306d 65bc 03ab bcbd
00000240: df31 20bd 8b10 0fbe c92c 413d fa3a 0f3e
00000250: 88d9 943c 0525 023e b669 d83d 8087 373c
00000260: a88e 12be 45cd a13d a9b3 233d 1dde 373d
00000270: 401a 25be 199c c4bb 8dae 203e ec0f 763d
00000280: 2dc8 8f3d fade ffbc f68f d9bb af55 18bd
00000290: ed53 a3bd acbd 1cbe 50f2 52bc 3843 1fbd
000002a0: 8483 16be 33d4 c1bd c416 123e 0c98 113d
000002b0: 06f9 f4bb e706 e43d d235 893d 3887 0c3e
000002c0: bc5a 86bd df68 32bd fea2 5d3d 5bb7 02be
000002d0: f567 c43d b4c6 773d 7f26 d63d 8883 ca3d
000002e0: 06de 0cbd f930 d4bc 0fb2 36bd 3ad6 073d
000002f0: 2d30 5a3d a0a5 8c3d f449 b3bd d923 703d
00000300: 37ec 3b3d 73c6 94bd 739e cb3d cc5c 043e
00000310: 1af7 dc3c 6b00 793d d837 82bc b3b0 863d
00000320: dc6b 843c 222c cfbc cac8 f03d 84da e5bb
00000330: 6bac 4cbb b72c 99bd 6149 96bd aa61 9b3d
00000340: c1bc 7a3d ce88 393d 300f 633d ab19 713b
00000350: 2ba8 233d 4015 06be 580a 153e a9e1 c7bb
00000360: d8f5 b3bd a536 f9bb 4021 aa3c 7e5c cb3d
00000370: 2ce4 143e 4a53 673b 41c8 acbd 80d6 953d
00000380: d86d 33bd 6cdb 1f3d 43d8 3a3c 34d7 af3c
00000390: 9e01 13bd 1ece 603d 3222 a9bd 64d3 f73d
000003a0: e141 78bb f7e0 8cbb 7b0c 2bbc 7223 e73d
000003b0: 4ecd d13d 262d ad3d 1560 61bc 83c3 033e
000003c0: 880e 663d af77 4a3d 1609 31bd b58c 3e3d
000003d0: 7143 8fbd 6651 d23d 7f2d 7e3c e1d3 e63d
000003e0: 3685 65bc 567a 93bc 5c32 b2bd f024 86bb
000003f0: dd38 9f3c 128c 4fbc 9a2b d9bc d50f 823c

layers.0.backward_conv1d.bias f4 [32]
-0.12977988 -0.13767149 -0.11130837 0.040310696 -0.15639248 -0.05355387 0.083712034 0.019096011
0.08801143 0.035663527 0.12166162 -0.12181532 -0.07859525 0.010741218 -0.14443061 0.075368404
0.104210004 -0.12599176 -0.14353836 0.035825815 0.0058661783 -0.095219634 0.031109193 -0.059971146
-0.039379727 0.093806386 0.13982488 0.050574202 -0.13384585 0.122394495 0.12167243 -0.050456602
00000000: 04e5 04be c1f9 0cbe a5f5 e3bd d41c 253d
00000010: 5a25 20be 4e5b 5bbd 3771 ab3d 3d6f 9c3c
00000020: 563f b43d eb13 123d ba29 f93d 4f7a f9bd
00000030: 8cf6 a0bd effb 2f3c 9ee5 13be c05a 9a3d
00000040: 0e6c d53d fc03 01be b8fb 12be 17be 123d
00000050: 1239 c03b 8302 c3bd b5d8 fe3c 4ea4 75bd
00000060: a34c 21bd 901d c03d 412e 0f3e e526 4f3d
00000070: e30e 09be f7a9 fa3d 652f f93d 95ab 4ebd

layers.0.norm.weight f4 [32]
0.95941305 0.94999385 0.83722043 0.95588607 0.9375484 0.8588261 0.9192778 0.95703405
0.8889804 0.93826514 0.95668477 0.919216 0.88477236 0.9690711 0.92033994 0.9397482
0.8413563 0.9163282 0.9546021 0.9340562 0.9263095 0.9089259 0.9216138 0.87025046
0.9371355 0.92622447 0.9310265 0.86099726 0.9536421 0.93232954 0.9832496 0.9738294
00000000: 189c 753f cc32 733f 1454 563f f3b4 743f
00000010: 2c03 703f 07dc 5b3f ca55 6b3f 2f00 753f
00000020: 3894 633f 2532 703f 4be9 743f bd51 6b3f
00000030: 7180 623f 0b15 783f 669b 6b3f 5793 703f
00000040: 2063 573f 7c94 6a3f ce60 743f 4f1e 6f3f
00000050: 9f22 6d3f 5eaf 683f e2ee 6b3f bcc8 5e3f
00000060: 1de8 6f3f 0c1d 6d3f c157 6e3f 516a 5c3f
00000070: e321 743f 26ad 6e3f 3fb6 7b3f e24c 793f

layers.0.norm.bias f4 [32]
-0.005976462 -0.0007610572 0.010050581 -0.0009846195 -0.0007052588 0.023759473 -0.0045870407 0.0055954815
-0.003806042 -0.008655031 -0.0011112546 -0.0012182187 0.010713009 0.001191232 0.008017074 -0.0110538835
-0.00069589796 0.005775577 -0.0023513543 0.010626002 0.007946529 -0.002022905 0.011413609 -0.0033097856
-0.0042888913 0.0038283884 -0.01508277 0.008123802 0.007377174 -0.0119864065 -0.0027181434 0.0005923378
00000000: 32d6 c3bb af81 47ba 31ab 243c 590e 81ba
00000010: 1ee1 38ba 3aa3 c23c e34e 96bb 4d5a b73b
00000020: ca6e 79bb d5cd 0dbc 84a7 91ba a3ac 9fba
00000030: 9e85 2f3c 1d23 9c3a 0c5a 033c 591b 35bc
00000040: ec6c 36ba 0d41 bd3b 2e19 1abb af18 2e3c
00000050: 2932 023c b792 04bb 2500 3b3c fde8 58bb
00000060: d489 8cbb b3e5 7a3b b91d 77bc b219 053c
00000070: 39bc f13b a262 44bc e122 32bb 1e47 1b3a

layers.0.ssm.A_log f4 [32, 32]
-0.0005303768 0.3426081 0.84488726 1.0023474 1.1589426 1.338865 1.4915323 1.6287434
1.7408407 1.8456084 1.9405638 2.0267456 2.1063542 2.1801116 2.2487636 2.31302
2.3733563 2.4302974 2.484169 2.5352545 2.5838726 2.6302447 2.6745434 2.7169542
2.7576413 2.7967598 2.834401 2.8706677 2.9056697 2.939482 2.9721837 3.003851
-0.0008504878 0.301511 0.7041042 0.9459082 1.1582133 1.3388162 1.4913828 1.6247702
1.7408382 1.8454843 1.9403017 2.0267534 2.1063511 2.1801171 2.2487593 2.3130069
2.3733726 2.4303052 2.4841704 2.5352592 2.5838757 2.630241 2.6745393 2.716954
2.7576408 2.7967598 2.8344 2.870668 2.9056683 2.939482 2.9721842 3.003851
-0.0003046103 0.30231375 0.73958313 0.9523189 1.158172 1.3387501 1.4914246 1.6247308
1.7408227 1.84545 1.9403214 2.0267463 2.1063523 2.180087 2.2487578 2.3129992
2.3733702 2.4303138 2.4841702 2.535245 2.583873 2.6302395 2.674542 2.7169538
2.7576408 2.7967598 2.8344002 2.8706677 2.9056697 2.939482 2.9721837 3.003851
0.0023017465 0.4819471 0.97255063 1.1152526 1.1630752 1.3394002 1.4942611 1.6567667
1.7416031 1.8491979 1.9418393 2.0267508 2.1063473 2.1803315 2.248773 2.3131125
2.373384 2.4303296 2.4841716 2.5352764 2.5838816 2.6302369 2.67454 2.716965
2.7576427 2.7967603 2.8344026 2.870668 2.9056678 2.939482 2.9721842 3.003851
-0.0010916382 0.28356093 0.6910803 0.9424247 1.1584191 1.338882 1.4915335 1.6240623
1.7408458 1.8455184 1.9402368 2.0267372 2.1063535 2.180067 2.248749 2.3130124
2.3733706 2.4303136 2.484171 2.535253 2.583872 2.6302376 2.6745408 2.716953
2.757641 2.7967598 2.8344004 2.8706677 2.9056702 2.939482 2.9721837 3.003851
-0.00019212031 0.43698066 0.91684973 1.0567504 1.1633987 1.3397107 1.4932534 1.6551996
1.7415874 1.851274 1.944232 2.026806 2.1063685 2.1806374 2.248859 2.3132656
2.373415 2.4305127 2.4841692 2.5354598 2.5839288 2.6302884 2.6745703 2.71707
2.7576396 2.796759 2.8344162 2.8706682 2.9056878 2.9394822 2.9721801 3.003849
-0.0011970941 0.28698695 0.74206233 0.9412212 1.1602353 1.3390877 1.4919047 1.6238266
1.7409241 1.8457421 1.9401504 2.026735 2.1063452 2.1801724 2.2487538 2.3130515
2.37338 2.4302962 2.4841707 2.5352483 2.5838766 2.6302445 2.6745405 2.7169507
2.7576413 2.7967598 2.8344 2.8706677 2.9056685 2.939482 2.9721842 3.003851
-0.0018778582 0.31204632 0.76879245 0.9656636 1.1583637 1.3388392 1.4915155 1.6245896
1.7408433 1.8455042 1.9402738 2.0267477 2.1063511 2.1800768 2.248754 2.3130043
2.3733714 2.4303157 2.48417 2.5352483 2.583874 2.63024 2.6745415 2.7169545
2.7576408 2.7967598 2.8344004 2.870668 2.90567 2.939482 2.972184 3.003851
00000000: fc08 0bba 546a af3e 884a 583f eb4c 803f
00000010: 3b58 943f ee5f ab3f 88ea be3f aa7a d03f
00000020: ded3 de3f e53c ec3f 6564 f83f 33b6 0140
00000030: 82ce 0640 f386 0b40 beeb 0f40 8508 1440
00000040: 12e5 1740 fe89 1b40 a0fc 1e40 9c41 2240
00000050: 2b5e 2540 ee55 2840 b82b 2b40 94e2 2d40
00000060: 327d 3040 1dfe 3240 d366 3540 05b9 3740
00000070: 7ef6 3940 7920 3c40 4238 3e40 183f 4040
00000080: 45f3 5eba a65f 9a3e 2c40 343f 0a27 723f
00000090: 5540 943f 545e ab3f a2e5 be3f 78f8 cf3f
000000a0: c9d3 de3f d438 ec3f ce5b f83f 54b6 0140
000000b0: 75ce 0640 0a87 0b40 aceb 0f40 4e08 1440
000000c0: 56e5 1740 1f8a 1b40 a6fc 1e40 b041 2240
000000d0: 385e 2540 de55 2840 a72b 2b40 93e2 2d40
000000e0: 307d 3040 1dfe 3240 cf66 3540 06b9 3740
000000f0: 78f6 3940 7920 3c40 4438 3e40 183f 4040
00000100: 1ab4 9fb9 dec8 9a3e 5255 3d3f 2ccb 733f
00000110: fb3e 943f 2a5c ab3f 00e7 be3f 2ef7 cf3f
00000120: 47d3 de3f b537 ec3f 745c f83f 36b6 0140
00000130: 7ace 0640 8c86 0b40 a6eb 0f40 2e08 1440
00000140: 4ce5 1740 438a 1b40 a5fc 1e40 7441 2240
00000150: 2d5e 2540 d855 2840 b22b 2b40 92e2 2d40
00000160: 307d 3040 1dfe 3240 d066 3540 05b9 3740
00000170: 7ef6 3940 7920 3c40 4238 3e40 183f 4040
00000180: e6d8 163b c5c1 f63e 14f9 783f 99c0 8e3f
00000190: a6df 943f 7771 ab3f f343 bf3f ee10 d43f
000001a0: daec de3f 84b2 ec3f 318e f83f 49b6 0140
000001b0: 65ce 0640 8d8a 0b40 e6eb 0f40 090a 1440
000001c0: 86e5 1740 858a 1b40 abfc 1e40 f841 2240
000001d0: 515e 2540 cd55 2840 aa2b 2b40 c1e2 2d40
000001e0: 387d 3040 1ffe 3240 da66 3540 06b9 3740
000001f0: 76f6 3940 7920 3c40 4438 3e40 183f 4040
00000200: 4d15 8fba e62e 913e a3ea 303f bf42 713f
00000210: 1447 943f 7c60 ab3f 92ea be3f 46e1 cf3f
00000220: 09d4 de3f f239 ec3f ae59 f83f 10b6 0140
00000230: 7fce 0640 3886 0b40 81eb 0f40 6508 1440
00000240: 4ee5 1740 428a 1b40 a8fc 1e40 9641 2240
00000250: 295e 2540 d055 2840 ad2b 2b40 8fe2 2d40
00000260: 317d 3040 1dfe 3240 d166 3540 05b9 3740
00000270: 80f6 3940 7920 3c40 4238 3e40 183f 4040
00000280: e773 49b9 eebb df3e aab6 6a3f 9943 873f
00000290: 40ea 943f a47b ab3f ed22 bf3f 95dd d33f
000002a0: 56ec de3f 8cf6 ec3f 98dc f83f 31b7 0140
000002b0: bece 0640 908f 0b40 4eed 0f40 8b0c 1440
000002c0: 08e6 1740 858d 1b40 a1fc 1e40 f944 2240
000002d0: 175f 2540 a556 2840 292c 2b40 7ae4 2d40
000002e0: 2b7d 3040 19fe 3240 1367 3540 07b9 3740
000002f0: caf6 3940 7a20 3c40 3338 3e40 103f 4040
00000300: d0e7 9cba f4ef 923e ccf7 3d3f dff3 703f
00000310: 9782 943f 3a67 ab3f bcf6 be3f 8dd9 cf3f
00000320: 9ad6 de3f 4741 ec3f d956 f83f 07b6 0140
00000330: 5cce 0640 f287 0b40 95eb 0f40 0909 1440
00000340: 75e5 1740 f989 1b40 a7fc 1e40 8241 2240
00000350: 3c5e 2540 ed55 2840 ac2b 2b40 85e2 2d40
00000360: 327d 3040 1dfe 3240 cf66 3540 05b9 3740
00000370: 79f6 3940 7920 3c40 4438 3e40 183f 4040
00000380: 7722 f6ba 89c4 9f3e 95cf 443f bb35 773f
00000390: 4345 943f 155f ab3f fbe9 be3f 8df2 cf3f
000003a0: f4d3 de3f 7b39 ec3f e45a f83f 3cb6 0140
000003b0: 75ce 0640 6186 0b40 96eb 0f40 4308 1440
000003c0: 51e5 1740 4b8a 1b40 a4fc 1e40 8241 2240
000003d0: 315e 2540 da55 2840 b02b 2b40 95e2 2d40
000003e0: 307d 3040 1dfe 3240 d166 3540 06b9 3740
000003f0: 7ff6 3940 7920 3c40 4338 3e40 183f 4040

layers.0.ssm.D f4 [32]
0.9663241 0.95211124 0.96163577 0.9926895 0.8997084 0.99997365 0.9638537 0.9566678
0.9772315 0.888978 0.9662418 0.926951 0.98322994 0.90371954 0.92163384 0.93010443
0.9385267 0.91833085 0.97767025 0.9502348 0.9635051 0.98884577 0.9804815 0.9729501
0.92094857 0.93625534 0.98483014 0.98410106 0.9366703 0.93794554 0.9643364 0.96500236
00000000: 0461 773f 90bd 733f c32d 763f e620 7e3f
00000010: 4a53 663f 46fe 7f3f 1ebf 763f 2ee8 743f
00000020: d82b 7a3f 1094 633f 9f5b 773f a94c 6d3f
00000030: f5b4 7b3f 2a5a 673f 32f0 6b3f 531b 6e3f
00000040: 4943 703f bb17 6b3f 9948 7a3f 9642 733f
00000050: 45a8 763f ff24 7d3f d600 7b3f 4213 793f
00000060: 49c3 6b3f 6eae 6f3f d41d 7c3f 0cee 7b3f
00000070: a0c9 6f3f 331d 703f c0de 763f 650a 773f

layers.0.ssm.deltaBC_layer.weight f4 [96, 32]
0.047894772 -0.061489306 -0.061007846 -0.019555103 -0.06736102 0.13607278 -0.02411935 -0.062393002
0.097894706 0.123012155 0.045139078 -0.04449623 0.03614345 -0.081789166 0.11420676 0.10909781
-0.012018014 0.101277076 0.02664025 -0.07918131 -0.104400985 0.11278934 -0.09304771 0.0024379024
0.07690385 -0.06847158 0.044097017 -0.12565094 0.014040406 0.14126633 -0.11437981 -0.10559973
-0.12049276 0.00557867 0.067886434 -0.10909688 -0.025903003 -0.020294443 0.037397422 0.113995135
-0.103161484 -0.053744927 0.062418055 0.07601913 0.06393119 -0.026601166 0.10027811 -0.007331995
0.11837849 -0.12552875 -0.08314748 0.15908957 -0.10220377 0.12478837 0.15109134 0.14080572
-0.03934384 -0.110866226 -0.015656859 -0.15112582 0.12199979 0.1359317 0.093848884 0.004493364
0.08180021 -0.082090005 0.04554779 0.011203708 -0.081187695 0.06568372 -0.048338763 -0.10570531
-0.0104802875 -0.15386313 -0.11232866 0.02282724 0.042823423 0.11260807 -0.039256163 -0.054356154
-0.048929654 0.08980397 -0.061279327 0.042675875 -0.04028993 0.06841987 -0.1666654 -0.04708569
0.054679915 -0.005531854 0.11449809 0.097080424 0.08396739 0.0377168 -0.0759026 -0.11860981
0.094290644 0.062347546 -0.058783907 -0.05492148 -0.11266293 0.02315285 -0.039641127 -0.11507609
0.14418915 0.14161721 -0.007974849 0.10159109 0.08786088 0.09575827 0.14365402 0.0018329696
0.14256322 0.1171174 0.14287044 -0.045457877 -0.018125026 0.0697993 -0.06802967 -0.088730834
0.011108893 0.023888024 0.081269905 -0.07276672 -0.014627029 -0.1356394 0.01581297 0.15185286
-0.052287422 -0.05855524 -0.13601889 -0.03074426 -0.08500507 0.01457514 -0.12828992 0.08152857
0.09545869 0.051666323 0.11336915 0.123486586 0.021152956 0.14380467 0.118017524 -0.15250266
-0.05035558 0.0640879 0.14248969 -0.012855758 -0.14328814 0.10582061 0.045218885 0.067766875
-0.15431905 -0.06950052 0.14514996 0.0031209115 -0.021980954 -0.08641947 0.014851048 0.1118237
-0.094859146 -0.15316027 -0.03793295 0.11777758 0.11995799 0.010630311 0.0641656 -0.002721394
-0.062047876 -0.14474748 -0.13740268 -0.15067974 0.022334492 0.08403178 0.04647277 0.14905973
-0.07269687 0.01606065 -0.15885691 -0.057977274 -0.14296763 0.11807689 -0.037775036 0.0010982581
0.09322848 -0.012921198 -0.028947784 0.058782846 -0.013245401 -0.15378171 0.00043953408 0.053783957
-0.06061389 -0.097193114 -0.060128964 -0.15867755 -0.047236722 -0.0758855 -0.11417574 -0.039152462
-0.11353777 0.04495629 -0.14529349 0.1235144 0.10711505 0.02620932 0.10829437 -0.031340085
0.045710336 -0.11250357 -0.04779968 -0.15887855 -0.16237116 -0.02762523 -0.0049001607 0.100250855
-0.04465337 0.014879374 0.034645326 0.0631567 -0.052157946 -0.088332914 -0.034188516 -0.16097932
0.0775767 -0.027168982 0.079908535 -0.09955418 -0.03499538 0.08424114 -0.014012945 0.08911608
0.061376944 -0.155787 0.12198265 0.10363669 -0.14111732 0.106228285 0.06407576 0.13284732
0.08871204 -0.100630865 -0.07711618 0.12008925 -0.09691545 -0.032946847 -0.09676505 0.06360028
-0.13428056 0.09698568 -0.101658784 -0.014220256 -0.013428133 0.09686679 -0.11436391 0.10936739
00000000: 4f2d 443d 36dc 7bbd 5de3 79bd 0632 a0bc
00000010: 93f4 89bd aa56 0b3e f195 c5bc ce8f 7fbd
00000020: 057d c83d cced fb3d c1e3 383d ae41 36bd
00000030: 270b 143d 1481 a7bd 3ce5 e93d ac6e df3d
00000040: 34e7 44bc 5b6a cf3d a73c da3c d029 a2bd
00000050: 2fd0 d5bd 19fe e63d cc8f bebd 37c5 1f3b
00000060: c47f 9d3d d43a 8cbd 139f 343d a4aa 00be
00000070: bb09 663c 1fa8 103e f63f eabd ac44 d8bd
00000080: e8c4 f6bd 47cd b63b 0b08 8b3d 2f6e dfbd
00000090: 8932 d4bc 8840 a6bc 0a2e 193d 4876 e93d
000000a0: 5446 d3bd a423 5cbd 13aa 7f3d ebaf 9b3d
000000b0: 5bee 823d b0ea d9bc 9c5e cd3d 3b41 f0bb
000000c0: 6c70 f23d 9c8a 00be 3a49 aabd 60e8 223e
000000d0: 3650 d1bd 0c91 ff3d b0b7 1a3e 602f 103e
000000e0: 0227 21bd d50d e3bd d042 80bc bac0 1abe
000000f0: 07db f93d ae31 0b3e d833 c03d 123d 933b
00000100: de86 a73d ce1e a8bd 5290 3a3d c28f 373c
00000110: bc45 a6bd 3085 863d defe 45bd 077c d8bd
00000120: 83b5 2bbc 4c8e 1dbe 920c e6bd 3100 bb3c
00000130: 9d67 2f3d 0f9f e63d 12cb 20bd 8fa4 5ebd
00000140: 766a 48bd 25eb b73d 0800 7bbd e6cc 2e3d
00000150: 0e07 25bd b81f 8c3d 56aa 2abe eddc 40bd
00000160: 0cf8 5f3d 8e44 b5bb fa7d ea3d 1ad2 c63d
00000170: 18f7 ab3d ee7c 1a3d d372 9bbd b3e9 f2bd
00000180: 741b c13d 2460 7f3d 65c7 70bd 59f5 60bd
00000190: d2bb e6bd 0cab bd3c bc5e 22bd 03ad ebbd
000001a0: 52a6 133e 1a04 113e f1a8 02bc fd0e d03d
000001b0: 68f0 b33d e91c c43d 0a1a 133e 4140 f03a
000001c0: 18fc 113e 3fdb ef3d a14c 123e 0a32 3abd
000001d0: ef7a 94bc eff2 8e3d 2453 8bbd 83b8 b5bd
000001e0: 1302 363c d1b0 c33c d670 a63d b806 95bd
000001f0: 35a6 6fbc 0ee5 0abe 348a 813c 517f 1b3e
00000200: 562b 56bd 9fd7 6fbd 8948 0bbe 63db fbbc
00000210: 2317 aebd 91cc 6e3c 6f5e 03be 73f8 a63d
00000220: d87f c33d 11a0 533d 162e e83d 89e6 fc3d
00000230: f748 ad3c 8841 133e 2cb3 f13d a829 1cbe
00000240: a741 4ebd 8440 833d d1e8 113e f5a0 52bc
00000250: 20ba 12be 7ab8 d83d 7037 393d 5cc9 8a3d
00000260: d005 1ebe 4a56 8ebd 31a2 143e 3588 4c3b
00000270: 6711 b4bc b1fc b0bd cf51 733c d303 e53d
00000280: 8345 c2bd 0cd6 1cbe 955f 1bbd 5f35 f13d
00000290: 89ac f53d c22a 2e3c 4169 833d 6a59 32bb
000002a0: ea25 7ebd af38 14be 4ab3 0cbe ca4b 1abe
000002b0: d3f6 b63c db18 ac3d 3b5a 3e3d 1da3 183e
000002c0: 19e2 94bd a091 833c 63ab 22be 9479 6dbd
000002d0: 1b66 12be 4cd2 f13d ffb9 1abd 6df3 8f3a
000002e0: 93ee be3d 6fb3 53bc e723 edbc 48c6 703d
000002f0: 3d03 59bc f478 1dbe 4471 e639 914c 5c3d
00000300: 4546 78bd 2f0d c7bd ca49 76bd 5e7c 22be
00000310: 4b7b 41bd db69 9bbd f8d4 e9bd 555e 20bd
00000320: 7e86 e8bd 1624 383d d1c7 14be 1ef5 fc3d
00000330: 235f db3d eeb4 d63c 70c9 dd3d 765e 00bd
00000340: c33a 3b3d 4668 e6bd 99c9 43bd 0fb1 22be
00000350: a044 26be 4e4e e2bc 8791 a0bb 5250 cd3d
00000360: 74e6 36bd 9ec8 733c 42e8 0d3d 4d58 813d
00000370: 92a3 55bd e3e7 b4bd 4209 0cbd c3d7 24be
00000380: 88e0 9e3d 7c91 debc 16a7 a33d 10e3 cbbd
00000390: 5157 0fbd 9e86 ac3d 8d96 65bc 7e82 b63d
000003a0: 6466 7b3d a186 1fbe 0ad2 f93d 793f d43d
000003b0: 0f81 10be 378e d93d 273a 833d 2109 083e
000003c0: a8ae b53d 8e17 cebd 16ef 9dbd 5af1 f53d
000003d0: 9c7b c6bd 46f3 06bd c12c c6bd dd40 823d
000003e0: d880 09be 6ea0 c63d 7b32 d0bd 14fc 68bc
000003f0: ac01 5cbc 1862 c63d a037 eabd 03fc df3d

layers.0.ssm.dt_proj_layer.weight f4 [32, 32]
0.007770166 -0.06086753 -0.09682065 0.13707845 -0.015614642 -0.059411384 0.11667905 0.027264714
-0.033566695 -0.1180376 -0.010806375 0.052070606 0.047700424 0.13881172 0.015225769 -0.040259197
-0.17846134 0.087034866 -0.01733262 0.01244687 0.07625556 -0.116897464 -0.16341461 0.08356484
0.0850687 -0.057418887 -0.108899556 -0.04400611 0.074448146 -0.07875725 0.1184369 0.07580148
-0.003214559 0.082352825 0.08726682 -0.027569287 0.063840695 -0.012917286 0.09946305 0.054404106
0.0022215121 -0.066231266 0.010886603 -0.02734294 0.07952458 -0.097320214 -0.031376135 0.016247401
-0.037678856 -0.05252104 -0.023463067 0.047507726 0.05672001 -0.027332203 -0.017845325 -0.057634085
-0.14818865 -0.06766513 0.06765161 0.062323213 0.07309983 0.08377224 -0.030269697 0.055901524
0.049763635 0.15414098 -0.12872419 -0.08448565 0.07324516 -0.021568872 0.11827386 0.035544977
-0.032215085 0.07826208 0.067463934 -0.14630376 -0.12853386 0.0020369762 0.11335711 -0.11400745
0.0052874014 -0.14460215 0.12902705 0.12762733 0.04403428 -0.035429385 -0.06350351 -0.024977414
-0.046252944 -0.09371249 -0.018342791 -0.01305441 -0.057266645 0.042712703 0.038178727 0.010400493
0.06430915 0.08541022 -0.096282594 0.16178447 -0.031906385 -0.1420209 0.09493258 0.10118482
-0.0689435 0.017002992 -0.028786454 -0.101718254 0.17097259 0.029185522 -0.09158919 0.14330943
0.09757444 0.01950076 0.12235275 0.08578044 0.14730304 0.02238618 0.1142112 0.06423236
-0.15333539 0.09750805 0.079605564 0.14999346 -0.15113123 0.0039629787 -0.12941398 -0.0768501
0.01583615 0.046349518 0.039552853 0.059727516 -0.040196978 0.079857916 0.08479103 -0.030170921
0.030845085 -0.099658124 0.0006015606 0.07881868 0.03273223 0.014481334 0.020781627 -0.027586421
0.10397229 0.01716091 -0.10588855 0.0032002905 -0.0742324 0.048611347 0.04448968 -0.022396509
-0.04805397 -0.04422081 -0.0018678299 -0.13824858 -0.029868618 0.10153448 0.015392912 -0.09675775
0.01798175 -0.03345462 0.1584902 -0.03686859 0.094342895 -0.03427449 0.16879223 0.059058815
0.01425227 -0.030413024 0.02445772 0.09207053 0.13149941 0.11364071 -0.08630887 -0.041943498
-0.10075343 -0.0055408888 0.07614193 0.13780166 -0.031421088 -0.06837079 0.14619647 -0.02897888
-0.052515652 0.13083239 -0.06740161 0.15658906 0.079371154 -0.11921298 -0.14118987 0.15858704
-0.067100696 -0.04868263 -0.04484902 -0.023157608 0.03885939 -0.09573676 0.03733289 -0.048204932
0.022320759 -0.006226717 -0.020179555 -0.092311494 -0.11022001 0.080727585 -0.007999618 -0.04631262
0.11996623 -0.10814061 -0.028204832 0.042462986 -0.007791808 0.036420237 -0.052284203 -0.0200066
-0.123093456 0.014930888 -0.00491801 0.0060489452 0.07372827 0.045074556 0.08942798 0.03239782
-0.041193258 0.05738713 -0.12439797 0.14066708 -0.05075634 -0.027180936 -0.14430638 0.076892905
0.0032081744 0.13393103 -0.030298097 -0.076549515 -0.111158356 0.10805251 0.030559309 0.09064064
-0.13843751 -0.063758425 0.07187447 0.06970696 -0.06499494 0.14543125 0.061063174 0.025141427
0.10487772 -0.04969126 -0.0011267851 0.06890542 -0.11273031 0.059634294 -0.01363453 -0.09685912
00000000: e09c fe3b 3b50 79bd e849 c6bd 4b5e 0c3e
00000010: 8ed4 7fbc 5a59 73bd 6df5 ee3d 405a df3c
00000020: 3b7d 09bd b2bd f1bd 390d 31bc fd47 553d
00000030: 8561 433d a924 0e3e 8175 793c d4e6 24bd
00000040: 92be 36be 563f b23d 24fd 8dbc f5ed 4b3c
00000050: e02b 9c3d f067 efbd 2956 27be 0b24 ab3d
00000060: 8038 ae3d 1130 6bbd bb06 dfbd c03f 34bd
00000070: 4578 983d 7b4b a1bd 0c8f f23d ce3d 9b3d
00000080: 5aab 52bb 99a8 a83d f2b8 b23d fcd8 e1bc
00000090: e9be 823d 06a3 53bc 49b3 cb3d d7d6 5e3d
000000a0: ca96 113b 42a4 87bd b95d 323c 4dfe dfbc
000000b0: c8dd a23d d24f c7bd 4384 00bd 4519 853c
000000c0: 2555 1abd 4d20 57bd 9e35 c0bc 7697 423d
000000d0: 3e53 683d c9e7 dfbc 5c30 92bc b811 6cbd
000000e0: c4be 17be 0494 8abd ed8c 8a3d a046 7f3d
000000f0: 5db5 953d c890 ab3d 28f8 f7bc fff8 643d
00000100: f4d4 4b3d 22d7 1d3e 46d0 03be d006 adbd
00000110: 8f01 963d 34b1 b0bc 9139 f23d 9c97 113d
00000120: f7f3 03bd df47 a03d 882a 8a3d a7d0 15be
00000130: 619e 03be ca7e 053b c627 e83d bd7c e9bd
00000140: f041 ad3b 9612 14be ab1f 043e bdb0 023e
00000150: 4a5d 343d 671e 11bd 210e 82bd 6f9d ccbc
00000160: ba73 3dbd 55ec bfbd 9f43 96bc 2ae2 55bc
00000170: 6e90 6abd 84f3 2e3d 4c61 1c3d d466 2a3c
00000180: 84b4 833d 8eeb ae3d cf2f c5bd d4aa 253e
00000190: 45b0 02bd ed6d 11be 036c c23d fd39 cf3d
000001a0: 4032 8dbd dc49 8b3c 92d1 ebbc a951 d0bd
000001b0: 7013 2f3e 7a16 ef3c 1d93 bbbd b5bf 123e
000001c0: 1cd5 c73d 0fc0 9f3c 1494 fa3d a8ad af3d
000001d0: 9cd6 163e 3963 b73c 90e7 e93d 418c 833d
000001e0: f403 1dbe 4db2 c73d 3e08 a33d e397 193e
000001f0: 25c2 1abe e0db 813b 1985 04be 9663 9dbd
00000200: d0ba 813c fed8 3d3d 2c02 223d d7a4 743d
00000210: 96a5 24bd 8c8c a33d eba6 ad3d 0229 f7bc
00000220: d5ae fc3c 8f19 ccbd 0cb2 1d3a b06b a13d
00000230: 3b12 063d 1e43 6d3c 3b3e aa3c ebfc e1bc
00000240: 6def d43d 0995 8c3c 19dc d8bd f7bb 513b
00000250: 2807 98bd b11c 473d d03a 363d e278 b7bc
00000260: 3dd4 44bd e120 35bd f9d1 f4ba 0991 0dbe
00000270: 08af f4bc 4ff1 cf3d 8d32 7c3c ed28 c6bd
00000280: 774e 933c b607 09bd 414b 223e 8503 17bd
00000290: d936 c13d 6863 0cbd dfd7 2c3e a8e7 713d
000002a0: 5a82 693c bc24 f9bc 8e5b c83c 798f bc3d
000002b0: c8a7 063e 76bc e83d b4c2 b0bd f2cc 2bbd
000002c0: d057 cebd 5890 b5bb 4df0 9b3d e11b 0d3e
000002d0: 66b3 00bd fc05 8cbd 87b4 153e 1e65 edbc
000002e0: a71a 57bd edf8 053e db09 8abd e258 203e
000002f0: 588d a23d ef25 f4bd 1494 10be a464 223e
00000300: 176c 89bd 7067 47bd 9bb3 37bd 06b5 bdbc
00000310: 062b 1f3d a211 c4bd 5fea 183d 8972 45bd
00000320: 06da b63c 7d09 ccbb 984f a5bc cf0d bdbd
00000330: 07bb e1bd 8154 a53d d410 03bc 4db2 3dbd
00000340: dbb0 f53d d378 ddbd d20d e7bc abed 2d3d
00000350: 6c52 ffbb 632d 153d f627 56bd e2e4 a3bc
00000360: 6c18 fcbd afa0 743c 4227 a1bb 3b36 c63b
00000370: d9fe 963d 19a0 383d 0426 b73d 94b3 043d
00000380: 43ba 28bd c40e 6b3d 5dc4 febd 080b 103e
00000390: e1e5 4fbd 8eaa debc 0dc5 13be 077a 9d3d
000003a0: 3c40 523b 3725 093e b733 f8bc fec5 9cbd
000003b0: fea6 e3bd a24a dd3d 8457 fa3c cda1 b93d
000003c0: 90c2 0dbe c793 82bd ec32 933d 86c2 8e3d
000003d0: 111c 85bd eeeb 143e 611d 7a3d 65f5 cd3c
000003e0: 21ca d63d 1089 4bbd a2b0 93ba 491e 8d3d
000003f0: 26df e6bd 1743 743d 5d63 5fbc 135e c6bd

layers.0.ssm.dt_proj_layer.bias f4 [32]
-0.025883961 -0.12982218 -0.10199988 0.05171912 0.13250811 -0.08161385 -0.15569504 -0.12221335
-0.09786744 0.024176728 -0.092756964 -0.043368373 -0.15354912 0.06593696 -0.029773094 -0.05598089
0.17494567 -0.14024578 0.06023801 0.061021768 -0.035589106 0.06771065 -0.049230393 -0.06797715
-0.10672936 0.07535664 -0.093002215 -0.09040657 -0.11492994 -0.0112831695 0.15548141 -0.066503294
00000000: 9a0a d4bc 1bf0 04be 50e5 d0bd 6ed7 533d
00000010: 35b0 073e 2a25 a7bd 856e 1fbe fe4a fabd
00000020: b96e c8bd 460e c63c 5df7 bdbd 09a3 31bd
00000030: fb3b 1dbe f509 873d b4e6 f3bc 384c 65bd
00000040: f524 333e 979c 0fbe 22bc 763d f6f1 793d
00000050: e2c5 11bd e2ab 8a3d cfa5 49bd 9b37 8bbd
00000060: ec94 dabd 9554 9a3d f277 bebd 1427 b9bd
00000070: 6360 ebbd 0bdd 38bc 8536 1f3e e132 88bd

layers.0.proj.weight f4 [32, 32]
-0.03682324 0.0770089 0.11825235 0.123949826 0.10539316 0.1260397 0.049515914 -0.019501032
-0.037287362 0.05013117 0.12954146 0.046610303 -0.13837616 -0.044334013 0.05690124 0.03605995
-0.019709824 0.09876996 -0.15480404 0.14866614 -0.16121666 0.009849249 -0.12100116 0.022460276
-0.12493409 0.045166876 0.031075979 -0.05988821 0.060270566 0.07765752 0.06858769 -0.06204254
0.08727623 0.10046462 -0.1497511 0.059952922 0.056520097 -0.05162574 0.091595136 0.07739781
0.06301063 -0.12958373 0.02687138 0.047793966 -0.14792752 -0.06693222 0.14810507 0.14308217
-0.10290272 -0.022113377 -0.14047378 -0.15086278 0.0036739418 -0.114075586 0.12236356 0.07493113
0.10480862 0.062289566 0.026338361 -0.10201079 -0.0858002 0.057709727 0.1489438 0.057911187
-0.028461382 0.05707176 -0.027237063 -0.016517457 -0.06866189 -0.1422505 -0.06701954 -0.11571539
-0.0477069 -0.037864983 0.10816756 0.023483023 0.09092631 -0.15082146 0.11465646 0.061240405
0.069473416 -0.046585433 0.15508643 -0.13677576 -0.10723084 -7.927958e-05 -0.08684829 -0.05509669
0.024598373 -0.060914565 -0.04836138 0.12588245 0.019775698 -0.017709088 -0.025182402 0.13090645
-0.02584343 0.15320618 -0.13641328 -0.1477388 0.06655969 -0.13225015 0.06738745 0.10946048
-0.13458253 -0.055501536 0.068958476 -0.08602028 0.03539689 0.16216731 0.0042180386 0.13617207
0.03614287 0.032862537 0.13973002 0.061245646 -0.10208942 -0.050528493 0.08006054 -0.10438758
-0.110869505 -0.09858446 0.14149593 -0.034751225 -0.048000835 0.119649835 -0.15698412 -0.0786353
-0.008750277 0.036285263 0.037288085 -0.01968585 0.118042365 0.11690384 0.1087487 -0.061575897
0.12714334 0.102461755 -0.15176989 0.08216235 0.01905131 -0.18323368 -0.0056654243 -0.051685352
0.06983586 -0.03646664 0.103387356 -0.060554728 -0.062543474 0.048884638 -0.040266775 -0.06349849
0.0658457 -0.10970128 -0.028555142 -0.033534344 -0.108813 0.008255145 0.06474756 -0.006768736
-0.17181231 -0.0067019956 0.1343407 0.05458133 0.069757104 -0.09625571 0.14007354 -0.17921887
-0.09019241 -0.025113665 0.17819509 -0.15856758 -0.030116102 0.15127647 0.046378672 0.07364582
-0.03844171 0.13080075 -0.008259 0.08767625 0.04592736 0.038271975 0.104272895 0.10917479
-0.06740146 0.07047697 0.16037747 0.04776591 -0.13774185 -0.09418696 0.034619555 -0.12982678
-0.0063469238 0.06870109 -0.1495049 -0.11605865 0.012720523 -0.15167291 0.02260027 0.046280988
0.14159684 0.1410149 0.053679712 0.109132275 0.034809083 0.08269662 0.02990711 -0.009963724
-0.12978797 0.13118106 -0.006629566 -0.05059524 0.16138361 -0.13885508 -0.14496872 -0.17516428
-0.06765528 -0.0439018 -0.03073075 -0.15002541 -0.0003984547 0.1101734 0.027844312 0.0102371955
-0.0009061804 -0.0930803 -0.10770205 -0.05544728 0.09328674 0.068973154 -0.030222228 0.115462124
0.05201335 -0.12789935 -0.059356723 0.035594046 0.055525623 0.035223532 -0.06367805 -0.1461821
-0.14234035 0.054283444 0.15515192 0.090569064 0.029418683 -0.118654296 0.14147408 0.11328275
0.048447546 0.09589311 0.030397153 0.056877207 0.09887888 0.087243475 0.11397346 0.14149664
00000000: f7d3 16bd d8b6 9d3d 4a2e f23d 68d9 fd3d
00000010: 5ed8 d73d 8d10 013e 33d1 4a3d a1c0 9fbc
00000020: a2ba 18bd 5756 4d3d 84a6 043e 72ea 3e3d
00000030: 7bb2 0dbe 9597 35bd 4611 693d 99b3 133d
00000040: 7f76 a1bc e847 ca3d f384 1ebe f03b 183e
00000050: fb15 25be bf5e 213c 75cf f7bd 9dfe b73c
00000060: 72dd ffbd e700 393d 0d93 fe3c 574d 75bd
00000070: 45de 763d e80a 9f3d b477 8c3d 5220 7ebd
00000080: e1bd b23d 65c0 cd3d 5a58 19be 3291 753d
00000090: 9e81 673d 8375 53bd 3b96 bb3d be82 9e3d
000000a0: b80b 813d 99b1 04be 5e21 dc3c 9bc3 433d
000000b0: 507a 17be c213 89bd dba8 173e 2284 123e
000000c0: a9be d2bd 1d27 b5bc 5cd8 0fbe c67b 1abe
000000d0: 84c6 703b 76a0 e9bd bf99 fa3d 7e75 993d
000000e0: e7a5 d63d 5823 7f3d 8cc3 d73c 08eb d0bd
000000f0: 04b8 afbd 0961 6c3d b984 183e 4834 6d3d
00000100: d827 e9bc 14c4 693d 4320 dfbc 9e4f 87bc
00000110: 9b9e 8cbd 1daa 11be 8a41 89bd 31fc ecbd
00000120: 4f68 43bd 5018 1bbd f486 dd3d 785f c03c
00000130: 9337 ba3d f170 1abe 02d1 ea3d 38d7 7a3d
00000140: 1448 8e3d 5ed0 3ebd face 1e3e f20e 0cbe
00000150: d89b dbbd e742 a6b8 84dd b1bd 11ad 61bd
00000160: 8782 c93c 8d81 79bd 9516 46bd 54e7 003e
00000170: a500 a23c a612 91bc 534b cebc 570c 063e
00000180: 9ab5 d3bc 15e2 1c3e ecaf 0bbe d748 17be
00000190: 7250 883d 956c 07be 6e02 8a3d d12c e03d
000001a0: 01d0 09be 9455 63bd 1a3a 8d3d 672b b0bd
000001b0: 54fc 103d 300f 263e 7937 8a3b b170 0b3e
000001c0: 8c0a 143d de9a 063d 6315 0f3e b7dc 7a3d
000001d0: 4214 d1bd f7f6 4ebd c8f6 a33d 28c9 d5bd
000001e0: 8d0f e3bd a6e6 c9bd 4fe4 103e 4d57 0ebd
000001f0: 869c 44bd f90a f53d 72c0 20be 8b0b a1bd
00000200: 525d 0fbc db9f 143d 64bb 183d 3844 a1bc
00000210: 32c0 f13d 486b ef3d a3b7 de3d 0237 7cbd
00000220: dd31 023e 78d7 d13d 9169 1bbe bc44 a83d
00000230: 7e11 9c3c 9ca1 3bbe 06a5 b9bb 05b4 53bd
00000240: 1a06 8f3d 0b5e 15bd c0bc d33d 3c08 78bd
00000250: cb16 80bd 423b 483d c6ee 24bd 7f0b 82bd
00000260: 1cda 863d 11ab e0bd 79ec e9bc 4f5b 09bd
00000270: 5ad9 debd 9640 073c 5e9a 843d 46cc ddbb
00000280: 91ef 2fbe 6a9c dbbb 9c90 093e ac90 5f3d
00000290: d0dc 8e3d b721 c5bd 706f 0f3e 2785 37be
000002a0: ccb6 b8bd 2cbb cdbc c678 363e 8a5f 22be
000002b0: 0bb6 f6bc 38e8 1a3e 90f7 3d3d 9fd3 963d
000002c0: 0e75 1dbd a2f0 053e c250 07bc 9b8f b33d
000002d0: 541e 3c3d 13c3 1c3d 078d d53d 0897 df3d
000002e0: c709 8abd 3b56 903d fe39 243e 30a6 433d
000002f0: 330c 0dbe 18e5 c0bd 3ccd 0d3d 50f1 04be
00000300: dbf9 cfbb 28b3 8c3d d017 19be 28b0 edbd
00000310: be69 503c 2550 1bbe 3424 b93c 2291 3d3d
00000320: c3fe 103e 3666 103e 42df 5b3d be80 df3d
00000330: f893 0e3d d85c a93d c1ff f43c e33e 23bc
00000340: 23e7 04be 5454 063e d53c d9bb f43c 4fbd
00000350: bf41 253e 0730 0ebe ae72 14be 445e 33be
00000360: da8e 8abd 60d2 33bd 0ebf fbbc 43a0 19be
00000370: afe7 d0b9 97a2 e13d c119 e43c e9b9 273c
00000380: bd8c 6dba e2a0 bebd e492 dcbd b01c 63bd
00000390: 1e0d bf3d cc41 8d3d 9b94 f7bc 6877 ec3d
000003a0: f30b 553d 0cf8 02be 0920 73bd 10cb 113d
000003b0: d66e 633d 8d46 103d a369 82bd c3b0 15be
000003c0: abc1 11be 5158 5e3d 25e0 1e3e 467c b93d
000003d0: 73ff f03c 0601 f3bd 95de 103e c900 e83d
000003e0: ef70 463d 9b63 c43d 7303 f93c 13f8 683d
000003f0: 0381 ca3d b5ac b23d eb6a e93d 7fe4 103e
