pengujian/pengujian_split_data/97,7-2,3/vim/vim_model_2.pth (torch, 611374 bytes, 71 tensors)

cls_token f4 [1, 1, 64]
000000 e6 64 86 3f 2b 8c 78 3e 4e 44 33 bf 4d ee 25 bf
       1.0499542 0.2427222 -0.700261 -0.64816743
000010 6e 42 0a c0 ab 4c 95 bf 39 3d bf 3e 96 18 c4 be
       -2.1603045 -1.1664022 0.37351397 -0.38300008
000020 cd ad 8e bf a1 25 7b bf c0 80 8b bf 01 04 57 bf
       -1.114679 -0.9810429 -1.0898666 -0.83990484
000030 a1 1a 25 3f 7e 79 ae 3e e4 62 bc be bc 04 32 be
       0.6449376 0.34077066 -0.36794198 -0.17384619
000040 69 7c d5 bf 48 06 07 40 5c 38 c0 3d d5 53 f2 be
       -1.6678592 2.1097584 0.0938575 -0.47329584
000050 63 80 0d c0 10 73 1f 3f cd 60 80 3e ea 36 6a bd
       -2.210961 0.62284946 0.25073853 -0.057181276
000060 4e 0c 9c bf 22 9a 55 be 4e f4 ba be fb d8 49 3f
       -1.2191255 -0.20859578 -0.36514515 0.7884671
000070 14 fa 92 3e 3a 31 b2 be 45 b8 22 bf 2a ab b5 bc
       0.2870642 -0.34803182 -0.63562423 -0.022176344
000080 e7 18 df 3e 5d 8c dc bd d6 92 d1 be 9a d7 4e be
       0.43573686 -0.1076896 -0.4093234 -0.20199433
000090 e6 f5 14 3f fc 8e cc bf 51 16 95 3d 48 38 02 3f
       0.5818771 -1.5981135 0.07279647 0.5086713
0000a0 7a 5c 1a 40 19 ff 01 bf 4b d5 d7 3d df 45 ea bf
       2.4118943 -0.50779873 0.10538729 -1.8302573
0000b0 fe 3c 62 bf ae 3a ba bf a7 5a 87 3c 98 1c e7 be
       -0.88374317 -1.4549158 0.016522719 -0.45139003
0000c0 80 c8 8a bf f9 eb 80 3e 89 38 15 bf ff 66 b4 3f
       -1.0842438 0.25180033 -0.5828939 1.4093932
0000d0 8e 0b af 3e 00 15 b3 3f 86 ea 2b bf 1e 67 40 3e
       0.34188503 1.3990784 -0.6715473 0.18789336
0000e0 a4 c2 0e bf 23 4a 9d 3e 13 e1 1d c0 52 02 2e 3e
       -0.5576575 0.30720624 -2.4668624 0.16993073
0000f0 b8 8c 07 40 e0 1d 77 bf b0 5d a8 be d8 19 ac bf
       2.1179638 -0.9652996 -0.32883978 -1.3445387

to_patch_embedding.1.weight f4 [64, 169]
000000 e8 94 2d bd 52 2b 12 3d a6 c3 6b bd da e7 a5 bd
       -0.042378336 0.035685845 -0.05755963 -0.08100863
000010 a2 f0 c0 bb 5e 84 6d 3d 05 0c ea 3c e9 98 2b bd
       -0.0058880607 0.057987563 0.028570184 -0.041893873
000020 c5 ef 75 3d ed 91 5f 3d cb 5e 07 bd 53 39 8c bd
       0.060043115 0.054582525 -0.033049386 -0.06846871
000030 72 65 7c bd ce f9 d1 bc 79 91 28 bd ab b3 e1 3b
       -0.061620183 -0.025631811 -0.04115436 0.006887873
000040 b8 cf 88 3d 6e 60 d1 bc de 42 a0 3d 57 a2 8f 3d
       0.06680244 -0.025558677 0.07825254 0.07013386
000050 ee 51 70 3d f5 f3 ad 3c 31 4f f9 3c 86 2c 30 3d
       0.058671884 0.021234492 0.03043327 0.04301121
000060 33 54 94 3d ca 6b 9f 3c dc cb 9a bd e8 f0 38 bd
       0.07242622 0.019460578 -0.07558414 -0.04515162
000070 f8 91 be 3c ae 88 86 3c 2d 18 2b 3d b7 81 ef bc
       0.023262963 0.016422596 0.041771103 -0.029236658
000080 03 9f 08 3c 1b ca e7 bb b3 58 0a 3b 08 18 9d bc
       0.008338693 -0.0070736534 0.0021109998 -0.019176498
000090 3a 06 9c bc b7 4d 3d 3d 36 e0 62 bc 6a 0d 4c ba
       -0.019045938 0.046216693 -0.013847401 -0.0007783981
0000a0 4f 84 36 3d 1e ca 16 bd f2 0e 8e 3d 03 b3 92 3d
       0.044559773 -0.036813848 0.06936444 0.0716305
0000b0 56 2d 78 3c 9a 6c 9c bb b7 72 b6 bc b4 42 55 3b
       0.015147528 -0.0047736885 -0.022271497 0.003254098
0000c0 81 93 52 3d 01 8d 8c 3d 6b 3c 6e 3d fd 74 ac 3c
       0.051410202 0.06862832 0.058163088 0.021051878
0000d0 77 04 c5 3c 6e ad 0f bd d0 67 21 3d 42 00 91 bd
       0.02404998 -0.035077505 0.039405644 -0.07080127
0000e0 5e c3 8e bc ad 4f e8 bb 04 b6 c8 3c 60 d8 c1 3d
       -0.017427143 -0.007089576 0.024500854 0.094650984
0000f0 31 17 ac 3c 04 2b 50 bc e8 fb 3b bd 94 d3 49 3d
       0.021007152 -0.012705568 -0.045894533 0.049274042
000100 35 0a 50 bd 7f 2b a3 bd 5d 94 0b 3d 55 37 33 bd
       -0.050790984 -0.079672806 0.034077037 -0.04375394
000110 be b1 cb bb 20 ca 01 3d 8d d8 60 3d 1a 9b 03 bd
       -0.006216257 0.031686902 0.05489402 -0.03213034
000120 f6 cd 82 3d e9 35 38 3d 81 95 cd 3c 90 3f 62 bd
       0.0638694 0.044973288 0.025095703 -0.0552364
000130 fb 2f 84 3d 44 d6 e3 b8 f2 e1 c7 3c 3b c6 8d bd
       0.06454464 -0.000108641136 0.024399731 -0.06922575
000140 ad 38 74 3d 33 92 7a 3d b3 d5 61 3d c5 51 37 bd
       0.059624363 0.061174583 0.05513544 -0.044755716
000150 30 99 2c bd 3c b5 94 3d f6 ad cf 3c 02 81 59 bc
       -0.04213828 0.0726113 0.025351506 -0.013275387
000160 b3 f8 ac 3c 17 56 1c bd 43 b7 e2 ba 0f 7b 2f bd
       0.021114683 -0.03816804 -0.0017297048 -0.042841967
000170 18 8b 2d 3d ac e8 68 3c 41 5b 04 3c 7c 14 e5 bc
       0.04236898 0.01421563 0.008078397 -0.02796387
000180 65 31 ff bc 4b 58 26 bd a4 19 20 bd ac cb 11 3d
       -0.031151483 -0.040611546 -0.039086953 0.035594627
000190 97 62 cd bc 6d 5c 7f bc 43 6d b8 3c 90 93 cd 3c
       -0.025071425 -0.015586001 0.022513038 0.025094777
0001a0 6b c8 00 bd 89 bc 6f 3d 5d 1d 05 bc c8 b1 82 3d
       -0.031441133 0.05852941 -0.0081246765 0.06381565
0001b0 15 ac 2a bd ba cf 7f bd c1 9a bd 3c 24 8b 75 bd
       -0.041668016 -0.062453963 0.023145081 -0.059947148
0001c0 d1 32 12 bd 17 ed 5b bd 27 83 67 bc cd c5 5b bd
       -0.035692994 -0.053692903 -0.01413039 -0.053655434
0001d0 23 25 68 bd 65 73 8e bc e4 a7 94 3d 4e c7 8d 3d
       -0.05667604 -0.017389009 0.07258585 0.0692278
0001e0 38 20 ab bc d3 cd 85 3d 70 ac 31 3d af ac 41 3d
       -0.020889387 0.065333985 0.04337734 0.047283825
0001f0 dc 3a 5d 3b ec d3 53 3d 3e c0 4d bd ba 94 b9 bc
       0.0033757007 0.051715776 -0.050232165 -0.022653926
000200 31 f2 81 bc b7 ba 82 3d 85 e9 15 bb 67 22 c6 bc
       -0.015862556 0.06383269 -0.0022874784 -0.024186326
000210 bc 62 c1 3d a9 ed 24 bd fa fb 3c 3d 90 b6 20 bd
       0.0944266 -0.040265713 0.04613874 -0.039236605
000220 d0 de 12 3d cb 07 3d bd cd fd 42 3d 18 42 77 bc
       0.03585702 -0.04615001 0.047605325 -0.015091442
000230 fa 8c 1c 3d 8d e8 a9 39 15 ee ef 3c 10 60 50 3c
       0.038220383 0.00032407456 0.029288331 0.012718216
000240 9d fc 75 bd 09 44 86 bd e7 37 59 3d 5e 73 86 3c
       -0.060055364 -0.065559454 0.05303183 0.016412433
000250 b8 c1 68 3d f5 67 9d 3d 39 18 ab 3d 2d 76 a5 3d
       0.05682537 0.07685844 0.083542295 0.08079181
000260 de ce 1b 3d ca 7a 32 bd 15 75 24 bd 19 1a 5e 3a
       0.03803908 -0.043574132 -0.04015072 0.0008472517
000270 26 3a e6 bc 8d 61 cf bc 22 81 9c bd 7c e3 9e bc
       -0.0281039 -0.02531507 -0.07641818 -0.019395582
000280 c4 34 87 bc 4c 53 d7 3c bc 4a f3 39 21 cd 96 3d
       -0.016504653 0.026284836 0.00046404253 0.07363344
000290 2c 6b cc bb 24 72 16 3a 46 48 e6 bc bd ff cc bc
       -0.006238362 0.0005739054 -0.028110635 -0.02502429
0002a0 c3 d3 89 bd ba c4 a8 3c 3e 73 60 3c 8c e6 1b 3d
       -0.067298435 0.020601619 0.013699351 0.038061664
0002b0 77 67 7c 3d f8 03 0d 3d 5a 0a 33 3d 91 0c 7c 3b
       0.06162211 0.034427613 0.043711044 0.0038459639
0002c0 82 f4 ac bd 0c fb 85 3d d3 30 7c 3d 01 70 3a bd
       -0.08445074 0.06542024 0.06157 -0.04551697
0002d0 71 ea 80 bd 47 b2 bd 3c 25 f0 71 bd fb db 48 3d
       -0.06294716 0.023156298 -0.05906691 0.049037915
0002e0 d3 66 1a 3d 66 a7 5d 3d 75 48 8c bd 46 97 be bc
       0.037695717 0.05411472 -0.068497576 -0.023265492
0002f0 b3 f2 c7 3c fa 90 ba bc 2c da fd bc aa 80 93 bd
       0.02440772 -0.022774208 -0.030987822 -0.07202275
000300 9a 6b 08 3d f8 a7 3c ba 4e 3e 7b bd ea 34 31 3d
       0.03330574 -0.000719666 -0.061338715 0.043263353
000310 b4 73 85 3d fe b1 19 3d 4e ce 40 bd b3 60 96 bd
       0.06516209 0.037523262 -0.047071747 -0.07342663
000320 6d a1 e5 bc e1 8d 4b 3d 55 36 61 bc d8 74 53 bd
       -0.028031075 0.049695853 -0.013745864 -0.051625103
000330 1a 2f 96 bd 85 b5 63 3d 7c 23 48 3d 81 12 1b 3d
       -0.07333203 0.055593032 0.048861966 0.037859444
000340 8c 7d 26 3b 6e 34 19 3d 75 0d bd 3b b1 3f 1b bd
       0.0025404422 0.037403516 0.0057694265 -0.037902538
000350 6b 7c 96 bd 1e f6 c3 bb af 6b 9b bd ba 5d a0 bd
       -0.073479496 -0.005980267 -0.075888984 -0.07830377
000360 9d d1 80 bd 44 2f 2d bd d0 85 7b bc 4d c6 28 3c
       -0.062899806 -0.042281404 -0.015351728 0.010301185
000370 91 19 51 3d 2e 56 8c bd 93 e6 c6 3c d8 f3 43 3c
       0.051049773 -0.06852375 0.024279868 0.011959992
000380 bb 87 8e bd cd 72 19 bd 6d 6d ee 3c f3 f2 c8 3b
       -0.06959482 -0.037463 0.029104913 0.0061324774
000390 c7 c5 69 3c 0c 0a 48 bd ea 54 25 bd 47 ca 6c 3d
       0.014268345 -0.048837706 -0.040364183 0.057810094
0003a0 b3 e3 48 3d 13 a9 b1 bc 0c 9c 7c 3d 0e 0c 26 bd
       0.049045276 -0.021687066 0.061672255 -0.04053884
0003b0 45 d4 49 bd 6f c6 2a bc d8 d1 17 3d a2 01 cf ba
       -0.0492747 -0.010423287 0.037065357 -0.0015793333
0003c0 a3 30 38 bd ba 5d 21 bd 02 5f d4 3c 22 94 c9 bc
       -0.04496826 -0.039396025 0.02592421 -0.024606768
0003d0 36 e6 a2 bc b8 69 53 bd be ca 9b 3b 5e 38 1e bd
       -0.019885164 -0.051614493 0.0047543934 -0.038627975
0003e0 d5 27 8f bc 49 0b 9f 3d 31 97 3e 3d 44 58 3e bd
       -0.017475048 0.07765824 0.046530906 -0.046470895
0003f0 a3 b2 01 3c 03 b4 26 3c 0a 57 03 3b 23 20 a5 3d
       0.0079161255 0.010174754 0.0020040893 0.0806277

to_patch_embedding.1.bias f4 [64]
000000 49 07 33 bc 3e c0 90 bd 28 61 f9 3b 65 29 6b 3d
       -0.01092703 -0.07067917 0.007610459 0.057412524
000010 fe b5 89 3d 78 4b 4f bd 02 ed 95 3d fc 6b a9 bc
       0.067241654 -0.050609082 0.07320596 -0.020681374
000020 ff 85 50 3d 27 07 dd 3c 58 3d 68 3c 5f 53 30 bb
       0.05090904 0.02698095 0.014174782 -0.0026905162
000030 7c 27 de bc 99 d7 5b bd 08 49 84 bd 8e d4 d7 bc
       -0.027118437 -0.053672407 -0.06459242 -0.026346471
000040 1b 68 6d bb f5 6d 70 3d 7a 99 18 3d 66 96 57 bd
       -0.0036225382 0.058698613 0.03725574 -0.052633666
000050 f7 f9 34 bd 25 35 31 bd 4d bc 80 b9 f8 e7 8f bd
       -0.044183698 -0.043263573 -0.00024554358 -0.070266664
000060 78 76 0f bc d1 08 78 bd 42 f2 15 bd e1 b2 65 bd
       -0.0087562725 -0.060555283 -0.03660799 -0.056078795
000070 3a aa 82 3d b7 cb 91 bc 6f 8e 51 3d ce 4a 4b bd
       0.063801244 -0.017797334 0.051161226 -0.049631886
000080 52 18 8f 3b 73 1a e9 bc 61 34 29 3d 04 f0 53 bd
       0.004366913 -0.028454995 0.041309718 -0.05174257
000090 46 e0 5d 3d af 56 50 3d 0d 0c 82 bd 73 7f d1 3c
       0.054168962 0.050863918 -0.06349955 0.025573468
0000a0 b3 97 8f bd 31 c5 94 3c 59 d2 38 3b fc 11 1f bd
       -0.07011356 0.018160434 0.002820155 -0.03883551
0000b0 3e 99 e8 3a ac a7 db 3c 34 0a 83 bd 11 a9 5c 3d
       0.0017745865 0.02681335 -0.063984305 0.05387217
0000c0 ef cd 94 bd 20 d6 fa 3c 5c 54 8c 3d c2 bd 29 3d
       -0.07265841 0.03061968 0.06852028 0.041440733
0000d0 95 9d c8 ba 76 d7 4d 3c b5 18 70 bc ce ef 2d 3d
       -0.0015305752 0.012563577 -0.014654328 0.042465024
0000e0 95 4c 0c 3c e8 4a fb bc e7 4d d7 bc f0 83 4c 3c
       0.00856318 -0.030675367 -0.026282264 0.012482628
0000f0 f7 4d b2 b9 56 69 a5 bc ed 6d 8b 3c 5a 92 21 bd
       -0.00034008894 -0.02019183 0.01702019 -0.039446212

layers.0.forward_conv1d.weight f4 [64, 64, 1]
000000 77 3d ff 3a 2c a6 03 b9 e1 9f c1 bd 35 da d4 b8
       0.0019473274 -0.00012555037 -0.094543226 -0.00010149592
000010 dd 8e b3 bd 0b bd 37 bd 60 8e c7 3d 1c 2a 03 3d
       -0.087674834 -0.04485802 0.09743953 0.03202258
000020 a8 77 f0 3d e2 9d a2 bc 40 36 bc bd 80 25 3f bc
       0.117415726 -0.019850675 -0.09190035 -0.011666656
000030 75 38 73 3b 3f 5f b4 bd 91 32 c9 3d d6 ce 84 3d
       0.0037112508 -0.08807229 0.09824098 0.06484763
000040 3c 03 80 3d 5e 44 b3 3d ad 78 d5 bc ce d6 4c 3d
       0.06250617 0.087532744 -0.02605852 0.05000954
000050 31 ca 6a 3d 14 f1 51 3b 3d d8 71 3d 85 f8 44 bd
       0.05732173 0.0032034563 0.05904411 -0.04808857
000060 96 75 ae bd 65 b1 87 bd f2 56 1f bd 6c b0 57 3d
       -0.085185215 -0.06625632 -0.038901277 0.052658483
000070 b3 dc a6 3d 49 40 a2 3d a1 23 b7 3d 75 61 94 bd
       0.08147564 0.07922418 0.089423425 -0.07245151
000080 42 6f aa bd f5 1f 7c 3d ff 6b e5 3d 70 09 ad ba
       -0.08322002 0.061553914 0.11202239 -0.0013201665
000090 97 0e 07 bd 82 f9 0a bd 47 f3 b3 3d 49 b8 5a bd
       -0.0329729 -0.033929355 0.08786636 -0.053398404
0000a0 20 06 93 bd 37 cc e0 3b a4 bb 00 bd da 01 d8 3c
       -0.071789026 0.006860282 -0.031428948 0.02636807
0000b0 d6 03 be bc 14 b3 9a bd 91 4e 6d bd c9 69 98 bc
       -0.023195188 -0.07553688 -0.057936255 -0.01860513
0000c0 9b 92 91 bd 84 27 9c bd 69 b6 09 3d 0b 43 76 bc
       -0.07108041 -0.076247245 0.033621226 -0.015030633
0000d0 18 bf 20 bd d5 15 d5 3c bc e7 19 bd 2f 82 a1 3a
       -0.03924474 0.026011387 -0.037574515 0.0012322123
0000e0 5c 62 9b ba e7 7d 5b bc e8 b2 9d bd ae 53 75 3d
       -0.0011854875 -0.013396717 -0.07700139 0.059894256
0000f0 73 ea 38 bc ab 9d 19 bd 77 26 f9 bd 78 33 dc 3b
       -0.011286366 -0.03750388 -0.1216554 0.0067200027
000100 88 a3 81 bd c7 20 ca bd cd 4e 81 bd f8 58 47 3d
       -0.06330019 -0.09869533 -0.06313858 0.04866883
000110 31 5f 8f 3d a4 27 7f 3c a4 cb 7c 3d 2a 0f 8a 3d
       0.07000578 0.015573416 0.061717644 0.067411736
000120 53 82 a2 3d 30 33 c4 3d cb a1 a0 bc 1b 76 14 bd
       0.079350136 0.09580076 -0.019608399 -0.036245447
000130 80 e3 33 bd 35 1f 2b 3d 49 4b c2 3d 35 0c 96 bb
       -0.043918133 0.04177781 0.09487016 -0.004579092
000140 51 1e e6 bc 86 ff 30 3c 9b 3e 53 3d 01 97 33 3c
       -0.028090628 0.010803109 0.051573377 0.010961295
000150 bb f8 8f 3c 5e d9 48 3d fa 83 b5 bd 8f 50 b7 bd
       0.017574659 0.049035423 -0.08863063 -0.08950912
000160 d8 82 33 bd b5 6c e3 bd 57 3b 9e 3d 1b 26 78 bd
       -0.043825954 -0.111047186 0.07726162 -0.060583215
000170 45 1f dc bc c3 c4 5f bd f0 ca 01 bc fc 39 aa 3d
       -0.02687038 -0.054631006 -0.007921919 0.08311841
000180 00 07 bc bd 6d 33 a0 3d 09 09 ad 3d 51 d5 e6 3c
       -0.09181023 0.07822309 0.08448989 0.028177889
000190 0a 12 cd bc 94 60 25 bd 13 a9 04 bc bc f3 c7 bd
       -0.025033016 -0.040375307 -0.008096951 -0.097632855
0001a0 46 02 ce bd a4 8c 8c bd 3a db 93 bc a4 77 4c bd
       -0.100590274 -0.068627626 -0.018048871 -0.049918786
0001b0 7d 35 2a bd ae 10 98 bd 3c f6 16 3b 5e 65 5c bd
       -0.041554917 -0.074250564 0.002303495 -0.05380761
0001c0 8c ef 9f 3c 7c 7d b6 bc 53 d2 cf 3c 15 ca df ba
       0.019523405 -0.022276632 0.025368845 -0.0017073775
0001d0 94 35 8f 3b a5 f2 c2 3d a6 87 d8 3d 61 99 8e 3d
       0.0043704007 0.09518937 0.10572748 0.069628485
0001e0 07 7c 93 3d 55 c2 2d bd c7 43 78 bd 08 12 9b bc
       0.07201391 -0.042421658 -0.060611513 -0.018929496
0001f0 a0 d2 bc bd 42 94 a6 bd 59 bf 80 bc 76 fd c1 3d
       -0.09219861 -0.08133747 -0.015716242 0.09472172
000200 b1 5b ac 3d 57 75 36 bd 6a 13 3e bc dd 1c 51 3d
       0.08415926 -0.044545498 -0.011601308 0.051052917
000210 71 da 05 bd 3f 8c c1 3d 75 89 ca 3d b2 ef 37 bd
       -0.032679025 0.09450578 0.09889499 -0.044906326
000220 8b e8 b5 bc eb 8e 23 bd fb 29 44 3c c9 c5 f3 bd
       -0.022205612 -0.03993122 0.0119729 -0.11902959
000230 70 ed 93 bd de bb 46 bb 1c e8 e3 bd 0c 87 cb bc
       -0.07223022 -0.003032438 -0.11128256 -0.024844669
000240 dd 4c 9f 3d bd 9c 9b bd 53 64 77 bd a5 28 de bc
       0.077783324 -0.07598255 -0.06039841 -0.02711899
000250 1f dd c7 b7 2a 39 c4 3c 81 dd 91 bd d6 32 08 bd
       -2.3825616e-05 0.02395304 -0.07122327 -0.033251606
000260 22 29 66 bd 69 4c 53 3d c0 86 ca bd 39 66 14 3d
       -0.05619157 0.051586542 -0.09888983 0.0362303
000270 6e 78 c7 3d 46 54 43 3d 8c 76 4a 3d dc 9a bb 3d
       0.09739767 0.04768779 0.04942946 0.091603965
000280 6e 88 c6 bd 8c 86 00 bd 44 84 87 bd a1 29 48 3d
       -0.09693991 -0.031378314 -0.066170245 0.048867825
000290 f9 b6 a6 bc 19 98 83 3d 73 75 a4 bd 05 12 92 bd
       -0.02035092 0.06425495 -0.08030214 -0.07132343
0002a0 2d 6c 0f 3c bd 26 1d bd 44 62 bb 3c 11 70 b4 bc
       0.008753818 -0.03836702 0.022874005 -0.022026094
0002b0 6e 90 fa 3d ce ab 5f bd 8b ee f1 bd 45 75 9d bd
       0.12234579 -0.054607205 -0.118130766 -0.07688383
0002c0 7e b6 14 bd 04 38 05 bd c9 c4 06 bd c7 0b d6 bd
       -0.03630685 -0.032524124 -0.032902513 -0.10451465
0002d0 39 7a c6 bc c2 c9 d0 bd c4 69 49 bd ba f5 ad 3d
       -0.024228202 -0.10194732 -0.04917313 0.08494134
0002e0 8a 9c 5d bd aa 7c a4 3d 45 60 bc 3c e1 dd 69 3d
       -0.054104365 0.0803159 0.022995124 0.057096366
0002f0 2e b2 36 bd 47 fd 51 bd 26 1e 30 bd f5 9a 2d bc
       -0.04460352 -0.051266935 -0.0429975 -0.010596027
000300 eb be c6 bd e5 3f b5 3d 52 1a 57 3d e0 6d c5 bd
       -0.097043835 0.088500775 0.052515335 -0.096400976
000310 c4 a5 5d bd 8b fe 50 39 80 39 a9 3d 65 25 04 bd
       -0.054113165 0.0001993125 0.082629204 -0.032262225
000320 26 aa 88 3d 90 35 d5 3d 52 ab 20 bb bd d7 f8 3c
       0.06673078 0.10410607 -0.0024516177 0.03037631
000330 23 38 ac bd f0 c1 c3 bc 28 90 5d 3d 7f df 3b bd
       -0.08409145 -0.023896188 0.054092556 -0.04586744
000340 74 be d7 3d dd 97 23 bd 2d cb d8 3d 6a 0e 55 bd
       0.10534373 -0.03993975 0.10585628 -0.0520157
000350 6d 13 3f bd 99 1e 84 3c 4b 36 90 3d 56 82 85 3d
       -0.046649385 0.016127871 0.070416056 0.06519
000360 12 31 ce 3d 18 c4 7e 3b 03 4c 98 3d d2 cd 91 bd
       0.10067953 0.0038874205 0.07436373 -0.07119335
000370 93 6b 6b 3d b6 ac be 3c 3b 20 11 3d a3 5d b2 3d
       0.057475638 0.023275714 0.035431128 0.08709266
000380 c3 3e 98 3d 09 3b ba 3d 1f 24 c6 3d c2 e3 aa bd
       0.07433846 0.09093291 0.09674858 -0.083442226
000390 02 ed 1c 3b b2 1c b7 3c a8 b8 d1 3b 70 2b 69 3c
       0.0023944979 0.02235255 0.0064001866 0.014231548
0003a0 10 58 98 bd fc 79 8e 3d c7 7c 8d 3d e3 2a c6 bd
       -0.074386716 0.069568604 0.06908565 -0.09676149
0003b0 9a 20 e8 3d 54 95 dd bb f1 cc 99 3d 8b 0d a3 3d
       0.11334343 -0.006762186 0.075097926 0.079615675
0003c0 8a bb d3 bc a7 b2 a9 3d ac f4 18 bd 2c 5f 81 3d
       -0.025846262 0.08286028 -0.037342712 0.06316981
0003d0 8d 71 b0 3d ec b4 a8 bd c2 5e 05 39 2b 4d 63 bd
       0.08615408 -0.08237633 0.00012719168 -0.055493515
0003e0 1f 78 d1 bd ac 83 98 bd 36 1c c8 bd 64 cd 65 bc
       -0.102279894 -0.074469894 -0.09771006 -0.01402602
0003f0 98 32 e0 3d 33 da b9 3d 77 80 cb 3a 55 b8 96 bc
       0.1094715 0.09074821 0.0015525956 -0.018398443

layers.0.forward_conv1d.bias f4 [64]
000000 bc 3e cb 3d 7e c6 88 3d 5a e1 15 3d 3b 28 34 bd
       0.09924075 0.066784844 0.036591865 -0.04398368
000010 1d 43 5b 3d 28 0f 17 3d 8b 21 1b 3d a1 1d 7c 3d
       0.0535308 0.03687969 0.037873786 0.061551694
000020 c8 b2 96 bd 93 08 b2 bd 91 76 98 3d 7d 1a a0 bc
       -0.073583186 -0.08693042 0.0744449 -0.01954388
000030 df 46 c2 3d 07 ae 98 3d 06 36 bf 3d 7c 2f 62 bc
       0.09486174 0.07455068 0.09336476 -0.0138052665
000040 5f ff 78 bd fd 71 3e 3c 83 a4 aa bd da 4e 65 bd
       -0.060790416 0.011623857 -0.08332159 -0.0559834
000050 57 07 dd 3d 4a 66 3a 3c 80 91 f5 bc 6e 2e c9 bd
       0.107924156 0.011376927 -0.029976606 -0.09823309
000060 05 80 bf 3d a3 d7 5d bd d4 d3 a9 bd d1 78 ef bc
       0.0935059 -0.054160725 -0.08292356 -0.029232414
000070 e1 c1 9b 3c 8b 72 8e bd f3 59 80 bc bd a6 96 bc
       0.019013347 -0.06955441 -0.015667891 -0.018390054
000080 0f 4d 6e 3d e4 e4 f3 3c b6 91 c6 3d 92 91 48 3d
       0.058178958 0.02977223 0.09695761 0.04896695
000090 8e 89 cb bd f8 7c 45 bd 2a 18 8a 3c f9 35 f2 3d
       -0.09938346 -0.048214883 0.016857225 0.11826701
0000a0 6e 23 48 3d 34 7d 60 3d 73 12 4a 3d 61 14 9f bd
       0.048861913 0.054806903 0.049334 -0.07767559
0000b0 b3 2e f8 bd 18 13 39 bc 6e 69 25 bd 5d 6c 0e bb
       -0.12118282 -0.011296056 -0.04038375 -0.002173207
0000c0 17 b7 21 bd 7f 1b 1d bb 19 9a 13 3d de b3 ca 3d
       -0.03948125 -0.0023972688 0.03603563 0.09897588
0000d0 bb 31 d9 3d d1 b2 e1 bd bf 32 7f 3c 8f d5 c8 bd
       0.106051885 -0.11020435 0.015576064 -0.09806358
0000e0 cf c1 1c bd cb cd 31 bd c2 26 a8 3d d5 86 cc 3a
       -0.038270768 -0.04340915 0.082105175 0.0015604148
0000f0 f4 53 f5 3c dd de 6f bd be 4d 9e 3d 6a 0f 96 bd
       0.029947259 -0.05856215 0.07729672 -0.07327159

layers.0.backward_conv1d.weight f4 [64, 64, 1]
000000 5f 45 96 3d 4b e6 ef bc 60 11 cf bd a0 4e 9f 3d
       0.0733745 -0.029284617 -0.10110736 0.077786684
000010 7d fd 83 3d 13 51 0e 3d e1 34 9a bd 70 85 87 bd
       0.064448334 0.034745287 -0.07529617 -0.06617248
000020 1b 9e 87 3d 8f a9 a3 3d 4f 84 8d 3d 9c f7 d1 bc
       0.06621953 0.07991325 0.069100015 -0.025630765
000030 9b 64 71 bd 85 52 dd 3d 88 c8 52 3d c2 a4 97 3d
       -0.058933835 0.10806755 0.051460773 0.07404472
000040 74 16 8a 3d 24 d1 be 3d 37 a8 88 bd 4d 61 99 3c
       0.06742564 0.09317234 -0.066727094 0.018723154
000050 12 3c 00 3d 19 1d c1 bc 1f 76 ae bd 7c 84 87 3c
       0.031307288 -0.023573445 -0.085186236 0.016542666
000060 ea 8c a8 bd 92 0b c3 3d 4d c8 84 bd fe 00 a2 bd
       -0.08230002 0.09523691 -0.06483517 -0.079103455
000070 2c 98 1e 3d 05 b4 90 ba 30 a6 53 bd a8 21 4d 3d
       0.03871934 -0.0011039978 -0.05167216 0.050080925
000080 e1 d9 00 bb a5 92 1d 3d f0 07 94 bd d0 cc 06 bd
       -0.0019661116 0.03846993 -0.072280765 -0.03291017
000090 cc 61 0e 3d 7a 48 3f bd a3 08 46 3d e4 8d 3d 3d
       0.034761235 -0.04669998 0.04834808 0.046277896
0000a0 75 5b 1f bc c1 2c 39 3d 67 3d 0e bd c4 c7 0d bc
       -0.009726395 0.045208696 -0.034726527 -0.008653585
0000b0 41 c7 b8 3d f3 94 8e bd 85 a4 e5 3d 04 c4 88 bd
       0.0902238 -0.069620036 0.1121302 -0.06678012
0000c0 10 e2 da 3c 3b 54 b5 bd a3 38 8b bd 84 aa 6d 3d
       0.026719123 -0.08853956 -0.06797912 0.058023944
0000d0 56 1f a1 3d 47 9a c0 3d 5b ea fa 3c 2d 14 a3 3d
       0.07867305 0.09404426 0.030629328 0.079628326
0000e0 c5 3a c9 bd 3e 55 3e bd e9 b1 e4 bc 7b 48 2a bd
       -0.098256625 -0.046468012 -0.027916865 -0.04157303
0000f0 70 50 bf 3d 66 55 80 3d c7 59 e6 bd 8d 22 81 3d
       0.09341514 0.062662885 -0.112475924 0.06305418
000100 e8 3a b3 3d fb 63 3e bd d8 50 1a bd 96 62 8b 3d
       0.0875147 -0.046482068 -0.037674755 0.06805913
000110 42 19 11 3c 1d 15 e8 3c 75 59 36 bd b3 da db 3a
       0.00885612 0.02833038 -0.044518907 0.0016773551
000120 03 8f 75 3d cf bf 93 3d 6d 57 53 bd 9d 19 6a bd
       0.05995084 0.07214319 -0.051597048 -0.057153333
000130 92 30 89 3d ae 2a 80 bd 03 e8 a3 bd ac cf 96 bd
       0.06698717 -0.062581405 -0.08003237 -0.07363829
000140 fe 0a e8 3c 25 09 97 3b 87 90 72 bd 71 8c d5 3c
       0.028325554 0.0046092444 -0.059219863 0.026067944
000150 6a 11 8d bb 19 0f 64 3d 60 60 e0 bc a8 d7 a9 3c
       -0.0043050544 0.05567846 -0.027389705 0.020732716
000160 4a ca 06 bc a9 4c bd 3d db 93 ab bd 9a 16 69 bd
       -0.00822694 0.092431374 -0.083778106 -0.05690632
000170 6e 82 61 bd 0c 57 9e 3d c4 a0 0c bc ea 9f 9f bd
       -0.055056028 0.077314466 -0.008583251 -0.07794173
000180 fe cb 6e bd 09 eb d6 bc 29 6c 87 bd f3 14 71 3d
       -0.05830001 -0.02623512 -0.06612427 0.05885787
000190 27 e6 77 bc 87 85 e4 3c 63 f3 d8 bc 90 ec 92 3d
       -0.015130556 0.027895702 -0.026483243 0.07174027
0001a0 35 e0 8b 3d b5 71 18 bd e9 66 43 3d 4f 77 38 bd
       0.068298735 -0.037217814 0.047705565 -0.045035657
0001b0 5b 9a f5 3c 9c 16 4b 3d de bf 8b bc 3a 73 93 bd
       0.029980829 0.04958211 -0.017059263 -0.07199712
0001c0 d6 99 18 3d 68 60 a3 3d 09 4c 95 3d 21 cf 21 3d
       0.037256084 0.079773724 0.07289893 0.039504174
0001d0 ce ae 24 bd 26 29 9e 3d 8b 8a 2c bd c5 7d ac 3a
       -0.04020577 0.07722692 -0.042124312 0.0013160041
0001e0 e6 95 f6 3b ef 9c bd bd e8 dd 88 bd 75 98 a5 bd
       0.0075251935 -0.09258448 -0.0668295 -0.080857195
0001f0 1e 16 b3 bd 6f 7c 36 3d 64 25 92 3c d2 cc 22 3d
       -0.08744453 0.044552263 0.017840095 0.039746113
000200 57 3d 99 3d d4 41 32 3d 5f 70 b9 3d 41 7f 76 bd
       0.07482403 0.04351981 0.09054636 -0.060179953
000210 31 80 e2 3d f8 6e 90 bd 9e 6c 89 bc f2 d9 17 bd
       0.11059607 -0.070524156 -0.016775426 -0.037073083
000220 b2 da 7c 3c 48 2f 81 3d 5a 0d 9a bd 96 28 bf bc
       0.015433 0.06307846 -0.07522078 -0.023334783
000230 d2 b1 3b 3d d4 61 58 3c d5 5f db bd 47 ee 47 bd
       0.04582388 0.013206918 -0.10711638 -0.048811223
000240 1e a9 25 bc 1f 30 b1 bd 4b 79 e4 bd ae d7 c0 3d
       -0.010111121 -0.086517565 -0.11155947 0.09416138
000250 b8 3e dd bd 97 89 5d bd 99 3c 87 bd 5e 14 5a bc
       -0.10802978 -0.054086294 -0.06603355 -0.01331052
000260 54 fe 5f 3d 0c 68 d6 3d 47 53 c3 bd c9 3f 3a bd
       0.054685906 0.10469064 -0.09537368 -0.045470987
000270 23 c8 58 bc 44 7c d1 3c 91 9e e7 bd cf 54 c1 3d
       -0.01323131 0.02557195 -0.11309541 0.09440004
000280 1d bc 1d bd dd 6c a2 3d 8a 29 b3 3c b8 3c b5 bc
       -0.038509477 0.0793092 0.021870393 -0.02212368
000290 4e ef b6 bc b0 74 5a bd 8c 34 3b 3d d6 70 cc 3d
       -0.022330906 -0.053333938 0.04570441 0.09982459
0002a0 03 43 e5 3d b8 46 be bd a0 9f 64 3c c1 80 3d bd
       0.11194422 -0.09290832 0.013954073 -0.046265367
0002b0 19 77 63 bb 9a 6f c9 bd 2a 3a 26 3d 88 87 f7 3c
       -0.003470844 -0.098357394 0.040582813 0.030215994
0002c0 a4 d0 2f bc 6a e6 81 bd 05 69 d7 bd b3 f8 c4 bd
       -0.010730896 -0.06342776 -0.10518078 -0.09617748
0002d0 17 72 af bd b0 f7 17 3d cd 2a ef 3d 88 07 03 be
       -0.08566683 0.037101448 0.116780855 -0.12795842
0002e0 28 97 a5 3c 36 ea d0 3d d6 f6 72 3d fc 81 8c bd
       0.020213678 0.10200922 0.059317432 -0.0686073
0002f0 ba 29 7a bc 2d 77 ac bd b7 c3 bb bd 4a 4f b1 bd
       -0.015268737 -0.084211685 -0.09168189 -0.08657701
000300 b4 66 e7 3d c1 a2 a0 3b 1d a8 ea 3d 10 d6 53 3d
       0.11298886 0.0049022143 0.11457846 0.051717818
000310 d6 9f 9b 3d ee 3d 66 bd 89 99 c8 bd 65 08 fb bd
       0.07598846 -0.056211405 -0.097949095 -0.122574605
000320 8e f3 a9 bc 3a bf 06 be ac 66 d1 3d 79 6e 6b 3d
       -0.020746019 -0.13158885 0.10224661 0.0574784
000330 75 8b 98 3c a0 ee 20 bd 26 00 23 bd f4 ed b2 bd
       0.018621186 -0.03929007 -0.039795063 -0.08736792
000340 3e e8 55 bd 3a 9d 86 bd b5 c9 a3 3d df d5 c4 3c
       -0.052223437 -0.06572957 0.07997457 0.024027763
000350 47 1f 0b bd 30 97 73 bd 15 34 d2 bd 5f 0e a2 bd
       -0.033965375 -0.059470356 -0.1026384 -0.07912897
000360 b3 52 01 3d 4c 3c a9 bd bd aa 36 bd 39 93 d2 3d
       0.03157301 -0.08263454 -0.044596422 0.10281987
000370 bb 72 10 3d f5 5d 38 3c 38 64 73 3d 89 41 fe bc
       0.035265666 0.01125287 0.059421748 -0.031037109
000380 1d c8 71 bd 06 eb a2 3d f5 76 67 3d 27 55 83 3c
       -0.059028734 0.079549834 0.05650993 0.016031815
000390 3a 77 5b 3b 6a 21 a5 3c 4a 36 a7 bc 11 0a 75 3d
       0.0033487813 0.020157535 -0.02041163 0.059824053
0003a0 cb ba 73 bd 42 26 99 3d 51 51 4a 3d 31 03 e5 bd
       -0.05950431 0.07478 0.049393956 -0.11182249
0003b0 be 82 a2 bc f7 b1 eb 3c c5 67 59 3c bb 59 96 3d
       -0.019837733 0.028771384 0.0132693695 0.073413335
0003c0 42 5c e0 bc d6 88 b4 3d a5 23 9a bd 98 85 85 3c
       -0.027387742 0.08815162 -0.0752633 0.016299054
0003d0 09 f1 04 bd 88 78 f6 bd 95 ac ed 3d c4 eb e1 bd
       -0.03245643 -0.12034708 0.11605183 -0.11031297
0003e0 78 7a 8c bd 95 3e a0 bd bd 61 ee bc 39 ae a5 bd
       -0.068592966 -0.078244366 -0.02909934 -0.08089871
0003f0 11 23 89 3b fb 08 bd 3d 17 2b 8d 3d 0d ab 47 3d
       0.0041850884 0.092302285 0.06892984 0.04874711

layers.0.backward_conv1d.bias f4 [64]
000000 58 5d 83 3d f9 50 68 3d 86 50 ca 3b fd d6 db 3d
       0.06414288 0.056717847 0.00617415 0.10734365
000010 67 b6 f3 3d 07 b5 8d 3d db 58 44 3a 74 15 85 3c
       0.11900025 0.06919294 0.0007490047 0.016245581
000020 64 66 43 39 b0 e7 e1 3d 4b b1 60 3c 77 72 5b bd
       0.00018634793 0.11030519 0.013714145 -0.05357596
000030 29 f4 af bd 0a 9b e7 3c 1f c2 d7 3c a2 92 6e bd
       -0.08591492 0.02827217 0.026337681 -0.05824531
000040 26 a0 91 3d 9f 38 89 3d da b0 32 bd 9c a2 eb 3c
       0.07110624 0.06700253 -0.04362569 0.028764062
000050 41 fb dd 3b 76 2f 4c 3d f6 9e 9e 3c ca 7f cf 3d
       0.0067743366 0.04984995 0.019362908 0.10131796
000060 cd 94 71 3c 39 d5 bc bd b7 b9 1e bd f6 07 fd 3b
       0.0147449495 -0.092203565 -0.03875133 0.0077218963
000070 2f 4a 76 3d 9d 61 a5 3d ee c5 11 bd eb ba db bd
       0.06012934 0.08075259 -0.03558915 -0.10729011
000080 0b 85 43 3b 50 90 ed bd 29 33 70 bd 52 2f dc bd
       0.0029833938 -0.11599791 -0.05864254 -0.10751213
000090 c3 fd 40 bd e4 68 6d bd 87 56 bf 3d 0e cc 60 bd
       -0.047117006 -0.05796136 0.09342676 -0.0548821
0000a0 43 ab 5e 3c 89 33 87 bd b7 82 7f bc 34 25 0e bd
       0.013590637 -0.066016264 -0.01559513 -0.03470345
0000b0 0b eb b1 bb 5c 99 10 bc 23 2a f3 3c 46 de aa 3d
       -0.0054296306 -0.008825626 0.029683178 0.083431765
0000c0 c3 e6 82 3d 39 7a b6 3d 7d 55 a5 bd e5 4e ee 3d
       0.063916706 0.08910031 -0.08072946 0.11636142
0000d0 1c 95 09 bb 3d a7 34 bd 22 f9 98 3d 29 60 ad bd
       -0.0020993417 -0.044104803 0.07469393 -0.08465607
0000e0 c2 11 9b 3d 4d e1 90 bd 4c 75 72 3d d4 e7 16 3d
       0.075717464 -0.07074223 0.059193894 0.036842182
0000f0 f6 2d b9 3c 27 6c 05 bd 21 1a 49 bd 8a 8e f6 bc
       0.022604924 -0.032573845 -0.049097184 -0.030097265

layers.0.norm.weight f4 [64]
000000 4b 6c 67 3f 29 12 76 3f 62 b3 63 3f 54 4a 74 3f
       0.90399617 0.9612146 0.8894559 0.95425916
000010 e4 8c 79 3f 32 ad 72 3f ac 46 6e 3f 2f c6 64 3f
       0.9748061 0.94795525 0.93076587 0.89364904
000020 1f 40 75 3f d0 84 74 3f 17 dc 73 3f 77 1c 7c 3f
       0.95800966 0.95515156 0.95257705 0.98480934
000030 fd 1c 6b 3f e1 4a 71 3f 97 a9 6e 3f 98 4c 6a 3f
       0.9184111 0.9425488 0.93227524 0.9152312
000040 f1 73 69 3f b1 4f 75 3f 5a b3 7a 3f 17 70 76 3f
       0.9119254 0.95824724 0.9792992 0.96264786
000050 19 5a 6f 3f b2 8f 76 3f 6a 3a 6b 3f 6d 26 75 3f
       0.93496853 0.9631301 0.9188601 0.9576176
000060 13 30 6d 3f 89 74 77 3f 1d 29 75 3f 12 ed 6e 3f
       0.9265148 0.96662194 0.9576586 0.9333049
000070 b7 ec 72 3f b4 bd 6a 3f 56 70 72 3f 71 7d 6a 3f
       0.9489245 0.91695714 0.9470266 0.9159766
000080 42 4b 66 3f 32 e9 6e 3f 18 aa 78 3f ec c4 71 3f
       0.89958584 0.9332458 0.9713454 0.94441104
000090 50 ac 78 3f b0 b7 78 3f 43 8e 76 3f f2 f0 72 3f
       0.9713793 0.97155285 0.96310824 0.94898903
0000a0 86 93 79 3f 48 7f 64 3f 38 62 79 3f a8 7b 78 3f
       0.9749073 0.89256716 0.97415495 0.97063684
0000b0 74 9c 65 3f 58 2c 72 3f 9c 42 71 3f 89 cb 6f 3f
       0.89691854 0.94598913 0.9424226 0.93669945
0000c0 ec e5 6d 3f dc e5 6f 3f b2 f3 72 3f 54 73 6c 3f
       0.9292896 0.9371011 0.949031 0.92363477
0000d0 2c 58 71 3f bb 10 68 3f b6 f6 71 3f d4 3d 70 3f
       0.94275165 0.9065053 0.94517076 0.9384434
0000e0 4b e9 6c 3f c9 41 6d 3f df b1 70 3f 76 cf 68 3f
       0.92543477 0.92678505 0.9402141 0.9094156
0000f0 68 36 71 3f 41 d9 6c 3f ca 2d 70 3f 84 c6 72 3f
       0.9422364 0.92519003 0.9381987 0.9483416

layers.0.norm.bias f4 [64]
000000 1c d0 00 bb c3 12 c1 3b c1 5a 0c bb 64 8c 1d 3b
       -0.0019655293 0.005892129 -0.0021416398 0.0024039978
000010 4b c6 d9 39 c2 c1 75 3a 24 57 c6 3a 48 ea b7 3b
       0.00041537205 0.00093748805 0.0015132171 0.0056126453
000020 46 2b 41 3a 0d 1f 59 3b f6 e6 b5 ba c2 ca 3e bb
       0.0007368814 0.003313008 -0.0013878036 -0.0029112552
000030 8b 47 bd 3b 86 42 10 3c 45 9e 5f 3c 79 73 72 3b
       0.005776351 0.008804923 0.013648574 0.0036995097
000040 ce 36 ab ba 1c 45 84 bb 9a 74 2a bc c5 15 1f 3c
       -0.0013062598 -0.004036559 -0.010403777 0.00970978
000050 4b 4d 88 ba 2b c3 a8 3b d9 3f bd 3b 26 96 bb 3a
       -0.0010399012 0.005150219 0.0057754335 0.0014311715
000060 7d 5e 6b bb c2 e1 79 bb d7 70 85 3b dd 1b 19 3c
       -0.0035914474 -0.0038128947 0.0040722894 0.009345022
000070 92 f4 49 bc d3 7b 4c 3b 4a 39 b1 3b 0b 3c ca 3b
       -0.0123263765 0.0031201735 0.0054084407 0.0061717085
000080 58 56 04 bc 32 00 b7 bb 7e 21 ab 3b 84 25 25 3c
       -0.008077227 -0.00558474 0.0052224984 0.010079745
000090 8b 22 17 ba b8 61 98 3a 44 8b 9e ba c5 5f d1 3b
       -0.000576534 0.0011625802 -0.0012095948 0.0063895904
0000a0 6d 7f 67 3a 18 95 dc bb 90 a4 9d bb b2 6a c4 3b
       0.00088309386 -0.0067316405 -0.004810877 0.0059941644
0000b0 dd d0 85 bb f5 2b 09 bb ad 9b e8 3b ab 23 2f 38
       -0.0040837363 -0.0020930741 0.007098636 4.175647e-05
0000c0 f6 6c 43 bb a4 a6 bb 3b b3 c1 bb bb c8 3d 5c bb
       -0.0029819584 0.005726652 -0.005729878 -0.003360616
0000d0 20 75 8f 3b c1 b0 27 3b 6c 63 a8 3b cc 61 b2 ba
       0.004377976 0.0025587531 0.005138805 -0.0013609468
0000e0 55 f7 a6 3b d4 db 05 bc c8 d9 eb bb 00 f8 c9 bb
       0.0050954022 -0.008170087 -0.0071975924 -0.006163597
0000f0 af e0 13 bc 53 c7 b0 bb 87 70 02 bc b8 9f f9 39
       -0.009025737 -0.005394855 -0.007961399 0.0004761198

layers.0.ssm.A_log f4 [64, 64]
000000 ec 74 8d ba bd bd bc 3e 36 91 3b 3f 57 36 82 3f
       -0.0010792292 0.3686351 0.7326845 1.0172833
000010 11 13 9e 3f e3 4a b5 3f 57 78 ca 3f 7b c7 d9 3f
       1.2349569 1.4163479 1.5817975 1.7014002
000020 d8 c4 e8 3f ab 33 f6 3f 4f 29 01 40 3c b4 06 40
       1.8185072 1.9234518 2.0181463 2.1047506
000030 e8 ce 0b 40 34 88 10 40 d3 ee 14 40 75 0c 19 40
       2.1845036 2.2583132 2.3270767 2.3913853
000040 73 ea 1c 40 2b 90 20 40 1e 03 24 40 09 49 27 40
       2.4518096 2.5087993 2.5626903 2.6138327
000050 77 66 2a 40 97 5e 2d 40 f4 34 30 40 4d ec 32 40
       2.662504 2.7088983 2.753232 2.7956727
000060 73 87 35 40 ab 08 38 40 a3 71 3a 40 23 c4 3c 40
       2.8363922 2.875529 2.9131858 2.9494712
000070 bf 01 3f 40 d6 2b 41 40 c0 43 43 40 d9 4a 45 40
       2.9844816 3.0183005 3.0510101 3.0826933
000080 1a 42 47 40 52 2a 49 40 5e 04 4b 40 0a d1 4c 40
       3.1134095 3.143208 3.1721416 3.2002587
000090 11 91 4e 40 23 45 50 40 db ed 51 40 cf 8b 53 40
       3.2276042 3.2542198 3.2801425 3.3054082
0000a0 87 1f 55 40 7b a9 56 40 69 2a 58 40 83 a2 59 40
       3.3300493 3.3540943 3.3775885 3.400544
0000b0 29 12 5b 40 b7 79 5c 40 87 d9 5d 40 ee 31 5f 40
       3.4229834 3.444929 3.4664018 3.4874225
0000c0 38 83 60 40 b2 cd 61 40 9d 11 63 40 3b 4f 64 40
       3.508009 3.5281796 3.54795 3.5673358
0000d0 cc 86 65 40 88 b8 66 40 5d e4 67 40 56 0b 69 40
       3.5863523 3.605013 3.6233132 3.641317
0000e0 c4 2c 6a 40 16 49 6b 40 d7 60 6c 40 98 73 6d 40
       3.6589823 3.6763358 3.6934106 3.7101803
0000f0 de 81 6e 40 57 8c 6f 40 2e 92 70 40 c4 93 71 40
       3.7266765 3.7429407 3.758922 3.774644
000100 bf 4e 7b 3b 67 97 ba 3e 43 8b 3b 3f 91 ee 81 3f
       0.0038346497 0.36443636 0.7325937 1.015093
000110 5a 19 9e 3f 74 3c b5 3f 86 e7 c8 3f 97 c6 d9 3f
       1.2351487 1.4159074 1.5695655 1.701373
000120 7f c3 e8 3f dd 2d f6 3f 5a 29 01 40 99 b4 06 40
       1.8184661 1.9232746 2.018149 2.1047728
000130 cf ce 0b 40 2f 88 10 40 c0 ee 14 40 6f 0c 19 40
       2.1844976 2.258312 2.3270721 2.391384
000140 76 ea 1c 40 2e 90 20 40 42 03 24 40 0a 49 27 40
       2.4518104 2.5088 2.5626988 2.613833
000150 6a 66 2a 40 9e 5e 2d 40 f6 34 30 40 4d ec 32 40
       2.6625009 2.7089 2.7532325 2.7956727
000160 73 87 35 40 ab 08 38 40 a5 71 3a 40 23 c4 3c 40
       2.8363922 2.875529 2.9131863 2.9494712
000170 bf 01 3f 40 d9 2b 41 40 c1 43 43 40 d9 4a 45 40
       2.9844816 3.0183012 3.0510104 3.0826933
000180 1a 42 47 40 52 2a 49 40 5e 04 4b 40 0a d1 4c 40
       3.1134095 3.143208 3.1721416 3.2002587
000190 11 91 4e 40 23 45 50 40 db ed 51 40 cf 8b 53 40
       3.2276042 3.2542198 3.2801425 3.3054082
0001a0 87 1f 55 40 7b a9 56 40 69 2a 58 40 83 a2 59 40
       3.3300493 3.3540943 3.3775885 3.400544
0001b0 29 12 5b 40 b7 79 5c 40 87 d9 5d 40 ee 31 5f 40
       3.4229834 3.444929 3.4664018 3.4874225
0001c0 38 83 60 40 b2 cd 61 40 9d 11 63 40 3b 4f 64 40
       3.508009 3.5281796 3.54795 3.5673358
0001d0 cc 86 65 40 88 b8 66 40 5d e4 67 40 56 0b 69 40
       3.5863523 3.605013 3.6233132 3.641317
0001e0 c4 2c 6a 40 16 49 6b 40 d7 60 6c 40 98 73 6d 40
       3.6589823 3.6763358 3.6934106 3.7101803
0001f0 de 81 6e 40 57 8c 6f 40 2e 92 70 40 c4 93 71 40
       3.7266765 3.7429407 3.758922 3.774644
000200 76 b9 18 3c 1a a3 dc 3e 3b 8e 3b 3f e5 ce 83 3f
       0.009321561 0.43093187 0.732639 1.0297514
000210 07 12 9e 3f 43 99 b5 3f 09 2c cb 3f a2 c9 d9 3f
       1.2349252 1.4187397 1.5872813 1.7014658
000220 54 c5 e8 3f a0 36 f6 3f 63 29 01 40 43 b4 06 40
       1.818522 1.923542 2.018151 2.1047523
000230 bf ce 0b 40 2c 88 10 40 d7 ee 14 40 76 0c 19 40
       2.1844938 2.2583113 2.3270776 2.3913856
000240 77 ea 1c 40 30 90 20 40 48 03 24 40 08 49 27 40
       2.4518106 2.5088005 2.5627003 2.6138325
000250 75 66 2a 40 9f 5e 2d 40 f6 34 30 40 4e ec 32 40
       2.6625035 2.7089002 2.7532325 2.795673
000260 73 87 35 40 ab 08 38 40 a4 71 3a 40 23 c4 3c 40
       2.8363922 2.875529 2.913186 2.9494712
000270 bf 01 3f 40 d9 2b 41 40 c1 43 43 40 d9 4a 45 40
       2.9844816 3.0183012 3.0510104 3.0826933
000280 1a 42 47 40 52 2a 49 40 5e 04 4b 40 0a d1 4c 40
       3.1134095 3.143208 3.1721416 3.2002587
000290 11 91 4e 40 23 45 50 40 db ed 51 40 cf 8b 53 40
       3.2276042 3.2542198 3.2801425 3.3054082
0002a0 87 1f 55 40 7b a9 56 40 69 2a 58 40 83 a2 59 40
       3.3300493 3.3540943 3.3775885 3.400544
0002b0 29 12 5b 40 b7 79 5c 40 87 d9 5d 40 ee 31 5f 40
       3.4229834 3.444929 3.4664018 3.4874225
0002c0 38 83 60 40 b2 cd 61 40 9d 11 63 40 3b 4f 64 40
       3.508009 3.5281796 3.54795 3.5673358
0002d0 cc 86 65 40 88 b8 66 40 5d e4 67 40 56 0b 69 40
       3.5863523 3.605013 3.6233132 3.641317
0002e0 c4 2c 6a 40 16 49 6b 40 d7 60 6c 40 98 73 6d 40
       3.6589823 3.6763358 3.6934106 3.7101803
0002f0 de 81 6e 40 57 8c 6f 40 2e 92 70 40 c4 93 71 40
       3.7266765 3.7429407 3.758922 3.774644
000300 3d 9c ff 3a ed b1 be 3e 58 8c 3b 3f 36 ee 81 3f
       0.0019501519 0.37245122 0.7326102 1.0150821
000310 ea 1a 9e 3f 82 37 b5 3f 52 d1 c8 3f 10 c6 d9 3f
       1.2351964 1.4157565 1.568888 1.7013569
000320 e0 c3 e8 3f 25 2e f6 3f 50 29 01 40 9b b4 06 40
       1.8184776 1.9232832 2.0181465 2.1047733
000330 e5 ce 0b 40 2e 88 10 40 c3 ee 14 40 72 0c 19 40
       2.1845028 2.2583117 2.3270729 2.3913846
000340 76 ea 1c 40 2e 90 20 40 41 03 24 40 0a 49 27 40
       2.4518104 2.5088 2.5626986 2.613833
000350 6b 66 2a 40 a0 5e 2d 40 f6 34 30 40 4d ec 32 40
       2.662501 2.7089005 2.7532325 2.7956727
000360 73 87 35 40 ab 08 38 40 a5 71 3a 40 23 c4 3c 40
       2.8363922 2.875529 2.9131863 2.9494712
000370 bf 01 3f 40 d9 2b 41 40 c1 43 43 40 d9 4a 45 40
       2.9844816 3.0183012 3.0510104 3.0826933
000380 1a 42 47 40 52 2a 49 40 5e 04 4b 40 0a d1 4c 40
       3.1134095 3.143208 3.1721416 3.2002587
000390 11 91 4e 40 23 45 50 40 db ed 51 40 cf 8b 53 40
       3.2276042 3.2542198 3.2801425 3.3054082
0003a0 87 1f 55 40 7b a9 56 40 69 2a 58 40 83 a2 59 40
       3.3300493 3.3540943 3.3775885 3.400544
0003b0 29 12 5b 40 b7 79 5c 40 87 d9 5d 40 ee 31 5f 40
       3.4229834 3.444929 3.4664018 3.4874225
0003c0 38 83 60 40 b2 cd 61 40 9d 11 63 40 3b 4f 64 40
       3.508009 3.5281796 3.54795 3.5673358
0003d0 cc 86 65 40 88 b8 66 40 5d e4 67 40 56 0b 69 40
       3.5863523 3.605013 3.6233132 3.641317
0003e0 c4 2c 6a 40 16 49 6b 40 d7 60 6c 40 98 73 6d 40
       3.6589823 3.6763358 3.6934106 3.7101803
0003f0 de 81 6e 40 57 8c 6f 40 2e 92 70 40 c4 93 71 40
       3.7266765 3.7429407 3.758922 3.774644

layers.0.ssm.D f4 [64]
000000 90 e0 74 3f f2 04 6d 3f 60 0a 79 3f b8 39 72 3f
       0.95655155 0.9258567 0.97281456 0.9461932
000010 63 7c 6f 3f 00 8f 6a 3f 9e f1 7b 3f 3f 95 78 3f
       0.93549174 0.9162445 0.98415554 0.9710273
000020 20 01 73 3f 1e 48 70 3f 06 b3 74 3f 52 10 7f 3f
       0.9492359 0.9386004 0.9558567 0.9963428
000030 28 29 70 3f 1d 91 75 3f b4 44 7b 3f 71 6a 70 3f
       0.938128 0.9592455 0.9815171 0.93912417
000040 5f 3c 79 3f d5 2f 6d 3f c0 7d 7c 3f 4b 73 72 3f
       0.97357744 0.9265111 0.9862938 0.94707173
000050 d5 a2 7c 3f 99 92 78 3f 1c 8b 79 3f f0 ce 76 3f
       0.9868596 0.9709869 0.9747789 0.9640951
000060 29 ea 6f 3f e3 d0 76 3f 6e 19 7e 3f 53 eb 76 3f
       0.93716675 0.96412486 0.9925755 0.96452826
000070 78 bf 7f 3f 36 37 6f 3f ec 65 7c 3f 5d 56 79 3f
       0.99901533 0.9344362 0.9859302 0.97397405
000080 09 93 77 3f 8a eb 76 3f 41 c4 71 3f e8 fe 72 3f
       0.9670873 0.96453154 0.94440085 0.94920206
000090 8c de 6f 3f 7f 45 6e 3f d1 5f 6d 3f c4 19 6f 3f
       0.93698955 0.9307479 0.9272433 0.9339869
0000a0 4b 3c 76 3f e8 51 77 3f 04 51 76 3f e6 5b 76 3f
       0.9618575 0.96609354 0.9621737 0.96233976
0000b0 77 d2 7b 3f d2 e8 79 3f 51 df 69 3f 39 91 6e 3f
       0.9836802 0.9762088 0.9135638 0.9319034
0000c0 70 83 77 3f a8 14 6d 3f dc 58 78 3f b9 54 7c 3f
       0.9668493 0.92609644 0.9701059 0.98566777
0000d0 9d 24 6f 3f 04 86 71 3f 62 d1 78 3f d9 1f 79 3f
       0.9341524 0.94345117 0.9719449 0.9731422
0000e0 d0 a7 7a 3f 4f 05 78 3f a3 7e 70 3f 96 2a 74 3f
       0.9791231 0.968831 0.9394323 0.9537748
0000f0 12 e1 77 3f b5 fc 74 3f ed f0 78 3f 55 39 6b 3f
       0.96827805 0.956981 0.97242624 0.91884357

layers.0.ssm.deltaBC_layer.weight f4 [144, 64]
000000 25 10 b4 3b 77 73 5c bd d4 a4 0b 3d 14 07 cd bd
       0.0054950886 -0.053821053 0.03409274 -0.10011116
000010 ef 24 81 bd c9 7a 22 bc 2c 0a ce 3d 4d 47 fc bc
       -0.06305873 -0.00991697 0.10060534 -0.030795718
000020 c8 c4 9b bd 34 14 f5 bd 25 20 91 3c 71 78 7b 3d
       -0.076058924 -0.11966744 0.017715523 0.06139416
000030 73 03 17 bd 5d 0c 42 3d 5a d6 04 bd c2 81 4c 3d
       -0.036868524 0.04737507 -0.032430984 0.049928434
000040 65 f0 cf bc f1 fd dc bd d5 7c 9c bc d2 70 71 3a
       -0.025383184 -0.10790623 -0.019102493 0.0009210232
000050 2a b4 b7 3d 12 54 72 bd 64 3c 58 3d c9 1a 81 3d
       0.089699104 -0.059162207 0.052791968 0.06303937
000060 88 35 91 bd af e6 63 bd 30 6d ab 3c 40 99 8e bd
       -0.070902884 -0.05563992 0.020926088 -0.06962824
000070 80 d2 c8 bd e2 8a c5 3d 8c 95 ca bd 47 91 4f bd
       -0.09805775 0.096456304 -0.09891805 -0.050675657
000080 a9 29 2f bd 6b 5f e3 3d b4 95 c8 3b 8e e0 ce 3d
       -0.04276434 0.11102184 0.0061213616 0.10101424
000090 8c a1 31 bd 23 88 03 3d ca 27 b0 3d 92 3b d6 3c
       -0.043366954 0.032112252 0.08601339 0.026151452
0000a0 0f 35 df 3d 45 4b f0 3d 71 15 83 bc c9 38 0b 3d
       0.10898792 0.117331065 -0.016001435 0.0339897
0000b0 12 78 44 3d 78 81 9a bd 8b 78 0e 3d 08 a6 a3 3d
       0.04796607 -0.075442255 0.034782927 0.07990652
0000c0 b2 ba 45 bd b8 6f b8 bd d1 19 50 bd 72 36 6c 3d
       -0.04827375 -0.09005684 -0.05080587 0.05766911
0000d0 88 99 f0 3c 34 a4 a3 bc 4f 4b 7e bd 67 17 ff bd
       0.029370084 -0.01997576 -0.06208354 -0.124556355
0000e0 fc 8c dc bc 08 9a 00 bd 04 6d 24 bd 7e 83 84 3b
       -0.026922695 -0.031396896 -0.040143028 0.0040439954
0000f0 1e f5 f6 bd 30 b6 6e bd f4 29 15 bd 8c fc 5c 3d
       -0.12058471 -0.058279216 -0.036416963 0.053951785
000100 a4 ac 8f bd 00 ee 90 bb c3 18 e4 bd ef b3 b5 3d
       -0.070153505 -0.004422903 -0.111375354 0.0887221
000110 a4 eb b5 3c a4 b8 e2 bd 67 ea 4b 39 f2 76 1c bd
       0.022207089 -0.11070374 0.0001944691 -0.038199373
000120 66 a1 fd bc 59 6b 82 bd f3 ac 3d bd 83 a2 c9 bd
       -0.03096075 -0.06368131 -0.046307515 -0.0984545
000130 bf 6f 5d bd cc af 65 3d d9 49 10 bd 8f c5 d7 bd
       -0.054061648 0.056075856 -0.035226677 -0.10535728
000140 52 73 ac 3c 22 a4 ce bd 13 a8 2a 3c 0f 21 80 3c
       0.021051083 -0.100898996 0.010416049 0.015640764
000150 5d 84 f4 bd 79 13 1e bd ef ac d2 bc 85 6c f3 3d
       -0.11939309 -0.03859279 -0.025717227 0.11885933
000160 0a 66 ae bd bc 88 35 bd a6 07 3c 3d 05 f8 82 bd
       -0.08515556 -0.044319853 0.04590573 -0.06394962
000170 76 d4 12 bd 98 7f 98 3c c0 0d b1 bd 12 5f 8f 3d
       -0.03584715 0.018615529 -0.08645201 0.07000555
000180 0a 45 90 bb 48 75 e4 3d ff 79 96 bd 8a ba bb bc
       -0.0044027613 0.11155182 -0.07347488 -0.022916097
000190 90 a4 f3 3c a6 ba e5 bd 49 50 da bd da d9 b9 bd
       0.029741555 -0.11217241 -0.106598444 -0.09074755
0001a0 fc ad 37 bd ef 0a 90 3d 7d b8 e9 bd f5 3b e7 3d
       -0.04484366 0.070333354 -0.114121415 0.11290733
0001b0 d0 88 03 3c ee b9 3a 3c ad f2 19 bd 70 bf e7 bd
       0.008028224 0.011396868 -0.03758495 -0.11315811
0001c0 88 06 1c 3d 61 4f df 3d 1c 17 c3 3a 94 77 60 3d
       0.038092166 0.10903812 0.0014884206 0.05480154
0001d0 03 8d 8a 3d 79 5f b5 3d a5 12 b4 3d 46 79 86 3a
       0.06765177 0.088561006 0.08792619 0.0010259531
0001e0 0a 53 a2 3d 53 fc 8e bc fa 08 33 3d f7 a5 80 bd
       0.07925995 -0.017454302 0.043709733 -0.06281655
0001f0 40 f1 02 3d 26 fc 70 3d bc 4a 5e bd 2f e0 ac bd
       0.031968355 0.058834217 -0.05427049 -0.08441197
000200 06 33 e1 bd 59 c4 80 bd 32 71 c5 3d b6 36 d0 bc
       -0.1099606 -0.0628745 0.09640731 -0.025416713
000210 cb 92 e0 3c 48 b6 46 bc ef 41 db 3b 29 af c5 bc
       0.027413746 -0.01212842 0.0066912095 -0.024131374
000220 f7 84 96 3d 2c ea 9c bd 01 ba c2 bd af 9f b3 3d
       0.0734958 -0.07661852 -0.09508134 0.087706916
000230 02 d3 e6 bd 68 4a 7d 3c 95 5a a1 bd b0 9f 95 3d
       -0.11270715 0.015459634 -0.07878605 0.073058486
000240 e2 73 d4 3d 90 65 dd bd 89 57 78 bb 8f 18 b1 bd
       0.103736654 -0.10810387 -0.0037893972 -0.08647262
000250 ed e0 29 bc 99 22 a6 bd 95 8a c0 3d 48 fc 0e bd
       -0.010368568 -0.08112068 0.094014324 -0.034908563
000260 99 76 24 3d c2 23 95 3c e2 6b ca 3d 20 c6 c0 3d
       0.040152166 0.018205527 0.09883858 0.09412789
000270 df fc cf bd 27 91 88 bc 93 e8 bd bc e1 28 bd 3d
       -0.10155653 -0.016670777 -0.02318219 0.09236313
000280 ad 5a 8e 3c ca e9 b3 3d 94 d3 96 3c 75 e0 f8 bd
       0.017377222 0.08784826 0.018411435 -0.12152187
000290 15 bb e3 ba 36 b3 d1 3d e9 ef c9 3d 7d 8e d4 3d
       -0.001737448 0.1023926 0.09860212 0.1037874
0002a0 df e1 e2 3a 31 47 d3 bc 13 af 8a 3d 04 80 d3 bd
       0.0017309746 -0.025790783 0.06771674 -0.103271514
0002b0 47 05 f1 bd 07 63 d6 bd 7a 3a 9e ba 50 1f 4d 3d
       -0.11768585 -0.10468107 -0.0012071871 0.05007869
0002c0 cd 95 84 bd 3e 97 f4 3c a4 4c 64 bd 08 f3 dd bd
       -0.06473885 0.029857274 -0.055737153 -0.1083737
0002d0 25 21 36 bd 7e 03 56 bd 53 c7 f3 bd 2c 48 81 3d
       -0.044465203 -0.052249424 -0.119032525 0.06312594
0002e0 b2 77 ca 3d b4 88 1c bd 97 c8 4a 3d c0 31 92 bb
       0.09886111 -0.038216308 0.049507704 -0.004461497
0002f0 42 f4 78 bd 68 20 87 bd 30 c9 d0 bd 21 f1 35 bd
       -0.060779817 -0.06597978 -0.101946235 -0.04441941
000300 bc a7 4f 3c 07 cc a7 bc fe 1e 7f 3d 64 ac 43 3d
       0.012674268 -0.02048303 0.062285416 0.047771826
000310 84 ed 55 3d 3c ba ab bd 73 14 d3 3c d1 68 d0 3d
       0.052228466 -0.08385131 0.025766587 0.10176242
000320 fd e9 1b 3c e9 69 a0 bd b1 ea 83 bb d5 1c bf 3d
       0.009516236 -0.07832701 -0.00402578 0.09331671
000330 3b 11 77 bd de dc b9 bd 63 ea 98 3d 4f 29 7f bd
       -0.060319167 -0.0907533 0.07466581 -0.062295254
000340 e1 5b 90 bd e3 69 39 3d 0a c6 63 3d 87 c5 f4 3b
       -0.070487745 0.045266997 0.055608787 0.007469836
000350 f7 cf 8f bd ff 32 f0 bb 82 f7 1d 3d 36 88 97 bd
       -0.07022088 -0.007330298 0.03856612 -0.07399027
000360 69 fa dd bd fb ee 8d bc 10 bd b5 3d 1f 15 9c 3d
       -0.108387776 -0.017325869 0.088739514 0.07621216
000370 c6 b5 3f 3d ad a3 b1 3d ac 07 a6 3d a2 79 eb 3c
       0.046804212 0.08673797 0.08106932 0.028744522
000380 44 e1 a0 bc 22 bd a3 3c b6 3d ac 3d 25 e6 e9 3d
       -0.019638665 0.019987646 0.08410208 0.1142085
000390 42 6b b1 bd c7 0d 3c 3d a0 58 d2 3d da e6 ff bc
       -0.08663036 0.045911577 0.1027081 -0.031238008
0003a0 fe 45 d1 3d ff 0a 58 3d 94 a2 25 3d 61 cf 5b bd
       0.10218428 0.05274486 0.04043825 -0.05366457
0003b0 bd 02 59 bc 13 7c ca 3d b8 83 e4 bc 55 4c d5 bd
       -0.013245282 0.098869465 -0.02789484 -0.1041495
0003c0 43 aa 1e bd 39 2d 70 3d 6f f6 45 3d af 80 52 3d
       -0.038736593 0.058636878 0.04833072 0.051392253
0003d0 7f 9d 9a bd e5 61 01 bd dd 40 c6 bd c7 d1 06 3d
       -0.07549571 -0.0315875 -0.096803404 0.032914903
0003e0 fa d4 a7 3c d5 de 08 3d 99 b1 e4 3d 90 03 ab bd
       0.020487297 0.033415634 0.111666866 -0.08350289
0003f0 81 a9 79 bd b6 20 d9 bd 29 56 12 3d 73 05 cb 3b
       -0.060952667 -0.10601942 0.0357267 0.006195718
