pengujian/pengujian_epoch/vim/vim_model_200_1.pth (torch, 611678 bytes, 71 tensors)

cls_token f4 [1, 1, 64]
000000 cb 37 86 bf 28 36 58 bf 5f 25 93 bf 3b 39 3b bf
       -1.0485777 -0.84457636 -1.149578 -0.731342
000010 bb 0a e1 3f 0a f5 38 3e 57 da 6b 3f c7 9a 54 3f
       1.75814 0.18062225 0.92130035 0.8304867
000020 4f 79 98 3f 8b 2d 7e 3e 4e 02 a4 3e 93 31 54 3f
       1.191202 0.24822061 0.32033008 0.82888144
000030 4f 9f 3d bf 03 84 6f bf 64 bd 07 3f 40 7d a8 bd
       -0.7407121 -0.9356081 0.5302336 -0.082270145
000040 41 e6 08 3f ff 72 f2 bd ae 00 a8 3d 95 5e b6 3d
       0.5347634 -0.1183834 0.08203255 0.08904759
000050 f4 47 59 3f 6f c8 5a 3f ab ff 3c c0 49 56 10 bf
       0.84875417 0.8546209 -2.9531047 -0.5638166
000060 21 1e 28 3e 85 f1 fe 3e 7b dc 15 40 ef 6e a6 be
       0.16417743 0.4979364 2.341582 -0.3250651
000070 77 d6 12 3d 2d 20 07 3f 12 5e 34 3f 98 bb eb bf
       0.03584906 0.5278347 0.7045604 -1.8416624
000080 2b 1f aa be 20 ba c8 3f 0f d9 8b 3f 6a ac 1d bf
       -0.33226904 1.5681801 1.0925616 -0.6159121
000090 3c ae 50 bf a8 41 a9 3d 15 52 0f 40 9d 64 b4 bf
       -0.8151586 0.08264476 2.239385 -1.4093205
0000a0 6e 9b 57 bf 7e 68 6e bf 37 ec f9 be f0 af 2c bd
       -0.8422154 -0.9312819 -0.4881303 -0.042159975
0000b0 11 3b de be e9 7d 7f bf 12 d9 72 bf 8b ca 2c c0
       -0.4340444 -0.998015 -0.94862473 -2.6998622
0000c0 c7 37 1a c0 02 fb 30 bf 86 10 1e 3f 6b 8b 14 3e
       -2.4096544 -0.6913301 0.6174396 0.14506309
0000d0 5e 6d 50 3e e4 c9 07 bf d4 b9 98 bf 81 a2 38 3f
       0.2035422 -0.53042436 -1.193171 0.7212296
0000e0 b2 53 2c c0 4a af 19 bf ff a3 65 3f b2 a5 ac 3f
       -2.6926084 -0.60033095 0.89703363 1.3488066
0000f0 48 74 80 be 08 6a 82 3f ae fc 66 3d f5 2c 5d bf
       -0.25088716 1.0188608 0.056393318 -0.86396724

to_patch_embedding.1.weight f4 [64, 169]
000000 44 98 d3 bc 22 73 5b 3d 17 b7 63 bd 67 20 49 3c
       -0.025829442 0.053576596 -0.05559453 0.012275792
000010 22 8d 81 bd ac bb 6a 3d 70 60 db 3c 29 89 dd 3d
       -0.06325747 0.057307884 0.026779383 0.10817177
000020 ae 42 17 bd 55 e8 7f 3d d4 50 2a bd 92 5a 4f bd
       -0.036928825 0.06247743 -0.04158099 -0.050623484
000030 0f f9 ce bc 1c 9e 7a bd b1 87 89 3b f8 be 73 bd
       -0.025265245 -0.06118594 0.004197084 -0.059508294
000040 ac 54 27 bd 88 8b b9 3c c9 7b 92 bd b2 aa 92 3c
       -0.040852234 0.022649541 -0.071525164 0.01790366
000050 dc 32 0d 3c 31 d0 1f 3d d3 8c 44 bd d0 9b 2a bd
       0.008618083 0.039016906 -0.047985863 -0.0416525
000060 56 df 88 3d 22 b7 95 bd 8c d0 2c bd 6f 01 49 bd
       0.06683223 -0.073103204 -0.042191073 -0.049073633
000070 c2 b1 19 3d 81 dc 8d 3b 7c e2 a2 bc be cd b6 3b
       0.03752304 0.0043292646 -0.019883387 0.0055787256
000080 84 f7 64 bd c3 00 8f 3b 12 14 79 bc dd fb b4 bc
       -0.05590011 0.0043641045 -0.015202539 -0.022092754
000090 a5 f1 a5 bb d6 f6 2b bd 54 6b 97 3d 52 3d b3 3c
       -0.0050642067 -0.041983448 0.07393518 0.021879826
0000a0 f6 25 f3 3c 50 16 47 3c 38 f2 51 3d 03 15 ee bc
       0.029681187 0.012151316 0.05125639 -0.029062754
0000b0 00 e2 51 3d 44 dc e7 bc e8 2e 4d 3c e9 3e 5a bd
       0.05124092 -0.028303273 0.01252339 -0.053282652
0000c0 cd 3f 8a bd e5 c2 ce bb 6e 20 01 bd 31 1f f4 b9
       -0.0675045 -0.0063098543 -0.031525068 -0.00046562546
0000d0 95 d9 bf bc 76 11 dd b9 5f 18 b7 bc f4 90 bf 3c
       -0.02341918 -0.00042165414 -0.022350488 0.023384549
0000e0 f6 3c f2 bc 5e c1 36 bd d7 f9 dd 3b b1 d9 ad bb
       -0.029570084 -0.044618003 0.006774168 -0.005305492
0000f0 e9 6c 73 3d aa a1 10 bd e5 9b 25 bd 03 58 24 3d
       0.059430037 -0.035310425 -0.040431876 0.040122997
000100 17 3e f5 bc 7d c2 33 3c 43 87 21 bd 98 fa 88 bd
       -0.029936833 0.010971663 -0.039435636 -0.06688422
000110 a3 50 9d 3c 0e 65 92 bd 55 5f 2f 3d 02 97 7f bd
       0.01920349 -0.07148181 0.042815525 -0.06239987
000120 97 d2 83 bc 42 f2 86 bc 1b 53 57 3d ce 15 71 bc
       -0.016091628 -0.01647294 0.05256949 -0.014714671
000130 07 39 4d 3c 4d 42 32 3d 3c 36 db 3c c1 db 51 3d
       0.012525803 0.04352026 0.02675926 0.051234964
000140 32 a8 2a 3d 82 e2 e4 bb 3a e3 dc bc c0 1e c8 bc
       0.04166431 -0.0069850096 -0.026963819 -0.024428725
000150 8e 1b 80 3d fe 92 8f 3b 44 be 9b 3d f0 22 35 bd
       0.06255256 0.0043815365 0.0760465 -0.044222772
000160 db e0 3b bd 0a 40 8f 3d 7c c6 b5 3c ef 5d 2d 3c
       -0.045868736 0.06994636 0.022189371 0.010581478
000170 b3 10 06 ba e6 1d 90 3d 53 23 f3 3c 1a be 80 3d
       -0.0005114183 0.07036953 0.02967993 0.06286259
000180 f7 f9 23 bd 10 e9 73 3c 08 07 3a bd 7f 97 5a bd
       -0.040033307 0.014887109 -0.04541686 -0.053367134
000190 24 e7 ca bc 54 1f 62 3d 29 0d 1e bc a6 a7 d3 3b
       -0.02476842 0.055205658 -0.009646692 0.0064591942
0001a0 c8 75 53 bc 37 5c 96 3c 25 99 21 bd fb 57 74 3c
       -0.012906499 0.018354518 -0.03945269 0.014913554
0001b0 7d b0 f2 bb a4 43 7f bd 3d 44 ea bc f7 f8 68 3c
       -0.007406293 -0.062320367 -0.028596992 0.014219514
0001c0 59 97 f4 3a e1 cb 4d bd 8c fc 17 bd 85 9d 50 bd
       0.0018660828 -0.050243262 -0.03710608 -0.050931472
0001d0 00 27 06 3d 9a 3e e3 bc 40 a8 47 3d 94 82 8f bc
       0.032752037 -0.027739812 0.04874444 -0.01751832
0001e0 7e 74 3f 3d c1 b0 b8 bc b0 a5 fb bc d0 bf 89 3c
       0.046741955 -0.02254522 -0.030718654 0.016815096
0001f0 40 07 8f 3c 42 6f bb bc 1e bd 8d bc 62 28 7d 3d
       0.017459512 -0.0228802 -0.017302092 0.06180609
000200 9f 93 89 3d e2 2f 82 bb c2 9e b4 3c fd 5b 63 3d
       0.067176096 -0.003972993 0.022048358 0.05550765
000210 75 3a df bc 98 af 5c 3b 4f 04 3d bd b0 f2 0d 3d
       -0.027249554 0.0033673998 -0.046146687 0.034655273
000220 67 f7 99 3d db a7 9a 3d f4 f2 7f bd 0d fe 5a bd
       0.075178914 0.07551547 -0.062487558 -0.053464938
000230 62 22 88 bd 1f 3d 2e 3d e7 3c 50 3d 5d 4b af bc
       -0.06647183 0.04253876 0.05083933 -0.02139824
000240 51 9b d9 bc 91 39 70 3d 92 8b 88 bd a4 82 89 3d
       -0.026563318 0.05864865 -0.06667246 0.06714371
000250 5e e3 7b 3c c3 42 22 bd 70 ad 61 3d 39 ef 7e bd
       0.015374033 -0.03961445 0.055097044 -0.06223986
000260 dc 76 d4 bc f2 f6 9d 3d 54 59 2f 3b 31 77 ef 3c
       -0.025935583 0.07713117 0.0026756125 0.02923164
000270 45 26 1d bd 7c f3 03 3d 2d 9c 22 3c 81 fb ad bc
       -0.038366575 0.032214627 0.0099249305 -0.02123809
000280 27 6b e3 3c 36 7b d3 bb 4f b9 21 bd db 5f 11 3c
       0.027761055 -0.006453897 -0.039483365 0.008872951
000290 c1 44 77 b8 0e e3 03 bd 7f cc 7e ba 24 2e 8c bd
       -5.895342e-05 -0.032198958 -0.00097198033 -0.06844738
0002a0 6f ae 53 3b 03 87 70 bd cf 8e 30 bc aa 49 0b 3d
       0.0032300015 -0.058722507 -0.010776236 0.0340058
0002b0 d2 98 7d 3d f1 24 65 3d d0 eb 8f 3d 6f 92 a4 bd
       0.06191332 0.055943433 0.070273995 -0.080357425
0002c0 16 c2 a2 3d 4f 2d 60 bd f9 f3 92 bd d5 70 88 bd
       0.07947175 -0.05473071 -0.0717544 -0.06662146
0002d0 fe 0f 2e bd 55 c0 83 bb 13 73 ab 3c 36 f1 8d 3d
       -0.04249572 -0.0040207305 0.020928895 0.06930773
0002e0 ed 7a 86 3c 80 38 cc bc 7b 7c 75 3c 09 cb 8c bc
       0.016416037 -0.024929285 0.014983292 -0.017186658
0002f0 3b a2 e6 bc b1 3d 9a 3d 96 77 b5 bb 5a 13 75 bb
       -0.02815353 0.07531298 -0.0055379374 -0.0037395568
000300 8c fd 95 bd 84 26 8e bd 6f 9b 1b 3d 0c 33 31 3d
       -0.07323751 -0.0694094 0.03799003 0.043261573
000310 ad c5 dc 3b 97 fd 5a bd 8f da 65 3d e0 c6 18 bd
       0.006737432 -0.0534645 0.056116637 -0.037299037
000320 c0 2c 62 3d 25 1f 73 bd bd 79 d9 bb 9e 05 e5 3c
       0.05521846 -0.059355874 -0.006636827 0.02795678
000330 5e 85 20 3c 9f de 3c 3c f9 5b b5 bc 4b 12 1f 3c
       0.009797422 0.011527686 -0.022138583 0.009708951
000340 a4 2c 60 bd 88 11 8f 3c 89 88 6a bc 3d 4d 50 bd
       -0.054730073 0.017464414 -0.014314779 -0.05085491
000350 e4 07 71 bc 84 db 27 bc 95 be 03 bd 6a c5 18 bd
       -0.014711354 -0.010245208 -0.032164175 -0.037297644
000360 e1 ac 79 3d f5 40 fe 3c d5 2a 25 3c 10 d8 1e bd
       0.060955886 0.031036833 0.010081013 -0.038780272
000370 c8 bb 0a 3c 23 c4 a3 3d ad a3 32 bd 70 5f 21 bd
       0.008467622 0.079963945 -0.043613125 -0.039397657
000380 67 1f fe bc 0f cb 07 bd 16 63 87 bd 99 9f a9 bc
       -0.031020833 -0.033152636 -0.06610696 -0.020705985
000390 d7 7d 41 3d 6b cc 72 bd f4 cc 44 3c 16 b2 88 3d
       0.04723915 -0.05927698 0.012011755 0.06674592
0003a0 b9 6c 62 3d 37 a5 4f bd 9e ed 6d 3d 7c 22 72 3d
       0.055279467 -0.05069467 0.058087938 0.059114918
0003b0 8b 66 63 bd 48 12 8d bc cf b1 d0 3c 6d 96 14 3c
       -0.055517714 -0.017220631 0.02547541 0.009069067
0003c0 c0 a5 05 3d f9 d6 7f 3d 3e 73 49 bd 67 ba 90 3c
       0.032628775 0.062460873 -0.04918217 0.017667009
0003d0 18 ac 0a 3a 10 cc 95 3c d1 c2 18 bd 34 42 23 3d
       0.0005289926 0.018285781 -0.037295166 0.039858058
0003e0 03 a0 bf bc 64 1e 0d bc a4 76 85 bd f4 12 3d bd
       -0.02339173 -0.008613203 -0.065167695 -0.046160653
0003f0 f1 dc c1 3c e4 ad 87 3d a5 b3 65 3d a9 37 c6 3c
       0.023664923 0.06624964 0.056079526 0.024196463

to_patch_embedding.1.bias f4 [64]
000000 bc f7 3a bd 96 56 a5 3c 96 13 d5 3c 9d 7a 5d 3d
       -0.045646414 0.020182889 0.026010316 0.05407201
000010 da 08 71 bc fc 9d 3d 3d 42 36 77 bd 2c 69 6b 3d
       -0.014711583 0.046293244 -0.06035448 0.057473347
000020 5d 0b 11 bd 44 c1 61 3d 2d 49 13 3d 91 53 79 bd
       -0.035411227 0.055115953 0.035958458 -0.06087071
000030 55 21 e8 3c c0 e0 2a bd be d6 9e bc 7e e3 80 3d
       0.028336206 -0.041718245 -0.019389506 0.06293391
000040 f0 1d 3d bd f1 0a 18 bc 1f 4a 82 bb 83 f4 3c 3d
       -0.04617113 -0.009279952 -0.003976121 0.046131622
000050 72 ec 88 bc ab 6e d7 bb e3 0e 9f bc 88 ac 03 3d
       -0.016714308 -0.006574472 -0.019416278 0.03214696
000060 d3 7d e9 bc b5 ce 63 3d 6d 5c 4a 3a ca 94 19 3d
       -0.02850238 0.055617053 0.0007719461 0.037495412
000070 60 04 e5 bc 1e 9b 1d 3d 77 33 81 3d 11 61 ce bb
       -0.027956188 0.03847801 0.06308644 -0.0062981923
000080 a5 af 84 bc 9f 8a 2e 3c a0 e1 11 3c f2 ed 53 bc
       -0.016197035 0.010653167 0.008903891 -0.012935149
000090 45 d3 26 3d 43 c3 c4 bb ec 20 c6 3c ec ef 72 3c
       0.040728826 -0.0060047223 0.02418562 0.01482771
0000a0 14 5d 81 3d cd 5b 06 bd df 51 76 bd 5c 04 f0 3b
       0.06316581 -0.03280239 -0.060136672 0.0073247384
0000b0 1b c9 59 bd ab 1e 2f bd 96 4c 7b 3d 8d 08 8a 3d
       -0.053170305 -0.042753857 0.061352335 0.06739912
0000c0 26 53 87 bc 7a 5c 0d 3d 42 fa ea bc 3d 2e d2 3c
       -0.01651914 0.03451202 -0.028683785 0.025656814
0000d0 04 06 2e 3d 39 dc 7b bd f7 e9 53 3c 25 b5 5c bc
       0.042486206 -0.061489318 0.0129342 -0.013470923
0000e0 74 43 83 3d fe 6d 51 bd 19 0a b8 ba 14 7a 13 bb
       0.0640935 -0.051130287 -0.0014041095 -0.0022503184
0000f0 4b c2 8a 3d b8 16 26 3d 73 f1 0c 3d 1c ba 5b bd
       0.0677534 0.04054901 0.03440995 -0.053644285

layers.0.forward_conv1d.weight f4 [64, 64, 1]
000000 fa 3f f5 3d 39 4b 93 3c 35 a9 a1 3d 38 98 89 bc
       0.11975093 0.017980205 0.07893602 -0.016796216
000010 5c 69 75 bd 91 fe 74 3d db b8 b9 3d 84 49 dc 3b
       -0.05991493 0.059813086 0.090684615 0.006722631
000020 0e b6 2e bd 8c 6a 80 bd 8d 25 a3 3c 9b c1 47 3d
       -0.04265409 -0.06270322 0.019915367 0.04876862
000030 dc 11 8e bd 7f f4 24 3d 67 6d 8a 3d 79 45 fe 3c
       -0.06937 0.040272232 0.06759148 0.031038987
000040 e8 e0 61 3d 7a 49 db 3d d6 e7 d8 3d 03 cf 85 3c
       0.055146128 0.10707374 0.10591094 0.016334062
000050 68 44 e0 3d b3 a9 a4 bd d8 a5 b1 3d bd 70 1e 3d
       0.109505475 -0.0804018 0.0867421 0.038681734
000060 cd 6a 80 3d d0 f3 fa 3b 5e 7d 92 3c 88 ea ab bd
       0.06270371 0.0076584592 0.017882045 -0.08394343
000070 1a 59 ab 3d a9 91 43 3d 1a 90 ca 3d 7e 86 c4 3c
       0.08366604 0.047746334 0.098907664 0.023989912
000080 79 2c ae bc 2d 84 1d bd 0c ea 8d 3d 5d c6 c3 bd
       -0.02126144 -0.03845613 0.069294065 -0.09559319
000090 eb 76 1b 3d b5 2c a8 bd 80 89 78 bd d2 54 de 3d
       0.037955206 -0.08211652 -0.060678005 0.10856022
0000a0 67 55 8f 3b 98 b6 98 bd 86 d4 a4 bc ed 39 37 bd
       0.0043741944 -0.07456702 -0.02012087 -0.044732977
0000b0 4d 57 c1 bd 56 bb 80 bd 14 e2 51 3c 98 7a c3 bd
       -0.094404794 -0.062857315 0.012810249 -0.09544867
0000c0 47 fe c0 3d ff 8d 7b 3d df 39 cd bd ac c9 89 bd
       0.094234996 0.061414715 -0.10020804 -0.06727919
0000d0 bc 99 7b 3d a4 f7 3c bd d3 73 a8 3d b9 84 d0 bd
       0.06142591 -0.046134606 0.08225217 -0.10181565
0000e0 ed 58 33 3d 39 e1 a0 3c 18 5c d0 bc 45 61 93 bd
       0.043785978 0.019638645 -0.025434539 -0.07196287
0000f0 02 ae 95 bd d5 c7 cc bd 94 64 b1 3d c4 0a 85 3b
       -0.0730858 -0.099990524 0.08661762 0.0040601213
000100 55 a4 aa bc 6e 3f 2d 3d 13 9f 99 bb 71 bc cb 3b
       -0.020830313 0.04229682 -0.0046881526 0.0062175323
000110 a2 45 b5 bd 77 15 42 bd 8b bb 23 3d e8 39 45 3d
       -0.08851172 -0.04738375 0.039973777 0.048150927
000120 cd ff 67 3d 95 f5 ad 3d d8 d8 fa 3c 95 e5 4d 3d
       0.056640435 0.08494107 0.030620977 0.050267775
000130 e9 4a e0 b8 48 a8 10 3d 98 f1 8b 3d 61 64 3d bd
       -0.000106951054 0.035316736 0.0683319 -0.046238307
000140 23 f1 a8 bd dd 82 c3 bc 77 3b d7 3c 0d 26 88 bd
       -0.08249118 -0.023866111 0.026273472 -0.066478826
000150 7d 90 c7 bd 04 20 88 3d 9c d6 1d 3d 19 f2 62 3d
       -0.09744356 0.066467315 0.038534746 0.055406664
000160 10 59 ab bc 13 29 29 bc 11 4c 96 3d 20 af b1 3b
       -0.020916492 -0.010324734 0.07338727 0.005422488
000170 25 1a 8f bd d8 1f ae bd 4f 03 62 bd 1c 75 53 bc
       -0.069874085 -0.085021675 -0.055178937 -0.012906339
000180 98 d7 e3 bc 46 94 92 3c b9 62 05 bd 44 4e 9d 3d
       -0.027812764 0.017892968 -0.032564852 0.076809436
000190 8c 7f 79 3c d8 96 48 bd f5 80 87 bc ae 3b 82 3d
       0.015228163 -0.04897198 -0.016540984 0.06359039
0001a0 41 e3 b3 3d 7e 70 9e bd f0 e2 81 bc af fd ad 3d
       0.087835796 -0.077363 -0.015855283 0.08495652
0001b0 50 d7 ed bc 3b 76 65 bd ec eb 90 bd 66 69 3b bd
       -0.029033333 -0.056020956 -0.070762485 -0.045754813
0001c0 6b bf ad 3d 9d 22 b1 3c 43 f3 c1 3b 2c fa 35 bd
       0.08483776 0.02162295 0.0059188916 -0.044428036
0001d0 90 af 8f bd 2e 98 71 3d 4f d1 8d bd 61 d7 95 3d
       -0.07015908 0.05898302 -0.06924688 0.07316471
0001e0 15 1d 87 3d c6 9c 9d 3d 19 ae a8 3d a3 08 5a 3d
       0.06597344 0.07695918 0.082363315 0.053230893
0001f0 8a ce 0f 3d 99 b6 af 3d 84 ed 81 bd 85 7c 83 bc
       0.03510908 0.085797496 -0.06344131 -0.016050586
000200 8d df 8e 3c fe 12 c6 3c 59 d6 53 bd f2 c1 bf bc
       0.017440582 0.024178978 -0.05171809 -0.02340791
000210 7f 86 9d bd b7 76 d6 bc 19 e5 ef bc 22 bc 61 3d
       -0.07691669 -0.026179655 -0.029284047 0.055111058
000220 bd cb 4a bd aa c4 7e 3d 39 68 98 bd 40 68 90 3a
       -0.049510706 0.062199272 -0.07441754 0.0011017397
000230 48 75 e3 3c 49 92 25 3d 08 bd dd bc 20 ea 91 3c
       0.027765885 0.04042271 -0.027067676 0.017811835
000240 cc a3 25 3d a7 c7 14 3c cf 58 21 bd 02 e6 0b 3d
       0.040439412 0.009080804 -0.039391335 0.0341549
000250 70 dd f2 bc b6 0a 3c bd 51 e8 27 3d e4 f8 6d 3d
       -0.029646605 -0.045908652 0.04099304 0.05809869
000260 12 31 d5 bb 38 d5 88 bc d8 b4 ba bc b4 9d f9 bb
       -0.006506094 -0.016703233 -0.022791311 -0.0076176766
000270 90 10 9f 3d 0e 4f e4 3c 7d 9d 68 bd 60 9c fb 3c
       0.07766831 0.027869727 -0.056790818 0.030714214
000280 cf 46 74 bc d0 93 24 3d 48 5c 1d bd 41 63 0a bc
       -0.01490946 0.040180027 -0.038418084 -0.008446516
000290 d8 0d 30 3a b4 a1 df 3b 74 14 43 bd bb a8 54 bd
       0.000671593 0.0068246964 -0.047626927 -0.051918726
0002a0 70 2f 2e 3d 19 79 39 3d 44 c4 ac 3d ad 50 d0 bd
       0.04252571 0.045281503 0.08435872 -0.10171638
0002b0 e2 1c 4b bd 82 ec b6 bb b2 9b 4f 3d 8d d4 90 3d
       -0.04958809 -0.005582393 0.050685592 0.07071791
0002c0 43 bd 62 bb a3 ed 9e bc 03 5e 48 3d 45 72 f8 3c
       -0.0034597672 -0.019400423 0.04891778 0.030327925
0002d0 d7 02 65 bd 20 27 b8 3b f5 5c d0 3b 5d 7e 11 3d
       -0.05591091 0.0056198984 0.0063587376 0.0355209
0002e0 92 ff 5f bd d6 66 d6 bc b9 86 13 bd 50 ef a4 bd
       -0.05468709 -0.026172083 -0.036017153 -0.08053458
0002f0 15 db 53 3d 9d 19 fc 3c d2 d9 29 3d 8c 80 1c 3d
       0.051722605 0.030773932 0.041467495 0.03820853
000300 b7 96 87 3d 80 18 8d 3a 82 af 37 bd e7 28 b1 bd
       0.066205435 0.0010764748 -0.04484511 -0.0865038
000310 37 9b ce 3c 67 33 7a bd 46 50 8b 3c cf 41 3c 3a
       0.025220497 -0.061084177 0.01700605 0.0007181437
000320 71 cc c9 bc f6 17 25 bd 07 28 7b bc 4d 07 4d 3c
       -0.024633618 -0.040306054 -0.0153293675 0.012513948
000330 57 b5 84 bd a5 9c 15 bd 45 e2 ed bc ba eb 81 3d
       -0.064799 -0.03652634 -0.029038558 0.063437894
000340 13 78 25 bb c0 56 7d bb b7 ab 2f bd e3 43 9b 3d
       -0.0025248572 -0.0038656443 -0.04288837 0.07581308
000350 60 50 92 bd b0 91 07 3d 28 70 b7 bc 8f 84 fd bc
       -0.071442366 0.033097923 -0.022392347 -0.030946998
000360 7b a2 b9 bc 6d 0e d4 39 e9 46 17 3b 2c 38 67 3c
       -0.022660485 0.0004044654 0.0023083037 0.0141125135
000370 68 4d 1b bd c5 d7 2d bc 11 2a 18 bd 27 43 76 3c
       -0.037915617 -0.0106105255 -0.037149493 0.015030659
000380 a0 66 ff 3b cd 86 46 3c fe 37 45 bc db 80 27 bd
       0.0077942163 0.0121171 -0.012037275 -0.04089437
000390 60 f2 88 bc 8c 38 17 bd f0 91 fe bc d4 73 ac 3c
       -0.016717136 -0.03691916 -0.031075448 0.021051325
0003a0 f9 a1 71 bd 62 4f 46 3d 6f 17 22 bd 30 19 f1 bc
       -0.05899236 0.04841555 -0.03957313 -0.029430956
0003b0 fe e2 99 bb 32 12 e7 3c c7 ac 2e bd e4 e8 c2 bc
       -0.004696249 0.028206918 -0.042645242 -0.023792692
0003c0 00 f9 5a 3d 9d 8a ab 3c 2b 84 de 3c de 4c 14 bd
       0.05346012 0.02094012 0.027162632 -0.03620612
0003d0 55 01 cf bc da fe ed bc cc d6 a3 bc 99 32 38 3d
       -0.02526919 -0.029052187 -0.019999884 0.04497013
0003e0 58 c2 86 3d 39 ea 1c bc 68 c1 cb 3c 38 00 b9 bd
       0.06580037 -0.009577327 0.024872497 -0.09033245
0003f0 4d d4 29 3d 94 4f b1 3d 5f 64 1d 3d b9 f2 29 3d
       0.04146223 0.086577564 0.0384258 0.041491244

layers.0.forward_conv1d.bias f4 [64]
000000 0f 66 b7 3d ed 7d 90 bd a0 aa b3 bd e0 9a cd bd
       0.08955013 -0.070552684 -0.087727785 -0.10039306
000010 b8 a7 52 3c 10 bb c0 3d 90 56 95 bd 7d 91 8e bd
       0.01285737 0.09410679 -0.07291901 -0.069613434
000020 02 0a 78 bd eb 98 9f 3d cc 57 ce bc 52 d2 d1 3d
       -0.06055642 0.07792839 -0.02518835 0.102451935
000030 00 90 e9 3d b0 4d 44 bd bf 0d 9b bc 0e d5 61 3c
       0.11404419 -0.04792565 -0.018927453 0.013783706
000040 94 66 e3 3d 29 2f 5d 3d c2 4e 87 bc 11 a2 80 bc
       0.111035496 0.054000054 -0.016517047 -0.01570228
000050 de 13 91 3c 4c 7c 90 3c 69 f8 48 3d 37 c3 de 3b
       0.017709669 0.017637394 0.049065027 0.0067981738
000060 f1 2b 31 3d 41 1f 33 bd 17 83 d7 bd 26 9d fc bc
       0.043254796 -0.043730978 -0.1052305 -0.030836653
000070 f4 e4 9e bd 8b 3c c2 3c 0a 56 c1 3d 93 33 0b bd
       -0.07758513 0.02371051 0.09440239 -0.033984732
000080 c8 ba af bd b5 1e e3 3d 9d 9d c9 3c 86 61 88 bd
       -0.085805476 0.11089841 0.024611289 -0.06659226
000090 04 90 a4 3c d7 77 85 3d 68 90 ed bd 4e 83 91 bd
       0.020088203 0.06516998 -0.11599809 -0.071051225
0000a0 9f 58 a7 bd 7b f1 9d bd 1f ee 9a bd fa 12 ec 3c
       -0.081712 -0.07712074 -0.07564949 0.028817642
0000b0 b2 79 21 3c 2a a9 65 3d f0 10 51 3d 36 5c f4 3d
       0.009855675 0.05606953 0.051041543 0.1193165
0000c0 54 d4 aa 3d 97 e1 85 3c 79 55 02 bc cc f9 9e 3d
       0.083412796 0.016342921 -0.007954949 0.07762489
0000d0 5f 67 45 bc 39 9d 8e 3b bd b8 b7 3d 99 2b a5 3d
       -0.012048571 0.0043522385 0.08970783 0.08064956
0000e0 fc f6 12 3d 0d eb cb bd 39 13 cd bd fa ad 9a 3d
       0.035880074 -0.09956942 -0.10013432 0.07552715
0000f0 50 84 47 bc ff 15 c9 3d ef 79 91 bb 8d 43 95 3d
       -0.012177542 0.098186485 -0.0044395844 0.07288275

layers.0.backward_conv1d.weight f4 [64, 64, 1]
000000 fb 7d bb bd 00 06 94 3d d1 d5 8c 3d 1b 0d 42 3d
       -0.09154888 0.07227707 0.0687672 0.04737578
000010 e6 d5 12 bd 9c 45 af 3d e3 05 6c bc f0 4d 9f bd
       -0.03584852 0.08558199 -0.0144057 -0.07778537
000020 0d a7 3f bc 10 7d 7e 3d 54 05 7a 3d f2 72 c6 3d
       -0.011697543 0.062130988 0.061040238 0.09689893
000030 7a 60 9f 3d e0 6d 11 bc 84 69 01 bc 2a 49 47 bd
       0.07782073 -0.008876294 -0.007898692 -0.04865376
000040 32 f9 ae bd ac d6 37 3d 96 e1 93 bd 8a f7 bb 3d
       -0.08543624 0.04488246 -0.072207615 0.09178074
000050 db da 8a bd 9c 3f 93 bd a0 98 28 bd 87 c7 5e bc
       -0.067800246 -0.07189867 -0.04116118 -0.013597376
000060 45 1c 8d 3d 4f de 25 bd 2c 84 5b bd 0e fd 18 3a
       0.068901576 -0.040495213 -0.053592846 0.0005836048
000070 6f 3b 98 3d c0 51 22 3d 9b c9 6c 3d 3a cd 5b 3d
       0.07433211 0.039628744 0.057809453 0.053662516
000080 de a4 05 bd 25 d8 04 bd 08 c5 45 bd 26 81 39 bd
       -0.032627933 -0.032432694 -0.048283607 -0.04528918
000090 05 1c 7b 3d db 75 97 bd 1e a1 a9 bd 30 ba 06 3d
       0.06130602 -0.07395526 -0.08282684 0.032892406
0000a0 a5 81 7a 3d 90 d7 c4 bc 62 a0 8b 3d ec cb 9c bd
       0.061158795 -0.02402857 0.068177 -0.076560825
0000b0 5c be 4b bd 29 96 33 bc af ba 99 3b 58 3a 87 bd
       -0.049742088 -0.010961094 0.004691444 -0.06602925
0000c0 a5 4f a2 bc e1 63 97 bd f9 a2 9e 3d 1d 6b 97 bd
       -0.019813368 -0.07392097 0.07745928 -0.07393477
0000d0 94 81 df 3b ac 83 9d bd 32 51 c9 bc 7f b8 83 bc
       0.006820867 -0.0769113 -0.02457485 -0.016079186
0000e0 ef ad f5 3c 6a 13 08 bd 50 f5 f9 bc d2 00 80 3d
       0.029990165 -0.03322164 -0.030512482 0.062501565
0000f0 32 ea 57 3d 78 c5 cd bc e8 a2 84 bc 31 94 29 bc
       0.05271358 -0.025118575 -0.016190961 -0.010350273
000100 02 75 93 bd c3 1a 00 3c 31 aa a4 3c e6 08 9b bd
       -0.07200052 0.0078188805 0.020100685 -0.075700566
000110 f4 78 33 bd de 89 18 bd 9a f7 a7 3d ad 5f 08 bd
       -0.04381652 -0.037240855 0.08201523 -0.03329437
000120 a8 49 4f bc 4b 5a 09 3d 87 ee b7 3d ea ae d7 bc
       -0.012651838 0.033533376 0.08981042 -0.026328523
000130 89 dd 5a 3a 87 bd 76 bd 90 be 70 bd e0 35 6c bd
       0.00083490513 -0.06023934 -0.058775485 -0.057668567
000140 49 f2 7b bd 4a fe 3c bd bf ca a0 3c 98 36 9f 3d
       -0.061510358 -0.046140946 0.019627927 0.07774085
000150 08 d3 fd bc 9c 8e c4 bd 63 d0 c2 bd 3e ac ac bc
       -0.030984417 -0.09597513 -0.09512403 -0.021078225
000160 81 d6 6a 3d 49 2d d4 3c 33 77 0a bd 8f 90 91 3d
       0.057333473 0.0259005 -0.033805083 0.071076505
000170 e8 ba 9d 3d b5 54 85 3d b3 d0 eb bc e2 d4 c9 3c
       0.07701665 0.06510297 -0.028786039 0.024637643
000180 fd 46 ac bd e6 2c 9b bd ed 10 1c bc e7 35 bd bb
       -0.084119774 -0.07576923 -0.00952552 -0.005774248
000190 19 14 b2 bd 7a bc 8d bc b7 2c 19 bd 39 20 70 3d
       -0.086952396 -0.017301787 -0.03739616 0.05862448
0001a0 e7 9e 85 3d e7 1c 07 bd a8 5f a2 bd aa b2 37 bd
       0.06524449 -0.032986548 -0.07928401 -0.04484812
0001b0 7b df 86 bd 51 99 46 3d 14 a2 92 3b ca 0e a1 bd
       -0.06585594 0.048486058 0.0044748876 -0.07864149
0001c0 03 af bc bc b6 3a c6 3d 3c e2 2b bd cc 41 40 bc
       -0.02303267 0.09679167 -0.0419638 -0.011734437
0001d0 db f4 56 bd 87 3c b9 3d 22 10 a5 bd 83 2f 63 3c
       -0.052479606 0.09044748 -0.08059718 0.013866308
0001e0 d2 73 4d 3c fb 4e cc bc df a4 16 bd 21 29 ff bb
       0.012539821 -0.024940005 -0.036778327 -0.0077868854
0001f0 6c 88 82 bd bb f3 34 bd 2c 91 21 3d 22 2a a9 bc
       -0.06373677 -0.044177752 0.039445087 -0.020649973
000200 97 2e 7d 3d a6 2c 0f 3d fb b2 66 3d 6a 55 c8 39
       0.06181201 0.03495469 0.056323033 0.0003821061
000210 c9 93 0a bd da 14 65 bd f2 fa 47 3d c2 87 78 bd
       -0.033832345 -0.05592809 0.048823304 -0.060676344
000220 1a 9a 20 bc e2 45 c7 bc 20 00 f8 bc 6e 9d 00 3d
       -0.009802366 -0.024325315 -0.030273497 0.031400137
000230 5c 25 ad bb 95 75 27 3d 93 4f 10 bd 94 96 fc 3c
       -0.0052839946 0.04088362 -0.035232138 0.03083352
000240 0b a7 61 3d 7e c4 b9 bd 34 c0 86 3c 75 bf 2a bb
       0.055090945 -0.09070681 0.016449071 -0.0026054059
000250 d2 cb 87 3d 2c 19 06 3d fe 64 49 bb 5a 26 24 bd
       0.066306725 0.03273885 -0.0030730362 -0.040075637
000260 d1 2b 7c bc 66 cf 40 bd 84 7f b6 bb 70 48 c3 3d
       -0.015391306 -0.04707279 -0.0055694003 0.09535301
000270 b1 b9 e5 bc 1b d8 ee bc cf bb a8 bc a7 e9 f0 3c
       -0.028042646 -0.029155781 -0.020597367 0.02940829
000280 9b 86 95 bd f9 58 35 bd c5 c3 af 3c d5 a7 aa bd
       -0.073010646 -0.044274304 0.021455655 -0.08332793
000290 66 51 2c 3d f2 b5 8a 3d 45 54 37 3d ea 17 4b bc
       0.042069815 0.067729846 0.0447581 -0.012395838
0002a0 42 56 e6 3c 1d 02 47 3c 14 f2 2a 3c 4d 6c de 3b
       0.028117303 0.0121465 0.0104336925 0.006787813
0002b0 0f 39 2c bd 8c 0c a4 bc 02 4c ac bc 0c 61 f7 3b
       -0.042046603 -0.020025514 -0.021032337 0.0075494107
0002c0 1a 07 c4 bd c5 3b 6b 3c f8 b4 37 bd 11 5b 34 3c
       -0.09571667 0.014357512 -0.04485032 0.01100804
0002d0 7d 30 1c 3c f4 4c ad bd 16 cf a8 3d 87 7f a3 bc
       0.009533045 -0.08461943 0.082426235 -0.01995827
0002e0 e4 be 48 bb c6 02 85 bc f4 07 5a 3d 37 f8 81 3d
       -0.0030631358 -0.016236674 0.05323024 0.06346171
0002f0 15 8a 0f bc 6a a9 9b 3d d0 97 3a 3d e4 6b 30 3d
       -0.008760949 0.076006725 0.045554936 0.043071643
000300 79 7b 01 3c 92 2d 17 bd 14 ec 1d 3d 46 1c e3 3b
       0.007902973 -0.036908694 0.03855522 0.0069308607
000310 e4 03 97 3c 1f bb 03 3b 7a 66 bb 3d 7f fb e2 bc
       0.018434472 0.0020100547 0.09150405 -0.027707813
000320 74 76 eb bc 51 b9 a3 bd f4 fa 48 bd eb f9 82 3d
       -0.028743006 -0.07994331 -0.049067453 0.06395324
000330 37 be b2 3c 69 45 3b bd 02 88 06 3d c9 e1 9d ba
       0.021819217 -0.04572049 0.03284455 -0.0012045439
000340 da 53 09 3d 42 65 9b 3d be 14 02 3c b7 44 8a 3d
       0.033527233 0.07587673 0.007939516 0.067513876
000350 a9 de d1 3c bf 42 be bb 33 ca 98 3c ea 8f 26 3d
       0.025618868 -0.0058062966 0.018651104 0.04066459
000360 0b ea e8 3c 89 f5 49 bc c5 8b 30 3c 82 68 82 3d
       0.028431913 -0.012326607 0.010775511 0.063675895
000370 7c de 2a bd 46 34 bb 3c 38 d6 f9 3c b9 49 0a bd
       -0.041716084 0.022852074 0.030497655 -0.033761714
000380 02 ab 79 3b 17 47 56 bd e2 91 2f bd 28 1d 8e bd
       0.0038096313 -0.05231389 -0.042863734 -0.06939155
000390 c3 48 4d bd 90 81 39 bd 39 c6 2e bd 80 a4 68 3d
       -0.05011822 -0.045289576 -0.04266951 0.056797504
0003a0 db 51 9d bd 58 9c 16 3b ef 75 6e bd 79 0f a5 3c
       -0.07681628 0.0022981372 -0.05821794 0.02014898
0003b0 eb 0d 8e bd 63 a3 dd 3a 3f 8f bc bd a4 ba 58 bd
       -0.069362484 0.0016909655 -0.092070095 -0.05291237
0003c0 18 12 18 bd 0e cf 88 bd 16 b0 17 bc b0 30 3e 3d
       -0.03712663 -0.066801175 -0.009258291 0.04643315
0003d0 eb 51 51 3d 22 70 bb bc 87 7c cb bc df 7c 7f bd
       0.051103514 -0.022880618 -0.024839653 -0.062374946
0003e0 a1 05 7c 3b 15 10 92 3c 45 99 81 bd d6 5a 77 3d
       0.0038455504 0.017829934 -0.06328062 0.060389362
0003f0 91 9b ec bb f6 53 b1 3d b6 91 4a 3c dd 11 a6 bb
       -0.0072206934 0.086585924 0.012363842 -0.0050680474

layers.0.backward_conv1d.bias f4 [64]
000000 b8 80 d1 bd c6 0a c1 3d a6 a5 cc bd 2f a8 9a 3d
       -0.10229629 0.09425883 -0.099925324 0.0755161
000010 eb 67 68 bc 41 3b 8e bd cd 7c 29 3d 74 f0 72 bd
       -0.014184932 -0.069448955 0.041378785 -0.059311345
000020 63 20 d1 bd e1 ee 60 3d a2 15 8e 3d 4e cf 7b 3d
       -0.102112554 0.054915313 0.0693772 0.061476998
000030 95 3d 8b bc 54 44 57 bc 0d 42 58 bc 81 2f ca bd
       -0.016997138 -0.013138849 -0.0131993415 -0.09872342
000040 e3 4e c8 3d 0f d7 f6 bc 82 6a 11 bc 1a e3 05 bd
       0.097806714 -0.030131845 -0.008875491 -0.032687284
000050 71 78 85 bd 47 f6 af 3d bc e5 c9 bc e4 81 c9 3c
       -0.06517113 0.085918956 -0.024645679 0.02459807
000060 63 7b 34 3d 15 55 d1 bc 25 63 c4 bd cc 45 11 bb
       0.044062983 -0.025553266 -0.09589223 -0.0022166846
000070 7f a4 4f 3d b7 e3 91 3d bd e1 18 3c db 8d c0 3d
       0.050693985 0.07123511 0.009331164 0.09402057
000080 7a 03 52 3d 1e ad 8b bd 94 e4 a0 3d d6 0f 1d bc
       0.051272847 -0.06820129 0.07856098 -0.009586295
000090 30 78 f5 bd df 53 a1 3d ae d2 91 bd ca 79 03 3d
       -0.119858146 0.07877325 -0.07120262 0.03209857
0000a0 5f 89 69 bd 17 df 9e 3b b7 88 32 3d 5c cf b8 bd
       -0.057015773 0.0048483717 0.043587413 -0.09023926
0000b0 97 7a 27 3d 7c b3 d6 3b d4 8a 8d bd 8e 38 dd 3d
       0.040888395 0.006552158 -0.06911245 0.108018026
0000c0 fb df ab bc 5a f7 c7 3a e2 cf 06 3d 6f 2d 0f 3d
       -0.020980826 0.0015256212 0.032913096 0.03495544
0000d0 80 03 b5 bd 6c 32 a8 3d e0 80 f5 bb 92 1d a8 3b
       -0.08838558 0.08212742 -0.0074921697 0.005130478
0000e0 73 82 46 3d 5b 33 32 bd be db 72 3d 34 fa c1 bd
       0.04846425 -0.043506008 0.059291594 -0.094715506
0000f0 b3 3c 99 bd d7 32 ae bb 1f 16 18 3d 1d fd 95 3d
       -0.074822806 -0.005316119 0.03713047 0.07323668

layers.0.norm.weight f4 [64]
000000 4d 12 6e 3f 45 7a 58 3f dd 4f 61 3f 49 a1 6d 3f
       0.92996675 0.8456157 0.88012487 0.92824227
000010 9b 32 53 3f 76 65 71 3f c4 26 78 3f 84 26 6f 3f
       0.8249909 0.9429544 0.9693415 0.93418145
000020 3d 5e 72 3f 5a 5b 6c 3f fd fd 74 3f b2 e6 71 3f
       0.94675046 0.9232689 0.95700055 0.9449264
000030 a1 19 6d 3f df 17 6c 3f 89 8e 66 3f 7f 6d 6b 3f
       0.9261723 0.92223924 0.9006124 0.9196395
000040 8b 7c 65 3f 17 e6 63 3f 4c 96 73 3f 1f 51 6c 3f
       0.8964316 0.89022964 0.9515121 0.9231128
000050 b5 e7 66 3f fd dd 77 3f 14 b7 71 3f 93 62 63 3f
       0.90197307 0.968231 0.9441998 0.8882229
000060 59 77 6c 3f a0 7f 6f 3f 96 59 68 3f 47 8e 6b 3f
       0.9236961 0.93554115 0.907617 0.92013973
000070 ac 37 5c 3f 58 7d 66 3f e8 81 72 3f 0d 21 6c 3f
       0.8602245 0.9003501 0.9472947 0.9223793
000080 dc 8e 5f 3f dc c9 63 3f b0 d0 70 3f a7 17 60 3f
       0.8732736 0.8897989 0.9406843 0.8753609
000090 cc 27 63 3f d9 87 5a 3f db 2c 59 3f ad 8e 76 3f
       0.887326 0.8536354 0.8483407 0.96311456
0000a0 61 06 6e 3f eb 9e 69 3f 85 a7 75 3f 8b 74 5e 3f
       0.92978483 0.91258115 0.9595874 0.8689658
0000b0 b7 d6 71 3f 13 7a 67 3f d2 36 67 3f 6a 91 68 3f
       0.94468254 0.90420645 0.90318024 0.90846884
0000c0 5a fb 64 3f 63 15 75 3f 8a ae 68 3f 99 d5 6b 3f
       0.8944603 0.9573576 0.90891325 0.921228
0000d0 f8 ea 64 3f 8f a2 73 3f ef 29 6d 3f d9 56 62 3f
       0.89421034 0.9516992 0.9264211 0.8841377
0000e0 e7 d5 71 3f 57 7b 6b 3f ec cc 62 3f d2 5e 61 3f
       0.94467014 0.91985077 0.88593936 0.8803531
0000f0 4f 31 7a 3f 8c 4b 6a 3f b9 07 6c 3f 49 d5 6f 3f
       0.9773149 0.91521525 0.92199284 0.9368482

layers.0.norm.bias f4 [64]
000000 76 e8 58 3b 1e 63 4a ba 6a fd 32 3b fd 85 f3 bb
       0.0033097542 -0.0007720458 0.002731169 -0.007431744
000010 14 1b 6b 3b 41 f1 91 3a f7 79 1c ba 13 6c 7c bb
       0.0035874294 0.0011134521 -0.0005969102 -0.0038516566
000020 8d 1c 72 bb b3 b8 13 bb e2 6d 26 3b c0 86 17 3c
       -0.0036943287 -0.002254051 0.0025395085 0.0092484355
000030 ac 66 bc bb cf ce 21 3b 60 ae ad 3b c6 fc 3a 3b
       -0.005749544 0.0024689918 0.005300328 0.0028532012
000040 ee 78 96 3b 13 a4 11 3c ef de 9c 3b 51 91 3d bc
       0.0045920527 0.008889216 0.004787318 -0.011570291
000050 98 8f d4 3a e1 7e dd 3a 44 20 cd 3a 12 19 58 3a
       0.0016217111 0.0016898775 0.0015649875 0.0008243482
000060 86 49 93 3b 30 e9 41 bc b7 9b 2b 3b ae 49 27 bb
       0.0044948487 -0.011835381 0.0026185343 -0.0025526094
000070 fc c8 da 3b ec 24 6f bb e9 0a b9 bb 17 59 d1 3b
       0.0066767912 -0.0036490513 -0.0056470525 0.006388794
000080 57 ef b4 bb be d8 29 3a 09 d8 09 ba 6d 24 2d 3c
       -0.0055216956 0.00064791355 -0.0005258327 0.010567767
000090 a3 df 08 bc 10 41 b8 bb 11 27 ab ba 5b 5f 56 bb
       -0.0083541 -0.0056229904 -0.0013057907 -0.0032710645
0000a0 e6 d7 36 bc 8d 25 96 bb f3 fd 34 3a e8 12 d4 38
       -0.011159873 -0.004582113 0.00069042965 0.00010112469
0000b0 9d 3b a2 3b 70 e2 da bb 19 cd e5 bb fb 6b f4 bb
       0.004950954 -0.0066798255 -0.007012975 -0.0074591613
0000c0 be ea c2 3b e9 d9 00 bb 17 4e b0 3b 4d 9d d1 bb
       0.0059483936 -0.0019661135 0.005380403 -0.0063969255
0000d0 8d 1d 63 bc 8f d9 c4 3a bf 67 a8 ba 76 6c ee 3b
       -0.013862026 0.0015018451 -0.0012848302 0.007276113
0000e0 c2 37 d3 bb 9f 53 9e 3b ff 72 ab 3a 70 c3 5f bb
       -0.006445856 0.0048317458 0.0013080536 -0.003414359
0000f0 b1 05 bf bb 94 45 a8 ba 90 f5 05 bc 7d 69 05 3c
       -0.005829536 -0.0012838119 -0.008176222 0.008142826

layers.0.ssm.A_log f4 [64, 64]
000000 98 1b 87 bb 35 b1 12 3f 85 4e 07 3f 79 a8 9a 3f
       -0.0041231625 0.57301646 0.52854186 1.2082664
000010 49 45 83 3f ed b2 b0 3f 26 b1 ad 3f 48 9f bd 3f
       1.0255519 1.3804604 1.3569686 1.4814234
000020 81 86 cc 3f 79 76 e2 3f cf f4 e5 3f fb f9 f0 3f
       1.5978547 1.7692405 1.7965335 1.8826288
000030 2a 23 fb 3f 36 54 02 40 7a c1 06 40 ef c1 0a 40
       1.9620106 2.0363898 2.1055589 2.1680868
000040 12 a1 0e 40 6b 40 12 40 83 af 15 40 53 f3 18 40
       2.228581 2.2851818 2.3388374 2.3898513
000050 2a 0e 1c 40 75 04 1f 40 0b d9 21 40 95 8e 24 40
       2.4383645 2.484647 2.5288723 2.5712025
000060 3d 28 27 40 c3 a7 29 40 f7 0e 2c 40 37 60 2e 40
       2.611831 2.6508644 2.6884134 2.7246225
000070 f4 9c 30 40 3e c6 32 40 2e dd 34 40 0e e3 36 40
       2.7595797 2.7933497 2.8259997 2.8576083
000080 ec d8 38 40 b7 bf 3a 40 b8 98 3c 40 b5 64 3e 40
       2.8882399 2.9179513 2.9468212 2.9748967
000090 0b 24 40 40 72 d7 41 40 75 7f 43 40 c1 1c 45 40
       3.0022 3.0287747 3.0546544 3.07988
0000a0 d4 af 46 40 2f 39 48 40 46 b9 49 40 69 30 4b 40
       3.1044817 3.1284902 3.1519332 3.1748297
0000b0 1b 9f 4c 40 3b 06 4e 40 9d 65 4f 40 96 bd 50 40
       3.197211 3.2191303 3.240577 3.2615714
0000c0 73 0e 52 40 7e 58 53 40 fb 9b 54 40 2b d9 55 40
       3.282132 3.3022761 3.3220203 3.34138
0000d0 4d 10 57 40 98 41 58 40 fd 6c 59 40 85 93 5a 40
       3.36037 3.3790035 3.397277 3.4152539
0000e0 80 b4 5b 40 60 d0 5c 40 ad e7 5d 40 f5 f9 5e 40
       3.4328918 3.4502182 3.4672654 3.4840062
0000f0 92 07 60 40 8c 11 61 40 11 17 62 40 55 18 63 40
       3.500462 3.516696 3.5326579 3.54836
000100 54 ae 74 ba ca 10 a1 3e 7b 06 07 3f 2e 22 5d 3f
       -0.0009333838 0.31458122 0.52744263 0.8638028
000110 8c 7b 82 3f 16 bb 99 3f e8 c0 ac 3f ba 9f bd 3f
       1.0193954 1.2010219 1.349637 1.481437
000120 03 85 cc 3f 90 db d9 3f 76 f0 e5 3f 71 fa f0 3f
       1.5978092 1.702013 1.7964008 1.8826429
000130 79 23 fb 3f 43 46 02 40 05 a8 06 40 c1 c1 0a 40
       1.96202 2.0355384 2.104005 2.1680758
000140 87 9c 0e 40 2f 3f 12 40 6c af 15 40 5a f3 18 40
       2.2283037 2.2851064 2.338832 2.389853
000150 59 0e 1c 40 27 04 1f 40 84 d8 21 40 9b 8e 24 40
       2.4383757 2.4846284 2.52884 2.571204
000160 38 28 27 40 be a7 29 40 fc 0e 2c 40 2c 60 2e 40
       2.6118298 2.6508632 2.6884146 2.7246199
000170 f7 9c 30 40 3d c6 32 40 30 dd 34 40 11 e3 36 40
       2.7595804 2.7933495 2.8260002 2.857609
000180 ee d8 38 40 be bf 3a 40 b9 98 3c 40 b5 64 3e 40
       2.8882403 2.917953 2.9468215 2.9748967
000190 0c 24 40 40 70 d7 41 40 75 7f 43 40 c2 1c 45 40
       3.0022001 3.0287743 3.0546544 3.0798802
0001a0 d7 af 46 40 30 39 48 40 45 b9 49 40 69 30 4b 40
       3.1044824 3.1284904 3.151933 3.1748297
0001b0 1c 9f 4c 40 3b 06 4e 40 9e 65 4f 40 96 bd 50 40
       3.1972113 3.2191303 3.2405772 3.2615714
0001c0 73 0e 52 40 7f 58 53 40 fb 9b 54 40 2b d9 55 40
       3.282132 3.3022764 3.3220203 3.34138
0001d0 4d 10 57 40 98 41 58 40 fd 6c 59 40 85 93 5a 40
       3.36037 3.3790035 3.397277 3.4152539
0001e0 80 b4 5b 40 60 d0 5c 40 ad e7 5d 40 f5 f9 5e 40
       3.4328918 3.4502182 3.4672654 3.4840062
0001f0 93 07 60 40 8c 11 61 40 11 17 62 40 55 18 63 40
       3.5004623 3.516696 3.5326579 3.54836
000200 26 83 9d 3a 2b bf bf 3e 4c 0e 07 3f 8a 06 69 3f
       0.0012017235 0.37450537 0.5275619 0.910256
000210 3b 82 82 3f 99 7b 9a 3f 48 c8 ac 3f 5b 9f bd 3f
       1.0195993 1.2068969 1.3498621 1.4814256
000220 36 84 cc 3f a2 e8 d9 3f 80 f0 e5 3f 65 fa f0 3f
       1.5977848 1.7024119 1.796402 1.8826414
000230 74 23 fb 3f 28 46 02 40 3f a8 06 40 d1 c1 0a 40
       1.9620194 2.035532 2.104019 2.1680796
000240 7f 9c 0e 40 3d 3f 12 40 6d af 15 40 59 f3 18 40
       2.2283018 2.2851098 2.3388321 2.3898528
000250 5c 0e 1c 40 20 04 1f 40 85 d8 21 40 9b 8e 24 40
       2.4383764 2.4846268 2.5288403 2.571204
000260 38 28 27 40 bd a7 29 40 fb 0e 2c 40 2c 60 2e 40
       2.6118298 2.650863 2.6884143 2.7246199
000270 f7 9c 30 40 3d c6 32 40 30 dd 34 40 11 e3 36 40
       2.7595804 2.7933495 2.8260002 2.857609
000280 ee d8 38 40 be bf 3a 40 b9 98 3c 40 b5 64 3e 40
       2.8882403 2.917953 2.9468215 2.9748967
000290 0c 24 40 40 70 d7 41 40 75 7f 43 40 c2 1c 45 40
       3.0022001 3.0287743 3.0546544 3.0798802
0002a0 d7 af 46 40 30 39 48 40 45 b9 49 40 69 30 4b 40
       3.1044824 3.1284904 3.151933 3.1748297
0002b0 1c 9f 4c 40 3b 06 4e 40 9e 65 4f 40 96 bd 50 40
       3.1972113 3.2191303 3.2405772 3.2615714
0002c0 73 0e 52 40 7f 58 53 40 fb 9b 54 40 2b d9 55 40
       3.282132 3.3022764 3.3220203 3.34138
0002d0 4d 10 57 40 98 41 58 40 fd 6c 59 40 85 93 5a 40
       3.36037 3.3790035 3.397277 3.4152539
0002e0 80 b4 5b 40 60 d0 5c 40 ad e7 5d 40 f5 f9 5e 40
       3.4328918 3.4502182 3.4672654 3.4840062
0002f0 93 07 60 40 8c 11 61 40 11 17 62 40 55 18 63 40
       3.5004623 3.516696 3.5326579 3.54836
000300 39 b8 19 3b a8 00 99 3e 72 29 07 3f 31 61 57 3f
       0.0023455753 0.29883313 0.52797616 0.8413268
000310 a6 92 82 3f 5a eb 99 3f 24 c9 ac 3f 83 9f bd 3f
       1.0201004 1.2024949 1.3498883 1.4814304
000320 87 83 cc 3f 20 ea d9 3f f6 ef e5 3f 79 fa f0 3f
       1.5977639 1.7024574 1.7963855 1.8826438
000330 7b 23 fb 3f 50 46 02 40 fd a7 06 40 ce c1 0a 40
       1.9620203 2.0355415 2.1040032 2.168079
000340 86 9c 0e 40 47 3f 12 40 6c af 15 40 58 f3 18 40
       2.2283034 2.2851121 2.338832 2.3898525
000350 61 0e 1c 40 2f 04 1f 40 83 d8 21 40 9b 8e 24 40
       2.4383776 2.4846303 2.5288398 2.571204
000360 38 28 27 40 c0 a7 29 40 fa 0e 2c 40 2c 60 2e 40
       2.6118298 2.6508636 2.688414 2.7246199
000370 f7 9c 30 40 3d c6 32 40 30 dd 34 40 11 e3 36 40
       2.7595804 2.7933495 2.8260002 2.857609
000380 ee d8 38 40 be bf 3a 40 b9 98 3c 40 b5 64 3e 40
       2.8882403 2.917953 2.9468215 2.9748967
000390 0c 24 40 40 70 d7 41 40 75 7f 43 40 c2 1c 45 40
       3.0022001 3.0287743 3.0546544 3.0798802
0003a0 d7 af 46 40 30 39 48 40 45 b9 49 40 69 30 4b 40
       3.1044824 3.1284904 3.151933 3.1748297
0003b0 1c 9f 4c 40 3b 06 4e 40 9e 65 4f 40 96 bd 50 40
       3.1972113 3.2191303 3.2405772 3.2615714
0003c0 73 0e 52 40 7f 58 53 40 fb 9b 54 40 2b d9 55 40
       3.282132 3.3022764 3.3220203 3.34138
0003d0 4d 10 57 40 98 41 58 40 fd 6c 59 40 85 93 5a 40
       3.36037 3.3790035 3.397277 3.4152539
0003e0 80 b4 5b 40 60 d0 5c 40 ad e7 5d 40 f5 f9 5e 40
       3.4328918 3.4502182 3.4672654 3.4840062
0003f0 93 07 60 40 8c 11 61 40 11 17 62 40 55 18 63 40
       3.5004623 3.516696 3.5326579 3.54836

layers.0.ssm.D f4 [64]
000000 3e c4 7b 3f c7 05 70 3f 15 1a 71 3f f5 85 6b 3f
       0.98346317 0.93758816 0.94180423 0.9200128
000010 57 19 7e 3f 03 38 7a 3f 02 f2 78 3f d2 b4 66 3f
       0.99257416 0.9774172 0.97244275 0.9011966
000020 e5 4f 7b 3f 21 bd 77 3f bd 77 70 3f 7d b0 7b 3f
       0.98168784 0.9677296 0.93932706 0.98316175
000030 24 ed 66 3f fc 08 67 3f 60 4b 75 3f 8f bd 6a 3f
       0.902056 0.90248084 0.9581814 0.91695493
000040 bd 4b 6b 3f 35 a5 6d 3f 25 94 78 3f ca a0 76 3f
       0.9191244 0.9283021 0.9710105 0.96339095
000050 90 7a 7a 3f 5f 3b 79 3f a4 06 68 3f c1 94 6c 3f
       0.97843266 0.9735622 0.9063513 0.9241448
000060 bd 1d 6d 3f df 0f 5b 3f 1d a0 59 3f 53 33 7a 3f
       0.926235 0.8557109 0.8500994 0.97734565
000070 bc 24 76 3f d8 34 6b 3f 28 0a 6e 3f 11 7d 61 3f
       0.961498 0.9187751 0.9298425 0.8808146
000080 5c 32 6f 3f a1 05 6d 3f f7 7d 6d 3f ef e6 73 3f
       0.9343622 0.92586714 0.9277033 0.9527425
000090 7c 4b 73 3f cd ea 66 3f 55 50 70 3f 12 83 5b 3f
       0.95037055 0.9020203 0.93872577 0.8574687
0000a0 9b 03 6f 3f f2 9a 70 3f 92 f1 6f 3f b8 e7 6b 3f
       0.93364877 0.9398643 0.9372798 0.9215045
0000b0 d3 aa 76 3f 98 a7 73 3f 81 73 78 3f f6 4a 77 3f
       0.9635441 0.951776 0.97051245 0.96598756
0000c0 b8 2c 76 3f e3 6a 7d 3f 90 11 78 3f 0d 2c 6d 3f
       0.96161985 0.9899122 0.969018 0.9264534
0000d0 ed c7 77 3f 51 5e 69 3f a6 df 7a 3f 14 50 7c 3f
       0.9678944 0.9115954 0.9799751 0.9855969
0000e0 22 86 71 3f c9 3a 79 3f bd 40 75 3f 4b 31 6c 3f
       0.94345295 0.97355324 0.9580191 0.92262715
0000f0 d8 f6 70 3f 9a 4c 80 3f 2d 6b 60 3f c8 5e 69 3f
       0.94126654 1.0023377 0.8766354 0.9116025

layers.0.ssm.deltaBC_layer.weight f4 [144, 64]
000000 a5 a1 a8 3d 2d 2e 9c bd a1 1e 21 3d 45 9f b6 bc
       0.08233956 -0.07625995 0.03933585 -0.022292743
000010 ba 87 1a bd 57 c3 b4 3c b4 bc da 3d 90 1a ec bc
       -0.037727095 0.022065802 0.106805235 -0.02882126
000020 ed 04 85 bd 4b f6 81 bd 26 06 4d bd 44 47 a8 bd
       -0.0649508 -0.06345805 -0.05005469 -0.08216718
000030 0e 4f 57 3d 99 7e e4 3c 65 24 3d bc 0c e5 a8 3c
       0.052565627 0.027892398 -0.011544322 0.02061703
000040 24 f5 9b bd a4 57 23 3c 02 63 ed 3d 7e 64 fe bc
       -0.07615116 0.009969626 0.1159115 -0.031053778
000050 4f 45 e8 3d 31 11 5d 3c f7 b2 c0 bd 7e f2 db bd
       0.113413446 0.013492868 -0.09409135 -0.10739611
000060 c1 c3 ae bd e3 5a 7f bd 07 cf 6e bd 15 6a 85 bd
       -0.08533431 -0.062342536 -0.058302905 -0.06514374
000070 77 49 98 bd 90 1e d7 3d 9e 21 00 bd 9a ac d1 3d
       -0.07435887 0.10503876 -0.03128206 0.10237999
000080 58 70 36 bc b3 bd a3 bd 71 84 58 bd cc c7 cf 3d
       -0.011135183 -0.07995167 -0.05286068 0.1014553
000090 9c 4d 5f bd d8 7d ba bd 00 fb 68 3d a7 de a2 3c
       -0.054517373 -0.09106034 0.056879997 0.01988156
0000a0 d9 cd ae bc 5a 9e a2 3d eb 2e 27 3d f3 2e 39 bc
       -0.02133839 0.079403594 0.04081623 -0.0113026975
0000b0 71 e1 89 bd 49 9a de 3d d4 e1 cd 3d 5e f1 b3 bd
       -0.06732453 0.10869271 0.10052839 -0.087862715
0000c0 cf b6 83 bd a8 7d a9 3d 8e d8 d2 3c 36 4d 88 bd
       -0.06431352 0.0827592 0.025738027 -0.06655352
0000d0 54 29 96 bd 20 a7 d1 3d 2d 66 ea 3d 9b b9 82 bd
       -0.073321015 0.10236955 0.1144527 -0.06383058
0000e0 3c 77 a5 3d 08 05 14 3d 92 f1 73 bd 0c 65 29 bb
       0.08079383 0.03613761 -0.05955655 -0.0025847582
0000f0 d0 6f c3 bc 62 b7 c9 bb 1e 50 3d bd d4 2c a8 3d
       -0.023857027 -0.006155894 -0.046218984 0.08211675
000100 61 e8 c4 bc 24 82 88 bd e6 7b 05 be 9d c6 9c 3d
       -0.024036588 -0.06665447 -0.13035545 0.0765507
000110 f8 aa d2 bd 2e f1 38 bd 01 55 b1 bc 78 ed aa 3d
       -0.10286516 -0.045151882 -0.021646978 0.08346075
000120 22 59 66 bc 82 ce c9 3c f0 70 15 3d db 14 bd 3d
       -0.014059337 0.024634603 0.03648466 0.092324935
000130 3c a8 00 bd f9 1a cf 3d f9 0c dc 3c b5 63 a0 3d
       -0.03141044 0.101125665 0.026861655 0.078315176
000140 0f e0 ab 3d e8 95 70 3d 48 ed 7b bc a5 22 82 bd
       0.08392345 0.05873671 -0.0153763965 -0.06354264
000150 2e 42 be bd 59 a1 9d bd d6 72 5c bd ba c1 8e bd
       -0.092899665 -0.0769679 -0.053820454 -0.06970544
000160 8c a5 02 bd 56 c3 5d bd f4 d5 9c bd 53 3d 88 3d
       -0.03189616 -0.054141365 -0.07657996 0.06652322
000170 e2 83 e9 bd 3e 26 d5 bd 0e ef a5 3d 9a 75 47 3c
       -0.11402108 -0.10407685 0.08102237 0.0121740345
000180 42 d1 05 be 4a c1 d6 3b 15 91 5e bd 73 7e fb bc
       -0.13068107 0.0065538036 -0.05433758 -0.030699944
000190 d6 f1 d7 bc 50 f0 08 be 69 7e b5 3d 6d 12 ae bd
       -0.026360434 -0.13372922 0.088620014 -0.08499608
0001a0 83 d2 f9 3c e6 76 dc bd e7 57 9c bd c1 76 08 be
       0.030495888 -0.107648656 -0.076339535 -0.13326551
0001b0 5d c7 b4 bc c2 a1 5f bd 97 4c a9 bd d1 ea aa 3d
       -0.02206772 -0.054597624 -0.082665615 0.08345569
0001c0 f5 91 02 3d 87 92 e2 3c 6f c2 b4 bd e2 03 59 bc
       0.031877477 0.02765776 -0.08826148 -0.013245555
0001d0 82 9b cb bd 0d 53 21 3d 64 70 d2 bd 4a a4 b4 3d
       -0.0994177 0.039385844 -0.10275343 0.08820398
0001e0 e4 d2 93 bd 7c 9e 45 bd 40 78 b1 bd 57 2a 76 bd
       -0.072179586 -0.048246846 -0.08665514 -0.060098972
0001f0 a1 0b f0 bd 6b f1 bc bc 42 e0 84 bd ea c8 98 bc
       -0.11720968 -0.023064336 -0.06488086 -0.01865049
000200 aa b2 a3 3d b8 c7 a6 3d da 45 e9 bd 59 61 3d 3c
       0.07993062 0.08143562 -0.11390276 0.011558854
000210 d2 7d 7f 3d 69 08 28 3d a1 86 50 bd c1 82 25 3d
       0.06237585 0.041023646 -0.050909642 0.0404079
000220 c3 a9 d2 bb 55 7a f2 bd 42 1e ad 3d db 6a b3 bd
       -0.0064289286 -0.11839739 0.08453037 -0.087606154
000230 93 e8 5a 3d 98 2d bd 3d 02 dc ad bc f6 65 5d 3d
       0.053444456 0.09237212 -0.021223072 0.054052316
000240 eb 6c b1 bc 60 c3 d6 bd 62 94 c1 3d c0 8f f5 bd
       -0.021658381 -0.104864836 0.0945213 -0.11990309
000250 a7 16 21 3d 58 0a 36 3d 6b 6b db bd 46 18 f9 bd
       0.039328244 0.04444346 -0.10713848 -0.12162833
000260 2f 2d ca 3d c2 1c bd bd 55 19 a9 bd d2 c4 fe bc
       0.09871899 -0.09234001 -0.08256785 -0.03109971
000270 21 36 7f bc 80 fe 2a 3c 44 86 b1 bd 12 78 ad bc
       -0.01557687 0.010436654 -0.08668187 -0.021175418
000280 1d 02 4f ba 50 80 d2 3d 2e 17 26 3d 41 1f 97 bd
       -0.0007896738 0.1027838 0.04054945 -0.07379008
000290 77 df 7c bd 8e ef 9e bb eb 73 c5 bd 6a 67 94 bc
       -0.06173655 -0.0048503345 -0.0964125 -0.018115718
0002a0 c7 1b f0 bd a8 ff bc 3c 9d e5 e0 bc 01 24 80 3d
       -0.11724048 0.023071125 -0.027453238 0.06256867
0002b0 4b 51 1c bd 43 6f af bd 22 55 17 3b 68 97 d4 3c
       -0.038163465 -0.08566143 0.0023091515 0.025951102
0002c0 69 95 22 bd 9a ad 8a bd 8f 5c bd bc 70 dc cc bd
       -0.03969327 -0.06771393 -0.023115424 -0.100029826
0002d0 18 7b f3 bd 5e 7b c9 bb da e8 8c 3d c5 d0 78 bd
       -0.11888713 -0.0061487397 0.068803504 -0.060745973
0002e0 c7 f1 22 3d 7b c2 95 3c 80 49 52 bd 42 26 58 bc
       0.039781358 0.018281212 -0.051339626 -0.013192715
0002f0 02 95 c9 bd f1 ae 0f 3d 02 42 60 3d e8 5a 2a bd
       -0.09842874 0.035078947 0.05475045 -0.0415906
000300 96 56 8f bd 5b ab 55 bd 48 ba 74 3d f5 fe 12 bd
       -0.06998937 -0.05216537 0.059747964 -0.035887677
000310 16 ff 5f 3d 1a 46 2b bd 78 61 a3 bd ad ac a4 bd
       0.05468663 -0.0418149 -0.07977575 -0.08040748
000320 e5 91 6e 3d 09 ea a4 3d 32 19 c5 bd 1f 47 8a 3d
       0.058244605 0.08052451 -0.09623946 0.067518465
000330 dc 19 85 bd 3c e3 bf bd 2f ea 2c bd 08 6e 03 3d
       -0.06499073 -0.093695134 -0.042215522 0.032087356
000340 ed 28 8f 3d 60 dd af 3d 58 d0 44 bd 6b 0c 9f 3d
       0.06990228 0.08587146 -0.048050255 0.077660404
000350 e9 ef c9 bd d4 f1 b9 3d 91 37 45 3d 3f f4 4c bd
       -0.09860212 0.09079328 0.048148695 -0.05003762
000360 5c 5a b1 bd 04 b5 e4 bd 48 90 3c 3c 62 ed 98 b9
       -0.08659813 -0.111673385 0.011509009 -0.00029168563
000370 e7 b1 be 3d 26 d2 25 3c 9f 06 c2 bd 39 38 ff bc
       0.09311276 0.010120904 -0.09473919 -0.031154739
000380 ca 40 39 3d d9 54 82 bd 20 cb de bc 25 b2 6d 3c
       0.045227803 -0.0636384 -0.027196467 0.014507805
000390 87 7a 9e 3d f1 ce e4 bd e1 33 ac bd 77 9c 29 bc
       0.07738214 -0.111722834 -0.084083326 -0.0103522455
0003a0 06 8c 19 bd 25 d2 9a 3d 52 17 64 3d c4 c4 5a bd
       -0.037487052 0.07559613 0.055686302 -0.053410307
0003b0 ce a1 8d bd 1e 01 19 bb 32 6d 45 3d 10 ce cc bc
       -0.069156274 -0.0023346613 0.04819984 -0.025000602
0003c0 3b ab 44 3d 07 3a c3 bd a2 e4 7b bd 45 ec 91 bd
       0.04801486 -0.09532552 -0.061497338 -0.07125143
0003d0 6b c3 49 3d 26 37 65 bc 97 28 ca 3b d3 7e 2f 3d
       0.04925863 -0.013990199 0.0061693895 0.04284556
0003e0 1f b2 ba bd 9b b3 a5 bd bd b8 ab 3d f7 6e a8 3d
       -0.09116005 -0.08090898 0.083848454 0.0822429
0003f0 e0 05 c8 3d 54 70 10 bc 7b 31 30 3d 5a 28 86 bd
       0.097667456 -0.008815844 0.04301594 -0.06550665
