pengujian/pengujian_epoch/vim/vim_model_1.pth (torch, 611374 bytes, 71 tensors)

cls_token f4 [1, 1, 64]
0	0x3fbe20f4	1.4853806
1	0xbf771209	-0.96511894
2	0x3ee17d3a	0.44040853
3	0x3f48fac1	0.7850762
4	0x3f682f8d	0.90697557
5	0xc034810c	-2.8203764
6	0xbee44d78	-0.44590354
7	0xbf9af40c	-1.2105727
8	0x4001d18a	2.0284142
9	0xbd5e71e1	-0.054307822
10	0xbf1363eb	-0.5757434
11	0x3da83130	0.08212507
12	0x3e8ffc5d	0.28122225
13	0x3f12570d	0.5716408
14	0x3f8ebda3	1.1151623
15	0x3eacb86f	0.33734462
16	0x3f492e06	0.7858585
17	0xbe3179c7	-0.1733161
18	0x3fb737c3	1.4313892
19	0x3f291519	0.6604782
20	0xbf2cf1b7	-0.6755633
21	0xbf50fcfb	-0.8163602
22	0x3e03dbbe	0.12876794
23	0xbee424f5	-0.44559446
24	0x3f743214	0.95388913
25	0xbdc293d0	-0.09500849
26	0xbf9a2e00	-1.2045288
27	0xbebbc6c9	-0.366751
28	0x3efc925c	0.49330413
29	0xbe93f0a5	-0.28894535
30	0x3c29ef50	0.010371998
31	0x3d05f99b	0.032708745
32	0xbea42bf6	-0.3206479
33	0x3faafd37	1.3358525
34	0x3f8e91a5	1.1138197
35	0xbeb82c77	-0.35971424
36	0xbfb84749	-1.4396755
37	0xbdd4759d	-0.103739955
38	0x40013692	2.0189557
39	0x3fa00893	1.2502617
40	0xbde94468	-0.113900006
41	0x4027be75	2.6209996
42	0xbf1286c5	-0.5723689
43	0xc01ce6cb	-2.4515865
44	0x3f30990d	0.68983537
45	0xbef801fd	-0.48439017
46	0x3e4b8210	0.19873834
47	0xbf79daa7	-0.9759926
48	0x3ba732a3	0.005102472
49	0x3f939af5	1.1531664
50	0x3fe6e924	1.8039899
51	0x3e871965	0.26386562
52	0xbf5936bb	-0.8484914
53	0x3e8c3a19	0.27388075
54	0x400097cc	2.009265
55	0xbf9cfd67	-1.2264832
56	0xbf51346f	-0.8172063
57	0xbf4f98d6	-0.81092584
58	0xbdbcecf3	-0.09224882
59	0x3fe6ad12	1.8021567
60	0x3fedc1dc	1.8574786
61	0x4003daf1	2.0602381
62	0xbff0d455	-1.8814799
63	0xbeefbd67	-0.4682419

to_patch_embedding.1.weight f4 [64, 169]
0	0xbc65b167	-0.014019347
1	0x3c5e08dc	0.013551917
2	0xbd7cf42a	-0.06175629
3	0xbcb1a968	-0.021687225
4	0xbc32d74a	-0.010915587
5	0xbd0ccf3e	-0.03437733
6	0x3d3107c7	0.043220308
7	0xbd2044bd	-0.039128054
8	0xbc855d1d	-0.016279751
9	0x3d234fe2	0.039871104
10	0xbd2f3b93	-0.042781424
11	0x3d91c085	0.07116798
12	0x3d2ffd0e	0.04296594
13	0x3d82993d	0.06376884
14	0x3d993864	0.07481459
15	0x3cb35fe2	0.021896306
16	0x3d338952	0.04383213
17	0xbd2cca89	-0.04218534
18	0x3d968665	0.073498525
19	0x3c53e0bb	0.012931998
20	0xba9c051e	-0.001190338
21	0xbb97c716	-0.004631887
22	0xbb885942	-0.004161031
23	0x3d0a34e6	0.033741854
24	0xbd25d59d	-0.04048692
25	0x3c8e5aad	0.017377222
26	0x3bd994ef	0.0066400687
27	0x3d0d59d5	0.0345095
28	0x3cba44a7	0.022737814
29	0x3d768019	0.060180757
30	0x3d56a3ef	0.052402433
31	0x3ce1b5a7	0.027552439
32	0xbc0a5563	-0.008443209
33	0x3bd54e6f	0.006509594
34	0xbd763199	-0.060105894
35	0x3b85ee4d	0.0040872456
36	0x3d44fa6a	0.048090376
37	0xbd9d7af9	-0.07689471
38	0xbd8bf49b	-0.06833764
39	0xbd0376fa	-0.032095887
40	0xbc941ef2	-0.018081162
41	0x3d0223a3	0.031772267
42	0x3d1c8200	0.038209915
43	0xbd290283	-0.04126216
44	0xbca19823	-0.019725865
45	0xbd9cdee5	-0.07659701
46	0xbd4f27c1	-0.05057502
47	0x3d4cab7d	0.04996823
48	0xbdafa829	-0.08576996
49	0x3cdf824e	0.027283814
50	0x3bf0460f	0.0073325704
51	0x3d1a037c	0.03760098
52	0x3d95cdae	0.07314621
53	0x3b1551c7	0.0022784339
54	0x3ca7bb62	0.020475093
55	0x3c225c71	0.009909735
56	0xbd2b619d	-0.04184114
57	0xbd599204	-0.053117767
58	0xbd94d824	-0.07267788
59	0x3d44c522	0.048039563
60	0xbd1acc04	-0.03779222
61	0x3b613181	0.0034361782
62	0x3d88a22b	0.06671556
63	0x3cbb501b	0.022865346
64	0xbd52af15	-0.051436502
65	0xbd4bbd8c	-0.049741313
66	0xbd76af39	-0.0602257
67	0xbd280e5c	-0.04102932
68	0xbd212d6b	-0.039349955
69	0x3c6410d6	0.01392003
70	0x3d6bcfbc	0.057571158
71	0xbc956a22	-0.018239085
72	0xbbbb7089	-0.0057202023
73	0x3d881efb	0.06646534
74	0x3d77027e	0.06030511
75	0xbd4544f2	-0.048161454
76	0x3cf1e279	0.029526936
77	0xbd197d33	-0.037472915
78	0x3d1aa309	0.03775314
79	0xbceb6661	-0.028735342
80	0x3d2a8045	0.041626234
81	0xbd848457	-0.06470554
82	0x3c54d795	0.012990852
83	0x3d47e474	0.048801854
84	0xbda56fe7	-0.08077984
85	0x3d7dbec5	0.06194951
86	0xbd7ddc26	-0.061977528
87	0x3caaf414	0.020868339
88	0x3d7b28ab	0.06131808
89	0xba9c5a5d	-0.0011928786
90	0xbd2686a5	-0.04065575
91	0x3d05adb3	0.032636356
92	0xbd54f715	-0.05199345
93	0xbd2199f4	-0.03945346
94	0xbd735fee	-0.059417658
95	0x3d280dca	0.041028775
96	0x3c911ae2	0.017713014
97	0xbcd68c62	-0.026189987
98	0x3d73c64a	0.059515275
99	0xbd47a05f	-0.048736926
100	0xbcd9da8e	-0.026593473
101	0x3d9969e5	0.07490901
102	0xbd935c7c	-0.07195374
103	0xbcd22743	-0.025653487
104	0x3d63ed77	0.055646386
105	0xbc2641d3	-0.01014753
106	0x3d8b4732	0.06800689
107	0xbbf7e41c	-0.0075650346
108	0xbcf81c6e	-0.030286994
109	0x3d093021	0.033493165
110	0xbd92c993	-0.071673535
111	0x3cc7e561	0.024401369
112	0x3cdf6575	0.027270058
113	0x3d7006ac	0.058600113
114	0x3c89a31b	0.016801408
115	0xbc994b85	-0.018712768
116	0xbd4c936b	-0.049945276
117	0x3d52248a	0.051304378
118	0xbd4f6f52	-0.050643273
119	0x3d85efc0	0.06539869
120	0xbd76ba2e	-0.06023615
121	0x3d2211c5	0.039567728
122	0x3d3693fb	0.04457472
123	0x3d434c83	0.04768039
124	0xbd374d0e	-0.04475122
125	0xbd3f68c5	-0.046730775
126	0xbd414f00	-0.04719448
127	0xbdad2ed2	-0.08456196
128	0xbd9b51c7	-0.07583957
129	0xbc44f4c7	-0.01202125
130	0x3cfd2fb7	0.030906541
131	0xbd879de8	-0.06621915
132	0x3c9c8517	0.019106431
133	0x3d353c30	0.044246852
134	0x3d997167	0.07492333
135	0x3d3763ba	0.04477284
136	0xbc7be620	-0.01537469
137	0xbbc72bd0	-0.006078221
138	0xbcfb743f	-0.030695079
139	0xbcf6a5f6	-0.030108433
140	0xbdc62162	-0.09674336
141	0x3cc884f4	0.02447746
142	0x3bb368ea	0.005475153
143	0xbcd403ac	-0.025880657
144	0x3d68be2c	0.056821987
145	0x3a8007be	0.0009767932
146	0xbd42e8e8	-0.047585398
147	0xbd5e3c1f	-0.054256555
148	0x3c79669c	0.015222218
149	0xbd4e653e	-0.05038952
150	0x3d368754	0.044562653
151	0x3d6d7438	0.057972163
152	0xbd8bbbe6	-0.06822948
153	0x3c5cec56	0.013484081
154	0xbd307fac	-0.043090507
155	0x3d6f16b5	0.058371264
156	0x3d0a0d92	0.033704348
157	0xbd8a4fc0	-0.06753492
158	0xbc4a3c92	-0.012343543
159	0xb9387700	-0.00017591938
160	0xbd212410	-0.039341033
161	0x3cb4501b	0.022010854
162	0xbc24d527	-0.010060585
163	0xbd6b45cf	-0.05743962
164	0x3d9cbd57	0.07653301
165	0xbd7a4732	-0.061103053
166	0xbd7b4d85	-0.061353225
167	0x3d933a09	0.07188804
168	0x3cef7ce1	0.029234352
169	0x3d1a3adf	0.0376538
170	0xbd3224ef	-0.043492254
171	0x3d1279bb	0.035760622
172	0xbc414390	-0.011795893
173	0x3c81c2e5	0.015840003
174	0xbd19c341	-0.037539724
175	0x3d8374fb	0.06418797
176	0x3a9eb345	0.001210787
177	0x3d8b929c	0.06815073
178	0xbd2b714a	-0.041856088
179	0x3d555071	0.052078668
180	0xbc812926	-0.015766691
181	0x3d3300c1	0.04370189
182	0x3b5f079d	0.0034031637
183	0xbd29087a	-0.04126785
184	0xbc67043d	-0.014100132
185	0xbcda8021	-0.026672425
186	0x3d8d59d9	0.06901903
187	0xbba221c2	-0.004947872
188	0x3cd8a032	0.026443575
189	0xbd46daf1	-0.048548643
190	0x3d92fea3	0.07177474
191	0x3c03dfa6	0.008048927
192	0xbdbec76c	-0.093153805
193	0xbd975c4e	-0.073906526
194	0xbd8b1a3d	-0.06792114
195	0xbd055a7f	-0.032557007
196	0x3d138408	0.036014587
197	0xbb8f433d	-0.004372029
198	0x3c24c10d	0.0100557925
199	0xbd888499	-0.06665916
200	0x3d954aa6	0.07289629
201	0x3cc37fd5	0.023864666
202	0x3c382396	0.011238953
203	0x3cbedd94	0.023299016
204	0x3d3e27b8	0.046424598
205	0xbd9e4a63	-0.07729032
206	0xbcc2333f	-0.023706077
207	0x3c7bc153	0.015365916
208	0x3db32a1c	0.08748266
209	0x3c781bea	0.015143374
210	0xbc273ea4	-0.010207806
211	0xbc22f410	-0.009945884
212	0x3d56d962	0.052453406
213	0x3d4905c9	0.049077783
214	0x3d901891	0.07035936
215	0xbc3c7440	-0.011502326
216	0xbc68c871	-0.014207945
217	0x3c51c16a	0.012802461
218	0xbc85042d	-0.016237343
219	0xbd60c17c	-0.05487202
220	0xbc2ca296	-0.01053681
221	0x3d23f78d	0.040031005
222	0x3daec772	0.08534135
223	0xbd13d310	-0.036089957
224	0xbca1ec25	-0.019765923
225	0xbd5ce0ee	-0.053925447
226	0x3cc7bd80	0.024382353
227	0xbba5f0df	-0.0050641145
228	0xbb9506e6	-0.0045479415
229	0x3b9ee621	0.004849211
230	0x3d534183	0.05157615
231	0xbb56a77f	-0.0032753644
232	0x3c9de12e	0.019272413
233	0x3ccfa348	0.025346413
234	0xbcae9091	-0.021309169
235	0x3a2c620a	0.0006575888
236	0xbce9837b	-0.028505078
237	0xbd4521e3	-0.04812802
238	0xbd4c9528	-0.049946934
239	0x3c17080a	0.009218225
240	0x3cb34211	0.021882089
241	0xbc0e61f1	-0.008690343
242	0x3a74c88c	0.0009337745
243	0x3d079246	0.03309848
244	0x3d3c1d78	0.04592654
245	0xbcb272b9	-0.02178322
246	0x3dade166	0.08490257
247	0xbcc51a3a	-0.024060357
248	0xbd2adb25	-0.0417129
249	0x3c8fce88	0.017554536
250	0xbc34cccf	-0.011035158
251	0x3d168e83	0.036757004
252	0x3c4715d7	0.012151203
253	0x3ba730cf	0.005102254
254	0xbcddcd14	-0.027075328
255	0xbc303f3c	-0.010757264

to_patch_embedding.1.bias f4 [64]
0	0xbbe3e124	-0.006954329
1	0x3d1785c7	0.036992814
2	0xbd7b8c51	-0.061413113
3	0x3c0beff0	0.008541092
4	0x39aa9734	0.00032537582
5	0xbd4660b3	-0.048432063
6	0x3d973e08	0.073848784
7	0xbcde5339	-0.027139293
8	0xbd57ad39	-0.052655432
9	0xbc9cc154	-0.019135155
10	0x3b86b928	0.004111428
11	0x3ce9a8ca	0.028522868
12	0x3c0174ea	0.00790141
13	0xbcbeeefc	-0.023307316
14	0xbd11cc8b	-0.035595458
15	0x3d143146	0.036179803
16	0xbd87676a	-0.066115215
17	0xbc3133b5	-0.010815551
18	0x3cb8ee9c	0.022574715
19	0xbd1a9e55	-0.037748653
20	0xbd76f52b	-0.060292404
21	0x3c2efd22	0.010680469
22	0x3d0a0575	0.03369661
23	0x3c646990	0.013941184
24	0x3b01b6c2	0.001979277
25	0x3d25b74f	0.04045802
26	0xbd3becf8	-0.045880288
27	0x3c326626	0.010888612
28	0xbd0e3816	-0.034721456
29	0xbd73975b	-0.059470516
30	0x3d341d2c	0.043973133
31	0xbd764941	-0.060128454
32	0x3d0d2700	0.03446102
33	0x3b4cc820	0.0031247213
34	0xbd6d0af2	-0.057871766
35	0x3c4cf4c4	0.012509529
36	0xbc00cb7a	-0.007861013
37	0x3d572712	0.052527495
38	0xbc8c0865	-0.017093847
39	0x3d13db1f	0.036097642
40	0x3ce639c0	0.02810371
41	0x3d4ecb45	0.05048682
42	0x3c9ec70b	0.01938202
43	0x3d732ad1	0.059367005
44	0x3c58d3e7	0.013234115
45	0xbc8db530	-0.017298311
46	0xbd40f324	-0.047106877
47	0xbcc75c4d	-0.024336005
48	0x3cdc4669	0.026889043
49	0x3c6ed433	0.014576959
50	0x3d2f752b	0.04283635
51	0x39c44f86	0.00037443283
52	0xbb8912b1	-0.0041831364
53	0xbd0f9dbe	-0.035062544
54	0xbd94dc5d	-0.072685935
55	0x3b060d92	0.0020454866
56	0x3b35c1dc	0.0027733957
57	0xbba0ee22	-0.0049112
58	0xbd061d4c	-0.032742783
59	0xbd4420e6	-0.047882937
60	0x3ba3a56f	0.0049940865
61	0xbd13064e	-0.035894684
62	0x3d8fd70f	0.07023441
63	0x3c9c4a43	0.01907838

layers.0.forward_conv1d.weight f4 [64, 64, 1]
0	0xbd3a60b7	-0.04550239
1	0x3d8423bd	0.06452129
2	0x3d82d568	0.0638836
3	0x3da855c6	0.08219485
4	0xbb8def23	-0.004331486
5	0xbcd90de8	-0.026495889
6	0xbcf9bc37	-0.030485256
7	0xbc814a48	-0.01578249
8	0xbd1515f4	-0.03639789
9	0xbba48c5c	-0.005021615
10	0xbc53ef93	-0.012935537
11	0xba1cd588	-0.00059827464
12	0xbb23db91	-0.0025002698
13	0x3ccadd61	0.024763765
14	0xbc82dd81	-0.015974762
15	0x3c42889a	0.011873389
16	0x3dba73d9	0.091041274
17	0xbc9d4243	-0.019196635
18	0xbc959077	-0.018257363
19	0xbd11adbe	-0.035566084
20	0x3d38979a	0.045066454
21	0x3d8a5617	0.067547016
22	0xbd4c1e47	-0.049833562
23	0x3bb5c71f	0.0055474187
24	0x3d1376cf	0.036001977
25	0xbd0ef068	-0.034897238
26	0xbd785508	-0.060627967
27	0xbd00eab9	-0.03147385
28	0xbcbfbf6a	-0.023406703
29	0xbcc40338	-0.023927316
30	0xbc5b8260	-0.013397783
31	0xbb9ed4ee	-0.0048471605
32	0x3c6c9cb7	0.014441661
33	0x3d30fa3e	0.0432074
34	0x3ac078e0	0.0014684461
35	0x3bd31520	0.0064417273
36	0xbc008566	-0.007844305
37	0x3d35500c	0.04426579
38	0xbd3d1e70	-0.046171606
39	0x3d13f800	0.036125183
40	0xbc82e5e2	-0.015978757
41	0xbcc74220	-0.024323523
42	0xbceba622	-0.028765742
43	0x3cabf11d	0.020988995
44	0xbb03c3b7	-0.0020105669
45	0xbbe6d9f1	-0.0070450236
46	0xbb657546	-0.0035012527
47	0xbd442ad3	-0.047892403
48	0xbd75fd8e	-0.06005626
49	0x3d37fb79	0.044917557
50	0x3c4e25b5	0.012582232
51	0x3d296fb8	0.04136631
52	0x3d0e6088	0.034760028
53	0xbd91d168	-0.07120019
54	0xbc8030d0	-0.015648276
55	0xbbe40169	-0.006958176
56	0x3d5b0ef3	0.053481054
57	0xbd000d4f	-0.031262692
58	0x3c6ee7b3	0.014581609
59	0xbc2b3e2d	-0.010451836
60	0xbce3bc4e	-0.027799752
61	0x3c61070c	0.01373459
62	0x3cf21fa2	0.0295561
63	0x3ca38369	0.019960122
64	0xbd0c850f	-0.034306582
65	0x3c34e51d	0.011040953
66	0x3c993cd3	0.018705761
67	0x3d774c6a	0.06037561
68	0xbcea93e8	-0.02863498
69	0xbd68df35	-0.05685349
70	0xbbe4991b	-0.0069762594
71	0xbdaf1ac1	-0.08550025
72	0xbc5f7a5a	-0.013640011
73	0x3c71e6f1	0.014764533
74	0xbd6bf094	-0.05760248
75	0x3d7a1605	0.061056156
76	0x3d27877b	0.04090069
77	0xbda35dc0	-0.07976866
78	0xbd9d0d80	-0.076685905
79	0x3d0cdec2	0.034392126
80	0x3d53807c	0.051636204
81	0x3d57668f	0.052588042
82	0xbd146eb6	-0.036238395
83	0x3a2ed629	0.00066694856
84	0xbd9185cf	-0.071056
85	0x3c664032	0.014053391
86	0xbd876bd1	-0.06612361
87	0x3cb42a62	0.021992866
88	0xbab031c1	-0.0013442562
89	0x3d045ee6	0.032317065
90	0x3d12172e	0.035666637
91	0xbd2b2834	-0.041786388
92	0xbd209b92	-0.039210863
93	0xbd93ba06	-0.072132155
94	0x3cad3339	0.021142589
95	0xbd47f4ed	-0.048817564
96	0x3d29fe2f	0.041502174
97	0xbae162ea	-0.0017195616
98	0xbcc9635e	-0.024583515
99	0xbd9072fa	-0.0705318
100	0xbd894301	-0.06702233
101	0x3cc44d0e	0.023962524
102	0xbccf5c86	-0.025312673
103	0x3d085ca3	0.03329147
104	0xbd3bbf9c	-0.04583703
105	0xbc35fe5f	-0.01110801
106	0x3d4b170a	0.04958252
107	0x3d81b522	0.063333765
108	0x3d4bdb3e	0.049769633
109	0xbcdfa5ec	-0.027300797
110	0xbdb2d075	-0.08731166
111	0x3d1e38da	0.038628437
112	0xbcc52da4	-0.024069615
113	0x3d8b5918	0.06804103
114	0xbd08bc38	-0.033382624
115	0x3d7f177d	0.06227826
116	0x3b9a3e27	0.004707116
117	0xbd44c6a9	-0.04804102
118	0x3c05d6e8	0.008168913
119	0xbd04db27	-0.032435562
120	0xbabdcdde	-0.0014480909
121	0x3d8994cd	0.067178346
122	0x3cb367b1	0.02190003
123	0x3bf6395f	0.0075141634
124	0x3c5e9c92	0.013587134
125	0xbd158ec8	-0.03651312
126	0x3dc18413	0.09449019
127	0x3dbd3cea	0.09240134
128	0x3cef834f	0.029237418
129	0xbd342046	-0.04397609
130	0x3c5bb85e	0.013410656
131	0x3d0de8e9	0.03464595
132	0xbc994054	-0.018707432
133	0xbd117195	-0.03550871
134	0x3d930b93	0.07179942
135	0xbda0561c	-0.07828924
136	0xbac44b14	-0.0014975988
137	0x3bc3a162	0.005970166
138	0x3b5d8434	0.0033800723
139	0x3cbc15f8	0.022959694
140	0xba6ad125	-0.00089575566
141	0xbd306009	-0.043060336
142	0x3cc1f97b	0.023678532
143	0xbcb86dba	-0.02251326
144	0x3b9d11e3	0.004793392
145	0xbd40ed43	-0.04710127
146	0x3dce2d63	0.100672506
147	0xbd6607ae	-0.056159668
148	0x3d5a857c	0.053349957
149	0xbacb4699	-0.0015508711
150	0x3d3e277a	0.046424367
151	0xbb5b4613	-0.0033458516
152	0xbd467c79	-0.04845855
153	0xbd788837	-0.06067678
154	0xbd71a2ce	-0.058993153
155	0xbc22354e	-0.009900404
156	0x3d807d93	0.062739514
157	0xbda57f36	-0.08080904
158	0x3cae86e2	0.021304552
159	0x3d4a648d	0.0494123
160	0xbd694a74	-0.05695577
161	0x3d5222e9	0.051302824
162	0xbdaef44a	-0.08542688
163	0xbdc40386	-0.095709845
164	0x3abfd064	0.0014634249
165	0x3d3d3e7e	0.046202175
166	0x3b24c560	0.0025142059
167	0x3d289118	0.041153997
168	0x3d1028f3	0.035195302
169	0xbcfc4719	-0.03079562
170	0x3d6a5169	0.057206545
171	0x3d53ac99	0.051678274
172	0xbda0620c	-0.07831201
173	0x3dbbfb24	0.09178761
174	0x3db3306a	0.087494686
175	0xbd67fa46	-0.056635164
176	0x3d0ea5b7	0.034826007
177	0xbb6450dd	-0.0034838237
178	0xbd8a9bf0	-0.06768024
179	0x3da743e7	0.08167248
180	0xbd707bbf	-0.058711763
181	0xbd9781ac	-0.0739778
182	0x3d01dd8a	0.031705417
183	0x3c8e365e	0.017359909
184	0xbd848d28	-0.06472236
185	0xbda046b7	-0.07825988
186	0x3d8b0fa6	0.06790094
187	0x3d591955	0.053002674
188	0xbbd39b36	-0.0064577116
189	0x3d0a2d89	0.033734832
190	0xbcb6ad82	-0.022299532
191	0x3cc8b2f6	0.024499398
192	0x39174f96	0.0001443013
193	0xbca31ee0	-0.019912183
194	0x3dabf06e	0.08395468
195	0x3cd38d1c	0.025824122
196	0x3d85730e	0.065160856
197	0x3ae416c2	0.0017401802
198	0x3cc908c4	0.024540313
199	0x3d0c1ce6	0.034207247
200	0xbbf5c6c8	-0.007500503
201	0x3d8c2222	0.06842448
202	0x3cd7dd4d	0.026350642
203	0x3dd70f8f	0.105010144
204	0xbd4cf8a4	-0.05004181
205	0x3d8105d4	0.0629994
206	0xbd72dfb5	-0.059295375
207	0xbd53c436	-0.051700793
208	0xbdd739d4	-0.10509077
209	0xbd7c8402	-0.06164933
210	0x3d8a01af	0.06738602
211	0xbdd9fd0e	-0.106439695
212	0xbd17d777	-0.037070718
213	0xbc3bc7bf	-0.011461197
214	0xbd836312	-0.064153805
215	0x3d23da8d	0.04000335
216	0xbd30139a	-0.042987444
217	0x3c6a8a36	0.014315179
218	0x3d07ae11	0.033124987
219	0x3d257141	0.04039121
220	0xbdba6484	-0.09101203
221	0xbc7a729a	-0.015286112
222	0x3d190593	0.03735883
223	0x3d0ee9c5	0.03489091
224	0x3db3036e	0.087408885
225	0x3d8fb0ae	0.07016121
226	0x3da4a6c4	0.080396205
227	0x3d09690b	0.033547442
228	0xbdb2e397	-0.087348156
229	0x3daaaec6	0.08334117
230	0x3c953d30	0.018217653
231	0x3d1bb37e	0.038012974
232	0xbc90a0a2	-0.01765472
233	0x3ced6cb7	0.028982503
234	0x3d7c4f65	0.061599154
235	0x3d15541e	0.036457174
236	0x3ccc3e6e	0.024932113
237	0xbd7dd467	-0.06197014
238	0x3d0b07c1	0.03394294
239	0x3cdaacc8	0.026693717
240	0xbca905ff	-0.020632742
241	0xbdbac9ea	-0.09120543
242	0xbd89fb42	-0.06737377
243	0x3cd0fad9	0.025510238
244	0xbc441c22	-0.011969598
245	0xbda4945e	-0.08036111
246	0xbc9e59e8	-0.01932998
247	0xbdcac9d3	-0.09901776
248	0xbd51d1bf	-0.05122542
249	0xbc2243c9	-0.009903857
250	0xbd92e491	-0.07172502
251	0xbd1eb17a	-0.038743474
252	0x3cf3482f	0.029697506
253	0xbc76962b	-0.015050451
254	0xbd392130	-0.045197666
255	0x3d9ebc5c	0.077507704

layers.0.forward_conv1d.bias f4 [64]
0	0xbc2832c1	-0.010266007
1	0x3c8459cd	0.016156102
2	0x3dc24535	0.094858564
3	0xbdd0c4a9	-0.1019376
4	0x3da1e25f	0.07904505
5	0xbda43f7b	-0.080199204
6	0x3daff0ca	0.08590849
7	0x3da4dcee	0.080499515
8	0x3c6742fa	0.01411509
9	0x3d90462d	0.07044635
10	0x3cf3af6e	0.029746737
11	0xbc812064	-0.015762515
12	0xbc7f38f4	-0.0155775435
13	0x3cd5ca73	0.026097512
14	0x3d0c1184	0.03419639
15	0x3c7d810c	0.015472662
16	0xbd4dd606	-0.050252937
17	0x3bfa9782	0.0076474557
18	0xbda3c2f8	-0.07996172
19	0x3d4fb986	0.05071404
20	0x3d20c04f	0.0392459
21	0x3ddce83a	0.10786481
22	0x3d33a2e0	0.0438565
23	0xbd3bbf69	-0.04583684
24	0xbcb2d2d7	-0.021829052
25	0xbd5e729f	-0.05430853
26	0xbc87f8d9	-0.016598152
27	0xbd878960	-0.06617999
28	0xbdc97472	-0.09836663
29	0x3db29abc	0.087209195
30	0xbd97eb5e	-0.074179396
31	0x3d668740	0.05628133
32	0xbdc1856e	-0.09449278
33	0xbd04a2d7	-0.03238186
34	0x3d98a2cb	0.07452925
35	0xbbe5f78d	-0.0070180357
36	0xbcdc3c1d	-0.026884133
37	0x3d5b68b8	0.053566664
38	0x3d9e896d	0.07741056
39	0xbdbeb6cb	-0.09312209
40	0xbd34dbc2	-0.04415489
41	0x3d7bd166	0.061478995
42	0xbd90d3d1	-0.07071651
43	0xbd516c73	-0.051128816
44	0xbd0b3044	-0.033981577
45	0x3a27ab95	0.0006396112
46	0x3d8d5f09	0.06902892
47	0xbde8dbb2	-0.113700286
48	0xbdc7f7e7	-0.097640805
49	0x3da44690	0.08021271
50	0xbd3380e3	-0.043824088
51	0xbdc9c093	-0.09851184
52	0x3c9fbdc4	0.019499667
53	0x3d894fd2	0.06704678
54	0x3d5dbb91	0.054133955
55	0x3d4a1783	0.04933883
56	0xbdc6ef4a	-0.097136095
57	0x3d14e049	0.036346707
58	0x3cf2aae1	0.029622497
59	0xbd512a55	-0.05106576
60	0x3d38224e	0.04495459
61	0xbcb06a75	-0.021535138
62	0x3d7268de	0.05918204
63	0x3dd8e3e3	0.10590341

layers.0.backward_conv1d.weight f4 [64, 64, 1]
0	0x3dbc8b79	0.0920629
1	0x3d09cdd6	0.033643566
2	0xbd001f9e	-0.031280152
3	0xbd5c979e	-0.05385553
4	0xbd444616	-0.0479184
5	0xbbf192eb	-0.0073722503
6	0xbd2f14cb	-0.04274444
7	0xbd987603	-0.07444384
8	0xbc6babb8	-0.014384203
9	0xbbde657c	-0.006787
10	0x3d006db1	0.03135461
11	0x3d0c2d92	0.034223147
12	0xbd1f83ac	-0.03894393
13	0xbd174517	-0.036931124
14	0xbd4f4b35	-0.050608832
15	0x3d1db0a3	0.038498532
16	0x3da973c7	0.08274036
17	0xbd0a75cf	-0.033803757
18	0xbc2c29cd	-0.010508013
19	0x3dbb5cbc	0.09148547
20	0xbb001bc1	-0.0019547793
21	0xbd84c8bb	-0.06483599
22	0xbd34c015	-0.044128496
23	0xbb158445	-0.0022814434
24	0x3cfc5097	0.030800147
25	0xbc899064	-0.016792484
26	0x3d4a9209	0.049455676
27	0xbcd2b366	-0.02572031
28	0xbc124330	-0.008927152
29	0x3c9fba8e	0.019498136
30	0xbc528bf7	-0.012850753
31	0x3cbdfff2	0.023193333
32	0x3d2277c6	0.039665006
33	0x3cf6bb22	0.030118529
34	0xbd261380	-0.04054594
35	0xbd56fdbc	-0.052488074
36	0xbcbfb45b	-0.02340143
37	0x3d1b413d	0.037904013
38	0xbcca9648	-0.024729863
39	0x3d5a5ddb	0.053312164
40	0xbcadadf0	-0.021201104
41	0x3d36db9d	0.044643033
42	0x3c7d657d	0.015466091
43	0xbd63beb2	-0.055601783
44	0xbd346738	-0.04404375
45	0xbcbad9b3	-0.022808885
46	0xbb2b5ad5	-0.002614667
47	0xbd9dda80	-0.07707691
48	0xbda9ee73	-0.08297434
49	0xbda68d79	-0.081324525
50	0x3c862aaa	0.016377766
51	0x3d82639b	0.063666545
52	0x3c65b525	0.014020239
53	0x3c2ed9a2	0.010672005
54	0x3d48e1a4	0.049043313
55	0x3d6ab980	0.057305813
56	0xbd3c31e5	-0.04594602
57	0xbdad5ba0	-0.08464742
58	0xbc4a6b13	-0.01235463
59	0x3c52f97f	0.012876867
60	0x3c42eb54	0.011896927
61	0xbc7315ff	-0.014836787
62	0x3c86cb08	0.016454235
63	0x3d062a99	0.032755468
64	0x3bd1699c	0.0063907634
65	0x3db14712	0.08656134
66	0xbd1f334b	-0.038867276
67	0xbdbe0315	-0.092779316
68	0xbdbd3734	-0.09239045
69	0x3d7b0489	0.061283622
70	0x3d09bdca	0.033628263
71	0x3d576b13	0.05259235
72	0x3d43807b	0.04772995
73	0xbd83646b	-0.064156376
74	0xbcc564fe	-0.024096008
75	0xbc028f1a	-0.007968688
76	0x3d8d0175	0.068850435
77	0xbdc47a95	-0.09593693
78	0x3d28408c	0.04107718
79	0x3d820352	0.063482895
80	0xbca5037b	-0.020143261
81	0x3d3cff01	0.04614163
82	0xbc8f7570	-0.017512053
83	0xbc8b2280	-0.016984224
84	0x3c7e0433	0.015503931
85	0x3dd19213	0.102329396
86	0x3d739271	0.05946583
87	0x3c42c622	0.011888059
88	0xbdb6d7e6	-0.08927898
89	0xbd906df5	-0.07052223
90	0xbc5fd73a	-0.013662154
91	0x3cab25f1	0.020892115
92	0xbd69ef17	-0.05711278
93	0x3d0b4227	0.033998635
94	0x3cf96e23	0.030448025
95	0xbdc6527f	-0.09683704
96	0xbb9992ca	-0.004686688
97	0xbcb10c52	-0.02161232
98	0x3cd1e911	0.02562383
99	0x3cbd502b	0.023109516
100	0x3c53da52	0.01293047
101	0x3da43c28	0.080192864
102	0x3d8449f2	0.064594164
103	0xbcef0e6f	-0.029181687
104	0x3d0b030b	0.03393845
105	0x3cede9d2	0.029042158
106	0xbd126c18	-0.035747617
107	0x3bb2dab5	0.005458201
108	0x3a9d489d	0.001199979
109	0x3d3190f2	0.04335112
110	0xbdc858c1	-0.097825535
111	0x3a90b5f7	0.0011040558
112	0x3daf160f	0.08549129
113	0x3d40d958	0.047082275
114	0x3d47e056	0.048797928
115	0xbdb2e8bb	-0.08735796
116	0x3db7ae53	0.089687966
117	0x3ceaf65a	0.028681923
118	0x3b8ffc2b	0.0043940744
119	0x3ceaa7ae	0.028644409
120	0x3cbcb61f	0.02303606
121	0x3c880b8e	0.016607072
122	0xbc603504	-0.013684515
123	0x3dabb147	0.08383422
124	0x3d2489c5	0.04017045
125	0x3b129103	0.0022364266
126	0x3dcfe9a6	0.10151987
127	0x3cf7af33	0.030234909
128	0x3d0417f4	0.032249406
129	0xbce6a467	-0.028154565
130	0xbd79ffd6	-0.061035
131	0x3d234485	0.039860267
132	0xbd1e6049	-0.038666043
133	0x3b3fd92a	0.0029273727
134	0x3cce8f9c	0.025214963
135	0xbd07984c	-0.033104226
136	0x3cffaf2d	0.03121146
137	0x3d2c987a	0.0421376
138	0x3ceeaed4	0.029136099
139	0xbd96d2db	-0.07364436
140	0x3d8ffb21	0.07030321
141	0xbd613ecc	-0.05499153
142	0x3d200810	0.03907019
143	0x3d1804be	0.037113898
144	0x3a4aa9d4	0.0007730995
145	0xbc2e41c2	-0.010635795
146	0x3d8e7a27	0.069568925
147	0x3d4dc9f9	0.050241444
148	0xbb9c03f5	-0.004761214
149	0xbd6f2577	-0.05838534
150	0xbd078f53	-0.03309567
151	0xbd5ed152	-0.054398842
152	0x3d8b3366	0.06796913
153	0xbd1ac15b	-0.037782054
154	0xbc5ff4e3	-0.013669225
155	0xbc9edac8	-0.019391432
156	0xbd81a743	-0.06330731
157	0xbb8453a5	-0.0040382915
158	0x3d373311	0.044726435
159	0x3d6747e6	0.056465052
160	0xbd3ff53e	-0.04686474
161	0xbcc1ea72	-0.023671363
162	0xbd34934b	-0.044085782
163	0xbd06d065	-0.032913584
164	0xbd82c473	-0.06385126
165	0x3d9327cb	0.07185324
166	0xbd81680c	-0.063186735
167	0xbd1837d1	-0.037162606
168	0x3c991f3e	0.018691655
169	0xbc9074b7	-0.017633779
170	0x3d5b4394	0.053531244
171	0x3cb13c0e	0.021635082
172	0xbdaa3807	-0.083114676
173	0x3ceb4e2b	0.028723797
174	0x3c984d39	0.01859151
175	0x3c0e8c20	0.008700401
176	0x3d0eef88	0.034896404
177	0xbd26524c	-0.04060583
178	0x3ad78a25	0.0016444369
179	0x3c98bf69	0.018645959
180	0xba0f4f1f	-0.0005466807
181	0x3cbf0be7	0.023321105
182	0xbc4d6252	-0.012535648
183	0xbc6122e9	-0.013741233
184	0xbd618358	-0.0550569
185	0xbc4a47fc	-0.012346264
186	0xbcd5d502	-0.026102547
187	0xbd162053	-0.03665192
188	0x3d3c3468	0.045948416
189	0x3d5a49ae	0.053292923
190	0xbcc31599	-0.02381401
191	0x3b76cd2d	0.0037658915
192	0x3bea4686	0.0071495203
193	0x3db9f8fa	0.09080692
194	0x3daf94ef	0.08573329
195	0xbddb5152	-0.1070887
196	0xbd8362df	-0.064153425
197	0x3cbfab13	0.023397004
198	0x3d91b2ce	0.071141824
199	0x3d653b78	0.055964917
200	0x3d3e7abc	0.046503767
201	0xbc067a7e	-0.008207915
202	0xbd542f36	-0.051802836
203	0x3bdde55c	0.0067717265
204	0xbd89c666	-0.067272946
205	0x3d228e9f	0.039686795
206	0xbc9e05f1	-0.019289942
207	0xbd4158af	-0.047203716
208	0xbd7af209	-0.06126598
209	0xbc40a68b	-0.011758457
210	0xbc9a4507	-0.018831743
211	0x3db2acec	0.087243885
212	0xbd8fa9d6	-0.070148155
213	0x3d91e5e1	0.07123924
214	0xb9944ec1	-0.00028287436
215	0x3dda2ce3	0.10653093
216	0xbceda784	-0.029010542
217	0x3d762042	0.060089357
218	0x3d8a4330	0.06751096
219	0x3c09d96f	0.008413657
220	0xbdae01bd	-0.08496425
221	0x3be53e35	0.006995941
222	0xbd77a44c	-0.06045942
223	0x3d55bf5b	0.052184444
224	0x3c3a79cb	0.011381577
225	0xbcce1d62	-0.025160495
226	0xbd27a830	-0.04093188
227	0x3d603153	0.05473454
228	0x3d760463	0.060062777
229	0x3dda8f0d	0.10671816
230	0xbcc3739a	-0.023858834
231	0xbda42441	-0.080147274
232	0xbd50bcff	-0.05096149
233	0xbd1591bc	-0.036515936
234	0x3d36e55a	0.04465232
235	0xbd7fb895	-0.06243189
236	0x3d4733e3	0.048633467
237	0x3dcad3ac	0.099036545
238	0x3d8ab157	0.06772106
239	0xbd0e03ee	-0.034671716
240	0x3d043850	0.032280266
241	0x3d17f806	0.037101768
242	0xbc373783	-0.011182669
243	0x3b5fdfb7	0.0034160444
244	0xbd40403c	-0.04693626
245	0xbdd71a3c	-0.10503051
246	0xbc0ea1d3	-0.008705574
247	0x3d35b4d4	0.044361904
248	0x3d0893a6	0.033343934
249	0xbcdbb590	-0.026819974
250	0x3daad0ac	0.08340582
251	0x3d573f56	0.052550636
252	0xbac03d91	-0.0014666786
253	0x3caae788	0.020862356
254	0x3da97d98	0.08275908
255	0x3d9f1a26	0.07768659

layers.0.backward_conv1d.bias f4 [64]
0	0x3d882c0a	0.06649025
1	0xbdbd8e05	-0.09255604
2	0xbc5f5e89	-0.013633379
3	0xbc3c6f3d	-0.011501131
4	0x3d8f911e	0.07010101
5	0x3d7a95a1	0.061177853
6	0xbd159455	-0.036518414
7	0xbd4618cf	-0.048363503
8	0xbd6d503d	-0.05793785
9	0x3db1e1a0	0.08685613
10	0x3d015d27	0.031582978
11	0xbdb1562d	-0.08659015
12	0xbc104705	-0.008805995
13	0x3cc402af	0.02392706
14	0xbdc4ec05	-0.0961533
15	0x3c11a00b	0.008888255
16	0x3d8a7819	0.06761188
17	0x3d095236	0.033525668
18	0xbd2947c8	-0.04132822
19	0xbc6851fb	-0.014179702
20	0x3d36e24f	0.04464942
21	0xbd46ecf9	-0.04856584
22	0xbc944159	-0.018097566
23	0xbca66c61	-0.020315351
24	0xbceecdb4	-0.029150821
25	0xbdc4023b	-0.09570738
26	0xbd5f93b6	-0.054584228
27	0xbdc28d1d	-0.094995715
28	0xbdc1896d	-0.0945004
29	0xbba908b4	-0.005158508
30	0x3b8be1ca	0.0042688595
31	0xbd6f1391	-0.05836827
32	0xbd55c5a9	-0.052190457
33	0x3ca9829a	0.020692158
34	0x3d307359	0.043078754
35	0x3d734b03	0.05939771
36	0x3d4219fe	0.04738807
37	0x3d5791ef	0.052629407
38	0x3d4d9fb7	0.050201144
39	0xbcae68c8	-0.021290198
40	0xbdb74806	-0.08949284
41	0x3bc4b403	0.0060029044
42	0xbcb8173c	-0.022472017
43	0xbd083232	-0.033250995
44	0x3dd43b43	0.10362866
45	0x3da531a7	0.08066111
46	0x3c17586e	0.009237392
47	0x3d5d8dc2	0.05409027
48	0xbdcb456d	-0.09925351
49	0xbcc36461	-0.023851575
50	0x3d5c1929	0.053734932
51	0x3d58cab0	0.052927673
52	0xbdaa6d2c	-0.08321604
53	0x3d8318d2	0.064012185
54	0x3cf294bd	0.02961194
55	0xbc90a9d4	-0.017659105
56	0x3d81bc9c	0.063348025
57	0x3cadc5c9	0.021212475
58	0xbc6d3e62	-0.014480205
59	0xbc7f2e49	-0.015575
60	0xbd0deec9	-0.03465155
61	0x3d6d5cdc	0.057949886
62	0x3db20e59	0.08694143
63	0xbda776dc	-0.081769675

layers.0.norm.weight f4 [64]
0	0x3f6f7737	0.9354128
1	0x3f770bda	0.9650246
2	0x3f74e01c	0.95654464
3	0x3f60d6c8	0.8782773
4	0x3f681d9c	0.9067018
5	0x3f6ff94b	0.93739766
6	0x3f77cd8f	0.9679803
7	0x3f61f8d0	0.8827028
8	0x3f734b69	0.9503694
9	0x3f65d08c	0.8977134
10	0x3f67b67d	0.9051283
11	0x3f65ebbd	0.89812833
12	0x3f73b2e4	0.9519484
13	0x3f75231d	0.95756704
14	0x3f733b63	0.9501249
15	0x3f78ac4f	0.9713792
16	0x3f76d60c	0.9642036
17	0x3f6dac46	0.92840993
18	0x3f6c4937	0.92299217
19	0x3f6a6723	0.91563624
20	0x3f739a34	0.9515717
21	0x3f5392e2	0.82646
22	0x3f6cf1a8	0.9255624
23	0x3f65032f	0.8945798
24	0x3f604e44	0.87619424
25	0x3f6f77a5	0.9354194
26	0x3f738d69	0.9513765
27	0x3f5f11bb	0.8713643
28	0x3f68a7b2	0.9088088
29	0x3f6f9d4f	0.9359941
30	0x3f64269c	0.89121413
31	0x3f791934	0.9730408
32	0x3f65c5d4	0.89754987
33	0x3f5ac769	0.85460526
34	0x3f7776a5	0.9666541
35	0x3f6c9c21	0.92425734
36	0x3f762c13	0.96161
37	0x3f752b28	0.95768976
38	0x3f61d196	0.8821043
39	0x3f73ae22	0.9518758
40	0x3f7032c0	0.9382744
41	0x3f69e287	0.9136128
42	0x3f5f9400	0.87335205
43	0x3f6b24a2	0.9185277
44	0x3f71a6ee	0.9439534
45	0x3f6da377	0.9282755
46	0x3f728096	0.94727457
47	0x3f64df70	0.8940344
48	0x3f69db51	0.91350275
49	0x3f6b9ce4	0.9203627
50	0x3f70108d	0.93775254
51	0x3f5ab528	0.8543267
52	0x3f6f50c4	0.93482614
53	0x3f64bebb	0.8935353
54	0x3f762451	0.96149164
55	0x3f6a4b8c	0.91521525
56	0x3f628c11	0.88494974
57	0x3f4ffc48	0.81244326
58	0x3f64709b	0.8923432
59	0x3f70f795	0.9412778
60	0x3f6a71e0	0.9158001
61	0x3f7193eb	0.9436633
62	0x3f76988f	0.96326536
63	0x3f71f6c6	0.9451717

layers.0.norm.bias f4 [64]
0	0x3bdc7914	0.006728301
1	0xbbc3a3d4	-0.0059704576
2	0xbaf31d70	-0.0018548202
3	0x3b18ce0c	0.0023316173
4	0x3b094487	0.0020945386
5	0x3ba088a5	0.004899102
6	0xbb8fae84	-0.0043848176
7	0xbb027941	-0.0019908699
8	0xbacf9903	-0.0015838448
9	0x3c5d83aa	0.013520161
10	0x3b70aacb	0.0036722894
11	0xbadd5a11	-0.0016887804
12	0x3c1a2030	0.009407088
13	0x3b572404	0.0032827863
14	0xbb73e31f	-0.0037214232
15	0x3acceff6	0.0015635479
16	0x3bfab84e	0.0076513654
17	0xbc0341b1	-0.0080112675
18	0xbbcc5b62	-0.0062364796
19	0x3b06366e	0.002047922
20	0x3c3c1abb	0.011480982
21	0xbaf5a248	-0.001874038
22	0xbc050d60	-0.008120865
23	0xbbd23e87	-0.0064161452
24	0x3bd6da92	0.0065568173
25	0xbb90a862	-0.004414604
26	0xbb452489	-0.003008159
27	0xbc4cfb8b	-0.012511144
28	0x3b8f4721	0.004372493
29	0x3bb31bd0	0.005465962
30	0xbb149ffa	-0.0022678361
31	0xbb3c4b40	-0.0028731376
32	0xbc05ebf4	-0.008173931
33	0xbbf76845	-0.0075502717
34	0x3b12aa00	0.002237916
35	0x3b1355e3	0.0022481612
36	0x3beddc4b	0.007258927
37	0xbbbfe762	-0.0058564404
38	0x3be61bba	0.007022348
39	0x3b35ae55	0.0027722318
40	0xbb057129	-0.0020361638
41	0xbbf0a3f6	-0.0073437644
42	0xbaa8be35	-0.0012874069
43	0xbc22febb	-0.009948428
44	0xbae3fe26	-0.0017394468
45	0xbbb929c2	-0.00565073
46	0x3a83647c	0.0010024454
47	0x3c4634e4	0.012097571
48	0x3967e80a	0.00022116318
49	0xba4a3e60	-0.0007714983
50	0xbc9bc956	-0.019016903
51	0xbb9eb38f	-0.0048431824
52	0xba145e80	-0.00056598336
53	0x3a6100cf	0.00085831893
54	0xbaed75a0	-0.001811672
55	0xb9fd85a6	-0.00048355496
56	0x3bb0ab93	0.005391547
57	0x3b2db4fe	0.0026505585
58	0xbac2eebb	-0.0014872173
59	0x3bd6c550	0.006554283
60	0xbaa17e64	-0.0012320993
61	0x3aa37e0b	0.0012473477
62	0xb90d11eb	-0.00013453483
63	0xbbcc1dee	-0.006229154

layers.0.ssm.A_log f4 [64, 64]
0	0xb9731451	-0.00023181854
1	0x3e1d1528	0.15340102
2	0x3f02f00c	0.5114753
3	0x3f493fa2	0.7861272
4	0x3f805636	1.002631
5	0x3f97300e	1.181154
6	0x3faa9380	1.3326263
7	0x3fbb6b25	1.4642073
8	0x3fca4e2f	1.580511
9	0x3fd7a488	1.6847086
10	0x3fe3b7fb	1.7790521
11	0x3feec097	1.8652524
12	0x3ff8e873	1.9445938
13	0x40012972	2.0181546
14	0x40058b2c	2.0866194
15	0x4009a4a7	2.1506746
16	0x400d7f0a	2.2108788
17	0x40112161	2.2676623
18	0x40149157	2.3213708
19	0x4017d4d5	2.3723652
20	0x401aef4d	2.4208558
21	0x401de4a7	2.4670808
22	0x4020b8c1	2.5112765
23	0x40236e91	2.5536234
24	0x402607f0	2.5942345
25	0x40288757	2.6332605
26	0x402aee79	2.6708052
27	0x402d3fb7	2.7070138
28	0x402f7c6c	2.741969
29	0x4031a59e	2.7757335
30	0x4033bc9d	2.808387
31	0x4035c291	2.8400004
32	0x4037b87f	2.8706357
33	0x40399f5e	2.900352
34	0x403b786d	2.9292252
35	0x403d4443	2.9572914
36	0x403f0378	2.9845867
37	0x4040b6bb	3.011153
38	0x40425ea0	3.0370255
39	0x4043fbda	3.0622468
40	0x40458eda	3.086844
41	0x40471817	3.1108453
42	0x4048980c	3.1342802
43	0x404a0f24	3.157174
44	0x404b7df2	3.179562
45	0x404ce507	3.2014787
46	0x404e445f	3.222923
47	0x404f9c4f	3.2439153
48	0x4050ed22	3.2644734
49	0x40523726	3.284616
50	0x40537a9a	3.304358
51	0x4054b7c1	3.3237154
52	0x4055eedc	3.3427038
53	0x40572022	3.3613362
54	0x40584b81	3.3796084
55	0x40597203	3.3975837
56	0x405a92f8	3.4152203
57	0x405baed2	3.4325452
58	0x405cc61a	3.4495912
59	0x405dd858	3.4663296
60	0x405ee5ea	3.4827828
61	0x405ff00a	3.4990258
62	0x4060f58e	3.5149875
63	0x4061f6d3	3.53069
64	0xb9df0d59	-0.0004254382
65	0x3e2062c2	0.15662673
66	0x3f048ea2	0.5178014
67	0x3f4c3c3f	0.7977943
68	0x3f8058c9	1.0027095
69	0x3f972b63	1.1810116
70	0x3faa8fe7	1.3325166
71	0x3fbb6b54	1.4642129
72	0x3fca4f3a	1.5805428
73	0x3fd7a470	1.6847057
74	0x3fe3b7e2	1.7790492
75	0x3feec09d	1.8652531
76	0x3ff8e85d	1.9445912
77	0x40012975	2.0181553
78	0x40058b31	2.0866206
79	0x4009a4bf	2.1506803
80	0x400d7f09	2.2108786
81	0x40112165	2.2676632
82	0x40149156	2.3213706
83	0x4017d4c8	2.3723621
84	0x401aef4c	2.4208555
85	0x401de4a7	2.4670808
86	0x4020b8c0	2.5112762
87	0x40236e91	2.5536234
88	0x402607f0	2.5942345
89	0x40288757	2.6332605
90	0x402aee78	2.670805
91	0x402d3fb7	2.7070138
92	0x402f7c6c	2.741969
93	0x4031a59d	2.7757332
94	0x4033bc9e	2.8083873
95	0x4035c291	2.8400004
96	0x4037b87f	2.8706357
97	0x40399f5e	2.900352
98	0x403b786d	2.9292252
99	0x403d4443	2.9572914
100	0x403f0377	2.9845865
101	0x4040b6bb	3.011153
102	0x40425ea0	3.0370255
103	0x4043fbd9	3.0622466
104	0x40458eda	3.086844
105	0x40471817	3.1108453
106	0x4048980c	3.1342802
107	0x404a0f24	3.157174
108	0x404b7df2	3.179562
109	0x404ce507	3.2014787
110	0x404e445f	3.222923
111	0x404f9c4f	3.2439153
112	0x4050ed22	3.2644734
113	0x40523726	3.284616
114	0x40537a9a	3.304358
115	0x4054b7c1	3.3237154
116	0x4055eedc	3.3427038
117	0x40572022	3.3613362
118	0x40584b81	3.3796084
119	0x40597203	3.3975837
120	0x405a92f8	3.4152203
121	0x405baed2	3.4325452
122	0x405cc61a	3.4495912
123	0x405dd858	3.4663296
124	0x405ee5ea	3.4827828
125	0x405ff00a	3.4990258
126	0x4060f58e	3.5149875
127	0x4061f6d3	3.53069
128	0xba177591	-0.00057777116
129	0x3e1f3dc0	0.155509
130	0x3f034a99	0.512857
131	0x3f4a6a35	0.7906831
132	0x3f8054e0	1.0025902
133	0x3f972b80	1.181015
134	0x3faa8fde	1.3325155
135	0x3fbb6b9f	1.4642218
136	0x3fca4f1b	1.5805391
137	0x3fd7a4b9	1.6847144
138	0x3fe3b7d4	1.7790475
139	0x3feec04c	1.8652434
140	0x3ff8e87e	1.9445951
141	0x40012979	2.0181563
142	0x40058b2b	2.0866191
143	0x4009a4b4	2.1506777
144	0x400d7f07	2.2108781
145	0x40112164	2.267663
146	0x401491a5	2.3213894
147	0x4017d4ce	2.3723636
148	0x401aef46	2.420854
149	0x401de4a8	2.467081
150	0x4020b8c1	2.5112765
151	0x40236e90	2.5536232
152	0x402607f0	2.5942345
153	0x40288757	2.6332605
154	0x402aee77	2.6708047
155	0x402d3fb7	2.7070138
156	0x402f7c6c	2.741969
157	0x4031a59e	2.7757335
158	0x4033bc9e	2.8083873
159	0x4035c291	2.8400004
160	0x4037b87f	2.8706357
161	0x40399f5e	2.900352
162	0x403b786d	2.9292252
163	0x403d4443	2.9572914
164	0x403f0377	2.9845865
165	0x4040b6bb	3.011153
166	0x40425ea0	3.0370255
167	0x4043fbda	3.0622468
168	0x40458eda	3.086844
169	0x40471817	3.1108453
170	0x4048980c	3.1342802
171	0x404a0f24	3.157174
172	0x404b7df2	3.179562
173	0x404ce507	3.2014787
174	0x404e445f	3.222923
175	0x404f9c4f	3.2439153
176	0x4050ed22	3.2644734
177	0x40523726	3.284616
178	0x40537a9a	3.304358
179	0x4054b7c1	3.3237154
180	0x4055eedc	3.3427038
181	0x40572022	3.3613362
182	0x40584b81	3.3796084
183	0x40597203	3.3975837
184	0x405a92f8	3.4152203
185	0x405baed2	3.4325452
186	0x405cc61a	3.4495912
187	0x405dd858	3.4663296
188	0x405ee5ea	3.4827828
189	0x405ff00a	3.4990258
190	0x4060f58e	3.5149875
191	0x4061f6d3	3.53069
192	0xba135200	-0.0005619824
193	0x3e208797	0.15676723
194	0x3f052873	0.52014846
195	0x3f4e3817	0.80554336
196	0x3f805642	1.0026324
197	0x3f972d82	1.1810763
198	0x3faa921a	1.3325837
199	0x3fbb6b7f	1.464218
200	0x3fca4f12	1.580538
201	0x3fd7a48e	1.6847093
202	0x3fe3b7f2	1.7790511
203	0x3feec082	1.8652499
204	0x3ff8e868	1.9445925
205	0x40012970	2.0181541
206	0x40058b35	2.0866215
207	0x4009a4a5	2.150674
208	0x400d7f09	2.2108786
209	0x40112163	2.2676628
210	0x401491b1	2.3213923
211	0x4017d4d2	2.3723645
212	0x401aef49	2.4208548
213	0x401de4a7	2.4670808
214	0x4020b8c1	2.5112765
215	0x40236e90	2.5536232
216	0x402607f0	2.5942345
217	0x40288757	2.6332605
218	0x402aee78	2.670805
219	0x402d3fb7	2.7070138
220	0x402f7c6c	2.741969
221	0x4031a59e	2.7757335
222	0x4033bc9e	2.8083873
223	0x4035c292	2.8400006
224	0x4037b87f	2.8706357
225	0x40399f5e	2.900352
226	0x403b786d	2.9292252
227	0x403d4443	2.9572914
228	0x403f0378	2.9845867
229	0x4040b6bb	3.011153
230	0x40425ea0	3.0370255
231	0x4043fbda	3.0622468
232	0x40458eda	3.086844
233	0x40471817	3.1108453
234	0x4048980c	3.1342802
235	0x404a0f24	3.157174
236	0x404b7df2	3.179562
237	0x404ce507	3.2014787
238	0x404e445f	3.222923
239	0x404f9c4f	3.2439153
240	0x4050ed22	3.2644734
241	0x40523726	3.284616
242	0x40537a9a	3.304358
243	0x4054b7c1	3.3237154
244	0x4055eedc	3.3427038
245	0x40572022	3.3613362
246	0x40584b81	3.3796084
247	0x40597203	3.3975837
248	0x405a92f8	3.4152203
249	0x405baed2	3.4325452
250	0x405cc61a	3.4495912
251	0x405dd858	3.4663296
252	0x405ee5ea	3.4827828
253	0x405ff00a	3.4990258
254	0x4060f58e	3.5149875
255	0x4061f6d3	3.53069

layers.0.ssm.D f4 [64]
0	0x3f44519a	0.76687014
1	0x3f6ce2cb	0.9253356
2	0x3f60afd2	0.8776828
3	0x3f72dfc6	0.948727
4	0x3f4cb91c	0.79969954
5	0x3f5e2f86	0.86791265
6	0x3f54e21f	0.83157533
7	0x3f735979	0.950584
8	0x3f659e6d	0.89694864
9	0x3f6d7716	0.92759836
10	0x3f44314f	0.7663774
11	0x3f6cb7b3	0.924678
12	0x3f6e7517	0.93147415
13	0x3f341c20	0.70355415
14	0x3f690ed2	0.9103824
15	0x3f4689a3	0.77553767
16	0x3f6960fc	0.9116361
17	0x3f561687	0.83628124
18	0x3f5d1e7c	0.8637464
19	0x3f564fb7	0.83715385
20	0x3f362adc	0.7115915
21	0x3f729736	0.9476198
22	0x3f4c0636	0.7969698
23	0x3f744eb4	0.9543259
24	0x3f4a7e13	0.79098624
25	0x3f5e78a2	0.8690282
26	0x3f6bf6dc	0.9217355
27	0x3f54dace	0.8314637
28	0x3f6f5512	0.9348918
29	0x3f6b7373	0.91973037
30	0x3f370c58	0.7150321
31	0x3f3e4168	0.7431855
32	0x3f3d2d24	0.73897004
33	0x3f7486d8	0.95518255
34	0x3f63a9ef	0.88931173
35	0x3f6d3471	0.92658144
36	0x3f5725c5	0.84042007
37	0x3f5bc87b	0.85852784
38	0x3f5ce297	0.8628325
39	0x3f3b3f46	0.7314342
40	0x3f17dcc3	0.5932123
41	0x3f3f39d7	0.7469763
42	0x3f74547e	0.95441425
43	0x3f6d885b	0.92786187
44	0x3f546294	0.8296292
45	0x3f612dda	0.8796059
46	0x3f69e693	0.91367453
47	0x3f748bc2	0.95525753
48	0x3f66c94a	0.9015089
49	0x3f66e414	0.9019177
50	0x3f5afcfc	0.85542274
51	0x3f6ce8d0	0.92542744
52	0x3f51baae	0.81925476
53	0x3f597451	0.8494311
54	0x3f54ac3b	0.830753
55	0x3f67d029	0.90552
56	0x3f6b6058	0.91943884
57	0x3f5f1e24	0.87155366
58	0x3f548840	0.830204
59	0x3f5371b6	0.82595384
60	0x3f4f67d4	0.81017804
61	0x3f72e6c4	0.9488337
62	0x3f68b5eb	0.90902585
63	0x3f6c83b5	0.9238847

layers.0.ssm.deltaBC_layer.weight f4 [144, 64]
0	0xbd430504	-0.047612205
1	0xbddf77b8	-0.109115064
2	0xbd632e16	-0.055463873
3	0xbdac9bea	-0.08428176
4	0x3d283ec6	0.04107549
5	0xbc927e51	-0.017882498
6	0xbca2c3b7	-0.019868715
7	0x3d6487b5	0.055793483
8	0x3dc10feb	0.09426864
9	0xbda8e5f0	-0.08246982
10	0x3c05dd30	0.008170411
11	0x3dd40aaf	0.103536
12	0xbd8f4bff	-0.06996917
13	0x3dbf2cd2	0.09334721
14	0xbd7a45d1	-0.06110174
15	0x3d5a03cb	0.053226274
16	0xbde304a0	-0.110848665
17	0xbd3f28e1	-0.046669845
18	0xbcc6560a	-0.024210948
19	0x3d0ff4c2	0.03514553
20	0x3d4885c3	0.04895569
21	0x3d8a2b50	0.067465425
22	0x3d96364c	0.07334575
23	0xbd0ba016	-0.034088217
24	0xbd30d6b1	-0.043173496
25	0xbd2c4609	-0.04205898
26	0xbbe3e6ca	-0.0069550024
27	0xbd96812a	-0.07348855
28	0xbd83aaf7	-0.06429093
29	0xbd16796a	-0.036736883
30	0xbcf3429f	-0.029694853
31	0x3da409e6	0.080097005
32	0xbd6f8eba	-0.058485724
33	0xbcd70b29	-0.026250439
34	0x3dc1e731	0.094679244
35	0xbd92b79e	-0.071639284
36	0x3d1354b8	0.035969466
37	0x3dce055c	0.10059616
38	0x3d0eda51	0.03487617
39	0x3dceb5bc	0.10093257
40	0xbdb0d2da	-0.08633967
41	0xbb4f5541	-0.0031636509
42	0x3da9a18a	0.08282764
43	0xbd1daf35	-0.03849717
44	0xbd8b4a58	-0.06801289
45	0x3cdea412	0.027177844
46	0xbd63ee61	-0.055647258
47	0xbd9aac54	-0.075524
48	0x3d0e2c45	0.034710187
49	0xbde1d407	-0.11026769
50	0x3c971564	0.018442817
51	0xbaa56c5a	-0.0012620792
52	0x3c51a289	0.012795099
53	0xbc386593	-0.011254686
54	0xbde7e81b	-0.113235675
55	0x3d8076ab	0.06272634
56	0x3d76c87a	0.060249783
57	0xbc6d45b2	-0.014481949
58	0xbdcd69d5	-0.100299515
59	0xbda3880e	-0.07984935
60	0x3d2c29d6	0.042032085
61	0xbdd7023d	-0.10498474
62	0xbd35272b	-0.044226807
63	0xbd2b57cf	-0.041831788
64	0xbd0d8ec5	-0.034559984
65	0x3d27aaff	0.04093456
66	0xbcecef95	-0.028922835
67	0xbda8cfba	-0.08242746
68	0x3c5fcac6	0.013659185
69	0x3d7160a9	0.058930073
70	0xbd5f0998	-0.05445251
71	0xbc10553d	-0.008809385
72	0xbdb1252c	-0.08649668
73	0xbbffdd7e	-0.0078083863
74	0xbd225893	-0.039635252
75	0xbd1b3912	-0.037896223
76	0xbd28ce99	-0.041212652
77	0x3d44ff21	0.048094872
78	0x3d1e0f5d	0.03858887
79	0x3dd7cff8	0.10537714
80	0xbd4117a0	-0.04714167
81	0xbd1ee7c8	-0.038795263
82	0x3db7db2e	0.08977352
83	0x3d629c4d	0.05532484
84	0xbdd09dee	-0.10186373
85	0xbdb4f02a	-0.0883487
86	0xbd30d9e3	-0.043176543
87	0x3dd23499	0.102639385
88	0xbd2b57b1	-0.041831676
89	0xbdc9a3fd	-0.098457314
90	0x3d06c32c	0.032900974
91	0xbdc78acc	-0.0974327
92	0x3db384d9	0.08765573
93	0xbc347881	-0.0110150585
94	0xbd1e88b6	-0.038704596
95	0xbdaa335a	-0.08310576
96	0x3d4f364d	0.050588895
97	0xbcf34379	-0.02969526
98	0x3ca1b565	0.019739816
99	0xbdac1c1e	-0.084038004
100	0x3db098eb	0.08622917
101	0x3d5f8fc5	0.05458047
102	0x3d84f13a	0.06491323
103	0xbd0f0b0e	-0.034922652
104	0x3d928081	0.071534164
105	0x3cc396d8	0.023875639
106	0xbd901c12	-0.07036604
107	0x3bc9a5cb	0.0061537973
108	0xbc9e7b15	-0.0193458
109	0xbcd014ad	-0.025400484
110	0xbdd56fdf	-0.10421728
111	0x3d614037	0.05499288
112	0xbda1396e	-0.07872282
113	0x3ddf8cb0	0.10915506
114	0x3c9eb900	0.019375324
115	0x3ce05edd	0.027388984
116	0x3cb2dbf9	0.021833407
117	0x3dc441a7	0.09582835
118	0xbdaeb262	-0.085301176
119	0xbb209509	-0.0024502894
120	0x3d94f9d1	0.07274211
121	0xbd8aaa9f	-0.06770825
122	0xbd9579b1	-0.072986014
123	0x3dca79cc	0.09886512
124	0x3dc12165	0.094301976
125	0xbcf38f4a	-0.029731411
126	0x3cf9af58	0.030479118
127	0xbd4ebefb	-0.050475102
128	0x3d33b80b	0.04387669
129	0xbdc5cbf7	-0.09658044
130	0x3c8a2c73	0.016866898
131	0x3d515660	0.051107764
132	0x3dd4a71d	0.10383437
133	0x3d015873	0.031578492
134	0xbcd56529	-0.026049213
135	0xbd0cd52c	-0.034382984
136	0x3d78f8d7	0.060784187
137	0xbce6ac73	-0.028158402
138	0x3d310472	0.04321713
139	0xbc7d3ef5	-0.015456905
140	0xbcd7307c	-0.026268236
141	0x3d1e6430	0.038669765
142	0x3d05d172	0.032670446
143	0xbca1fcf9	-0.019773947
144	0xbd92c5bd	-0.07166622
145	0x3cb2ab39	0.021810161
146	0xbd84e2d8	-0.064885795
147	0x3d11eac3	0.035624277
148	0x3dba96f8	0.09110826
149	0xbdcdc4d8	-0.100473106
150	0x3d549dd0	0.051908314
151	0xbb8ff6ed	-0.0043934495
152	0xbd9c6d61	-0.0763805
153	0xbdc20422	-0.094734445
154	0xbdd5d4d7	-0.104409866
155	0xbdd92891	-0.106034406
156	0xbd8e2a55	-0.06941668
157	0x3d9d513e	0.07681511
158	0x3dc41ffd	0.09576414
159	0x3da8864b	0.08228739
160	0xbdb87ac4	-0.09007791
161	0x3d868849	0.06568963
162	0xbd81ce71	-0.06338204
163	0x3dc1642d	0.09442935
164	0x3d9903e3	0.074714445
165	0xbccec47f	-0.025240181
166	0x3d4bf8b7	0.04979774
167	0x3b8bb3a2	0.0042633573
168	0xbd3b54b5	-0.04573508
169	0xbd8ae563	-0.06782033
170	0x3cbee19f	0.023300944
171	0x3d5ce565	0.053929705
172	0x3d3d6b9d	0.046245206
173	0x3d8ab198	0.067721546
174	0xbdb3a111	-0.08770955
175	0xbd9252df	-0.07144713
176	0xb99f787d	-0.00030416614
177	0x3c4093a6	0.011753952
178	0x3d1881dd	0.037233222
179	0x3b1f88c1	0.0024342986
180	0xbca1838c	-0.019716047
181	0xbd136334	-0.03598328
182	0xbd99d342	-0.07510997
183	0xbd24ff67	-0.040282633
184	0xbd958c8c	-0.07302198
185	0x3d873c78	0.066033304
186	0x3c3156ee	0.010823948
187	0x3da96a72	0.08272256
188	0xbce4d969	-0.0279357
189	0x3d600dd2	0.05470068
190	0x3d904b98	0.07045668
191	0x3d6b0642	0.057379015
192	0xbdf0f33e	-0.11765145
193	0x3cbd80fa	0.02313279
194	0xbcac3904	-0.02102328
195	0x3d7880b5	0.06066962
196	0x3dd85f2a	0.10565026
197	0x3db35bfe	0.087577805
198	0x3b351e22	0.0027636369
199	0x3b6831e4	0.0035430128
200	0x3d8b5b73	0.06804552
201	0xbdcb78dc	-0.099351615
202	0x3d99f865	0.075180806
203	0xba903da9	-0.0011004704
204	0xbdb738be	-0.089463696
205	0x3d633254	0.05546792
206	0x3cfe99b5	0.031079153
207	0x3d254f8c	0.040359065
208	0x3d323f59	0.043517444
209	0xbd165fc9	-0.03671244
210	0x3d9b5184	0.07583907
211	0xbb8b9d91	-0.0042607267
212	0x3da62002	0.08111574
213	0x3c864985	0.016392479
214	0xbceb7fd5	-0.028747479
215	0xbcccf302	-0.025018219
216	0xbd44d110	-0.04805094
217	0x3dd43649	0.103619166
218	0xbcf22da3	-0.029562777
219	0x3d9c44ed	0.07630334
220	0x3d290beb	0.04127113
221	0xbc9ac04a	-0.018890519
222	0xbdca39e6	-0.098743245
223	0xbd78fdea	-0.060789026
224	0x3dbaf500	0.09128761
225	0xbc633a37	-0.01386886
226	0xbdeb67eb	-0.1149443
227	0x3dce7b33	0.10082092
228	0xbdf13bbe	-0.11778973
229	0x3d4a836c	0.04944174
230	0x3d0f494b	0.034982007
231	0xbddf8d40	-0.10915613
232	0x3d43e7d5	0.047828514
233	0xbde415c1	-0.11136962
234	0xbda93ffa	-0.08264156
235	0x3d64c5ff	0.055852886
236	0xbdbe2eca	-0.09286268
237	0x3dc08590	0.09400475
238	0xbda3df7e	-0.08001612
239	0x3dbf15c1	0.09330321
240	0x3d973d95	0.07384793
241	0xbdcb0821	-0.0991366
242	0x3cbd5ad1	0.023114594
243	0xbdb914f2	-0.09037198
244	0xbd62b719	-0.055350397
245	0x3c3c2288	0.011482842
246	0x3da327ab	0.079665504
247	0x3d89ee7e	0.06734942
248	0xbd4bf678	-0.049795598
249	0xbd30f4ec	-0.043202326
250	0xbdbb3dee	-0.091426715
251	0x3db35707	0.087568335
252	0x3dd5b1b1	0.104342826
253	0xbd8af903	-0.067857765
254	0x3d41f1d3	0.047349762
255	0xbdba50fc	-0.09097478
