pengujian_split_data/80-20/vim_model_0.pth (torch, 611374 bytes, 71 tensors)

cls_token f4 [1, 1, 64]
000000 e3 ee 21 bf cf b4 6d 3e db 65 d4 be 33 b7 eb 3e
       -0.6325514 0.23213504 -0.4148396 0.46038207
000010 54 49 8c bf ee 0b 60 bf d4 ae 12 bf af ce 74 3f
       -1.0959878 -0.87518203 -0.57298017 0.95627874
000020 44 db 8b 3e f6 e7 28 bf 23 d0 37 bf 89 d0 e0 3f
       0.27315724 -0.65978944 -0.71801966 1.756364
000030 fa fd 2a bf 79 e1 30 bf ae 81 e5 3e 26 15 09 bf
       -0.6679379 -0.69094044 0.448255 -0.53547895
000040 70 00 d2 3e a2 ac c9 bd 9d 97 36 3c 5e 79 04 bf
       0.4101596 -0.0984738 0.011144546 -0.5174769
000050 a8 a7 ee bf f9 f4 03 40 78 13 9c be 80 e2 f0 3e
       -1.8644915 2.061827 -0.30483603 0.47047806
000060 5f b7 84 3e c6 1d d7 be eb 3c ee be 35 fe 02 c0
       0.2592115 -0.42014903 -0.46530852 -2.0467656
000070 eb 56 09 bf 18 dc 46 bf 5d e9 54 3f c1 35 d2 3f
       -0.5364825 -0.77679586 0.83168584 1.6422654
000080 49 43 b4 bf 25 13 57 3f 65 70 47 bf 28 24 8f 3c
       -1.4083034 0.8401359 -0.77905875 0.017473295
000090 85 fc 93 3f e6 40 6e 3e 32 65 51 bf c1 7d 00 40
       1.1561438 0.23266944 -0.81795037 2.0076754
0000a0 2b dc cf 3f 93 cc 91 3f 2c 8c 46 be bc 0b 2c 3e
       1.6239065 1.1390556 -0.19389409 0.16801351
0000b0 e9 b2 94 3f 9d 03 bb bf 72 cb 57 bf 23 2d bd bf
       1.1617099 -1.4610478 -0.8429481 -1.47794
0000c0 54 66 17 3e 4b 8e e4 3c c8 c1 94 bf 33 4c 7e be
       0.14785129 0.027899882 -1.1621637 -0.24833755
0000d0 40 f9 68 3f cb 81 91 3f 9e 57 10 bf 3a 88 b4 3f
       0.91005325 1.1367735 -0.56383693 1.4104073
0000e0 98 70 a2 be e9 1b dd 3f 29 80 44 3e e5 09 42 bd
       -0.31726527 1.7274143 0.19189514 -0.047372717
0000f0 67 31 17 c0 89 87 ca 3f d8 a9 16 c0 fd a5 19 bd
       -2.3623903 1.5822612 -2.3541164 -0.037511814

to_patch_embedding.1.weight f4 [64, 169]
000000 8c 9b 96 ba 4e bc 61 bc a3 7c 77 3d c2 c0 9b bd
       -0.0011490448 -0.0137778055 0.060421597 -0.07605125
000010 88 73 5f bd d7 3f 7a 3c c2 bc 3c 3d 4a 3d cf 3c
       -0.05455354 0.01527401 0.04607845 0.02529778
000020 c5 51 a3 3c da 16 18 3d e8 5f 9c 3d 78 ab 03 bc
       0.019936452 0.037131168 0.0763548 -0.008036487
000030 98 ea 39 bc e2 5e 75 3d a7 b5 ac bc 93 53 fd bc
       -0.011347435 0.05990494 -0.021082712 -0.03092364
000040 ff 96 d4 bc 5b 47 c5 3c bb 1b fb bc 32 49 96 3d
       -0.025950907 0.024081877 -0.030652871 0.0733818
000050 9d 55 c6 bc 23 bf 43 bd 1c 6a 8a bd 80 7a 4c 3d
       -0.024210745 -0.047789704 -0.0675852 0.049921513
000060 79 08 24 3c d3 26 27 3d 44 95 15 3d 34 3f 91 bd
       0.010011786 0.04080851 0.036519304 -0.07092133
000070 6c 45 44 bd 6f e4 b2 3b 69 78 91 3d ac 4f 4b bc
       -0.04791777 0.0054593603 0.071030445 -0.012409132
000080 f8 ce 28 3d c4 c4 71 bd 6b 30 b2 bb 57 d1 83 3c
       0.041213006 -0.05902554 -0.005437901 0.016091032
000090 fc 08 31 bc 69 d2 cd 3c 8b 21 70 bd 3f 77 bc bc
       -0.010805365 0.025124745 -0.05862574 -0.02300608
0000a0 91 c6 6c bd e5 36 83 3d 4a 42 55 bd 30 8a ae bc
       -0.057806555 0.06406955 -0.05206517 -0.021306127
0000b0 2f 0a 99 3d 4e 59 08 bd 52 f0 af 3c 35 86 77 3d
       0.074726455 -0.033288293 0.021476898 0.060430724
0000c0 6b db 2f bd 67 30 1b bc e2 5a 8e bd fb ea 59 3d
       -0.042933863 -0.009471989 -0.06950928 0.05320261
0000d0 fd fe 7c bd b0 29 87 bd 2d f7 e4 bc 12 82 24 bc
       -0.061766613 -0.06599748 -0.027949894 -0.010040777
0000e0 21 93 30 bd e8 c7 86 bd fd f5 82 3d dd 06 88 3d
       -0.043109063 -0.06581098 0.06394575 0.06641934
0000f0 e2 0a a1 bd ef 06 94 bc 67 b4 b4 3c ce 14 4b 3d
       -0.07863404 -0.018069712 0.022058679 0.049580388
000100 4f 81 64 3c 17 86 e1 3b 39 2d 9e 3c f1 02 7d bd
       0.013946845 0.00688244 0.019308673 -0.061770383
000110 9f c9 82 3c 6f 43 ad ba 72 46 32 bd 74 2a 53 3d
       0.015965281 -0.0013218949 -0.043524213 0.05155416
000120 dc 6f 0c bd 20 77 0d 3d 1d 93 21 3a cc 5a 41 bd
       -0.034286365 0.034537435 0.0006163584 -0.04720573
000130 1c b7 75 3a 27 7e 73 3d 30 51 ad bb cb 98 99 3d
       0.0009373294 0.05944648 -0.0052892193 0.07499846
000140 cb 97 a2 3d c3 df 22 3d da ee 39 3d 11 f4 45 bd
       0.079391085 0.039764177 0.045393802 -0.048328463
000150 2e 6d 99 3d 8d 4d 9e 3c 6d 1d 7e bc 30 89 3b bd
       0.074915275 0.019324088 -0.015509945 -0.04578513
000160 2d a8 26 bd 17 6a 90 3d 6a d9 8f bb 6c bb cc bb
       -0.04068773 0.07051485 -0.0043899314 -0.0062479284
000170 86 49 3b 3d 09 73 11 b7 58 4b 7c bd b0 ce 50 3d
       0.045724414 -8.669457e-06 -0.06159529 0.050978363
000180 09 40 8c 3d 9e cd 45 3d 7c 6d c6 3c 10 bc 1f 3c
       0.06848151 0.048291795 0.024222128 0.009749427
000190 c4 a3 ae 3c 83 15 fe 3c e5 bc 46 3d a7 ed c2 bc
       0.021318324 0.031016117 0.048519988 -0.023794962
0001a0 b6 fe 74 bd a2 0b 43 bc d4 e6 f1 bc eb ca 2f bd
       -0.059813224 -0.011904629 -0.029529013 -0.042918127
0001b0 9f 1e 34 bd 1a ea 74 bd 19 d2 6c 3d 53 8c 56 3c
       -0.043974515 -0.05979357 0.057817552 0.013094979
0001c0 c7 aa 44 3d b0 de a3 bc 0f 08 74 3b 1a 1b 3a 3d
       0.04801443 -0.020003647 0.0037236249 0.045436002
0001d0 4d ba 0a 3c f0 a6 43 bd e5 ba 46 3c 89 56 ef bc
       0.008467269 -0.047766626 0.01212952 -0.029216068
0001e0 70 69 ea bc 3b 03 8e bc d3 6a 39 bd 31 5c ab 3c
       -0.02861473 -0.017335525 -0.04526789 0.020917984
0001f0 e8 71 8d 3d d1 4e 33 bd 44 4b 8f 3d 7a 3e 12 3d
       0.069064915 -0.043776337 0.06996778 0.035704114
000200 c4 55 9b bc 48 a1 3e 3d 41 f8 56 3d 89 e6 7e bd
       -0.018961795 0.04654053 0.052482847 -0.062231574
000210 aa 19 c2 3c 18 12 af bb 51 64 3a bd 44 35 81 bc
       0.023693878 -0.005342733 -0.045505825 -0.01577247
000220 74 7e 89 3d b4 0c c5 3b bf 7a ca bc 6e 4f ff 3c
       0.06713572 0.006013477 -0.024716733 0.031165805
000230 59 6d ad bc 2c 0c 02 bd a5 4a 3c bd 2c f0 1a 3c
       -0.021170305 -0.03174989 -0.045969624 0.0094566755
000240 5e b9 bc bc 19 4c b8 bc 42 b1 45 bd 77 76 25 3d
       -0.023037609 -0.022497224 -0.04826475 0.04039618
000250 e2 66 5c bd 98 32 a9 bc 40 be ad 3c bc 45 f9 bc
       -0.053809054 -0.020654008 0.021208882 -0.03042876
000260 1d 57 e7 3c ed ac 38 3d cd 79 88 3d 87 0f 20 bc
       0.028239781 0.04508679 0.06663857 -0.009769327
000270 51 c1 27 bd 56 36 49 3d 0a 0f 77 3d 87 c4 8c 3d
       -0.040955845 0.049124084 0.060317077 0.06873422
000280 ce db 25 bd e4 bf 31 3d ff 27 ba bc bd 22 24 3d
       -0.040492825 0.04339589 -0.02272415 0.04007219
000290 c1 11 ff 3c e9 c7 f2 bc ff a9 85 3d 56 73 74 3c
       0.031136395 -0.02963634 0.06526565 0.014920076
0002a0 30 ce 8b bd 0a dc 83 3b 37 32 3e bc 33 9d 2f 3d
       -0.068264365 0.0040240334 -0.011608652 0.042874526
0002b0 db c6 14 bd ef 93 33 3c e2 52 e0 3c 51 fe 6f 3c
       -0.036322456 0.010960563 0.027383272 0.014648036
0002c0 d0 9d 65 bd 4c ff 89 bc 41 41 c4 3c c8 f6 da bc
       -0.056058705 -0.016845368 0.023956897 -0.026729003
0002d0 13 ab 74 3c c6 52 e9 bc 67 63 21 3b 93 dd f8 3c
       0.014933365 -0.028481852 0.0024625899 0.030379092
0002e0 e9 d4 62 bc b2 7d 69 3d e7 14 90 3c c4 b6 23 3d
       -0.013844707 0.057004638 0.017588092 0.03996922
0002f0 29 8c 2c 3d 9c 8c 2f bd ac 75 70 bd a5 21 55 3d
       0.042125855 -0.042858705 -0.05870597 0.05203404
000300 96 28 50 bd ca dd 5e 3c 42 ae 6c 3d 39 30 75 bd
       -0.050819956 0.013602683 0.057783373 -0.05986044
000310 4e 90 88 3c c6 02 58 bb 36 1d 57 bc 35 a6 82 3d
       0.016670372 -0.0032960637 -0.013129523 0.06379358
000320 33 ef 36 3d e0 08 68 3c f8 e1 b6 bd fe 95 08 bd
       0.044661712 0.014162272 -0.08929819 -0.03334617
000330 72 99 1c bd c9 ce 11 bd c5 4a 65 3d 11 65 0b bd
       -0.038232274 -0.035597596 0.05597951 -0.03403193
000340 e8 1f 68 bd c4 d9 48 3a ba 78 da bc 07 ff ba 3c
       -0.056671053 0.0007661844 -0.026668895 0.022826685
000350 8e 7a d6 3c 70 1d 99 bd 99 87 5c 3d bd 34 76 3a
       0.026181486 -0.07476318 0.053840254 0.0009392014
000360 b9 e0 0f bc 27 f5 1d bd 00 51 7b bb fa 1d 03 3d
       -0.008781605 -0.038563874 -0.003834784 0.03201101
000370 e5 6d e2 3c 07 a9 f0 bc 3b 1c 87 bd 4b 09 d3 bc
       0.027640292 -0.029377474 -0.065971814 -0.025761267
000380 35 78 64 bc 92 5e 05 3d a4 d5 65 3c 40 87 6d bd
       -0.013944675 0.032560892 0.014027987 -0.057990313
000390 24 f5 81 bd 3e 46 8e 3d d8 d4 41 3c 58 e4 a1 3c
       -0.06345585 0.069469914 0.011830531 0.019762203
0003a0 28 52 9e bc 48 c9 2e 3d 34 9d 9b 3d 17 dc 28 bd
       -0.019326285 0.042672426 0.075983435 -0.04122552
0003b0 eb b4 db bc 01 f0 43 3d 5d 56 19 bc 17 93 0d 3d
       -0.026819667 0.047836307 -0.0093589695 0.034564104
0003c0 e1 24 fb ba 3e 47 f0 bc 82 66 1f 3d ac 4f 82 3d
       -0.0019160771 -0.029330846 0.03891612 0.063628525
0003d0 35 d5 6c 3c eb 61 81 3d 8c 37 6a bd 87 06 71 bd
       0.014455129 0.063175045 -0.05718188 -0.058844116
0003e0 75 d1 6d bd ea dd 3c 3d ea 80 fa bc 4f 22 9b 3c
       -0.058061082 0.04611007 -0.03057905 0.018937258
0003f0 f0 a0 de 3c f4 9d a3 3d 12 c2 c6 3c 0f b5 83 3d
       0.02717635 0.079891115 0.024262462 0.064310186

to_patch_embedding.1.bias f4 [64]
000000 c0 26 02 3d 45 59 9a 3d 08 23 76 bc a6 d3 1d 3d
       0.031775236 0.07536558 -0.015023001 0.03853192
000010 e1 4f 56 3d 84 92 16 bc 81 7e e4 bc e8 0a e6 3b
       0.052322272 -0.0091902055 -0.027892353 0.007020343
000020 38 bf 57 bd 5e 08 8d bc 16 24 8d bc 7f 76 1a bd
       -0.052672595 -0.017215904 -0.017229121 -0.037710663
000030 fe a9 53 bd 21 9d 4d bd 77 01 a1 bb 3b 3b 15 3d
       -0.05167579 -0.050198678 -0.0049135047 0.03643344
000040 77 c2 a2 3c 95 f4 2c 3c 07 10 54 bd 0a 5b 48 3d
       0.019868119 0.01055636 -0.051773097 0.048914947
000050 99 8e 91 3c c8 b1 9a 3d 1b c6 83 3b 34 48 13 3d
       0.017768191 0.0755344 0.0040214187 0.03595753
000060 4b c0 27 3d b5 46 1e 3d c4 9f 33 3d 6d 19 29 bd
       0.04095487 0.03864165 0.043853536 -0.041284014
000070 9d 56 ff 3c 15 e9 93 bb 3c 62 fe 3b d9 fe 92 bd
       0.03116923 -0.0045138695 0.0077631753 -0.071775146
000080 22 b5 74 3c 7a f2 69 3d 0e ee 07 bd 1e 56 32 bb
       0.014935764 0.05711601 -0.03318601 -0.0027211974
000090 90 e2 aa bc c8 c4 c1 bc 09 7f e5 3b 57 c6 65 3a
       -0.020859987 -0.023653403 0.007003669 0.00087652117
0000a0 58 49 f7 3c 27 3b 64 3d 67 5f d6 bb 82 93 95 3d
       0.03018634 0.055720475 -0.0065421346 0.073035255
0000b0 d2 f8 53 bc 67 6e fa bb c8 64 5f bc 39 cc 53 3c
       -0.012937741 -0.0076425555 -0.013634868 0.012927108
0000c0 e6 a8 9c 3d 79 0f 04 3c f6 27 d2 bc 0a ca 8f 3a
       0.07649402 0.00806033 -0.02565382 0.0010970247
0000d0 98 1f b5 3c 3e 18 7b bb 13 b5 86 3c e8 f2 07 bd
       0.022109792 -0.003831401 0.016443765 -0.033190638
0000e0 98 6c 12 3c 1c 2d c6 3c c1 42 82 3d c5 6a 64 3c
       0.008937024 0.024191432 0.063603885 0.013941471
0000f0 44 8a 72 3d 38 e9 17 3d 14 32 46 3d 98 54 19 3c
       0.05921389 0.03708765 0.048387602 0.009358548

layers.0.forward_conv1d.weight f4 [64, 64, 1]
000000 57 ab b6 bd bc d2 e1 bb 27 3b 13 bc d5 55 81 3d
       -0.08919399 -0.0068915766 -0.008986271 0.06315199
000010 21 e7 b9 3d 11 9d 75 3d 58 57 bd 3d 65 6b 7b 3d
       0.090772875 0.059964243 0.09245175 0.061381716
000020 a6 2c 80 3d a7 57 7a 3d 77 e7 cd 3b 23 f5 8a 3d
       0.06258516 0.061118748 0.0062836963 0.06785037
000030 f5 8a 4e bd 58 d2 9f bd 29 79 61 3b 04 c6 ae 3d
       -0.05042549 -0.07803792 0.0034404492 0.08533862
000040 6b 89 85 bd f6 10 44 bb 20 4f 94 bd c1 1f 8d bd
       -0.06520351 -0.0029917336 -0.072416544 -0.06890822
000050 31 14 e7 bc 38 70 4c bd 8a 81 88 bd cf f2 1a bc
       -0.02820787 -0.049911708 -0.066653326 -0.009457304
000060 db a1 8b bc 52 17 ba 3d a3 2a 4a bd 44 59 8c bb
       -0.017044952 0.09086479 -0.049357068 -0.004283102
000070 f0 cf 0b bd df d3 40 bd 33 80 1c 3d 21 44 af bc
       -0.03413385 -0.047077056 0.038208198 -0.021394791
000080 51 fd 27 ba 02 35 41 bd 95 11 1a bd 90 79 16 bc
       -0.00064082915 -0.047169693 -0.037614424 -0.009184256
000090 0e b6 2f 3d e4 bd ca bd 9c 33 54 3c b4 21 8c 3d
       0.04289823 -0.098995 0.012951758 0.06842366
0000a0 33 24 b8 3c 42 e7 a7 bc e2 be 85 3b 36 a2 2b 3d
       0.022478199 -0.020496015 0.004081593 0.041902743
0000b0 30 b3 9b 3d 18 d2 2a 3c 6c a7 3d bd b1 9a ad bd
       0.07602537 0.010426067 -0.046302244 -0.08476771
0000c0 8d 04 8e 3d 82 b7 c2 3d 2a fc af 3d f2 4f 76 3b
       0.06934462 0.095076576 0.08593018 0.0037584272
0000d0 a5 8c 69 3d 3c 45 8f bd c2 31 6e bb 78 43 3b 3d
       0.057018895 -0.06995627 -0.0036345576 0.04571864
0000e0 8e 25 37 3d 0a 6c 9e bd 06 7a 31 3d 51 b7 17 bd
       0.04471355 -0.077354506 0.04332926 -0.03704006
0000f0 33 c2 2a 3d d4 8e 97 bc ec b7 aa bd 44 45 dc 3c
       0.04168911 -0.018500723 -0.083358616 0.026888497
000100 e2 ea 93 bd 7e b4 aa bc 19 6a 8f bd dd b8 06 3d
       -0.07222535 -0.020838019 -0.070026584 0.032891143
000110 64 32 41 3d 29 e6 a3 bd ed c2 8d 3d 90 99 33 3c
       0.047167197 -0.08002884 0.06921945 0.010961905
000120 1e 6f b0 bd c8 d9 06 bd df e4 89 3d 99 23 64 3c
       -0.08614944 -0.032922536 0.06733107 0.013924503
000130 e3 7e 17 bd bf 76 85 3d a7 a8 c4 bc 3f 47 2c 3a
       -0.036986243 0.0651679 -0.024006201 0.0006571896
000140 6c 8d 8a 3d f1 f7 03 bd cc 79 91 bc 3c 5b ec bc
       0.06765255 -0.032218877 -0.017758273 -0.028852098
000150 f3 cf 89 3d 2d ec 33 bd c6 da 37 3d 90 e5 68 bd
       0.06729116 -0.043926407 0.044886373 -0.056859553
000160 10 35 fd bb c1 2e 5b 3d 6e 0b 61 3d 05 f4 79 bd
       -0.007727273 0.053511385 0.05494254 -0.06102373
000170 b6 36 53 3c 0a 1e 8b 3d 80 0f ab bc 4f 8e d0 bb
       0.012891462 0.06792839 -0.020881414 -0.0063646208
000180 b3 7f de 3c b9 f1 10 bd 2b 83 d8 3c e4 f9 7a 3d
       0.027160501 -0.035386775 0.026429733 0.06127347
000190 7d 92 05 bd bc bd 8d bc 51 19 31 bc b4 dd a3 3c
       -0.032610405 -0.017302386 -0.010809259 0.020003177
0001a0 2e 9f f9 3c 83 de b7 bc 17 25 c1 bb 49 95 65 3c
       0.03047141 -0.022444969 -0.005894314 0.014012643
0001b0 bd 4d 42 3d 8d e4 84 3c 8f 8d 25 3c 0b 2a 4d bd
       0.04743742 0.016222263 0.010104551 -0.050088923
0001c0 4b 4e 97 3c 7d 2f 9c bd 17 53 37 3d db 7c 97 3c
       0.01846995 -0.07626245 0.044756975 0.018492153
0001d0 56 e7 84 3d 99 d0 5a 3d ec f6 3d 3c 52 1d b0 bb
       0.06489436 0.05342159 0.011594515 -0.005374589
0001e0 76 13 44 bd 8f 52 9c 3d c7 49 b0 bc 9d ba 6c 3d
       -0.047870122 0.07632934 -0.021519555 0.057795156
0001f0 d4 64 a0 3d b1 2e c4 3d 7f 99 72 3c b5 d5 ce 3c
       0.078317314 0.09579218 0.014807104 0.025248388
000200 ef 4a 62 3b c7 59 3c 3c bc 0c 52 bd 06 48 f6 bc
       0.0034529527 0.011496014 -0.051281676 -0.03006364
000210 09 3d 67 bd 03 5b e0 bc 53 31 d4 3c 1f 10 1f 3c
       -0.056454692 -0.027387148 0.025902426 0.009708433
000220 51 18 4b bc 1b 54 bf 3c 92 d3 d1 3c d1 ca 26 bc
       -0.012395934 0.023355534 0.02561358 -0.010180191
000230 54 99 2d bb 92 3d 2c bd 90 07 2e 3d 40 d0 e3 3c
       -0.0026489096 -0.042050906 0.04248768 0.027809262
000240 c0 65 87 bc 52 5b 27 bb 6c 04 90 3d ff 5c ed 3c
       -0.01652801 -0.002553661 0.070320934 0.028975008
000250 ac 38 a0 bc 7d de 2c 3d 14 08 df 3c cf 1f 87 3c
       -0.019558273 0.04220437 0.027225532 0.01649466
000260 ce dc 25 bc 64 2e a6 bc c2 15 08 3d 8b 57 9f bd
       -0.010123445 -0.020285793 0.033223875 -0.07780369
000270 53 77 16 3c 60 88 36 ba 73 52 2b bd 52 f4 cb 3c
       0.009183723 -0.00069630705 -0.041826677 0.024896774
000280 e1 ce 2a 3d 5f 96 93 3c d2 3e f7 bc e6 83 15 bc
       0.0417012 0.018016038 -0.030181322 -0.009125685
000290 4e 0e 0a 3c ee 3e e7 3c 85 7c a6 3c 5b e6 49 bc
       0.008426262 0.02822825 0.020323047 -0.012322987
0002a0 d5 34 e8 3b 5d 7d 2c 3d 57 14 9f bc 14 e7 90 3c
       0.007086376 0.042111743 -0.019418878 0.017688312
0002b0 b1 c0 0d bd b6 11 e8 3a 24 8f 2f bd 4d 7c 40 3c
       -0.034607593 0.0017705474 -0.04286112 0.011748386
0002c0 16 41 08 3c df 14 b5 bc e9 81 3f bb 5f d3 25 3d
       0.008316299 -0.022104679 -0.002922172 0.040484782
0002d0 6e a1 7d bd 8b 17 0d bd 60 4c 50 ba f3 c6 4a 3d
       -0.06192153 -0.03444628 -0.0007945951 0.04950614
0002e0 10 2c 05 bc d9 da 81 3c 92 13 86 3d 82 58 2a 3d
       -0.008128181 0.015851425 0.065467015 0.041588314
0002f0 4b 36 5e bc f6 c2 f7 bc f4 03 a5 bd a7 34 9c bc
       -0.013562749 -0.030244332 -0.080573946 -0.019068075
000300 b3 84 9b bd ca 84 a4 bd 7e d4 4a bd c3 b1 05 3d
       -0.0759367 -0.0803314 -0.049519055 0.03264023
000310 c9 31 55 bd 85 1c 34 3d a2 e3 8f 3d e4 f2 0d 3d
       -0.052049432 0.04397251 0.070258394 0.034655467
000320 a5 38 60 bd df 41 28 3d 98 a7 8a bd a6 47 43 bd
       -0.05474152 0.041078445 -0.06770247 -0.04767575
000330 df 12 ac bd 81 fe c8 3d 1f 85 72 bd 7b bc dd bd
       -0.08402037 0.09814168 -0.059208985 -0.108269654
000340 b3 eb 4c bd 21 0d 95 bd aa a8 ef 3c f9 61 86 3d
       -0.050029468 -0.07277895 0.02925523 0.065616556
000350 bc 77 f2 3c 1b 22 a9 bd 07 ad 8a 3d bb 70 b9 bd
       0.02959811 -0.08258458 0.067712836 -0.09054705
000360 50 79 0a 3c b4 e2 47 bd e9 17 f3 bc 44 80 78 3d
       0.008451775 -0.048800185 -0.029674487 0.0606692
000370 80 09 6a bd aa 2e 8c bd 5e 9f c5 bd 78 60 d7 bd
       -0.057137966 -0.06844838 -0.096495375 -0.10516447
000380 a7 2c a7 3c 36 ad c0 bd e0 7e 67 3c f1 6e 89 3c
       0.020407034 -0.09408037 0.01412937 0.016776534
000390 79 4a 32 bb 39 58 f2 bc 06 bb 4b bd 2c 06 df 3c
       -0.0027205034 -0.029583083 -0.049738906 0.027224623
0003a0 82 5b 8d bd eb 09 33 bc 7b d1 26 bc f2 f9 b1 bc
       -0.06902219 -0.010927658 -0.01018178 -0.021725629
0003b0 04 d6 fa 3c 1f 1b 0f bd 87 cb 8b 3d 09 36 fc bc
       0.030619629 -0.034937974 0.06825929 -0.030787485
0003c0 29 02 ca 3c c0 e2 db bd 73 23 24 bc f5 c3 ae bd
       0.024659233 -0.107366085 -0.010018217 -0.085334696
0003d0 c5 30 ae bd b5 8e cb bd 7b a4 30 3d f0 42 84 3d
       -0.08505396 -0.099393286 0.04312561 0.0645808
0003e0 ab f1 4c bd 1a 35 98 3d 44 05 12 bb 42 f2 a4 3a
       -0.05003516 0.07432003 -0.002228097 0.0012584405
0003f0 09 00 a0 3d 93 f0 36 3d 4c 0e e6 bc 8e c8 ab 3d
       0.07812507 0.044663023 -0.02808299 0.08387862

layers.0.forward_conv1d.bias f4 [64]
000000 85 a6 d6 bd 5d af de b9 b8 df ba bd c1 bb 9e 3d
       -0.1048098 -0.00042473795 -0.09124702 0.07750655
000010 71 96 b6 3d 1a 25 84 bd 56 44 6a 3d 41 d5 2f bd
       0.08915413 -0.06452389 0.057194076 -0.042927984
000020 a5 a7 0b bc ac be e2 bd b4 7e e4 3d 40 30 b6 bd
       -0.008523856 -0.11071524 0.11156979 -0.08895922
000030 fe 86 c0 bd 06 be c8 bd e0 c8 86 bd 18 36 d3 3c
       -0.09400748 -0.09801869 -0.065812826 0.02578263
000040 1c 90 c8 3d 1f a5 35 bd 9f 9d b4 bd 93 ae 4a 3b
       0.09793112 -0.044346925 -0.08819126 0.0030926808
000050 35 dc e6 bd 48 52 90 bd d4 15 ab 3d ea 7d 44 3d
       -0.1127247 -0.07046944 0.08353773 0.047971644
000060 cc 6c 40 bd 93 69 9a 3d 87 2c ab 3d df b3 98 bd
       -0.046978757 0.07539668 0.08358102 -0.07456183
000070 c0 13 91 3b 5c d0 aa 3d df ab 10 3c 75 f0 da 3d
       0.004427403 0.08340523 0.00883004 0.10690395
000080 41 20 e7 39 0d e8 a6 3d c2 d8 b8 bd 64 c3 88 bd
       0.00044083784 0.08149729 -0.09025718 -0.06677893
000090 b2 e9 97 bd 9b f8 9a bd 2e 25 98 bd 95 51 6d ba
       -0.07417621 -0.07566949 -0.074289665 -0.0009052989
0000a0 71 7e 5b 3c 92 d9 ae 3d 61 e6 fe 3b 4a c0 7e bd
       0.013396845 0.08537592 0.007778928 -0.0621951
0000b0 57 34 2c 3d 34 26 fc bc 7d f4 30 bd 98 d5 5b 3d
       0.042042103 -0.030779935 -0.043201912 0.053670496
0000c0 ef 2e 69 bc d3 25 7d 3d 17 73 99 bd 39 fd d3 bd
       -0.014232381 0.06180365 -0.07492655 -0.10351033
0000d0 66 b9 93 bd 9d 57 5e bd b2 da 9d bc 82 e0 12 3d
       -0.07213096 -0.054282773 -0.019269321 0.03585864
0000e0 6e 3e e4 3d d7 46 82 3d 72 34 b5 bd 3f 60 4b bd
       0.1114472 0.06361168 -0.08847894 -0.049652334
0000f0 3d 36 72 bd 00 26 81 3d 70 1f f6 3d 55 47 6b bb
       -0.059133757 0.06306076 0.12017715 -0.0035900672

layers.0.backward_conv1d.weight f4 [64, 64, 1]
000000 a2 47 9d bd 85 e1 5c 3d c4 5c 9d bd ef b2 7a bc
       -0.076796785 0.05392601 -0.07683709 -0.01530145
000010 dc cc 0c 3d 38 1d 97 3b 53 72 b3 bd 13 6b 4d 3c
       0.034375057 0.0046116374 -0.0876204 0.0125377355
000020 06 38 d1 3d 64 83 a5 3d 1d 13 9c bb c2 3d 8c 3d
       0.10215764 0.080817014 -0.0047630207 0.06847717
000030 8f d0 a4 bd 28 11 13 3d e8 03 c5 bc dc 74 24 bd
       -0.08047592 0.035905033 -0.024049714 -0.04015051
000040 30 73 4c bd 5b 5c 68 bd 09 61 d1 3d 5a 71 3b 3d
       -0.04991454 -0.056728702 0.10223586 0.045762397
000050 0f 2e 63 bc 93 78 01 bd b9 4a 17 bc 42 8f ae 3d
       -0.013865962 -0.03160913 -0.009234124 0.08523418
000060 11 c8 a9 bd 2e 67 d2 bc b1 f8 ec bb 60 58 96 bd
       -0.08290113 -0.025683966 -0.0072317948 -0.07341075
000070 41 a8 5f 3c 50 93 6b 3d 88 b3 b1 3d 69 01 68 bd
       0.013650955 0.057513535 0.08676821 -0.05664197
000080 2d 49 cf 3d e2 66 c4 3d bf ad 87 3d 02 8f 0f bc
       0.10121379 0.09589936 0.06624936 -0.008762123
000090 ba 07 28 3d 99 a1 cf bd 79 6b b7 bd 92 d6 2a bd
       0.041022994 -0.10138244 -0.08956046 -0.041708536
0000a0 22 50 9f bc 42 9c 4a bd fa 29 1b bc e7 93 90 3d
       -0.01944739 -0.049465425 -0.009470457 0.0705946
0000b0 e6 98 aa 3d db 60 20 3d 32 aa d8 bb e1 c2 5f 3d
       0.08329944 0.03915487 -0.0066120857 0.05462921
0000c0 a7 12 85 bd 5f 21 32 bd 3f 36 e0 bb 75 0c c1 bd
       -0.06497698 -0.043488856 -0.006842404 -0.09426204
0000d0 96 c1 3b 3d ef fb 4b bd b7 9b 7d bd 45 ea b2 3d
       0.045838915 -0.04980081 -0.06191608 0.087360896
0000e0 a4 36 b4 3d 6e ce 15 bd 22 fe 74 bc 26 f1 44 bd
       0.08799484 -0.03657382 -0.014953168 -0.04808154
0000f0 8d 5c 95 3d ac b9 89 bc 05 2d 62 3d 91 ee 4b 3d
       0.07293043 -0.016812168 0.055218715 0.04978806
000100 38 72 9e 3c f3 08 97 bd 81 2d a0 bc 28 48 a4 3d
       0.019341573 -0.07374754 -0.019552948 0.08021575
000110 c7 c4 2d bc c4 25 ad 3b 76 3d cd 3d f2 51 c7 bc
       -0.010605997 0.005284043 0.10021488 -0.024331067
000120 5a 48 a0 3c b5 8c 9d bb ac 1a c8 bd 24 9a 9d 3d
       0.01956575 -0.0048080334 -0.09770712 0.076954156
000130 8f 34 95 bd 70 96 51 3d ff c8 9c 3d 4d 50 a0 3d
       -0.072854154 0.05116886 0.076555245 0.07827816
000140 ee c9 6e 3d a5 40 91 3d 56 72 55 bd dc 3e 4d 3d
       0.058298044 0.07092408 -0.052110992 0.050108775
000150 97 58 9e bd a5 e4 77 3d 1d 3e 4f bd b7 6e d3 bd
       -0.07731741 0.060520787 -0.050596345 -0.103238516
000160 a1 2a 95 3d 7e ae 1f 3b e0 e4 40 3b a2 c2 90 3c
       0.072835214 0.002436548 0.0029433295 0.017670933
000170 fd af 98 3d 2c b9 14 bd c2 53 6a 3d 3a 8a 6d 3d
       0.07455442 -0.036309406 0.057208784 0.05799315
000180 b8 84 e6 3b a5 e3 d3 bb d4 46 33 3d 55 72 88 bc
       0.0070348643 -0.0064663463 0.04376872 -0.01665608
000190 82 ea d2 bc ee 53 2f bd 2f f4 bc bd 88 59 04 3d
       -0.025746588 -0.04280465 -0.09226262 0.032311946
0001a0 04 30 56 3d fa 75 17 bd ee cd 3a 3c c1 0b 4e 3c
       0.052291885 -0.036977746 0.0114016365 0.012576045
0001b0 16 58 bf bd c9 1d 7d bc 51 cc 89 bc dd bc b6 3d
       -0.09342973 -0.015448996 -0.016821058 0.089227416
0001c0 18 50 9d 3d 77 36 55 3c 84 4e d6 bd ac a0 c7 3d
       0.07681292 0.013013474 -0.104641944 0.097474426
0001d0 a4 7a 54 3d a3 3e 9c bd fa 8b 3d bd a8 50 b3 3d
       0.05187477 -0.076291345 -0.04627607 0.08755618
0001e0 82 6b bb bd 24 87 3c bd 51 cd a3 bc f3 db 61 bd
       -0.09151365 -0.046027318 -0.019995363 -0.0551414
0001f0 05 35 3c 3d 6b 29 a4 3d ae 0e 05 bd c3 a9 56 3d
       0.045949 0.08015712 -0.032484703 0.05240799
000200 3a bb 58 bc 8e 23 96 3c cd 27 f6 3a 09 07 59 bd
       -0.013228232 0.0183275 0.0018780172 -0.052985225
000210 57 78 0f 3c 01 c9 fd bb a8 a4 95 3c b4 61 47 bb
       0.008756719 -0.007744909 0.01826699 -0.0030423226
000220 aa d1 41 3c ff 6b cd bb 3b 43 95 39 53 0b 1c bc
       0.011829773 -0.0062689777 0.00028469585 -0.009524184
000230 73 30 f6 bc 77 8b 26 3d 3b ae 22 3d 58 43 b3 3c
       -0.0300524 0.040660348 0.03971694 0.021882698
000240 41 6f 7f bb f6 de 3f 3c 54 1f 44 bd e7 bb 74 3c
       -0.0038976225 0.011710873 -0.04788144 0.014937378
000250 c1 1c 4d 3d e4 25 64 bd ad e3 f7 3b a1 59 93 3c
       0.05007625 -0.055700198 0.007564983 0.017987074
000260 1f 7f 1f 3d 87 a1 a4 3b 63 60 15 bb 9d 70 59 3c
       0.03893959 0.0050241384 -0.0022793047 0.013271478
000270 b9 c8 5c 3d ea 45 c7 3c 43 5b 7f 3d b2 41 d1 3c
       0.05390236 0.02432533 0.062342893 0.025544021
000280 1d 60 94 3c d6 e3 00 bd 59 26 4d 3b 43 fd 3f 3c
       0.018112237 -0.03146728 0.0031303375 0.011718097
000290 10 07 20 3d 18 d6 52 bd 50 c9 67 bc 26 ee 50 3d
       0.039069235 -0.051473707 -0.014147118 0.051008366
0002a0 6c 14 99 3b 66 fe c4 3c c1 4d a5 bc 81 b6 45 bd
       0.004671624 0.024047088 -0.020178678 -0.048269752
0002b0 de ee 2f 3b ae c3 db 3b d2 11 ef bc 8e 96 70 bc
       0.0026845257 0.0067066764 -0.029183302 -0.014684333
0002c0 fd e0 72 bc 9a 5c 05 bd 82 f0 5b 3c 17 b0 41 bd
       -0.014824149 -0.032559015 0.013424041 -0.047287073
0002d0 2a 80 7e bd 1c ab 11 3d dd 57 83 bd 29 db 43 bb
       -0.062133946 0.035563573 -0.06413243 -0.0029885268
0002e0 b8 80 da 3c 4a ec 92 3c 35 3d bf bc 38 2d 33 3d
       0.026672706 0.017934937 -0.023344615 0.043744296
0002f0 3d df 12 3d 08 ff 49 bd b7 7c 6e 3d 9f e8 80 3d
       0.035857428 -0.049315482 0.058224406 0.06294369
000300 35 7d cc bc 56 4d 30 ba cd 25 31 3c 37 34 a2 3c
       -0.024962047 -0.0006725391 0.010812235 0.019800289
000310 6f bc 96 3d 23 c3 bd bc 0b ae 1c 3d f8 48 ac 3d
       0.073601596 -0.023164338 0.038251918 0.08412355
000320 47 5c b6 bd e6 2d 8a 3b 96 72 e3 bb 76 ac 40 3c
       -0.08904319 0.0042168973 -0.00694115 0.011759868
000330 16 f3 e1 3d 23 57 06 3d 0c 90 b6 bd f7 5b a8 bc
       0.11032693 0.032797944 -0.089141935 -0.020551665
000340 c1 74 af 3d a3 f6 2e bd 05 9e 90 3d 93 d7 97 bd
       0.08567191 -0.04271568 0.0706139 -0.074141644
000350 98 13 81 bd 51 95 af bb 37 81 07 bd 96 25 22 3d
       -0.06302565 -0.005358376 -0.033082213 0.039586626
000360 55 dd e8 3c ea 3e 86 3d 88 78 c9 3d fe 77 a1 bc
       0.028425852 0.06554969 0.09837443 -0.019710537
000370 c2 a4 e9 3c 68 42 8d bd b9 0a 3c bd c3 c2 53 3d
       0.028520945 -0.068974316 -0.045908663 0.05169941
000380 2a b3 b2 bd d0 73 06 3d fb 5d be bd 63 42 46 3d
       -0.08725579 0.03282529 -0.09295269 0.048403155
000390 1d a2 58 bd 58 1a d3 bd 8d 5b 61 ba 27 4e be 3d
       -0.05288898 -0.10307759 -0.0008596711 0.0929225
0003a0 ea a3 7a 3d 6c 9a 95 3d f3 ef 78 bb 1e b0 88 bd
       0.061191477 0.07304844 -0.0037984818 -0.06674217
0003b0 41 c5 c8 bc bc ed 89 3d 4b 37 23 bb 44 71 97 bd
       -0.02450812 0.06734797 -0.0024904783 -0.073946506
0003c0 97 01 a3 bd 84 47 b4 bc 99 3f d4 bd d8 27 a4 3d
       -0.079592876 -0.022006758 -0.10363693 0.08015412
0003d0 47 e1 89 3d a2 99 cd bd 55 fc a2 3d 8a 33 1e bd
       0.06732421 -0.10039069 0.07958285 -0.03862337
0003e0 50 a3 c3 bd 86 8d 54 3d 37 2a 68 bd 26 e2 d3 3d
       -0.09552634 0.05189278 -0.056680884 0.10345869
0003f0 c7 dc 98 3c c2 65 08 3d 54 34 22 bd 12 b6 90 3d
       0.018659962 0.03330017 -0.039600685 0.07065977

layers.0.backward_conv1d.bias f4 [64]
000000 f6 a7 a4 3c 7e 46 00 bd 4d 04 03 bd 76 aa a9 bc
       0.020099621 -0.031317227 -0.031986523 -0.020711165
000010 c4 ec 6d 3d 72 be 63 bd cf 37 60 bd df fd 49 bd
       0.058087125 -0.055601545 -0.054740723 -0.049314376
000020 b0 a6 2b 3d 9d 00 a8 bd e1 05 21 bd 1f 19 2b 3d
       0.041907012 -0.08203242 -0.039312247 0.041772004
000030 ec ba bc bd fb 5a a7 bd 6b 47 aa 3d d7 4e 62 3d
       -0.0921534 -0.0817165 0.08314403 0.05525097
000040 64 f7 8c bd 1e 80 cb bc 25 0e a2 3d ae e2 7e bd
       -0.068831235 -0.024841364 0.07912854 -0.062227897
000050 9d 42 b9 3d 81 51 2b 3d 51 0d a6 3c ea 62 55 3d
       0.090459086 0.041825775 0.020270022 0.052096285
000060 b8 1c f6 3c b3 bf df 3d ee ae 93 bc 36 1e fa bb
       0.030042991 0.109252356 -0.018027749 -0.007632996
000070 c4 d2 cd 3d 80 d7 e9 3c 1d 2a 9d 3c 33 6c 6e 3d
       0.10049966 0.028545141 0.01918512 0.058208656
000080 26 8f e1 3d 33 41 a2 3d 43 95 e1 bc f7 2b cc 3d
       0.110136315 0.07922592 -0.027536994 0.09969323
000090 ae 62 c5 bc 26 18 a0 bd 0d 11 a6 bb be 93 6b 3d
       -0.024094906 -0.07817106 -0.0050679506 0.057513945
0000a0 b6 a4 c1 bc 24 06 8a 3d 3c d8 ee bc 1a 0c 03 3d
       -0.02363811 0.067394525 -0.029155843 0.031993963
0000b0 60 db cd bd 49 49 68 bd c5 c9 5a 3d 77 1c 9e 3d
       -0.10051608 -0.056710515 0.05341508 0.07720273
0000c0 89 0b 43 3d 87 14 e6 bc d9 8f 17 3d 82 29 d2 3d
       0.047618423 -0.02808596 0.03700242 0.10261823
0000d0 53 80 a5 bb 92 fd 52 bd 53 35 86 bd 11 b2 8f 3d
       -0.005050698 -0.051511355 -0.065531395 0.07016385
0000e0 62 cc aa 3d db 41 3c 3d 4e a0 a8 3b a3 83 cb 3d
       0.08339764 0.045961242 0.005146063 0.09937217
0000f0 20 d0 4c bd 6f 9e 0d 3a 71 17 88 3c 87 2c 84 bd
       -0.05000317 0.00054023316 0.01661274 -0.064538054

layers.0.norm.weight f4 [64]
000000 63 6c 71 3f e6 97 7b 3f b3 b1 78 3f db bf 71 3f
       0.9430601 0.98278654 0.9714615 0.94433373
000010 2a d0 75 3f ea ed 74 3f e9 ed 77 3f 7d e2 6b 3f
       0.9602076 0.9567553 0.968474 0.9214247
000020 49 42 73 3f 7b 2c 7a 3f de ef 6c 3f 6d 8a 74 3f
       0.9502302 0.9772412 0.9255351 0.9552372
000030 bc 4e 76 3f df 60 79 3f 27 cd 73 3f 82 57 75 3f
       0.9621389 0.9741344 0.9523491 0.9583665
000040 3c 24 75 3f be 7b 6d 3f 69 fa 77 3f a3 e6 74 3f
       0.95758414 0.9276694 0.9686647 0.95664424
000050 d5 6e 73 3f 0f 75 79 3f f9 c5 6c 3f b1 6b 71 3f
       0.9509099 0.9744424 0.9248958 0.9430495
000060 15 69 75 3f cf 4b 74 3f 8d ea 70 3f e2 a5 74 3f
       0.9586347 0.95428175 0.94107896 0.9556562
000070 c7 29 72 3f f5 0c 71 3f 41 74 75 3f 3a 27 7b 3f
       0.94595 0.94160396 0.95880514 0.9810673
000080 74 31 6a 3f a5 8d 74 3f 4c 3d 73 3f f8 c9 67 3f
       0.9148171 0.9552863 0.95015407 0.90542555
000090 ca 5d 75 3f 9e 13 78 3f 4f b8 5e 3f 92 f6 72 3f
       0.95846236 0.96904933 0.8699998 0.94907486
0000a0 81 34 6e 3f d6 45 71 3f 48 15 78 3f 13 e7 78 3f
       0.93048865 0.94247186 0.9690747 0.9722759
0000b0 53 a8 6c 3f 8e 3b 70 3f a3 cf 6f 3f ac 36 76 3f
       0.9244434 0.93840873 0.93676203 0.9617717
0000c0 f1 33 79 3f c7 7a 67 3f 84 9e 78 3f 66 f2 6f 3f
       0.9734488 0.9042172 0.97116876 0.93729246
0000d0 1c df 66 3f 8e 8d 70 3f aa ce 65 3f f4 41 73 3f
       0.9018419 0.93965995 0.8976847 0.9502251
0000e0 a7 93 71 3f d3 9e 73 3f df 52 76 3f 79 2e 70 3f
       0.94365925 0.9516422 0.962202 0.9382091
0000f0 bd 5a 7a 3f 81 cb 71 3f 1e a1 72 3f 7b 14 6f 3f
       0.97794706 0.9445115 0.94777095 0.93390626

layers.0.norm.bias f4 [64]
000000 3d 54 c5 3a a5 e1 2e bb c0 8f f4 ba c0 9e 59 3b
       0.0015055012 -0.0026684788 -0.0018658563 0.0033206195
000010 f7 4b fd ba eb 83 74 bb ca 16 e9 b9 d7 18 01 3c
       -0.0019325007 -0.0037310075 -0.00044458202 0.007879457
000020 e5 3b 0e 3c e6 fc a4 ba 87 18 b1 3b a2 d6 c3 3b
       0.008681272 -0.0012587577 0.005404535 0.005976514
000030 4c 7b 44 3c a1 a1 23 bb a6 ce 4d bb 8d d4 af ba
       0.011992287 -0.0024968165 -0.003140369 -0.0013414785
000040 be fe ab 39 98 5e e8 ba 70 8b fd 3b 90 8a 3a ba
       0.0003280546 -0.0017728386 0.0077375695 -0.00071159843
000050 ce c2 73 bb 7c 11 65 bb 17 dc 04 3c 3c 3d 9c 3a
       -0.003719497 -0.0034953048 0.008109114 0.0011920105
000060 89 b4 b3 bb 16 94 af 3a 42 49 3e bc 43 79 34 3c
       -0.005484168 0.0013395573 -0.011614146 0.011015239
000070 56 c0 a3 ba 61 21 0c 3b 1b 49 db ba 18 6e 30 bb
       -0.0012493234 0.00213822 -0.0016730161 -0.002692109
000080 df a2 67 bb 7e a8 68 ba 8e 3e a6 ba ee 3b 1c 3b
       -0.0035344881 -0.0008875205 -0.0012683438 0.0023839432
000090 5f 82 3c bb a1 71 7e b9 b0 5e e8 3b 9c 6c a9 bb
       -0.002876423 -0.00024265658 0.0070913658 -0.005170418
0000a0 eb d1 47 bb 7f ef 0b bc 82 af 15 bb 2a 04 8c bb
       -0.003049011 -0.008540987 -0.0022840207 -0.0042729573
0000b0 d8 de e1 3b 51 bb 15 bb 42 30 33 bb f8 2c e0 3a
       0.00689302 -0.0022847245 -0.0027341996 0.0017103245
0000c0 5f 75 b2 3b 82 c0 84 3b 4d c4 80 bb 0b c5 d5 3a
       0.0054461206 0.004051269 -0.003929651 0.0016309334
0000d0 ec e3 59 ba 37 72 05 bb 86 b6 26 bb 17 3c e2 3b
       -0.0008311856 -0.0020362267 -0.0025438382 0.006904136
0000e0 e7 cf c0 3a 1a 62 0f bb 76 41 80 bb 76 ba de 39
       0.0014710397 -0.0021878541 -0.0039140536 0.00042482064
0000f0 ab 88 48 3b 4c 56 02 bb 93 bc 36 3b 79 80 7a 3b
       0.0030599039 -0.0019887863 0.0027883395 0.0038223548

layers.0.ssm.A_log f4 [64, 64]
000000 3a fb a9 3a 2b 6b e9 3e 95 ef 4c 3f cc 9d 8a 3f
       0.0012968548 0.45589575 0.80053073 1.0829406
000010 eb 7e a6 3f 58 af bd 3f 3f 4c d1 3f 46 4f e2 3f
       1.3007482 1.4819136 1.6351393 1.7680442
000020 00 53 f1 3f e2 c2 fe 3f 9d 75 05 40 e3 02 0b 40
       1.8853455 1.9903224 2.0853035 2.1720512
000030 6a 1e 10 40 65 d9 14 40 e2 40 19 40 8c 5f 1d 40
       2.2518563 2.3257687 2.3945851 2.4589567
000040 a4 3e 21 40 0f e5 24 40 d3 58 28 40 8a 9f 2b 40
       2.5194483 2.5764806 2.6304214 2.6816125
000050 70 bd 2e 40 28 b6 31 40 06 8d 34 40 e8 44 37 40
       2.7303123 2.776743 2.8211074 2.8635807
000060 95 e0 39 40 2d 62 3c 40 87 cb 3e 40 68 1e 41 40
       2.9043324 2.9434922 2.9811723 3.0174809
000070 67 5c 43 40 e6 86 45 40 34 9f 47 40 79 a6 49 40
       3.0525148 3.0863585 3.119092 3.1507857
000080 f9 9d 4b 40 74 86 4d 40 c4 60 4f 40 b5 2d 51 40
       3.181517 3.2113314 3.240281 3.2684147
000090 00 ee 52 40 58 a2 54 40 56 4b 56 40 91 e9 57 40
       3.2957764 3.3224087 3.3483481 3.3736308
0000a0 90 7d 59 40 cd 07 5b 40 c5 88 5c 40 df 00 5e 40
       3.3982887 3.4223511 3.4458477 3.4688032
0000b0 95 70 5f 40 50 d8 60 40 4c 38 62 40 e0 90 63 40
       3.4912465 3.5132027 3.534686 3.5557175
0000c0 57 e2 64 40 fe 2c 66 40 16 71 67 40 e2 ae 68 40
       3.5763147 3.596496 3.6162772 3.635674
0000d0 a0 e6 69 40 8a 18 6b 40 8d 44 6c 40 b4 6b 6d 40
       3.6547012 3.6733727 3.691684 3.7096987
0000e0 51 8d 6e 40 d2 a9 6f 40 c2 c1 70 40 b0 d4 71 40
       3.7273753 3.74474 3.761826 3.7786064
0000f0 f6 e2 72 40 6f ed 73 40 46 f3 74 40 dc f4 75 40
       3.7951026 3.8113668 3.8273482 3.84307
000100 18 56 7e bb 9c 36 e6 3e ce 2c 4d 3f c8 c4 8a 3f
       -0.003880864 0.4496354 0.8014649 1.0841303
000110 50 80 a6 3f 5f b0 bd 3f 2c 4c d1 3f 40 4f e2 3f
       1.3007908 1.4819449 1.6351371 1.7680435
000120 b4 53 f1 3f f8 c2 fe 3f ba 75 05 40 e7 02 0b 40
       1.8853669 1.990325 2.0853105 2.1720521
000130 5e 1e 10 40 67 d9 14 40 e9 40 19 40 8b 5f 1d 40
       2.2518535 2.3257692 2.3945868 2.4589565
000140 b0 3e 21 40 0c e5 24 40 c9 58 28 40 94 9f 2b 40
       2.5194511 2.57648 2.630419 2.6816149
000150 6f bd 2e 40 2e b6 31 40 06 8d 34 40 ea 44 37 40
       2.730312 2.7767444 2.8211074 2.8635812
000160 94 e0 39 40 2d 62 3c 40 87 cb 3e 40 68 1e 41 40
       2.9043322 2.9434922 2.9811723 3.0174809
000170 67 5c 43 40 e6 86 45 40 34 9f 47 40 76 a6 49 40
       3.0525148 3.0863585 3.119092 3.150785
000180 f9 9d 4b 40 74 86 4d 40 c4 60 4f 40 b5 2d 51 40
       3.181517 3.2113314 3.240281 3.2684147
000190 00 ee 52 40 58 a2 54 40 56 4b 56 40 91 e9 57 40
       3.2957764 3.3224087 3.3483481 3.3736308
0001a0 90 7d 59 40 cd 07 5b 40 c5 88 5c 40 df 00 5e 40
       3.3982887 3.4223511 3.4458477 3.4688032
0001b0 95 70 5f 40 50 d8 60 40 4c 38 62 40 e0 90 63 40
       3.4912465 3.5132027 3.534686 3.5557175
0001c0 57 e2 64 40 fe 2c 66 40 16 71 67 40 e2 ae 68 40
       3.5763147 3.596496 3.6162772 3.635674
0001d0 a0 e6 69 40 8a 18 6b 40 8d 44 6c 40 b4 6b 6d 40
       3.6547012 3.6733727 3.691684 3.7096987
0001e0 51 8d 6e 40 d2 a9 6f 40 c2 c1 70 40 b0 d4 71 40
       3.7273753 3.74474 3.761826 3.7786064
0001f0 f6 e2 72 40 6f ed 73 40 46 f3 74 40 dc f4 75 40
       3.7951026 3.8113668 3.8273482 3.84307
000200 46 9d 0d 3b ee 90 e2 3e 10 6a 4c 3f 07 b9 8a 3f
       0.0021608635 0.44251198 0.7984934 1.0837716
000210 2e 8b a6 3f 88 a7 bd 3f 38 4c d1 3f 29 4f e2 3f
       1.3011224 1.4816751 1.6351385 1.7680408
000220 10 54 f1 3f df c2 fe 3f c0 75 05 40 eb 02 0b 40
       1.8853779 1.990322 2.085312 2.172053
000230 67 1e 10 40 63 d9 14 40 e0 40 19 40 8a 5f 1d 40
       2.2518556 2.3257682 2.3945847 2.4589562
000240 a3 3e 21 40 0e e5 24 40 d9 58 28 40 8a 9f 2b 40
       2.519448 2.5764804 2.6304228 2.6816125
000250 70 bd 2e 40 28 b6 31 40 06 8d 34 40 e8 44 37 40
       2.7303123 2.776743 2.8211074 2.8635807
000260 95 e0 39 40 2d 62 3c 40 87 cb 3e 40 68 1e 41 40
       2.9043324 2.9434922 2.9811723 3.0174809
000270 66 5c 43 40 e6 86 45 40 34 9f 47 40 79 a6 49 40
       3.0525146 3.0863585 3.119092 3.1507857
000280 f9 9d 4b 40 74 86 4d 40 c4 60 4f 40 b5 2d 51 40
       3.181517 3.2113314 3.240281 3.2684147
000290 00 ee 52 40 58 a2 54 40 56 4b 56 40 91 e9 57 40
       3.2957764 3.3224087 3.3483481 3.3736308
0002a0 90 7d 59 40 cd 07 5b 40 c5 88 5c 40 df 00 5e 40
       3.3982887 3.4223511 3.4458477 3.4688032
0002b0 95 70 5f 40 50 d8 60 40 4c 38 62 40 e0 90 63 40
       3.4912465 3.5132027 3.534686 3.5557175
0002c0 57 e2 64 40 fe 2c 66 40 16 71 67 40 e2 ae 68 40
       3.5763147 3.596496 3.6162772 3.635674
0002d0 a0 e6 69 40 8a 18 6b 40 8d 44 6c 40 b4 6b 6d 40
       3.6547012 3.6733727 3.691684 3.7096987
0002e0 51 8d 6e 40 d2 a9 6f 40 c2 c1 70 40 b0 d4 71 40
       3.7273753 3.74474 3.761826 3.7786064
0002f0 f6 e2 72 40 6f ed 73 40 46 f3 74 40 dc f4 75 40
       3.7951026 3.8113668 3.8273482 3.84307
000300 6a 09 ed 38 45 85 ed 3e 8c 8d 4d 3f 9f 95 8a 3f
       0.00011302794 0.4639074 0.8029411 1.0826911
000310 89 77 a6 3f 3f aa bd 3f e6 4b d1 3f 80 4f e2 3f
       1.3005229 1.481758 1.6351287 1.7680511
000320 12 52 f1 3f e7 c2 fe 3f e4 75 05 40 e9 02 0b 40
       1.8853171 1.990323 2.0853205 2.1720526
000330 7b 1e 10 40 64 d9 14 40 df 40 19 40 8c 5f 1d 40
       2.2518604 2.3257685 2.3945844 2.4589567
000340 ab 3e 21 40 0e e5 24 40 d4 58 28 40 8a 9f 2b 40
       2.51945 2.5764804 2.6304216 2.6816125
000350 70 bd 2e 40 27 b6 31 40 06 8d 34 40 e7 44 37 40
       2.7303123 2.7767427 2.8211074 2.8635805
000360 95 e0 39 40 2d 62 3c 40 87 cb 3e 40 68 1e 41 40
       2.9043324 2.9434922 2.9811723 3.0174809
000370 66 5c 43 40 e6 86 45 40 34 9f 47 40 79 a6 49 40
       3.0525146 3.0863585 3.119092 3.1507857
000380 f9 9d 4b 40 74 86 4d 40 c4 60 4f 40 b5 2d 51 40
       3.181517 3.2113314 3.240281 3.2684147
000390 00 ee 52 40 58 a2 54 40 56 4b 56 40 91 e9 57 40
       3.2957764 3.3224087 3.3483481 3.3736308
0003a0 90 7d 59 40 cd 07 5b 40 c5 88 5c 40 df 00 5e 40
       3.3982887 3.4223511 3.4458477 3.4688032
0003b0 95 70 5f 40 50 d8 60 40 4c 38 62 40 e0 90 63 40
       3.4912465 3.5132027 3.534686 3.5557175
0003c0 57 e2 64 40 fe 2c 66 40 16 71 67 40 e2 ae 68 40
       3.5763147 3.596496 3.6162772 3.635674
0003d0 a0 e6 69 40 8a 18 6b 40 8d 44 6c 40 b4 6b 6d 40
       3.6547012 3.6733727 3.691684 3.7096987
0003e0 51 8d 6e 40 d2 a9 6f 40 c2 c1 70 40 b0 d4 71 40
       3.7273753 3.74474 3.761826 3.7786064
0003f0 f6 e2 72 40 6f ed 73 40 46 f3 74 40 dc f4 75 40
       3.7951026 3.8113668 3.8273482 3.84307

layers.0.ssm.D f4 [64]
000000 c8 9d 6d 3f 7d 52 6a 3f 14 56 69 3f 0e 5c 70 3f
       0.9281888 0.9153212 0.9114697 0.93890464
000010 67 be 6b 3f 7f 21 76 3f 4b b2 7b 3f 84 60 62 3f
       0.92087406 0.9614486 0.9831893 0.8842852
000020 a1 ef 7d 3f 35 e1 6d 3f be 8a 78 3f 29 93 6c 3f
       0.9919377 0.92921764 0.97086704 0.9241205
000030 61 87 6a 3f d3 38 6c 3f b1 f4 70 3f 8d 73 6d 3f
       0.9161282 0.92274207 0.9412337 0.9275444
000040 ae 11 72 3f 3c 9d 6a 3f 3a 54 79 3f ff 6f 59 3f
       0.9455823 0.9164617 0.97394145 0.8493652
000050 09 1d 7d 3f 83 94 65 3f 17 03 6d 3f 3a a6 78 3f
       0.9887243 0.89679736 0.9258284 0.9712864
000060 64 ec 6d 3f 57 a0 65 3f e9 e8 7b 3f b6 54 78 3f
       0.9293883 0.89697784 0.9840227 0.9700426
000070 10 d2 60 3f 4d 72 67 3f 6d fb 7c 3f 9f 3c 68 3f
       0.8782053 0.90408784 0.98821145 0.907175
000080 1d 80 7b 3f 8b 1c 77 3f aa 1f 5c 3f 88 db 75 3f
       0.9824236 0.9652793 0.85985816 0.96038103
000090 23 16 79 3f 5a 66 6e 3f 29 54 6f 3f 68 22 69 3f
       0.972994 0.93124926 0.93487793 0.91068125
0000a0 20 7c 77 3f 90 32 7b 3f b0 06 71 3f de 29 5a 3f
       0.96673775 0.9812403 0.9415083 0.85220134
0000b0 9b e6 7a 3f 6b 80 61 3f e5 66 79 3f 3f 47 76 3f
       0.98008126 0.88086575 0.9742263 0.9620246
0000c0 56 c1 67 3f db 09 71 3f 83 b2 7a 3f df 56 72 3f
       0.9052938 0.94155663 0.9792864 0.94663805
0000d0 75 9b 75 3f 08 64 6e 3f d1 31 75 3f 7d fc 77 3f
       0.95940334 0.93121386 0.9577914 0.9686964
0000e0 63 f0 74 3f 10 5a 59 3f 3a 9b 6b 3f b7 c7 76 3f
       0.956793 0.8490305 0.9203373 0.9639849
0000f0 f2 06 70 3f 95 31 70 3f 6a c3 7c 3f f3 a8 7a 3f
       0.937606 0.93825656 0.9873568 0.97914046

layers.0.ssm.deltaBC_layer.weight f4 [144, 64]
000000 6d 1a bb 3d ff 72 68 bd 1f 2c e6 3c c6 e9 81 bc
       0.091359 -0.056750294 0.02809721 -0.015858542
000010 90 d9 84 bd 9b 3d c1 3d f5 38 b7 3c e6 12 6c bd
       -0.06486809 0.094355784 0.022366026 -0.05763521
000020 b6 90 11 bd 3f 83 8c bb cd 6b 9d bd b8 ad f5 bc
       -0.035538398 -0.0042881067 -0.07686577 -0.029990062
000030 8b 89 a1 3d 47 54 d4 bc 59 1c 37 bc 44 a9 d5 bd
       0.07887562 -0.025919093 -0.011176192 -0.104326755
000040 08 2e 32 3c 98 b5 5e 3d 82 54 5e 3d 21 aa 0b 3d
       0.0108752325 0.0543724 0.05427981 0.034097794
000050 95 b4 18 bd 7b 63 55 3d 30 2f 02 3d d5 2f 7a 3c
       -0.03728159 0.052096825 0.031783283 0.015270193
000060 c6 7f 0f bb 37 c5 b6 bc ab b9 85 3c 1a 68 ae 3b
       -0.0021896227 -0.022310836 0.016323885 0.0053224685
000070 2f b7 72 bd bc 11 73 3d 97 2f be bd cb db 9f bd
       -0.05925673 0.059343085 -0.09286421 -0.07805594
000080 ca ea 95 3d 5a 8a cd 3b 69 69 7c 3d 09 09 af 3d
       0.07320173 0.0062725963 0.061623964 0.08546645
000090 99 ff 7d 3d c1 15 24 bd 09 0d 9e 3c 84 6c bb bc
       0.062011335 -0.04005981 0.019293325 -0.022878893
0000a0 02 ae 95 3d d0 00 d4 bd 6b a9 5a bd 8d 85 a2 3d
       0.0730858 -0.103517175 -0.053384226 0.07935629
0000b0 69 86 60 3d ed e1 07 3d aa 0e 1e bd 31 fe ad 3c
       0.054815684 0.033174444 -0.038588203 0.021239372
0000c0 80 f4 51 bd 09 c2 01 3c 43 34 30 bd ca 82 85 bd
       -0.051258564 0.007919797 -0.04301859 -0.06519087
0000d0 26 f1 ee bc d4 24 48 bb d0 67 8a bd 03 9a ab 3d
       -0.029167723 -0.003053953 -0.06758082 0.08378985
0000e0 b8 90 5b 3d 4a 5a c8 bd 6f 00 4c bc 64 42 8f 3d
       0.05360481 -0.09782846 -0.012451275 0.06995085
0000f0 ef b0 cb 3c 21 40 45 bd 33 5e d5 bd 3a c6 05 bd
       0.024864642 -0.04815686 -0.10418358 -0.032659747
000100 ce db 3a 3d 84 bb 28 bd bd 17 88 3c 2d 99 90 bd
       0.04561978 -0.041194454 0.016612882 -0.07060466
000110 39 c5 ce bc cd bb da bd 43 2f e5 bd 9b ce 45 3c
       -0.025240527 -0.106803514 -0.11190655 0.012073184
000120 3e 80 f2 3a b1 2a 8d bc b5 ce 3f 3d 0f da 23 3d
       0.0018501354 -0.01723227 0.04682799 0.04000288
000130 22 7d 4e bc c3 2e 0a bc 53 11 d6 bd 80 e7 41 3d
       -0.012603076 -0.008434 -0.10452523 0.047339916
000140 01 19 09 bc 0b 00 ab bd 29 b4 a2 bd 55 86 d8 ba
       -0.008367778 -0.083496176 -0.07944519 -0.0016519526
000150 b3 d4 99 bd 4e 1b 8a 3b 23 94 da bd 45 5d b9 3c
       -0.07511272 0.0042146808 -0.10672786 0.022627482
000160 b3 7a 6f 3d 17 72 f6 bc a9 e7 86 bc 4e 81 83 bd
       0.058466624 -0.0300837 -0.016467886 -0.06421147
000170 a2 b3 ee 3c 71 fc 22 3d 0f b8 7d 3d 4f 1a 5d 3d
       0.02913839 0.039791528 0.06194311 0.053980168
000180 18 04 d9 3b c6 d1 62 3b 05 78 85 3d 11 26 69 bd
       0.0066228025 0.0034609898 0.065170325 -0.05692107
000190 c5 36 a5 3d 28 f4 8f bc d7 c4 dd bd 4c e2 e9 3c
       0.08067087 -0.017572477 -0.1082856 0.02855029
0001a0 76 ac 7d 3d 06 91 4e bd e5 68 0f 3d b3 c3 4b bd
       0.06193205 -0.050431274 0.035012145 -0.04974718
0001b0 ac b3 bb bd e8 40 d3 3c 86 32 0e bd 1d 5d 0c 3d
       -0.09165129 0.025787786 -0.03471615 0.034268487
0001c0 76 f7 57 bd 5c 9b ce bd c6 57 b6 bd 59 14 49 bd
       -0.05272623 -0.10088226 -0.0890346 -0.04909167
0001d0 02 29 a8 bd 9a 76 03 3d 52 b3 69 bd c0 f5 8f bd
       -0.082109466 0.03209553 -0.05705578 -0.07029295
0001e0 67 40 4f 3d 53 a0 44 bd d1 d0 ad bd 9f ed 48 3d
       0.05059853 -0.04800446 -0.08487094 0.049054738
0001f0 d6 1a b1 bc ca e8 45 3d 76 18 cc bd 09 53 a2 3d
       -0.021619242 0.048317708 -0.09965603 0.07925994
000200 39 f5 f4 bc 6e c5 97 bd dd 64 12 bd 31 aa 34 3d
       -0.029902088 -0.074107036 -0.035740722 0.04410762
000210 c6 0a c1 bc a1 44 85 3d 53 75 36 bd 88 b3 e2 3c
       -0.023564707 0.065072306 -0.044545483 0.027673498
000220 fc 42 8c bd 9f 73 cc 3d d8 70 52 3d b2 c7 21 3d
       -0.06848714 0.099829905 0.051377147 0.039497085
000230 56 01 39 3d 5c 77 41 3d ab 5f e4 bc 3c 3f fc bc
       0.04516729 0.04723297 -0.02787765 -0.030791871
000240 90 e8 76 3d 92 36 db b9 0f a6 ab 3d 86 c6 bd 3d
       0.060280383 -0.00041811593 0.083812825 0.09266381
000250 8a 20 ef bc 24 8c 32 bd 16 de b7 bd 72 cc 96 bd
       -0.02919032 -0.04359068 -0.089779064 -0.073632136
000260 a9 9e 27 bd 57 79 b8 bd c3 83 b5 3d ec cb 82 3d
       -0.040922794 -0.09007519 0.08863022 0.06386551
000270 5a 8f b5 3d 13 80 c8 bc fb 8c c9 bd 00 36 93 3d
       0.08865233 -0.024475133 -0.09841343 0.07188034
000280 a2 46 98 bd b4 49 64 bd d6 60 19 3c 8d cd 87 bb
       -0.07435347 -0.05573435 0.009361466 -0.0041443766
000290 6a 3e 5f bd c0 ff ec 3a af 4d 7d bd be 09 c2 3c
       -0.054502882 0.001808159 -0.061841663 0.023686286
0002a0 7d ce 8e bd 63 45 4a bd d1 bf a2 3d 3c f8 46 bd
       -0.06972978 -0.04938258 0.07946742 -0.04857658
0002b0 e4 b3 21 3d 19 29 be 3d 23 ce a9 bd 0b f9 6a bb
       0.039478198 0.092851825 -0.082912706 -0.0035854008
0002c0 35 02 4d bc 33 75 30 3b 91 6a 1c 3b ed 36 aa 3a
       -0.012512733 0.0026925325 0.002386723 0.001298634
0002d0 87 59 87 3d 5d 54 06 3d 99 0a 3d 3d 49 27 00 bb
       0.06608873 0.0327953 0.046152685 -0.0019554666
0002e0 39 26 78 3c 89 da 3a 3d de 0a 80 3d 2a ad 47 3d
       0.015145832 0.045618568 0.06252073 0.048749126
0002f0 66 cc ca 3d 20 45 59 3d a9 f8 96 3c 82 97 e3 3c
       0.09902267 0.05304444 0.018429117 0.027782205
000300 a1 1d 54 3d 8a f2 f9 bc 49 16 90 3d 6d dd 01 bd
       0.05178607 -0.03051116 0.070355006 -0.03170531
000310 4c ac b3 3d c7 78 a9 bd 57 a6 b6 3d 84 ba a1 3d
       0.087730974 -0.082749896 0.089184456 0.07896903
000320 6e 3a 76 bd ee a5 33 3c 0b bb 21 bd 04 c4 67 3b
       -0.060114317 0.010964854 -0.03948502 0.0035364637
000330 64 8a 6e bc d9 6c 07 bc 28 c1 22 bd d0 5e e3 bc
       -0.014559362 -0.008265697 -0.03973499 -0.027755171
000340 63 2a 8e bc 87 51 fe bc 19 4e b2 3c 4b 4a e2 3c
       -0.017354196 -0.031044735 0.021765755 0.027623316
000350 81 f5 1f 3c f4 76 3b 3d 95 ca da 3c c8 8f 0d b8
       0.009763123 0.04576774 0.026707927 -3.3750926e-05
000360 01 97 3f bc 31 56 8e bd 42 0b 80 3d 5e d0 69 3b
       -0.011693717 -0.069500335 0.06252147 0.0035677175
000370 a5 4c af bd c9 02 9c 3d 0e 2b fc 3c 6f 03 a1 3d
       -0.08559541 0.07617719 0.030782249 0.07861983
000380 6a b5 69 bc 5c 72 87 3d 7e da 40 bd bc ab aa bd
       -0.014264444 0.06613609 -0.04708337 -0.08333537
000390 23 75 8d bd 63 c6 80 3d 15 a4 72 bc 94 4c 8a 3b
       -0.06907108 0.06287839 -0.014809628 0.0042205546
0003a0 b0 2a 85 3d 26 a9 82 bd 45 a4 72 bd df 21 b8 3b
       0.065022826 -0.06379919 -0.05923869 0.005619272
0003b0 14 4b 7f 3c f6 e7 31 bb e5 4c b2 bd b6 f9 07 bd
       0.015581865 -0.0027146316 -0.08706073 -0.033197127
0003c0 26 92 96 bd 1f 19 23 3d d2 78 f7 3c 24 4e 2f bd
       -0.07352094 0.03981888 0.030208979 -0.04279913
0003d0 d6 59 98 3c ae 28 b8 bd 9b f7 46 3c df 3a 96 3d
       0.018597525 -0.08992134 0.012143995 0.073354475
0003e0 f5 87 a4 3d 27 f3 85 bd 61 6f 46 3d b9 05 15 bd
       0.08033744 -0.06540518 0.048446063 -0.03638241
0003f0 e5 aa 8a bd df 4e b2 3d 48 26 73 3d 69 04 9c bd
       -0.06770877 0.0870645 0.05936268 -0.07618029
