pengujian_split_data/97,7-2,3/vim/vim_model_2.pth (torch, 611374 bytes, 71 tensors)

cls_token f4 [1, 1, 64]
00000000: 181b 7fbe 0c07 e7be 2bf2 083e 598a 54bd
00000010: 1f7a a03f 947c 01bf 8963 363e ccc7 0e3f
00000020: 5d62 373f 5931 ffbd 6374 be3f f331 f8bf
00000030: f2e6 59bf 34e5 b9bf a9a8 0a40 6d33 f1bf
00000040: f7cc d23e 4d49 263e 5c9a 78bf 9fca 63bf
00000050: b2ce 07bf c40b 29be 0f60 c0be ef63 f9bb
00000060: 8561 403f 4494 32bf 348e 533f 7ed5 c53e
00000070: 0ad1 8fbd 8f6c e4bf 8bdf 6bbe 2130 95bf
00000080: 075d 0840 34c9 ed3f 8339 5ebf b96a 80bf
00000090: 9d93 39bf a1bb 68be e4ca 9e3e 8faf 0dbf
000000a0: 8bae a83c b259 8f3e 6117 50bf 5142 863f
000000b0: 071e d3bf 35c9 913f fda7 b73f 5ff9 74bf
000000c0: 3b6a 10bf 098a c2be 2ea0 6b3f aeca 923f
000000d0: bd09 0fbf 99a6 0540 fb91 49bf b1c5 253f
000000e0: 4fe2 9f3f 914c 9cbf b94b 74bf 67dd 1dbe
000000f0: d1cf 1540 569c bbbf 6d6d 8e3d 23f2 a4bf
-0.24912679 -0.45122564 0.1337363 -0.05188975 1.2537268 -0.50580716 0.17811407 0.55773616
0.71634465 -0.12460584 1.4879268 -1.9390243 -0.8511802 -1.4523072 2.1665442 -1.8843819
0.41172 0.162389 -0.97110534 -0.8898105 -0.53049767 -0.16508394 -0.37573287 -0.00761079
0.75148803 -0.69757485 0.8263886 0.38639444 -0.07022293 -1.784563 -0.23034494 -1.1655313
2.130678 1.8577027 -0.86806506 -1.0032569 -0.72490865 -0.22727825 0.31014168 -0.55346006
0.020591041 0.2799812 -0.81285673 1.0488988 -1.6493539 1.1389529 1.4348141 -0.9569301
-0.56412095 -0.37995937 0.9204129 1.1468103 -0.55874234 2.0882933 -0.78738374 0.6475478
1.2490939 -1.2210866 -0.95428044 -0.1541649 2.340809 -1.4657085 0.06954465 -1.2886394

to_patch_embedding.1.weight f4 [64, 169]
00000000: eb1d e5bc 9ed6 a4bc 43b6 0dbd cac1 39bd
00000010: 7c75 003d 6865 29bd 332e a03d 2352 c13d
00000020: 080d 7f3d 1782 28bd 3199 9cbd 8b08 3cbc
00000030: 4883 093d ba4c 4d3d 2644 ab3c 4511 43bd
00000040: 7ad2 80bd 4756 7f3d 2ba9 1dbd 143a 06bd
00000050: c8b7 babc b5ed 7bbc 2046 d43c 9e06 173d
00000060: 05d3 703d 9293 6abd d37b c13c c8c6 9cbd
00000070: b6ce 96bd c3fa 69bd b434 823d b30d 503d
00000080: 2950 84bc 76c6 1abd 8d8d 0b3d a0a0 523d
00000090: fd09 e93c 8106 96bd cd2a 493d 3193 6dbc
000000a0: f7d4 2bbd b294 99bd 42db fa3c dd63 973b
000000b0: 11fe 94bd 49f1 183d 7195 12bb 59e2 613d
000000c0: 3593 f13c beff 293d 6dbd 27bc 94f3 2e3d
000000d0: 3901 063d 6205 063d 1c0d ac3b 3693 5c3d
000000e0: 9ab9 05bd 88ec 8bbd d9b8 373d e83d 803d
000000f0: cfbc d7bb 33a2 0bbd a729 123d 3f9f 793d
00000100: 1cff 19bd afdf 4cbd f4f5 3dbd f8aa fc3c
00000110: 9311 7ebb 3a27 953d cb87 983c 5f41 4f3d
00000120: aa40 c9bc 7cf2 853d 1d30 363c b333 8dbd
00000130: f526 9bbc 5999 e43c d592 e93c d94d 373d
00000140: 2d79 df3c f55e 46bc d184 993c cc10 65bd
00000150: e19e f13c 5efb 14bd b618 223d af66 9bbd
00000160: 3613 55bc 9732 cfbc 0ac3 97bc 985e d3bc
00000170: 600a 373c 59c0 0b3c 1cc3 a33d 271f b73d
00000180: ae4d 12bb 62ba 163d 167d a63c 6867 c13c
00000190: 7505 313c f2fb 0d3d de38 033d e897 033c
000001a0: e6a5 c83c 216c 993c e91b 42bc a53c 8a3d
000001b0: 5ffc 863b c02d 0c3a c681 abbc f383 4e3b
000001c0: 43fd 92bb c7a7 12bd dc93 dfbc 534e 73bd
000001d0: c1f0 063d 455c 3c3b 8f87 87bc 0a44 10bd
000001e0: 96ea 03bd 21c1 693d f314 63bc f2dc 143c
000001f0: 2c64 88bc 5d7d b9bb 03ba 033b 38b5 403d
00000200: ee8b 953b b0e6 423d 69b4 17bd e5a5 193d
00000210: df08 dd3c cda8 393d 92b4 0abd 7327 96bd
00000220: a5fe a43c 1b29 93bc 2b35 523d de8e 323a
00000230: 9a00 0cbd dd95 1dbd 1fdd 23bd 941e 96bd
00000240: be99 89bd b92f 133d 8833 d13c 4075 8abd
00000250: f00e 2ebd c856 7e3d 6284 623d 3e99 983d
00000260: d6bd edba 3ee8 ae3c 5738 b43b 94c7 37bd
00000270: 4176 253d 84b1 84bd 2531 063d 39c0 cc3c
00000280: 0635 85bd cd69 463d 92c5 513d e94f d0bc
00000290: 351f c03c 2c3d 2f3d 6f3d 3fbd 0d48 eabc
000002a0: 2886 61bc 229b 64bd e008 9d3c 3c5c da3b
000002b0: 16f5 8ebd c0a7 c03c aded 83bd c35d 57bd
000002c0: ccc5 1f3d 3a13 a13c edf3 e93c a727 a1bb
000002d0: c729 7e3c a970 68bc 7a2a 65bb 0797 ff3c
000002e0: f9c6 a23c 3ebe 4b3c a672 823b d606 473d
000002f0: 7114 273d 43d1 9eb8 c5cf 913c 0913 693d
00000300: 6d22 6b3c ea09 77bd 7375 533d 0bc2 a6bd
00000310: 161c 9bbd 12b3 22bd bdc4 80bd 90d2 5abd
00000320: e611 8c3d 4cc2 b1bc 0711 14bc 4725 8f3d
00000330: 64f4 8abb 5223 0dbd f6e8 9abd 80b7 853d
00000340: a6c2 3d3d e549 4abc ab7d 4dbd 73f6 61bd
00000350: 6bc2 06bc d865 00bd 0bd3 e53c 5e86 38bd
00000360: 211a 033d 8bc3 c6bc 53f5 883d cdc3 8fbd
00000370: f8c8 743d dc8f 60bd 763a 82bd de19 11bd
00000380: c65f 5d3d 0e99 ee3c c27d 60bd eb12 733d
00000390: 0ca4 773d 9ad6 29bd 3a2e 93bd ed6d 7f3c
000003a0: d3b1 d2bb 0c96 29bd fbe1 b73c 16ec f03c
000003b0: 98a7 8c3d e2f6 813c 50f2 1f3d 34d3 733d
000003c0: 40c2 87bd 91fe 703d ab0c bc3c 660e 1a3d
000003d0: 3f2b e93c 18ec 463d ccd1 463c 3f55 813d
000003e0: 5485 3d3d 5f37 86bd db96 4f3d 0a6b 8bbd
000003f0: cc09 29bc a233 5fbd 39fd 043d 81fa ca3b
-0.027968368 -0.020121869 -0.034597646 -0.045350827 0.03136204 -0.041356474 0.07821312 0.094394945
0.062268287 -0.04113969 -0.076464064 -0.011476646 0.033572465 0.050122 0.02090652 -0.04762389
-0.06290145 0.06233814 -0.03849141 -0.03277023 -0.022792712 -0.015376498 0.025912344 0.036871545
0.058794994 -0.05726964 0.023618614 -0.07655102 -0.07363646 -0.05712391 0.063577086 0.050794315
-0.016151505 -0.037786923 0.03407054 0.051422715 0.028447146 -0.07325459 0.049113084 -0.014500425
-0.041951146 -0.074990645 0.030622128 0.004620059 -0.07275022 0.037339482 -0.0022366906 0.055147503
0.02948914 0.04150366 -0.010238034 0.042712763 0.03271601 0.032719977 0.005250586 0.05385133
-0.032647707 -0.06832224 0.04485402 0.06261808 -0.006583787 -0.034090232 0.035684254 0.060942885
-0.037596807 -0.05001801 -0.046377137 0.030843243 -0.00387678 0.072828725 0.018619439 0.050599452
-0.024566967 0.06540391 0.01111987 -0.068946265 -0.018939475 0.027905153 0.028512398 0.044751976
0.02727946 -0.0121076 0.01874009 -0.055924222 0.029494705 -0.036372535 0.039574347 -0.07587945
-0.0130050685 -0.025292678 -0.018525619 -0.025801942 0.011171907 0.008529746 0.079961985 0.08941489
-0.0022324133 0.036798842 0.020323317 0.023608878 0.010804524 0.034664102 0.032036655 0.008031823
0.024493169 0.018728318 -0.011847475 0.06749848 0.0041194404 0.00053473935 -0.020935904 0.0031511753
-0.0044857576 -0.035804536 -0.027292185 -0.059400868 0.032944445 0.002874152 -0.016544132 -0.035221137
-0.03220614 0.057068948 -0.013859975 0.009085881 -0.016649328 -0.0056606964 0.0020099885 0.047047824
0.0045638 0.047583282 -0.037037287 0.037511725 0.02698177 0.045326997 -0.03386361 -0.07331743
0.020140955 -0.017963937 0.051320236 0.000681145 -0.03418026 -0.038473 -0.0400058 -0.07330051
-0.06718777 0.035934184 0.025537267 -0.06760645 -0.042494714 0.06209448 0.05530203 0.07451104
-0.001813824 0.021350976 0.0054998803 -0.044868067 0.04039598 -0.06479171 0.03276171 0.024994003
-0.06504254 0.048440743 0.05121381 -0.02542873 0.02345238 0.042782947 -0.046689447 -0.02859881
-0.0137648955 -0.05581201 0.019169271 0.006663827 -0.0698034 0.02351749 -0.064418174 -0.052579653
0.039006993 0.019662488 0.028558696 -0.004918057 0.01551289 -0.0141870165 -0.0034967945 0.031199945
0.019870268 0.012435494 0.0039809523 0.048590504 0.04079098 -7.573005e-05 0.017799268 0.05690292
0.014351469 -0.06031219 0.05162568 -0.081424795 -0.07573716 -0.039721556 -0.06287525 -0.053423464
0.06839351 -0.021699093 -0.009037263 0.06989532 -0.0042405594 -0.034457512 -0.07563965 0.065291405
0.04632821 -0.012346719 -0.050168674 -0.055166673 -0.008225064 -0.031347126 0.028054735 -0.045050018
0.03200734 -0.024263164 0.06687417 -0.07019768 0.05976197 -0.054824695 -0.06358807 -0.03542506
0.054046415 0.029125717 -0.054807432 0.059344213 0.06045918 -0.041464426 -0.071865514 0.015590173
-0.0064298897 -0.04140286 0.022446623 0.02940945 0.068679035 0.015864793 0.039049447 0.05952759
-0.06628847 0.058836523 0.02295526 0.037611388 0.028463004 0.048565 0.01213498 0.063150875
0.04626973 -0.0655353 0.050680976 -0.068075255 -0.010317277 -0.0544926 0.032468054 0.006194413

to_patch_embedding.1.bias f4 [64]
00000000: f695 69bd f4a0 2ebd 50cb dc3c 0479 9ebc
00000010: 3696 8b3c 567f e6bb 689d 6c3d 44f3 46bd
00000020: 838c cebb 85c4 1a3c 94a7 a03b 4cbf c83c
00000030: af53 883d 411e 55bd 5671 e73a b650 143d
00000040: 6138 a1bb 09a0 40bc f98c a7bb e172 8ebc
00000050: b80d 80bd 8c25 5d3d aece 3fbd 99d1 1b3d
00000060: ad05 8c3d a42c 2ebd 5d9b 323d e836 18bc
00000070: f62f 0c3c 13f5 5e3c 3405 90bd 7879 00bd
00000080: b003 bb3c a0ac 403d c405 86bd d4c8 543d
00000090: 7936 5dbd 46eb 96bc b909 bebc 1b9e 813d
000000a0: b4a2 3dbd d2ce b63c dda4 06bb 3680 93bd
000000b0: 2547 573d 5d07 873d 6bab 2dbd 395f 4a3c
000000c0: 3bcc 2fbd 47d3 99bd 9d63 443d 2eb2 b93c
000000d0: fc7f 4bbc b4d1 3eb9 66b1 5c3c 6bc1 153d
000000e0: f10b ec3c 70e3 8fbd 3f17 5f3d e1bc 6c3d
000000f0: dabd 10bc 5287 ec3c c539 a9bb 4a3f 183b
-0.05702778 -0.042633966 0.026952416 -0.019344814 0.0170394 -0.0070342226 0.0577673 -0.04857184
-0.0063033714 0.009446268 0.0049027894 0.02450528 0.066565864 -0.052030805 0.0017657678 0.036209784
-0.004920051 -0.011756905 -0.005113241 -0.017388763 -0.06252617 0.053990886 -0.046827964 0.038041685
0.0683702 -0.04252304 0.043605197 -0.009290434 0.008556357 0.013608235 -0.070322424 -0.03136584
0.022828907 0.047039628 -0.065440685 0.051949337 -0.054007027 -0.018422734 -0.023197995 0.06328984
-0.046297744 0.022315416 -0.0020545044 -0.07202189 0.052558083 0.06593201 -0.042399805 0.012351804
-0.04291938 -0.07511001 0.04794656 0.02266797 -0.012420651 -0.00018197933 0.013470029 0.03656141
0.028814288 -0.07025802 0.05446553 0.057797316 -0.008834327 0.02887312 -0.0051643574 0.0023231083

layers.0.forward_conv1d.weight f4 [64, 64, 1]
00000000: 7094 573c 6514 c03c d8bd 0d3c e64c 653b
00000010: 81b8 93bd f5da 0f3d 277a 773d 795f 44bd
00000020: 48ca 413d 8213 c93c b325 283d 0688 ae3d
00000030: b37d 3c3c 4c3f 603d 0634 81bd 8e34 ffbc
00000040: 688f 953d 6e43 93bd 2b28 a6bd 948f 8a3d
00000050: 639f 8e3d bab8 363d 1c38 0d3d 216a c4bc
00000060: 72fd a2bd b187 02bc 03fe 88bd eb60 bbbc
00000070: cbf7 da3c ff25 93bd cc97 0fbd a502 a33d
00000080: 8006 3d3c 5872 013d 8668 913c 933b 5f3d
00000090: 614c d5bd 2236 a73c 8d3d d63c f16a f0bc
000000a0: e9e5 9b3d 1296 0a3d b1fe 143d d8ab 623d
000000b0: e4c3 c13d 6782 a4bd bc4a 913b 526b 9ebd
000000c0: 284c 9a3d 5a4e 583d a98c 423d 701e b2bd
000000d0: 1470 223d 9d58 773c ecd9 4a3d d02d 5a3c
000000e0: f508 5a3d 529e 0cbd 9147 69bd 11c7 f33b
000000f0: 1730 7cbd 7067 0b3d a482 ca3c 4240 323d
00000100: de5a 923d 3ea7 6e3d 4583 80bd d8fa 10bd
00000110: fc9d b43d 1188 45bc 33c9 543d 2495 5fbd
00000120: 6bb5 533d f853 94bd f612 ecbc 22e7 04bd
00000130: c62b 1e3c a297 0bbd f25c 343b 1c99 c03c
00000140: 506a 323c 8640 bb3d 5d8c f23c 50d5 bbbd
00000150: 5cdc 8cbd 34aa f93c 627d 843d 086b debd
00000160: cf8f 49bd 1d7b 90bd c2b4 6f3c 7172 2bbd
00000170: feee 77bd 11ae d7bc 05e9 a3bd 1a13 10bd
00000180: 6156 753b c082 e1bd aa47 06bc 4c12 6d3d
00000190: 19b8 2a3d b542 8cbd c09f b4bd 92d8 ffbc
000001a0: 426c a13d 6acc 253c ac2a dc3a 2628 95bd
000001b0: de70 cfbd bbdf a63b 8eaf 11bd 3f24 9bbd
000001c0: ed2a afbd def0 ad3d 7a15 a73d 867a 6ebd
000001d0: e3c7 4fbd aca2 90bd c24b 11bd efd4 5fbd
000001e0: 932d 813d e05b 713d 5500 a83d 5f34 22bc
000001f0: 4605 883c 4586 1bbd 4377 9d3c ef41 a2bd
00000200: 7aa7 e33c 1556 8dbd ff01 623d 33ec a23d
00000210: 3f66 1f3d 50b0 153d c927 a3bd 854d a9bd
00000220: bb87 31bc 8b31 e3bd b0a0 d5bd a7ff dc3c
00000230: de88 b33d bdc4 7e3c 369d 1a3c e369 8b3c
00000240: 6b9c 0e3d bd9c f8bc c9c8 45bd a4ee cfbc
00000250: 5c12 83bd efe8 babd 6e89 bbbd 5c94 a13d
00000260: 6ada af3d 7ce4 4b3c fd13 013b 8728 60bd
00000270: 81ba 2abc 3d69 afbd 53d5 fa3c ddc4 c23d
00000280: c786 cfbd e9d2 803d 8cc6 83bd 2076 8c3d
00000290: b048 803d 6fee 533b ba4a 9b3d df65 4b3d
000002a0: 30ae 05bd 32a8 a43d d117 f93c 552f 4a3d
000002b0: d772 b03d e180 69bd 2d65 cbbb e00a b6bd
000002c0: a5b9 5e3c 1e57 60bc e33e a33c ff47 7e3c
000002d0: 45cf a3bd 13fa e7bc 88c4 893d da1b 203c
000002e0: c94f 7ebd 413b cc3d fcc4 a03d f615 4f3d
000002f0: c626 57bd 6301 9e3d 7cd2 5a3c 97af d33c
00000300: 3f0c 6abd 12fe adbd 606e cabd feb5 c03c
00000310: 29f2 f73a 92aa a9bd adee 9c3d 0dba 4bbc
00000320: 010b 263d 004c 843d ba1b 48bd f707 d8bc
00000330: 697a 93bb c12b c5bd 9028 983d d36b 31bd
00000340: a438 ff3c c094 5f3d ba06 20bd 14b1 ffbb
00000350: cd7c 553d d973 8cbd 72fa a03d efd3 e53d
00000360: 1b38 3e3d 59bd 39bc 1c6b 9f3c 487e 4e3c
00000370: cd99 8fbd b0d4 b1bd e7d8 2a3c 2277 87bd
00000380: 9753 d93d c9f2 9e3c ef23 bbbb b786 543d
00000390: 2a60 0dbd 87e9 39bd 0c17 61bd 4372 3d3d
000003a0: 0b5d 643d d329 743c 6953 ec3c 2c5e babd
000003b0: 7585 d43d 502e cd3a de30 a93d 41ee 7d3d
000003c0: 4660 20bd af0d 9ebd 7ef3 103d fdb0 7d3d
000003d0: 7422 813c 10bd 9cbd f508 4bbb 6298 28bd
000003e0: 69d5 b2bd e3e1 33bd 0483 2a3b f0bd 2f3d
000003f0: df8b 943d 12a5 663d a9cb 613c c4ef f43c
0.013157949 0.023447225 0.008651219 0.0034988462 -0.07212926 0.035120923 0.060419228 -0.047942612
0.04731205 0.024545435 0.041051578 0.08522038 0.011504578 0.054747865 -0.06308751 -0.03115299
0.07302743 -0.071905956 -0.0811313 0.067656666 0.06963994 0.044609763 0.03447734 -0.023976387
-0.07958497 -0.007966922 -0.06689074 -0.022873363 0.026729485 -0.071849816 -0.035056874 0.07959489
0.011537194 0.031603187 0.017750036 0.054500174 -0.10414959 0.020411555 0.026152397 -0.029347869
0.07612211 0.033834524 0.036375705 0.055339664 0.09461191 -0.08032685 0.004433958 -0.077353135
0.07534057 0.052809097 0.047497425 -0.08697212 0.039657667 0.015096811 0.049524233 0.013316587
0.0532312 -0.034330674 -0.056953017 0.007439502 -0.0615693 0.034034193 0.024720497 0.043518312
0.07146238 0.058264963 -0.06275038 -0.035395473 0.08819196 -0.012056367 0.05194969 -0.05458559
0.051686686 -0.07242578 -0.028817635 -0.032446988 0.009653991 -0.034080155 0.002752122 0.023510508
0.010889605 0.09143166 0.029607946 -0.091715455 -0.06877968 0.030476667 0.064692274 -0.10860258
-0.049209412 -0.07054732 0.014630498 -0.041857187 -0.060530655 -0.026328119 -0.08003429 -0.035174467
0.003743552 -0.11011267 -0.008195797 0.057878777 0.041679475 -0.06848661 -0.088195324 -0.031231198
0.07881977 0.010119537 0.0016797385 -0.07283048 -0.101289496 0.0050925887 -0.035567813 -0.07575273
-0.08553109 0.084932074 0.08158393 -0.058222316 -0.050727736 -0.07062277 -0.03547264 -0.05464643
0.06307521 0.05892551 0.08203188 -0.009900182 0.016604077 -0.037969846 0.019221907 -0.07922732
0.02778982 -0.069011845 0.055177685 0.07955208 0.03891587 0.036545098 -0.07966573 -0.08266739
-0.010835583 -0.11093434 -0.10431039 0.026977373 0.0876634 0.015549836 0.009436896 0.017018264
0.03481714 -0.030348176 -0.048287187 -0.025382347 -0.06399986 -0.0912646 -0.09157072 0.078896254
0.08586581 0.012444612 0.0019695752 -0.05472615 -0.010420443 -0.085649945 0.030619299 0.09510205
-0.101331286 0.06290228 -0.06434354 0.06858468 0.06263864 0.0032338162 0.07582612 0.0496577
-0.03263682 0.08039893 0.030406864 0.049361546 0.08615654 -0.057007674 -0.0062071295 -0.08888793
0.013594066 -0.013692645 0.019927448 0.015520095 -0.07998518 -0.028317487 0.067269385 0.009772265
-0.062087808 0.09972239 0.07850072 0.050558053 -0.05252721 0.07715108 0.013355847 0.025840564
-0.057140585 -0.08495726 -0.098843336 0.02352428 0.0018916774 -0.08284487 0.07662711 -0.012434495
0.040537838 0.06459808 -0.048854567 -0.026370985 -0.0045006764 -0.09627486 0.07429612 -0.04331572
0.031154938 0.05458522 -0.039068915 -0.007803092 0.052120972 -0.06858034 0.07860269 0.11222064
0.046440225 -0.011336648 0.019460253 0.01260335 -0.07011757 -0.08683145 0.01042769 -0.0661452
0.106116466 0.019402878 -0.0057110707 0.051886287 -0.034515537 -0.045388725 -0.05495362 0.046251547
0.055752795 0.01490255 0.028848367 -0.09099993 0.103770174 0.0015654061 0.08261274 0.061994795
-0.039154314 -0.07717454 0.035388462 0.061936367 0.015763499 -0.07653248 -0.003098068 -0.04116095
-0.08732111 -0.043916594 0.0026018033 0.042905748 0.07253241 0.056309767 0.0137814665 0.029899485

layers.0.forward_conv1d.bias f4 [64]
00000000: 9e83 69bc 42f4 a6bd cadb e9bd 287d 903d
00000010: 3fb6 0e3d 446f 0a3d 6814 cebd 9c64 37bd
00000020: 0361 5cbd f61b 973d c53f 993d b04d 29bd
00000030: 2981 de3d 020b 023d 0d94 0bbd f711 d03d
00000040: 65fd 13bd fb93 273d 82f3 69bd 38ba ae3d
00000050: efcb 943d 62e7 a4bd 9058 88bd 65c2 0ebd
00000060: 87aa 6bbd e032 71bd 315f e4bd 04d9 533b
00000070: 51a3 3d3d 3cc4 c1bc 7383 42bd 54b1 59bc
00000080: 3fad c13c 8d08 34bd 450a 08bc 31ec d5bd
00000090: 2a11 adbd cae3 aebd 70ae c3bc ff8d bb3c
000000a0: 56bd 3f3d 193c 3e3d bee1 513d fba0 f63d
000000b0: 1ff3 6ebd ee8c e3bd fec3 3b3d cc93 4e3d
000000c0: 5670 cf3c 9353 25bd da44 eebc 1055 263c
000000d0: ee33 f1bd e7fe a93d 7018 af3d 699e 32bd
000000e0: f062 983d 89ba afbd a5ee 88bd eb87 dd3b
000000f0: 1f87 993d 70c8 c4bd e3f6 8d3d 6920 453d
-0.014252571 -0.08152057 -0.114188746 0.07055122 0.034841772 0.033797517 -0.10062486 -0.044773683
-0.053803455 0.0737838 0.07482866 -0.041333854 0.10864479 0.03174878 -0.03407674 0.101596765
-0.036130328 0.04091261 -0.057116993 0.08531612 0.0726546 -0.08051945 -0.06657517 -0.034853358
-0.057535674 -0.05888641 -0.11150969 0.0032325396 0.04629833 -0.023653142 -0.04748864 -0.013286907
0.02364218 -0.043953467 -0.00830323 -0.104454406 -0.084505394 -0.08539541 -0.02388689 0.022894857
0.046811424 0.046444032 0.051240675 0.12042423 -0.058337327 -0.111108646 0.04584121 0.05043392
0.02532212 -0.040362906 -0.029085565 0.010152116 -0.11777483 0.08300572 0.08549583 -0.043608103
0.07440746 -0.08580501 -0.06686143 0.0067605875 0.074964754 -0.09608543 0.069318555 0.04812661

layers.0.backward_conv1d.weight f4 [64, 64, 1]
00000000: 9924 0e3d 4f08 9c3c 7c49 f4bc 2a35 6e3d
00000010: 45ab 1ebc e32a 27bc 66e6 a5bc fa0d 2bbd
00000020: 4743 db39 f8b6 07bc 1309 e9bc dee6 963c
00000030: dc54 f83c d567 83bd 59cd e6bc 6d7a 24bd
00000040: 0867 5ebd e2c7 333d a222 2dbd 8ad4 b0bc
00000050: 7057 3b3d 143e 61bd 5b05 e4bb 9c8c cb3c
00000060: 5ace eb3c 95fb a93d 6e39 1e3d 8341 473c
00000070: d7c5 f7bc ed69 80bb 654d 1d3c c7e9 e43c
00000080: 7fd5 243d c1d2 a93d 1e07 503d a87c 90bc
00000090: ead7 3cbc 8fe7 d0ba c77c e33c 1467 ccbb
000000a0: ae32 89bc 7dd2 59bd 5065 f6bc 0480 733d
000000b0: 61ae 9e3b 2d7b 14bd 5267 6cbb 9a08 823b
000000c0: 9ff3 02bb 1f05 64bc 527d 41bc f215 9a3c
000000d0: f2f4 f0bc ac40 aebd 3134 ecbc 3ae2 323d
000000e0: 6e7c dabb 70db 5a3d 475e afbb fbc8 17bd
000000f0: 2631 59bd fa97 cbbc caf9 523c 0d52 563d
00000100: d0a4 a03c ec73 8f3d f116 4bbd 780f 503d
00000110: 4a42 45bd 6b20 e9bc 4acb 8dbd b630 3bbd
00000120: b5f5 c2bd 978a 8abd 5aae 8f3b ef5a febc
00000130: c7bb 2ebd 768f 713c 8b0a 3cbc 2c73 babc
00000140: cd29 a8bd 1452 f83c 355b 2dbd d507 b2bd
00000150: 0895 f7bc bca2 b5bd 2100 683d e1c8 60bc
00000160: b62f b93c c59b 8b3c 57cc 9b3d 6f58 82bd
00000170: 92e6 97bc 1a41 6b3d a81d babd 3a60 a0bd
00000180: 066c 23bd cf9e bd3d b031 99bc 7ef1 9abc
00000190: 55c3 94bd d6a3 9e3c aecf 0abd c66c 38bd
000001a0: 46f3 38bd 1495 0dbd 99af 7fbd 2bf9 0ebc
000001b0: cff3 b23d e77d c4bb 4e8d 933d 845c 983d
000001c0: a229 d4bd 2d73 1dbb e1ff 8abd 01f4 433c
000001d0: 84d1 46bd 80e0 c23d d541 a53d 9362 3bbc
000001e0: 946c 933d 6456 843d a9b7 c53c 9e93 1d3c
000001f0: 722d 5ebc 8da4 873c 30af babd 99b6 4b3d
00000200: 0a6b 843d 59c8 e33c 18b7 563d cca3 07bd
00000210: 3654 913d e981 0ebd 5988 0a3d fcdf 82bc
00000220: 4619 9fbd 5cbc eb3b 1242 e1bd d2c6 f9bc
00000230: f4e5 1f3c 940f 59bd 9f2f e1bc 2184 50bd
00000240: 3093 353d a104 a9bd a025 b13d dcda 063d
00000250: 61ed ae3d af73 6cbd 59e4 77bd ade3 6f3d
00000260: ac5c 28bb 0451 be3d 67d7 a8bd 0b37 a9bd
00000270: 1ede 12bd eeae 5d3d 5a6e 36bc 7951 b5ba
00000280: 9f07 c13c abca 84bd 1e2f d33b f666 12bc
00000290: 32c5 27bd 3bc9 f8bc 4fa0 11bb 902a c13d
000002a0: f336 d53b 0c75 bebd 71da 2c3d c431 3c3c
000002b0: 3b80 18bd 4373 c0bd df8b 163d 2350 1cbd
000002c0: 9794 ddbb 176a 803d 9d03 ab3d 0119 9b3d
000002d0: 186e b13c c7de 573d 35ea 413b 6b10 b93d
000002e0: 741d a33b 2be8 b13c b147 393d 80f3 c1bc
000002f0: b278 5e3d c24e abbd 3d1e 0dbd 2ae8 723d
00000300: 92e7 0a3d 04f5 9ebc a36a 843d bd70 a8bd
00000310: c744 453d fa0b 763a 4207 5cbc c4c5 613b
00000320: 8b95 12bd 79a9 5d3d 694a a6bc be6f 41bd
00000330: 4451 16bd 7f10 98bc 9e5d 883c e0d6 273d
00000340: 4b7d 9fbc 43cc 803d 8495 71bd c0e6 13bd
00000350: 393e 06bc 0500 a73d cb20 1f3c d583 6fbd
00000360: a703 073d bdab 873d 1ea1 c5bb c414 1a3b
00000370: dcad 9fbd 27a1 eb3c dc35 0dbd d837 90bb
00000380: 9bfb 033d 588e 80bd b654 fe3c c71e 83bd
00000390: 677d 553d 3ff2 093c 3801 eb3c 4c33 c33c
000003a0: d212 9abd 70a0 b4bc 3af1 cc3c 224c 25bd
000003b0: 967b 783d 24cc cdbc cbf6 da3c 7103 68bd
000003c0: 6844 493d 649b e9bc 428b 513d a640 85b9
000003d0: 663c b9bb c955 88bd c58d 99bc 8ae5 033d
000003e0: c6b1 c8bc 454d 3ebd d7fc d23c 8d2a eabb
000003f0: 524b 5b3d 1706 123d 23b1 86bc 29a3 2d3d
0.03470287 0.01904693 -0.029820196 0.05815617 -0.0096843885 -0.010203096 -0.020251464 -0.041761376
0.0004182106 -0.008283369 -0.02844671 0.018420633 0.030313902 -0.06416289 -0.02817409 -0.040155817
-0.054297477 0.043891795 -0.042269357 -0.021585722 0.045737684 -0.054990843 -0.0069586462 0.024847321
0.02878492 0.082999386 0.038628988 0.012161615 -0.030245705 -0.0039188773 0.009600972 0.027943505
0.04024267 0.08292151 0.050788037 -0.017637566 -0.011526087 -0.001593815 0.02776946 -0.006237874
-0.016747799 -0.053179253 -0.030077606 0.059448257 0.004842565 -0.036250282 -0.0036072326 0.0039683105
-0.0019981635 -0.013917237 -0.011809664 0.018809292 -0.029413674 -0.08508429 -0.02883348 0.043672778
-0.006667665 0.05343193 -0.005351815 -0.037056904 -0.053025387 -0.024852742 0.012876937 0.052324343
0.019609839 0.07004532 -0.049582426 0.050796002 -0.04815892 -0.02845784 -0.0692354 -0.04570075
-0.09519521 -0.06764715 0.004384798 -0.03104922 -0.042659547 0.014743676 -0.011477123 -0.022759996
-0.08211098 0.030312575 -0.04232331 -0.086929 -0.03022243 -0.0886893 0.056640748 -0.013719768
0.022605758 0.01704205 0.07607334 -0.063645236 -0.018542562 0.057435133 -0.09087688 -0.07830854
-0.03989794 0.09258806 -0.01870045 -0.01891398 -0.07263819 0.019365232 -0.033889465 -0.04502561
-0.04515388 -0.034566 -0.062423322 -0.008726398 0.08737909 -0.005996454 0.07204686 0.07439521
-0.10359503 -0.002402495 -0.06787086 0.0119600305 -0.048539653 0.09515476 0.08069197 -0.011437076
0.07198444 0.0646179 0.024135428 0.009617714 -0.01356064 0.016557956 -0.091154456 0.049734686
0.064657286 0.027805494 0.052420706 -0.033115193 0.0709614 -0.03479186 0.033821438 -0.015975945
-0.077684924 0.007194085 -0.1099893 -0.030490313 0.009759415 -0.052993372 -0.027488528 -0.050907258
0.044329822 -0.08252836 0.086497545 0.032923564 0.0854137 -0.057727512 -0.060520504 0.058566738
-0.0025690002 0.09292796 -0.0824421 -0.08262452 -0.03585636 0.054121904 -0.011134708 -0.0013833485
0.023563204 -0.06483968 0.006444826 -0.008935681 -0.040959544 -0.030369392 -0.0022220796 0.09431946
0.0065067946 -0.09299669 0.04220051 0.011486474 -0.037231665 -0.093969844 0.036754485 -0.03816236
-0.006762098 0.06270235 0.083502986 0.075731285 0.021658942 0.05270269 0.002958906 0.090363346
0.0049778763 0.021717152 0.045234386 -0.02367568 0.054314323 -0.08364631 -0.034452666 0.05930344
0.03391225 -0.019403942 0.06465652 -0.08224628 0.048161294 0.000938594 -0.013429465 0.0034450153
-0.035787147 0.0541167 -0.020299153 -0.047225706 -0.036698595 -0.018562553 0.016646203 0.040976405
-0.019468924 0.0628896 -0.05898048 -0.036108732 -0.008193546 0.081543006 0.009712408 -0.058475334
0.032962468 0.06624553 -0.0060311696 0.0023510912 -0.07796833 0.028763367 -0.034475192 -0.0044011883
0.03222237 -0.0627715 0.031046253 -0.06402355 0.052121546 0.008419572 0.028687105 0.023828171
-0.07523121 -0.022049159 0.02501737 -0.04035581 0.060664736 -0.025121756 0.026729008 -0.056643907
0.049137503 -0.028516479 0.051158197 -0.00025415904 -0.005652952 -0.06656987 -0.018744359 0.032201327
-0.024498831 -0.04646041 0.025755329 -0.0071461857 0.053538628 0.03565034 -0.016441887 0.04239193

layers.0.backward_conv1d.bias f4 [64]
00000000: 20b8 d1bd f365 293d c2b7 403c 6e21 b83b
00000010: fe1c 8dbc 28dc 533d 1f2e b23d 6e93 42bb
00000020: 7659 b3bd 429d 8c3d 434b 3c3d 75fd 80bc
00000030: 7a2d b1bd 4b08 8f3d 653f b8bd 58ee 413d
00000040: 59ab 883d b760 b1bd c8eb a03d c1de 433d
00000050: 6014 aabd 35bd c63d 1da7 e8bc 7605 8d3b
00000060: dc83 acbc 6229 b93b 8a61 edbd eb2a e9bc
00000070: 3cc7 d2bd 88c4 35bc 9ed7 a03d 28ea 853d
00000080: ac55 8d3c cbdd cebd 7501 693d 3982 a93d
00000090: 0986 b23d 4330 7d3d 53df 613d 72f4 823c
000000a0: c748 f73d 75e9 f3bc 0641 1a3d 53f7 2e3d
000000b0: 129d 8e3c 2520 ab3d 9e20 f4bc 01c8 96bd
000000c0: c22f 5f3d 84ca 7dbd 9fdb 74bd 1a9e 5e3d
000000d0: 813a aebd 3b4a 0fbd a7b1 a5bd a846 5d3d
000000e0: 0b8b 953d 17ed 5cbd 7ab4 103d 41f9 49bd
000000f0: 7211 40bc 2e7a 6cbd 03e1 4e3c d83e a93d
-0.10240197 0.041356992 0.011762561 0.0056192195 -0.017225739 0.05172363 0.08700203 -0.0029689926
-0.08757298 0.06865932 0.045970213 -0.015745858 -0.08651252 0.06984004 -0.089964665 0.047346443
0.06673307 -0.08661025 0.07857472 0.047819857 -0.083046675 0.09704057 -0.028399998 0.0043036295
-0.02105897 0.005650685 -0.1159087 -0.028462848 -0.10291907 -0.01109422 0.07853626 0.065388024
0.017252766 -0.101008974 0.056886155 0.08276791 0.087169714 0.061813604 0.05514462 0.015985701
0.12074428 -0.029774407 0.037659667 0.042716336 0.017408881 0.083557405 -0.02980071 -0.073623665
0.054488905 -0.061960712 -0.05977976 0.054349996 -0.085072525 -0.0349829 -0.08090525 0.05402246
0.07301911 -0.053937044 0.035328366 -0.049309973 -0.011722909 -0.057733707 0.012626889 0.082639396

layers.0.norm.weight f4 [64]
00000000: 3473 773f 6349 753f 9c23 723f 6490 733f
00000010: 6a5d 603f f1f1 663f d9cd 763f 84db 703f
00000020: 1ebd 623f 0c07 663f f32a 743f dc67 6a3f
00000030: 1f4f 713f ed72 723f 05d3 6e3f 9d6a 763f
00000040: def7 6a3f 5c78 6e3f 1189 753f 5404 703f
00000050: 48ab 703f 5438 6e3f e7c2 723f 2d57 753f
00000060: 7db2 733f 0e8e 773f 97d9 6c3f 676a 6e3f
00000070: 9af8 603f 8d70 6a3f 84d1 753f 0786 6c3f
00000080: 3a49 6a3f 9cf6 723f 09c7 753f a803 793f
00000090: 6928 7a3f 4c97 643f c82d 733f 0d0b 793f
000000a0: 7a4b 6f3f ffd1 6d3f 0c6a 6c3f b61a 753f
000000b0: 3ab6 773f afad 793f 28d0 713f 45c8 703f
000000c0: 9a32 743f e117 723f b89d 753f 160c 6b3f
000000d0: 1b65 6b3f 76db 6b3f 6ff3 6a3f fcc3 713f
000000e0: 55e6 713f bd04 723f fd18 743f 5ac5 753f
000000f0: 04b4 663f 5653 793f 4fc2 653f 4896 643f
0.9666016 0.95815104 0.94585586 0.951422 0.8764254 0.90212923 0.9640785 0.94084954
0.8856982 0.898545 0.95378035 0.91564727 0.94261354 0.9470661 0.9329074 0.9625643
0.91784465 0.93152404 0.9591227 0.93756604 0.94011354 0.930547 0.9482865 0.95836145
0.95194227 0.96701133 0.92519516 0.9313111 0.87879336 0.9157799 0.9602282 0.9239201
0.91517985 0.94907546 0.9600683 0.97271204 0.9771791 0.8929336 0.9499173 0.9728249
0.93474543 0.92898554 0.92349315 0.9574388 0.9676243 0.97530645 0.94458246 0.9405559
0.9538971 0.94567686 0.95943785 0.91815317 0.9195115 0.92131746 0.917777 0.94439673
0.94492084 0.9453848 0.9535063 0.9600426 0.9011843 0.97392786 0.89749616 0.8929181

layers.0.norm.bias f4 [64]
00000000: 9bf0 eb39 4dd8 4cbb ccf1 f3ba 016b ba3a
00000010: d321 aeba d88e 2c3b 24df acba c38d cd3b
00000020: 2838 19bb 1c92 ad39 b039 5dbb 6bf4 4239
00000030: 3129 4ab9 c209 863b 8ac7 0bbc bf96 a9ba
00000040: bda8 f9ba 1242 9a3b 4138 41ba ae1c ccba
00000050: fdb2 433b 086d 01bc 81b1 1dbc 7270 393b
00000060: c25f ddbb 50d4 443a 43f6 91ba 1c02 d03b
00000070: 531b aa39 9d12 1e3c 6278 063c 2613 5cbb
00000080: 3a6a 89bb 7010 c8bb 3468 023c 314e 39bb
00000090: 6f33 6dbb f9ad dd3a 857d 983b cda4 05bb
000000a0: e6ec e03a 961c bcb9 f771 7c3c f41b 7a3a
000000b0: 61eb 08bc d54f 2e3b ad6b 50ba d7b4 ab3a
000000c0: 0839 943a 6799 c33a f3c2 48bb 5290 b33b
000000d0: 1c50 f13b f2be c3bb df77 a13b b00c f9bb
000000e0: 2a59 b13a 11f5 4339 2ce9 efbb 4ff4 1fbc
000000f0: d786 abbb bc00 353b ba59 a5b6 8a29 30bb
0.00045001958 -0.0031256855 -0.001861149 0.0014222563 -0.0013285227 0.0026330259 -0.001318906 0.006273003
-0.002337942 0.0003310599 -0.0033756308 0.00018592335 -0.00019279566 0.0040905187 -0.008531461 -0.0012938603
-0.001904748 0.004707583 -0.0007370748 -0.0015572512 0.0029861324 -0.00789953 -0.00962484 0.0028295782
-0.0067558 0.00075084437 -0.0011136014 0.0063479077 0.00032445285 0.009647992 0.008207412 -0.003358075
-0.0041935714 -0.006105475 0.007959414 -0.0028275365 -0.0036193987 0.001691281 0.004653635 -0.0020392418
0.0017160445 -0.00035879452 0.015408031 0.00095409085 -0.0083569 0.0026597877 -0.0007950615 0.0013100159
0.00113085 0.0014923037 -0.0030633777 0.005479851 0.007364286 -0.00597369 0.00492762 -0.0076003894
0.0013530601 0.00018687944 -0.0073214974 -0.009762838 -0.00523458 0.0027618846 -4.9278287e-06 -0.0026880228

layers.0.ssm.A_log f4 [64, 64]
00000000: 6379 0239 0a56 d73e 7b89 403f efc1 823f
00000010: 4069 a13f ea24 b63f 89bc c93f 31b5 da3f
00000020: 6bb8 e93f 8622 f73f c6a3 0140 dc2e 0740
00000030: b948 0c40 3a03 1140 7f69 1540 6487 1940
00000040: b865 1d40 450b 2140 597e 2440 afc4 2740
00000050: 1ee2 2a40 47da 2d40 7db0 3040 0c68 3340
00000060: 5903 3640 7284 3840 58ed 3a40 d73f 3d40
00000070: 6d7d 3f40 96a7 4140 e4bf 4340 29c7 4540
00000080: 6abe 4740 a2a6 4940 ae80 4b40 5a4d 4d40
00000090: 600d 4f40 73c1 5040 1a6a 5240 fe07 5440
000000a0: eb9b 5540 1826 5740 00a7 5840 0b1f 5a40
000000b0: a28e 5b40 21f6 5c40 e055 5e40 3eae 5f40
000000c0: 88ff 6040 024a 6240 ed8d 6340 8bcb 6440
000000d0: 1c03 6640 d834 6740 ad60 6840 a687 6940
000000e0: 25a9 6a40 a6c5 6b40 96dd 6c40 84f0 6d40
000000f0: cafe 6e40 4309 7040 1a0f 7140 b010 7240
00000100: e6f9 3bb9 1d95 c23e 87ed 3d3f 17cf 823f
00000110: b163 9f3f 7426 b63f 4cbd c93f 60b9 da3f
00000120: e7b6 e93f 3b22 f73f c3a3 0140 242f 0740
00000130: 5d49 0c40 3903 1140 ce69 1540 6a87 1940
00000140: a765 1d40 460b 2140 5f7e 2440 bbc4 2740
00000150: 1fe2 2a40 54da 2d40 85b0 3040 0b68 3340
00000160: 5a03 3640 7284 3840 59ed 3a40 d73f 3d40
00000170: 737d 3f40 96a7 4140 e4bf 4340 29c7 4540
00000180: 6abe 4740 a2a6 4940 ae80 4b40 5a4d 4d40
00000190: 610d 4f40 73c1 5040 1a6a 5240 fe07 5440
000001a0: eb9b 5540 1826 5740 00a7 5840 0b1f 5a40
000001b0: a28e 5b40 21f6 5c40 e055 5e40 3eae 5f40
000001c0: 88ff 6040 024a 6240 ed8d 6340 8bcb 6440
000001d0: 1c03 6640 d834 6740 ad60 6840 a687 6940
000001e0: 25a9 6a40 a6c5 6b40 96dd 6c40 84f0 6d40
000001f0: cafe 6e40 4309 7040 1a0f 7140 b010 7240
00000200: 913b 7ab9 c1a2 e93e 87ed 443f 5fd4 823f
00000210: ee87 a33f 484f b63f dabb c93f 07c2 da3f
00000220: 3cb9 e93f 6122 f73f c3a3 0140 902e 0740
00000230: 9f49 0c40 3d03 1140 7669 1540 7487 1940
00000240: b465 1d40 3d0b 2140 5a7e 2440 c0c4 2740
00000250: 1ae2 2a40 3bda 2d40 7bb0 3040 0c68 3340
00000260: 5903 3640 7284 3840 58ed 3a40 d73f 3d40
00000270: 767d 3f40 96a7 4140 e4bf 4340 29c7 4540
00000280: 6abe 4740 a2a6 4940 ae80 4b40 5a4d 4d40
00000290: 600d 4f40 73c1 5040 1a6a 5240 fe07 5440
000002a0: eb9b 5540 1826 5740 00a7 5840 0b1f 5a40
000002b0: a28e 5b40 21f6 5c40 e055 5e40 3eae 5f40
000002c0: 88ff 6040 024a 6240 ed8d 6340 8bcb 6440
000002d0: 1c03 6640 d834 6740 ad60 6840 a687 6940
000002e0: 25a9 6a40 a6c5 6b40 96dd 6c40 84f0 6d40
000002f0: cafe 6e40 4309 7040 1a0f 7140 b010 7240
00000300: 26af 8d3a f62a cd3e 614e 3f3f 91c7 823f
00000310: 1074 a03f 6326 b63f c3bc c93f 34b3 da3f
00000320: e7b7 e93f 5a22 f73f c4a3 0140 182f 0740
00000330: 2149 0c40 3903 1140 a969 1540 6587 1940
00000340: b165 1d40 450b 2140 607e 2440 b9c4 2740
00000350: 1fe2 2a40 53da 2d40 87b0 3040 0b68 3340
00000360: 5a03 3640 7284 3840 58ed 3a40 d73f 3d40
00000370: 727d 3f40 96a7 4140 e4bf 4340 29c7 4540
00000380: 6abe 4740 a2a6 4940 ae80 4b40 5a4d 4d40
00000390: 610d 4f40 73c1 5040 1a6a 5240 fe07 5440
000003a0: eb9b 5540 1826 5740 00a7 5840 0b1f 5a40
000003b0: a28e 5b40 21f6 5c40 e055 5e40 3eae 5f40
000003c0: 88ff 6040 024a 6240 ed8d 6340 8bcb 6440
000003d0: 1c03 6640 d834 6740 ad60 6840 a687 6940
000003e0: 25a9 6a40 a6c5 6b40 96dd 6c40 84f0 6d40
000003f0: cafe 6e40 4309 7040 1a0f 7140 b010 7240
0.00012442986 0.4205783 0.7520978 1.0215434 1.2610245 1.4230015 1.5760661 1.7086545
1.8259405 1.9307411 2.025621 2.112235 2.1919386 2.265822 2.334564 2.3988886
2.4593334 2.5163128 2.5702116 2.6213796 2.670051 2.7164476 2.760772 2.8032255
2.8439543 2.8830838 2.9207363 2.9570215 2.9920304 3.0258536 3.058587 3.0902808
3.120997 3.1507955 3.179729 3.2078462 3.2351913 3.2618072 3.287726 3.3129878
3.3376415 3.3617 3.3851929 3.4081447 3.4305806 3.4525225 3.4739914 3.49501
3.5155964 3.535767 3.5555375 3.5749233 3.5939398 3.6126003 3.6309006 3.6489043
3.6665738 3.6839385 3.7010245 3.717805 3.734301 3.7505653 3.7665467 3.7822685
-0.00017926804 0.3800439 0.7419056 1.0219449 1.2452298 1.4230485 1.5760894 1.7087822
1.8258942 1.9307321 2.0256202 2.1122522 2.1919777 2.2658217 2.3345828 2.39889
2.4593294 2.516313 2.570213 2.6213825 2.6700513 2.7164507 2.760774 2.8032253
2.8439546 2.8830838 2.9207366 2.9570215 2.9920318 3.0258536 3.058587 3.0902808
3.120997 3.1507955 3.179729 3.2078462 3.2351916 3.2618072 3.287726 3.3129878
3.3376415 3.3617 3.3851929 3.4081447 3.4305806 3.4525225 3.4739914 3.49501
3.5155964 3.535767 3.5555375 3.5749233 3.5939398 3.6126003 3.6309006 3.6489043
3.6665738 3.6839385 3.7010245 3.717805 3.734301 3.7505653 3.7665467 3.7822685
-0.00023864048 0.45631984 0.7692494 1.022106 1.2775857 1.4242945 1.5760453 1.7090462
1.8259654 1.9307367 2.0256202 2.112217 2.1919935 2.2658226 2.3345618 2.3988924
2.4593325 2.516311 2.570212 2.6213837 2.6700501 2.7164447 2.7607715 2.8032255
2.8439543 2.8830838 2.9207363 2.9570215 2.9920325 3.0258536 3.058587 3.0902808
3.120997 3.1507955 3.179729 3.2078462 3.2351913 3.2618072 3.287726 3.3129878
3.3376415 3.3617 3.3851929 3.4081447 3.4305806 3.4525225 3.4739914 3.49501
3.5155964 3.535767 3.5555375 3.5749233 3.5939398 3.6126003 3.6309006 3.6489043
3.6665738 3.6839385 3.7010245 3.717805 3.734301 3.7505653 3.7665467 3.7822685
0.0010809645 0.4007184 0.7472897 1.0217153 1.253542 1.4230465 1.576073 1.7085938
1.8259248 1.9307358 2.0256205 2.1122494 2.1919634 2.2658217 2.334574 2.3988888
2.4593318 2.5163128 2.5702133 2.621382 2.6700513 2.7164505 2.7607744 2.8032253
2.8439546 2.8830838 2.9207363 2.9570215 2.9920316 3.0258536 3.058587 3.0902808
3.120997 3.1507955 3.179729 3.2078462 3.2351916 3.2618072 3.287726 3.3129878
3.3376415 3.3617 3.3851929 3.4081447 3.4305806 3.4525225 3.4739914 3.49501
3.5155964 3.535767 3.5555375 3.5749233 3.5939398 3.6126003 3.6309006 3.6489043
3.6665738 3.6839385 3.7010245 3.717805 3.734301 3.7505653 3.7665467 3.7822685

layers.0.ssm.D f4 [64]
00000000: 5c4f 753f 6c37 703f 5e1f 7a3f b882 743f
00000010: 78a1 6f3f 7026 783f 9cd4 753f 3ce8 7a3f
00000020: 1595 733f cbdc 6f3f d635 753f 3124 703f
00000030: 6b1b 733f 1767 673f 027c 633f b607 6b3f
00000040: 1f2d 6f3f 9588 733f dfb9 6a3f 6e98 783f
00000050: 5715 6b3f 8fd9 713f 625a 6c3f e44e 6f3f
00000060: 12fa 783f 7f35 6e3f a072 6d3f 8b30 753f
00000070: 3251 783f 0604 763f ef6a 703f 1fcd 663f
00000080: 427e 6e3f 98ef 763f f9c6 6b3f 9bc6 703f
00000090: 3f52 733f a7d8 723f c630 723f 1f70 703f
000000a0: 2982 793f 0d4e 6e3f 473e 6c3f 7869 743f
000000b0: f9bf 6f3f 39d0 6f3f 193e 713f 6cf4 733f
000000c0: 090c 753f 2702 773f 9e7a 793f 5567 783f
000000d0: af9e 683f 06f8 763f e5f8 703f a8de 723f
000000e0: 5608 7a3f 73b4 783f 5944 6a3f fc8f 633f
000000f0: 1b01 673f e4ef 663f f3bb 6a3f b35b 783f
0.9582422 0.9383457 0.9770411 0.9551196 0.93605757 0.9693365 0.9602754 0.9801061
0.95149356 0.9369628 0.9578527 0.93805224 0.9496371 0.9039168 0.88861096 0.9180864
0.93428224 0.9513028 0.91689867 0.9710759 0.91829437 0.94472593 0.92325413 0.9347975
0.97256577 0.9305038 0.9275303 0.95777196 0.96998894 0.9609989 0.9391317 0.9015674
0.93161404 0.9645934 0.92100483 0.9405305 0.9504737 0.94861835 0.9460567 0.93921083
0.97464234 0.93087846 0.9228253 0.9547343 0.936523 0.936771 0.9423538 0.95294833
0.9572149 0.9648766 0.97452724 0.9703267 0.9086713 0.96472204 0.9412978 0.94870996
0.9766897 0.97150344 0.9151054 0.8889158 0.9023606 0.90209794 0.9169304 0.9701492

layers.0.ssm.deltaBC_layer.weight f4 [144, 64]
00000000: 0a66 c83d 71c8 dd3c 6568 e73d f4e8 0bbd
00000010: d7ab 483d b82b ce3d 3a35 0cbc 56ce bd3d
00000020: 7b71 d3ba 7029 12bd c052 4c3d 0620 e53b
00000030: 1858 903d b351 e13c dac5 55bd cb61 173c
00000040: eb19 c9bd 2f1b 963d c3fc c1bd ac18 6dbd
00000050: b238 7cbd 1f37 c7bd 4eee 843d 9d80 debd
00000060: 6180 a9bd 5280 973c b640 cabd f376 953d
00000070: 59b7 c53c 5f78 de3d 4a98 f1bc c9cb e73d
00000080: c2b2 81bd 096c c9bc 67fb ddbd bd0c a13b
00000090: 7d6e d3bd be18 7b3c bc04 f4bd 2943 db3d
000000a0: 1116 d63d 2a26 c9bd 5147 d33d 980c cebc
000000b0: 0db6 423d f274 5c3d 5a9f 97bd a707 223d
000000c0: 940a 59bc 5cf4 a1bd 08b6 d43d 489c e83d
000000d0: c9e8 8d3c 89ab c2bd 0f17 e73d ab1e 25bd
000000e0: 5188 8c3d 67e6 69bd 0c9d c63d 009e debd
000000f0: 4a46 eb3d 70b4 363d 0d88 be3d 1e79 6b3d
00000100: 9d11 68bd 1722 453d 3b20 a43d 000f 783d
00000110: 4658 bdbd f917 b63c dab5 e8bc 1eba 9c3d
00000120: 602f 35bd fc98 94bd d094 773d 661c dabd
00000130: 0a99 8dbd 0b74 80bd 125d 85bd cbd6 533d
00000140: 97e0 153d 00bc d43d 4fe8 853c f49b 95bd
00000150: 94df 27bc 84a1 dc3d 578a f5bc de23 36bc
00000160: be54 3b3d cf2b b5bd 0ea8 a03d eedc e03d
00000170: 9c49 ea3d 38f8 2dbd 8e67 ecbd 6910 9d3d
00000180: b255 813c 92d0 523c 2a5a dc3d 1e20 d83c
00000190: 4ba9 e2bd 1205 693d e311 8a3d f9e8 3bbd
000001a0: dffe edbb 076e 74bc 25e8 193d bfad 993d
000001b0: c4ac d6bd b203 d5bd 0fc5 1cbd f9ac 54bd
000001c0: cb4f dc3d 65c4 823c b8b8 873c d1c6 18bd
000001d0: cd02 973d 5067 703c a791 a3bc 9093 0d3d
000001e0: 1f9d 21bd b03c 213d c4a3 63bd 0d93 8e3d
000001f0: 1c24 6a3d eb29 c5bd 1708 44bd dfdd 643c
00000200: 7a67 cd3d 2c1f 0c3d 74b4 d03d b996 b93c
00000210: 7c15 c6bd 2a38 573d 0700 d43d e621 cd3d
00000220: 1916 033d 1aec f43b 6484 03bd ad23 b73d
00000230: b7ba 853c fdc4 9cbb 21a2 a93c 75b5 67bd
00000240: aac7 9fbd 5ad3 39bb 549c aa3d 8bc5 323d
00000250: 728d d0bb ae80 4b3d 40a7 40bc 9cd3 c53d
00000260: fab0 473d 1bbf 96bd 2739 d6bd 3cb7 373c
00000270: 4d23 3d3d cc6c a8bd ff7c a83d 8766 c9bc
00000280: 1eec cf3c f35d 04bd 38d6 713d 5ddb d6bb
00000290: ab04 89bb 9148 33bd 90ce ea3c 14dd b8bc
000002a0: 97b9 60bb 4969 c4bc 2a75 23bd 4058 4fbd
000002b0: ce59 c43c 4f3d 32bd 5c0c 5d3d 57a7 c33d
000002c0: 830c a33d e5b7 e2bd 37eb aebd b436 803d
000002d0: 0fe0 92bd 0c05 e53d 0625 c1bc bd65 ee3d
000002e0: 1bc1 a63d e9c4 fa3d a2d6 9c3d 3a24 99bc
000002f0: 58dc 9abd e6c3 353d 4b59 e13d afb1 c8bc
00000300: cec1 233c a484 7ebc aa92 333d 5089 e9bd
00000310: 5694 bfbc 58f0 cdbd 5dfa b63b 5d3f e73d
00000320: dcfc 05bd 7e97 913d c00b fc3c 53ce c7bd
00000330: da4b e4bc 3066 6b3b 7d47 e83d 03c4 483d
00000340: aeea 133d 3915 f83c 9c79 d53d 2aa9 713d
00000350: a063 deba 7c2f c73c 7a81 72bd 6a7d d2bd
00000360: 961e 9abd 6073 a1bd 4c9b b13d 6f59 713c
00000370: e854 abbd 1a2e 62bd 873d c0bd 7fbb f23d
00000380: 263b d83d 7773 673d ad1e 82bd b50f 0cbd
00000390: 09fd 8dbc 4d3b c6bd e6b0 9d3d c6db d6bc
000003a0: a5a8 033d d045 183d 47a2 723d c646 bfbd
000003b0: 3673 9a3d 2b16 933c ccf8 753d d740 6dbd
000003c0: 14fc ce3d ffcf 0ebd 9eb4 31bc 57cd 993d
000003d0: 759e c73d 8631 4abd f554 8dbd 004b 79bd
000003e0: 4606 16bd 60e5 e1bd 13c1 723c f440 5abd
000003f0: 7e59 c93d 410a adbc 673c a13d b01d 943d
0.097850874 0.027073117 0.112992086 -0.03415771 0.048992004 0.100669324 -0.008557612 0.09267871
-0.0016131842 -0.03568405 0.049883604 0.006992343 0.070480525 0.027504778 -0.05219064 0.009239624
-0.098193966 0.073294036 -0.094720386 -0.057884857 -0.061577506 -0.097273104 0.064907655 -0.10864375
-0.082764395 0.018493805 -0.09875624 0.072980784 0.024135279 0.10862803 -0.029491562 0.11318166
-0.063329235 -0.024587648 -0.10838967 0.0049148486 -0.10323808 0.015325723 -0.119149655 0.10706169
0.104534276 -0.09821732 0.10316337 -0.02515249 0.0475369 0.053822465 -0.07403441 0.03955808
-0.013247151 -0.07907936 0.10386282 0.11357933 0.017322915 -0.09505374 0.11283695 -0.04031245
0.06861938 -0.057104494 0.09697923 -0.1086998 0.11488016 0.044605672 0.093032934 0.057488553
-0.056657422 0.048128214 0.0801396 0.06056118 -0.092453524 0.022228228 -0.028407026 0.076526865
-0.044234633 -0.07255742 0.060444653 -0.10649948 -0.069139555 -0.062721334 -0.065118924 0.051718514
0.03659114 0.10387421 0.016346125 -0.07305136 -0.010246176 0.10772994 -0.029973192 -0.01111695
0.045735113 -0.088462465 0.07844554 0.10979639 0.11439821 -0.042473048 -0.11543189 0.076691456
0.015787933 0.01286711 0.10759385 0.026382502 -0.11067446 0.0568896 0.06741693 -0.045876477
-0.007263049 -0.014918811 0.037574906 0.075038426 -0.10482171 -0.104010954 -0.038273867 -0.051922772
0.10757407 0.015962789 0.016567573 -0.03729898 0.07373581 0.014673069 -0.019966913 0.034564555
-0.039456483 0.039364517 -0.0555761 0.069616415 0.057163343 -0.09627136 -0.047859278 0.013968914
0.10029502 0.034209415 0.10190669 0.022654878 -0.096720666 0.052543797 0.10351568 0.10016231
0.032003496 0.0074744346 -0.03210868 0.089423515 0.016324384 -0.004784225 0.020707192 -0.056569535
-0.07801755 -0.0028354735 0.083305985 0.043645423 -0.006364518 0.049683265 -0.0117586255 0.09659502
0.048752762 -0.07360669 -0.1046012 0.01121312 0.046176244 -0.08223876 0.08226966 -0.024585022
0.025381144 -0.03231616 0.059042186 -0.006556912 -0.0041814647 -0.043770377 0.02866295 -0.022566356
-0.0034290308 -0.023975985 -0.03990666 -0.05062127 0.023968603 -0.0435155 0.053966865 0.09553402
0.07961371 -0.11070231 -0.085409574 0.06260434 -0.07171642 0.11182603 -0.023577224 0.11640499
0.08142301 0.12244589 0.076581255 -0.018694032 -0.075615585 0.044376276 0.110033594 -0.024498789
0.009994937 -0.015534554 0.04384104 -0.114031434 -0.023386162 -0.100556076 0.005584045 0.112913825
-0.03271185 0.07108973 0.030767322 -0.0975615 -0.0278682 0.0035919063 0.1134176 0.049015056
0.03611248 0.030283557 0.10423586 0.058999218 -0.0016966946 0.024314635 -0.05920551 -0.10277827
-0.07525365 -0.07883334 0.08672199 0.014730795 -0.08365804 -0.055219747 -0.093867354 0.11852168
0.10558157 0.0565066 -0.06353507 -0.034194667 -0.01733257 -0.096792795 0.07699756 -0.026227843
0.032143254 0.037175953 0.05923679 -0.09339671 0.07541506 0.017954906 0.060051724 -0.057923164
0.10106674 -0.03486633 -0.010846285 0.075098686 0.0974702 -0.049363635 -0.0690097 -0.06086254
-0.036627077 -0.11030078 0.01481654 -0.0532846 0.098315224 -0.021123054 0.07872849 0.07232225

layers.0.ssm.dt_proj_layer.weight f4 [64, 16]
00000000: c010 b3bd 12df 963d 4aac 9e3d b785 c03d
00000010: b2db 4c3d 5514 3b3e 5361 52be 50e6 14be
00000020: 7694 b4bd bfc2 3bbd 560f ad3d 26f1 31be
00000030: cbfc b8bd c246 10be 1b77 203e 5383 48bd
00000040: 977f 62ba 75c7 443e b76c 94bd 578f 233e
00000050: 51ab 273e 4631 163e f150 d7bd 8e60 85bd
00000060: febd 523e 2171 d43d 2ebe 1e3c c1b0 d73c
00000070: 0203 e33c 112e b63d 9eea 92ba ba7e 673e
00000080: b16b 7f3d 18fa 89bd 0de3 a8bb 7e1c 40be
00000090: c09c da3d b518 513e a69a 393e 3b44 743c
000000a0: 6868 35bd 23e2 16be 4b78 6e3e 9084 89bd
000000b0: 037a 373d 609b afb8 1d22 c03c 2cc1 4abe
000000c0: 6f31 7cbd 452d f8bd 5d25 91bd 9707 c2bd
000000d0: 6f3f 2dbd 8d8b 37bd 6f18 adbd eac4 e5bb
000000e0: 5a6a 163e 7ab8 d4bd 2a1d e23d d012 bf3d
000000f0: 3d6a 1cbd 0c63 73bd f175 40be b60b 87bd
00000100: 7b3b cebd 25c8 e83d 1bd5 e0bd d154 b9b9
00000110: 1e20 3b3d db6f 5a3e eecf fcbd 211f 443c
00000120: 2abb 243e 87eb 05be 4bc8 033d 9d24 4ebe
00000130: 05fe 96bc 8c5c 1dbe 18f1 2ebd 3233 123e
00000140: 9ac7 5ebe 8a47 553e 5dc9 0bbe ce92 de3c
00000150: 0d87 233e ce3a da3d 366f 28be e969 c1bd
00000160: 4926 76bc 7612 683d 3211 ef3d d1de 5a3e
00000170: 93b9 d13d 16e2 a73d 08b1 c0bd e4fd 243e
00000180: 097d 23be e5b8 1cbe ba72 233e 122c babd
00000190: 032d 5abc 769a b1bd 4d12 64be 3a38 d53b
000001a0: 15f6 4abe b909 2d3e fd9d e73c e29a e03d
000001b0: 5a86 c33c 0b81 183d f27b a73d 5549 1a3e
000001c0: 8478 643e 82db 863d 9880 a43c d980 f9bc
000001d0: ca51 d33d 73c3 dd3d 1d69 a93c 88db 593e
000001e0: 6690 6dbd 7830 19be a789 74be abbd a73c
000001f0: 7669 0d3e ff3d 69be a138 14bd 9eef fabc
00000200: 3466 dbbd 2fba 08be c0af 4cbe f464 39bd
00000210: f12f d1ba 6a6b 1cbe 96b9 02be 3385 3ebd
00000220: c8f3 01bd 24a1 a4bd 2e9c 193e 59b3 02be
00000230: 1404 853d a62e 23bd 4ff9 1bbe 59dc 243e
00000240: 0aa4 edbd 19b6 8dbd 9ea6 a23d 63b7 0bbe
00000250: 6f99 0abe 7ca2 223d d899 2ebd 822c ff3c
00000260: 5fa9 1f3c c814 133b 1bff 4bbe e4cf 4dbe
00000270: 7c89 a33d 5b85 043e 4ca7 03bd d91e 2abe
00000280: 2195 9f3d a58e df3d 5d6e 26be 7cf7 8ebb
00000290: 4e39 233d 2f72 31bd d94f fbbc 9fdb 99bd
000002a0: 0068 503e 6452 1b3e 7f38 61be 162e d3bd
000002b0: 12db 9cbd 276d 8c3c 6e6c c1bd 62e9 2e3e
000002c0: debd 0fbe 9f33 11be e5b7 bbbd d715 dabd
000002d0: eeca c5bd ae14 2abd 9d87 31be 6f2c 8d3d
000002e0: ed72 3ebe eaea 6d3d 93c7 2f3e 1c3f 7cbd
000002f0: fbfb 163c 2670 493d 3881 18be 3a88 1c3e
00000300: 2d9a a13d 325a 0cbe 150f 873d e758 ef3c
00000310: 928d 12be 7ffc 0abe d96b 67bd f064 ff3d
00000320: 3dc1 c33c 2982 143e d98b 89bc 0cd7 9ebd
00000330: d609 03bc 5098 493e 73e6 a6bd ad04 753e
00000340: 0448 0f3e fa20 c9bd e972 35be 5b11 6bbc
00000350: 7e20 d33d 92a8 213d 7540 d83d a6e9 e2bc
00000360: 654b f8bd 00a0 dd3c 8cea 333e 54b5 613e
00000370: f55f de3c 049e fabc a8ef 353a bda2 13be
00000380: b292 c6bd dfb4 86bd 4125 843d 71c5 943d
00000390: cee8 05be deb3 bf3c 8837 2a3e 3cb0 ffbc
000003a0: 4b3a 003e 880a 023e ffd6 c53d ab4e b43d
000003b0: 3807 36bd 85bd f3bd 4247 87bc 77d5 2c3e
000003c0: 2b53 153e bc17 6a3d ebf3 34be 9a03 4e3e
000003d0: 61ad b1bd 698d 5b3e aa5b 543e 47f8 fcbd
000003e0: 2960 b33c 23e6 f03d 0012 5dbe c532 0a3d
000003f0: 1606 293b ce38 473d 57e8 493e 0625 c3bd
-0.08743429 0.07366766 0.07747705 0.09400504 0.050014205 0.18269475 -0.20544939 -0.14540982
-0.08817379 -0.04584002 0.08450191 -0.17377147 -0.090325914 -0.14089492 0.15670435 -0.048953366
-0.0008640228 0.19216712 -0.07247298 0.15972649 0.16373946 0.14667234 -0.10513485 -0.06512557
0.20580289 0.1037314 0.009688897 0.0263294 0.027711395 0.08895505 -0.0011208837 0.22606936
0.062358562 -0.06737155 -0.0051540197 -0.18760869 0.10674429 0.20419581 0.181254 0.014908846
-0.044289023 -0.14734702 0.23288076 -0.067147374 0.044794094 -8.373591e-05 0.023453766 -0.19800252
-0.06157058 -0.121180095 -0.070872046 -0.09474104 -0.042296823 -0.04481082 -0.08451926 -0.0070119994
0.14689007 -0.103867486 0.11040719 0.0932976 -0.038187254 -0.05942063 -0.18794991 -0.065940306
-0.10069939 0.113662995 -0.10978147 -0.00035349143 0.045684926 0.21331732 -0.12344347 0.011970312
0.16087022 -0.13078128 0.032173436 -0.20131154 -0.018431673 -0.15367335 -0.042710394 0.14277342
-0.2175583 0.20828071 -0.13651033 0.027169611 0.15969487 0.10655747 -0.16448674 -0.09444029
-0.015023776 0.05665823 0.116732016 0.2137406 0.102404736 0.08197419 -0.09408766 0.16112477
-0.15965666 -0.15304907 0.15961733 -0.09090437 -0.013316396 -0.08672039 -0.22272606 0.006506947
-0.19820435 0.1689824 0.028273577 0.109670416 0.023867775 0.03723244 0.081779376 0.15067036
0.22311598 0.065848365 0.02008085 -0.030456947 0.103183344 0.108282946 0.020680005 0.21275151
-0.057999037 -0.14959896 -0.23880635 0.020476183 0.13809761 -0.22777556 -0.036186818 -0.030631837
-0.10712853 -0.13352273 -0.19988918 -0.045262292 -0.0015959722 -0.1527535 -0.12766108 -0.046513747
-0.03172663 -0.08038548 0.15000984 -0.12763728 0.064949185 -0.03983941 -0.15231822 0.16099681
-0.116035536 -0.06919498 0.07941936 -0.13644175 -0.13535093 0.03970574 -0.042627186 0.031149153
0.009744971 0.0022442807 -0.19921534 -0.20098835 0.079852074 0.12941496 -0.03214197 -0.1661333
0.07792116 0.10915879 -0.16253038 -0.0043629985 0.039849572 -0.043321785 -0.030677723 -0.075125925
0.20352173 0.15168148 -0.21994208 -0.103115246 -0.07658972 0.017141892 -0.094445094 0.17081216
-0.14037272 -0.14179848 -0.091659345 -0.10648697 -0.096578464 -0.041523628 -0.17336889 0.06893241
-0.18598528 0.05808536 0.17165975 -0.061583623 0.00921535 0.04917922 -0.14893043 0.15286341
0.07890735 -0.13706282 0.065946735 0.029217197 -0.14311817 -0.13572882 -0.056499336 0.12470424
0.023895854 0.14502777 -0.016790317 -0.07755861 -0.007997951 0.19687009 -0.081494235 0.23927565
0.13992316 -0.09820743 -0.17719616 -0.0143474 0.10308932 0.0394674 0.10559169 -0.027699303
-0.12123755 0.027053833 0.17569941 0.22041827 0.027145365 -0.030592926 0.00069403136 -0.14417548
-0.09695949 -0.06577467 0.06452418 0.072642215 -0.13077089 0.023401197 0.16622746 -0.031211965
0.12522237 0.1269933 0.09660148 0.08804067 -0.044440478 -0.11901382 -0.01651347 0.16878305
0.14582507 0.05715154 -0.17671172 0.20118561 -0.086756475 0.21440662 0.20738092 -0.12352043
0.021896439 0.11762645 -0.21588898 0.033739824 0.002579098 0.048638158 0.19717537 -0.09528546

layers.0.ssm.dt_proj_layer.bias f4 [64]
00000000: 5f40 493d 4ebf 343e eaf8 e5bc 3ef4 693e
00000010: e7ce d53d 3aa7 4abe 5bb7 82bd c9fe 353e
00000020: 83c2 e73d f566 6d3e 42ae 2a3e 3d35 3f3e
00000030: a345 26be 0020 433e f319 b83c fefe 763e
00000040: 39a6 a8bd 09d9 93bb e277 31be a8bd 61bd
00000050: c6c3 303d 0129 91bd 7b85 aebd a637 423e
00000060: 6054 a83d 2e12 253e b010 65bd 58b7 263d
00000070: cc72 ed3d ac1c 723c 7fc9 3c3e 8c10 45be
00000080: f6e8 57be 855f b03d 8401 b3bb 678f a13c
00000090: 6185 5c3e 3df1 5cbe a091 323e 7d19 f8bd
000000a0: 12a5 043e 3049 f83d 5779 8ebd d4d9 c9bd
000000b0: e813 4bbe 30bd 72be 3ac6 4d3e 024e e33b
000000c0: b07e 183d 6c9b 52bc a5af 5ebe 128d 42be
000000d0: 7981 293e 3041 233e effb 4cbe 6efc 2ebd
000000e0: 8aae 2abe 013c 413e 4ee8 623e 3396 4cbe
000000f0: 3fa7 8bbd effa 01be edc4 b53c 5a78 9ebd
0.049133655 0.17651102 -0.028072793 0.22847077 0.10439854 -0.19790354 -0.063826285 0.17772974
0.11316397 0.23183806 0.16668037 0.18672653 -0.16237502 0.19055176 0.022473311 0.2412071
-0.082348295 -0.0045119566 -0.17330888 -0.05511251 0.043155454 -0.07087899 -0.08521553 0.1896654
0.08219218 0.16120216 -0.055924118 0.040702194 0.115941614 0.014777344 0.1843624 -0.19244593
-0.21084961 0.08611969 -0.005462827 0.0197217 0.21535255 -0.215764 0.17438364 -0.121142365
0.12953594 0.121233344 -0.069567375 -0.098560005 -0.19831812 -0.23704982 0.20095149 0.0069367895
0.037230194 -0.012854438 -0.2174669 -0.18999127 0.16553296 0.15942836 -0.2001798 -0.042721204
-0.16668144 0.18870546 0.2215893 -0.19979171 -0.06819009 -0.1269338 0.022188628 -0.07737799
