pengujian_parameter/3/vim/vim_model_2.pth (torch, 117409 bytes, 58 tensors)

cls_token f4 [1, 1, 28]
00000000: 1b7d a2be 3b02 87bf 5ad4 cf3e 6a6e a1bf
00000010: ee3a 99be 9b46 abbf 1eb8 19bf fa1f 65be
00000020: 521f 9abf de46 1cbf a34e 043e e22b 62bf
00000030: 58a4 533e bad2 d4bf 083a d5be 69ed 243f
00000040: cce5 a7bf fd7f 443f 0991 843f d08a 873e
00000050: ef6d bd3f c964 99bd 388d 713f 4204 b4be
00000060: 3e20 b3bf dfe6 353f c17c a03f 6577 893c
-0.31736073 -1.0547556 0.405917 -1.2611821 -0.29927772 -1.3380922 -0.60046566 -0.2237548
-1.2040808 -0.61045635 0.12920623 -0.8834821 0.20668161 -1.6626809 -0.41645837 0.6442476
-1.3117003 0.76757795 1.0356761 0.26473093 1.4799174 -0.07489926 0.9435611 -0.35159498
-1.3994215 0.71055406 1.2538072 0.016780565

to_patch_embedding.1.weight f4 [28, 169]
00000000: a414 cc3c 904e c63c 816d d03b f116 44bd
00000010: 11d5 9ebc 2775 75bd 38e8 593d 8fb4 38bc
00000020: b37e fd3c 0b98 dc3c ec2a f7bc 9a8b 72bd
00000030: d168 f0bc c399 04bd 2223 8abd 33f0 0a3d
00000040: 5856 5ebd f402 243d 8079 23bd 095f de3c
00000050: 10f0 a0bb ea74 203d c681 40bd 17cd ddba
00000060: 0347 16bd 4aad 2f3d 3814 cdbc d4dc 4fbd
00000070: 3ab3 333c 62ea eb3c 4aef 803d 01df 8b3d
00000080: 2e12 15bd 85d7 1b3d 200f 62bd 0335 1cbd
00000090: a6f0 ee3a 1e34 d83c e1e3 49bd 91dd 2f3d
000000a0: 4c21 26bd 34df 123d cce7 3a3d 7c6f a03d
000000b0: 284f b83c c98a 3dbd 472a 9f3a b28d b73c
000000c0: b820 613d 325e 113d 35d9 40bd 3771 ebbc
000000d0: d068 2d3d cfd8 02bd f893 663d 0fc8 993d
000000e0: 070a 55bd 9bbf 163c da4f 3b3c 0366 803d
000000f0: 8190 11bd 703f 903d 2274 db3c 72a0 08bb
00000100: 672f a3bc 0b88 203c 7c50 5ebd 9fe9 3cbd
00000110: 5618 863c 3a90 1a3d 56e3 543c d138 84bb
00000120: 12f3 a73d 67cb 7dbc 5a21 4a3d 2678 173d
00000130: e246 18bd 7e94 51bc 0128 d13c 4e73 7b3d
00000140: b018 cc3c 3d94 ecbc 347a 09bd c4d1 be3b
00000150: efb0 8ebd 2a9b 11bd a117 a5bd edca 1ebd
00000160: e7b4 e83c ffa7 b93d 20ef 6b3d 98ab a83d
00000170: 6608 3ebc f063 b83d 45f4 4d3d 3acf 0abd
00000180: 9f25 29bc 3145 81bd df9f b8bd 3ff0 ea3c
00000190: 60b4 65bd 0635 6b3c cb5d 11bd 8970 18bd
000001a0: e8b6 7fbc 96df 203d 1c43 b03b 0d26 42bc
000001b0: a5c8 fa3a cb69 d83c 73c7 163b 3bfd 3a3d
000001c0: e4a2 6cbd 1e35 93bd b386 9abd f037 213d
000001d0: 8709 6bbd 8e6d 99bc ba9b 713d 4910 b73d
000001e0: b227 d4bb 2185 a93c ca70 8bbd 9e3d 48bd
000001f0: 8e17 103d 938b c039 712f a33d 54f3 813d
00000200: f59f 52bb d45e 2c3d 3ddb 9a3c e4ab 973c
00000210: 2aaa 04bc dc32 18bc 14d2 b5bb 573c d9bc
00000220: ea1c 4e3d e25e 2a3d 3c22 773b ec23 babc
00000230: df55 8fbd 0890 8bbd a19b ed3b 4b9b 2a3d
00000240: 57ad 58bd bbe5 963d cd54 9a3c f840 6bbd
00000250: b39e 89bd c41f 12bb 9893 a03d 13e3 65bd
00000260: 1745 8fbc e2b1 7fbc 8d3c de3c 5ccc a3bd
00000270: 378a 243c f89e 343d 6c8d 353c b390 65bd
00000280: 886c 523d 0aa7 7fbd 43ce 773d 4a06 c1bc
00000290: e06b fa3c a94c 043d cd16 f13c 8a10 77bc
000002a0: 9018 13bc 6880 43bd 431c 07bd fed1 fb3c
000002b0: 6f34 8a3d 3549 56bc dd0e 043d b07d 31bd
000002c0: 7b23 9dbd 62af 20bc d080 883c af1b e7ba
000002d0: c1e9 0bbd ff25 a23d f0f6 0d3d 2235 55bd
000002e0: 444b 63bd 884f 20bc adf0 363d 0a28 503d
000002f0: f77e 083c 27e2 923c f19e 293d 7a1b 63bc
00000300: 3035 7c3d 1261 a2bc cc3f 343d 46c4 94ba
00000310: 0137 9fbc 0a12 ab3d 8df1 ff3b a50c 563d
00000320: f391 ea3c 1bc6 4bbd 13c5 d63b 28cd 03bd
00000330: 139b 0ebd 115f 26bd cfcb 03bc 5cbb 2d3d
00000340: 8391 38bd fddd 893d 872d dabc 3651 953b
00000350: a5b9 4cbd 6468 b9bc e577 a9bc f74a bbbd
00000360: 9e07 d5bc 70e0 5fbd 4596 35bd fd81 773d
00000370: 36ad 723d b49f 643d c0b4 333b 3f82 60bd
00000380: b005 b93c a2e6 113c 235a 7d3d 5d64 2d3d
00000390: f608 3bbd 618c ddbc f816 9e3c a242 79bd
000003a0: 5d2b a53d 93b5 a53d a50b 30bd 813c b93c
000003b0: ae08 80bc 5d84 823d e909 963d 5d5b d9bc
000003c0: 9123 283c a541 3bbd 49e5 cd3c 3471 433d
000003d0: 55e9 a3bb ee2d 16bd e9ab dcbc c07a 97bc
000003e0: 4262 2bbc 685e 73bd b1bd 333c 1559 493c
000003f0: 9383 a8bb c415 b3bc 39c2 c2bc 697d 47bd
0.024912186 0.024207383 0.00636071 -0.04787344 -0.019388707 -0.05992618 0.053199977 -0.011273517
0.030944204 0.026927968 -0.030171834 -0.059215166 -0.029346855 -0.0323732 -0.06744982 0.033920478
-0.054281563 0.04004188 -0.039910793 0.027144926 -0.00491143 0.039173998 -0.04699876 -0.0016922083
-0.036688816 0.04288987 -0.025034055 -0.050747707 0.010968024 0.028798286 0.06295641 0.06829644
-0.03639429 0.038047332 -0.055190206 -0.038136493 0.0018229678 0.026392039 -0.049289588 0.04293591
-0.040559098 0.035857394 0.045631215 0.07833764 0.022498682 -0.046274934 0.0012143337 0.022406433
0.054962844 0.035490222 -0.047082145 -0.028740508 0.042336285 -0.031945046 0.056293458 0.07508861
-0.052011516 0.009200956 0.011432612 0.06269457 -0.0355382 0.0704335 0.026788775 -0.0020847586
-0.019920064 0.00979806 -0.054275975 -0.046121236 0.016369026 0.0377352 0.012993654 -0.0040350934
0.08200659 -0.015490389 0.049348213 0.036979817 -0.037176974 -0.012791751 0.02553177 0.06138926
0.024914116 -0.02887928 -0.033563808 0.005823346 -0.06967341 -0.035548367 -0.080611475 -0.038767744
0.028406573 0.09065246 0.057601094 0.08235854 -0.011598682 0.090034366 0.05028178 -0.033889033
-0.010323911 -0.06312025 -0.09014868 0.028679011 -0.056080222 0.0143559035 -0.03548984 -0.037216697
-0.015607573 0.03927573 0.005379094 -0.011849892 0.0019133283 0.026417634 0.0023007065 0.045651656
-0.057772532 -0.07187866 -0.07545223 0.039359987 -0.057382133 -0.018728998 0.058986403 0.08938653
-0.0064744586 0.020693364 -0.06808622 -0.048886888 0.035178714 0.00036725085 0.07968033 0.06345239
-0.00321388 0.042082623 0.01890337 0.018514581 -0.008097211 -0.00928947 -0.005548725 -0.02651803
0.050320543 0.041594394 0.0037709614 -0.022722207 -0.069988005 -0.06814581 0.0072512184 0.041652005
-0.052899685 0.07368036 0.018839264 -0.057435006 -0.067197226 -0.0022296766 0.07840651 -0.056124758
-0.017489 -0.015606375 0.027128482 -0.07997963 0.010042719 0.044096917 0.011081081 -0.0560462
0.051373035 -0.06241516 0.06049944 -0.02356257 0.030569017 0.03229967 0.029429818 -0.015079627
-0.008978024 -0.04772988 -0.032985937 0.03073978 0.06748282 -0.013078977 0.032240737 -0.043332756
-0.07672783 -0.0098074395 0.016662985 -0.0017632152 -0.034158472 0.079174034 0.034659326 -0.052052625
-0.0554917 -0.009784587 0.04466312 0.050819434 0.008331052 0.017930103 0.041411344 -0.013861531
0.06157416 -0.019821677 0.044006154 -0.0011349998 -0.019435408 0.0835305 0.0078107775 0.052258153
0.028634047 -0.049749475 0.006554255 -0.032178074 -0.03481586 -0.040618006 -0.008044197 0.042415008
-0.045060646 0.06731794 -0.026633037 0.0045568002 -0.049981732 -0.022632785 -0.020687053 -0.09145158
-0.026004609 -0.0546574 -0.04433276 0.0604267 0.059247218 0.055816367 0.0027420968 -0.054811712
0.02258572 0.008905085 0.06185354 0.042332042 -0.045662843 -0.027044477 0.019298062 -0.06085456
0.080649115 0.08091273 -0.042979855 0.022611858 -0.015629139 0.063729025 0.07326109 -0.026532823
0.010262386 -0.0457169 0.025133746 0.04771538 -0.0050021806 -0.036664896 -0.026937442 -0.018491149
-0.010460438 -0.059416205 0.010970519 0.012289305 -0.005142638 -0.021860965 -0.023774253 -0.048703585

to_patch_embedding.1.bias f4 [28]
00000000: 72cf 0ebd 1679 373c 9320 ba3c 109c 6e3d
00000010: 4d5a bf3c b19a 753d ead1 38bd dddb 63bc
00000020: ab35 aabc 8547 a8bc 36b3 48bd ed73 8ebd
00000030: 742a 833d 0958 1bba f413 6e3d e78b c2bc
00000040: 02d0 5bbd 44ae bf3c 7c86 90bd 75af f63c
00000050: a153 b6bc 1db2 d33b 9fec 64bd 05c4 76bd
00000060: 94f1 00bd e90c a3bd 0030 3a3d 9099 4abd
-0.034865804 0.011198303 0.02272061 0.0582543 0.023358488 0.05996198 -0.045122065 -0.0139074
-0.020777544 -0.020541916 -0.048999034 -0.06955705 0.06404582 -0.0005925899 0.058124498 -0.023748351
-0.05366517 0.023398526 -0.07056901 0.030112961 -0.022256674 0.0064604417 -0.055889722 -0.060245533
-0.031480387 -0.07961447 0.045455933 -0.049462855

layers.0.forward_conv1d.weight f4 [28, 28, 1]
00000000: 133e c8bd d46f e7bd 76dc f7bd 315d d63d
00000010: 68c7 b43d 2695 fd3c 1307 7a3d b935 a2bc
00000020: 04be b83d 71f4 1d3d 54d9 42bd 350c 633d
00000030: 8d0c 58bd c48b fe3b 7986 cdbd 6a28 abbd
00000040: 8251 b53c 730f 49bd c7c8 ca3d 0099 933d
00000050: 6c42 093e 719d 25bc da4b 11bd f2a3 f13b
00000060: da5b d7bc 2d95 ef3d af69 163d d045 a4bd
00000070: 549e 153c a61f d83d 0ef1 8d3a dcb5 46bc
00000080: f9eb 83bd 3a63 98bc 14eb 903d 5196 9f3d
00000090: 2fec dd3d 0b9b 9d3d 4699 af3c 326e d1bd
000000a0: 5316 56bd 292d e33d c65f 943d ed61 303c
000000b0: 653c b83d 7557 02bd d9bc 7fbd 1051 633c
000000c0: 6f5e e93d 08b5 60bb 5817 12bd 9742 cbbc
000000d0: 2e77 12be d56c c23d 2c44 2bbd bc15 a13d
000000e0: ad40 e0bc af17 013e 27a0 3b3e 9f4e 0bbe
000000f0: 45b4 ccbd 63be 3f3d f095 b7bb 4aba 96bd
00000100: fe12 3abd ad6e fc3c e3e0 e33b 3f37 66bb
00000110: 8eba 993d ea83 42bd 0685 343d eb8d dcbd
00000120: 4711 783d 016e 45bd 8ce3 843c fd58 a5bd
00000130: 1067 c03d 391e debd 91bf 6d3d bcc8 4e3d
00000140: 6f0d 41be 212d 61bd a696 e5bd d14e 8fbd
00000150: cafb b0bd 1917 1f3e 3478 053e 69c5 0b3e
00000160: bfd0 593d 4469 15be a09e d6bc 474b 083e
00000170: 4e26 d0bd ef98 9e3d f5e8 6f3d 2198 113e
00000180: eca8 973d 3884 bbbc dcb9 bf3d c4eb 28be
00000190: cf96 c53d 762c 753d 16a9 943d 3255 183e
000001a0: e5c9 09be 2392 3bbd b5c6 1bbe dc47 06be
000001b0: 56c5 133e 2440 1cbe 6f95 73bd 0bf7 f93c
000001c0: cce8 ccbc b2e8 1d3e 34c7 b4bd 562d 73bd
000001d0: 4e70 f3bd 6b9b e43c 1bfe 023e 5f07 5abd
000001e0: 7d76 7d3c 847e b6bd 9847 cabb 8485 aebd
000001f0: c8dd c4bb c225 07be 3416 003d c14d a3bd
00000200: 763f af3d b4ff d0bd e865 78bd 7a3e 7f3d
00000210: 5406 24be c985 7dbc fb48 213a 145c 37bd
00000220: 18d4 35be 79b3 ffbd 26ed d5bd 5b39 893d
00000230: be8d 3c3c e507 fc3d 919a 92bd f09c bbbd
00000240: 3f98 f93d f12b abbc 7c3f 8a3d 1faf 2dbc
00000250: a7ca 14be f670 103e 8dc8 a3bd 06ff bfbd
00000260: f19e 133e 7ed3 5dbd 36d7 5ebd 7a35 16be
00000270: 450b 943d 7767 f2bc 76ed 073e 46db 03be
00000280: 2712 c73d 5c5f a6bd 2aab 6abc 0c17 093e
00000290: 82a8 22bd 0ed6 223e 5489 0cbe 5b8a 02bc
000002a0: 65b4 81bd 70f7 9abd 037b 123e 8b35 88bd
000002b0: dca1 853d 191a 8b3d d3a4 18be 6491 24bc
000002c0: c76d db3d 896b 833d c688 44bd 616d cbbb
000002d0: a70d 85bd e312 08bd 5b1f f53c 8756 c6bb
000002e0: 117f 853d 77ff 38bd 4898 a83d 4ec4 65bd
000002f0: 6a76 08bd 33df 673d 92d8 33bd 27f9 ea3d
00000300: 60b3 03be de9e 27be af09 59bd e073 bfbb
00000310: 592f e8bd 75d5 4cbd 608d d1bd 2986 ecbd
00000320: 6fbf 1f3c 7b59 3a3c 9f97 6f3a 11ae 8f3d
00000330: fea4 923d 4e80 bdbd 4e04 5abb 95b0 d23d
00000340: f6ba d83d 2074 b43d 0b1c 5abd cf4e 9a3c
00000350: 7ee9 8e3c 4813 f33d 2168 333d dd1e b2bd
00000360: 357a 8d3c 0c6d eb3d 7126 5b3d f1e1 b43c
00000370: fb41 6a3d 067f cc3c 96c5 19bd e1e4 57bd
00000380: 21b5 01be 43fb b7bd 0dbf 053e 9af4 9e3d
00000390: 2cad 8bbd 6649 08bd f7f0 4abd 1c82 c13d
000003a0: 8877 10be fe26 b4bd df5e b73d 6ec6 003d
000003b0: 18cd 373c f39e 3abc c408 443d 5222 ff3d
000003c0: f300 10bd 8e04 c2bd 371b 09bd 2d5e 8a3d
000003d0: f749 953d 7d50 b0bd 9729 3fbc 4c5b 2bbd
000003e0: 4577 b43d a132 163e 613c 87bd 397c f2bd
000003f0: 73dd b43d 6a7c 5bbd d472 debd 8df3 553d
-0.09777465 -0.113006264 -0.121025965 0.104669936 0.08827096 0.030954909 0.061041903 -0.019801008
0.090206176 0.038563196 -0.04757054 0.055431563 -0.052746344 0.007768126 -0.10035414 -0.08357318
0.022133593 -0.049087 0.099015765 0.07206917 0.13404244 -0.010108338 -0.03547273 0.00737428
-0.026288915 0.11698375 0.03672188 -0.08021128 0.009131987 0.105529115 0.0010829286 -0.01212832
-0.064414926 -0.018602002 0.070760876 0.077923425 0.10836064 0.07695588 0.021435391 -0.10226096
-0.052267384 0.11092598 0.0724483 0.010765535 0.08995894 -0.031821687 -0.06243596 0.013874307
0.11394965 -0.003428759 -0.035666794 -0.024812026 -0.14303276 0.09493414 -0.04181306 0.07865474
-0.02737459 0.12606691 0.18322812 -0.1360421 -0.09995321 0.046812426 -0.0056025907 -0.073597506
-0.04542827 0.030814493 0.006954299 -0.0035128144 0.075062856 -0.047489084 0.044072174 -0.10769256
0.060563352 -0.04820061 0.016221784 -0.08073614 0.093946576 -0.10845608 0.05804402 0.050484404
-0.18852781 -0.05497468 -0.112103745 -0.06997455 -0.08641775 0.15536155 0.13034135 0.13649525
0.05317759 -0.14590937 -0.026198685 0.13309966 -0.10163556 0.077440135 0.058571775 0.14218189
0.07405266 -0.022890195 0.09361622 -0.16496187 0.09647905 0.059856854 0.07258813 0.1487625
-0.13455923 -0.045793664 -0.1521252 -0.1311335 0.14430746 -0.15258843 -0.059468683 0.030513307
-0.02501335 0.15420797 -0.088270575 -0.059369408 -0.11886655 0.02790614 0.12792246 -0.053229686
0.015470144 -0.0891085 -0.0061730854 -0.0852156 -0.0060078837 -0.13197997 0.031271175 -0.07973815
0.08557026 -0.102050215 -0.06064406 0.06231544 -0.16018039 -0.015473791 0.00061525375 -0.044765547
-0.17756689 -0.124854036 -0.10445623 0.06700393 0.011508403 0.12306193 -0.071583875 -0.09160793
0.12187242 -0.020894976 0.0675039 -0.010600834 -0.1453043 0.14105591 -0.079972364 -0.09374814
0.144161 -0.054156773 -0.05440446 -0.14668837 0.07228712 -0.029590352 0.13274178 -0.12876615
0.09720259 -0.08123657 -0.014323035 0.13387698 -0.039711483 0.15901968 -0.13724262 -0.007967557
-0.06333236 -0.07566726 0.14304738 -0.066508375 0.06525013 0.06792087 -0.14906625 -0.010044429
0.10714298 0.06416995 -0.047982 -0.0062081073 -0.064967446 -0.033221137 0.029922178 -0.0060527953
0.065183766 -0.045165505 0.0823217 -0.056095414 -0.033316053 0.056609344 -0.04390771 0.11473303
-0.12861395 -0.16369197 -0.05298775 -0.005842671 -0.11337156 -0.050008256 -0.10232043 -0.115490265
0.009750231 0.011373873 0.000913972 0.070156224 0.07160376 -0.09252988 -0.0033266726 0.102875866
0.10582535 0.088112116 -0.0532494 0.018836407 0.017445322 0.11868912 0.043800477 -0.08697293
0.017270187 0.114954084 0.053503457 0.022080394 0.05719183 0.024962913 -0.03754195 -0.05270851
-0.12666751 -0.08983471 0.13061161 0.07761498 -0.06820139 -0.033273123 -0.04954621 0.094486445
-0.14108098 -0.087965 0.08953642 0.031439237 0.011218332 -0.0113904355 0.047859922 0.12457718
-0.035157155 -0.09473525 -0.03347322 0.06756244 0.07289498 -0.08609102 -0.011667631 -0.041835114
0.08811811 0.14667751 -0.06603313 -0.118401 0.088313006 -0.053585447 -0.108617455 0.05223422

layers.0.forward_conv1d.bias f4 [28]
00000000: 807a 6b3c 415c b33c 2e42 e9bd dd6b e7bd
00000010: c95d dd3d ff9e f63d eb2f d9bc 4004 3cbb
00000020: 5865 88bd 6f7d 57bd c50d 1c3e cff7 9a3d
00000030: ab9d 2f3e 226d 5c3d 3b77 90bd 995f 2dbd
00000040: 7ef3 003e 9a2d 5abd b778 8fbd 2795 053d
00000050: a41b a3bc a98a 34be cbb8 073e 8f37 103d
00000060: 914b 98bd e041 b83d f67c e8bd 90a0 84bd
0.014372468 0.021894576 -0.11389576 -0.1129987 0.10808904 0.12042045 -0.026512107 -0.0028689057
-0.06659955 -0.052609857 0.15239628 0.07566797 0.1714999 0.053815015 -0.070539914 -0.042327497
0.12592885 -0.053266145 -0.070054464 0.032612946 -0.019910641 -0.1763102 0.13254087 0.035209235
-0.07436288 0.0899694 -0.113519594 -0.06475937

layers.0.backward_conv1d.weight f4 [28, 28, 1]
00000000: a132 27bd 4cd1 ef3d b4db 9d3d abc2 dcbd
00000010: d4be e9bd 67f6 c9bd 7037 7bbd 5574 013e
00000020: 0448 80bd 349e c4bd a80b 093e 4852 443d
00000030: 172f 7cbc 948c a83d b072 f9bd 6d86 d43d
00000040: f4cb b6bd 8d03 ccbc e9f8 6c3d a481 83bd
00000050: 3211 813d 4fef d43c e38c d5bd b014 71bd
00000060: 8f59 2ebe 858d 18be 6a43 17be 15ff 9b3d
00000070: 456b e2bb c408 603b 560e a83d ab22 3b3b
00000080: e1e9 25bc 27eb 35bd 6127 9cbd 34b3 573c
00000090: 4114 03be 1381 f6bb d72f e23a c945 75bd
000000a0: c936 d4bc 6640 f03d 61fe c23d c461 4cbd
000000b0: 6c5d 943d 73f2 053d 0bf8 66bd 04fa afbd
000000c0: bc37 14bc 2da8 e43c eb14 0cbb 25b7 853c
000000d0: bb81 29bd f5a9 a33d 1b41 913d 8978 97bd
000000e0: 0e62 053e 9f25 e93d 7f0d 213e 654d 00be
000000f0: 95d1 a6bd 0be3 9a3d 6fc5 81bc cc77 c53d
00000100: 0fd0 103e bf4a ebbd f84d 3fbc cd76 f5bd
00000110: 1997 273c 64f0 083e 8a14 1abd 824b a23d
00000120: 4d1c 9db9 57f0 44bc aa8f c93d bdeb 033e
00000130: 7af0 bbbd c1fb 53b9 0205 af3c b389 c4bd
00000140: 85d5 263b 8f1a d33a b94e 163d 0b64 16bd
00000150: d130 57bd 238a 0fbe 6d9f b33c 2eb8 843d
00000160: beb5 c4bd 8076 4a3c 1fb0 b33b 7741 e3bd
00000170: cc26 c8bd 1d2a 90bd d5fb 5dbd 49d5 85bd
00000180: cdb1 a93d 0b33 e8bd 558b 303c 46a0 1bbe
00000190: 72d4 c8bd 92f3 d93d 1c2a 9ebc 51f8 e7bb
000001a0: 0c88 08bd 935f 0cbd 2530 b83d 4553 d23d
000001b0: 2a73 ea3c e4f9 e9bd ca1a c93d 09e1 f7bd
000001c0: 798b 9f3d e112 a7bd d65c d83d f70c 683d
000001d0: 3088 07be 2dfa 0ebe 40b4 cdbd 8379 8abd
000001e0: fa55 d83d ea4b 9cbd 9811 1e3d 662e 7a3d
000001f0: 45e5 823d b311 f9bc 7423 873d 5e66 e1bc
00000200: 2bc3 623d e451 2ebd 1693 e53d 8636 7d3d
00000210: 1253 023c 06f7 823d 8e1d adbd 2c5a 8fbd
00000220: 0f60 2bbe b683 133e e776 d8bd 10c1 98bd
00000230: e5ab a63d 1d6f 13be 6ecc debc 402c b0bd
00000240: cb53 cfbd d100 4e3d 086a dd3d 1093 b53d
00000250: cb60 bd3b f4ef 7e3d 36f2 a0bd 084d 11be
00000260: 7c1d d7bd 78f4 063e b261 47bd 1ff8 10be
00000270: 94af 2abc 9284 023d 464e d3bd be0a 9e3d
00000280: 60c9 5cbd 91c7 df3d b243 c3bd 3971 1d3e
00000290: bd63 50bd ded6 cbbd 7cef 89bd 5577 e43d
000002a0: 4339 c33d d500 183e c190 b9bd 205c 6c3c
000002b0: 85f4 fabd 49be 2a3d 9835 e33c d91b 363d
000002c0: 362b 0b3d 6d56 c4bd 6f03 4cbd 373c ec3b
000002d0: b505 a2bd 4f53 08be 7416 9d3d 2a68 c03d
000002e0: 1f03 aa3d 655e 00bd 4393 453d bc5b e9bd
000002f0: 44fb 7f3d 890c 1a3d 7caa a03d e648 843d
00000300: c404 afbd fc2e 5e3d c262 e03d 3da3 a23d
00000310: 558d bdbb 5968 933c 701f 99bd afb0 a4bd
00000320: cc3c 8bbd 7369 a23d 8437 92bc 80bb 793d
00000330: 12cd 0dbc 3e48 95bd 6416 993d ca38 9a3d
00000340: e839 f83d 03e8 293c 23c8 0dbd 9200 26bd
00000350: 44a3 903d eca7 d5bd ecea 30bc 8f64 aa3d
00000360: a678 dbbd 2116 513d 83a4 d83d 89d0 95bd
00000370: 2f5d 043e 2828 c63c 57d4 d53d 17ed 453d
00000380: 825b c8bd 0102 86bd fb48 0bbe 111e f4bb
00000390: be67 373d 1665 fabc 6077 8fbd fe52 443d
000003a0: 21f5 b3bd e040 70bd 0663 e0bc ce7c 42bc
000003b0: 3db9 a1bd 83ce 303d 4f17 063e 10a7 0abe
000003c0: 2ff1 0abe 7f53 fb3d 0874 a53d fa96 cfbc
000003d0: 133a 84bd 562c 03be 6950 843d f685 56bd
000003e0: 65b3 c2bc cb18 4a3d acaa 043e 78d5 cf3d
000003f0: fa87 933c 2027 18bd 1f2d 6c3d 9838 c3bd
-0.040819768 0.11709842 0.07707921 -0.107793175 -0.11413351 -0.09861451 -0.061332166 0.12642033
-0.06263736 -0.09600487 0.13383353 0.047930032 -0.0153920865 0.08229938 -0.12180078 0.10377202
-0.0892562 -0.024904037 0.057854567 -0.06421211 0.06302108 0.025993017 -0.10427263 -0.05885762
-0.17026351 -0.14897735 -0.1477181 0.076170124 -0.00690976 0.0034184912 0.08205859 0.00285546
-0.010126562 -0.044413712 -0.076246984 0.013165284 -0.12800695 -0.007522711 0.0017256689 -0.059881005
-0.02590503 0.11731033 0.09521175 -0.049897924 0.07244381 0.03270192 -0.056388896 -0.085926086
-0.009046491 0.027912224 -0.0021374773 0.016322682 -0.041383486 0.07991401 0.07092496 -0.07396037
0.13025686 0.11384129 0.15727805 -0.12529524 -0.08145443 0.07562836 -0.015841214 0.0964199
0.14141868 -0.11488866 -0.011676304 -0.1198555 0.010228896 0.13372952 -0.037617244 0.07924558
-0.0002996646 -0.012020192 0.09841855 0.12882896 -0.09176727 -0.00020216314 0.021364693 -0.095965765
0.0025456857 0.0016105938 0.03669617 -0.036716502 -0.05253679 -0.14017539 0.021926606 0.06480442
-0.09604977 0.012357354 0.0054836418 -0.11096471 -0.09773025 -0.070392825 -0.054195244 -0.065348215
0.08285866 -0.11337861 0.010775407 -0.15197858 -0.09806146 0.106421605 -0.019307189 -0.007079162
-0.03333287 -0.034270834 0.08993558 0.10269789 0.028619368 -0.11424616 0.09819563 -0.12103469
0.07790274 -0.08157898 0.10564582 0.05665299 -0.13235545 -0.13962622 -0.100441456 -0.06761458
0.10563274 -0.07631667 0.038590997 0.061079405 0.06391386 -0.030403947 0.06598559 -0.027514633
0.055361908 -0.042558566 0.11209695 0.061819576 0.007954376 0.06394772 -0.08452903 -0.06999621
-0.16735862 0.14405712 -0.10569554 -0.07458699 0.08138255 -0.14397855 -0.027197089 -0.0860219
-0.10123404 0.050293747 0.108112395 0.088659406 0.005779361 0.062240556 -0.07858698 -0.14189541
-0.105036706 0.13179195 -0.048677154 -0.1415715 -0.010417838 0.03186471 -0.10317664 0.07716893
-0.053902984 0.10926736 -0.09534396 0.15375222 -0.050876368 -0.09953092 -0.06735131 0.11155573
0.09532406 0.14844067 -0.09060813 0.014426261 -0.1225367 0.041685376 0.027735516 0.04446015
0.033976756 -0.09586797 -0.049807962 0.0072093266 -0.07911245 -0.1331303 0.07670298 0.09394868
0.083013766 -0.03134002 0.048236143 -0.1139445 0.062495485 0.03760961 0.07845017 0.06459217
-0.08545831 0.054244027 0.109563366 0.079412915 -0.0057846704 0.017994093 -0.07476699 -0.08041512
-0.067987055 0.07930269 -0.017848738 0.06096983 -0.00865485 -0.0728917 0.07474974 0.07530363
0.1212042 0.010370257 -0.034614693 -0.040527888 0.070623904 -0.10432419 -0.010798197 0.08319961
-0.10716371 0.051046494 0.10578253 -0.073151655 0.12926172 0.02418907 0.10440891 0.04832181
-0.09783079 -0.06543351 -0.13602059 -0.0074498733 0.04477667 -0.03056578 -0.07005191 0.04793071
-0.08786989 -0.05865562 -0.027390968 -0.011870576 -0.078966595 0.043165695 0.13094829 -0.13540292
-0.13568567 0.12271785 0.08078772 -0.025340546 -0.06456389 -0.12809882 0.064606495 -0.05237385
-0.023767183 0.04934005 0.12955731 0.10148138 0.018009175 -0.037146688 0.05766022 -0.09532279

layers.0.backward_conv1d.bias f4 [28]
00000000: 95a9 febd e17e 1cbe e856 97bd 29ec 9e3d
00000010: faed c63c c776 8f3c f6a6 b03d 5f87 023e
00000020: 404a 373d 59da dcbd a757 013e ca50 f43d
00000030: e1fa a73d 60ca a93c 0264 b43d 0c7d 98bb
00000040: 45c1 babd 9b93 22be 96b8 14be 6ea4 8dbc
00000050: 27a2 c73b 067d 92bd 1852 003e 9a2b 843d
00000060: d27b 2ebe 0241 d0bd 3a44 19be 3111 80bd
-0.12434689 -0.15282775 -0.07389623 0.07759888 0.024283398 0.017512692 0.08625595 0.12746952
0.044748545 -0.10783834 0.12631093 0.11929472 0.08202148 0.020726383 0.088081375 -0.0046535786
-0.091188945 -0.1587662 -0.14523539 -0.01729032 0.006092328 -0.071527526 0.12531316 0.06453629
-0.17039421 -0.10168649 -0.14967433 -0.06253279

layers.0.norm.weight f4 [28]
00000000: 5027 6a3f c872 673f 7384 6b3f f027 763f
00000010: fafd 633f bf0c 703f f2ef 663f 87b6 5d3f
00000020: 08c0 5d3f d53a 603f ff35 653f 31f2 6d3f
00000030: 9ddd 713f ac82 613f 51b0 663f 1113 663f
00000040: 583a 5e3f a482 6c3f 6202 773f 09f9 693f
00000050: a758 673f 607e 6d3f 162e 6d3f 2393 723f
00000060: d4a8 553f 69a7 6c3f 5dfb 713f 50a4 6b3f
0.91466236 0.9040952 0.91998976 0.9615469 0.8905941 0.9376945 0.9020988 0.8660664
0.8662114 0.8758977 0.89535517 0.9294768 0.9447878 0.88090014 0.9011279 0.89872843
0.86807775 0.9238684 0.9648801 0.9139562 0.9036965 0.9277096 0.92648447 0.9475576
0.83460736 0.9244295 0.94524175 0.92047596

layers.0.norm.bias f4 [28]
00000000: 954a d53b 5075 b2bb 9fb9 b8ba 2f59 8d3b
00000010: 8c22 46bc 3b22 8e3b 7d2b 5e3c 60f4 393c
00000020: 76ed 823b 8839 fd3b c1be 84bc 3a7c 813b
00000030: 8f61 71bb fc3d 8bbb e3ba a1bc f105 cb3b
00000040: 9510 9c3a c0f3 b53b 5d93 45bc fd84 093c
00000050: 052e 77bc 43b2 c43b 4b80 0a3c 86a6 27bc
00000060: 2e9f 79b9 4a62 be39 098b 45bb b49c e83b
0.006509135 -0.0054461136 -0.0014093405 0.00431361 -0.012093198 0.0043375767 0.013560173 0.011349767
0.0039955927 0.0077278055 -0.01620424 0.0039515765 -0.003683183 -0.0042493325 -0.019742435 0.0061957766
0.0011906797 0.005552739 -0.01205906 0.008393523 -0.0150866555 0.0060026958 0.008453439 -0.010232573
-0.0002380579 0.00036312855 -0.0030142686 0.0070987586

layers.0.ssm.A_log f4 [28, 23]
00000000: 190c 9039 4a6c 163f 5317 333f 2a7e 813f
00000010: 388b 8a3f 05b6 9d3f 119c b23f 4f83 c23f
00000020: c214 d13f 804e de3f c969 ea3f 1176 f53f
00000030: 88b9 ff3f 9585 0440 9ee8 0840 5f03 0d40
00000040: fdde 1040 ec82 1440 d1f3 1740 d837 1b40
00000050: 1453 1e40 da49 2140 e51e 2440 8280 833b
00000060: 0342 033f 5bbd 203f b846 653f 514a 873f
00000070: 8db5 9d3f 7e43 b13f 9b20 c23f edf5 d03f
00000080: 5650 de3f 9368 ea3f 8875 f53f 80a1 ff3f
00000090: 6085 0440 26e8 0840 5d03 0d40 01df 1040
000000a0: 6d82 1440 d8f3 1740 da37 1b40 e752 1e40
000000b0: cf49 2140 e61e 2440 e09f a1bb a34c 0f3f
000000c0: 3748 1f3f 6b8d 753f 91b4 883f abb6 9d3f
000000d0: 8e75 b13f 6662 c23f 0aff d03f 0051 de3f
000000e0: 2368 ea3f b475 f53f dbab ff3f 6685 0440
000000f0: 5ae8 0840 8603 0d40 fcde 1040 6282 1440
00000100: baf3 1740 df37 1b40 2453 1e40 d749 2140
00000110: d41e 2440 5d35 15bb 6b25 113f 37c7 323f
00000120: 3544 7c3f 141b 8a3f adb4 9d3f e2fb b23f
00000130: 23e4 c23f 6c38 d13f f050 de3f 0768 ea3f
00000140: 3475 f53f 45e1 ff3f b885 0440 bbe8 0840
00000150: a803 0d40 08df 1040 6483 1440 c1f3 1740
00000160: d737 1b40 3b53 1e40 c249 2140 d41e 2440
00000170: b21b 90bb 94c7 d93e b28e 173f caac 593f
00000180: 24ce 863f d8b3 9d3f 7751 b13f 3f14 c23f
00000190: bcf9 d03f 0c51 de3f 5a69 ea3f 6e75 f53f
000001a0: 4ca2 ff3f 1985 0440 27e8 0840 5503 0d40
000001b0: 01df 1040 5a82 1440 d1f3 1740 da37 1b40
000001c0: ee52 1e40 d349 2140 e51e 2440 65e2 c8ba
000001d0: 2f51 c13e 4dfd 163f 388f 593f f3fd 863f
000001e0: 9fb4 9d3f a836 b13f 3510 c23f b0f6 d03f
000001f0: d050 de3f 8769 ea3f ac75 f53f 1da1 ff3f
00000200: 2085 0440 0de8 0840 2803 0d40 fcde 1040
00000210: 4682 1440 daf3 1740 d937 1b40 ea52 1e40
00000220: c349 2140 ec1e 2440 63fc 8abc 9054 043f
00000230: 34cb 2a3f 2f80 6e3f 945d 873f b4b5 9d3f
00000240: 523a b23f bb27 c23f 4801 d13f 8b50 de3f
00000250: 4069 ea3f 4775 f53f d6ab ff3f fb84 0440
00000260: 6ce8 0840 9e04 0d40 0adf 1040 c882 1440
00000270: d0f3 1740 d637 1b40 1e53 1e40 da49 2140
00000280: e51e 2440 0283 853b 4cc7 ca3e ae42 133f
00000290: 18f6 5b3f ecfc 863f 4bb6 9d3f 0820 b13f
000002a0: d708 c23f 7bf2 d03f a750 de3f 9968 ea3f
000002b0: 9f75 f53f 8ea0 ff3f 3c85 0440 2ee8 0840
000002c0: 5103 0d40 00df 1040 4c82 1440 d1f3 1740
000002d0: db37 1b40 db52 1e40 d149 2140 e31e 2440
000002e0: c05f 99b9 12e0 133f bd11 3e3f cd9b 833f
000002f0: 08b7 8c3f 15b7 9d3f e115 b33f 4a17 c43f
00000300: 8f51 d13f 8c4f de3f 5e6a ea3f 3176 f53f
00000310: d609 0040 3d86 0440 cfe8 0840 0b05 0d40
00000320: fade 1040 cb83 1440 c8f3 1740 c937 1b40
00000330: 1853 1e40 a749 2140 bd1e 2440 74c9 113b
00000340: 0b72 d53e 69c8 143f 7ec1 5e3f 35d4 863f
00000350: 3db6 9d3f ca4a b13f 590d c23f 9ff4 d03f
00000360: fd4e de3f 4c68 ea3f dc75 f53f d7a0 ff3f
00000370: 7985 0440 09e8 0840 4903 0d40 ffde 1040
00000380: 6882 1440 d6f3 1740 da37 1b40 1d53 1e40
00000390: cc49 2140 e31e 2440 eb2b 9a3a fad8 c13e
000003a0: 59d5 183f 8e5d 5d3f b3fe 863f 8db5 9d3f
000003b0: d73d b13f c20f c23f c2f4 d03f 4e50 de3f
000003c0: d767 ea3f 4b75 f53f 0fa1 ff3f 5d85 0440
000003d0: 1ae8 0840 2903 0d40 01df 1040 7982 1440
000003e0: dbf3 1740 da37 1b40 e852 1e40 d149 2140
000003f0: e61e 2440 39b3 5abb 503f de3e 7381 1a3f
0.00027474834 0.58758986 0.69957465 1.0116627 1.0823736 1.2321173 1.3953878 1.5196322
1.633446 1.7367706 1.8313533 1.9176656 1.9978495 2.0706532 2.1391978 2.2033308
2.2636101 2.3204908 2.3742564 2.4252834 2.4738207 2.5201325 2.5643857 0.004013122
0.512726 0.62788934 0.89561033 1.0569555 1.232103 1.3848722 1.51662 1.632505
1.7368267 1.8313164 1.9176493 1.9971161 2.0706406 2.1391692 2.2033303 2.263611
2.3204606 2.374258 2.425284 2.47381 2.52013 2.564386 -0.0049323887 0.55976313
0.62219566 0.9591891 1.0680104 1.2321371 1.3864 1.5186279 1.6327832 1.7368469
1.831303 1.9176545 1.9974321 2.070642 2.1391816 2.20334 2.26361 2.320458
2.374251 2.425285 2.4738245 2.5201318 2.5643816 -0.0022767403 0.5669772 0.6983523
0.98541576 1.0789514 1.2320763 1.3983119 1.5225872 1.6345344 1.736845 1.8312997
1.9176393 1.9990622 2.0706615 2.1392047 2.2033482 2.2636127 2.3205194 2.3742526
2.4252832 2.47383 2.5201268 2.5643816 -0.004397833 0.4253508 0.5920211 0.8502928
1.0531659 1.2320509 1.3852986 1.5162429 1.6326213 1.7368484 1.8313401 1.9176462
1.9971404 2.0706236 2.1391695 2.2033284 2.263611 2.320456 2.3742564 2.425284
2.4738116 2.5201309 2.5643857 -0.001532626 0.3775725 0.58980256 0.8498416 1.0546249
1.2320746 1.3844805 1.5161196 1.6325283 1.7368412 1.8313454 1.9176536 1.9971043
2.0706253 2.1391633 2.2033176 2.26361 2.3204513 2.3742585 2.4252837 2.4738107
2.520127 2.5643873 -0.01696605 0.5169153 0.66716313 0.9316434 1.0575433 1.2321076
1.3924048 1.5168375 1.6328516 1.736833 1.831337 1.9176415 1.9974315 2.0706165
2.139186 2.2034068 2.2636132 2.3204823 2.3742561 2.425283 2.473823 2.5201325
2.5643857 0.0040744552 0.39605176 0.5752362 0.85922384 1.0545936 1.2321256 1.38379
1.5158948 1.6323999 1.7368363 1.8313171 1.917652 1.9970872 2.070632 2.1391711
2.2033274 2.2636108 2.3204527 2.3742564 2.4252841 2.473807 2.5201304 2.5643852
-0.00029253773 0.5776378 0.74245816 1.0281922 1.0993357 1.2321497 1.3991052 1.5319607
1.6353015 1.7368026 1.8313711 1.9176694 2.0006003 2.0706933 2.1392095 2.2034328
2.2636094 2.320544 2.3742542 2.4252799 2.4738216 2.5201204 2.564376 0.002224532
0.4168857 0.581183 0.87013996 1.053351 1.232124 1.3850949 1.5160323 1.6324652
1.7367855 1.8313079 1.9176593 1.997096 2.0706465 2.1391623 2.2033255 2.2636106
2.3204594 2.3742576 2.425284 2.4738228 2.5201292 2.5643852 0.0011762356 0.37860852
0.5970054 0.8647088 1.0546478 1.232103 1.3846997 1.5161059 1.6324694 1.7368257
1.831294 1.917642 1.9971026 2.0706398 2.1391664 2.2033179 2.263611 2.3204634
2.3742588 2.425284 2.4738102 2.5201304 2.564386 -0.0033370985 0.4340768 0.60353774

layers.0.ssm.D f4 [28]
00000000: 8e77 7f3f 81c3 783f 727d 803f 05a1 7a3f
00000010: f3b3 783f 7d3e 703f a4b4 803f a1e4 6f3f
00000020: f65d 7d3f f5e0 6c3f 2122 653f 2fdb 6d3f
00000030: 356c 7f3f 183d 713f cd94 6d3f 99a6 793f
00000040: 39de 6f3f c060 673f 8aaf 723f f61c 773f
00000050: 3424 7d3f 853b 693f 1a18 6c3f 4982 7d3f
00000060: 8d1e 773f a4ec 763f f558 763f 08a8 6c3f
0.997918 0.97173315 1.0038283 0.97901946 0.9714958 0.9384535 1.0055127 0.93708235
0.989715 0.9253076 0.895052 0.9291257 0.99774486 0.94233847 0.92805177 0.9751983
0.9369846 0.90382004 0.947991 0.96528566 0.98883367 0.91106445 0.92224276 0.99026924
0.9653099 0.96454835 0.9622949 0.92443895

layers.0.ssm.deltaBC_layer.weight f4 [54, 28]
00000000: 27ad 943c 58c3 22be 5255 393b e5e1 01be
00000010: 9de9 c33d 108d 1b3e c607 0d3e a1c4 873c
00000020: 17f1 b4bd 7e1d 62bc 30f0 c93d b1e4 7dbd
00000030: 0a13 393d 52f8 bdbc ecba d93d fba7 b1bc
00000040: 8c8e 4e3c 2afb a0bd 180f eabb ac29 f6bd
00000050: 87ed 003e ee29 f8bd ec28 2bbe d5ff 05be
00000060: 3495 b7bd e90d 10bd 7aba 24be 8110 943c
00000070: 67bc a1bd 6b00 c33c 2505 193e f9ff d7bc
00000080: 3ae9 c83b 380d 213d 39ee af3d d5aa 1e3d
00000090: ad6f 83bb 6863 c6bc f5ef c6bd e065 8bbd
000000a0: 7bac 2c3e 9a07 103e 0036 b4bd 286a f33c
000000b0: 1e8b d0bd c2e2 103e efea aabd a2f9 b5bb
000000c0: 825b 5fbd b62f ad3d 4f20 14bd addd a63d
000000d0: 875a 743d f45d f13d 9b7c d33d 8074 2abd
000000e0: 75e0 9bbd 99f1 04be 10b2 54bd cd9d 2c3e
000000f0: 4e23 80bd d30d cdbd dbb5 1c3d 5c34 46bc
00000100: c24f 303e b464 11be 42cb bc3d 53c7 be3d
00000110: 582a 6d3d 6d2b da3d 5f9e 323e eb8c aabd
00000120: 9d18 2cbc 7878 c7bc 2b62 06be 49cf 05be
00000130: d567 273e 5d35 b23d 2c4b 5abd d290 933d
00000140: 0630 d9bb cab8 593b a70a 46bd fe45 053e
00000150: 0a57 0f3e cb1b 1f3d e1c7 f13c 7b33 293d
00000160: 1811 103e f290 32be 35a2 27bd 2acc ed3d
00000170: bfbe 8e3d 9fc5 c3bd b14a 1abe 097a c6bc
00000180: 50d8 8b3d 6125 4bbc 339b c6bd 8f9e 0d3e
00000190: 6cc7 0abe 044a 29be 491b 263d 10a8 3f3d
000001a0: c8bf 89bd b22d 0dbb 2fad 193e ee98 50bd
000001b0: 3b27 3c3d 391c 2ebe 5710 24be 5d11 263d
000001c0: 5cda 583d 1e3e c4bd fed3 24be 5279 e1bd
000001d0: 817b c6bd ddad 06be 40b3 a53d aa6b 2f3d
000001e0: 61fc a6bc 78fc cabd c5ea 00be bd7a 433c
000001f0: 1c3d 213b 4f04 c13d eee8 31be e9b5 b9bd
00000200: 4fcb b4bd 273e febd b18b f5bd fea3 d63d
00000210: 567c 033e d4f6 d53d 494f 863d d85e d3bd
00000220: 716b efba 039e 6cbd 726b cb3d 9be9 38bd
00000230: ab79 ffbd bdb7 9c3c 2c3e d4bd 27cd f43c
00000240: da56 243e c2e4 843d f7c8 953c 4b0d eb3d
00000250: 08c8 07be ea02 8a3d 3f5c d5bd 59e9 63bd
00000260: 3b90 8a3d c302 e63d c1cd b63d 71f7 edbd
00000270: 12a1 bdbd dee0 2dbd 0303 d4bd 32e2 113e
00000280: 3620 0e3e cfcc fc3d 9f10 57bc 8444 a73d
00000290: 16bd 40bd f3d7 26be 6f2f 1a3e b712 503d
000002a0: a574 4ebd 1d97 f8bd a843 f0bd 2baf 7ebd
000002b0: 8eaa d23d db80 30bd 641f 7bbb 592b be3d
000002c0: fae1 80bb 3b85 d4bd b1d2 19be 97c9 47bc
000002d0: 3608 003d 6ece 023e 4412 0b3e 88c2 463d
000002e0: 826a d03d c2a8 f2bb 8a41 8a3d 50d4 1b3d
000002f0: ffce 82bd a3fc 8cbc 2bb0 aa3d a633 dd3d
00000300: 1da2 b5bc 7e2d cd3c 329e 85bd 7a61 133d
00000310: a67e f1bd 04ad a33d 76df 9fbd 58bd 20be
00000320: eeac e3bc a064 e83d 72d1 e5bd 3727 f8bd
00000330: 6599 c7bd 4493 023e 80f3 bbbd 9b8e d03d
00000340: b122 d2bd 7f3c 3abd bfd6 cf3d 9db1 2a3d
00000350: 4e70 e5bd c8ce d43d 0656 57bd 0996 11be
00000360: 69a2 903d 1f77 833b de80 d3bd 2e76 923d
00000370: 6a86 073e 8e70 11be e3e6 f63c 2891 debd
00000380: e626 49bd 68a6 0a3e 5dfe 1a3e 1f3f e4bd
00000390: 431a a5bb 3fb6 193c e236 263e 3e01 15be
000003a0: aa99 1bbe 22c1 21be 29a2 7cbd e7aa f13d
000003b0: 37e9 a3bd d3c1 46bd d308 25bd d777 dcbd
000003c0: 7c05 dfbd 94fc 1c3e f506 fb3d 5b4b fa3b
000003d0: 0372 db3d 4871 ed3d 0dcf 49bd 60b8 1dbe
000003e0: 3148 093e 9fd2 96bd 934c ef3d 03b5 0a3e
000003f0: 7031 ca3c 02c9 13be 3e0d 57bc 1c4a 303e
0.018148972 -0.1589483 0.0028279615 -0.12683828 0.095660426 0.1519053 0.13772497 0.016573252
-0.08835047 -0.013800977 0.09860265 -0.061985675 0.045184173 -0.023189697 0.10631356 -0.021686545
0.012607228 -0.07860406 -0.0071429126 -0.12019667 0.1259061 -0.121173725 -0.16714829 -0.13085873
-0.08964005 -0.035169516 -0.1608676 0.018074276 -0.07897263 0.02380391 0.14943369 -0.026367174
0.0061313184 0.039319247 0.08590359 0.038737137 -0.0040111155 -0.024217322 -0.09713737 -0.068065405
0.16862671 0.140654 -0.08799362 0.029713705 -0.101827845 0.14149001 -0.08345591 -0.00555344
-0.054530628 0.08456366 -0.036163624 0.0814775 0.059656646 0.11785498 0.10326501 -0.04161501
-0.07611171 -0.12982787 -0.051927626 0.16857071 -0.06256734 -0.100124024 0.03825937 -0.012097444
0.17217925 -0.14198571 0.09218456 0.09315362 0.05790171 0.10652814 0.17443226 -0.08327659
-0.010503915 -0.024349436 -0.13123386 -0.13067354 0.16348203 0.087015845 -0.053294346 0.07205357
-0.0066280393 0.0033221715 -0.048350003 0.13014981 0.13998047 0.038844865 0.029514255 0.04130886
0.14069021 -0.17438105 -0.040926177 0.11611207 0.06969976 -0.095591776 -0.15067555 -0.024228113
0.06828368 -0.012399049 -0.09697571 0.13830017 -0.13552636 -0.16532141 0.040553365 0.046791136
-0.067260325 -0.002154213 0.1500747 -0.050927095 0.04593585 -0.17002954 -0.16021858 0.040543903
0.05294262 -0.095821604 -0.16096494 -0.11009468 -0.09691525 -0.13152261 0.0809083 0.042827286
-0.020384016 -0.09911436 -0.12589557 0.011931119 0.0024603074 0.0942465 -0.17374012 -0.090679
-0.088278405 -0.12414198 -0.11989535 0.10480498 0.12840399 0.10447469 0.06558091 -0.103208244
-0.0018266273 -0.05776788 0.09932603 -0.04514466 -0.12474378 0.019130582 -0.10363421 0.02988298
0.16048756 0.064889446 0.018284304 0.11477145 -0.132599 0.06738837 -0.10417985 -0.05564246
0.06765791 0.112309955 0.08925963 -0.11619461 -0.09259237 -0.04245078 -0.10352137 0.14246443
0.13879475 0.12343752 -0.013126521 0.08167365 -0.047055326 -0.16293316 0.15057157 0.050799098
-0.05040421 -0.121381976 -0.117316544 -0.062178772 0.10286437 -0.043091636 -0.003831827 0.09285612
-0.0039331885 -0.10376974 -0.15021779 -0.012194059 0.03125783 0.12774059 0.13581187 0.048525363
0.10176565 -0.0074053714 0.06750782 0.038044274 -0.063871376 -0.01721031 0.083343826 0.10800867
-0.022172028 0.025046106 -0.06524314 0.035981633 -0.117917344 0.079919845 -0.07806294 -0.15697229
-0.02779242 0.11347318 -0.11221589 -0.12116855 -0.097460546 0.1275149 -0.09177303 0.1018345
-0.10260523 -0.04546785 0.101483814 0.04167329 -0.11203061 0.10391003 -0.052572273 -0.1421739
0.07062227 0.004012003 -0.10327314 0.07151447 0.13234869 -0.14203092 0.030139392 -0.1086753
-0.049109362 0.13540041 0.15136094 -0.11144852 -0.005038531 0.00938183 0.16231874 -0.14551255
-0.15195337 -0.1579633 -0.061678085 0.11800175 -0.080034666 -0.04852469 -0.04029162 -0.10765045
-0.10889718 0.15330726 0.12257186 0.0076383776 0.107151054 0.11593872 -0.049269725 -0.15402365
0.13406445 -0.073643915 0.11684527 0.13545613 0.024681777 -0.14432147 -0.013125716 0.1721577

layers.0.ssm.dt_proj_layer.weight f4 [28, 8]
00000000: 68e4 65be f112 82be 2849 6dbe 77ed 8c3e
00000010: 527d c4bd 17aa 6abd d593 3fbd fd58 40be
00000020: 4798 3dbd b089 92bd 2e10 04be bf43 f23d
00000030: 0da1 663c 11eb 7e3e 5b56 ba3c 3e34 2b3d
00000040: 69e4 acbd cc2b e4bd 262f 37be 958d fabc
00000050: 478c 253e 8a13 8abe dc7e a73d 54c6 2d3e
00000060: c9a9 3abe 29a4 82be 979e 45be fb7d 513d
00000070: cd0b 973e 118b 2c3e eb67 6dbd 3fe2 63be
00000080: c1f4 673d 02ff 94bd b968 a5bd fef8 d63d
00000090: 096b a7bd 0e6d cfbb 1623 50bd f25f 6b3e
000000a0: cf40 4cbd db32 a5bd 3aa8 33be c355 883d
000000b0: 2232 e03c 7fce 283e a6fa edbc 295f 543e
000000c0: 729e 323e 5688 af3a 66f4 2bbe 9f75 e33d
000000d0: a7c0 493e 97c7 d5bc 7da1 323e d8a3 533e
000000e0: 6fd1 ffbc 3c51 e0bd 70fb 043d 0bb6 b4bb
000000f0: da32 6c3c b7d7 a13d efda ecbd 42cc 333e
00000100: 91da 543e 35de 38be 35ed b3bd 025c 44be
00000110: 4bf6 a33e 3f57 ec3d c271 4d3e 3a0e 64be
00000120: d6ad ec3d 5ab3 f1bd 7fe5 f73d 04b5 e83d
00000130: 3ec1 9a3d d016 3c3d b53d 7ebd 62c2 64be
00000140: 9d18 2bbe caff 813d c177 3fbd 3586 213d
00000150: 9d3a 5dbe ffb0 b6bb 371c d7bc 097b c43c
00000160: 78ab bb3d c914 053c 3f28 16bd bc21 4b3c
00000170: f581 3a3e 1b15 9dbc 733f 0dbd cda5 553e
00000180: 0932 423d bde2 b03d 570d a1bd c2db 58bc
00000190: aea3 2e3e aaec cbbd 9b9e 8cbd b068 003e
000001a0: 3d73 b9bd 5898 893c 8467 903d 5f60 d3bd
000001b0: 291b 423e a746 9c3c d913 89bd c14e 13bd
000001c0: 4a96 c5bd 8089 e9bd 1c0e 1a3e 3c6e a13c
000001d0: 32ff 123d 79d0 383e 9fc7 7c3d 9f53 643d
000001e0: fb2c f23d a3f5 6e3c 3579 193e 3851 d8bc
000001f0: cda5 1ebe e457 263c 2455 183e 15e1 83be
00000200: aa72 8c3d ca88 5c3e cccb 8cbd 667c 18bd
00000210: 463f 06be 25af 9f3c a327 3c3d 53ab cebd
00000220: 3d96 1ebe 9ece ae3d 0c1c 0c3d 311d ca3d
00000230: 6f40 64bb f264 5e3d ef0c 42bc 3d43 0bbb
00000240: 70dc 953d c08e 3d3e d49e 033e 4866 01bc
00000250: 9501 813d 78f8 44be c790 263e 5265 083d
00000260: 3bae 943c 99d9 7b3d a98b 533e 06f5 ac3c
00000270: 281b 343e b633 9f3d 53a2 01be 1d6f dc3b
00000280: 7b47 01be 301f ef3c 1a63 7bbb 21bb 8f3d
00000290: 236a 2ebe 91f2 503e 82fd 4f3d 27fd 42bc
000002a0: 8f90 fdbd 798b 883c bdee 163e 4c25 133d
000002b0: 0c72 3b3b 8209 47bc ce02 7bbd 7247 453e
000002c0: e0f7 f43d b6e1 1c3e b2f6 27bd 8b01 ecbb
000002d0: 0bfc 133e c884 0e3e 772b 97bc 7a84 de3d
000002e0: 149e 133e 66ec 18be d0fa 02be 4fb5 fe3d
000002f0: 5944 9f3e 3dff 503e 1285 f83d 1e2a 973e
00000300: 3e25 86be 3569 6ebe b6db a83d daac 023e
00000310: 2e41 84be eb69 2abd 1840 57be 30eb c03b
00000320: 0c55 013e d60e 35be 6795 7b3c 2490 3b3e
00000330: f24d 24be e006 cebd 5cc6 c13d c60b a5bd
00000340: f92e 0fbd 303e 60be 66cf b0bd 4cd8 05be
00000350: 2825 283e 73e8 283e 3d86 9e3d e2f9 793e
00000360: 5052 91bd 911f d1bd a741 76bd d858 e7bd
00000370: 18d7 a3bd 3ad2 32be e173 e93b dfe6 43be
-0.22450411 -0.25405076 -0.23172438 0.2752492 -0.095942155 -0.057291117 -0.046771843 -0.18783946
-0.0462878 -0.07155168 -0.12896797 0.11829328 0.014076483 0.24894358 0.022746256 0.04179787
-0.08442003 -0.11141166 -0.1788908 -0.03058509 0.16166793 -0.26968032 0.081784934 0.16970187
-0.1822883 -0.2551587 -0.19298778 0.051145535 0.2950119 0.16849925 -0.057960432 -0.22254275
0.0566299 -0.072752014 -0.08076615 0.1049671 -0.08174712 -0.006330139 -0.05081471 0.22985819
-0.049866494 -0.080663405 -0.17544642 0.06656983 0.027367655 0.16485022 -0.029050183 0.20739426
0.17443255 0.0013392072 -0.1679245 0.11106419 0.19702397 -0.026096148 0.17444415 0.2066797
-0.031227795 -0.10952994 0.032466352 -0.0055148653 0.014416421 0.079024725 -0.11565196 0.17558387
0.20786501 -0.18053515 -0.08785478 -0.19175723 0.32023844 0.11540078 0.20062926 -0.22271052
0.11556594 -0.11801787 0.1210432 0.11362651 0.07556389 0.045920193 -0.062070567 -0.22339776
-0.16708608 0.06347616 -0.046745066 0.03943463 -0.2160439 -0.005575299 -0.026258571 0.023984449
0.091635644 0.008122631 -0.036659475 0.01239818 0.18213637 -0.019175103 -0.034484338 0.20864029
0.047411 0.08636997 -0.078638725 -0.013235988 0.17054626 -0.099572495 -0.06866189 0.12539935
-0.09055183 0.016796276 0.07050994 -0.10321116 0.18955673 0.019076658 -0.06693239 -0.035963777
-0.09647806 -0.11403179 0.15044445 0.019705884 0.035887904 0.18048276 0.06171381 0.05574381
0.118249856 0.014584932 0.14987643 -0.026405916 -0.15492935 0.010152791 0.14876229 -0.2575766
0.06857808 0.21536556 -0.06874809 -0.03722801 -0.13110074 0.019492695 0.045936238 -0.10091271
-0.15486999 0.08535503 0.034206435 0.09868849 -0.0034828444 0.054295488 -0.011843904 -0.0021249794
0.07317436 0.18511486 0.12853557 -0.007897921 0.0629913 -0.19235408 0.16266166 0.03329975
0.018149486 0.061486814 0.20658745 0.02111293 0.17588484 0.07773535 -0.12659578 0.006727113
-0.12624924 0.029189676 -0.003835863 0.07018114 -0.17032675 0.20405032 0.050778873 -0.011901177
-0.12381088 0.016668068 0.14739509 0.03592424 0.0028601913 -0.012148263 -0.06128197 0.19265535
0.11961341 0.15320477 -0.04100675 -0.0072023324 0.14451616 0.1391784 -0.018453343 0.10865112
0.14415771 -0.14933929 -0.1279099 0.124369256 0.31106833 0.20409866 0.12134756 0.2952432
-0.2620029 -0.23282321 0.082450315 0.1276125 -0.25830978 -0.041604917 -0.21020544 0.0058874115
0.12630099 -0.1768144 0.0153554445 0.18316704 -0.16045359 -0.10059905 0.09461662 -0.08058886
-0.034956906 -0.21898723 -0.08633308 -0.13070792 0.16420424 0.16494922 0.07740448 0.24411729
-0.07095778 -0.10211099 -0.060121205 -0.112962425 -0.0800001 -0.17463008 0.0071244095 -0.19131039

layers.0.ssm.dt_proj_layer.bias f4 [28]
00000000: 49d5 4ebe 4ba9 433e fe06 c53d 8005 91be
00000010: 486f 863e f506 183e 1b7f 8e3e a645 813e
00000020: 3ce0 abbe 270a 91bd c321 22be e7af 76be
00000030: bf0a 82bd 8a70 50be c326 4fbe f795 c73d
00000040: d11f e0bc e7d4 9e3d cf38 0abe 4f42 9abe
00000050: 7a9e 81be 1c90 83bd 50cb 283c a337 563e
00000060: 31ca 973e 7fd0 5e3e dd06 71be d699 9d3d
-0.2019855 0.19107549 0.09620474 -0.2832451 0.26256776 0.14846404 0.2783135 0.2524845
-0.33569515 -0.070820145 -0.15833192 -0.24090539 -0.06349706 -0.2035543 -0.2022963 0.097454004
-0.027358921 0.07755452 -0.13498233 -0.30128714 -0.2531622 -0.06423971 0.01030238 0.20919661
0.29646447 0.21759222 -0.23537774 0.076953575

layers.0.proj.weight f4 [28, 28]
00000000: 514e d2bd abb1 f2bd 6ecc eb3d a86b febd
00000010: 970a 273e 9852 1dbe e970 f43c 9dec 85bd
00000020: 6d4b d23d 1332 f33d 8257 a4bc 812b 1bbe
00000030: 413c 8e3d a683 16be 51af 20be d3ee a5bd
00000040: 2929 b13a e098 bc3c 98ce f33d 764b b63d
00000050: a2d2 abbd f6c0 8cbd da6a 7ebc 54ff a6bd
00000060: 4ecd 0cbd 6e02 743d 0375 013e 7903 40be
00000070: 5a11 a03d 30a6 3f3d ea24 223e 4496 f63d
00000080: 26e5 a3bc bd4f 173e e1bd 9cbd ff0d ae3d
00000090: 665e 23bb e5f8 1bbe 6ad3 093e ad0e 913d
000000a0: a5f0 cdbc 50a1 d33d 8f37 603c f259 b0bc
000000b0: a8e9 b3bd d353 10be 27d3 08be ff23 7f3d
000000c0: 49a3 2a3e 8098 fcba 0168 09be 74b2 2cbe
000000d0: 8313 b5bd 2dbd 33be 7a17 94bc ee5d d5bd
000000e0: 752d 0abe b189 37bd 0b84 0bbd 6f4c 213e
000000f0: e442 c9bd 43f4 d53c d515 9f3d 3289 b33d
00000100: 4efb 2d3e 028e 3f3d afa1 26be 452f 8a3d
00000110: 4953 ea3d 0824 dbbc 71fa 06be cc13 153d
00000120: efce 35bd e4d7 193e 789c 09be ae7d bbbc
00000130: 8f71 20be 9193 833d 3d42 203e 5ea2 9cbd
00000140: 71dc 053e fed0 4fbd c8df 683d c17e 213e
00000150: b235 23be a73a 163e df76 0cbe 0bb7 c23d
00000160: aeae 8ebc eaa0 923d 2cbf 113d e29f a63d
00000170: 4eee 093e 2390 0a3e e96d aebb 0ede 22be
00000180: 5b78 87bc 9000 303e 1a5f 1cbe 5f58 e7bd
00000190: d411 b9bd b8fd 313c 54ab fbbc d655 753c
000001a0: b476 e83c abf3 323e 03b3 a53c 9f67 c3bd
000001b0: 6858 1abe 0123 98bc 2ccd 263e 4db4 4bbd
000001c0: 1372 ca3d 9fa7 02be a277 253e cb94 0dbe
000001d0: 7d87 e83a 2205 14be 5354 c03d e8e8 04be
000001e0: cc55 04bd b99b b4bc f4f2 88bb 978a 21be
000001f0: dca7 02be 8ac2 b3bd c783 43bd 66de 3bbe
00000200: 8622 f33d b3fa c33c 98f2 14be e685 4a3e
00000210: ee14 bdbd df2d 88bd b3fb e13d c90e 5c3d
00000220: 0114 adbd 4647 08be 0ba5 843d 633d 65bc
00000230: 2df3 9fbd bc62 ba3a 1898 fdbd 912b 08be
00000240: 62b2 923d 4e1d 88bd faaa 9f3d ef5e ba3d
00000250: 23fb b4bc 8eac fabd b091 ef3d a613 e93d
00000260: fa4c 183a ce50 fcbd 4339 ba3c f807 343d
00000270: 05f0 e0bd 2e92 30be 91ec a5bc 9411 c13d
00000280: 1e4e 07bd 6e9b c7bc 0145 d43d f721 96bd
00000290: d62d be3d 328c c73b 82db 623d 6315 10be
000002a0: 8bf0 483e e3ea af3d 41a7 90bc a31d d1bd
000002b0: 7fdc 87bd 6977 713d 43bc 7abc 3d54 b2bd
000002c0: 4a5b af3c 42da 6d3d e855 c73d 1119 fc3c
000002d0: afaa 3abe f84f 143d 8761 10bb dfc2 acbd
000002e0: 8ba8 a03d 79a2 abbc fedf 80bc 3f28 2fbd
000002f0: 07f9 9a3d 27d9 3fbe 6971 adbd e0dd 49bc
00000300: 52f6 363c 49f2 263e 06dc f7bb a177 9ebc
00000310: 8eef 0b3e 7a59 cbbd cc96 a73c 245d 2f3d
00000320: 59e9 a9bd 6eed 133e 9c30 4d3d 1a87 9d3d
00000330: d59a f23b f58a 103d b0e9 0cbe 628d e73d
00000340: 21b7 22be 7357 0d3e 2a70 97bc 4f4a 72bd
00000350: 338f a63a c3c3 bc3d ce9e 7c3d 21e8 c73d
00000360: 2e1d dabd 4e00 a4bd ec9e 90bd 428c 39be
00000370: 9284 96bd 9d44 5e3d 1203 b0bd 8309 6c3d
00000380: 21ec 05be ae64 243e 2ba7 89bd 1d0f ffbd
00000390: 5a10 19be 0393 1dbc f680 a43d 3171 a03d
000003a0: e94c c8bd 04e4 e63d b299 ab3c b3a3 c7bd
000003b0: 508e 2a3d 9191 6cbc 450c 903d cace acbb
000003c0: 266f c739 d87b ab3d e191 d8bd 5aac 103e
000003d0: 0dda 57bd b335 113e 8c66 08be e440 eebd
000003e0: 86fa 1fbe c0f5 79bd d81c 5ebd bd04 f5bd
000003f0: cff7 ed3d 90f8 f3bd 81d6 0abe fe2f da3d
-0.10268844 -0.11850294 0.11513601 -0.124228776 0.16312633 -0.15363538 0.029838996 -0.06539271
0.102682926 0.11874785 -0.020061258 -0.15153314 0.06945086 -0.14698657 -0.15691878 -0.08102193
0.0013516295 0.023022115 0.11904639 0.08901112 -0.083897844 -0.06872742 -0.015528405 -0.08154169
-0.03437548 0.05957263 0.12642293 -0.18751325 0.078158095 0.046789348 0.15834394 0.1204038
-0.020006727 0.14776511 -0.07653404 0.08498763 -0.0024928092 -0.15231664 0.13459554 0.07082877
-0.025139162 0.10333502 0.013685121 -0.021527264 -0.08784801 -0.14094476 -0.13361798 0.062290188
0.16663851 -0.0019271523 -0.1341858 -0.1686495 -0.08841612 -0.17552634 -0.0180776 -0.10418306
-0.13493903 -0.044809047 -0.034061473 0.15751813 -0.098272115 0.02611745 0.07767836 0.08766402
0.16990396 0.04676629 -0.16272615 0.06747297 0.11441667 -0.02675058 -0.13181473 0.036395833
-0.0443868 0.15023762 -0.13438594 -0.022887077 -0.15668319 0.064246304 0.15650268 -0.076481566
0.13072373 -0.05073642 0.05685404 0.15771009 -0.15938452 0.14670812 -0.1371722 0.09507569
-0.017417278 0.07159598 0.035582706 0.08135964 0.13469812 0.13531546 -0.005323161 -0.1590502
-0.016536882 0.17187715 -0.15270653 -0.11296152 -0.090366036 0.010863714 -0.030721344 0.014974078
0.028376915 0.17475764 0.020226961 -0.095412485 -0.15072787 -0.018571379 0.16289204 -0.049732495
0.09885039 -0.12759255 0.16158918 -0.13826291 0.0017740574 -0.14455083 0.093910836 -0.12979472
-0.032308385 -0.02204691 -0.004179353 -0.15775524 -0.12759346 -0.0877734 -0.047733095 -0.18346557
0.11871819 0.023923254 -0.14545667 0.1977764 -0.09232508 -0.06649374 0.11034336 0.053725038
-0.08451081 -0.13308439 0.06476792 -0.0139916865 -0.07810054 0.0014220099 -0.12382525 -0.1329787
0.0716293 -0.066462144 0.07796283 0.091001384 -0.022092408 -0.122399434 0.116977096 0.11380701
0.000580981 -0.123201 0.022732383 0.043952912 -0.1098328 -0.17243263 -0.020254405 0.09427181
-0.033033483 -0.024366107 0.10364724 -0.07330697 0.09286086 0.0060897106 0.05538512 -0.14070658
0.1962301 0.08589723 -0.017657878 -0.10210731 -0.06633853 0.05895177 -0.015303674 -0.087074734
0.021405835 0.058069475 0.09733182 0.030773671 -0.18229173 0.036209077 -0.0022030787 -0.08435606
0.07844647 -0.020951496 -0.015731808 -0.04276299 0.075670294 -0.18735181 -0.08468897 -0.0123209655
0.011167126 0.16303362 -0.0075640706 -0.019344153 0.13665602 -0.09929176 0.020457648 0.042813435
-0.08296461 0.14446041 0.050095186 0.07691784 0.0074037113 0.03528877 -0.1376102 0.113062635
-0.1589017 0.1380289 -0.018486101 -0.059152897 0.0012707472 0.09217026 0.061674885 0.09761072
-0.10650097 -0.080078706 -0.07061562 -0.1811991 -0.073495045 0.054264653 -0.085943356 0.05762626
-0.13078357 0.16054031 -0.06721338 -0.124540545 -0.14947644 -0.00961757 0.0803241 0.078340895
-0.097802944 0.11273959 0.020947311 -0.0974802 0.041639626 -0.014439003 0.0703359 -0.0052736746
0.0003803905 0.08373231 -0.10574699 0.14128247 -0.052698184 0.14180641 -0.13320369 -0.11633471
-0.15622911 -0.06102538 -0.054226726 -0.119637944 0.11619531 -0.11912644 -0.13558389 0.10653685

layers.0.proj.bias f4 [28]
00000000: 305d c43d 4a5d ecbd da4a 083e 76ba b1bc
00000010: 6909 b1bd fcbf cbbd f80e d0bd 6ea5 86bd
00000020: ed6b 9c3d e28f 75bb 1cbf 91bd e666 bdb9
00000030: bfa0 683d a168 16be e004 173e 28a9 2b3e
00000040: b80e b5bb 2504 09be 2a53 0d3e 1d30 35bd
00000050: b96f c63d 3bc3 26be ce7a d5bd 6304 903d
00000060: 01ea e6bd cb82 ed3d 7d59 563d f1c4 32be
0.095880866 -0.11541231 0.13309804 -0.021695357 -0.08644373 -0.099487275 -0.10159105 -0.06574522
0.07637773 -0.0037469794 -0.07116529 -0.00036125554 0.056793924 -0.1468835 0.14747953 0.16763747
-0.0055254363 -0.13380487 0.13801256 -0.044235338 0.09689278 -0.16285412 -0.10423814 0.07032087
-0.112751015 0.115972124 0.052331436 -0.1745794
